pyTorch/noisey_features/models/swag/ow_0.0_128_NF_model_1.pth (torch, 469469 bytes, 10 tensors)

module.model.input.weight f8 [120, 60]
-3.600842161818229e-08 1.9703538969346927e-08 -0.4867793223177473 3.238416648990513e-08 2.015227646997485e-08 -1.7637706318595427e-10 -0.46172990581876483 -0.4942175362227993
-0.48552201817523033 -1.2925390199659222e-08 -0.4679548237269163 -0.5392114854634511 -0.5338518822034505 -0.5486578217799063 -0.30521681521967503 -0.47106843556143685
-0.5272655227155327 -2.3128161982451227e-08 0.24096650835095793 -2.0231789093472366e-08 -0.5305467562964643 -2.343756214335003e-09 -0.44521461200460694 -0.5438969883281188
-0.3708682432124438 -0.4806974994455017 -0.327223085373424 -0.521537712650719 -0.4404828207205415 -0.4784349777468756 -0.6010653127089997 7.223837971044773e-09
-0.5596129512353025 -0.38967716874362085 -0.5641769644868228 2.970907423721945e-08 -0.43709294604103355 -0.4860779990867837 -0.6046362326562962 -0.4908029828586992
-0.561942675732008 -0.5787879860200396 -0.41682233166612354 1.9420795320092364e-08 -0.4505493111741044 -6.239720988734731e-09 -0.20727967109258322 -0.621268069561402
-0.5526991489313562 -0.2537983343680701 -0.43595982994205595 -0.5441220563624349 -0.38021243620792144 -0.3551078781884356 -0.38351349226790643 -0.5166720075935098
-0.45929782616792275 -0.4140320068896654 -0.6089343878505644 -0.45471311428838934 2.5684615761075625e-08 -3.4770768302202436e-08 0.49200532620792986 -9.886629571340173e-09
5.532416899138307e-09 -0.47611581590086477 -0.5103497331132906 0.544156706085838 -0.5447365800945199 -7.825481112530764e-09 0.52513727876804 0.017322863613769127
-0.5136879349398553 -0.5849635812192573 -0.5325197466776839 0.587036775597306 -0.48955895845077 -0.48127929756486615 -4.677155013937869e-09 1.4007073999746562e-08
0.5801228704794968 2.2143481349983045e-08 -0.5042507077991134 -0.4655836275108666 -0.6480141503323132 -0.5744544402847803 -0.7212603851661413 -0.5092144403570856
-0.7392999719114121 -0.43634396917085755 -0.37324051031259553 3.1848776502666974e-09 -0.44576327098918983 -0.5345415759099252 -0.6304541746558805 2.1520317429489924e-08
0.567075272463403 -0.2745390705447949 -0.5108392887778496 -0.5606982323246825 -0.6480374615473952 -0.4107410516674643 -0.3459455473320737 -0.4501684872727546
-0.3477657893686547 -0.585188497500069 -0.5731982245901178 -0.7729984372786547 -0.45884888524577055 -0.6320896577427536 -0.7654302176630849 -0.36919372258838007
-0.44468396938243304 -0.4448764936543608 -0.018508788302887814 -0.4724480033055553 0.09145707136856038 0.07857709811418498 -0.47870903188021147 0.04212525383205095
2.7556473413591167e-09 1.0134945613750442e-08 -0.16678243470319543 2.7927683037166408e-08 -6.295805722104399e-09 2.2486611879573227e-08 1.878297658415973e-08 1.5229859318521528e-08
2.2199743271281235e-08 -3.191988305499236e-08 -1.9489956844336203e-08 6.669339265041935e-09 6.400551249882273e-09 -3.2404173875182162e-09 -0.1530640283517153 -2.5630942483467763e-08
-0.1572613196311299 -1.361150197105407e-08 -0.1399125113529452 -2.8896700243906725e-08 2.2349884320104188e-08 -1.3293450100587399e-08 3.525874063490913e-09 -2.0017597352330523e-08
-0.16522382831974003 -1.4673805859733374e-08 -0.15447134771269 1.682651359916818e-08 -0.12440285083535955 -1.2961026463770448e-08 1.4475229382878651e-08 2.922857623273336e-08
-2.295673263685357e-08 -0.13041001290830084 2.59522058048114e-08 -1.708801374749385e-08 -0.1470035119063442 2.9038488652184474e-08 -3.8945719475243e-09 -8.54948742151264e-09
-0.15030710600615604 -0.11905232501880202 -0.12418098770213429 -1.4226970975765576e-08 -0.1182939251945754 -8.482023505935182e-09 -0.11095505920084922 -0.15624571557657724
-4.669890812354504e-09 -0.14050764204211466 -0.16536363194953485 1.040903699708548e-08 -0.13479356912842544 -0.11442147472287534 -0.1407885216794525 -0.134501789345556
-0.15353768130656453 -0.12774219298485215 -0.13192722058532308 -0.15798112843461215 -1.66142379474973e-08 -2.2904013119858714e-08 -0.3565269885469761 -2.5283341580342994e-08
-1.7706528704641497e-08 -2.4566697169061166e-08 -0.4716103489365472 -2.655769722935703e-08 -0.39351632582947466 2.89406513131018e-08 8.912013739363105e-09 2.1353548468289992e-08
-0.40534732300764525 -1.4393877125388827e-08 -0.38204765194256524 -1.2874085330478718e-08 -0.4284596378396262 2.951742265280881e-08 -3.5648995494080797e-10 -8.495808293379434e-09
-4.981094114520157e-09 -3.0069202319478766e-08 -0.39125344242784754 -2.3516141479524045e-08 -0.37245041028274883 -0.42234438289616594 2.0998224023295605e-08 -0.3580352665034217
-0.46611351940727863 -0.42363785490307526 -0.3688111318716769 -2.43874751569426e-08 -0.4720638658399555 -0.39149519720246745 -0.3947112018224009 -2.09184131530741e-08
2.3883894133634032e-08 -0.4090286739279284 -0.4603254623853711 3.703641624594152e-08 -0.354614786878029 -7.659156696610791e-09 -0.36878944290053123 -1.1343398926861212e-08
-2.2491368838486528e-08 5.285958605353263e-09 -0.47161115622119576 -0.41721412363816057 -0.36904075861304075 1.2436658779827058e-08 -0.342182487545992 -0.45852467229888166
-0.3882595916953341 -0.3743412573912997 -1.1430747807716362e-08 -0.4319489955819307 -0.3971623499987024 -0.42830178006757075 -0.3786598211068271 -0.42479961116173337
1.9658924772481048e-08 1.2725307433123143e-08 -0.4507031764634304 2.6109760330108186e-09 1.5879211309516864e-08 5.035919225140347e-09 -0.6056811368633871 -0.4926696777777391
-0.5068372635210303 2.2965627923125502e-08 -0.5087327406983005 -0.5836548400216389 -0.5446639031074301 -0.4745165026541473 -0.2193206630219854 -0.5656056978220292
00000000: da1a 5db4 f554 63be f679 0a4b 1128 553e
00000010: 3552 6e75 6427 dfbf caf5 4590 d862 613e
00000020: f610 3463 6aa3 553e a00a 225a b73d e8bd
00000030: 8ee9 4497 fb8c ddbf 8ef1 cb96 42a1 dfbf
00000040: ea3b 63f1 ca12 dfbf 40f9 e4f3 cec1 4bbe
00000050: 3a67 fac9 f8f2 ddbf e42d f671 3841 e1bf
00000060: 8319 df8a 5015 e1bf 4ca8 27d9 9a8e e1bf
00000070: a8b2 e31b ac88 d3bf 2683 3a39 fc25 debf
00000080: cee3 0bf2 5bdf e0bf e964 beb6 6bd5 58be
00000090: fd3a 6694 fdd7 ce3f 6323 4a97 45b9 55be
000000a0: ac59 e930 3dfa e0bf 2002 a273 f921 24be
000000b0: 1fb6 906d 657e dcbf a663 28a8 9a67 e1bf
000000c0: 223c ee27 4ebc d7bf 4bcb d871 bfc3 debf
000000d0: 6134 8b18 39f1 d4bf 3ee5 6edb 6fb0 e0bf
000000e0: 9f73 5cdb de30 dcbf 42dc abbd ad9e debf
000000f0: 9b0b 9b52 ed3b e3bf e6ce e99f b106 3f3e
00000100: 4828 7f6b 59e8 e1bf 431c f081 78f0 d8bf
00000110: 2114 74d9 bc0d e2bf cd34 a83e 5ee6 5f3e
00000120: fcbe 23b1 54f9 dbbf ad80 58e5 e61b dfbf
00000130: b888 a715 2e59 e3bf 3712 0aea 5069 dfbf
00000140: d5dc cf34 6ffb e1bf c4c2 e861 6e85 e2bf
00000150: dde6 af92 37ad dabf f668 44fa 58da 543e
00000160: 4999 2ec7 ccd5 dcbf 238b ea51 a5cc 3abe
00000170: a6f0 3be8 2388 cabf bb16 1a93 6de1 e3bf
00000180: 9cfd 2520 b6af e1bf f4f7 785e 3b3e d0bf
00000190: 7022 fe0e c4e6 dbbf 547c a3a8 7269 e1bf
000001a0: 9ee9 c28a 6655 d8bf 18c3 d764 16ba d6bf
000001b0: d462 b72c 7c8b d8bf e2ed ebbb 9388 e0bf
000001c0: bff7 a0b5 2265 ddbf afa7 451a 807f dabf
000001d0: 664b 27f8 637c e3bf 9094 bb08 051a ddbf
000001e0: 3d08 e227 2294 5b3e 629f 56a6 dbaa 62be
000001f0: f155 61e8 037d df3f 5c0a 076a 3b3b 45be
00000200: 5b78 f7ea f4c2 373e b9c3 9978 ae78 debf
00000210: 1fce a7f6 c854 e0bf 5135 1153 bb69 e13f
00000220: 6c1b 8e68 7b6e e1bf 5f40 948e 1ace 40be
00000230: 6a03 c7b1 eccd e03f 24de c6b2 15bd 913f
00000240: 9853 1dae 2170 e0bf 0c02 568b 05b8 e2bf
00000250: 308e 0eda 660a e1bf caab 1759 01c9 e23f
00000260: e0a1 0019 ef54 dfbf e51b d2ae 47cd debf
00000270: e72d 3f19 9616 34be 036b f769 7814 4e3e
00000280: e9df 8bd6 5d90 e23f 4106 6df9 c0c6 573e
00000290: e86c 5f61 d222 e0bf fb94 6d45 1fcc ddbf
000002a0: 6db8 e02b 88bc e4bf 6f15 4247 ee61 e2bf
000002b0: cd0b c6a8 9014 e7bf 0d82 ff14 7c4b e0bf
000002c0: 2b62 296a 58a8 e7bf 9552 5941 0fed dbbf
000002d0: cc6f 552a 2ce3 d7bf 2b18 91b9 9e5b 2b3e
000002e0: 0305 aaab 6287 dcbf 7255 5cef f61a e1bf
000002f0: fac1 b83b ae2c e4bf aab2 39b6 751b 573e
00000300: 2838 b30a 7b25 e23f 53b4 5d52 0c92 d1bf
00000310: 2902 daa2 cb58 e0bf 004e 586b 3df1 e1bf
00000320: b6b9 fd0e b9bc e4bf 7754 02d6 9449 dabf
00000330: a63c ffca f823 d6bf 76ae a17c 8fcf dcbf
00000340: 3f62 0071 cb41 d6bf f642 583a ddb9 e2bf
00000350: 99ac 97cd a357 e2bf da11 ff37 67bc e8bf
00000360: eff1 fbb6 c75d ddbf 83a3 0417 143a e4bf
00000370: a675 0783 677e e8bf 2bf5 19b5 dea0 d7bf
00000380: 9a64 63c0 b375 dcbf e14b c041 db78 dcbf
00000390: 3d47 ccc1 f7f3 92bf c780 d08c 963c debf
000003a0: 5612 840a bb69 b73f 2671 9df2 a01d b43f
000003b0: cd6b 0e35 2ba3 debf 07b6 16f7 7091 a53f
000003c0: 48e6 de8a bbab 273e e8e8 50ca bec3 453e
000003d0: 387a 4c77 2059 c5bf 7292 adfb b3fc 5d3e
000003e0: bd74 ddc4 4f0a 3bbe c0d4 86a3 1225 583e
000003f0: 529e 6179 062b 543e 80d7 0113 5a5a 503e
00000400: 5cd8 180e 38d6 573e d545 dd0a 0923 61be
00000410: 48c7 86c9 5bed 54be 82f8 421d 04a5 3c3e
00000420: 763d 9503 7b7d 3b3e 1618 3fd1 c0d5 2bbe
00000430: 2079 fb21 9a97 c3bf f51f 123c 6185 5bbe
00000440: a9e9 5e90 2321 c4bf ed69 a399 003b 4dbe
00000450: d2f3 4736 a7e8 c1bf 0e83 cd81 1007 5fbe
00000460: 767e c84a 7dff 573e 0615 5bc7 268c 4cbe
00000470: c6b1 caa3 7a49 2e3e 7440 e82f 657e 55be
00000480: 209c 93ed 0d26 c5bf 8be6 d094 0283 4fbe
00000490: 882a 4c95 b7c5 c3bf 8629 80a1 3c11 523e
000004a0: 0bf6 dd7f ddd8 bfbf 06e0 9e4f 66d5 4bbe
000004b0: 001a 3d6d d715 4f3e 1609 1f34 4a62 5f3e
000004c0: 3f27 3272 4ca6 58be 2a8c 417a 46b1 c0bf
000004d0: 1a66 9121 b0dd 5b3e 2b03 6211 1e59 52be
000004e0: 7077 04d6 02d1 c2bf a08a b1fa 092e 5f3e
000004f0: 1da1 588c 20ba 30be 7505 ed62 215c 42be
00000500: 7090 5364 433d c3bf bff0 7792 367a bebf
00000510: 8234 f740 53ca bfbf 4e05 7b29 5c8d 4ebe
00000520: 32b3 06bc 8248 bebf 6496 34af 0a37 42be
00000530: 7ee8 97fe 8c67 bcbf 6e50 450f dcff c3bf
00000540: cfab 5b68 990e 34be b558 b487 27fc c1bf
00000550: 68e4 95af a22a c5bf 4981 21b9 6d5a 463e
00000560: e010 8f69 ea40 c1bf 4014 e5cb b94a bdbf
00000570: caf9 21b8 5b05 c2bf f80e 3fc9 5a37 c1bf
00000580: b02a f56b 1fa7 c3bf b139 982e db59 c0bf
00000590: b2dd eebc fde2 c0bf ce83 01c2 b938 c4bf
000005a0: 8e4c 510f e3d6 51be daba cea3 ce97 58be
000005b0: 1bd7 fc92 56d1 d6bf 0d31 e1fe d425 5bbe
000005c0: 1214 4e30 2203 53be c37f dda0 d760 5abe
000005d0: bece 482c dd2e debf eb40 62cd 1f84 5cbe
000005e0: 934c 7819 5f2f d9bf 55d0 e049 2513 5f3e
000005f0: 0db5 0b6e 6e23 433e 4706 b363 9eed 563e
00000600: edb1 f5e5 35f1 d9bf 233c 441d 1ee9 4ebe
00000610: 97d7 a6fe 7773 d8bf 3d38 2d6f 9aa5 4bbe
00000620: 3957 0bf9 e16b dbbf 62f8 a3f6 afb1 5f3e
00000630: e842 3a07 707f f8bd 80a2 83b8 9e3e 42be
00000640: 3e9d 9159 c564 35be 9700 b900 ae24 60be
00000650: 9833 ebe0 4b0a d9bf 3c7b 0458 1140 59be
00000660: c0f4 e23e 3ad6 d7bf ac0d 0cbc b007 dbbf
00000670: d709 8ca7 f28b 563e 0999 1cc0 0cea d6bf
00000680: 6af9 84cc cdd4 ddbf d800 0af3 e11c dbbf
00000690: bc88 7201 9a9a d7bf 7804 1e00 942f 5abe
000006a0: eefa 595c 4b36 debf 8da4 21df 410e d9bf
000006b0: d54a ccc5 f242 d9bf 2ab8 b976 0276 56be
000006c0: 13ae e1a2 27a5 593e 8a63 699a 862d dabf
000006d0: 1285 9ded f875 ddbf 6108 cf0c 3fe2 633e
000006e0: dd6c 1438 02b2 d6bf b268 f579 aa72 40be
000006f0: b58a 1709 3f9a d7bf 72e6 7079 195c 48be
00000700: e4bd 4761 6126 58be a02c 4913 f9b3 363e
00000710: a885 198f e02e debf 0022 1dde a2b3 dabf
00000720: 1e94 4821 5d9e d7bf e6c2 c51e 20b5 4a3e
00000730: 9c88 5160 51e6 d5bf 39b3 fbdd 7758 ddbf
00000740: 3e25 2cc2 3ed9 d8bf 7181 8208 35f5 d7bf
00000750: b607 8abc 1e8c 48be cc1f 6466 0da5 dbbf
00000760: 8b9a 1ca2 1b6b d9bf ff5c 8dde 4b69 dbbf
00000770: 55a2 fd66 f63b d8bf 28c3 52b5 ea2f dbbf
00000780: 1191 1ed9 cd1b 553e 580c 83ce cf53 4b3e
00000790: b047 c722 52d8 dcbf 7a14 0fd6 986d 263e
000007a0: c3c0 8b28 d80c 513e a609 223f 0da1 353e
000007b0: 313c 5468 bd61 e3bf e151 7266 e687 dfbf
000007c0: 54f1 e6c7 0238 e0bf c67b 6d65 bea8 583e
000007d0: 4b84 76e2 8947 e0bf 0f71 41ea 4cad e2bf
000007e0: 5c0f 65fe e26d e1bf 83f5 1377 7a5e debf
000007f0: 7d1b 8211 b312 ccbf c075 d21e 7119 e2bf

module.model.input.bias f8 [120]
-0.411577102796973 -0.5176611230768662 -0.11488621363415788 -0.3843453583188854 -0.4242300639778816 -0.4798762745848696 -0.3847756009512137 -0.4886283932772334
-0.11868088735487035 -0.4151638136583328 -0.19499127786389864 -0.5792746802396009 -0.5004434203907995 -0.426161333874143 -0.5558526140689983 -0.6307970154048599
-0.023885395643322958 -0.020521314214287163 -0.6962921609954876 -0.4672622753610337 -0.4263492874986956 -0.5050200365215162 -0.45351836823733005 -0.40052826069322645
-0.4402362337779268 -0.5478439429407821 -0.4139174446062789 -0.4689803230451534 -0.11862046672409893 -0.6500386970553206 -0.4570873296893792 -0.669527142504966
-0.4140222251368101 -0.4215503819286423 -0.5418333240356801 -0.18823374808288845 -0.46005814264087014 -0.13946690656012947 -0.5368095227460512 -0.4648412392902085
-0.3777465951432521 -0.4970001500349292 -0.6198329314332627 -0.5561786656089798 -0.46262263155404065 -1.3979484269746962 -0.48313656325401466 -0.09922010999127766
-0.4625623613283184 -0.33571458738380366 -0.5952671430836464 -0.4768683652508436 -0.4978887829877385 -0.4472985592540087 -0.18498623825636373 -0.4668122029220099
-0.5415541833860531 -0.06643783754438173 -0.4465537744338554 -0.40723540454333523 -0.0576567518034598 -0.49979101491491623 -1.5566722362050132 -0.49598902321279864
-1.7277422326305971 -0.5330374828827154 -0.16054199449609724 -0.3807167024154033 -0.08012555584205845 -0.5518204709442825 -0.05000406090478595 -0.45184126679303954
-0.046445943723063134 -0.4848069838093915 -0.44651059649711755 -0.4783132177687607 -0.4663345642382628 -0.5910336324291754 -1.2252385006388837 -0.32180429339643984
-0.11535403117279176 -0.4671808455235868 -0.5530813186796436 -0.5479812800935827 -0.46642681808880293 -0.5633673087470447 -0.4809841047284972 -0.06242935448626478
-0.3622347450286472 -0.4552251611641016 -0.5959389624198467 -0.5545154755017663 -0.4363764538895556 -0.6155851104465272 -0.00028136325268214655 -0.07328620912643664
-0.4343566357105851 -1.8179488359307183 -0.4243792360280416 0.4316626494479235 -0.08079944067392128 -0.5943213464089175 -0.05195913363733285 -0.4888882132453561
-0.46114717585764003 -0.17432956081855752 -0.6283118584859818 -0.3929291831566825 -0.5270426030775374 -0.447441512521363 -0.005155058772440719 -0.5538282566135765
-0.3824858730197062 -1.5898427978822893 -0.49993816899180715 -1.8410925535866178 -0.3990813953115573 -1.5388326021305327 -1.7506066668286615 -0.48942021084648385
00000000: 50e8 127d 4757 dabf 1ed3 400f ae90 e0bf
00000010: 0aea 51d2 2e69 bdbf 4056 1646 1d99 d8bf
00000020: 95f5 b0da 9526 dbbf 22f9 5dfa 4ab6 debf
00000030: e396 98d7 29a0 d8bf a274 4106 b045 dfbf
00000040: 1f74 d9e1 de61 bebf 974a 893e 0b92 dabf
00000050: f620 b764 79f5 c8bf 4cf5 e00d 6b89 e2bf
00000060: aa75 82eb a103 e0bf a0c9 f32f 3a46 dbbf
00000070: 9251 da6b 8bc9 e1bf 4881 f238 7d2f e4bf
00000080: 8974 8fc4 6975 98bf 226a af15 8a03 95bf
00000090: 27fa 7d7f 0648 e6bf c621 d507 a0e7 ddbf
000000a0: 08b5 9e85 4e49 dbbf 8de8 95c7 1f29 e0bf
000000b0: 4cbc ede7 7106 ddbf 5e46 3349 41a2 d9bf
000000c0: 37c9 a598 d42c dcbf 53c1 4705 f087 e1bf
000000d0: a6fb f497 9f7d dabf 9f92 7c0b c603 debf
000000e0: e45c 3731 e95d bebf f195 1ff4 1dcd e4bf
000000f0: 7da3 1b37 eb40 ddbf 2cfb 9a2f c46c e5bf
00000100: 66e7 3113 577f dabf 2ffd ff73 aefa dabf
00000110: 0cb8 d3d6 b256 e1bf 427f 0220 0b18 c8bf
00000120: a5aa 39b5 9771 ddbf d767 4635 0dda c1bf
00000130: 6405 0c2a 8b2d e1bf fa58 2578 f5bf ddbf
00000140: 1f33 140e 002d d8bf 8f74 a0b7 d9ce dfbf
00000150: 68ab 2fdf abd5 e3bf 6ac0 7033 37cc e1bf
00000160: ff7f 3af4 9b9b ddbf 8d9d 752b ff5d f6bf
00000170: 8a61 ab9e b5eb debf 9b9f 8437 7d66 b9bf
00000180: 9e00 9129 9f9a ddbf e8a0 6609 597c d5bf
00000190: 03af fdad 6d0c e3bf 73f5 4fe4 0285 debf
000001a0: a390 fee9 68dd dfbf 05cf e222 8aa0 dcbf
000001b0: ecb4 c209 a1ad c7bf b11e 3b4a 40e0 ddbf
000001c0: 74f6 5470 6954 e1bf 3257 78f3 1102 b1bf
000001d0: 3f52 4648 5694 dcbf 775d 1216 2510 dabf
000001e0: d765 c78e 2f85 adbf cb3a f973 93fc dfbf
000001f0: ae77 9125 21e8 f8bf e1ee 77be 48be dfbf
00000200: 2210 110a d5a4 fbbf e0bf 909f a40e e1bf
00000210: 9e67 ffdb a38c c4bf 5991 7a96 a95d d8bf
00000220: c55b eac1 1b83 b4bf 2502 7f67 83a8 e1bf
00000230: b3a9 81dc 219a a9bf 07ff f6a1 f7ea dcbf
00000240: 4513 a542 c3c7 a7bf f75b 15df 1307 dfbf
00000250: d271 512e a193 dcbf 36ed e30a af9c debf
00000260: bc74 99ed 6cd8 ddbf 12d2 435d bfe9 e2bf
00000270: 8eb4 a0af 939a f3bf 0168 f608 7198 d4bf
00000280: d951 597f d787 bdbf 0bda 357d 4ae6 ddbf
00000290: 733e f897 d7b2 e1bf 154f 9a09 1089 e1bf
000002a0: cccc 6ade efd9 ddbf eb87 d6e0 1a07 e2bf
000002b0: 5e1a ed8d 71c8 debf 5565 a887 bdf6 afbf
000002c0: 39de d7a3 da2e d7bf 8808 e1b6 6822 ddbf
000002d0: 5b2c 4096 ee11 e3bf c0fd 0c3d 97be e1bf
000002e0: 54ce 8c81 97ed dbbf 5bb7 a88b dfb2 e3bf
000002f0: 0ef1 f3f7 7d70 32bf 0524 728f e2c2 b2bf
00000300: f55c 4bc6 7fcc dbbf b2fa c184 5116 fdbf
00000310: c0e1 f586 0729 dbbf 9525 9260 5ca0 db3f
00000320: 06c6 3aab 45af b4bf f982 4433 ae04 e3bf
00000330: 41d4 6637 639a aabf b579 d2c9 f149 dfbf
00000340: 81e2 bc71 6f83 ddbf 2f8b 3859 6e50 c6bf
00000350: 575c 7c78 211b e4bf 1353 d371 c025 d9bf
00000360: ab22 fa72 88dd e0bf d6ba c9b9 e1a2 dcbf
00000370: 07ad 628d 781d 75bf 3531 3809 f6b8 e1bf
00000380: 2f4e f306 a67a d8bf 19f8 6a00 ff6f f9bf
00000390: 3be2 75a9 fcfe dfbf b704 2977 1d75 fdbf
000003a0: 2c88 53b1 8c8a d9bf 1eb5 42ef 0e9f f8bf
000003b0: ca04 e322 7c02 fcbf 9992 e525 a952 dfbf

module.model.hidden1.weight f8 [120, 120]
-0.024512662207598294 2.066162505530189e-08 -0.006634554189402087 -1.1013363150266018e-08 -0.21323082748300004 8.963146280187867e-09 -0.15759304896201737 -2.1630326519778447e-08
-0.11646945128119761 -0.08012788473085766 2.549873277661315e-09 -1.5700449553038878e-08 -0.04325619423657238 -0.11820489199304691 -2.6330555853159262e-08 2.3515411873792585e-08
-0.004515893249650459 -0.04572430985001462 -4.1146767640430216e-09 -1.1952877250267192e-08 -0.03936897910381504 -2.4971754557106312e-08 -2.7769182418293355e-08 -0.029992273830873134
-6.89717342780365e-09 2.2998031478298838e-08 -0.011129756953014866 -2.280879504170536e-08 -0.00024202328174208068 -2.6290892746430483e-10 -0.12789912651199695 -4.350585711792379e-09
-2.0033489236465683e-08 -0.07585669500247616 1.4083728456483447e-08 -0.18749892474001187 1.6222018955349933e-08 -0.006950893465472158 -0.05181690134266667 -5.468712614502082e-09
-0.04177674276414529 -1.0953751016844555e-08 -2.6882347214382815e-08 -2.170133557442003e-08 2.3617164648791005e-08 -1.1484561962171683e-08 -6.115015834223083e-09 2.937934044204769e-07
-0.09012496021945567 -1.646848385207498e-08 -0.014860275143916324 2.622202065987499e-08 -0.055315598908774063 -8.260801020095176e-09 -0.06227334815664241 -0.17084986487396892
-0.08098592666628589 -0.19876964570338562 -2.0066368289389396e-08 -2.5859109200509833e-08 -0.020543246124106712 -0.11720776643174934 -1.990947352265485e-08 -1.4894604331797395e-08
-1.87601212729646e-08 1.1158220012089185e-08 -0.007937387807279735 -0.29591657032226 -0.05524588078875385 1.2054302974609195e-08 -0.07259157779910236 2.2665994240661953e-08
-0.012235977986887641 1.853650000255853e-08 -2.5616747994307574e-08 -1.8758341616456065e-08 4.3562623552319665e-09 -0.015061695486548576 -0.08263767608496891 1.8070947392810394e-08
-0.041851676157804836 2.1332247694769138e-08 -1.216910337520795e-08 1.8855453880389725e-08 -2.4909443073982515e-08 -0.16966099982737434 -2.4307251589663308e-08 -0.03659929358238045
-1.7054413980964934e-08 -1.900528219468102e-08 -0.1458208829576658 -0.20525732255012172 -2.41404080706224e-08 -1.9778964766754086e-08 -0.12180199835690532 -0.0005858386570668908
-2.779227861188295e-08 1.7068466825583652e-08 -0.09080605987223381 -5.515870345543214e-09 -0.09323500942356944 -0.02820196224821756 -0.06261090450005499 9.734221299810522e-09
1.6614041750496975e-08 -0.0691931377719676 1.6641264318726065e-08 -0.1665994247881537 -2.3395960910023492e-08 -0.15572690965183922 -0.0007349171043992639 1.77136592675682e-08
-0.11560800823342415 -2.1194753066888018e-08 -0.17873838778792295 1.7583396799180807e-08 -0.13248698091585415 6.892237183467311e-09 -1.9932539930131325e-08 2.5406182178898654e-08
-0.47442864893124037 -0.4171846940936103 1.392168607816227e-08 6.83970853899437e-09 -0.5745447725396694 -2.8733177254661783e-08 -0.44674834048974027 1.6778218668964473e-08
-6.892179945845691e-09 -0.611310899748843 -0.29386722342953997 -0.41733553542110474 -0.47904709373048904 -0.5034777109463928 -0.08252065552767811 -0.17626447386025546
2.1519721598667194e-08 8.403673449907789e-09 -0.4096513451353163 1.6241819348615768e-08 -0.4341852280438542 2.2095128309969723e-08 -2.899300874244328e-08 -0.4961501957935106
-0.36872952158328814 -0.45235625815475045 -0.5837440174564617 -0.17624072160128673 -6.163794831552924e-09 -0.47128800152579203 -0.5201512143467313 2.6404850511353442e-08
2.688529006094063e-09 -0.5075922989019294 -0.4615655520382011 -2.7801744419253162e-08 -5.201272211000641e-09 -2.1600513491642486e-08 1.6338547217011204e-08 -0.34758067828322853
-0.43513403589651867 -0.36588671452048055 -0.4309856846151779 -0.3463423741207414 -1.2274453582168031e-08 -0.4149310871785139 6.099262737559669e-09 1.108695932031709e-08
-0.4542712532923714 1.1788983219447334e-08 -0.48389639141002533 -2.4088159899902613e-09 -0.5929171578347181 2.6634451607446135e-08 8.240866247773791e-09 -0.5108488584447725
-0.5993808075104432 -1.4259643903613878e-08 -0.28538984898488057 -1.8744630152515086e-08 2.0129547582233507e-08 -0.4892884435968935 -0.1305224358829733 -0.3727313494775728
-0.3968125576302846 3.026967042515871e-09 4.670968940510968e-09 -0.4473978146104751 -2.0127342390411854e-08 3.234212473894438e-09 1.71964402938558e-08 2.3096494284247282e-08
-7.657737476598695e-09 5.060312643521616e-09 -0.43572248402443614 -0.39025202591566055 -0.008684692604649717 -0.4873061919696054 2.5465628999235714e-08 3.179402646151595e-08
-1.0098280761401723e-08 -1.3484726862288697e-08 -2.711989622438041e-09 -1.0763661784185828e-08 -0.561434780279997 -0.6137115094845008 -0.15587788738622105 -7.01873519464074e-09
-1.5044043994654782e-08 1.752338900279429e-08 -0.550140841655818 -0.5105004197304455 1.4493866504981698e-09 -0.08084032465077053 1.5247143237698154e-08 -2.24733676665632e-08
2.7881294166685097e-08 -0.23139209488199175 -0.551013719794008 -0.1387353178181902 -1.5770893269434753e-08 -0.4800733414844476 2.4436375045963666e-08 -0.21076083972084725
2.8085993705646233e-08 1.8493032626762538e-08 -0.3310725031948575 -0.6219979902547118 -1.851096403074798e-08 -0.4499554972725027 3.2392102107904512e-09 1.9728334760909873e-08
-0.48169338241348036 -0.39833490151097 -0.45605527886609454 -0.1535972582840771 -0.5371595495725591 -0.4747186558647017 -0.44303636879143293 -0.3374057016259527
-0.5814541726164842 -0.4629983309705308 2.1939821039622642e-08 -1.772228704328598e-08 -0.5864125358305341 -9.849893739271467e-10 -0.6244450493884832 -1.9803006573094787e-08
1.793839617056496e-08 -0.5164404456061619 -0.5171402730608442 -0.44385852591546754 -0.505231069429963 -0.45601845241375893 -0.34078841219511974 -0.396665184146922
00000000: a1ff 13ea d819 99bf 5586 999b 6c2f 563e
00000010: 9ab8 4594 d52c 7bbf f2e3 6f11 a9a6 47be
00000020: aced 44d3 254b cbbf 76ec fab1 8a3f 433e
00000030: 8e34 af4f 022c c4bf 0a48 d1e9 b239 57be
00000040: fb5d 3c24 f1d0 bdbf 4aac 6ad4 4283 b4bf
00000050: 84d1 fa0a 3be7 253e 20c6 06eb b4db 50be
00000060: a5e5 3007 ad25 a6bf 7d5c 5601 ad42 bebf
00000070: 9d6f 1d26 b045 5cbe 3fee 9b00 de3f 593e
00000080: bf92 1cdd 417f 72bf 5e3f e03e 2d69 a7bf
00000090: 4c57 dc8b 22ac 31be 7012 3eec 29ab 49be
000000a0: 48a1 74bb 2b28 a4bf 8b9b 1202 2fd0 5abe
000000b0: 659a 5d7e 22d1 5dbe 88f2 f16c 4bb6 9ebf
000000c0: 19af deba 859f 3dbe ded2 fb97 a6b1 583e
000000d0: f848 01b1 32cb 86bf 3002 6743 a27d 58be
000000e0: d093 ef28 f4b8 2fbf 3d0a 3a8c 2411 f2bd
000000f0: cb2a c7a2 ff5e c0bf e92b 0c03 85af 32be
00000100: d61f a47a c382 55be 50e1 3728 586b b3bf
00000110: 702f d491 9c3e 4e3e f191 e5fa f6ff c7bf
00000120: 250d 171a 136b 513e 6d80 cb41 8a78 7cbf
00000130: ec2a 4bb1 be87 aabf 0f63 7cc1 e97c 37be
00000140: b991 cfdf c263 a5bf 036f fb67 e385 47be
00000150: 6514 9703 5ddd 5cbe f5c0 39bb 374d 57be
00000160: 20ba a537 d65b 593e 9a6b c967 b4a9 48be
00000170: 4098 84f0 8743 3abe 8b01 ab0e 55b7 933e
00000180: 1524 b2ec 6d12 b7bf b84f f586 d2ae 51be
00000190: 4d7e 055e 106f 8ebf 420f e4a9 da27 5c3e
000001a0: 562e 8b80 5352 acbf 6bc4 2a63 6cbd 41be
000001b0: fd8a 7dd3 4ae2 afbf 9071 148b 68de c5bf
000001c0: b7cb 7762 7ebb b4bf e8e4 dda3 4871 c9bf
000001d0: b2ca 0023 cd8b 55be 6dfa 3c0a 19c4 5bbe
000001e0: d8e0 06e9 4909 95bf a75c a903 5401 bebf
000001f0: 7aad 26a6 ac60 55be 86ea 2534 65fc 4fbe
00000200: 7688 b22c be24 54be a693 e8db 4bf6 473e
00000210: 112c 6228 7a41 80bf d53a f80d 4cf0 d2bf
00000220: 56ec 7326 3049 acbf 2ac9 1353 ece2 493e
00000230: 1cb8 9c94 5c95 b2bf 9b6a dd8c 6156 583e
00000240: 635a 4e2a 2d0f 89bf e060 043a 46e7 533e
00000250: 13ed e262 7a81 5bbe bb7e 41f1 4024 54be
00000260: 38e6 50d8 c2b5 323e 06da 4b8c aad8 8ebf
00000270: 5ccf 3324 be27 b5bf 1a29 c7df 4d67 533e
00000280: 11d8 c238 956d a5bf c298 137b c3e7 563e
00000290: f37c 680b 0922 4abe b54b 479c f23e 543e
000002a0: 1d19 2f3a 0ebf 5abe 6726 d59e 73b7 c5bf
000002b0: 7a72 cec4 8619 5abe ff6d fc81 24bd a2bf
000002c0: 127d ccb1 e14f 52be 3a7a 3dd7 2168 54be
000002d0: 2342 b039 42aa c2bf 8f03 cf37 df45 cabf
000002e0: c66b 2a33 aaeb 59be c8ce 69e9 cc3c 55be
000002f0: 49c5 876f 6a2e bfbf 730d b9ef 5e32 43bf
00000300: bda8 66be 7bd7 5dbe 2c89 5793 be53 523e
00000310: 720b 6ee1 103f b7bf e2ff 1f7a c3b0 37be
00000320: 0005 51e4 3fde b7bf 5a0f 28a6 f9e0 9cbf
00000330: 1662 33ab 4407 b0bf 803a 59db 71e7 443e
00000340: f655 f240 d5d6 513e cb95 d637 a4b6 b1bf
00000350: a29f 23df 50de 513e 20af 7f44 2153 c5bf
00000360: d66d 5863 081f 59be f0e8 0700 dcee c3bf
00000370: d585 de76 ee14 48bf 566e 1bf5 1705 533e
00000380: 64ac 8486 7c98 bdbf a696 0e28 f8c1 56be
00000390: e860 0b45 e6e0 c6bf 363e 178d 49e1 523e
000003a0: 96f5 1659 55f5 c0bf eab9 fa4c 189a 3d3e
000003b0: 4288 9bcd 0367 55be c60b 6022 9947 5b3e
000003c0: 387d dcfa 095d debf 4786 616e 27b3 dabf
000003d0: 3b31 df21 87e5 4d3e 5398 3dcd 5660 3d3e
000003e0: 13a9 04b8 ab62 e2bf d051 8299 1dda 5ebe
000003f0: 7786 fc59 8697 dcbf e5c7 612d f603 523e
00000400: 05f8 9230 089a 3dbe f881 43e0 db8f e3bf
00000410: bac1 7f78 b8ce d2bf 27e8 051b a0b5 dabf
00000420: 363e 3424 b5a8 debf 4af3 d849 7d1c e0bf
00000430: 4361 bcdc 1220 b5bf b895 5693 d58f c6bf
00000440: fc05 b1c8 4b1b 573e 08bd f0e4 f70b 423e
00000450: 0497 8746 ba37 dabf b3d5 436e 8470 513e
00000460: aeb2 b6d6 b0c9 dbbf 5072 7e6e 76b9 573e
00000470: 30ab 799d 8921 5fbe 7493 35c0 ecc0 dfbf
00000480: d746 11b5 4399 d7bf f898 baa9 67f3 dcbf
00000490: cac1 06ef 07ae e2bf b21f c053 0e8f c6bf
000004a0: ae82 b401 2a79 3abe fb3a 6326 9529 debf
000004b0: 3401 d328 14a5 e0bf badf b12b 1c5a 5c3e
000004c0: e352 5c47 2318 273e 1d87 6f34 323e e0bf
000004d0: 6fb6 bd3d 4a8a ddbf 5629 3ad7 15da 5dbe
000004e0: b806 76f9 db56 36be 8342 0c02 8131 57be
000004f0: 351b a20c 1b8b 513e 71ab 7c07 c33e d6bf
00000500: 9654 636d 3cd9 dbbf ad01 3a1c b06a d7bf
00000510: d5d8 1dfb 4495 dbbf 4053 8434 792a d6bf
00000520: c870 a1c4 f35b 4abe d8a0 611e 3b8e dabf
00000530: 8a13 46d6 3532 3a3e 53c2 e8ce 1ecf 473e
00000540: b0d5 19bc c712 ddbf 6333 79e3 0f51 493e
00000550: d78a f091 28f8 debf f204 70d9 0ab1 24be
00000560: 7465 4467 2df9 e2bf 4b8a 56e9 3899 5c3e
00000570: 582d 4dd1 76b2 413e f103 87b4 df58 e0bf
00000580: 0670 c3a8 202e e3bf 5319 c477 529f 4ebe
00000590: 3907 00c9 d343 d2bf 3ef2 7a15 7c20 54be
000005a0: 4e41 f6fb 2a9d 553e 2ecd e379 8050 dfbf
000005b0: 007d c18c f5b4 c0bf ccce 0c97 d4da d7bf
000005c0: 0d82 6a7f 6065 d9bf 03b0 a1f4 5e00 2a3e
000005d0: 22da addf c80f 343e 7872 8371 2aa2 dcbf
000005e0: 96f6 c1ce 8f9c 55be 06dc f3c2 1bc8 2b3e
000005f0: 6ae5 65e8 eb76 523e ed59 354c b7cc 583e
00000600: 3a3c 2bbd e271 40be f8ff 2b62 dfbb 353e
00000610: d613 c18e e0e2 dbbf 385a 20a2 e3f9 d8bf
00000620: e2c7 b3b5 47c9 81bf c974 694f 0630 dfbf
00000630: 003c 1655 f057 5b3e b00a 73db bc11 613e
00000640: 6e05 cbab 96af 45be 0d42 fa96 4ef5 4cbe
00000650: 6b57 7f6e ba4b 27be 056c 9ab9 621d 47be
00000660: 0e77 8412 46f7 e1bf 6d45 cd51 86a3 e3bf
00000670: 6a27 3f7e cef3 c3bf fcac 5053 2e25 3ebe
00000680: 87c1 b67b 4627 50be 93a6 bbe0 cad0 523e
00000690: 8261 63f7 c09a e1bf e8c4 eaf9 0456 e0bf
000006a0: 085d 764b 78e6 183e 81b5 9296 f3b1 b4bf
000006b0: 9540 6a52 1a5f 503e 1ede fea8 6e21 58be
000006c0: aa29 14a8 f3ef 5d3e 4419 0994 419e cdbf
000006d0: cb33 4586 e7a1 e1bf 4626 6a32 14c2 c1bf
000006e0: 4ac3 34f4 11ef 50be 6cdb 5689 85b9 debf
000006f0: c084 3406 053d 5a3e e473 f010 36fa cabf
00000700: e6f7 251b 3828 5e3e 8d29 637b 53db 533e
00000710: c6e9 74b9 4a30 d5bf 7b4b 4a54 68e7 e3bf
00000720: 7636 d84a 41e0 53be 5636 5c24 12cc dcbf
00000730: e4cb be3c 19d3 2b3e 3bbe 4f24 e22e 553e
00000740: e097 0a7b 10d4 debf 6f14 b6ab 517e d9bf
00000750: 6c79 f97a 0230 ddbf 9ced 8a30 13a9 c3bf
00000760: 51be 4439 6930 e1bf b55b 6f5b ca61 debf
00000770: 8c75 b936 b55a dcbf e5e9 7d15 0e98 d5bf
00000780: 5556 f0c7 459b e2bf b0be 67c0 c3a1 ddbf
00000790: 0e3a 6fa7 c58e 573e 2d14 4c15 7707 53be
000007a0: 0a69 eb38 e4c3 e2bf 41a1 c071 07ec 10be
000007b0: 78b9 282f 74fb e3bf 86f7 17b4 6843 55be
000007c0: 4ace 3c69 de42 533e 67b9 061d ae86 e0bf
000007d0: edb4 07c2 698c e0bf 95e4 3697 2d68 dcbf
000007e0: 55fe 0359 da2a e0bf 0c56 df04 682f ddbf
000007f0: b1f6 4e33 7acf d5bf bcdc 575e f662 d9bf

module.model.hidden1.bias f8 [120]
-0.21804162525098073 -0.54083140820925 -0.4738155221167641 -0.29818315925966676 -0.4418624742734791 -0.4698879800264283 -1.8784147830388032 -0.24023010254930544
-2.291904695864664 -0.9442318558522894 -2.327527493063383 -0.07303758381839472 -0.9630830414224928 -2.2015381894892254 -0.7477998963363282 -0.45533792645646987
-0.267851845679221 -0.19125903950808495 -1.7091143292063538 -0.2407489272541338 -2.3382851891537952 -1.647572372623044 -0.2920101443965921 -1.320379429312214
-0.1890901258988932 -0.17186732446801356 -0.3571085610900802 -0.5524852169615253 -2.3812631945761478 -0.1768014294428871 -0.2833449145822152 -0.5233373739347127
-0.5593699266861877 -0.4234011958719997 -0.376063999001756 -2.38463614076838 -1.5982264547263767 -0.463067926861839 -1.420668897095122 -0.2833575065485261
-0.7014463153745499 -0.46136584792039204 -0.19702699411782143 -0.13386342161996534 -0.11793007291442913 -0.47408058684253374 -0.5774506008847392 -0.0373480478513943
-0.02022376150134167 -1.5523214187344103 -0.30485305257821566 -1.6458214413654921 -2.2594695522012893 -0.30227698515746687 -0.42672806495703586 -0.3193844506514395
0.9588463251603585 -1.6426353351064702 -1.6523644383423794 -0.5137930491729142 -0.19783701062886855 -0.5744710618377857 -0.38186133179180287 -0.20515838516892196
-0.22863813402599786 -1.5409269511196686 -0.7174471877693149 -0.771501489896731 -0.4860493900523002 -0.561383819803316 -0.1637277419235096 -0.10137406269316004
-0.37990060870841724 -0.4992143532632159 -2.4230077740175098 0.057150922860047644 -0.43710430977598885 -0.4360328894245042 -0.31318233857739036 -0.6108749022319825
-0.561037889010201 -2.2211064445116873 -0.8161241184936752 -2.425154518335094 -0.19444281587211662 -0.4759805734572792 -2.3773144341101484 -0.1984265037543781
-0.46640236797062423 -0.45430164167627085 -0.29700896056269144 -0.9104773133387023 -0.34810522516143577 -0.4431287373281034 -0.4546564568422824 -0.884501787965401
-0.3040507993586473 -0.37024358631592347 -0.6531588782233188 -0.7292496361992915 -0.4755197753297037 -1.1860054806178064 -1.5481414652298953 -0.7402074450130686
-0.5168738048695333 -1.7460566691410357 -0.05098146186174818 -0.445850330703148 -0.4848987101119066 -0.3850498060840579 -0.5849786796681381 -1.5696982560623083
-0.5333442611320405 -0.9566537366311075 -0.19198826574156808 -0.5256250152667241 -0.6150491259088245 -0.5054150469090026 -1.5928484162168233 -0.6056440385911778
00000000: b150 cfb8 c9e8 cbbf 3e11 5dab 7d4e e1bf
00000010: df08 f556 fe52 debf 223f 4fd1 6e15 d3bf
00000020: 1764 158b 7947 dcbf 06cf bf08 a512 debf
00000030: f197 d7a8 fc0d febf 2064 fb28 dcbf cebf
00000040: eb4c 1221 d255 02c0 5543 97b9 2537 eebf
00000050: 1afc f9bb c69e 02c0 3dfd e051 97b2 b2bf
00000060: fdbc c786 93d1 eebf 9c02 e60d c09c 01c0
00000070: 5eef 560c faed e7bf 5093 b0af 4124 ddbf
00000080: 3d64 5711 7c24 d1bf 5334 e01b 2d7b c8bf
00000090: 6e0f 5144 8858 fbbf 5d42 8d60 dcd0 cebf
000000a0: 0318 81dd ceb4 02c0 7958 23d9 745c fabf
000000b0: 8426 1251 4bb0 d2bf 4b50 332e 4620 f5bf
000000c0: fdba 5df1 1a34 c8bf 70aa eb9c bfff c5bf
000000d0: 8d39 c0dd ddda d6bf 62f1 4b7a f5ad e1bf
000000e0: fcfb beb7 d30c 03c0 abef abe2 6da1 c6bf
000000f0: f695 67b5 5222 d2bf 245f 3a05 2ebf e0bf
00000100: 8175 afc2 5be6 e1bf c1e1 5654 0119 dbbf
00000110: dc97 3abc 6e11 d8bf c3ad eb1c bc13 03c0
00000120: d36d 2ae7 5592 f9bf f9ad 6ca8 e7a2 ddbf
00000130: ad7c 374f 0fbb f6bf fced ec85 8722 d2bf
00000140: 5dde 0d8b 3f72 e6bf 1acd 139f 0487 ddbf
00000150: 2c26 1538 2e38 c9bf 3c84 fec4 6f22 c1bf
00000160: e7e2 614e aa30 bebf 140f 0a1a 5657 debf
00000170: 4960 bbae 797a e2bf 5aaf 2e88 481f a3bf
00000180: 0860 00a9 89b5 94bf 8a83 e5fb 4ed6 f8bf
00000190: 6930 ba60 b682 d3bf a386 1bdd 4855 fabf
000001a0: 3219 c8c5 6413 02c0 536d 6591 8158 d3bf
000001b0: 3ea7 d13a 834f dbbf e686 997a cb70 d4bf
000001c0: 4083 0e7d deae ee3f a594 38fd 3b48 fabf
000001d0: 1710 7cb1 1570 fabf 5f83 e31e fe70 e0bf
000001e0: 4a71 4b21 b952 c9bf 12ef e222 1162 e2bf
000001f0: 73c7 e982 6a70 d8bf 0d7d 6645 a142 cabf
00000200: cc4b 21ae 0344 cdbf ee57 c904 a3a7 f8bf
00000210: b271 02ce 53f5 e6bf d87e 7de4 23b0 e8bf
00000220: f0fb a0e6 6e1b dfbf afe1 5133 dbf6 e1bf
00000230: 1534 81d8 07f5 c4bf ce05 ee8b a6f3 b9bf
00000240: 7285 88a4 4a50 d8bf 3965 3dc2 20f3 dfbf
00000250: 28df 5ae6 5162 03c0 d180 3dc1 e242 ad3f
00000260: f56c db5a 84f9 dbbf 97c0 037e f6e7 dbbf
00000270: effa 77ef 2d0b d4bf f112 e185 498c e3bf
00000280: beb3 23bb 05f4 e1bf 79e6 a074 d3c4 01c0
00000290: 7c07 cd53 b01d eabf 86f7 7f69 b766 03c0
000002a0: 3373 8e8f 80e3 c8bf 16f1 2139 7776 debf
000002b0: a37e 166e bd04 03c0 3c70 2428 0a66 c9bf
000002c0: 917d 4d51 89d9 ddbf 4832 6131 4713 ddbf
000002d0: ee15 0fdf 3102 d3bf fc44 9151 a122 edbf
000002e0: 33a5 6823 5b47 d6bf 937c afa2 385c dcbf
000002f0: b461 4365 1719 ddbf db13 92b1 d64d ecbf
00000300: e65a e47b 9175 d3bf 14f6 b127 12b2 d7bf
00000310: 5bf5 a172 ade6 e4bf 3e11 4355 0356 e7bf
00000320: 2e1c e97e ea6e debf 7715 02e2 e0f9 f2bf
00000330: 1ae7 2bfc 2fc5 f8bf 75c7 1286 c7af e7bf
00000340: 015c 02ef 3a8a e0bf 6ac6 2e1e d9ef fbbf
00000350: 8805 ccfe 3d1a aabf b7f8 51d3 cf88 dcbf
00000360: 0368 7399 9408 dfbf 3494 1df1 a7a4 d8bf
00000370: 6f05 4135 25b8 e2bf 7903 26eb 7b1d f9bf
00000380: e448 e2fb 2711 e1bf 61a8 0d4c e89c eebf
00000390: 8eb3 494d 1293 c8bf 6cf6 508d ebd1 e0bf
000003a0: f7c6 2681 7bae e3bf d42c 2c2d 5c2c e0bf
000003b0: ba2f f29e 4e7c f9bf ed86 589b 6f61 e3bf

module.model.hidden2.weight f8 [120, 120]
2.0850280061253526e-08 1.2590410925574113e-08 5.269325776852112e-09 1.7123589501777934e-08 2.1349451788481017e-08 3.029094597687834e-08 -1.3631962609520095e-08 2.8918992510788194e-08
-1.9324020313167957e-08 -0.4631795976504048 2.6417582699821405e-08 -0.479158422353119 -0.39338588670002383 0.24050760648138403 -0.4961728375738976 1.6875315582508206e-08
1.9623888659923874e-08 -0.41714285443397975 -2.1310631485639646e-08 2.303424816188545e-08 2.2437304296364915e-08 -0.4377075302934973 -2.043220796213119e-08 -2.790247153702206e-08
1.5493262359752028e-08 -1.0592640071414868e-08 2.2659873382969025e-08 -1.8300325954407217e-08 5.231556125984216e-09 -2.104345658180043e-09 7.1922147975924675e-09 -1.63424120343541e-08
-1.7941448530661035e-08 -0.39229801912958734 -2.224255593258815e-08 -1.6089693706171023e-08 1.7043635207198307e-08 1.3811112660091245e-08 -1.2496192466047439e-08 -1.5003368169288134e-08
-1.5963879831910492e-09 -1.4971763094279486e-08 2.4404793591318547e-08 -0.45593838254343294 2.5695941226959648e-08 -0.49778592458142734 -5.7611318312753525e-09 -1.6737671956673638e-08
2.3089185589843918e-08 1.4043945715785093e-08 2.0214520686001798e-08 -0.3893081499467037 2.676078519030724e-08 -3.054210285893428e-08 2.6344282989085553e-09 -1.0034857746038571e-08
1.821004815012718e-08 6.790323993439618e-09 -0.42523879752313815 -3.2948072834497675e-09 -2.0936566053372107e-08 -1.2708993587399946e-08 2.164406735630006e-09 2.3537482937317288e-08
-2.672760705669926e-08 9.140182316305346e-09 1.2238864185025494e-08 -2.080159951593392e-08 5.285005678225187e-09 2.1194957313248442e-08 -0.42033808664587546 2.8261703092638425e-08
6.7081201950145955e-09 -1.2611207445219047e-08 -2.0478652106367257e-08 -0.460564289284047 2.0901044186923963e-08 -7.782253233427061e-09 -1.2575230046536345e-08 -6.497451564956968e-09
-1.3054753142656641e-08 0.19305640696170479 -2.1795731416159135e-08 -7.318524548175952e-10 2.5696507421198605e-09 -1.9954763475041868e-08 2.2772784425621035e-08 2.0516922374986597e-08
-1.8719186221431198e-08 2.1573267250879595e-08 -2.240112138539693e-08 -0.3931670442320667 -0.4156863376249875 -1.3446756163032947e-08 1.8812035849100824e-08 2.6378178350571032e-08
2.265498985644308e-08 -0.5039674599253341 -0.4402160287828591 0.2724553915646638 -3.951743596027151e-09 -0.44877841432113186 -0.3774651724178277 -0.44503994259527907
-1.8343559363453173e-08 0.4016953557701398 2.344697357659352e-09 1.2996989526801759e-08 -0.49329023790402954 1.3987467437488436e-08 0.3209521457348206 1.2616827381115357e-08
-3.6512756643972797e-09 2.9573074035201668e-09 1.2124798658823268e-08 2.0988103200159337e-08 -2.2558715201592778e-08 1.6305412447899215e-08 -2.1449902294358943e-08 -0.453685893818115
0.02098830361268096 -0.5313638685662964 -0.62740495934658 0.04244531010732877 -2.1788963182159146e-08 -0.5689937733828586 -1.4287196484651297e-09 0.02081715508778604
-0.4991038615498825 -0.5473538225057544 -0.43902626542292267 1.8640063542251806e-08 -0.42955566303706794 -0.5007869066390936 0.03191844723081905 -2.4410000362600122e-08
0.003155710157797516 -0.5684804196354736 -0.38363695077366017 0.05215113718353958 -0.41110246115744475 -0.1272668760380406 -0.6506517626264385 -2.804966177352474e-08
-0.5939610504926216 0.014273668366006206 2.2351569195061006e-08 -1.2808305935485523e-08 -0.4353862958668982 0.009879533864682277 0.044705324168642084 -0.580195054926685
-1.908368071698447e-08 -0.4958859456151302 0.04682345568949074 -0.37579509043266274 -0.4649751824096318 -0.6076280321482516 -2.146010573197188e-08 -0.531756048612467
-0.56573223178273 -2.2595607761229237e-08 -0.6318770524396927 -0.5562298495178731 0.0734748321094357 0.06284379735785495 9.716265504804895e-09 1.623677470619609e-06
0.0001764622790770402 -1.9692539153573497e-08 -0.49474164157417655 -0.2550894709304011 -0.3770324847121321 -0.5837038581471747 -0.6242343264984189 -0.4988137530973046
5.458729800163621e-09 -0.4037979326393975 -0.20573452763428995 -6.9106082332489845e-09 -0.48204504579987756 1.2960785132232451e-08 -0.4954346741177397 -0.6418247023759202
0.01903396875248141 -0.5146017837893554 -0.584943479561773 -0.2133028786172469 2.5558076182980528e-08 -0.4914392850366741 -0.7392366824118258 0.029639595248173372
-0.6133422011377369 -0.47068704121950306 -0.39431114352243335 -0.5692334805777666 0.008327789516184078 -0.6152929493931033 -0.47164104594817224 -0.5112908414568775
1.3348959147060057e-08 -0.40276246212416483 -0.10212774279367791 -0.4177940247867694 -0.5818328028660448 -0.4823115682018165 -0.39710117577793497 0.01066956148607324
2.8935638737227757e-08 1.8499779807439533e-08 -0.5204109939013832 -0.5347442247252828 -1.466155506734817e-08 -0.5342971941373528 -0.5234912067849815 -0.2824699543706485
-0.6277512885789204 -2.741444123345199e-08 -0.22751119847552584 -0.6065886000072362 -2.569390496313935e-08 -0.5198069812757462 -0.15853614572607336 0.002005374142214918
-0.44208129692652026 -0.3775864539504167 -0.5893094056815563 -2.170194686646612e-08 2.1189676913848523e-08 -0.6309131055007177 -0.5360290990929213 -0.46098319092726014
-2.3349713743626747e-08 -0.3661673435139551 -0.43939991640726545 -0.4375284465461758 -0.5963087847370167 -0.6449188090745633 -0.4323324104086801 -0.5196767278721693
0.08088995758333936 -0.5378037696859933 -0.6383449595037614 0.13869194844671454 2.733561527905373e-08 -0.6224854151967066 1.0253200610098211e-08 0.08154018652241303
-0.4893029331704361 -0.3999167638329648 -0.37724781295462984 -9.93380273929595e-09 -0.4143232132814234 -0.5196508557066265 0.10495662161927692 3.763308072648511e-09
00000000: 3ac7 0e06 4863 563e 7d73 9fcf a609 4b3e
00000010: 7897 ae59 afa1 363e a9a3 327d e562 523e
00000020: 0a07 7a1c 7eec 563e 2d41 07ea 2743 603e
00000030: f618 d42d 4046 4dbe 1d02 952f 310d 5f3e
00000040: 230b ba0a bfbf 54be ad4e 050a bca4 ddbf
00000050: 666a 691e 9c5d 5c3e b603 6716 88aa debf
00000060: 7e69 85ff 3b2d d9bf 986d 2308 f4c8 ce3f
00000070: 3bc7 a2b7 4bc1 dfbf 2667 e0c3 a61e 523e
00000080: 8e25 a066 2c12 553e 4175 63f1 77b2 dabf
00000090: ce2e 1260 d2e1 56be 6527 c11d 9bbb 583e
000000a0: 31bf 12ed 8417 583e 3ab4 f471 6603 dcbf
000000b0: a88f a8d0 5cf0 55be 50da aae1 c5f5 5dbe
000000c0: b64b 5c6a c1a2 503e c027 078f 5dbf 46be
000000d0: bb92 4bd5 b254 583e 869a 98f4 5aa6 53be
000000e0: 3b47 8323 2878 363e 6623 4e4a 8113 22be
000000f0: c255 1e7e ece3 3e3e d535 fe02 2b8c 51be
00000100: 212f ab33 b543 53be 459e 9c26 691b d9bf
00000110: ea67 70ba fce1 57be 2e87 518a b346 51be
00000120: 9536 ac34 eb4c 523e c3ef a24e bda8 4d3e
00000130: 4d7f debd dad5 4abe e69f 2f2d 181c 50be
00000140: 2015 e114 fd6c 1bbe 8b18 c52a 6813 50be
00000150: a8b0 4bad 5634 5a3e bdf8 802e 182e ddbf
00000160: a3b3 561d 3f97 5b3e 6820 9f7e b9db dfbf
00000170: 2570 b272 6ebe 38be b29d bff4 d0f8 51be
00000180: ee8e 79fe b4ca 583e 2314 8aa5 bd28 4e3e
00000190: 80d8 506f 86b4 553e 4097 05bb 6cea d8bf
000001a0: 5347 d8d8 f2bb 5c3e 8df5 1bb6 ac65 60be
000001b0: 1d02 c549 2ba1 263e b1a0 d8ac b88c 45be
000001c0: bfd4 4038 8a8d 533e d08c b449 0a2a 3d3e
000001d0: 2b8b 16ca 1c37 dbbf f0fb 539b 5b4d 2cbe
000001e0: b637 4edc ff7a 56be 6197 46d6 d74a 4bbe
000001f0: e228 c7ab 9497 223e d5ff 8a1d ef45 593e
00000200: b366 b924 d4b2 5cbe 1af7 634d dea0 433e
00000210: 0e07 7701 6348 4a3e f28e 506f e655 56be
00000220: 6152 a6d9 ecb2 363e 54ac 6e87 06c2 563e
00000230: 6010 dab7 d1e6 dabf 4644 118e 8458 5e3e
00000240: ea1d c5f9 a7cf 3c3e 4735 35a9 1515 4bbe
00000250: 262c fb07 21fd 55be be8c 0ba4 e279 ddbf
00000260: ca5e 3f3b 3c71 563e f0e9 18c6 56b6 40be
00000270: 433d d04a 4e01 4bbe b615 2607 06e8 3bbe
00000280: 7205 1c2b ed08 4cbe 6486 1785 12b6 c83f
00000290: b64c 893f 2a67 57be dde3 ad38 7125 09be
000002a0: e167 fdc3 b812 263e 48e0 66a5 1f6d 55be
000002b0: 294c d03d bc73 583e bfe2 d90f a607 563e
000002c0: 7eb6 5da0 7d19 54be cbad 68b9 032a 573e
000002d0: 3921 b2c7 920d 58be 9cde 351b a629 d9bf
000002e0: d092 5fde 9a9a dabf d085 5cb0 6ee0 4cbe
000002f0: fc73 8f56 0333 543e 96e9 c248 c752 5c3e
00000300: a692 802f 5b53 583e 7c14 d45d 8020 e0bf
00000310: 2f08 b3d9 7f2c dcbf 1ae7 18bd e86f d13f
00000320: 62d5 c8ef fcf8 30be 6e3d 2a19 c9b8 dcbf
00000330: f377 baae 6328 d8bf 7711 b7cf 887b dcbf
00000340: 3aa1 743c 3db2 53be b238 ff6f 60b5 d93f
00000350: 1717 ae44 0b24 243e 38cc 84a9 2be9 4b3e
00000360: abf7 ce37 1192 dfbf fa58 1d09 b109 4e3e
00000370: edc5 60de 7a8a d43f 95cd bc98 2c18 4b3e
00000380: 9e66 1777 3d5d 2fbe c90b a810 3067 293e
00000390: ea48 c6b5 ad09 4a3e 667c 0177 2a89 563e
000003a0: ecde 8075 e438 58be 30ab b265 ff81 513e
000003b0: 5887 ebaf 1a08 57be c5bd 268f 3009 ddbf
000003c0: 34be 7536 f57d 953f cb95 b8cc ee00 e1bf
000003d0: 96bc b790 b313 e4bf e021 8f45 64bb a53f
000003e0: 4531 dff9 4d65 57be 0dd3 096e 3235 e2bf
000003f0: 1f44 b151 938b 18be c2f2 30a1 1751 953f
00000400: ea7f aa52 51f1 dfbf f816 e029 ec83 e1bf
00000410: dce4 049f 0119 dcbf 9766 e4dc bd03 543e
00000420: 4692 2309 d77d dbbf 0bf5 4843 7206 e0bf
00000430: 30ae fd5d 9d57 a03f ad02 2612 c535 5abe
00000440: 5d74 8cfd 00da 693f dc05 58d9 fd30 e2bf
00000450: c50a 47ff 818d d8bf 0f16 4ec9 8db3 aa3f
00000460: 487c 7eb2 804f dabf b646 39ef 474a c0bf
00000470: 0217 32a5 23d2 e4bf ca94 3e79 3b1e 5ebe
00000480: eed5 de9a ba01 e3bf cb89 9b56 833b 8d3f
00000490: 70c6 cada f3ff 573e 96d6 b4ce 7081 4bbe
000004a0: 7dfe 777b 5edd dbbf a6cc c996 b83b 843f
000004b0: b7d5 85c2 9de3 a63f cec0 4638 f590 e2bf
000004c0: 4ea6 76a5 ae7d 54be 1aa2 bd67 98bc dfbf
000004d0: ae7f be75 3ef9 a73f 27f6 d9d9 060d d8bf
000004e0: 09aa 7944 27c2 ddbf dbb4 c657 b071 e3bf
000004f0: b11b b6b0 e80a 57be 13b4 c742 2504 e1bf
00000500: ec98 397b 7a1a e2bf 8b54 c68a 0843 58be
00000510: 8f48 6a39 5638 e4bf e19f 978a a2cc e1bf
00000520: c636 fd20 3fcf b23f 688f 68f6 8716 b03f
00000530: 93ac a7cd 92dd 443e fd6f 3a42 a43d bb3e
00000540: d109 6b6f 1721 273f 6ade f93f 0b25 55be
00000550: c4f2 a1d8 d8a9 dfbf 0dcd ccc9 6253 d0bf
00000560: 0991 d7db 4c21 d8bf 0251 a9b6 b3ad e2bf
00000570: d03d 2b44 baf9 e3bf ae44 1685 90ec dfbf
00000580: 6626 e7d7 ef71 373e 5d3b b848 d3d7 d9bf
00000590: ca73 ec4d 8255 cabf 056a a04a 4bae 3dbe
000005a0: e931 ba76 d3d9 debf e050 bc58 44d5 4b3e
000005b0: 8ff7 a8a2 33b5 dfbf 3b06 4ff5 d389 e4bf
000005c0: 3c50 3805 a47d 933f 5bd5 fa28 9e77 e0bf
000005d0: 843d 5763 dbb7 e2bf bae0 e63b 824d cbbf
000005e0: 0df4 7eb9 5971 5b3e d2ef 4cc2 bd73 dfbf
000005f0: 69cb deaf d3a7 e7bf 7bc3 0791 d759 9e3f
00000600: 5f95 e4d2 7fa0 e3bf cd14 2c8a bc1f debf
00000610: 4424 78ce 643c d9bf 10d5 db21 2937 e2bf
00000620: 45b9 f5fc 280e 813f d349 e3d6 7ab0 e3bf
00000630: ce1c f3ec 5d2f debf caa6 599c 7e5c e0bf
00000640: 4a1c 86fb aaaa 4c3e 714d b834 dcc6 d9bf
00000650: 5b2a 5033 0b25 babf ca18 3b26 23bd dabf
00000660: f596 81d3 5f9e e2bf 9131 fa56 31de debf
00000670: 17d7 ca0c 1b6a d9bf 05ab 294d ecd9 853f
00000680: 3abd 568f c411 5f3e 47f4 c945 2edd 533e
00000690: 2621 e9f4 34a7 e0bf 5970 9deb 9f1c e1bf
000006a0: 4dfc 806f 467c 4fbe 8743 e56d f618 e1bf
000006b0: 7c52 9ca1 70c0 e0bf 96f8 07dc fc13 d2bf
000006c0: 7dfc cede 8916 e4bf 504f 4bcd 9f6f 5dbe
000006d0: 098c 7642 161f cdbf 480a e57e 2c69 e3bf
000006e0: d34f 45d3 af96 5bbe 62fa 1940 42a2 e0bf
000006f0: d54d 9094 e94a c4bf 1103 6d0b 936d 603f
00000700: 3940 1e5a 0f4b dcbf 2e4c c85f 602a d8bf
00000710: 5314 1466 9fdb e2bf 62bc 48bf 624d 57be
00000720: be96 36f4 92c0 563e c5c9 57ae 7030 e4bf
00000730: bede 497f 2627 e1bf 9c73 42a4 bf80 ddbf
00000740: eac3 7508 5212 59be 525c 5027 496f d7bf
00000750: cf65 b5d3 201f dcbf 9512 3f50 7700 dcbf
00000760: 6b6a 1829 f614 e3bf d79d 31c5 2ca3 e4bf
00000770: 4031 ed8e 55ab dbbf 1981 d616 31a1 e0bf
00000780: 6630 654a 34b5 b43f 7ff0 4e40 b035 e1bf
00000790: bc52 9468 526d e4bf 3d09 6663 a8c0 c13f
000007a0: ad85 23eb f459 5d3e 0138 9088 66eb e3bf
000007b0: 3271 93b3 c104 463e c16a 6c52 d1df b43f
000007c0: 0b73 f33f bd50 dfbf 2c39 727b 3c98 d9bf
000007d0: 962b c802 d424 d8bf ee40 8572 2a55 45be
000007e0: 341c c182 4584 dabf e525 d3d4 faa0 e0bf
000007f0: 1b7b 5ae9 6fde ba3f 18ac 560d cd29 303e
