pyTorch/noisey_features/models/dropout/ow_0.5_256_NF_model_0.pth (torch, 470675 bytes, 10 tensors)

weight f8 [120, 60]
0	0x3c06dab277f11a14	1.54866663882665e-19
1	0xbc0ccc5b21db2a0a	-1.9514463807755125e-19
2	0xbfbea915b67d94cc	-0.1197675295384954
3	0x3c1785af92564313	3.1878539332548877e-19
4	0xbbf0e609bb2de65f	-5.72546363681228e-20
5	0xbc1339d10aa62858	-2.6055879962914323e-19
6	0x3be6365fca43d230	3.762926781979389e-20
7	0xbbeb190cbe45b450	-4.590554467956326e-20
8	0xbbf150aa4e63c16c	-5.866583622203649e-20
9	0x3c0c6f15600775ba	1.926757358557204e-19
10	0x3c080e92ce2a704c	1.630160821031223e-19
11	0xbc14c4fcb7c76a4b	-2.814789575592983e-19
12	0xbbf95350aa2ba8f2	-8.580596084763144e-20
13	0xbc05c1c7aff40426	-1.47430849786514e-19
14	0xbfbe16fee5599bd4	-0.11753838633886399
15	0x3c04beed3a813fbd	1.4057905854058972e-19
16	0xbfbffbe2b23d8d7f	-0.12493721820424318
17	0xbc0b007b71954096	-1.82971880384662e-19
18	0xbfb96faf87667394	-0.09936043792408916
19	0xbc013a6514882683	-1.1674217949145993e-19
20	0xbbebd9493f709b38	-4.7177658106686364e-20
21	0xbbf846d9e25c2720	-8.225286957256227e-20
22	0x3c185d8966b0908e	3.3021244463963057e-19
23	0x3c03207bb03c0a84	1.2960883001238796e-19
24	0xbfc24b420913c35b	-0.14292169039938582
25	0x3c05619c49ad8934	1.4488526354028849e-19
26	0xbfbb67c0884df3b3	-0.1070518811010988
27	0xbc0b5579b0e51beb	-1.8522163042714222e-19
28	0xbfb76533f47ddb2f	-0.09138798445733863
29	0xbc08d131aa0ff3c8	-1.6816764497845364e-19
30	0x3c01c62b471907a6	1.204419719996751e-19
31	0xbc0625866688e4e9	-1.5007107725073276e-19
32	0xbc02b8b0bbe89b68	-1.2686145772049538e-19
33	0xbfc3398988e498d0	-0.1501933973715439
34	0xbc0c5024d1c470b0	-1.9185676959021123e-19
35	0xbbfaec8ffd199150	-9.122230454728457e-20
36	0xbfbbcc7b32faf609	-0.10858888620983732
37	0x3bfe602cbc35758e	1.0291681584655153e-19
38	0xbc0f61eb9d1240f7	-2.126561014115192e-19
39	0x3bfa83687a6f4cb2	8.983059847784366e-20
40	0xbfc1b52d1558d315	-0.13834155599911271
41	0xbfc4a351329ad1b8	-0.1612340447515075
42	0xbfb74fa97a8248ce	-0.09105929604473603
43	0x3c086a5fbbed436b	1.6544602118341368e-19
44	0xbfbca8619c156120	-0.11194429455406807
45	0x3bcd32d70d806ce0	1.2366085542207654e-20
46	0xbfb465073a9a7cd0	-0.07966656857250887
47	0xbfc4a48d875bf219	-0.1612717543538487
48	0xbc0383d7488d3226	-1.3223880889277456e-19
49	0xbfb3fbceae8ba98d	-0.07806102525106536
50	0xbfb6f299d89c0cb8	-0.08963929689712102
51	0x3bb6cb0f055603c0	4.826647409210655e-21
52	0xbfc2c1a29081113f	-0.14653427177302977
53	0xbfb13cb0541559f9	-0.06733228733842357
54	0xbfb6869b97e52962	-0.08799145182016369
55	0xbfc0918efb5512dd	-0.12944209358297246
56	0xbfbbf4c61001bc76	-0.10920369997778487
57	0xbfb7805d88921caf	-0.09180245002981978
58	0xbfc51b850fbe3c3b	-0.1649023367758405
59	0xbfbb8145d041fdf0	-0.1074412949983452
60	0x3be425d4fb3f95a4	3.413166879264871e-20
61	0x3c13cb1ef1f0597c	2.6825114577484947e-19
62	0xbfcbb992a51c227e	-0.2166007333946886
63	0x3c0b9a228cf556e8	1.8703903511582067e-19
64	0x3bef993e476d6da1	5.3530121674298084e-20
65	0xbbf1de8f2b183d50	-6.054378757870791e-20
66	0xbfcfd69e644f0cb7	-0.24873714349641826
67	0x3c16dc3b599e9bde	3.0981457376640427e-19
68	0xbfcca0094dff2e99	-0.22363392170369847
69	0x3bd496895b295a50	1.743874259859788e-20
70	0x3c0eea1abab59470	2.0948459951610414e-19
71	0xbbfe853b4dba2c4c	-1.0340725993942847e-19
72	0xbfd0485c7445d670	-0.2544165740467639
73	0xbbe4003d4ad6b454	-3.3882902259991143e-20
74	0xbfcf05b8e61b8885	-0.24236212955208117
75	0x3c0ccaba555aa15b	1.951015420879639e-19
76	0xbfcb6ddf6ff3ee8f	-0.2142905518193072
77	0xbbd8abc3e12399c0	-2.0897113955636364e-20
78	0xbbea21b6d5fbca4c	-4.4268815135488964e-20
79	0x3c1579ac73f6aefb	2.9104441938205147e-19
80	0x3c121494c9977a5f	2.450350485204581e-19
81	0xbbbc172535844120	-5.948376013791423e-21
82	0xbfceb85bd59994fa	-0.24000118188556724
83	0xbc144a0a8b9561e4	-2.7497025120863213e-19
84	0xbfd0150b62937ffb	-0.251284452691834
85	0xbfce1f069e0e0aee	-0.2353218337776392
86	0x3c00ee0ed4d47492	1.147215583211398e-19
87	0xbfcf9bfc35c94d31	-0.24694779039655537
88	0xbfce94d628787af5	-0.23891713119606775
89	0xbfcb593691fcb001	-0.21366006973528331
90	0xbfd0e352a6d216a0	-0.2638746861560808
91	0x3c16a8b2d5ab5fbc	3.070864255177331e-19
92	0xbfd221f1ccbfad03	-0.2833218097209313
93	0xbfce54e4d682538b	-0.2369657561690953
94	0xbfd2da1764bf7ea6	-0.29456124151873053
95	0xbc060fc87594c4f6	-1.494955724167365e-19
96	0x3bb0ed014db865c0	3.584177806334669e-21
97	0xbfcb833e3dae1002	-0.21494272243228357
98	0xbfd26315c3183592	-0.28729766895488595
99	0xbbe25c75179f2024	-3.1105017796278955e-20
100	0xbfcba797a7d04b59	-0.21605201429391732
101	0x3bf7927d73e35918	7.986581081026609e-20
102	0xbfd2849c7984e856	-0.28934394709688627
103	0xbc043c4584c4b88c	-1.371206463943194e-19
104	0xbbfb1102fbbea722	-9.170470566710034e-20
105	0x3c013bf0a7b056e2	1.167830809704389e-19
106	0xbfcdedcfc2827e84	-0.23381993291421932
107	0xbfd18381e8c7f83a	-0.2736515782597767
108	0xbfd2ab27685a07b9	-0.29169640722841056
109	0x3c0d246abc2feecd	1.9747559197999504e-19
110	0xbfd2f052c57cb24e	-0.29591817174767676
111	0xbfd13c62c0073875	-0.26931065323595443
112	0xbfce732a1ea4c546	-0.23788954254409073
113	0xbfcbe73e8a79ce0b	-0.21799451600564654
114	0xbbf6f74cc61a84d9	-7.781188625379894e-20
115	0xbfce2ff4d2235f84	-0.23583851109173903
116	0xbfd1db69ed3d32f3	-0.2790169541156466
117	0xbfd145d0a0ce7e90	-0.26988616660853726
118	0xbfd3286454d14597	-0.2993403271003329
119	0xbfcc1964412d21ab	-0.2195248907321575
120	0x3c09e7249b173daa	1.755248934922776e-19
121	0xbbeab6b6d590af94	-4.525481438340695e-20
122	0xbfcc721f306994b8	-0.22223272193801846
123	0xbc03d18fe8bade69	-1.3429607177173842e-19
124	0x3c09cf2861e748b6	1.7489000927436394e-19
125	0xbfd3f926593610e9	-0.31208189689665616
126	0xbfcc4ca1a3f55c53	-0.2210886049822159
127	0xbc03d7383f3b5b0a	-1.3444582640045037e-19
128	0xbfd1600adde67019	-0.27148696584640813
129	0xbc147b681a576875	-2.775836368777638e-19
130	0x3c0348989d4c742c	1.3067061207803216e-19
131	0xbfca12e73299b3d6	-0.20370187731478379
132	0xbfd16d208e011bf9	-0.27228559367762234
133	0xbfd0edfedee350cb	-0.2645260979309227
134	0xbfcd91a5b6d3435a	-0.2310073034955405
135	0xbbe3264befe79e18	-3.2440677830630034e-20
136	0xbfd26c7bcd53ae04	-0.28787131358578244
137	0xbfd3338a038a956e	-0.30002069803079834
138	0x3fd1d9a77a5d5d5b	0.27890955876997275
139	0x3c06df8f578c5fba	1.5499538078187583e-19
140	0xbbf76e06d7786f6c	-7.938322273212954e-20
141	0xbbee8defecd5bca8	-5.1761238485632423e-20
142	0xbfd2224f95348043	-0.28334416933831025
143	0xbfd3394030e2b5ae	-0.3003693082235611
144	0xbfd222b43285e741	-0.2833681577100045
145	0xbfd1f18f8bd2ef0c	-0.280368696734272
146	0xbfd3ddb4f181192b	-0.3104069097938857
147	0xbfccfb871c412c72	-0.22642601852053051
148	0xbfc82beec30d9e1b	-0.18884071849900938
149	0xbfd1d993b7f521a1	-0.2789048477611918
150	0xbfd6d455d9d6fe23	-0.3567099215833613
151	0x3be6f42f8b8a5d68	3.8885335246405955e-20
152	0xbfd734544aff71f2	-0.3625689251328189
153	0xbfc1158b43a56afc	-0.13346997073207223
154	0xbfd2712f81328c15	-0.2881582986539695
155	0x3c0f3c45a0c57b18	2.1165955706300674e-19
156	0x3fd00bff48bfa3e6	0.25073225120882936
157	0xbfd4494a95666e47	-0.3169733485208081
158	0xbfd55d09c4bcb2a1	-0.333803598524165
159	0xbfd3336b5f9569ba	-0.30001339277591976
160	0xbfd339403b1cedfb	-0.3003693177485897
161	0xbfc43686eb70c736	-0.15791403289909461
162	0xbfc2a81d71301c10	-0.14575546290163333
163	0xbfd00dee9c1547a3	-0.2508503460168134
164	0xbfc3cb8c1bd02b6c	-0.1546492706114252
165	0xbfd1e3f3dfbc5a37	-0.27953812455362786
166	0xbfa974d9b52a8196	-0.04971962296008596
167	0xbfd4dc35815c3661	-0.32594049103577133
168	0xbfd79c8ac1d6b2c7	-0.36892956666524096
169	0xbfd004a251242729	-0.25028284000346673
170	0xbfd75f7ee4818656	-0.3652035933974721
171	0xbfd3f150d4a4c7c0	-0.3116037441824311
172	0xbfb625d1d3f2b0b0	-0.0865145819140618
173	0xbfc2abf41f092350	-0.1458726073781471
174	0xbfc07b172a40de14	-0.12875642359880202
175	0xbfcdbc9aff29e2a5	-0.23231828173790806
176	0xbfcdd47a3c74d126	-0.2330467982479913
177	0xbfbf3a63b4370e9a	-0.1219847025850477
178	0xbfcc51658df74d5e	-0.22123403007445125
179	0xbfd023b8027832d1	-0.25218010178722944
180	0xbc0cbe98ca4913a4	-1.947804364433692e-19
181	0x3c0ac25fb02d1dc4	1.8132788419841255e-19
182	0xbc159c671ae52c8e	-2.928829631397261e-19
183	0xbfd0061475da2caf	-0.25037108906753763
184	0x3be6419c2fa07cb8	3.7703620912291223e-20
185	0xbfcf9674dd1e8af0	-0.24677906796303928
186	0xbba76ab10c72dd00	-2.4793463333063683e-21
187	0xbc120326794c108f	-2.4411226368570735e-19
188	0xbfd1ba2e0019c05b	-0.2769885064108217
189	0xbfd107b8d0d5e119	-0.2660963096054885
190	0xbfd1892281857dca	-0.27399504326419033
191	0xbbf5fe01fab90eae	-7.451253191064745e-20
192	0xbfd1e66154a29be3	-0.27968629136233697
193	0x3fcdcb9f29bf36ea	0.23277654207634352
194	0xbfd02a1035f5531e	-0.25256734151234805
195	0xbfcf906b737fb514	-0.24659484042732827
196	0x3fcc18541423e7b0	0.21949244483385888
197	0xbfd7a98e991979aa	-0.36972393942951476
198	0xbfd1bfefbe44663b	-0.2773398740842798
199	0xbc07aac563fb1ab6	-1.603743345316182e-19
200	0xbfd53c010fd2500c	-0.3317873625285308
201	0xbfce7a4f2c53f690	-0.2381075827069492
202	0xbfd38497ea41549e	-0.3049678599975979
203	0xbfc2bdac27d2a316	-0.1464133448073645
204	0xbfd0e665ce73cd24	-0.2640623584877224
205	0xbfd38d863f70a2ad	-0.3055129642039372
206	0xbfc754f775824deb	-0.18228047597641192
207	0xbfce840ecd1e70d3	-0.23840508475848896
208	0xbfc0280c96851a29	-0.12622220372777918
209	0xbfd55e1da90427dd	-0.33386937623492746
210	0xbfc7ebe44fb67e0b	-0.18688634769658594
211	0xbfd4628e868cc392	-0.3185154260600537
212	0xbfb91f1fa12414aa	-0.09813115772347439
213	0xbfd22f6c82bc879a	-0.2841445233080947
214	0xbfd1c49b76b95a03	-0.27762495607512977
215	0xbfcdfe8942b20246	-0.2343303275738597
216	0xbfd50052b88d6c61	-0.3281447222013352
217	0xbfc60ef493e7bf7e	-0.1723314020341568
218	0x3fcf477e35e5ec8e	0.24436929351563602
219	0xbfb8ecce8aad8014	-0.09736338506400016
220	0xbfbe65d29d183531	-0.11874119124714323
221	0xbfc89d6da030862e	-0.1923043281722569
222	0xbfc7ec68a6b560c6	-0.18690212383331167
223	0xbfd4dcf8d951f83b	-0.32598706457781973
224	0xbfbccdf4e212f944	-0.11251764792811964
225	0xbfd64c42e3015aac	-0.34840461891637164
226	0xbfd358838ce830f7	-0.30227745781372967
227	0xbfb7e9df4e861d6b	-0.09341235797011442
228	0xbfc7e67055a1300a	-0.18671993428358774
229	0xbfccbb6c8d7af1b6	-0.22446972759452216
230	0xbfcc18d3ce9841fe	-0.2195076712382757
231	0xbfcab8fe08e06fbc	-0.20877051766808374
232	0xbfd5dc582f2218af	-0.341573759106164
233	0xbfcc30f161ef84d6	-0.22024361879360893
234	0xbfd73c7b1e47d388	-0.36306646306120927
235	0xbfcda71eeed4ad5e	-0.2316626230398055
236	0xbfd1d71f3773d0dd	-0.27875500121377944
237	0xbfd4cadf30dc0d60	-0.32488231440966864
238	0xbfccda6c5f77cb14	-0.22541575109024647
239	0xbfd3adb4f3089686	-0.3074772237181168
240	0xbfc00529c3d16e65	-0.1251575666564008
241	0x3fd9a8caf6f7d53b	0.4009272968099428
242	0xbfe192ea8214888a	-0.5491840878132888
243	0x3fc541533b6c71da	0.16605606462043349
244	0x3fcd38dfb3396c07	0.22829815150439023
245	0xbfdb65e7e566a162	-0.4280948391192593
246	0xbfd0f97df3c582bc	-0.265227783258563
247	0x3fd083b7b3958dd4	0.2580394033195408
248	0x3fbaf295deb63496	0.10526405989931428
249	0x3fd1c9a5b92d6d3d	0.2779325779317395
250	0x3fd28fd74f9e0f36	0.29002936148775704
251	0xbfcb5b79961f707e	-0.21372909383979172
252	0x3fd94111fd118454	0.39459657396043224
253	0xbfd5db6a617c2069	-0.34151706237799445
254	0x3fac9c8c1120e77d	0.05588185986603287
255	0xbfc4f2a6f92b4bbe	-0.1636551586767307

bias f8 [120]
0	0xbfb6cb8256c32c38	-0.08904280298445222
1	0xbfd1dcb6e835cbb0	-0.27909634281894125
2	0xbfc2ed81ec384bc2	-0.14787315401244255
3	0xbfcdb4f00c9827e2	-0.2320842801566974
4	0xbfd426e4e7a7c63f	-0.3148739111194096
5	0xbfceb0f98866301e	-0.23977584037891203
6	0xbfca2e218c51bc73	-0.20453280784156255
7	0xbfcf954bc6d1657a	-0.24674365241916602
8	0xbfd058dd0a6e3626	-0.25542379397015436
9	0xbfd1c0fa37fb6399	-0.27740340678206504
10	0xbfcfce8aad7cf4ed	-0.2484906527624057
11	0xbfc819b20652faf2	-0.18828416165157297
12	0xbfd257465e7d7376	-0.2865768358949973
13	0xbfc8e4c187ddb3ff	-0.1944810784729327
14	0xbfc76dbad6c98913	-0.18303618896158777
15	0xbfd16ff18fc6ff3f	-0.2724574951243887
16	0xbfd85f1de924e8e5	-0.3808054711149807
17	0xbfcf20f49b2bd231	-0.24319322182385997
18	0xbfd271ac1a48428e	-0.2881880051291227
19	0xbfc7da5332101466	-0.18635024971459585
20	0xbfd23ca8914473fe	-0.2849522989870933
21	0xbfd006a1eecfe29c	-0.25040481873979004
22	0xbfcd04b6336b425c	-0.22670629034702727
23	0xbfcacad7d6caacb6	-0.20931528079868195
24	0xbfd1da85c7fe338b	-0.27896255999149194
25	0xbfcc3cc4f6600458	-0.22060453443558248
26	0xbfd2947a915b1fda	-0.2903124255649324
27	0xbfcf27a6d434c1cb	-0.24339757310509777
28	0xbfd782c62c173d18	-0.3673568182538971
29	0xbfc86ae53db9ee14	-0.19076219095210034
30	0xbfd5a6d870b26c2d	-0.3383084393078118
31	0xbfcc498c0415d1a2	-0.22099447440599557
32	0xbfccba80ef5aaa68	-0.22444163977828002
33	0xbfc72765b373bd5f	-0.1808898092490194
34	0xbfddfd17042b9507	-0.46857238204241053
35	0xbfd10c9e6819dc84	-0.266395188962129
36	0xbfd5d6a62559a18a	-0.34122613570664184
37	0xbfcdd1e43582fda9	-0.2329678784644618
38	0xbfc5bd1aa0ddfcf3	-0.16983349661675326
39	0xbfdcdec0118354fb	-0.45109559736495414
40	0xbfc83761f58133a4	-0.18919014441999338
41	0xbfcab584a938a10a	-0.20866449606661092
42	0xbfd1ec6b6ca08040	-0.2800549088297011
43	0xbfd528d74fe5b6a5	-0.3306177406546829
44	0xbfca2ef1c3fda278	-0.2045576292978415
45	0xbfd124ac450ea1a1	-0.2678633379350917
46	0xbfd1c3663f578a26	-0.2775512331556079
47	0xbfc6ba73a8e2e9c3	-0.1775650572433972
48	0xbfdf8bb01809ed3e	-0.4929008707765269
49	0xbfced219a1816457	-0.24078674684531862
50	0xbfcc821038845c24	-0.2227192188226762
51	0xbfc88cf33588d566	-0.1918014537238079
52	0xbfd01bd404dae6b4	-0.2516984984791677
53	0xbfced2c414bde99f	-0.24080706608567667
54	0xbfd7d7ba0c90a3c5	-0.37254191615153004
55	0xbfd04cfcecc96031	-0.2546989738816619
56	0xbfd703e1e243fb77	-0.3596119603752678
57	0xbfdce9029c2130a5	-0.4517218136504744
58	0xbfd04b31d3108723	-0.2545895157983173
59	0xbfd177f5e5c07a0d	-0.27294681011872585
60	0xbfdb1a6564e10fc6	-0.4234860882900161
61	0x3fa6b573950aeedd	0.04435311502808557
62	0xbfd1eb0f15677443	-0.2799718579315746
63	0xbfe1c035e2574fef	-0.5547131939624687
64	0xbfcc44b883f96e12	-0.22084719127711644
65	0xbfd46eea83e733af	-0.3192697799793746
66	0xbfc301843d65099b	-0.1484837817934704
67	0xbfc39bb1fc3e2841	-0.15318894211333325
68	0xbfd17e4466c19cd3	-0.27333173785014003
69	0xbfcddea3a6e31066	-0.23335691117074758
70	0xbfcdea4070ecbdab	-0.2337112952604746
71	0xbfd0bf97fc76dafb	-0.26169395117487654
72	0xbfd0ce9079766e48	-0.26260768758377084
73	0xbfc4250e0dc3a227	-0.15738082573013054
74	0xbfce581edd73a9b9	-0.23706422627522075
75	0xbfd111d33d5132dc	-0.2667129610825165
76	0xbfcb0f208cb6906f	-0.21139914389380318
77	0xbfcaf1643de82f66	-0.21049168608476093
78	0xbfce6a481eb39d5e	-0.23761846064665354
79	0xbfd152c2a6b660a1	-0.2706762912798784
80	0xbfd84ad6ab87f445	-0.3795677828891864
81	0xbfcba41189ab294f	-0.21594447347735943
82	0xbfdb4c96f0d15bdc	-0.4265496589409261
83	0xbfd3a61afc8c4891	-0.3070132700241937
84	0xbfd06e91e75aca2d	-0.25674865334727565
85	0xbfd44b32b23e9832	-0.31708972365084087
86	0xbfc3891eaaf9f188	-0.1526220640988749
87	0xbfcfe8ec497fb68a	-0.24929574574291663
88	0xbfd0223d8a84c166	-0.25208986785130205
89	0xbfc89b7683442bb8	-0.19224435243117255
90	0xbfd5c37ada0a6f35	-0.3400561456016818
91	0xbfcad7ecec0f6c7d	-0.20971452261332849
92	0xbfd39b0ea93fc3f8	-0.3063389447043501
93	0xbfcfa34ebe447bdd	-0.24717125215917593
94	0xbfd208fc0d46b832	-0.28179837509640315
95	0xbfd51169baaaa01b	-0.3291878054537862
96	0xbf9d3e98b3034205	-0.028559099126882277
97	0xbfd4a5435401f8c5	-0.3225868530643193
98	0xbff045e42c3db9c0	-1.0170633056801393
99	0xbfce663ca07cba6d	-0.23749502025880834
100	0xbfcd0318c7d2b641	-0.22665700680720316
101	0xbfd0b7c7791f9ef1	-0.2612169916960588
102	0xbfdbc100aec585f8	-0.4336549479249636
103	0xbfcd7b10418fae19	-0.230318099987344
104	0xbfd1ad7eba009822	-0.2762142960003776
105	0xbfd18f32987c9f08	-0.27436509028710576
106	0xbfd388f33d0b2511	-0.30523377381594324
107	0xbfc5e95c7812ae14	-0.17118411887109686
108	0xbfd9ced037716f74	-0.4032478848873702
109	0xbfd0ee5060b4a8ce	-0.26454553073803033
110	0xbfd0206b9f3da319	-0.2519787840924877
111	0xbfcf807eeda1adeb	-0.24610888102630155
112	0xbfd675a143edf9a5	-0.3509295619368465
113	0xbfd110fe45f6bf6e	-0.2666621859780126
114	0xbfd0a3db5c415e5a	-0.26000103005705955
115	0xbfd5f96b88ec98e6	-0.34334839221481983
116	0xbfc058f2b6734d6f	-0.12771448048315956
117	0xbfcbf5eef59ec9a8	-0.21844279282738666
118	0xbfd0114e3d572c4f	-0.2510562514332308
119	0xbfc836aa17d04a71	-0.18916822588706197

weight f8 [120, 120]
0	0xbfcc084669f46152	-0.21900253461422864
1	0x3c04a28fc9be3c0c	1.3982824319300302e-19
2	0xbfc59a195987bc58	-0.16876522895424517
3	0x3c0112ea56f56516	1.1569716701462078e-19
4	0xbc098ab93b47a999	-1.7307857153053323e-19
5	0xbc0226f89751c09c	-1.230042997458697e-19
6	0xbfcfa13c07a3f55c	-0.24710798619336571
7	0xbbff1dc7ba45a760	-1.054262229399745e-19
8	0xbfd3e64f59f0b6d1	-0.31093200476867106
9	0x3c15fe8b13f2c894	2.980784789555606e-19
10	0x3be56aad59c176e4	3.6281313952323886e-20
11	0xbc0805800d32d7bf	-1.627759149915089e-19
12	0xbfc5490d740046f9	-0.16629188694110278
13	0xbfd2db2c09ce8805	-0.29462719876949023
14	0xbbfd5ba787ed2618	-9.946885800112987e-20
15	0xbbc8088863f0dda0	-1.0178511659115832e-20
16	0xbfbed9aa18b10b6d	-0.12050879576513092
17	0x3c00b69fe1a3441a	1.1325424848509841e-19
18	0xbbdf95c9ed84ddc8	-2.675363086572169e-20
19	0xbbf81dc55e09e7f0	-8.170917839289278e-20
20	0x3c00ccd6a8dbc874	1.138422475700985e-19
21	0xbc00bbb67ecb017a	-1.1338893560428469e-19
22	0xbfd36980e27e629f	-0.3033144199230637
23	0xbfd189e92460d3dd	-0.2740424018150501
24	0xbc044ee8f4e4f970	-1.3761400151945747e-19
25	0x3bf8913adce45c64	8.323726509604753e-20
26	0xbc046d693715bded	-1.3842135653143853e-19
27	0x3bfef0dadf7a0600	1.0483164268931658e-19
28	0xbfd1d2e069165943	-0.2784958864443931
29	0x3c025678b9e7755b	1.2426162824563542e-19
30	0x3be6160575c1facc	3.7415174604461667e-20
31	0xbfd288b071f5c5b9	-0.2895928490534874
32	0x3bece9d1053e5588	4.898111276087285e-20
33	0xbfce03e49a16b493	-0.23449380420553165
34	0xbbd0d156a2149980	-1.4245169855083677e-20
35	0xbbf78ca384d3948e	-7.978836944609993e-20
36	0xbfcc597b6bb57c3b	-0.22148077735161728
37	0xbc0be09c284fd310	-1.889044935414659e-19
38	0xbfcf1a27e0d93917	-0.24298571089679719
39	0xbfce00197d3b3f98	-0.23437803854767192
40	0xbfc5971f4dd4ebd2	-0.16867438602807155
41	0xbfd0671c09c02a2d	-0.2562933058949593
42	0xbc12b89883557b4c	-2.537179066566297e-19
43	0xbfd044dc7ae47fc3	-0.2542029571650312
44	0x3bed476744d27ebc	4.9600418965547174e-20
45	0xbc01cf0510ebe9d6	-1.2067624902657323e-19
46	0xbc11944dd9d03749	-2.3824411559028136e-19
47	0xbe9818bc4723bad1	-3.5906766194988057e-07
48	0x3c02e6d5eee9574e	1.2808291389240046e-19
49	0xbc034ec7d7a9742e	-1.308343140144827e-19
50	0xbbe59f537346c388	-3.6629714663505795e-20
51	0x3c10c3f476a14370	2.2721420238762696e-19
52	0xbfcda1e11b6a763c	-0.23150266493478167
53	0xbc13493e64933a9a	-2.6137550633057885e-19
54	0xbfd0c0cfe39bbcdb	-0.261768314622669
55	0xbfd61c8a32971e21	-0.3454919332548077
56	0xbbe22cdfe60a10d0	-3.0790141319702465e-20
57	0xbfcc5e1a0664c803	-0.22162175476256615
58	0xbbf8cce0600af486	-8.402668038004937e-20
59	0x3bfda5d34b9ab78c	1.0045050241114643e-19
60	0x3c02dd32fbb44320	1.2782783723791898e-19
61	0xbbc14896ad1980f0	-7.319867781798351e-21
62	0x3c0f87bd5bd2ad19	2.136571703942628e-19
63	0xbfd320e120c05790	-0.2988817996823565
64	0xbc04a5f7ab82dae6	-1.399183936691835e-19
65	0xbc0382500c3fa07f	-1.3219835608414679e-19
66	0xbfc524bb9c74c0c8	-0.16518349780517938
67	0xbfd67539c1c7eb6b	-0.35090488361281896
68	0xbbfc0897deb99142	-9.498142070684924e-20
69	0x3c0eb3f4646becf0	2.0805126745837351e-19
70	0xbfcf7def4799ded1	-0.24603072162766762
71	0xbc02a8eec7d80c90	-1.2644435671725302e-19
72	0xbfc1a29c3401018f	-0.13777496852163693
73	0xbfd0bc3cd45ce637	-0.2614891122680975
74	0x3c1564dbb08bddc4	2.899424569493295e-19
75	0x3bfac2f3a738a47e	9.067159171142949e-20
76	0xbfcb8a97641ffe89	-0.21516697300829815
77	0x3c0a8ddd4af1b8e4	1.7993797308688792e-19
78	0xbfcfdbd2903ce5a2	-0.24889595072617704
79	0x3c14beb49aa4bb82	2.811464074175991e-19
80	0xbbff21eda775ec4a	-1.0548112325419095e-19
81	0x3ba1abbc26bfe680	1.870972930214269e-21
82	0xbbf42d87db86c8c0	-6.836522949082438e-20
83	0xbbefe59b7dd070d8	-5.40354569720457e-20
84	0xbfced8d959306148	-0.2409927068226898
85	0xbfd326a182fbb39e	-0.29923284331635525
86	0xbfd29db13dca451c	-0.29087477716628185
87	0xbfca3130e533ae56	-0.20462619010446542
88	0xbc101a3a9378e565	-2.1822897628240623e-19
89	0x3bb312afa21f3740	4.038863252247269e-21
90	0xbc000eae2446e031	-1.0880879999340365e-19
91	0xbfd235c5e61e66b2	-0.2845320460561239
92	0xbc04bd990e7036e3	-1.4054388556622192e-19
93	0x3c00a86e082f3e0e	1.1287851726076776e-19
94	0xbfce3afdd948f01e	-0.23617528066267907
95	0xbfd0785084cd7d74	-0.2573434159184764
96	0x3c014689f5c1ff28	1.1706363012747838e-19
97	0x3be59e6685e37cfc	3.6623590236446486e-20
98	0x3c11f90a409d1e40	2.435770320409119e-19
99	0xbfd2802d5f598726	-0.28907331763740485
100	0xbbfd4ab0ac22b27c	-9.924433747599435e-20
101	0x3c0b1215f1854473	1.8343784153825104e-19
102	0xbfd26ff1d209fc11	-0.28808255683537803
103	0x3c00e9432f2ed56c	1.145946225904153e-19
104	0x3c100f767795e958	2.1765902631369386e-19
105	0x3c0d4d1c4b47a0a3	1.9855274232973928e-19
106	0xbbf115b911a7d15a	-5.788574094045043e-20
107	0xbfd3f2abf0c50cf6	-0.3116865016238103
108	0xbc0da5eb560fa2b6	-2.009034905875634e-19
109	0xbfd3b449a9763e57	-0.3078788905049569
110	0xbc0c94ddc3cf3b32	-1.936758375172622e-19
111	0xbfd1efa743c20b5b	-0.2802522813510017
112	0xbc10dcb712092bc1	-2.285249956040943e-19
113	0xbfd3953b1c5e4600	-0.30598333139741385
114	0xbfcc77924975b05a	-0.2223990305604982
115	0xbfd04740674ec200	-0.25434885109555694
116	0xbfd1356693a8bf70	-0.26888431949463776
117	0x3bdbc5b18e3ce698	2.352400275111795e-20
118	0xbfcdb6fc584b112b	-0.23214678107445627
119	0xbc0361681d7e9d41	-1.3132734186475026e-19
120	0x3bfaafc24c692f50	9.041757722557688e-20
121	0xbc0d23b2d0da042b	-1.9745657517218638e-19
122	0xbfcdb42f4a476157	-0.23206130148788404
123	0xbfd0b89780d8cef7	-0.26126658995347846
124	0x3c0e041b11bb9139	2.0339658535618054e-19
125	0xbfc9d02324964207	-0.20166434561225818
126	0x3c0785f357fc9fab	1.5939970413051333e-19
127	0xbc01a9f10ea44e9d	-1.1969479830901062e-19
128	0xbc125b350e1195ca	-2.4877396020446243e-19
129	0xbfc5323d9339bb85	-0.16559571923013663
130	0x3c023b0f62ed4dae	1.235360523210515e-19
131	0xbfc56d81109e7afb	-0.1674043017528318
132	0x3c0a5813156ae8b2	1.7851416683830367e-19
133	0x3c12678570d8a79c	2.494258583190767e-19
134	0xbbf355411c391d87	-6.550283574524847e-20
135	0x3be9726d5bd0b4fc	4.3108862936297096e-20
136	0xbc01765dc4a91b78	-1.1832961022477984e-19
137	0x3c0327853f143a00	1.2979510674221277e-19
138	0xbfc31378da95e065	-0.14903174088590557
139	0x3c00002b96e0e2fe	1.0842472428366907e-19
140	0x3c0a116114b85e99	1.7664287721587e-19
141	0x3bd529f927944600	1.7926569760608317e-20
142	0x3c04c04007703ada	1.406140896934593e-19
143	0x3c0b25a1c887d4e2	1.8395522645568042e-19
144	0x3bfc13fb35275715	9.513214012885586e-20
145	0xbc076534a69fc550	-1.585329540074841e-19
146	0x3c07f22f8bb1c2cf	1.6226466506661092e-19
147	0xbfce0702f7acfb70	-0.23458897679844481
148	0x3c061854a82ca86f	1.4972182674874683e-19
149	0xbfd0eef0dfa35439	-0.26458379592560594
150	0xbc0b0eed5bbabd19	-1.8335423579622847e-19
151	0x3c0f241a39bf58b8	2.1101979464572666e-19
152	0xbc020040dd1d1502	-1.2197945115659222e-19
153	0xbc12c5a0d91531d0	-2.544078445548915e-19
154	0x3bdaaec8a3f6ab40	2.260116755240678e-20
155	0xbfadc9b324f496da	-0.05817947221866655
156	0x3bf4d39ac74d857c	7.056319939060245e-20
157	0xbc001d00f63b1b4a	-1.0918794030886216e-19
158	0xbbf953a8e9c9dff0	-8.581052318855864e-20
159	0xbc138c5957f79e5a	-2.6492803008179847e-19
160	0xbfd03a124ed835ea	-0.25354440402665424
161	0xbbf09572eaf64706	-5.618804831666839e-20
162	0xbfcf8e627eae1c67	-0.24653273759415414
163	0xbc0e23cd93055189	-2.0423560551150642e-19
164	0x3c0f8b69d0462a3d	2.1375441115047391e-19
165	0xbfd1b9aa559c63a4	-0.2769571147960568
166	0xbc08564c23e67834	-1.649145996343951e-19
167	0x3c0539da912aab5b	1.4383291188006523e-19
168	0xbbd0a9f2281e04b0	-1.4114831052249854e-20
169	0xbc0d28536ffc1906	-1.9757906217620387e-19
170	0xbc0c09bb0d608234	-1.899929489511189e-19
171	0xbc0095d027b926b3	-1.1238573714922125e-19
172	0xbbead7ff772ebd78	-4.547506754068614e-20
173	0x3c04fba1074c26c4	1.4218583619796486e-19
174	0x3c0e8dc57ea0324c	2.0704056673119565e-19
175	0xbfd027f3947caab0	-0.2524384450977477
176	0xbbfaeb8ce87b0e98	-9.12089103971082e-20
177	0x3bf137d7a08cce22	5.833730701463867e-20
178	0xbfad64a85868a1b3	-0.057408581535415414
179	0xbfd1c165c3c2d5d1	-0.2774290477494477
180	0xbc05f444ae794655	-1.4876726286612132e-19
181	0x3c05e1aa76393369	1.4827486088718844e-19
182	0x3c08d1a67a1f589b	1.6817972313215382e-19
183	0x3be7f53ce4ecb782	4.058636365343527e-20
184	0xbbe29df4f86d3218	-3.153845728736281e-20
185	0xbbe3e82dedeca088	-3.372368645951558e-20
186	0xbbfe5c6d31340d18	-1.0286720863664943e-19
187	0xbfd045a2afa48903	-0.2542502131710906
188	0xbfc99a51e57f2a6d	-0.20002196985145151
189	0xbc01ae6396ae0296	-1.198125196964175e-19
190	0xbc04b412b95d34a5	-1.4029176791332926e-19
191	0xbbc41330be410d60	-8.502077331238676e-21
192	0x3c035c0e74931366	1.3118572235615327e-19
193	0xbbf7559e9f3ca78e	-7.906019734665897e-20
194	0xbc03c24a3507b7db	-1.3389181806475564e-19
195	0x3bfd393aeaa4dae4	9.901325651583907e-20
196	0xbbc9b0e68869db30	-1.0880569200021488e-20
197	0xbfc7e1c9d22a74ba	-0.186578014011422
198	0x3c0296411769d836	1.2594994164397009e-19
199	0xbfce88cb724ae9d7	-0.2385496433324323
200	0xbfcdfa32e182bfac	-0.23419796000734772
201	0xbfcc9fc1d42a2603	-0.22362540111161885
202	0x3c00f9a6c1345857	1.1502843440174862e-19
203	0x3c06b2ad912be29a	1.5380736590087755e-19
204	0xbc00d8b6d314fd70	-1.1415659325679023e-19
205	0x3bdc3a78a5226aa8	2.391038772603989e-20
206	0xbfd1393915c5c4e6	-0.2691176140425128
207	0xbc09bb1f71eae949	-1.743596895722122e-19
208	0xbc070fdebbbcf252	-1.5627413907761869e-19
209	0x3c04e614ea5e8b95	1.4161548348162314e-19
210	0xbc093e1832846304	-1.7105021773171162e-19
211	0x3bd5b4d94ae4f830	1.838607037384444e-20
212	0x3bf293aa0bf222ec	6.294069220948698e-20
213	0x3c06fb06bb999d30	1.5572240955330088e-19
214	0xbfd2676e3d8c02cd	-0.28756290445748506
215	0xbc03200afc2beaa7	-1.2959717675695127e-19
216	0xbfd0c00677232014	-0.2617202914666461
217	0xbc050bd146594044	-1.4261434122143222e-19
218	0x3c03be12cbfeb6f9	1.3378020965627035e-19
219	0xbc11207e11d72b18	-2.321130981484159e-19
220	0x3c078a0509fca0e0	1.595074129013567e-19
221	0x3bfa03726313c010	8.81370448541852e-20
222	0x3c145fb257af3f54	2.7611668161398066e-19
223	0xbfcba49e62b5eea1	-0.21596126384598782
224	0xbfd0ae62e1669d65	-0.2606436921291418
225	0x3c0050c5ddcb4f7c	1.1055825852122685e-19
226	0xbfd0d0d0bda076b7	-0.2627450801681834
227	0x3c072ee7bdbbc589	1.5709563362940025e-19
228	0xbbe3c7a277315588	-3.3508323168087065e-20
229	0x3bfd20411ae37e68	9.868270420648362e-20
230	0x3be20784b67e6664	3.0542938762644206e-20
231	0x3be00ee4c4e82cb4	2.720361208512712e-20
232	0x3c05c56f8390533a	1.4752761198943942e-19
233	0x3c0617b3789c6910	1.4970516052818788e-19
234	0xbc0310537533c6f7	-1.2918115379274973e-19
235	0x3c011c8187ca013e	1.15951027787583e-19
236	0x3c11501bd3e13e44	2.3463388101376085e-19
237	0xbfbf734295ab5a51	-0.12285247949635304
238	0x3bf0ebe071062154	5.733191108105448e-20
239	0x3bf23c10df1a3846	6.178133782614823e-20
240	0xbc1267242dccaeb9	-2.4940574502927567e-19
241	0xbbbda27809553800	-6.275379985536981e-21
242	0xbfca161c43c64199	-0.20379975613878967
243	0x3c13e602a7ddee3f	2.696746637742095e-19
244	0x3bf430fce268dee8	6.841098430849741e-20
245	0xbfd10dcc9c64e41d	-0.2664672400747479
246	0xbc042c2880b9de6f	-1.3669412975826315e-19
247	0xbbf72d8c3edd981c	-7.852985171440092e-20
248	0x3c077f64656f9624	1.5922610503149124e-19
249	0x3bb2d556ddf4d600	3.9881184155886805e-21
250	0xbfd3c5181ec9b8ae	-0.3089046765006839
251	0xbc082656b3970df6	-1.6364514222512137e-19
252	0xbc0c42035d6135ab	-1.914827335471756e-19
253	0xbc0bb6bc1938eb3a	-1.877960654260544e-19
254	0x3c041cf63e43ae7e	1.362918863417549e-19
255	0xbbb2656ddf43dcc0	-3.895548520508976e-21

bias f8 [120]
0	0xbfd0825030c639bd	-0.257953689223452
1	0xbfd1f0e6efc3a3b8	-0.28032849707102114
2	0xbfd18d40a7b71441	-0.2742463720172204
3	0xbfee1ebab804ee35	-0.9412511438490073
4	0xbfef061099609d98	-0.9694903369572101
5	0xbfd15567af254a4e	-0.27083770851200917
6	0xbfa1308625c399e6	-0.03357333384501597
7	0xbfb3e49caf7a7d4c	-0.0777070930876011
8	0xbfc049a8147cb915	-0.12724781990386505
9	0xbfe6358f99228bf9	-0.6940381995121917
10	0xbfda5619ea1af008	-0.4115052019294585
11	0xbfd01a49b98a1cb4	-0.2516044914158997
12	0xbfcb320d2b352d3c	-0.21246494874717736
13	0xbfd632c0b1e96f7a	-0.34684769987301645
14	0xbfd5a1538e510411	-0.3379715814408551
15	0xbfb70cc6e1c2bd39	-0.09003870975242458
16	0xbfef5db0b06427bf	-0.9801867909566154
17	0xbfda5dd6ca3af1cd	-0.4119774794487768
18	0xbfd1fea1661bfda2	-0.28116641017546773
19	0xbfd0d359f06071f8	-0.2628998610905735
20	0xbfd79d5d3707cf32	-0.3689797437102583
21	0xbfddb99401617151	-0.4644517911417739
22	0xbfc39af862c2d151	-0.15316681692423598
23	0xbfd219aa265555f0	-0.28281644576540454
24	0xbfda852dec1efb41	-0.4143786245221471
25	0xbfdbbc690f7d9070	-0.4333746577524442
26	0xbff238b3e7222e1a	-1.1388434437420814
27	0xbfd49e3d2333fb87	-0.32215813100622664
28	0xbfbfda48b9772ab8	-0.12442450073209954
29	0xbfdb47ed97c155e8	-0.42626514263005655
30	0xbfe021508b449208	-0.5040667266917476
31	0xbfc282869e1f4708	-0.14460833283242658
32	0xbfd1700910298a3b	-0.2724630983194946
33	0xbfea30b4a93f05e8	-0.81844552093406
34	0xbfcfd0fd9cb86274	-0.24856538917881077
35	0xbfd69205d513389d	-0.35266252334703
36	0x3faf506e37c8d143	0.06116051131212654
37	0xbfc98c2eb4e3f6cb	-0.19959052879851522
38	0xbfd38e84c7dce786	-0.30557364957677924
39	0xbfcdd7fa3bc08d30	-0.2331536094435278
40	0xbfbec3406c5af84f	-0.12016680379289933
41	0xbfe118fe4413c3fd	-0.5343009309418673
42	0xbfd7f04c4130ee14	-0.37404161802598535
43	0xbfd8c246cee95517	-0.38685770231434574
44	0xbfd51a2252f87ebf	-0.3297200975666605
45	0xbfdb0f7bc9addc24	-0.4228200406573157
46	0xbfdb79361f98c039	-0.4292731579362257
47	0xbfd7c30f396e0e40	-0.37128048523320345
48	0xbfc6ea00dc9be48b	-0.17901621601030046
49	0xbfd1da292480c53a	-0.2789404732203199
50	0xbfcb41f2feeb4d35	-0.21295010993217436
51	0xbfcde76c30d19d44	-0.2336249578831745
52	0xbfdfd68d0f9659d9	-0.4974701549739656
53	0xbfcf13ce3aa989ec	-0.24279191841476633
54	0xbfd76267f3b6af34	-0.365381229402135
55	0xbfc965d119f7f76b	-0.1984197022247217
56	0xbfd3e89131dfe34d	-0.3110697733932753
57	0xbfd6221f52b3512c	-0.345832663309255
58	0xbfe09b7adafb8f98	-0.5189794804577899
59	0xbfd3383d3b282fe5	-0.30030756737755687
60	0xbfcfaea9cf5b48e4	-0.2475178015216165
61	0xbfd06e5b90403acc	-0.2567356976223152
62	0xbfc2a46d56740436	-0.14564291688296443
63	0xbfd791a6d812059a	-0.3682648763716202
64	0xbfd34d2bc513e22e	-0.30158514257303437
65	0xbfc3e0627884bf2e	-0.15528517613119547
66	0xbfcb8c354e9aa4e4	-0.2152163156327226
67	0xbfd29126611fbfed	-0.29010924801605037
68	0xbfcfee2c0121f6ac	-0.24945592932993088
69	0xbfd1272d309a9f2b	-0.2680161451958038
70	0xbfd56d81ff62cd22	-0.33480882587464766
71	0xbfbed2909e2bc483	-0.12040046559902078
72	0xbff151a508a5a569	-1.082432779099998
73	0xbfd19139b0b706bf	-0.2744888520938779
74	0xbfcee8209f5e7f98	-0.24145896703430192
75	0xbfdbc88afc1edbc0	-0.434115167819467
76	0xbfd6e807e98f6b38	-0.35791204269996824
77	0xbfda1e95d2598e5d	-0.40811677495933
78	0xbfd4284c179d7815	-0.3149595480553001
79	0xbfd8fa06224f0945	-0.3902602515264742
80	0xbfd1d6022f73973d	-0.278687044467336
81	0xbfd11c15dd8a28b1	-0.26733919749006946
82	0xbfccbbfbdf747bed	-0.22448681269540263
83	0xbfd4b94eb5aacfe9	-0.3238102697462169
84	0xbfab7afac2293034	-0.053672634316712126
85	0xbfdff782397ac821	-0.4994817315410974
86	0xbfce1347d9ec8b26	-0.23496339932270266
87	0xbfe27cef7ec5385c	-0.5777509189590648
88	0xbfcf24d428e28f00	-0.24331142422044394
89	0xbfce40b86b28e687	-0.23635010940943266
90	0xbfd23f2de2dbf1c5	-0.28510615495886454
91	0xbfd0f2c23fa5110b	-0.2648168202906766
92	0xbfde1071ee716d08	-0.46975372586685227
93	0xbfd3cd9214260e4e	-0.3094220349086968
94	0xbfe0b8b26fcdad14	-0.5225460227642622
95	0xbfd93a52ae347e7c	-0.39418475162708666
96	0xbfd1be6139ffac6f	-0.27724486030519463
97	0xbfc6512e1dce4ec0	-0.17435242133489304
98	0xbfdfbd7f7325f49f	-0.49594103093097347
99	0xbfccd07ea1c36136	-0.22511275194734431
100	0xbfd1bc9fc389a11f	-0.27713770003767196
101	0xbfd28c5cc89d1202	-0.28981704322021085
102	0xbff687d4dcc8136c	-1.4081619858054308
103	0xbfcba5f61cbd2676	-0.21600223925843282
104	0xbff5f28f3a68122d	-1.3717186242585158
105	0xbfd1964b2cc01542	-0.2747981965079199
106	0xbfd8d80e815de127	-0.3881870520922512
107	0xbfe018142bbbed7b	-0.5029393057042592
108	0xbfd5033e23148045	-0.3283229200915268
109	0xbfd913bea28628a3	-0.391830118861103
110	0xbfd18db36aaec79a	-0.2742737333129469
111	0xbfcdec474c4c5b6a	-0.23377314782620867
112	0xbfc6857a20a90496	-0.17594839663255318
113	0xbfe7c95c5f8d4166	-0.7433301798101126
114	0xbff1515019ad457e	-1.0823517802240015
115	0xbfd32694fb9f4b35	-0.29922985622868065
116	0xbfd1a46a2a5c684a	-0.275660077446109
117	0xbfd3af978201cec5	-0.3075922746277054
118	0xbfc44bd1c0dd42bd	-0.15856382291032914
119	0xbfbdfb9d1eb0c66b	-0.11712057112961254

weight f8 [120, 120]
0	0x3bd6eb8147c6bc78	1.941394552509439e-20
1	0x3c13fce19f1407fa	2.70885442296403e-19
2	0xbbe069d7d8fe3a18	-2.7805465557123895e-20
3	0x3c075679b513d291	1.581430475838943e-19
4	0xbbfc5c29185422a2	-9.60874245176118e-20
5	0x3c0b061b11a5c08a	1.8312073414686245e-19
6	0x3be40b9b8c5a2060	3.395813061210478e-20
7	0x3c073b4894e5d6a4	1.5742328405614943e-19
8	0x3c07922f3f22a86c	1.5972353530291564e-19
9	0x3c08d39e957ab12f	1.682318465600764e-19
10	0xbc05736968d2bf84	-1.4535645887622472e-19
11	0xbbfd0df450553c5a	-9.844050617636179e-20
12	0x3be854a6fedeef00	4.121776357464722e-20
13	0xbfcf6fa45e417fca	-0.24559454538666464
14	0xbc0e8d5923357b5a	-2.0702936286995288e-19
15	0xbfcdcc40106b3de1	-0.2327957229776834
16	0xbfcc5dbd11f8093c	-0.22161067368876697
17	0x3bfe385e894b53c7	1.023899949118147e-19
18	0xbbed0c9c423d9688	-4.921135947362982e-20
19	0xbbe9fc538ef0541c	-4.4021403410464443e-20
20	0x3c03292a98da541f	1.29838673381312e-19
21	0x3be84bc38a3ece3c	4.115894442680745e-20
22	0xbc127e3b53fa29f6	-2.5062814201914544e-19
23	0x3c1373463a48b843	2.636005880159073e-19
24	0x3c0385477f2695da	1.322768812533842e-19
25	0x3c0abec955170f44	1.8123292843371555e-19
26	0xbfcecd9c5922c6df	-0.2406497416719082
27	0x3bf6df2ed953f8fd	7.749270181727244e-20
28	0x3bf3f9dc039ab6de	6.768136601305395e-20
29	0xbfd09a5895d09e50	-0.2594205344234739
30	0x3c03f49a96ab032f	1.352236182865869e-19
31	0xbfcdd10c438cb0e2	-0.2329421357948212
32	0xbbf85b35a9768fe4	-8.252231216687631e-20
33	0xbbffd106a8fab1e0	-1.0779852174573343e-19
34	0xbc0920ea7023ec14	-1.702778627241465e-19
35	0xbfce138bbd42eb9c	-0.23497149220733327
36	0xbfd025d854dbd074	-0.25230987822511186
37	0x3bf2d015b9c0a528	6.374035246786277e-20
38	0xbbd3ebc8400bcae8	-1.687376394654573e-20
39	0xbbfdbabb1578f68a	-1.007271833942051e-19
40	0x3beddecbb214f578	5.060224911732816e-20
41	0x3c11b5cc4f773af5	2.4001727227214045e-19
42	0xbc029164a6d92580	-1.25821269593985e-19
43	0x3bf80c67a8a59ed1	8.147934064719758e-20
44	0xbc046377cb4a4986	-1.3815816616111935e-19
45	0x3c05932f7d176445	1.4619750295027414e-19
46	0xbfd29c3ff6d6b2e5	-0.29078673463190646
47	0xbc0c11058aff1ca2	-1.9018593956632661e-19
48	0x3c08f47635dce352	1.6910117476470415e-19
49	0x3c09f6bbe18899c0	1.7593758167198993e-19
50	0xbbf7b612bea07dd6	-8.033675016613911e-20
51	0x3c05048d91fab2af	1.4242205227599077e-19
52	0x3c11f0c2a16766fb	2.431387045027373e-19
53	0xbc0a1d98f8386ec2	-1.769662933244195e-19
54	0xbc022cff872f193c	-1.2316383568949325e-19
55	0xbc11bbeb15ed4630	-2.40341273797562e-19
56	0x3bf783c57b320d68	7.967101125173538e-20
57	0x3bf934ae40f51f0d	8.540051770229934e-20
58	0x3bb2327820326cc0	3.8533954405670554e-21
59	0xbc07c061443333b8	-1.609463170890081e-19
60	0xbfcbf0f36f4ea2d7	-0.21829073843880195
61	0x3bf4e95e32edb665	7.085123507498213e-20
62	0xbc0f8d78eb9dd160	-2.1380891271683085e-19
63	0x3c05864cd71d5aca	1.45856430705291e-19
64	0xbbfc3191fc127f7a	-9.55237469226115e-20
65	0x3c0dc977a7e063ac	2.0184444157933728e-19
66	0x3becac926c2c8328	4.857583050342873e-20
67	0xbfd13dd9bd07415e	-0.2694000574092764
68	0x3bf1af8d853cb834	5.99216625646244e-20
69	0x3c107c4fc7d1a281	2.234214380678302e-19
70	0xbfcf7ed6cc543fde	-0.2460583207798654
71	0xbfce72680a5a29eb	-0.23786640649298305
72	0xbc14a085167d6630	-2.79548394516435e-19
73	0x3beaebefc1d84f00	4.5607010387361814e-20
74	0xbbd3b37390e1f718	-1.6687380971288738e-20
75	0xbc0895b5c1643f76	-1.6659311610508001e-19
76	0xbc00e1bd4eff84ab	-1.143954917079896e-19
77	0xbc1016bdc1895ac2	-2.1804434542109155e-19
78	0xbc01abe7d54f123e	-1.197467841334298e-19
79	0xbc0e60958d322d3d	-2.0584446945031515e-19
80	0xbbdc1f7c4bb3aa14	-2.38210994034787e-20
81	0x3bd8fdb7fb1b69f0	2.1168275411238895e-20
82	0xbbfbdb3bf742e1d4	-9.43810993323725e-20
83	0x3bf4b6fba8acb693	7.018439618353436e-20
84	0xbfd17adb05364f90	-0.2731235075855176
85	0xbc07796c73c74a69	-1.5906811932742138e-19
86	0xbc0042e0ad6dea36	-1.1019045380697258e-19
87	0x3c070d0fc6e7f783	1.5619980073080413e-19
88	0x3bdcae71974449a0	2.4294108357245498e-20
89	0xbc03dc355aea5b56	-1.3457787628704545e-19
90	0xbc135647d89b64be	-2.6206567548641795e-19
91	0xbc0b0e54e363a4e0	-1.8333847075956486e-19
92	0xbc112d4ab8d7a3e4	-2.3279069397311145e-19
93	0x3bf8ad7ce9c6ac4e	8.361125673240759e-20
94	0xbfd132c3c8b60f5e	-0.26872343636227025
95	0xbbe0cabb9d8effdc	-2.844662792808e-20
96	0x3c04958172257d1a	1.3948265311209833e-19
97	0x3c0b8f2a05f9e9f9	1.8674864020196605e-19
98	0x3c080b51f8d29c2e	1.6292996915083284e-19
99	0x3c03f1e1f08c72a8	1.3515158647820637e-19
100	0x3bde14e00775e7d0	2.5480058375439637e-20
101	0x3c0758322ad0f78a	1.5818859007192566e-19
102	0x3c1023b034cd726a	2.187297576697137e-19
103	0xbbf3126acb693670	-6.461825315782193e-20
104	0xbfd1fe39e23fb7af	-0.2811417302572136
105	0x3bf211d6bbf92e02	6.122246683053434e-20
106	0x3bf98ab735aa9c22	8.653918123405543e-20
107	0xbc12ab4b62a4e407	-2.5301374275357717e-19
108	0xbc04e32f29e94e0a	-1.4153878814423025e-19
109	0x3c05caada8d1ae32	1.4766638658448873e-19
110	0xbc11a0e5a3f6101c	-2.3891077966257046e-19
111	0x3c0b2bc8efe6308e	1.8411809353962217e-19
112	0xbfcf4f010b20e802	-0.2445985130632949
113	0x3c10abed92a34eab	2.2594222802534273e-19
114	0xbbfaa9f1b510e8bd	-9.034061886476506e-20
115	0x3c05c6a60e7293dd	1.4755972133289545e-19
116	0xbbe04b0e02a601a0	-2.760172483861377e-20
117	0xbfcec7635c9bab94	-0.24045984289054145
118	0x3c0338a4e0ec1eda	1.30248363688318e-19
119	0xbbf0f14309f0ec3a	-5.740318289268483e-20
120	0xbc04bdcd5d130854	-1.4054929400103434e-19
121	0xbc126b1649c1d758	-2.49614630717956e-19
122	0xbbe56b4c0f882870	-3.62854165112986e-20
123	0xbbeef02403c358e0	-5.2411094569522415e-20
124	0xbfd201557d22bb7a	-0.28133141727715094
125	0xbc0ff01080de9636	-2.1641862443466712e-19
126	0x3fceb56ce7a31893	0.23991166410832374
127	0x3bda5e1a77a0c1b0	2.23342186207239e-20
128	0x3bd75bded3e48498	1.9785731510412885e-20
129	0x3c0148a60cd627ee	1.1711947414025745e-19
130	0xbbf99d93c9193951	-8.678881275756595e-20
131	0xbc0885c6d61f0b75	-1.6617136576290369e-19
132	0x3c04a5de8d8acaaa	1.3991579662538748e-19
133	0x3fadc339008f3f9f	0.058130055731111734
134	0xbc10ae99e9792305	-2.26083746055063e-19
135	0xbfc4d8b065e8a528	-0.16286282516493
136	0xbfd736a5933af909	-0.362710374622012
137	0xbbdc99fc460d1cb0	-2.4226417618347543e-20
138	0x3fcc1a9307365955	0.21956098415530315
139	0xbfc46e262f6c96c0	-0.15961148563035543
140	0x3fc8aa4ff67a7b12	0.19269752059059236
141	0x3c11be0bd5fd3f91	2.4045392550763954e-19
142	0xbfd76eb937e53547	-0.36613302668122966
143	0x3bfc6e42eec59f4c	9.632698831021545e-20
144	0x3c03cbea807a26c4	1.3414662016622455e-19
145	0xbfd0ae865c2504ea	-0.2606521510934515
146	0xbfe6b261f9afdb23	-0.7092752339075087
147	0xbc0c176f7c638575	-1.9035571248701958e-19
148	0xbfd48cb1f879f62f	-0.3210873533751934
149	0xbbfc1dd2df59dddc	-9.526240374762964e-20
150	0xbfd249ff802f7002	-0.2857664825257872
151	0xbfbbdf606cf52387	-0.10887720737549787
152	0x3fd1eea2d98cf750	0.2801901936071447
153	0xbf95ca7be048856a	-0.021280227245488538
154	0xbfcea757a1ad7b21	-0.23948188204209322
155	0xbbe74ae5ab6f1bb0	-3.9459143317999724e-20
156	0x3fcf6bfe77d08a80	0.24548321581194799
157	0x3c051649550c9cc5	1.4289145266417476e-19
158	0x3fcd2f04aa235f88	0.22799738223579546
159	0x3fd0e597975ab2a8	0.26401319294636005
160	0xbfd8ba5356997deb	-0.386372408456707
161	0x3fc24f3aa666a6b4	0.14304288029716405
162	0xbfd0bb649f9d3db4	-0.26143756472898905
163	0xbfd00c1d73798c80	-0.2507394435580821
164	0x3c010ce0505fd9df	1.1553731170192568e-19
165	0xbbdd832a37235c78	-2.499794373239364e-20
166	0x3fcad1f91e913485	0.2095328711751884
167	0x3c06d19b79e4fee7	1.5462605851068205e-19
168	0xbfe95383d49b75f3	-0.791444697617122
169	0x3bf2ed61f58d2f7a	6.412810545630597e-20
170	0xbc074fb66c634978	-1.5796403701976076e-19
171	0x3fcdbe4e2234ab22	0.23237015409662215
172	0xbfcd3f80d8edb1d2	-0.22850046722613954
173	0x3be985d8f998cba0	4.3237376206448105e-20
174	0xbc0433a50bc4d9bc	-1.3689229567394849e-19
175	0xbc08d024f3067f91	-1.68139860499906e-19
176	0x3fc88242aac44915	0.1914752324888204
177	0xbc0659e02335baf7	-1.514567843796183e-19
178	0x3bf9cf75a4e0b07c	8.744899896921988e-20
179	0xbc06f4a6a8caa347	-1.5555365711164708e-19
180	0xbfd02c09ec0cad1c	-0.2526879124804553
181	0xbfcf97ebd99596a1	-0.24682376980051848
182	0xbfd103f467db9ab0	-0.26586637632719157
183	0xbbc9c8463db1bb30	-1.0919238007479592e-20
184	0xbc10f942bea2603f	-2.3003618721199897e-19
185	0xbfd22fa86e6b7ca8	-0.2841588095015575
186	0x3c05fc3e3d2aef50	1.4897835495354034e-19
187	0xbfcffb743a54abab	-0.24986126754933244
188	0x3c14932a1f2ee6ab	2.78841368910301e-19
189	0xbfcf44b71dc8c21b	-0.2442845244818422
190	0xbfd19e92d90e23c6	-0.2753035659484876
191	0xbbf7094f532de1b2	-7.805024615778848e-20
192	0xbfd363928b4a821f	-0.30295241930619626
193	0x3fd047f66f7feda7	0.2543922509064153
194	0xbfcd73aee45ce3a1	-0.23009287024049477
195	0xbfd15d565e4e5ccd	-0.2713218613584559
196	0x3c01f0bd14f55d12	1.2156877853801477e-19
197	0x3c03bba971d41473	1.3371637693355074e-19
198	0xbfd275da49c2be01	-0.2884431572265101
199	0xbfd14a6a84d4e933	-0.2701669976410301
200	0xbbcb1f0114cade90	-1.1486236973135323e-20
201	0xbc0d89d91653558c	-2.0016044985975302e-19
202	0x3c0ec156b6a995d8	2.0840554077251759e-19
203	0x3c06dac52ba85808	1.5486859762567239e-19
204	0x3c062392c8251192	1.5001941788683603e-19
205	0xbc042e8c8ba13d41	-1.367574134791294e-19
206	0xbc0faf292ced2274	-2.1470063979559365e-19
207	0xbfdbfcb1c9426a5e	-0.43729824690095664
208	0xbc097da74be7e425	-1.7273260995447777e-19
209	0xbc0659c15cba587f	-1.5145360228609146e-19
210	0x3c1108ec65fd7d60	2.3086536416996033e-19
211	0x3c06fb3328b260a1	1.5572700311048915e-19
212	0x3bff65aff62460c2	1.0637790632537025e-19
213	0xbbfae6af2ed51ac4	-9.114450791432805e-20
214	0x3fc7c05b5db15189	0.1855577666743893
215	0xbbfec5f0e865355a	-1.0426368160233772e-19
216	0x3c02305415f9c311	1.2325198809781988e-19
217	0xbfd8b7b4c5521662	-0.3862125327071678
218	0xbfcf94db02b6386c	-0.24673020965969117
219	0xbfccb6b7701d1e28	-0.22432606672576694
220	0x3c0465760a3a03c8	1.382109243449936e-19
221	0xbbfa472834111f04	-8.903318215666144e-20
222	0xbfe959253b3f5a0f	-0.7921320111443623
223	0x3c05b02d111e3054	1.4696487615344154e-19
224	0xbfc178ce55450faf	-0.1364992061954786
225	0x3fcb786c2b8e6d00	0.21461250426077783
226	0xbfcef9c19446a1b6	-0.2419969533923571
227	0xbc11e859a2830ae4	-2.4269347543304155e-19
228	0x3fced1b2fa09601d	0.2407745095140407
229	0x3bfd516c1a405fdc	9.933343672594297e-20
230	0xbfd2c7a88b46f566	-0.29343618012702277
231	0x3fd09683aa5867a5	0.259186664917815
232	0xbfd4b980dc137f31	-0.3238222264462705
233	0x3fcdc85b250f0165	0.2326768809271115
234	0xbfce2429b2acdf89	-0.2354786035955352
235	0x3bf6328b34931170	7.520784059732506e-20
236	0xbc0a119c3f5c3279	-1.7664899489502693e-19
237	0xbfd1721f1af7d8a8	-0.2725904239044987
238	0x3bd4968093860744	1.7438629121878763e-20
239	0x3c0e5d58ac222014	2.0575876535481497e-19
240	0xbfcf96beed3747c8	-0.2467878969460442
241	0xbfd032b3fac75617	-0.253094668293984
242	0xbc0693eff624d12a	-1.5299366775570212e-19
243	0xbfcfa929835f1fd9	-0.2473499194586555
244	0x3c0788b7b9fa7c10	1.5947294919323418e-19
245	0x3fd00bfa3231b519	0.25073103811048864
246	0xbfe017dc5edb39c1	-0.5029126980460249
247	0x3fcbb9871d55a5e9	0.21659935886718465
248	0xbfc15aad4e23f6fe	-0.1355797416253423
249	0xbfc28783f1c73b40	-0.14476060205057628
250	0xbfba6608a90fd1f6	-0.10311941268430033
251	0xbfd26c1025de5bfd	-0.2878456468401394
252	0x3c0a0f4a3baa5935	1.7658757524225875e-19
253	0xbfce112ae259cdcd	-0.23489891102108942
254	0x3fc61a4a8f6bc1a3	0.17267734530424858
255	0x3c019231410e6061	1.190661614056575e-19

bias f8 [120]
0	0xbfcd47a1dc5bad4d	-0.2287485433547353
1	0xbfe58eb9c00e0c90	-0.6736725569793567
2	0xbfbf56c4e2550d8a	-0.12241774106683159
3	0xbfda44a817df0f3b	-0.410440467178194
4	0xbfcfd04556cffe19	-0.248543422116186
5	0xbfd85ac7adda8c89	-0.3805407712736231
6	0xbfddd82992ef8433	-0.46631850575619466
7	0xbfd474e0b7ae3c26	-0.319633654952613
8	0xbfe0b6ec58e6b029	-0.5223294960355861
9	0xbfd810367073b942	-0.3759895418324001
10	0xbfcca186ec2427bc	-0.22367941408475456
11	0xbfe1ce7a0fa21235	-0.5564546876272006
12	0xbfd1da7341c2b2a4	-0.27895814344337055
13	0xbfe37ff97b06715b	-0.6093718912921234
14	0xbfdde86941557e27	-0.46731025104779395
15	0xbfd03b710dca2d57	-0.253628028360898
16	0xbfcd800162618e56	-0.23046891502154904
17	0xbfe88bd2516ce701	-0.7670680609073487
18	0xbfe354ade8653197	-0.6040868319483249
19	0xbfd385e465bed630	-0.30504712997512495
20	0xbfd2a75ed23dc84d	-0.29146547824268937
21	0xbfd2926f4cd32f52	-0.29018766882358193
22	0xbfdc628ff757b469	-0.4435157695250554
23	0xbfe50f5f673a383e	-0.6581265464935837
24	0xbfdf0972b1b358b8	-0.48495166162082226
25	0xbfcfe3945287459f	-0.24913267163951233
26	0xbfcfe02c1e65517b	-0.24902869686287574
27	0xbfdff5caea44cfda	-0.4993769920140473
28	0xbfc0b484524642f8	-0.13050893800075136
29	0xbfd36910d6c759c1	-0.30328770613177986
30	0xbfe359a7ab0bde75	-0.6046942082165986
31	0xbfce77019b52df7e	-0.23800678333440922
32	0xbfcb7ec8e4aa00bd	-0.2148066631816671
33	0xbfdf02814bc91bcf	-0.4845278968900261
34	0xbfcde57216831fb0	-0.23356462573269487
35	0xbfcd48452fa09605	-0.22876801324416376
36	0xbfdb39320ef4982c	-0.42536593876355044
37	0xbfd21bc08085e94f	-0.28294384528239375
38	0xbfcae0a146c405bc	-0.20998016314847046
39	0xbfc34de1b734f3b6	-0.15081426091810862
40	0xbfacfdade4f92ca7	-0.05662291927418411
41	0xbfddccfd96a125ba	-0.4656366320601496
42	0xbfd1c4c5458abe4d	-0.27763492385108607
43	0xbfc65da03ea91669	-0.17473223743052138
44	0xbfe439b2693f8160	-0.6320430808664632
45	0xbfde5fb612c2a914	-0.47459174949712346
46	0xbfe1a4c9ed6a49f0	-0.5513658177390521
47	0xbfea6b6e826a5d73	-0.8256142184426792
48	0xbfd10d8386a20089	-0.2664498152516975
49	0xbfd526cf676e9393	-0.33049378491187403
50	0xbfcd026fe75c943b	-0.22663687512354777
51	0xbfca9ff01ff9feb5	-0.20800592004160526
52	0xbfdc0038cae47d64	-0.43751354039883084
53	0xbfd19b594c4f8f61	-0.2751067395422436
54	0xbfcec2536d2f4ac7	-0.24030535537038686
55	0xbfdad9d04c23e4c5	-0.41954429088179906
56	0xbfcd945d4d61f428	-0.23109022406052415
57	0xbfca347a53a233ad	-0.2047264965407555
58	0xbfca2747a710cf50	-0.20432372720244496
59	0xbfd34dc829d72f3f	-0.3016224297141327
60	0xbfd03a72298142a4	-0.2535672574349894
61	0xbfd3160d4a7324e4	-0.29822094221579065
62	0xbfcf7be506d8bd72	-0.24596846422489765
63	0xbfd2a5755aeb5772	-0.2913487804302043
64	0xbfd07df9c6f6c614	-0.2576889460570737
65	0xbfdc6937334ba7cc	-0.44392185220078484
66	0xbfb88da5234ea2b4	-0.09591133224479159
67	0xbfcd6069586acf8f	-0.22950474564788378
68	0xbfd1db5aa0bde473	-0.27901330659330553
69	0xbfd52cd6f93dd400	-0.3308618005751782
70	0xbfcdbf53bc00ae1f	-0.23240133933846693
71	0xbfcd987f8e9e6d9d	-0.23121637786685492
72	0xbfe4044a497689c2	-0.6255237040352812
73	0xbfb843c7f4dea345	-0.09478425720466273
74	0xbfd2967c7cfcb47b	-0.2904349537446433
75	0xbfcec652566e5b52	-0.24042729587810158
76	0xbfdde0b84c3f44db	-0.4668408150292415
77	0xbfe6d085436242cd	-0.7129541698542085
78	0xbfd52aad1b837c2c	-0.3307297486007339
79	0xbfbc038cdfc0d1bf	-0.10942917311405774
80	0xbfd57c60b6ac177e	-0.33571641768536853
81	0xbfcb8b11e06bb470	-0.21518157442133967
82	0xbfdfdf665150f323	-0.4980102342704404
83	0xbfcb8cca01494eae	-0.21523404181299582
84	0xbfcf9168d66fece8	-0.2466250464493449
85	0xbfd115ab1bc6e2aa	-0.2669475337275268
86	0xbfd21fbbf3696870	-0.28318690081289954
87	0xbfe4f8421f101f07	-0.6553049666117382
88	0xbfcfae6b6f1754dd	-0.24751036571857457
89	0xbfe721484f97faf1	-0.7228128008426592
90	0xbfcdde68497b6f63	-0.2333498343276644
91	0xbfd251929ec0106d	-0.286228804616491
92	0xbfcec692b0548a44	-0.24043496713518853
93	0xbfe2ad6af91e9370	-0.5836691728223808
94	0xbfa0c15b44f38c3f	-0.03272519318286315
95	0xbfbc7be7d1a35f50	-0.1112656485378214
96	0xbfd68eeb70cff81d	-0.35247312561830474
97	0xbfd88697d3701b9a	-0.38321490905985345
98	0xbfe452e1216b6cc4	-0.6351171162345044
99	0xbfca277dbebe28ad	-0.20433017552961044
100	0xbfcbf1339dcbe61c	-0.21829838948160407
101	0xbfbfba2d8dd6cd84	-0.12393459999912265
102	0xbfd073417a9761b1	-0.2570346543484688
103	0xbfd4379973917183	-0.31589351926756865
104	0xbfcf3fc4c4912232	-0.2441335639762357
105	0x3f9174f12d2f863f	0.017047661192810756
106	0xbfe3152c286fb5a7	-0.5963345327160611
107	0xbfd11b4967496fe3	-0.26729044996841206
108	0xbfcba7bdb35ca709	-0.2160565496245044
109	0xbfd79bdb33a07bd8	-0.3688877109688611
110	0xbfdf12dff17720d1	-0.48552702503776596
111	0xbfdf0c7830d9bf81	-0.4851360776001386
112	0xbfd4a1bf0f88d6ce	-0.3223722125725147
113	0xbfdf07c2dce5bbc6	-0.4848487050248277
114	0xbfd73aa4d1a674a9	-0.3629543349614531
115	0xbfcdf7287ba6947d	-0.23410516774780268
116	0xbfcd4c5526ee6c27	-0.22889198685592868
117	0xbfd6c496a1386be4	-0.3557488035600598
118	0xbfe1e3dd3292ff04	-0.5590654361512581
119	0xbfd53e89bea80d29	-0.33194202059549355
