pyTorch/noisey_features/models/dropout/ow_0.0_512_NF_model_0.pth (torch, 470675 bytes, 10 tensors)

weight f8 [120, 60]
1.54866663882665e-19 -1.9514463807755125e-19 -0.2416231572046339 3.1878539332548877e-19 -5.72546363681228e-20 -2.6055879962914323e-19 -0.21463785516380107 -0.2663028744715803
-0.2524903961011074 1.926757358557204e-19 -0.2400396533237021 -0.31129358746165847 -0.2323342944209309 -0.2943426973306023 -0.1199329935967473 -0.2431538298888742
-0.2519783009093777 -1.82971880384662e-19 0.29982256160845383 -1.1674217949145993e-19 -0.3026295471322229 -8.225286957256227e-20 -0.2233991993379092 -0.27756293164027507
-0.18457178705346194 -0.24383024137953307 -0.15189855964187013 -0.2897977277585208 -0.16512240726769356 -0.21238072952355774 -0.26808862230135727 -1.5007107725073276e-19
-0.3266059216597466 -0.20309059505264643 -0.27664020313986776 -9.122230454728457e-20 -0.20866456342573017 -0.2530679086611852 -0.27165926071425506 -0.23560792013952475
-0.2866846999865612 -0.36198948103325657 -0.18330933066999652 1.6544602118341368e-19 -0.2337619444753657 1.2366085542207654e-20 -0.023506462481838686 -0.3460601273478868
-0.21972643171709047 -0.07686004752650447 -0.16059560181575783 -0.31111621823121355 -0.19377185096476351 -0.1216002472349023 -0.1550897983771188 -0.28315031824170456
-0.2141440703065595 -0.16888221939830478 -0.37540467034480723 -0.2095597603601914 -0.23677210904213908 2.6825114577484947e-19 -0.269596889308752 1.8703903511582067e-19
5.3530121674298084e-20 -0.3119529785829919 -0.24604598562292823 0.2981630022293134 -0.265846472207713 1.743874259859788e-20 0.28036226778742435 -0.13717106259926334
-0.32166369209723755 -0.19153329074882838 -0.284917540692264 0.24565646483447082 0.03058790898779309 -0.20440093935848225 -0.287389565199663 2.9104441938205147e-19
-0.16130619925745604 -5.948376013791423e-21 -0.2374048464305596 -0.14837191744879935 -0.39988326678513636 -0.2777478140785686 -0.2135526074209372 -0.24427605495425866
-0.34767081345333606 -0.28018367377675585 -0.24858778970621268 -0.30962970305108034 -0.22138126033906674 -0.27942238155952326 -0.4439671775406531 -1.494955724167365e-19
0.22697395829126865 -0.19690715971933426 -0.28657560362161943 -0.18839229488411516 -0.2180569182719828 -0.1690907029700794 0.11417670388353827 -0.34239433696048616
-0.20586094442614022 -0.4140441276948929 -0.3820934108390172 -0.3116328857478948 -0.234490592775954 -0.27514562829621414 -0.25932741220025196 -0.24453290591053006
-0.30484336683322205 -0.32035545050857794 -0.1731836757215404 -0.23913581733775927 -0.2752717248630996 -0.28851543909261707 -0.14557841141244734 -0.3251656305723739
1.755248934922776e-19 -4.525481438340695e-20 -0.3275687049596226 -1.3429607177173842e-19 1.7489000927436394e-19 2.0543363642815919e-19 -1.199340265419582e-19 -1.3444582640045037e-19
2.1496816060759114e-19 -2.775836368777638e-19 1.3067061207803216e-19 2.6378369994151044e-19 -9.155448205348721e-20 -3.187020945284604e-19 -0.2808476333306481 -3.2440677830630034e-20
-0.29514199613178405 -3.1871705750255156e-20 -0.23606120636099723 1.5499538078187583e-19 -7.938322273212954e-20 -5.1761238485632423e-20 -1.1439977878207074e-19 5.189696421516681e-20
-0.3222603174701117 -1.4591327178805907e-19 -0.2856403788369764 2.469596489907879e-19 -0.18324951637708337 1.579876452100751e-19 -3.1778721622556223e-19 3.8885335246405955e-20
-2.433825939846383e-19 -0.20370372314972923 -1.528143999129295e-20 2.1165955706300674e-19 -0.26020854221356415 1.4577727243372422e-19 3.483765075511564e-19 -1.4563427249919893e-19
-0.2714588297866447 -0.16503187592010077 -0.18249409580263026 5.091250148781759e-21 -0.16244970905908102 -1.623233424023131e-19 -0.13746339543417255 -0.2916832024667523
-3.682321039386143e-19 -0.23808778956787593 -0.32273646622172747 1.119153284528401e-19 -0.21863014735095396 -0.14926517992931138 -0.23904426463266223 -0.21763659534757834
-0.2824606936904131 -0.19461976869383316 -0.20886990717305132 -0.2975934281036084 -1.947804364433692e-19 1.8132788419841255e-19 -2.928829631397261e-19 8.23872616449357e-20
3.7703620912291223e-20 -1.2540163876193464e-19 -2.4793463333063683e-21 -2.4411226368570735e-19 -1.711008647366114e-19 3.074042663098758e-19 1.51094800849239e-19 -7.451253191064745e-20
8.743093997448427e-20 -0.2474233891310986 -1.1144246291772685e-19 -1.6675504085012018e-19 -0.26027363412724597 6.24805348924326e-20 1.2879465817631732e-19 -1.603743345316182e-19
7.316900186679575e-21 2.945052855895702e-20 -1.4270985790042695e-19 -0.2454375220232219 1.201974023444709e-19 -1.2401119824767936e-19 -0.21498966965820898 -2.517206925187086e-19
-0.2275626787248607 -1.5614168470399523e-20 -0.21905871752907274 -7.486506196476379e-20 -0.212326550828157 1.2204661115934326e-19 -1.1912291089454595e-19 8.646602858443857e-20
1.3000998513596212e-19 -0.20619517713291427 -0.2362135883653916 -0.21164794821330693 -0.23053729290687194 -0.22384729052660401 -0.21907266092197047 1.0052311887699803e-19
-0.22503659016311842 2.248817648787146e-20 7.439669234662249e-22 -0.2081512553874322 -0.2189116366912899 -0.2522820697517739 -0.24789054090226156 -0.2384066092297561
-1.9664028509147013e-19 -0.24854411174935662 -3.381859235533442e-19 -0.25863932537943324 -1.0834448832026945e-19 -1.001275428186191e-19 -0.25311594839352597 -1.9318634408542974e-19
-2.251043969200918e-19 -3.524446609440922e-20 -0.20704596814184564 6.016366901460463e-20 -3.0212314168994225e-19 -0.20368906658757124 -0.27014647721734725 -0.2647544988247612
-0.31335462617574533 -7.003522816242672e-20 -0.2808165832593915 -0.4731455329422194 -0.2440241309163072 -0.23766260405880862 -0.09382800188491058 -0.23771839338407405
00000000: 141a f177 b2da 063c 0a2a db21 5bcc 0cbc
00000010: c038 13f3 81ed cebf 1343 5692 af85 173c
00000020: 5fe6 2dbb 09e6 f0bb 5828 a60a d139 13bc
00000030: 08c0 34d4 4079 cbbf 34eb 2b36 1b0b d1bf
00000040: e1bb 737a cd28 d0bf ba75 0760 156f 0c3c
00000050: 7f5d 628e 9eb9 cebf b88c 66f0 3bec d3bf
00000060: 1c79 2352 21bd cdbf bd7c b6c0 82d6 d2bf
00000070: b49b 35bd edb3 bebf d78a a229 aa1f cfbf
00000080: 7046 6d98 6920 d0bf 9640 9571 7b00 0bbc
00000090: 3185 2df8 4a30 d33f 8326 8814 653a 01bc
000000a0: b41d ef51 485e d3bf 2027 5ce2 d946 f8bb
000000b0: 98f0 8d4f 5898 ccbf f584 7e50 97c3 d1bf
000000c0: ae56 945e 0ca0 c7bf da1c 4050 d435 cfbf
000000d0: cb54 fc78 6971 c3bf ab63 cbc4 0b8c d2bf
000000e0: c098 8625 bb22 c5bf c659 cdaf 4a2f cbbf
000000f0: 99b2 4d2e 5d28 d1bf e9e4 8866 8625 06bc
00000100: e158 0d86 1ce7 d4bf 762a f063 dffe c9bf
00000110: 5ba6 4f1c 79b4 d1bf 5091 19fd 8fec fabb
00000120: 4db2 df39 85b5 cabf 627b d7bd 4332 d0bf
00000130: be16 1b86 dd62 d1bf 6ac3 d67b 6628 cebf
00000140: ae2c adc8 0a59 d2bf 962a a2ed d52a d7bf
00000150: 9bbf 231e ae76 c7bf 6b43 edbb 5f6a 083c
00000160: 9c18 4951 e9eb cdbf e06c 800d d732 cd3b
00000170: d0a5 6afe 1312 98bf 4629 5a60 d925 d6bf
00000180: cb55 25e7 fe1f ccbf c2ce 7e9e 19ad b3bf
00000190: 1c0e d78c 658e c4bf 8dba a3ff 53e9 d3bf
000001a0: c2b7 6319 84cd c8bf 2336 0f9d 3121 bfbf
000001b0: ed89 fc85 fbd9 c3bf a8ce 2c83 221f d2bf
000001c0: f5ab 4ca9 1269 cbbf de86 98bc ee9d c5bf
000001d0: 0762 794f a106 d8bf c3fd a6ae dad2 cabf
000001e0: 8070 7868 8c4e cebf 7c59 f0f1 1ecb 133c
000001f0: 91cd ab4f 1341 d1bf e856 f58c 229a 0b3c
00000200: a16d 6d47 3e99 ef3b dbd6 39a0 09f7 d3bf
00000210: 1002 c852 6f7e cfbf d1ee dc45 1a15 d33f
00000220: 05e7 f8eb a003 d1bf 505a 295b 8996 d43b
00000230: fe7a cb94 74f1 d13f cb23 e945 d28e c1bf
00000240: 6491 774f 2396 d4bf e344 eeb1 2984 c8bf
00000250: 191f d5c7 163c d2bf 61ec 41c9 ab71 cf3f
00000260: e7ba 05d3 6f52 9f3f 807e e85a cf29 cabf
00000270: 2da1 ef33 9764 d2bf fbae f673 ac79 153c
00000280: 70f6 3979 aea5 c4bf 2041 8435 2517 bcbb
00000290: 5063 aa31 4863 cebf 1630 8bda d9fd c2bf
000002a0: d3d3 43fc af97 d9bf 2d30 80c4 9ec6 d1bf
000002b0: 159a 6c1c b155 cbbf 71ba 9c11 7044 cfbf
000002c0: 2692 6315 3d40 d6bf 99a2 ef80 87ee d1bf
000002d0: d58e 7c85 b9d1 cfbf 8b5f 1e1a f9d0 d3bf
000002e0: 3e41 8d9c 3856 ccbf b663 a469 0ee2 d1bf
000002f0: c135 024f f569 dcbf f6c4 9475 c80f 06bc
00000300: 20cc f38f 7b0d cd3f 84e0 abf9 4034 c9bf
00000310: 61b9 5833 4157 d2bf ad3e ac1c 3d1d c8bf
00000320: e485 5202 4ae9 cbbf c635 a89f c3a4 c5bf
00000330: 6716 2539 af3a bd3f 562d e5ef c9e9 d5bf
00000340: bcbe eac3 a659 cabf f739 e3f0 b27f dabf
00000350: df85 e4eb 3774 d8bf cd4c 290f cbf1 d3bf
00000360: c99f 98a9 c903 cebf ecda ca68 fc9b d1bf
00000370: 27cf 9600 d298 d0bf be3d d7b0 da4c cfbf
00000380: c9e0 bcc0 8d82 d3bf 6ce6 c125 b480 d4bf
00000390: 3169 b6f7 e12a c6bf bd4a 62a1 009c cebf
000003a0: c43b f34b 0d9e d1bf c5ce d275 0977 d2bf
000003b0: 7592 023a 50a2 c2bf 2edc 4581 83cf d4bf
000003c0: aa3d 179b 24e7 093c 94af 90d5 b6b6 eabb
000003d0: 61a8 bfba e2f6 d4bf 69de bae8 8fd1 03bc
000003e0: b648 e761 28cf 093c a79c e637 1051 0e3c
000003f0: d2d9 0ebb fab2 01bc 0a5b 3b3f 38d7 03bc
00000400: ee15 607a 44b9 0f3c 7568 571a 687b 14bc
00000410: 2c74 4c9d 9848 033c d951 deb3 bb76 133c
00000420: 0eb0 703c a905 fbbb cabf 6bc3 1c84 17bc
00000430: c21a 145a 68f9 d1bf 189e e7ef 4b26 e3bb
00000440: 9cfa 4341 9be3 d2bf 8837 59e5 50d0 e2bb
00000450: 875f 96ec 4037 cebf ba5f 8c57 8fdf 063c
00000460: 6c6f 78d7 066e f7bb a8bc d5ec ef8d eebb
00000470: c988 47c5 e6e1 00bc 20c2 5a8f 72a2 ee3b
00000480: 134b 15bd e99f d4bf edb2 d192 7288 05bc
00000490: 3966 6195 ee47 d2bf cfd4 9295 ef38 123c
000004a0: 4277 ec5b b874 c7bf 1f99 6fbf 9a50 073c
000004b0: 4b4c f0ae d472 17bc 685d 8a8b 2ff4 e63b
000004c0: bc6e f501 5ef5 11bc fa31 80ae f612 cabf
000004d0: b841 c526 880a d2bb 187b c5a0 453c 0f3c
000004e0: 2e9d bcba 41a7 d0bf 501f ba44 4f83 053c
000004f0: d0a8 716b a5b4 193c 9db4 0942 e87d 05bc
00000500: 7038 09db 945f d1bf 1eeb efb6 c31f c5bf
00000510: caba 976e f75b c7bf 803e 309a f10a b83b
00000520: d6a4 d3ed 26cb c4bf 1cac bd09 67f4 07bc
00000530: b5b8 e489 6698 c1bf aac8 d805 f0aa d2bf
00000540: a545 3731 b52b 1bbc b9ae e222 a979 cebf
00000550: 0a88 e9d9 b6a7 d4bf b8fd 33a4 0a84 003c
00000560: 8760 659a 12fc cbbf 662d 1d15 1f1b c3bf
00000570: 3f63 72a1 0099 cebf 0a1f b715 84db cbbf
00000580: 3192 7304 d613 d2bf f9f8 d8f2 4ce9 c8bf
00000590: c0a1 36c6 3fbc cabf dd68 4d4e c50b d3bf
000005a0: a413 49ca 98be 0cbc c41d 2db0 5fc2 0a3c
000005b0: 8e2c e51a 679c 15bc e85c ab67 0151 f83b
000005c0: b87c a02f 9c41 e63b c415 3b3b 8a81 02bc
000005d0: 00dd 720c b16a a7bb 8f10 4c79 2603 12bc
000005e0: 9f77 6d06 0240 09bc af1b 83d1 b3ae 163c
000005f0: 89f3 653f 334c 063c ae0e b9fa 01fe f5bb
00000600: 5c2c 1155 18ce f93b c7b1 4ad2 91ab cfbf
00000610: c948 d85d 2d72 00bc 6f5e a4cb d39b 08bc
00000620: 179b a5be 52a8 d0bf 18f9 464f e570 f23b
00000630: fbb2 6780 b901 033c b61a fb63 c5aa 07bc
00000640: a0a2 8b76 cb46 c13b d899 d923 7062 e13b
00000650: 14fb 300e 6d0f 05bc c087 2629 7f6a cfbf
00000660: d8eb f5f1 edbc 013c aad8 42b7 024d 02bc
00000670: 0076 1410 c884 cbbf 384d fc93 de92 12bc
00000680: 54eb 741b c620 cdbf 4044 46c5 176f d2bb
00000690: f674 d8b5 1d0a ccbf a4c1 ffe6 a418 f6bb
000006a0: b490 f033 842d cbbf 3dfb 3965 ca02 023c
000006b0: d933 fc19 5694 01bc 306a 4a3b 3085 f93b
000006c0: fea1 366c a32f 033c 517c 3083 9a64 cabf
000006d0: 8b38 7332 3f3c cebf 59bb ebab 4717 cbbf
000006e0: bb8d c5fa 3e82 cdbf a813 0e2c 07a7 ccbf
000006f0: 8ac4 0dad 920a ccbf 7e3d ede6 4fab fd3b
00000700: 99b4 93bd ffcd ccbf f08d 5b61 a28c da3b
00000710: 007c 8ae2 341b 8c3b a553 4149 b3a4 cabf
00000720: 35c6 26e8 4b05 ccbf 2ade bcb1 6325 d0bf
00000730: ffdb 1493 e0ba cfbf 0862 e596 1b84 cebf
00000740: 4aa0 8024 dc04 0dbc 6bd6 c91f 4bd0 cfbf
00000750: a248 7dc7 26f4 18bc f0b4 fdf4 8b8d d0bf
00000760: 269c 8230 47fa ffbb 7666 2959 6c8d fdbb
00000770: d58e 1c3c 0d33 d0bf 69e5 c5ac 5f82 0cbc
00000780: 2671 f711 1a9c 10bc 489a ee3d fecd e4bb
00000790: 9d0c f876 7b80 cabf cc4b 229b d6c1 f13b
000007a0: ff85 e4dd f14a 16bc f0ef c5bb 7b12 cabf
000007b0: a5cc 3173 144a d1bf 44f5 7ada bcf1 d0bf
000007c0: 8f68 de8f 000e d4bf a238 6954 b6ab f4bb
000007d0: ce81 511e e6f8 d1bf 880f 8f33 0448 debf
000007e0: d234 dcc6 2e3c cfbf 8217 f56b ba6b cebf
000007f0: 9872 8ba7 1c05 b8bf 6702 9f6a 8e6d cebf

bias f8 [120]
-0.17806455821102068 -0.293409982397819 -0.1508474564264063 -0.25901041949130094 -0.2913177010514314 -0.31903772262127167 -0.2441769753761601 -0.23815542232276787
-0.16625032553801472 -0.16084850816204643 -0.29776576122628884 -0.35550988377186604 -0.2628241635445521 -0.19761305985539196 -0.28590398090941 -0.20910313996008525
-0.08040468219570282 -0.039729856492761284 -0.3378627411246158 -0.24375814501394683 -0.17791685478949068 -0.20003866105592485 -0.19896333043470282 -0.1447997627397237
-0.2925773627840861 -0.29022939322722674 -0.19171134627490563 -0.1605904092745725 -0.24587759676287516 -0.3232499592354369 -0.21357856670020156 -0.2388522288551574
-0.22296855544018618 -0.19012345030083386 -0.24358284385919352 -0.25240740360718394 -0.3416079294906176 -0.172124573864132 -0.02367705306405957 -0.11490821320243676
-0.14854547218820366 -0.27066514607104025 -0.18582401899514667 -0.3351024712229664 -0.3000464076250225 -0.22976451876407555 -0.31336527014920507 -0.1709428739227426
-0.23835758858211117 -0.20829790134489906 -0.3433636111733783 -0.22736293625745793 -0.24650798099438176 -0.23722016313364372 -0.3254028773466601 -0.20793880951195404
-0.29087433878971275 -0.22198208007841735 -0.31432040741068396 -0.2612774175276198 -0.1332286968811479 -0.24938836497037195 -0.19122451908980767 -0.17383607568943774
-0.195643697174127 -0.1749946070965308 -0.19325930762674456 -0.250551467894791 -0.18281800616457566 -0.20361405069447383 -0.14063211229986955 -0.23124932979827495
-0.16707798027674864 -0.3848758356385382 -0.35963189929697714 -0.27511740116599936 -0.23745813018681863 -0.3538954881851169 -0.03703817919353116 -0.25633914832985716
-0.21682958773588887 -0.1809666772003269 -0.2004048286334125 -0.24847531085871608 -0.2611485539504884 -0.30262774035561274 -0.1525261589804532 -0.15834388386264242
-0.2366002123249416 -0.277747555452736 -0.2509937182678366 -0.29441289711713936 -0.23977536541724348 -0.29146540857273395 -0.03589246828284639 -0.26308456144816433
-0.31283751148616024 -0.10923906302172415 -0.19484539520311658 -0.3055363830379701 -0.22617230003236724 -0.3372276748404752 -0.2103126071624938 -0.22749417437954836
-0.2962351315334527 -0.29632427751927426 -0.2366407838993708 -0.1511887730115656 -0.1769123157588892 -0.1848353102487022 -0.047466125725046035 -0.25298895072906147
-0.1180569192078508 -0.2828884972937883 -0.2446912180090115 -0.27553812072815675 -0.16499259068750752 -0.2593713383941276 -0.2546751524393081 -0.29269183146470606
00000000: 26e8 0bc7 d1ca c6bf 06fd ada9 3ac7 d2bf
00000010: 34a2 042e f84e c3bf cb74 4270 a093 d0bf
00000020: 60c1 b0ff f2a4 d2bf cb50 3632 1d6b d4bf
00000030: 8ba1 d6ed 3041 cfbf c4e4 1e7b e07b cebf
00000040: d64b 91cf b047 c5bf e44b 1515 af96 c4bf
00000050: 1a78 951f 980e d3bf 811d 0d87 acc0 d6bf
00000060: 1d6f c170 1cd2 d0bf f6b2 ab7e 624b c9bf
00000070: 0156 f335 404c d2bf 054b cf45 e4c3 cabf
00000080: 26cf 79b8 6695 b4bf 6053 9fc4 7857 a4bf
00000090: 68b2 ea0b 8b9f d5bf b2f8 7b86 7733 cfbf
000000a0: 8730 5dc0 fac5 c6bf a1dd 95e9 dd9a c9bf
000000b0: 44ff a862 a177 c9bf 1fc4 b772 cc88 c2bf
000000c0: f248 2d67 96b9 d2bf 5eed 0f4e 1e93 d2bf
000000d0: c9ec 4255 ff89 c8bf 8159 f1fd 398e c4bf
000000e0: 2d33 75c6 ea78 cfbf c75e d698 20b0 d4bf
000000f0: 434d 8ddf 8a56 cbbf da3a c1b7 b592 cebf
00000100: 8273 d3ce 3b8a ccbf 6354 9f18 f755 c8bf
00000110: edf6 1efe b82d cfbf 50b6 f061 7127 d0bf
00000120: c0da 4d81 e7dc d5bf 12cd ca93 2d08 c6bf
00000130: 899c 4d22 cc3e 98bf fb0a bfe9 9f6a bdbf
00000140: 0334 82bc 8903 c3bf 17b3 a2e7 9352 d1bf
00000150: b49d 32da 14c9 c7bf ef87 ada2 5172 d5bf
00000160: 4d08 02d9 f533 d3bf a0ba ef7a ec68 cdbf
00000170: fb8d bf34 2d0e d4bf 4ac0 7dc2 74e1 c5bf
00000180: ef56 db5f 8082 cebf fe06 0d71 81a9 cabf
00000190: 5a12 285e abf9 d5bf 2b2f c68b 3a1a cdbf
000001a0: 3874 49d2 928d cfbf 312e 4ef5 3a5d cebf
000001b0: e79a 0e97 66d3 d4bf 6625 3629 bd9d cabf
000001c0: 773c 1667 af9d d2bf c00f 1ea7 e869 ccbf
000001d0: 8bd5 9257 d31d d4bf c8b9 ddea c4b8 d0bf
000001e0: 1422 ff4f a30d c1bf 037c c63b f5eb cfbf
000001f0: 018f d787 0b7a c8bf 29be f9b1 4240 c6bf
00000200: 0405 8448 da0a c9bf 345d 3a29 3966 c6bf
00000210: b7c5 f392 b8bc c8bf beaa 2406 0909 d0bf
00000220: 4063 cc96 9466 c7bf ad92 5e74 0610 cabf
00000230: 1234 8ca9 3b00 c2bf 204e 5afa 9399 cdbf
00000240: a2ce 95ae cf62 c5bf f4a4 c541 cea1 d8bf
00000250: 680c 8583 3504 d7bf f861 2404 869b d1bf
00000260: 592d a92b 0765 cebf 0140 fd42 39a6 d6bf
00000270: 93e0 ad10 abf6 a2bf fcb7 b050 dc67 d0bf
00000280: 3bbe 106a 12c1 cbbf 68df 1e84 ea29 c7bf
00000290: 6572 788c dda6 c9bf 0f35 00fb 09ce cfbf
000002a0: ce5c a76c a8b6 d0bf a324 ecbd 405e d3bf
000002b0: 7182 4d28 fa85 c3bf 0c18 5bc5 9c44 c4bf
000002c0: 9ac5 146f ea48 cebf 20a9 cdae 9dc6 d1bf
000002d0: 118e ddf4 4710 d0bf e4e0 2831 a9d7 d2bf
000002e0: d23f 6d8c f5b0 cebf 080d 6f87 5ea7 d2bf
000002f0: 4b24 e562 7f60 a2bf cd26 e0a0 60d6 d0bf
00000300: a2e2 32a0 8705 d4bf b0bd 1f5b 17f7 bbbf
00000310: e737 16a4 b1f0 c8bf adb7 3879 e88d d3bf
00000320: 0937 f3c3 36f3 ccbf dcbd af62 2395 d5bf
00000330: 2586 d904 86eb cabf a5ce 7e73 871e cdbf
00000340: 2e32 7732 84f5 d2bf ec30 3d1a faf6 d2bf
00000350: 63b1 dfc5 3e4a cebf 8bb3 cd59 275a c3bf
00000360: c7d6 3811 10a5 c6bf 2a04 55f6 aea8 c7bf
00000370: ce54 50e3 7a4d a8bf f85c 6891 f830 d0bf
00000380: 9a71 106f fa38 bebf 62a6 125b d81a d2bf
00000390: 48ca 7bb5 0a52 cfbf f609 55a4 6aa2 d1bf
000003a0: 7de6 8a2a 7a1e c5bf b00a fb3d 8a99 d0bf
000003b0: 4129 b502 994c d0bf d99f fc84 76bb d2bf

weight f8 [120, 120]
-0.12297103459420214 -0.21861965192199648 -0.06351832832515292 1.1569716701462078e-19 -0.25374715975763235 -1.230042997458697e-19 -0.1904359832627845 -1.054262229399745e-19
-0.27641348186593234 -0.2422267243058397 -0.2576915502019527 -1.627759149915089e-19 -0.11703409053690375 -0.24841633166817864 -0.3085819478463026 -0.27550676571037663
-0.04226826269514218 -0.13919457072814498 -0.2534205232698538 -8.170917839289278e-20 -0.1541354506035015 -1.1338893560428469e-19 -0.20482749834187855 -0.1387336897621763
-0.24532901739256305 -0.27602568770413355 -0.07817899072293998 1.0483164268931658e-19 -0.012014322114247059 1.2426162824563542e-19 -0.2174315766497642 4.51694880520622e-20
4.898111276087285e-20 -0.18409155295070026 -0.22254964822381876 -0.2048844050132207 -0.2755084905692038 -0.047370462253214785 -0.1712523409600692 -0.2801425722448341
-0.11729349963467892 1.368634153783306e-19 -0.3042217198742501 -2.4270229615309297e-19 -0.22242493662609913 -0.28464040740371954 -0.2879670860300762 -1.904166946425645e-15
-0.19438323615907085 -0.2369216366079348 -0.10347844781884376 2.2721420238762696e-19 -0.16747492360194435 -2.6137550633057885e-19 -0.1923985865994439 -0.30576748015650557
-0.2173454394861604 -0.20574662355374557 -8.402668038004937e-20 1.0045050241114643e-19 -0.10364046842307902 -0.24477701068770472 -0.21111413424438016 -0.23724057078607763
-1.399183936691835e-19 -0.20702043452762 -0.06619239291943223 -0.3314170242636515 -0.1794050473328873 2.0805126745837351e-19 -0.2008346950051364 -1.2644435671725302e-19
-0.06574181857152994 -0.2363114299062145 -0.20541342075946986 -0.2704991387720369 2.5900480186975368e-20 -0.07013572974314132 -0.15926133757669528 2.811464074175991e-19
-0.15467044779173048 -0.23861742252186974 -0.23851369190071472 -5.40354569720457e-20 4.313430556762358e-20 -0.2675825379241769 -0.23722630665820454 -0.13294647959935432
-2.1822897628240623e-19 4.038863252247269e-21 -0.27130206020185577 -0.2616258957822616 -0.2340414881570106 1.1287851726076776e-19 -0.17306683198015893 -0.015415724906383429
-0.2765205417004639 -0.26252949082085 -0.16526049745911675 -0.1947412047791588 -0.16393406455018217 -0.10620985097580242 -0.1579359687955785 1.145946225904153e-19
-0.2350294908478183 -0.22064537845310295 -0.26841245473591496 -0.2771255944947551 -2.009034905875634e-19 -0.3003832670047069 -0.017337766808608955 3.6079675503415736e-20
-0.2712555484271781 -0.23726930850171707 -0.20397031731666368 -0.2649623777169081 -0.23337967693866968 -0.23819075259920727 -1.6007745344007872e-19 -0.29677473346892524
-0.028860058085719217 -0.06095285067513427 3.459874771689535e-20 -0.2676891013088956 -0.0823813685644303 0.250347794754116 -0.00977973721896779 0.14037046663572011
-2.4877396020446243e-19 -0.07486506719737959 0.2567027612499348 0.22078456929184756 0.0041507429361035105 -0.09295991832973735 0.2228170616378237 0.22404035065843184
-1.1832961022477984e-19 1.2979510674221277e-19 0.17031658034184424 0.05708101822921239 -0.0925823920855023 0.17566055117324966 -0.19904871056070714 -0.10214740173904124
0.1848263739901483 0.3179825081901482 0.14723798763911553 -0.23909127434694114 1.4972182674874683e-19 0.23721512148837118 -0.0762438013149402 0.2262284890649909
0.21832263351897918 -0.046290887697739445 -0.05918796067362576 0.041017904298535655 0.19848222625417847 -1.0918794030886216e-19 -8.581052318855864e-20 0.0004367141639554402
-0.05686386936595217 0.13387822986614237 0.1918902727559934 0.28474436195855163 0.2525731022168299 -0.1195230177537399 0.18333028761004583 1.4383291188006523e-19
-0.08567623070988896 -1.9757906217620387e-19 0.10620208199213042 -0.21889052585807142 -0.13612977543772253 0.27036449483673786 2.0704056673119565e-19 -0.15633183765639744
-0.06800087866799143 0.19506238733292539 0.251773668145241 -0.280830091926442 -1.4876726286612132e-19 0.013543292232939118 -0.07259675007203219 0.24546969963519538
-0.23098985380001533 0.1830833426033379 -1.0286720863664943e-19 0.021918356966299183 1.597164445486932e-19 -0.21189270827544107 -1.4029176791332926e-19 -0.2232779758921264
1.3118572235615327e-19 0.21216848467371313 0.24106069217488993 0.1617623503625608 0.006449302660042027 -0.13422236802065157 1.2594994164397009e-19 -0.24711000492461824
6.183784629704823e-20 -0.03829665860684408 0.1905245656451375 0.21130025762112467 0.23609417319675782 -0.1635697525900249 0.016011336927012655 -1.743596895722122e-19
-0.194576801101311 -0.2025401068514706 -0.03234680213961792 -0.12276904018293011 6.294069220948698e-20 0.24139757718385504 2.289539287609469e-19 -1.2959717675695127e-19
0.028756999530448635 -0.10220994862183641 -0.10615175907579726 -0.0924095457954855 1.595074129013567e-19 0.03185318487536266 2.7611668161398066e-19 -0.21982810058506422
-0.035633445668582855 1.1055825852122685e-19 0.2254705574715889 -0.027821390835004126 0.1308087241134605 0.04535752486363495 3.0542938762644206e-20 0.11019559564436555
-0.0964220529786544 0.006363428538682353 -0.050082139017937115 -0.15234333509572798 -0.06908686626578225 0.25458544362115315 0.26245181038715526 -0.017221437866374943
-0.05348130067876346 -0.269142070646067 2.9750099815030597e-19 -0.23936320439801909 -0.19476573798089017 0.21504054940061887 -0.16740562017791666 -0.21755894036238735
1.5922610503149124e-19 -0.09198971649602766 -0.2821150389109627 0.2574662423822306 -0.050148620573944626 -0.034709561913774084 -0.2932267907045257 -0.25080255565881054
00000000: 52f8 ef9b 077b bfbf d749 a28f bafb cbbf
00000010: 3866 dab6 bc42 b0bf 1665 f556 ea12 013c
00000020: ab29 27ba 643d d0bf 9cc0 5197 f826 02bc
00000030: 9231 0cd0 3460 c8bf 60a7 45ba c71d ffbb
00000040: 2969 322c c2b0 d1bf 5c2e 8e09 4901 cfbf
00000050: dfaa 24b3 047e d0bf bfd7 320d 8005 08bc
00000060: ca83 5f37 f2f5 bdbf 974f 273a 1bcc cfbf
00000070: b9b1 887f cebf d3bf 1b61 2321 e7a1 d1bf
00000080: 1266 de8b 2fa4 a5bf 2f71 87b0 20d1 c1bf
00000090: 1712 e5b6 0a38 d0bf f0e7 095e c51d f8bb
000000a0: 8785 bfdf b5ba c3bf 7a01 cb7e b6bb 00bc
000000b0: 1995 5997 c937 cabf f9e3 308a 06c2 c1bf
000000c0: e7fd 3af5 f066 cfbf f3e3 62a5 67aa d1bf
000000d0: 1faa 63d0 8903 b4bf 0006 7adf daf0 fe3b
000000e0: 15b0 8304 f79a 88bf 5b75 e7b9 7856 023c
000000f0: cc0a 6a43 ccd4 cbbf a065 82ee d1a9 ea3b
00000100: 8855 3e05 d1e9 ec3b 6d51 b2df 4f90 c7bf
00000110: 09c6 6dc2 817c ccbf 7400 7ff5 a639 cabf
00000120: a8f6 305d eea1 d1bf 4811 59f4 f040 a8bf
00000130: 66ba e4c1 98eb c5bf 7c91 801c dbed d1bf
00000140: 96de f660 f206 bebf 2ad0 9ebb 8d32 043c
00000150: 11f0 6560 5e78 d3bf 38cf 084a 84e8 11bc
00000160: 32de 4f9a 6b78 ccbf 66d2 3a66 8c37 d2bf
00000170: cbb5 3480 0d6e d2bf af80 4cc5 b526 e1bc
00000180: 35d0 18c5 8ce1 c8bf 7a12 79bc 7253 cebf
00000190: e107 3945 907d babf 7043 a176 f4c3 103c
000001a0: 179e e27b d16f c5bf 9a3a 9364 3e49 13bc
000001b0: cde0 9e52 84a0 c8bf 18f6 dcc3 b191 d3bf
000001c0: 258f 43b1 f9d1 cbbf 527f b6c5 e755 cabf
000001d0: 86f4 0a60 e0cc f8bb 8cb7 9a4b d3a5 fd3b
000001e0: a553 6b86 2e88 babf d7b0 db63 da54 cfbf
000001f0: 9bc7 26b7 c905 cbbf f8c0 6726 e65d cebf
00000200: e6da 82ab f7a5 04bc dd2d f345 a57f cabf
00000210: c73b d512 fcf1 b0bf 8e33 23c0 ef35 d5bf
00000220: 4c1b 849d bef6 c6bf f0ec 6b64 f4b3 0e3c
00000230: 3c7f 7987 f3b4 c9bf 900c d8c7 eea8 02bc
00000240: 9089 beb0 74d4 b0bf c620 8ff3 733f cebf
00000250: fb23 29aa fc4a cabf e6cf a79e db4f d1bf
00000260: f0df 5c97 f093 de3b 9123 8749 6af4 b1bf
00000270: 1d5e 34ee ac62 c4bf 82bb a49a b4be 143c
00000280: 092a 76c1 3dcc c3bf 065e fe04 048b cebf
00000290: 214f 2edd 9d87 cebf d870 d07d 9be5 efbb
000002a0: a873 6e9f 4576 e93b 7b5c 5782 1220 d1bf
000002b0: 8886 6c7e 6e5d cebf fbaf ffe6 6304 c1bf
000002c0: 65e5 7893 3a1a 10bc 4037 1fa2 af12 b33b
000002d0: 96e1 f950 035d d1bf 26fa 8a8a 7abe d0bf
000002e0: ea50 c54c 12f5 cdbf 0e3e 2f08 6ea8 003c
000002f0: 2045 b0cf 0d27 c6bf 3e51 8992 4792 8fbf
00000300: 04a5 d136 83b2 d1bf c8e8 537e 48cd d0bf
00000310: 282c f487 4127 c5bf 68e5 daa0 47ed c8bf
00000320: dac0 f89a cafb c4bf 3b40 749c 9130 bbbf
00000330: 2d67 6bee 3e37 c4bf 6cd5 2e2f 43e9 003c
00000340: 7fb9 6444 7215 cebf 841c 3c96 1b3e ccbf
00000350: 6b82 bb6e ab2d d1bf 7954 4ffd 6cbc d1bf
00000360: b6a2 0f56 eba5 0dbc 2941 03bd 7a39 d3bf
00000370: f6ef b6d5 fdc0 91bf b0e3 47d7 344c e53b
00000380: 0b9c 563b 405c d1bf 2201 2e38 d75e cebf
00000390: 836a 1d09 b31b cabf b0ba bdc2 24f5 d0bf
000003a0: 3c56 00a0 62df cdbf bfc5 4fda 087d cebf
000003b0: 3f29 0022 8e9f 07bc 38cd a173 5bfe d2bf
000003c0: fc27 8eb6 7d8d 9dbf 06cf 7e48 3635 afbf
000003d0: 58ef dc38 6a6c e43b 7582 e777 d121 d1bf
000003e0: fdb0 c803 f216 b5bf b90e c6c1 b205 d03f
000003f0: 5bca 261c 6607 84bf 9e28 c3d1 a8f7 c13f
00000400: ca95 110e 355b 12bc 1ec0 3967 5b2a b3bf
00000410: 9f20 176b d16d d03f 81f3 4834 ab42 cc3f
00000420: 7d7a a292 5e00 713f 4ea7 10a1 38cc b7bf
00000430: 9dd5 5cfc 4485 cc3f a7fa 87ad 5aad cc3f
00000440: 781b a9c4 5d76 01bc 003a 143f 8527 033c
00000450: 9773 4407 efcc c53f 2da0 0825 b939 ad3f
00000460: 9553 31ca 7ab3 b7bf b943 3e81 0b7c c63f
00000470: 93a8 159b 6d7a c9bf a82e d705 5526 babf
00000480: ffeb dcff 63a8 c73f 7d1c 584e d359 d43f
00000490: f3c5 d1c2 b1d8 c23f 291f 0afa 8a9a cebf
000004a0: 6fa8 2ca8 5418 063c 5b61 74aa 105d ce3f
000004b0: ad9e 2bb9 b684 b3bf 9b93 fa1c 0ef5 cc3f
000004c0: e065 78fd fef1 cb3f 9b79 8771 70b3 a7bf
000004d0: 1100 d266 e24d aebf 7b7c 067b 4c00 a53f
000004e0: 05ab 4c97 dd67 c93f 4a1b 3bf6 001d 00bc
000004f0: f0df c9e9 a853 f9bb 3692 480d d99e 3c3f
00000500: 5866 80d6 421d adbf 23f2 75fd eb22 c13f
00000510: 5629 f446 dc8f c83f 7b45 956a 4039 d23f
00000520: 15b7 775f 282a d03f 431d 5f7c 0f99 bebf
00000530: c261 d3ea 5d77 c73f 5bab 2a91 da39 053c
00000540: c98a f1a0 e0ee b5bf 0619 fc6f 5328 0dbc
00000550: 175e ec44 0f30 bb3f f379 fbd0 9a04 ccbf
00000560: e427 c252 b36c c1bf c4b1 d4e1 a64d d13f
00000570: 4c32 a07e c58d 0e3c 4366 0781 ae02 c4bf
00000580: 0871 fa6d 8168 b1bf 1126 23e7 cdf7 c83f
00000590: 8960 ab4d 0f1d d03f a9a1 23c7 1ef9 d1bf
000005a0: 5546 79ae 44f4 05bc 2ce1 c3e9 95bc 8b3f
000005b0: 93f2 5a5b b395 b2bf 2cca 0b16 8d6b cf3f
000005c0: 93b2 e355 1391 cdbf cb3b 7664 466f c73f
000005d0: 180d 3431 6d5c febb a1c3 6809 c471 963f
000005e0: 1e3c 47ab ea91 073c cde5 26de 4c1f cbbf
000005f0: a534 5db9 12b4 04bc 58d7 2f6a 5f94 ccbf
00000600: 6613 9374 0e5c 033c 4a2e 753f 5628 cb3f
00000610: e102 9fa6 13db ce3f 6301 44f2 a0b4 c43f
00000620: d234 1c80 956a 7a3f 002b 85d4 322e c1bf
00000630: 36d8 6917 4196 023c 8133 d5f6 4ca1 cfbf
00000640: 3146 7fe7 5540 f23b c362 86a0 9e9b a3bf
00000650: 77e6 43e5 1b63 c83f d73e 0f08 e30b cb3f
00000660: 7fff 5378 5538 ce3f 8396 fe88 daef c4bf
00000670: 6af5 dda1 4665 903f 49e9 ea71 1fbb 09bc
00000680: bb2c a582 e4e7 c8bf bc17 878f d5ec c9bf
00000690: 4ec2 a392 c28f a0bf d807 8cb4 ca6d bfbf
000006a0: ec22 f20b aa93 f23b 314d aba5 1de6 ce3f
000006b0: 3d9b 9043 d1e4 103c a7ea 2bfc 0a20 03bc
000006c0: 80b5 0e92 7972 9d3f c018 a862 6e2a babf
000006d0: 33b7 a4fd c22c bbbf 95a2 07e9 26a8 b7bf
000006e0: e0a0 fc09 058a 073c d951 a086 0f4f a03f
000006f0: 543f af57 b25f 143c 5998 60c3 5323 ccbf
00000700: 92a9 9407 8c3e a2bf 7c4f cbdd c550 003c
00000710: 0e93 461f 38dc cc3f 61f3 0fef 357d 9cbf
00000720: 76a5 0c1c 57be c03f 4c69 d5fb 1939 a73f
00000730: 6466 7eb6 8407 e23b a9ae 744f c735 bc3f
00000740: 6310 289c 1daf b8bf a0d8 6cd7 8910 7a3f
00000750: 5f3b 64ba 5da4 a9bf d9f6 ff84 fc7f c3bf
00000760: 44d5 3147 adaf b1bf 07fe 98be 204b d03f
00000770: 82e2 98ad 02cc d03f 9667 b421 7fa2 91bf
00000780: 12c5 b9aa e661 abbf dcc3 d9a9 9f39 d1bf
00000790: e56e 568d a2f3 153c 35ac 6017 74a3 cebf
000007a0: 652e 816d 15ee c8bf efa8 7edf 7286 cb3f
000007b0: 0256 ea1f 8c6d c5bf fd88 e7aa f8d8 cbbf
000007c0: 2496 6f65 647f 073c 3c33 eb57 a38c b7bf
000007d0: 4245 753c 2c0e d2bf 9ec3 b6b0 537a d03f
000007e0: 2df5 9b7a 14ad a9bf 4469 8ea2 73c5 a1bf
000007f0: 31c4 184d 3ac4 d2bf 2db3 9329 260d d0bf

bias f8 [120]
-0.32585466519658535 -0.6570027593028923 -0.16140650087631414 -0.2784195237645315 -0.21466839503088472 -0.2464468729633086 -0.2753768178049071 -0.26675981509339486
-0.18980567538560933 -0.18001150641168218 -0.2378341454530528 -0.23393982305726227 -0.32063380335921005 -0.28715877693369435 -0.3180359689962728 -0.26321192788154135
-0.12114269564393156 -0.28141409960550207 -0.30153310005308853 -0.041970050401885534 -0.2388835203021048 -0.11270628830464757 -0.0916838629730003 -0.254689964917857
-0.2662580575658624 -0.2139561711850605 -0.059707450841710585 -0.31430948574479717 -0.25682085131744076 -0.19555456291309506 -0.25522950738784744 -0.203702080740042
-0.2222292597319199 -0.23268984495586034 -0.35823994122348307 -0.3102734297297847 -0.223396767863767 -0.25061228123610585 -0.27041830840955516 -0.250280596621555
-0.18847409852741684 -0.22938983308550207 -0.23220648306089575 -0.3123890588489224 -0.3575914340365781 -0.27961421914766516 -0.24550017113906222 -0.09430924499290551
-0.3325953811248496 -0.2461134737790461 -0.2411561241586301 -0.213628351800674 -0.2593892628003128 -0.18425237078534606 -0.08735097657537519 -0.19042935738847305
-0.2113177874829056 -0.2820302365160513 -0.24093365577050396 -0.2240975616645603 -0.2738643686716408 -0.23750387367963297 -0.18218193094651675 -0.1810757287871741
-0.20306396669909987 -0.20016375827330496 -0.2668233291595451 -0.25359680791033734 -0.2532109617175116 -0.23264194177571315 -0.2690616816423163 -0.17591938842595664
-0.24502840543550264 -0.14876836533798396 -0.2650720933110051 -0.19741217050463444 -0.36001822371946507 -0.11945441730792883 -0.1746013529158308 -0.10383833942154579
-0.3408241113419675 -0.2965212247365173 -0.2573301104344604 -0.2978899307251654 -0.21318938452151048 -0.23924776764986982 -0.24398731335626936 -0.20978759799418076
-0.26738683416251074 -0.2386210781187478 -0.2336141504511173 -0.17338031475359778 -0.728969486104678 -0.2302491781116637 -0.22680536585602798 -0.31469917951095894
-0.15833954036821143 -0.192766034786322 -0.41147739673031936 -0.24198483816832933 -0.2209680976558813 -0.2155946823655602 -0.2275526453268706 -0.3439103909399873
-0.2161871202958586 -0.19111000728893032 -0.09613868483335104 -0.1707313951168257 -0.2429942087040417 -0.27346894429146096 -0.19396639913585415 -0.19988961049123166
-0.333903359699985 -0.19294143672005615 -0.2310588058183081 -0.2981813533113186 -0.2888401788525362 -0.22082682570455958 -0.2743997458100713 -0.26223745067954596
00000000: de2c 9186 cdda d4bf 4bce 92a6 2a06 e5bf
00000010: 8012 50dd f7a8 c4bf 5cbd 481f a0d1 d1bf
00000020: 173c 1204 417a cbbf a518 ca35 928b cfbf
00000030: b21c a316 c69f d1bf 0ea4 6dc2 9712 d1bf
00000040: 5c2d 3068 8d4b c8bf 2c8f 78f6 9d0a c7bf
00000050: 67e6 4b6a 5971 cebf f1a8 a178 bdf1 cdbf
00000060: addf daa4 4385 d4bf 0522 ec34 cf60 d2bf
00000070: 339a 7289 b35a d4bf eec5 8ad7 76d8 d0bf
00000080: b9a1 f02b 3503 bfbf 3b17 9c48 b002 d2bf
00000090: c0ed d87c 514c d3bf 946f c633 197d a5bf
000000a0: 3c1d a035 bc93 cebf 286f 52be 51da bcbf
000000b0: 3c3c 0af9 9778 b7bf e642 7c23 d74c d0bf
000000c0: e8ad 623c 5f0a d1bf 0434 0273 ea62 cbbf
000000d0: 40a6 6299 f991 aebf c32c 8688 a51d d4bf
000000e0: dfb6 55b9 c06f d0bf f9cc 2592 ee07 c9bf
000000f0: a41e cd24 ae55 d0bf bfeb 73e7 e812 cabf
00000100: 3da6 6125 0272 ccbf 792e 19e5 c7c8 cdbf
00000110: ab40 eb37 67ed d6bf a175 6016 85db d3bf
00000120: d2e4 00ea 4398 ccbf 51a4 f817 080a d0bf
00000130: a2f4 b697 884e d1bf 5207 54e8 9804 d0bf
00000140: 45bf a854 eb1f c8bf 7b8d 9163 a55c cdbf
00000150: 7c36 5529 f1b8 cdbf 0b99 d8ad 2efe d3bf
00000160: fa13 a12e c7e2 d6bf 5417 af09 33e5 d1bf
00000170: cd32 1ab3 8c6c cfbf a179 f492 a624 b8bf
00000180: 33d7 2e23 3e49 d5bf d333 7e74 a580 cfbf
00000190: 3de7 3e31 34de cebf 45bb 3d80 2c58 cbbf
000001a0: 124c 2a6c d599 d0bf 38e4 5de9 9495 c7bf
000001b0: ca36 aa33 a25c b6bf d244 173b fd5f c8bf
000001c0: 1bad 2615 760c cbbf 1674 948c c80c d2bf
000001d0: e81f 05fe e9d6 cebf 7437 3b99 3aaf ccbf
000001e0: 2700 bf6a fe86 d1bf a34c 10e5 8666 cebf
000001f0: 9230 abcd bc51 c7bf 72c1 9e4e 7d2d c7bf
00000200: 48fd fb03 00fe c9bf f26b d04d f79e c9bf
00000210: aa34 2328 a213 d1bf ba12 161b ee3a d0bf
00000220: d92f e4bf 9b34 d0bf 5364 cd0d 36c7 cdbf
00000230: 3bac d07c 4e38 d1bf 7fca 02ca 8684 c6bf
00000240: a4df f73d 175d cfbf b32b e77f d70a c3bf
00000250: 0098 f6f0 f0f6 d0bf 042c 1350 cd44 c9bf
00000260: 0bb4 35e0 890a d7bf 4046 b38f 9094 bebf
00000270: 4030 4e4e 5659 c6bf cbf0 e23f 2695 babf
00000280: 95ba f9ee 0fd0 d5bf 9a0b b428 34fa d2bf
00000290: 92e4 25b6 1878 d0bf 376d 91ed a010 d3bf
000002a0: a0e7 2f2d ca49 cbbf c63d d9bc ab9f cebf
000002b0: b985 c0ed f93a cfbf 3fe6 3eec 51da cabf
000002c0: 30f9 06ab dd1c d1bf 1501 54af 228b cebf
000002d0: f701 0988 11e7 cdbf 9285 d17e 5331 c6bf
000002e0: a43f d3d0 b753 e7bf 1dd2 f518 ce78 cdbf
000002f0: a558 744e f507 cdbf 6ef7 0407 0824 d4bf
00000300: 25c7 c555 7844 c4bf bfea 97b3 8eac c8bf
00000310: 00ff 7f4a a555 dabf 2ec9 07f3 5bf9 cebf
00000320: 9317 72c0 ae48 ccbf abcd f946 9b98 cbbf
00000330: 890a e6f0 7120 cdbf 62e0 75ba a002 d6bf
00000340: 4b5a be01 05ac cbbf 7b44 9fef 4a76 c8bf
00000350: 955c 3d7b 8b9c b8bf 29af 36bf 86da c5bf
00000360: 3629 c029 6f1a cfbf aa05 0de3 8380 d1bf
00000370: 2ddb 6716 e4d3 c8bf c45c ef95 fb95 c9bf
00000380: c5e6 7b32 ac5e d5bf 28c1 6014 4eb2 c8bf
00000390: 21a2 38bf 5593 cdbf d3f1 2f3e 6715 d3bf
000003a0: d650 7c84 5b7c d2bf 8083 3dad 0d44 ccbf
000003b0: f03c 92f3 c38f d1bf c01f 9d96 7fc8 d0bf

weight f8 [120, 120]
1.579198286915901e-08 0.026652406193533897 -2.7805465557123895e-20 1.581430475838943e-19 -9.60874245176118e-20 1.8312073414686245e-19 3.395813061210478e-20 1.5742328405614943e-19
1.5972353530291564e-19 1.682318465600764e-19 -1.4535645887622472e-19 -9.844050617636179e-20 4.121776357464722e-20 -1.7630866628606034e-19 -2.0702936286995288e-19 -0.19465396104002233
-0.10963853208647101 1.023899949118147e-19 -4.921135947362982e-20 -0.12806213622179888 1.29838673381312e-19 4.115894442680745e-20 -2.5062814201914544e-19 2.636005880159073e-19
1.322768812533842e-19 1.8123292843371555e-19 0.24664004587537947 7.749270181727244e-20 6.768136601305395e-20 1.7549958075907102e-19 1.352236182865869e-19 0.3153283425898287
0.186115642466803 -1.0779852174573343e-19 -1.702778627241465e-19 1.4172020098741593e-19 1.7137024080082655e-19 6.374035246786277e-20 -1.687376394654573e-20 0.3157229516167928
5.060224911732816e-20 2.4001727227214045e-19 -1.25821269593985e-19 8.147934064719758e-20 0.0010630811788868984 1.4619750295027414e-19 0.1359453116355164 -1.9018593956632661e-19
2.0406276618253454e-08 1.7593758167198993e-19 -8.033675016613911e-20 -0.15655424035072474 2.431387045027373e-19 -1.769662933244195e-19 -1.2316383568949325e-19 -2.40341273797562e-19
7.967101125173538e-20 8.540051770229934e-20 3.8533954405670554e-21 0.07810946951802201 -2.13872416276914e-19 0.17757049014794285 -2.1380891271683085e-19 1.45856430705291e-19
-9.55237469226115e-20 0.0002683039812831336 4.857583050342873e-20 -0.18185335712007042 -8.240741844301407e-19 2.234214380678302e-19 -1.3436524023336767e-19 1.948338602368481e-19
-0.15079317887066426 4.5607010387361814e-20 -1.6687380971288738e-20 -1.6659311610508001e-19 -1.143954917079896e-19 -2.1804434542109155e-19 -1.197467841334298e-19 -2.0584446945031515e-19
0.03448638404335986 2.1168275411238895e-20 -9.43810993323725e-20 7.018439618353436e-20 9.517897119453193e-21 0.3050681416910094 -1.1019045380697258e-19 1.5619980073080413e-19
2.4294108357245498e-20 -1.3457787628704545e-19 -0.1576520493040564 -1.8333847075956486e-19 -0.05015752838215972 0.006994886879224324 -1.2897076867799327e-19 -2.844662792808e-20
1.3948265311209833e-19 0.29424128772356456 0.016580398977592878 1.3515158647820637e-19 0.12689319122233894 1.5818859007192566e-19 2.187297576697137e-19 -6.461825315782193e-20
-1.7422520101151896e-19 6.122246683053434e-20 8.653918123405543e-20 -2.5301374275357717e-19 -1.4153878814423025e-19 1.4766638658448873e-19 -2.3891077966257046e-19 1.8411809353962217e-19
-0.21943298287867932 2.2594222802534273e-19 -9.034061886476506e-20 1.4755972133289545e-19 -2.760172483861377e-20 -1.3129467084904077e-19 1.30248363688318e-19 -5.740318289268483e-20
-0.09919491535269762 -0.4177475347214794 -0.3036452433538621 0.13509625005017908 -9.280963379563757e-20 -0.24247560484735234 1.2438563503767038e-19 0.0668766566666229
-0.2708746491595965 -0.30123569789216076 -0.21091722334234858 -0.24193983329576788 -0.19715001085534087 -0.27271932085508893 0.08662556360167473 -0.2900291395033865
-0.28641250960814996 -0.2405380488975425 -0.15568234008838905 -0.1672290651926588 -0.1830990212547669 0.15371676979628654 -0.3221784787032536 9.632698831021545e-20
1.3414662016622455e-19 0.06834861687225063 -0.19058433298049665 -0.2705116696693832 -0.2074267837770009 0.05948130276638921 0.10810427361679206 -0.2857282380556753
1.6749368082551844e-19 -0.20140566924043687 0.16090382583888674 -0.14787585906781006 1.916518276625391e-19 1.4289145266417476e-19 -0.22815338716697364 -0.2173590351014599
-1.8200446259854618e-19 1.3269141990569118e-19 1.0747646871011108e-19 -0.27285427018873487 -0.11152694342918658 0.17360698247141232 -0.29717128030567874 0.0003898186053193309
-0.03667466568963362 6.412810545630597e-20 -1.5796403701976076e-19 -0.2870532517260403 -0.14886229909368182 -0.24739662323962094 -0.3216366001932968 -0.2598968277571584
2.415689557656571e-19 -0.17579477862369988 0.16295659089934644 -0.2861019579076699 -0.2556160244503081 -0.27415819163637406 -0.2672067261386685 -0.31205510364785116
0.06253553672153284 -0.2181042873425828 -0.25670577162575015 -0.3356064343491837 -0.15682698048159335 -1.6450972110204938e-19 -0.3161269797973803 0.09421071600598038
-0.28788649266239125 1.0383847846445356e-19 -0.166419759552104 -0.30788329731720554 0.04262037389000702 -0.28750973644312394 -0.24365991575001195 -0.2816127427482195
-0.2356327115869591 -0.17444031699089535 0.19482323472273538 -0.18959731864281232 -0.2438884450379629 -0.27672735926805897 -0.16919958220517048 0.05943785211287814
-1.7273260995447777e-19 -1.5145360228609146e-19 -0.28859227646287167 -0.3051612385432314 1.0637790632537025e-19 -0.2993735855718453 -0.2955059539344611 -7.884005390489451e-20
-0.29938326353117123 -0.30871338204166465 -0.11141199606552017 -0.279166608628539 -0.236219592570095 -0.2905796380081222 0.012339270364936317 0.022405077269527084
-0.2590862268299536 -0.1494916024900666 -0.259868348176752 -2.4269347543304155e-19 -0.2862891967162824 -0.10030510972272365 -0.3079965459363724 -0.23299919291683807
-0.30105554320411093 -0.1380827499963312 7.837842344631202e-20 -0.23291680800005596 -0.2760386644429631 -0.3042916179301075 -0.20423889042460633 -0.2918738398760398
-0.12091827150852032 -0.4074626368257086 -0.3145721205649165 0.26841038426524166 1.5947294919323418e-19 -0.2959267231345466 -1.8707204937990033e-19 0.15536457741848705
-0.2603252517814451 -0.14958397437122134 -0.1486530667777952 -0.2955256036376482 -0.18048745975487146 -0.2912316521206011 0.1704932153631214 -0.303544813111256
00000000: 08f2 a800 def4 503e 97ff d7b3 c44a 9b3f
00000010: 183a fed8 d769 e0bb 91d2 13b5 7956 073c
00000020: a222 5418 295c fcbb 8ac0 a511 1b06 0b3c
00000030: 6020 5a8c 9b0b e43b a4d6 e594 483b 073c
00000040: 6ca8 223f 2f92 073c 2fb1 7a95 9ed3 083c
00000050: 84bf d268 6973 05bc 5a3c 5550 f40d fdbb
00000060: 00ef defe a654 e83b 437b 89ca c004 0abc
00000070: 5a7b 3523 598d 0ebc 9d14 5ac6 6bea c8bf
00000080: f05d b155 4511 bcbf c753 4b89 5e38 fe3b
00000090: 8896 3d42 9c0c edbb d9d9 760f 5764 c0bf
000000a0: 1f54 da98 2a29 033c 3cce 3e8a c34b e83b
000000b0: f629 fa53 3b7e 12bc 43b8 483a 4673 133c
000000c0: da95 267f 4785 033c 440f 1755 c9be 0a3c
000000d0: c897 75a9 e691 cf3f fdf8 53d9 2edf f63b
000000e0: deb6 9a03 dcf9 f33b fe84 cccb 2fe6 093c
000000f0: 2f03 ab96 9af4 033c 7336 bbed 562e d43f
00000100: 14a0 d52a a3d2 c73f e0b1 faa8 06d1 ffbb
00000110: 14ec 2370 ea20 09bc e114 5bae 09ea 043c
00000120: 4536 4245 2f4a 093c 28a5 c0b9 15d0 f23b
00000130: e8ca 0b40 c8eb d3bb 159b f209 ce34 d43f
00000140: 78f5 14b2 cbde ed3b f53a 774f ccb5 113c
00000150: 8025 d9a6 6491 02bc d19e a5a8 670c f83b
00000160: 7e2e 5db9 e26a 513f 4564 177d 2f93 053c
00000170: ed70 c2ed a766 c13f a21c ff8a 0511 0cbc
00000180: a98f 180f 3ce9 553e c099 88e1 bbf6 093c
00000190: d67d a0be 12b6 f7bb 58a1 2d27 f809 c4bf
000001a0: fb66 67a1 c2f0 113c c26e 38f8 981d 0abc
000001b0: 3c19 2f87 ff2c 02bc 3046 ed15 ebbb 11bc
000001c0: 680d 327b c583 f73b 0d1f f540 ae34 f93b
000001d0: c06c 3220 7832 b23b f17a 1671 fbfe b33f
000001e0: 8cd8 d016 df8f 0fbc fec5 f53b a1ba c63f
000001f0: 60d1 9deb 788d 0fbc ca5a 1dd7 4c86 053c
00000200: 7a7f 12fc 9131 fcbb db0b 33d3 6495 313f
00000210: 2883 2c6c 92ac ec3b 37cf bf86 f846 c7bf
00000220: 9bae 1f1e 2967 2ebc 81a2 d1c7 4f7c 103c
00000230: c3d1 8bdd 2cd4 03bc 0003 3179 9dc0 0c3c
00000240: 01cd dadd 304d c3bf 004f d8c1 efeb ea3b
00000250: 18f7 e190 73b3 d3bb 763f 64c1 b595 08bc
00000260: ab84 ff4e bde1 00bc c25a 89c1 bd16 10bc
00000270: 3e12 4fd5 e7ab 01bc 3d2d 328d 9560 0ebc
00000280: e93e 3f07 33a8 a13f f069 1bfb b7fd d83b
00000290: d4e1 42f7 3bdb fbbb 93b6 aca8 fbb6 f43b
000002a0: 4015 e33d 3779 c63b fe51 e786 3c86 d33f
000002b0: 36ea 6dad e042 00bc 83f7 e7c6 0f0d 073c
000002c0: a049 4497 71ae dc3b 565b ea5a 35dc 03bc
000002d0: 3c43 f43d f12d c4bf e0a4 63e3 540e 0bbc
000002e0: f360 1960 3fae a9bf 70f5 2aa6 aba6 7c3f
000002f0: f346 e3bc 6008 03bc dcff 8e9d bbca e0bb
00000300: 1a7d 2572 8195 043c f1f5 f968 d9d4 d23f
00000310: 5c1d 74bd 73fa 903f a872 8cf0 e1f1 033c
00000320: 5648 313d 093e c03f 8af7 d02a 3258 073c
00000330: 6a72 cd34 b023 103c 7036 69cb 6a12 f3bb
00000340: 6691 5ec0 0ab6 09bc 022e f9bb d611 f23b
00000350: 229c aa35 b78a f93b 07e4 a462 4bab 12bc
00000360: 0a4e e929 2fe3 04bc 32ae d1a8 adca 053c
00000370: 1c10 f6a3 e5a0 11bc 8e30 e6ef c82b 0b3c
00000380: 0557 9046 6116 ccbf ab4e a392 edab 103c
00000390: bde8 10b5 f1a9 fabb dd93 720e a6c6 053c
000003a0: a001 a602 0e4b e0bb f546 fa23 2c60 03bc
000003b0: da1e ece0 a438 033c 3aec f009 43f1 f0bb
000003c0: 0e8c 5e85 d664 b9bf 9841 e727 60bc dabf
000003d0: 749c 7275 ec6e d3bf 8f8d e37b d54a c13f
000003e0: 8c00 d466 7f64 fbbb 5dd7 72cc 7009 cfbf
000003f0: dca2 d90b 285b 023c 38bc 3f1d d41e b13f
00000400: 232e dd9f 0256 d1bf 8a69 b517 7247 d3bf
00000410: e691 35e8 55ff cabf 2171 cd6b e2f7 cebf
00000420: 53ce 8328 363c c9bf 05d6 03bd 3b74 d1bf
00000430: d8b0 aaca 172d b63f d475 4361 d68f d2bf
00000440: a3aa 7b22 9554 d2bf 34b3 ba66 f3c9 cebf
00000450: de47 9f1f 66ed c3bf 34b8 f812 c367 c5bf
00000460: b602 1cea c96f c7bf 8397 8fb9 fdac c33f
00000470: 395a 607b 929e d4bf 4c9f c5ee 426e fc3b
00000480: c426 7a80 eacb 033c 4c72 3182 4b7f b13f
00000490: 9afe a342 1165 c8bf 94a5 9a2d 1050 d1bf
000004a0: ce7e 51fa f58c cabf c3d1 3554 5574 ae3f
000004b0: eef0 bdbf b8ac bb3f 7f8a 7f17 5f49 d2bf
000004c0: b473 a47b bbb7 083c 07ef 4e35 a9c7 c9bf
000004d0: 0cc0 e31e 7f98 c43f 0b36 489d 98ed c2bf
000004e0: a0a0 21be 6648 0c3c c59c 0c55 4916 053c
000004f0: 9848 2d54 2134 cdbf 0b1d a0bd 6bd2 cbbf
00000500: b7a1 2827 efdb 0abc f04a 24ab f094 033c
00000510: 67c8 963f b1b8 ff3b 4c36 c2c1 7176 d1bf
00000520: f1b4 a69e 078d bcbf 0636 09ec c038 c63f
00000530: 304b 8eb0 da04 d3bf 9aa3 4529 128c 393f
00000540: 7019 7593 05c7 a2bf 7a2f 8df5 61ed f23b
00000550: 7849 636c b64f 07bc 51ec 179a 145f d2bf
00000560: 667c 1b79 eb0d c3bf 9f3d fa4a b1aa cfbf
00000570: b3b7 c1ad b195 d4bf e245 e34d 26a2 d0bf
00000580: e035 97ca 1bd3 113c 6d88 7f7c 7180 c6bf
00000590: b848 4af6 c2db c43f 9e3d 2296 7e4f d2bf
000005a0: 3d3f 5650 035c d0bf fd8e c0cc ce8b d1bf
000005b0: 175b 823d ea19 d1bf 10ea 2df8 b5f8 d3bf
000005c0: d489 0e35 5402 b03f dc7b a05e d7ea cbbf
000005d0: 40ee 740b de6d d0bf b2d7 f668 937a d5bf
000005e0: 7f41 2610 e812 c4bf 1d32 3565 0047 08bc
000005f0: 693b e7a7 6c3b d4bf 8ead 2d88 311e b83f
00000600: c17c bc77 bb6c d2bf 2940 7048 d0a5 fe3b
00000610: b99c 5720 3e4d c5bf 1a92 3d25 5cb4 d3bf
00000620: 5b72 0070 56d2 a53f ca81 d33c 8f66 d2bf
00000630: 8207 bf84 3f30 cfbf c363 0f74 f105 d2bf
00000640: 0420 1173 3629 cebf dc35 4a70 0f54 c6bf
00000650: 4e4a d1be f7ef c83f 3676 7d95 b944 c8bf
00000660: 5bb9 a78f bc37 cfbf 8fbe 7dab e6b5 d1bf
00000670: 8bb6 08f8 54a8 c5bf 9447 f05d a36e ae3f
00000680: 25e4 e74b a77d 09bc 7f58 ba5c c159 06bc
00000690: 8051 52bd 4b78 d2bf c033 e300 c387 d3bf
000006a0: c260 24f6 af65 ff3b 2f4f d4d3 ef28 d3bf
000006b0: a8fe facd 91e9 d2bf c490 b66d fc44 f7bb
000006c0: 2783 756b 1829 d3bf 5a37 edc5 f5c1 d3bf
000006d0: fdc5 7b1f 7f85 bcbf b577 8c9f dddd d1bf
000006e0: 12aa 6190 713c cebf c337 8856 db98 d2bf
000006f0: 8027 64d5 5445 893f 5642 8c48 5bf1 963f
00000700: 3b09 c565 de94 d0bf 1259 dc73 8a22 c3bf
00000710: fad1 2bda aea1 d0bf e40a 83a2 59e8 11bc
00000720: 000d 46ec 8f52 d2bf 6f7b e17d 98ad b9bf
00000730: baf8 0425 37b6 d3bf 523e c9e4 ead2 cdbf
00000740: c1d5 1578 7e44 d3bf 5420 b00f b2ac c1bf
00000750: e6a8 6632 1b22 f73b 0b44 86cc 37d0 cdbf
00000760: e8b2 0d13 9eaa d1bf 363b dd8c 8379 d3bf
00000770: 25f6 78fd 7f24 cabf 83d5 349d 0fae d2bf
00000780: 8931 9ef5 7ff4 bebf b488 e02a de13 dabf
00000790: e3d1 831a f321 d4bf 48dd 94bf a22d d13f
000007a0: 107c fab9 b788 073c 5005 78a3 76f0 d2bf
000007b0: 852d 51d8 619b 0bbc c710 7c89 fce2 c33f
000007c0: 7b5a ae3e 2ba9 d0bf 720d f752 9125 c3bf
000007d0: bf5f 214e 1007 c3bf 6547 b038 e4e9 d2bf
000007e0: f41d 7e8c 361a c7bf 04c1 5a15 8aa3 d2bf
000007f0: ba55 16c0 b8d2 c53f cdba 4b39 476d d3bf
