pyTorch/noisey_features/models/dropout/ow_0.5_512_NF_model_0.pth (torch, 470675 bytes, 10 tensors)

weight f8 [120, 60]
0	0x3c06dab277f11a14	1.54866663882665e-19
1	0xbc0ccc5b21db2a0a	-1.9514463807755125e-19
2	0xbfca3224baef5bad	-0.20465525748906313
3	0x3c1785af92564313	3.1878539332548877e-19
4	0xbbf0e609bb2de65f	-5.72546363681228e-20
5	0xbc1339d10aa62858	-2.6055879962914323e-19
6	0x3be6365fca43d230	3.762926781979389e-20
7	0xbbeb190cbe45b450	-4.590554467956326e-20
8	0xbbf150aa4e63c16c	-5.866583622203649e-20
9	0x3c0c6f15600775ba	1.926757358557204e-19
10	0x3c080e92ce2a704c	1.630160821031223e-19
11	0xbc14c4fcb7c76a4b	-2.814789575592983e-19
12	0xbbf95350aa2ba8f2	-8.580596084763144e-20
13	0xbc05c1c7aff40426	-1.47430849786514e-19
14	0xbfc9b51e485db744	-0.2008397916173924
15	0x3c04beed3a813fbd	1.4057905854058972e-19
16	0xbfcb54191120c6ec	-0.21350396477060174
17	0xbc0b007b71954096	-1.82971880384662e-19
18	0xbfc5b99dda895137	-0.16972706957552372
19	0xbc013a6514882683	-1.1674217949145993e-19
20	0xbbebd9493f709b38	-4.7177658106686364e-20
21	0xbbf846d9e25c2720	-8.225286957256227e-20
22	0x3c185d8966b0908e	3.3021244463963057e-19
23	0x3c03207bb03c0a84	1.2960883001238796e-19
24	0xbfcf44d77ffbca54	-0.24428838490674087
25	0x3c05619c49ad8934	1.4488526354028849e-19
26	0xbfc768faa57bc49d	-0.18289120750663282
27	0xbc0b5579b0e51beb	-1.8522163042714222e-19
28	0xbfc3fa81f0aa23da	-0.15608238459779394
29	0xbc08d131aa0ff3c8	-1.6816764497845364e-19
30	0x3c01c62b471907a6	1.204419719996751e-19
31	0xbc0625866688e4e9	-1.5007107725073276e-19
32	0xbc02b8b0bbe89b68	-1.2686145772049538e-19
33	0xbfd06e5d1f423694	-0.25673606922723846
34	0xbc0c5024d1c470b0	-1.9185676959021123e-19
35	0xbbfaec8ffd199150	-9.122230454728457e-20
36	0xbfc7bf2e5cc6c956	-0.18552188425162325
37	0x3bfe602cbc35758e	1.0291681584655153e-19
38	0xbc0f61eb9d1240f7	-2.126561014115192e-19
39	0x3bfa83687a6f4cb2	8.983059847784366e-20
40	0xbfce43eff764b9ec	-0.2364482839561356
41	0xbfd1a4052267968a	-0.27563598975971415
42	0xbfc3e8130fc50e5c	-0.15551985044486372
43	0x3c086a5fbbed436b	1.6544602118341368e-19
44	0xbfc87b5e70850f1a	-0.19126492017868985
45	0x3bcd32d70d806ce0	1.2366085542207654e-20
46	0xbfc1692cf853a0ca	-0.13602220654798308
47	0xbfd1a513e511ce32	-0.27570054407189837
48	0xbc0383d7488d3226	-1.3223880889277456e-19
49	0xbfc10f23cff6cbd4	-0.13327453283781543
50	0xbfc39870a3edc9c0	-0.15308959965075353
51	0x3bb6cb0f055603c0	4.826647409210655e-21
52	0xbfd007bd2fcb9809	-0.25047235171803145
53	0xbfbd6b04260df2af	-0.11491418770851668
54	0xbfc33c07425c93f2	-0.15026942005457006
55	0xbfcc50c4e35d7c78	-0.2212148771459146
56	0xbfc7e1a9a71d2466	-0.18657417926650338
57	0xbfc411c04db6d9cb	-0.15679172320024146
58	0xbfd20ae828243b7a	-0.281915702057567
59	0xbfc77ed1afacabc5	-0.18355771139007807
60	0x3be425d4fb3f95a4	3.413166879264871e-20
61	0x3c13cb1ef1f0597c	2.6825114577484947e-19
62	0xbfcbfa2253291ee8	-0.21857098637177974
63	0x3c0b9a228cf556e8	1.8703903511582067e-19
64	0x3bef993e476d6da1	5.3530121674298084e-20
65	0xbbf1de8f2b183d50	-6.054378757870791e-20
66	0xbfd010646572920a	-0.2510004988382951
67	0x3c16dc3b599e9bde	3.0981457376640427e-19
68	0xbfcce2b46fe431d0	-0.22566848243185555
69	0x3bd496895b295a50	1.743874259859788e-20
70	0x3c0eea1abab59470	2.0948459951610414e-19
71	0xbbfe853b4dba2c4c	-1.0340725993942847e-19
72	0xbfd06e4b1fe7115d	-0.2567317782925523
73	0xbbe4003d4ad6b454	-3.3882902259991143e-20
74	0xbfcf4dfff316e487	-0.24456786508179482
75	0x3c0ccaba555aa15b	1.951015420879639e-19
76	0xbfcbadbdcd151ed4	-0.21623966707033182
77	0xbbd8abc3e12399c0	-2.0897113955636364e-20
78	0xbbea21b6d5fbca4c	-4.4268815135488964e-20
79	0x3c1579ac73f6aefb	2.9104441938205147e-19
80	0x3c121494c9977a5f	2.450350485204581e-19
81	0xbbbc172535844120	-5.948376013791423e-21
82	0xbfceffe93c2ce701	-0.24218478620769449
83	0xbc144a0a8b9561e4	-2.7497025120863213e-19
84	0xbfd03a821fbba093	-0.25357106303136695
85	0xbfce652f202e4646	-0.23746289321256792
86	0x3c00ee0ed4d47492	1.147215583211398e-19
87	0xbfcfe59d94724275	-0.249194810374792
88	0xbfcedc11d5be82e8	-0.2410909932778147
89	0xbfcb98e47ffaa9a4	-0.2156034111879538
90	0xbfd10aab78dc9e69	-0.2662762337008418
91	0x3c16a8b2d5ab5fbc	3.070864255177331e-19
92	0xbfd24c31fd5c6f42	-0.2859005903462625
93	0xbfce9b8e2caf74b6	-0.23912217313674028
94	0xbfd3060790bd1bbf	-0.29724301466597675
95	0xbc060fc87594c4f6	-1.494955724167365e-19
96	0x3bb0ed014db865c0	3.584177806334669e-21
97	0xbfcbc34ead891d62	-0.216897806867773
98	0xbfd28deff4fc5d21	-0.2899131672324576
99	0xbbe25c75179f2024	-3.1105017796278955e-20
100	0xbfcbe7fd3b0b0d89	-0.21801724799125236
101	0x3bf7927d73e35918	7.986581081026609e-20
102	0xbfd2afc4fe2d3aa1	-0.29197811910573007
103	0xbc043c4584c4b88c	-1.371206463943194e-19
104	0xbbfb1102fbbea722	-9.170470566710034e-20
105	0x3c013bf0a7b056e2	1.167830809704389e-19
106	0xbfce33856833d897	-0.23594729984296656
107	0xbfd1ac4f6499a6fc	-0.27614197563399023
108	0xbfd2d6a8b0f12e9b	-0.2943517425489774
109	0x3c0d246abc2feecd	1.9747559197999504e-19
110	0xbfd31c76da4101ba	-0.2986123210321484
111	0xbfd1648bb1fbc4d6	-0.2717618215675207
112	0xbfceba1722ba061d	-0.2400540275157689
113	0xbfcc283926dd4e57	-0.2199775161521866
114	0xbbf6f74cc61a84d9	-7.781188625379894e-20
115	0xbfce7647bc15724f	-0.2379846256616411
116	0xbfd2050653e09290	-0.28155668440948833
117	0xbfd16e0f9b2f85d3	-0.27234258799407235
118	0xbfd3550ae9ba574e	-0.30206559014310563
119	0xbfcc5ad1f4662a87	-0.2215216105799593
120	0x3c09e7249b173daa	1.755248934922776e-19
121	0xbbeab6b6d590af94	-4.525481438340695e-20
122	0xbfcda587d1e1bca1	-0.2316140913785363
123	0xbc03d18fe8bade69	-1.3429607177173842e-19
124	0x3c09cf2861e748b6	1.7489000927436394e-19
125	0xbfd3f9cdf966c833	-0.31212186198820574
126	0xbfcc901ea4981994	-0.22314818417380577
127	0xbc03d7383f3b5b0a	-1.3444582640045037e-19
128	0xbfd16b8802410c18	-0.27218818874479345
129	0xbc147b681a576875	-2.775836368777638e-19
130	0x3c0348989d4c742c	1.3067061207803216e-19
131	0xbfca13c1be9c81f4	-0.2037279301375886
132	0xbfd196b6932142f8	-0.27482380264431994
133	0xbfd0f296efaa001d	-0.2648064938039186
134	0xbfcdc3ae5e291c80	-0.2325342139976989
135	0xbbe3264befe79e18	-3.2440677830630034e-20
136	0xbfd35059fa5a6ab9	-0.3017792649131184
137	0xbfd3342b28532b89	-0.30005911767937526
138	0x3fd29fae7729da11	0.2909961856561561
139	0x3c06df8f578c5fba	1.5499538078187583e-19
140	0xbbf76e06d7786f6c	-7.938322273212954e-20
141	0xbbee8defecd5bca8	-5.1761238485632423e-20
142	0xbfd24d97e033b07d	-0.285985917040996
143	0xbfd33e784a77aa7a	-0.3006878592702048
144	0xbfd23bd618daf84f	-0.2849021189430276
145	0xbfd1fd1142811508	-0.2810710095839828
146	0xbfd3a2ff0035f83c	-0.3068234922465114
147	0xbfcd40a9cac25d09	-0.22853586578705912
148	0xbfc802b834656a28	-0.1875829940643865
149	0xbfd2042df1384c4b	-0.28150509411461105
150	0xbfd6c4d6b42a55de	-0.3557640799930065
151	0x3be6f42f8b8a5d68	3.8885335246405955e-20
152	0xbfd724d82e0aaddc	-0.36162380691777485
153	0xbfc14725bdd108ad	-0.1349837471808021
154	0xbfd27cb56894eeff	-0.28886161053718235
155	0x3c0f3c45a0c57b18	2.1165955706300674e-19
156	0x3fd0bdf5f810980f	0.26159428811149693
157	0xbfd543541546492e	-0.33223440244286706
158	0xbfd54d7e37fa688b	-0.33285479990593875
159	0xbfd338a1e392d8ae	-0.3003315660856839
160	0xbfd324e1b73a0c45	-0.29912608044850614
161	0xbfc3c074d9c881b4	-0.1543108046908067
162	0xbfc46adc4dcf4282	-0.15951112555787367
163	0xbfd00e7542ec7e72	-0.2508824494889047
164	0xbfc355767b56cd3f	-0.15104561827102178
165	0xbfd1e489fd326644	-0.2795739147783005
166	0xbfaa39c9345a1f81	-0.051222121849661136
167	0xbfd4c7e4ec0288e7	-0.3247005753311342
168	0xbfd78d122ab2ac42	-0.3679852883312301
169	0xbfcf93973a0c18c9	-0.2466916116174558
170	0xbfd74b43b35edf04	-0.3639687778154299
171	0xbfd3e1b9795f1e5e	-0.31065213062945485
172	0xbfb83b1ae6736388	-0.0946518719314452
173	0xbfc2828ebe6d0bdd	-0.14460930154936494
174	0xbfc07be724e94565	-0.12878121664338518
175	0xbfcd9393d0916904	-0.23106620487198637
176	0xbfce0685318ede08	-0.23457398338153745
177	0xbfbf9d7eb6174f4b	-0.12349693246443143
178	0xbfcc28524b6b803c	-0.21998051340688274
179	0xbfd03cc84b6f7ae9	-0.2537098633455757
180	0xbc0cbe98ca4913a4	-1.947804364433692e-19
181	0x3c0ac25fb02d1dc4	1.8132788419841255e-19
182	0xbc159c671ae52c8e	-2.928829631397261e-19
183	0xbfd00bd526f8346f	-0.25072220616932034
184	0x3be6419c2fa07cb8	3.7703620912291223e-20
185	0xbfcf97b544d222ba	-0.24681726322548575
186	0xbba76ab10c72dd00	-2.4793463333063683e-21
187	0xbc120326794c108f	-2.4411226368570735e-19
188	0xbfd1c08be86cbbda	-0.27737710664490367
189	0xbfd108659f238638	-0.26613750973601524
190	0xbfd189d46f0da530	-0.2740374645714665
191	0xbbf5fe01fab90eae	-7.451253191064745e-20
192	0xbfd1e716f8bb1354	-0.27972959795106545
193	0x3fcf3d462fc511e0	0.24405743916044198
194	0xbfd02fddfa8906f3	-0.25292157617887695
195	0xbfcf9bc0ac8439e3	-0.24694069312722808
196	0x3fcd74e9681828a9	0.23013036329968387
197	0xbfd974aa53e770ed	-0.39774568742519884
198	0xbfd1c64ff67809d1	-0.27772902554729934
199	0xbc07aac563fb1ab6	-1.603743345316182e-19
200	0xbfd70701f9b97aca	-0.3598027170864212
201	0xbfce7b8439c827aa	-0.2381444246423688
202	0xbfd54f85e7aad81d	-0.3329787027718128
203	0xbfc2eb6af8c05529	-0.1478093828779177
204	0xbfd0ec776a877e12	-0.2644327678990247
205	0xbfd55874a55ede72	-0.33352390431853174
206	0xbfcae83b1e21f0b1	-0.21021212550465898
207	0xbfce8f02e0937553	-0.23873935666680754
208	0xbfc054d81e354914	-0.12758923983580728
209	0xbfd729200f95f92d	-0.3618850853162197
210	0xbfcb7f33b3a9d076	-0.21481939575790293
211	0xbfd62d860d1082c0	-0.3465285422881088
212	0xbfb910dedd0059ad	-0.09791367431203098
213	0xbfd230250cfbd0cd	-0.28418852107939757
214	0xbfd1cafd2201e888	-0.2780144531349227
215	0xbfce094d38d93924	-0.2346588637905792
216	0xbfd6cb5114faba28	-0.35615946816224886
217	0xbfc9a22a93fdcc15	-0.20026142336027478
218	0x3fd065e044724385	0.2562180202885929
219	0xbfb8de8b55b04de3	-0.09714575616845127
220	0xbfbe57f29005d874	-0.1185294725054023
221	0xbfcc30c5faf81d08	-0.22023844484667898
222	0xbfcb7fb8115bd344	-0.2148351750144234
223	0xbfd6a7f5afee850f	-0.3540014474948103
224	0xbfbcc000e582ade8	-0.11230474093706955
225	0xbfd8174f8828e85c	-0.37642277047019035
226	0xbfd35947ee1201a5	-0.30232427834564596
227	0xbfb7dba8cc502194	-0.09319548595533994
228	0xbfcb79bf72e6ac88	-0.21465294943240942
229	0xbfd02775fca35668	-0.25240850135501214
230	0xbfcfac58d938c072	-0.24744711500671063
231	0xbfce4c63953edf7e	-0.2367062071550627
232	0xbfd7a75fff2ffaaf	-0.3695907585205686
233	0xbfcfc4705b006e37	-0.24818233912888996
234	0xbfd9079226c046c8	-0.39108709129605446
235	0xbfd09d5529f2af05	-0.25960282417757724
236	0xbfd1dd8790daca63	-0.2791460909458349
237	0xbfd695db3fdfd1ea	-0.3528965114376478
238	0xbfd036f94cff036d	-0.25335533637194524
239	0xbfd578a4bc4d0c3b	-0.33548849476591486
240	0xbfd88c320fef2f6c	-0.38355685764394454
241	0xbfc454a908a04a7a	-0.15883362694929187
242	0xbfd06574a98de968	-0.2561923652462128
243	0x3fd522b41eb6ab5f	0.330243139260963
244	0x3fcd3b874a488130	0.22837916495428479
245	0xbc072ddfc722f55b	-1.570683404670571e-19
246	0xbfd13efe2aeb1afb	-0.26946977797744837
247	0x3f9a721501d60df7	0.02582581351954435
248	0x3c01b674f1b279a2	1.2002607245368462e-19
249	0xbbf4abb6546938a2	-7.003522816242672e-20
250	0xbfd03daa69870795	-0.2537637739698025
251	0xbfd94d9e18df236b	-0.39536240033026243
252	0x3fd16ade2ac027f4	0.2721476953016684
253	0xbfd2d1294f94ad3d	-0.2940161969333593
254	0xbfd982f8aa06c854	-0.3986188564696296
255	0xbfdbc971fe40dfd1	-0.4341702444976337

bias f8 [120]
0	0xbfc376fd06231eae	-0.1520687370268567
1	0xbfd2065722f853e2	-0.28163698592226016
2	0xbfc2c41eb9a9a22d	-0.1466101080470862
3	0xbfd0a43fea1bff5e	-0.2600250040268203
4	0xbfd2fd959eb863b0	-0.29672756671930767
5	0xbfcc39a588d9a891	-0.2205092352117544
6	0xbfca8dc8e68c879c	-0.20745192773125332
7	0xbfcfb09a9da54164	-0.2475770253900108
8	0xbfcc26bf7158abb7	-0.21993248972407084
9	0xbfd1d467b2a53892	-0.27858917661513616
10	0xbfd095e39b3c3bd9	-0.25914850387283433
11	0xbfd0c6ecc9ff21dd	-0.2621414158461713
12	0xbfd3417b721b458d	-0.3008717169114668
13	0xbfcb6db37efd9558	-0.21428531361304226
14	0xbfca6f7afee0efbe	-0.20652711339232427
15	0xbfcc8ddb5db727aa	-0.22307912898969323
16	0xbfd97994cd1face7	-0.39804573089231926
17	0xbfcf3b6af78bb6b4	-0.24400078856654306
18	0xbfd282a6175f7c67	-0.2892241695644259
19	0xbfc7e94da5b7e386	-0.18680735198702453
20	0xbfd244d5057fafed	-0.28545117890348487
21	0xbfd035f4ef89edf3	-0.2532932605024307
22	0xbfccdf05fb75a4d9	-0.22555613306329894
23	0xbfcb3fa007f54b3d	-0.21287918461401914
24	0xbfd1fb57cb43d21a	-0.2809657559403448
25	0xbfcc6af3444eaf8f	-0.22201386294670697
26	0xbfd2acaced8819b8	-0.29178927608918626
27	0xbfcf777c05d2adb9	-0.24583387646030788
28	0xbfd7025f01fbe7f4	-0.35951972192526616
29	0xbfc819b26115dcc3	-0.1882842039155773
30	0xbfd67e23715ddcb0	-0.3514488799186877
31	0xbfcd4b78ed1371bc	-0.22886573387121512
32	0xbfcd37a8fdd95e0e	-0.22826111216521422
33	0xbfcb3bc77bac2ead	-0.21276181734753177
34	0xbfc52b8109ef16ab	-0.16539013848357817
35	0xbfced33e3b0a9ee2	-0.24082162745366192
36	0xbfd41844664af97c	-0.31398115148103733
37	0xbfd1b42d815286a7	-0.2766221774018995
38	0xbfc6aeea3078a08f	-0.17721297613866624
39	0xbfb02d047472f0d0	-0.0631869110392842
40	0xbfad03e7225e44d5	-0.05667040152105477
41	0xbfc99a41f6c033c1	-0.20002007053736118
42	0xbfd29784219423ff	-0.29049781111876877
43	0xbfd55c4732a41e84	-0.3337572092573071
44	0xbfca353d8bc64bc1	-0.2047497684949047
45	0xbfd1630088151b21	-0.2716676072054032
46	0xbfd1ea122f2cec01	-0.2799115620325097
47	0xbfcaf4725f3da62b	-0.21058492327147013
48	0xbfd2f0ac4e8eab6a	-0.2959395186577952
49	0xbfc7e2fbbca5eb86	-0.186614482034056
50	0xbfccbdeb898f7d74	-0.22454590050527268
51	0xbfde79521cb68b42	-0.47615483097085953
52	0xbfd1a8654de76ef2	-0.27590305908027724
53	0xbfcf013d3ade6e53	-0.2422253167577418
54	0xbfd8c6eea3dca861	-0.387141857167654
55	0xbfd07cf52541659d	-0.2576268066237278
56	0xbfd42032271ecd2d	-0.3144650823625906
57	0xbfb9d0b60d74abbe	-0.10084092930325902
58	0xbfcd933394de5ef4	-0.23105473298050294
59	0xbfd1b4387d2fc105	-0.2766247961544795
60	0xbfcff16a4628a125	-0.24955490518301207
61	0xbfd4fb04ba6536f9	-0.32782095148728235
62	0xbfd20d6790be567c	-0.2820681489477932
63	0xbfd031607c27d1a9	-0.2530137264687036
64	0xbfcc7c7413bfd474	-0.2225480171615889
65	0xbfd2e17cd1057097	-0.2950126687262666
66	0xbfc8c40d03ae4d8c	-0.19348299674730318
67	0xbfc2eb1a60d4cd26	-0.14779977539147032
68	0xbfd1a6c370cefc23	-0.2758034326215599
69	0xbfcdf1cfb4061bf8	-0.2339419964812064
70	0xbfc8a658df31813b	-0.19257651231874626
71	0xbfd0dafb23402871	-0.26336553995554995
72	0xbfd291eed51bed53	-0.2901570397513826
73	0xbfcbcd60f850d765	-0.21720516323847075
74	0xbfcea05f56dcfc8d	-0.23926917783135018
75	0xbfd1416cb96e8d35	-0.2696182070596536
76	0xbfcb9eb12fecc960	-0.21578039970479335
77	0xbfcb03216f63d2a8	-0.21103303851090982
78	0xbfcfa6d864c11005	-0.24727921409260048
79	0xbfca728630716027	-0.2066200005090206
80	0xbfd3f26b235dcee0	-0.3116710515380259
81	0xbfc8c19c74d96e02	-0.1934085436395066
82	0xbfdc517710199150	-0.44247223446133876
83	0xbfd3ad9df85c0aa9	-0.307471745051013
84	0xbfd093e584e2f240	-0.2590268895835699
85	0xbfd5a6c1a4269ae7	-0.33830300360061333
86	0xbfce00749ec80624	-0.2343889022159128
87	0xbfd08a5a90fb53ad	-0.25844444425939167
88	0xbfd4bbd0a258b315	-0.32396331648014726
89	0xbfc8a29f20fd6e44	-0.19246281729543757
90	0xbfd251caf4cb15b4	-0.28624223619075484
91	0xbfcc910fa6049b4c	-0.22317691427562136
92	0xbfcc7e9dc722bdf5	-0.222614023432001
93	0xbfd9841572f7f68e	-0.39868675448801916
94	0xbfd37ccf5871dfb9	-0.3044927943915315
95	0xbfd54e9374dee38b	-0.33292089856291146
96	0xbfcbdd51e30938b7	-0.21769164643996472
97	0xbfd19c7bd63c25cf	-0.2751760093820765
98	0xbfd05ebacae926b5	-0.2557818395185721
99	0xbfcf3800f840a2e9	-0.24389659997657212
100	0xbfcd6c2db7a7c968	-0.22986384837674767
101	0xbfc9d5fa7a06084b	-0.2018426032846626
102	0xbfd861ecf792b3c4	-0.38097690751129343
103	0xbfcdefee663586f6	-0.23388462057760478
104	0xbfd1c0d0405d4ca0	-0.27739340100851884
105	0xbfd129358df73ac8	-0.2681402098068415
106	0xbfd382bd4fcabf45	-0.3048547057360234
107	0xbfc8976741bc9d6a	-0.1921204634647709
108	0xbfd177d3cfe1628c	-0.27293868351765904
109	0xbfd17aefb956e97c	-0.27312844371376577
110	0xbfd0235c9aeaa008	-0.25215830925526506
111	0xbfcffe1e2d4ff289	-0.24994256222261793
112	0xbfcc8a99a26a2d6a	-0.22297974043281538
113	0xbfd15422ba793051	-0.2707602330235704
114	0xbfd19671a68437c3	-0.2748073698174915
115	0xbfd638e93dcfe4e6	-0.34722357784592217
116	0xbfd3fc75577e9c24	-0.3122838358344231
117	0xbfcbde147dc6ea26	-0.21771484509902556
118	0xbfd0315222fe18fd	-0.2530103055691056
119	0xbfdc9dd5cc4ada24	-0.44713349295071425

weight f8 [120, 120]
0	0xbfd1e24c1ec65e8b	-0.2794370937858523
1	0x3c04a28fc9be3c0c	1.3982824319300302e-19
2	0xbfd042e35b432023	-0.2540825263245116
3	0x3c0112ea56f56516	1.1569716701462078e-19
4	0xbc098ab93b47a999	-1.7307857153053323e-19
5	0xbc0226f89751c09c	-1.230042997458697e-19
6	0xbfd00654b50709dc	-0.2503864066931365
7	0xbbff1dc7ba45a760	-1.054262229399745e-19
8	0xbfd3f526f1dc2bb4	-0.31183789843697274
9	0x3c15fe8b13f2c894	2.980784789555606e-19
10	0x3be56aad59c176e4	3.6281313952323886e-20
11	0xbc0805800d32d7bf	-1.627759149915089e-19
12	0xbfc8b4c0d86ca801	-0.1930161530265764
13	0xbfd446e320e6c9f3	-0.31682661259688344
14	0xbbfd5ba787ed2618	-9.946885800112987e-20
15	0xbbc8088863f0dda0	-1.0178511659115832e-20
16	0xbfc7e77047b5679a	-0.1867504453792293
17	0x3c00b69fe1a3441a	1.1325424848509841e-19
18	0xbbdf95c9ed84ddc8	-2.675363086572169e-20
19	0xbbf81dc55e09e7f0	-8.170917839289278e-20
20	0x3c00ccd6a8dbc874	1.138422475700985e-19
21	0xbc00bbb67ecb017a	-1.1338893560428469e-19
22	0xbfd3bce3a46cd278	-0.30840388352525094
23	0xbfd195520a1541f9	-0.27473879799529716
24	0xbc044ee8f4e4f970	-1.3761400151945747e-19
25	0x3bf8913adce45c64	8.323726509604753e-20
26	0xbc046d693715bded	-1.3842135653143853e-19
27	0x3bfef0dadf7a0600	1.0483164268931658e-19
28	0xbfd1dce747c8e0c6	-0.27910787592146524
29	0x3c025678b9e7755b	1.2426162824563542e-19
30	0x3be6160575c1facc	3.7415174604461667e-20
31	0xbfd299ffe7ddc793	-0.29064939158626507
32	0x3bece9d1053e5588	4.898111276087285e-20
33	0xbfd0a24fda89476d	-0.2599067339079884
34	0xbbd0d156a2149980	-1.4245169855083677e-20
35	0xbbf78ca384d3948e	-7.978836944609993e-20
36	0xbfcd92839873e5ed	-0.23103375381451433
37	0xbc0be09c284fd310	-1.889044935414659e-19
38	0xbfd20a15ef19c995	-0.2818655810325706
39	0xbfce1f78f62288b2	-0.2353354646521147
40	0xbfc92fe5f310015e	-0.1967742382839885
41	0xbfd1077d2ef1df5b	-0.2660820921369031
42	0xbc12b89883557b4c	-2.537179066566297e-19
43	0xbfd0604ee0fa0099	-0.25587818117492983
44	0x3bed476744d27ebc	4.9600418965547174e-20
45	0xbc01cf0510ebe9d6	-1.2067624902657323e-19
46	0xbc11944dd9d03749	-2.3824411559028136e-19
47	0xbf5982900e58149e	-0.0015570074841673508
48	0x3c02e6d5eee9574e	1.2808291389240046e-19
49	0xbfd0dcd4b4feb575	-0.26347844767845824
50	0xbbe59f537346c388	-3.6629714663505795e-20
51	0x3c10c3f476a14370	2.2721420238762696e-19
52	0xbfd0ffb50d0de7d4	-0.26560713076434905
53	0xbc13493e64933a9a	-2.6137550633057885e-19
54	0xbfd317ccd657617c	-0.2983276456048072
55	0xbfd74b0909731506	-0.3639547912865314
56	0xbbe22cdfe60a10d0	-3.0790141319702465e-20
57	0xbfcd48147a502daa	-0.22876220676731168
58	0xbbf8cce0600af486	-8.402668038004937e-20
59	0x3bfda5d34b9ab78c	1.0045050241114643e-19
60	0x3c02dd32fbb44320	1.2782783723791898e-19
61	0xbbc14896ad1980f0	-7.319867781798351e-21
62	0x3c0f87bd5bd2ad19	2.136571703942628e-19
63	0xbfd35e3168743669	-0.3026240844782025
64	0xbc04a5f7ab82dae6	-1.399183936691835e-19
65	0xbc0382500c3fa07f	-1.3219835608414679e-19
66	0xbfcf0612523b2dbd	-0.24237278952783284
67	0xbfd70325bacbf374	-0.359567100924145
68	0xbbfc0897deb99142	-9.498142070684924e-20
69	0x3c0eb3f4646becf0	2.0805126745837351e-19
70	0xbfcfbab34ca89f84	-0.24788514369106107
71	0xbc02a8eec7d80c90	-1.2644435671725302e-19
72	0xbfc813d01b6c502d	-0.18810464228647686
73	0xbfd21782cdf0790a	-0.282684994804996
74	0x3c1564dbb08bddc4	2.899424569493295e-19
75	0x3bfac2f3a738a47e	9.067159171142949e-20
76	0xbfd07ad0c7b6f638	-0.2574960661257566
77	0x3c0a8ddd4af1b8e4	1.7993797308688792e-19
78	0xbfd021759b5ed884	-0.25204219983005083
79	0x3c14beb49aa4bb82	2.811464074175991e-19
80	0xbbff21eda775ec4a	-1.0548112325419095e-19
81	0x3ba1abbc26bfe680	1.870972930214269e-21
82	0xbbf42d87db86c8c0	-6.836522949082438e-20
83	0xbbefe59b7dd070d8	-5.40354569720457e-20
84	0xbfcef8be0488bdc3	-0.2419660112513907
85	0xbfd415f1bd149294	-0.31383937325362266
86	0xbfd3179f58e0bbdc	-0.2983167999217906
87	0xbfcf70d7b3505237	-0.24563118224672717
88	0xbc101a3a9378e565	-2.1822897628240623e-19
89	0x3bb312afa21f3740	4.038863252247269e-21
90	0x3fd3f79ff6684af7	0.3119888216325956
91	0xbfd2dfb15b049918	-0.2949031246993328
92	0xbc04bd990e7036e3	-1.4054388556622192e-19
93	0xbfd51d547eb279c6	-0.32991516468782967
94	0xbfcecbfe29cdf094	-0.24060036698563592
95	0xbfd092dfa77aeb53	-0.2589644561336872
96	0x3c014689f5c1ff28	1.1706363012747838e-19
97	0x3fdc54ad4e100349	0.44266827224059974
98	0x3c11f90a409d1e40	2.435770320409119e-19
99	0xbfd2a1463590abc0	-0.2910933993431932
100	0xbbfd4ab0ac22b27c	-9.924433747599435e-20
101	0x3c0b1215f1854473	1.8343784153825104e-19
102	0xbfd2838e0cb9e09c	-0.2892794727590713
103	0x3c00e9432f2ed56c	1.145946225904153e-19
104	0x3c100f767795e958	2.1765902631369386e-19
105	0x3c0d4d1c4b47a0a3	1.9855274232973928e-19
106	0xbbf115b911a7d15a	-5.788574094045043e-20
107	0xbfd4f904f6defaf1	-0.32769893749711715
108	0xbc0da5eb560fa2b6	-2.009034905875634e-19
109	0xbfd3c78dc5abe9bd	-0.3090547972093665
110	0xbc0c94ddc3cf3b32	-1.936758375172622e-19
111	0xbfd2bf611d1c2a47	-0.2929308685567417
112	0xbc10dcb712092bc1	-2.285249956040943e-19
113	0xbfd3a7f5d95f4ad5	-0.3071264860893
114	0xbfcd8977bb866379	-0.23075768143169365
115	0xbfd0a909541655ef	-0.2603171654858149
116	0xbfd247630e71dd46	-0.2856071129858332
117	0x3bdbc5b18e3ce698	2.352400275111795e-20
118	0xbfcdcd267cf70873	-0.23282319165997797
119	0x3fc77d86231eac70	0.18351818766436478
120	0x3bfaafc24c692f50	9.041757722557688e-20
121	0xbc0d23b2d0da042b	-1.9745657517218638e-19
122	0xbfcdc983a40f06ae	-0.23271222601583957
123	0xbfd186776ab491a0	-0.27383218212551164
124	0x3c0e041b11bb9139	2.0339658535618054e-19
125	0xbfcc892aee7e257d	-0.22293602605013155
126	0x3c0785f357fc9fab	1.5939970413051333e-19
127	0xbc01a9f10ea44e9d	-1.1969479830901062e-19
128	0xbc125b350e1195ca	-2.4877396020446243e-19
129	0xbfcadf7aa4a2478c	-0.20994504011883597
130	0x3fd2a4e8a7acf89f	0.291315234895487
131	0xbfc8c114829ae6a7	-0.19339233758164662
132	0x3c0a5813156ae8b2	1.7851416683830367e-19
133	0x3c12678570d8a79c	2.494258583190767e-19
134	0xbbf355411c391d87	-6.550283574524847e-20
135	0x3fd51dec24bf3afd	0.3299513205392229
136	0xbc01765dc4a91b78	-1.1832961022477984e-19
137	0x3c0327853f143a00	1.2979510674221277e-19
138	0xbfc9e31b1c87a527	-0.20224322217044596
139	0x3c00002b96e0e2fe	1.0842472428366907e-19
140	0x3c0a116114b85e99	1.7664287721587e-19
141	0x3bd529f927944600	1.7926569760608317e-20
142	0x3c04c04007703ada	1.406140896934593e-19
143	0x3c0b25a1c887d4e2	1.8395522645568042e-19
144	0x3bfc13fb35275715	9.513214012885586e-20
145	0xbc076534a69fc550	-1.585329540074841e-19
146	0x3c07f22f8bb1c2cf	1.6226466506661092e-19
147	0xbfcf26f5570821f1	-0.24337641477201502
148	0x3c061854a82ca86f	1.4972182674874683e-19
149	0xbfd17d8b0a99941a	-0.27328754458568627
150	0xbc0b0eed5bbabd19	-1.8335423579622847e-19
151	0x3c0f241a39bf58b8	2.1101979464572666e-19
152	0xbc020040dd1d1502	-1.2197945115659222e-19
153	0xbc12c5a0d91531d0	-2.544078445548915e-19
154	0x3bdaaec8a3f6ab40	2.260116755240678e-20
155	0xbfbcb8313d214622	-0.11218555204802574
156	0x3bf4d39ac74d857c	7.056319939060245e-20
157	0xbc001d00f63b1b4a	-1.0918794030886216e-19
158	0xbbf953a8e9c9dff0	-8.581052318855864e-20
159	0xbc138c5957f79e5a	-2.6492803008179847e-19
160	0x3be9f43cf2b587e0	4.3967879389423725e-20
161	0xbbf09572eaf64706	-5.618804831666839e-20
162	0xbfd0a61dfba07cc2	-0.2601389844221097
163	0xbc0e23cd93055189	-2.0423560551150642e-19
164	0x3c0f8b69d0462a3d	2.1375441115047391e-19
165	0xbfd2360c3c614f8d	-0.2845488156938181
166	0xbc08564c23e67834	-1.649145996343951e-19
167	0x3c0539da912aab5b	1.4383291188006523e-19
168	0x3fd1990e5fdaeb69	0.27496680603842677
169	0xbfdcbb4f862b03bb	-0.4489325342402101
170	0xbc0c09bb0d608234	-1.899929489511189e-19
171	0x3fc44476b9380424	0.15833934825789797
172	0xbbead7ff772ebd78	-4.547506754068614e-20
173	0x3c04fba1074c26c4	1.4218583619796486e-19
174	0x3c0e8dc57ea0324c	2.0704056673119565e-19
175	0xbfd0312e35375839	-0.2530017394723277
176	0x3fbfeac4be5b5eda	0.12467603347192427
177	0x3bf137d7a08cce22	5.833730701463867e-20
178	0xbfbb771bb822fdb8	-0.10728619809650908
179	0xbfd22dd0f79d6c17	-0.2840464037050778
180	0xbc05f444ae794655	-1.4876726286612132e-19
181	0x3fd16f9a8b16dceb	0.2724367483419445
182	0x3c08d1a67a1f589b	1.6817972313215382e-19
183	0x3be7f53ce4ecb782	4.058636365343527e-20
184	0xbbe29df4f86d3218	-3.153845728736281e-20
185	0x3fcd188aff83fe80	0.22731149174068221
186	0xbbfe5c6d31340d18	-1.0286720863664943e-19
187	0xbfd04f52eb660f0e	-0.25484154689932914
188	0xbfcc02886a6c39af	-0.21882729717658608
189	0xbc01ae6396ae0296	-1.198125196964175e-19
190	0xbc04b412b95d34a5	-1.4029176791332926e-19
191	0xbbc41330be410d60	-8.502077331238676e-21
192	0x3c035c0e74931366	1.3118572235615327e-19
193	0xbbf7559e9f3ca78e	-7.906019734665897e-20
194	0xbc03c24a3507b7db	-1.3389181806475564e-19
195	0x3bfd393aeaa4dae4	9.901325651583907e-20
196	0xbbc9b0e68869db30	-1.0880569200021488e-20
197	0xbfcac9f115689c40	-0.2092877726110789
198	0x3c0296411769d836	1.2594994164397009e-19
199	0xbfd05830a4b77927	-0.2553826912461709
200	0x3fbaa4251526b11a	0.1040671517027402
201	0xbfcd8c730364bf50	-0.2308486715860405
202	0x3fe097ce9799baa4	0.5185311280200335
203	0x3c06b2ad912be29a	1.5380736590087755e-19
204	0xbc00d8b6d314fd70	-1.1415659325679023e-19
205	0x3bdc3a78a5226aa8	2.391038772603989e-20
206	0xbfd16d5f998be282	-0.2723006247975165
207	0xbc09bb1f71eae949	-1.743596895722122e-19
208	0xbc070fdebbbcf252	-1.5627413907761869e-19
209	0x3c04e614ea5e8b95	1.4161548348162314e-19
210	0x3fba41a79738df96	0.10256431047389322
211	0x3bd5b4d94ae4f830	1.838607037384444e-20
212	0x3bf293aa0bf222ec	6.294069220948698e-20
213	0xbfd535c7097f9e56	-0.3314073174246678
214	0xbfd28799387f2597	-0.2895262767529742
215	0xbc03200afc2beaa7	-1.2959717675695127e-19
216	0xbfd13905476f50c5	-0.26910526252801176
217	0xbfd34009061fe5fe	-0.3007834014711931
218	0x3c03be12cbfeb6f9	1.3378020965627035e-19
219	0xbc11207e11d72b18	-2.321130981484159e-19
220	0x3c078a0509fca0e0	1.595074129013567e-19
221	0x3fdad39251d68998	0.41916330329891016
222	0x3c145fb257af3f54	2.7611668161398066e-19
223	0xbfcc9bc80256921a	-0.22350406755607893
224	0xbfd1169783675550	-0.2670038970221258
225	0x3c0050c5ddcb4f7c	1.1055825852122685e-19
226	0xbfd189738c54ac79	-0.27401436523604833
227	0x3c072ee7bdbbc589	1.5709563362940025e-19
228	0xbbe3c7a277315588	-3.3508323168087065e-20
229	0x3bfd20411ae37e68	9.868270420648362e-20
230	0x3be20784b67e6664	3.0542938762644206e-20
231	0x3be00ee4c4e82cb4	2.720361208512712e-20
232	0x3fd16824d6930ea2	0.27198143915686945
233	0x3c0617b3789c6910	1.4970516052818788e-19
234	0xbc0310537533c6f7	-1.2918115379274973e-19
235	0x3c011c8187ca013e	1.15951027787583e-19
236	0xbfd5ff843ef034bf	-0.3437204947120555
237	0xbfc6a9b87691a34e	-0.17705446042534806
238	0x3bf0ebe071062154	5.733191108105448e-20
239	0xbfad79f361d79a2f	-0.05757103509295224
240	0xbc1267242dccaeb9	-2.4940574502927567e-19
241	0xbbbda27809553800	-6.275379985536981e-21
242	0xbfca1a635511f3ec	-0.20393029836478094
243	0x3c13e602a7ddee3f	2.696746637742095e-19
244	0x3bf430fce268dee8	6.841098430849741e-20
245	0xbfd10f44599e1378	-0.26655682326991537
246	0xbc042c2880b9de6f	-1.3669412975826315e-19
247	0xbbf72d8c3edd981c	-7.852985171440092e-20
248	0x3c077f64656f9624	1.5922610503149124e-19
249	0x3bb2d556ddf4d600	3.9881184155886805e-21
250	0xbfd3d11f4030b3eb	-0.3096387984140267
251	0xbc082656b3970df6	-1.6364514222512137e-19
252	0xbc0c42035d6135ab	-1.914827335471756e-19
253	0xbc0bb6bc1938eb3a	-1.877960654260544e-19
254	0x3c041cf63e43ae7e	1.362918863417549e-19
255	0xbbb2656ddf43dcc0	-3.895548520508976e-21

bias f8 [120]
0	0xbfddce45d29a5226	-0.4657148892086148
1	0xbfc000d85889f6cc	-0.1250257904356914
2	0xbfd191bba9b9c53c	-0.27451983999988605
3	0xbfda5686d5dad1bd	-0.41153117069486794
4	0xbfb094b3ab9225fa	-0.064769009959626
5	0xbfd13a7794822f15	-0.26919354918276045
6	0xbfdbeb6f53c5f0d2	-0.43624480420090805
7	0xbfd7e339cdf0c1a2	-0.3732437621247532
8	0xbfd68f8fbf2a3c62	-0.3525122992368265
9	0xbfd73f376571444b	-0.36323342234124273
10	0xbfd0930ea46e75e2	-0.25897565896761254
11	0xbfd0ff4cdc925310	-0.26558229007905343
12	0xbfcb3702e58e1930	-0.21261631211036436
13	0xbfd84bc664c73f4a	-0.37962493745452675
14	0xbfd62223b61d23e8	-0.3458337095694888
15	0xbfc613e541c9c26c	-0.17248216354666412
16	0xbfc16817bb38554a	-0.13598915711978982
17	0xbfdd9ae741b329f6	-0.4625795499420343
18	0xbf83c130886d5500	-0.00964582363455202
19	0xbfd3af0489a01166	-0.307557234191583
20	0xbfe1d3f30943899b	-0.5571227246221498
21	0xbfcbac8af355b536	-0.2162030876310525
22	0xbfcd365decba32c5	-0.2282216459174348
23	0xbfd1ce000ab1f54a	-0.27819825214813376
24	0xbfdbc006df06d6c5	-0.4335953882212887
25	0xbfdbc74773f308f1	-0.4340380317991182
26	0xbfebb96d26c0974d	-0.8663850552445439
27	0xbfd4a03d7c4d883b	-0.32228028429938477
28	0xbfbeaffb5496f01d	-0.11987276854682745
29	0xbfe1c57913bff7a1	-0.5553555856456464
30	0xbfdff31437687979	-0.49921136294314966
31	0xbfda400656475d35	-0.4101577608648371
32	0xbfd1e5563c387009	-0.27962261086372614
33	0xbfda5de1936a0474	-0.41198005100165536
34	0xbfcfeaba1c78937b	-0.24935079946694913
35	0xbfdc155a1e96486d	-0.43880322443977243
36	0xbfdca327b0759701	-0.4474581931338975
37	0xbfcba4925971c004	-0.21595982901953914
38	0xbfd3dfd8a0a62660	-0.3105374878728977
39	0xbfcddc15ec214b26	-0.23327898053920498
40	0xbfda1643d6144d5a	-0.4076089468591896
41	0xbfd07e1055c283ea	-0.25769432425482697
42	0xbfd38dd3158f1edb	-0.30553128342988395
43	0xbfad36843b75adee	-0.057056553133261065
44	0xbfe1c22ce0fb4963	-0.5549530405208255
45	0xbfe50736c20c1b9a	-0.6571306028352979
46	0xbfdf96d94a468d77	-0.4935820794437044
47	0xbfd7d3bbaee43293	-0.37229816512334785
48	0xbfcc609c3b9a1b17	-0.22169831190350273
49	0xbfd1d8ccaadba3de	-0.27885739026402045
50	0xbfd913cc47dfde59	-0.39183337229721854
51	0xbfce1383460b9f8e	-0.23497048301873885
52	0xbfdfda73fb9d26ca	-0.4977083165327768
53	0xbfcf172752d0f473	-0.24289409202347975
54	0xbfcf376c12b776b5	-0.24387885011576818
55	0xbfb4a3a20d2d9428	-0.0806218416378931
56	0xbfd48d1327ecfd9b	-0.3211105241680003
57	0xbfd6748e11b65954	-0.35086395005909776
58	0xbfd6eb79c587084c	-0.35812229432861353
59	0xbfd477038fc4e16f	-0.3197640327448629
60	0xbfc647dd304cceef	-0.17406811579132106
61	0xbfc3dd201e9afa29	-0.1551857137146311
62	0xbfc289aef521ed86	-0.14482676476823658
63	0xbfcf7a60b3643532	-0.24592217215869422
64	0xbfd36517daeb85b5	-0.3030452382937157
65	0xbfdcc6b8210002c7	-0.4496288606897391
66	0xbfcbe396dc0979c9	-0.21788297409052707
67	0xbfd75f0572545efa	-0.36517463841435893
68	0xbfc401a509c40224	-0.1563001916583896
69	0xbfdace635385fb79	-0.41884692341402957
70	0xbfd4726ac9f3fd32	-0.31948346826534924
71	0xbfca086863f2c605	-0.20338158493318317
72	0xbfd55a5e5dcfc8b6	-0.3336406627778489
73	0xbfd1e334149e1929	-0.279492397436473
74	0xbfc20f51e8f8226f	-0.1410925281091013
75	0xbfdbc79f443d73b8	-0.4340589682013234
76	0xbfe307d0e3438f69	-0.5947040976284202
77	0xbfd24054042d976b	-0.28517628105179565
78	0xbfd005b6b1c46479	-0.25034873352121384
79	0xbfd8c296675d2b46	-0.3868766793645374
80	0xbfe0662bb4e2a728	-0.5124720127980469
81	0xbfd154694a43c947	-0.2707770562402811
82	0xbfd4ff4a7ec58c20	-0.32808172588392104
83	0xbfd57cd073ba648e	-0.33574305821964223
84	0xbfe3d6b2e9aac68a	-0.6199583591280355
85	0xbfdc8f241f952cd1	-0.4462366398262932
86	0xbfce35a546e31bbb	-0.23601213418279862
87	0xbfdd2bec8a1730fb	-0.45580590711030283
88	0xbfb3d6daddc7f41b	-0.07749717630936497
89	0xbfc444989b29b72a	-0.15834338737789128
90	0xbfd2430776a59667	-0.28534113489727136
91	0xbfcb20ea00b41a81	-0.2119419578013613
92	0xbfcd9fa51a4bdea7	-0.2314344766998506
93	0xbfd3bf18518be27b	-0.3085385128356745
94	0xbfc06a2eb8d3bd8a	-0.12824043297539972
95	0xbfdda0c5aac1babe	-0.46293775248970437
96	0xbfd6e694d6a55326	-0.3578235717916861
97	0xbfd868826dc2ceb8	-0.3813787528881494
98	0xbfdfb9e2eb4d4800	-0.49572060564707954
99	0xbfcdb366fe6711b8	-0.23203742429735796
100	0xbfd214552e0339b3	-0.28249101155679596
101	0xbfdf7f6aaeea76f2	-0.4921519001162401
102	0xbfde9042b95dc61a	-0.47755497076204423
103	0xbfd9a608fd92d2ff	-0.40075897944488753
104	0xbfd62b9c512df0d5	-0.34641178062134986
105	0xbfd2c072e45b40ee	-0.29299614239154337
106	0xbfb44ed8f2f6fff2	-0.07932811671980725
107	0xbfd1d8f0ea45a2fe	-0.27886603239180363
108	0xbfc0aaff77322e71	-0.1302184421550581
109	0xbfd59f69d9741fc3	-0.33785482631401126
110	0xbfd18bcac12ac3c6	-0.27415722717256263
111	0xbfdb7f4c63d256f4	-0.42964467762190783
112	0xbfcc7bfbc0793538	-0.22253367326849527
113	0xbfc42950a744a08e	-0.15751083533655613
114	0xbfda012300227c00	-0.406319379931972
115	0xbfd6d541f6d7c8d1	-0.3567662153792642
116	0xbfe0d1efe9df9aae	-0.5256270950165651
117	0xbfddb5db12599337	-0.46422459403975175
118	0xbfc6599a33b97469	-0.17460944676978166
119	0xbfd9cd19eb7ff1e7	-0.4031433868219935

weight f8 [120, 120]
0	0x3bd6eb8147c6bc78	1.941394552509439e-20
1	0x3c13fce19f1407fa	2.70885442296403e-19
2	0xbbe069d7d8fe3a18	-2.7805465557123895e-20
3	0x3c075679b513d291	1.581430475838943e-19
4	0xbbfc5c29185422a2	-9.60874245176118e-20
5	0x3c0b061b11a5c08a	1.8312073414686245e-19
6	0x3be40b9b8c5a2060	3.395813061210478e-20
7	0xbfcfdddfc67ddefb	-0.24895856086708776
8	0x3c07922f3f22a86c	1.5972353530291564e-19
9	0x3c08d39e957ab12f	1.682318465600764e-19
10	0xbc05736968d2bf84	-1.4535645887622472e-19
11	0xbbfd0df450553c5a	-9.844050617636179e-20
12	0x3be854a6fedeef00	4.121776357464722e-20
13	0xbfcf6d26a355be86	-0.2455185220273856
14	0xbc0e8d5923357b5a	-2.0702936286995288e-19
15	0xbfcdccec7045e878	-0.23281627161106022
16	0xbfcc5ef3a39218f0	-0.22164769636965032
17	0x3bfe385e894b53c7	1.023899949118147e-19
18	0xbbed0c9c423d9688	-4.921135947362982e-20
19	0xbbe9fc538ef0541c	-4.4021403410464443e-20
20	0x3c03292a98da541f	1.29838673381312e-19
21	0x3be84bc38a3ece3c	4.115894442680745e-20
22	0xbc127e3b53fa29f6	-2.5062814201914544e-19
23	0x3c1373463a48b843	2.636005880159073e-19
24	0x3c0385477f2695da	1.322768812533842e-19
25	0x3c0abec955170f44	1.8123292843371555e-19
26	0xbfced083361f14b7	-0.24073829786917653
27	0x3bf6df2ed953f8fd	7.749270181727244e-20
28	0x3bf3f9dc039ab6de	6.768136601305395e-20
29	0xbfd09a8c5e76a899	-0.25943288063957365
30	0x3c03f49a96ab032f	1.352236182865869e-19
31	0xbfcdd32380c726ad	-0.23300594127640775
32	0xbbf85b35a9768fe4	-8.252231216687631e-20
33	0xbbffd106a8fab1e0	-1.0779852174573343e-19
34	0xbc0920ea7023ec14	-1.702778627241465e-19
35	0xbfce15edc567eb67	-0.23504421366655068
36	0xbfd02610c3c7a333	-0.25232333296894466
37	0x3bf2d015b9c0a528	6.374035246786277e-20
38	0xbbd3ebc8400bcae8	-1.687376394654573e-20
39	0xbbfdbabb1578f68a	-1.007271833942051e-19
40	0x3beddecbb214f578	5.060224911732816e-20
41	0x3c11b5cc4f773af5	2.4001727227214045e-19
42	0xbc029164a6d92580	-1.25821269593985e-19
43	0x3bf80c67a8a59ed1	8.147934064719758e-20
44	0xbc046377cb4a4986	-1.3815816616111935e-19
45	0x3c05932f7d176445	1.4619750295027414e-19
46	0xbfd299439400b136	-0.29060449078930917
47	0xbc0c11058aff1ca2	-1.9018593956632661e-19
48	0x3c08f47635dce352	1.6910117476470415e-19
49	0x3c09f6bbe18899c0	1.7593758167198993e-19
50	0xbbf7b612bea07dd6	-8.033675016613911e-20
51	0x3c05048d91fab2af	1.4242205227599077e-19
52	0x3c11f0c2a16766fb	2.431387045027373e-19
53	0xbc0a1d98f8386ec2	-1.769662933244195e-19
54	0xbc022cff872f193c	-1.2316383568949325e-19
55	0xbc11bbeb15ed4630	-2.40341273797562e-19
56	0x3bf783c57b320d68	7.967101125173538e-20
57	0x3bf934ae40f51f0d	8.540051770229934e-20
58	0x3bb2327820326cc0	3.8533954405670554e-21
59	0xbc07c061443333b8	-1.609463170890081e-19
60	0xbfcbf0e5386e2f80	-0.21828904395476556
61	0x3bf4e95e32edb665	7.085123507498213e-20
62	0xbc0f8d78eb9dd160	-2.1380891271683085e-19
63	0x3c05864cd71d5aca	1.45856430705291e-19
64	0xbbfc3191fc127f7a	-9.55237469226115e-20
65	0x3c0dc977a7e063ac	2.0184444157933728e-19
66	0x3becac926c2c8328	4.857583050342873e-20
67	0xbfd0c181fda87b24	-0.26181077739049585
68	0x3bf1af8d853cb834	5.99216625646244e-20
69	0x3c107c4fc7d1a281	2.234214380678302e-19
70	0xbfcf7e1bf7741866	-0.24603604872408197
71	0xbfce74ff18acc4b7	-0.23794544892147027
72	0xbc14a085167d6630	-2.79548394516435e-19
73	0x3beaebefc1d84f00	4.5607010387361814e-20
74	0xbbd3b37390e1f718	-1.6687380971288738e-20
75	0xbc0895b5c1643f76	-1.6659311610508001e-19
76	0xbc00e1bd4eff84ab	-1.143954917079896e-19
77	0xbfd0c5a0e5f20af1	-0.2620622869073222
78	0xbc01abe7d54f123e	-1.197467841334298e-19
79	0xbc0e60958d322d3d	-2.0584446945031515e-19
80	0xbbdc1f7c4bb3aa14	-2.38210994034787e-20
81	0x3bd8fdb7fb1b69f0	2.1168275411238895e-20
82	0xbbfbdb3bf742e1d4	-9.43810993323725e-20
83	0x3bf4b6fba8acb693	7.018439618353436e-20
84	0xbfd17a6314d28e70	-0.27309491189428226
85	0xbc07796c73c74a69	-1.5906811932742138e-19
86	0xbc0042e0ad6dea36	-1.1019045380697258e-19
87	0x3c070d0fc6e7f783	1.5619980073080413e-19
88	0x3bdcae71974449a0	2.4294108357245498e-20
89	0xbc03dc355aea5b56	-1.3457787628704545e-19
90	0xbc135647d89b64be	-2.6206567548641795e-19
91	0xbc0b0e54e363a4e0	-1.8333847075956486e-19
92	0xbc112d4ab8d7a3e4	-2.3279069397311145e-19
93	0x3bf8ad7ce9c6ac4e	8.361125673240759e-20
94	0xbfd132ddc704b1a1	-0.26872963366874997
95	0xbbe0cabb9d8effdc	-2.844662792808e-20
96	0x3c04958172257d1a	1.3948265311209833e-19
97	0x3c0b8f2a05f9e9f9	1.8674864020196605e-19
98	0x3c080b51f8d29c2e	1.6292996915083284e-19
99	0x3c03f1e1f08c72a8	1.3515158647820637e-19
100	0x3bde14e00775e7d0	2.5480058375439637e-20
101	0x3c0758322ad0f78a	1.5818859007192566e-19
102	0x3c1023b034cd726a	2.187297576697137e-19
103	0xbbf3126acb693670	-6.461825315782193e-20
104	0xbfd1ff69d4c99aa5	-0.28121419696837285
105	0x3bf211d6bbf92e02	6.122246683053434e-20
106	0x3bf98ab735aa9c22	8.653918123405543e-20
107	0xbc12ab4b62a4e407	-2.5301374275357717e-19
108	0xbc04e32f29e94e0a	-1.4153878814423025e-19
109	0x3c05caada8d1ae32	1.4766638658448873e-19
110	0xbc11a0e5a3f6101c	-2.3891077966257046e-19
111	0x3c0b2bc8efe6308e	1.8411809353962217e-19
112	0xbfcf5080e5e64b23	-0.24464427209439873
113	0x3c10abed92a34eab	2.2594222802534273e-19
114	0xbbfaa9f1b510e8bd	-9.034061886476506e-20
115	0x3c05c6a60e7293dd	1.4755972133289545e-19
116	0xbbe04b0e02a601a0	-2.760172483861377e-20
117	0xbfceb16455a3e959	-0.2397885721364428
118	0x3c0338a4e0ec1eda	1.30248363688318e-19
119	0xbbf0f14309f0ec3a	-5.740318289268483e-20
120	0xbc04bdcd5d130854	-1.4054929400103434e-19
121	0x3fcb94b42ba402c1	0.21547557955638832
122	0xbbe56b4c0f882870	-3.62854165112986e-20
123	0xbbeef02403c358e0	-5.2411094569522415e-20
124	0xbfd20579ec8a77d1	-0.28158424472519267
125	0xbc0ff01080de9636	-2.1641862443466712e-19
126	0x3c025b280bd9a2dc	1.2438563503767038e-19
127	0x3bda5e1a77a0c1b0	2.23342186207239e-20
128	0xbfab7b7575dc1412	-0.05367629111973583
129	0x3c0148a60cd627ee	1.1711947414025745e-19
130	0x3fc98a8e4c8ab8b1	0.1995408891429569
131	0xbc0885c6d61f0b75	-1.6617136576290369e-19
132	0x3c04a5de8d8acaaa	1.3991579662538748e-19
133	0x3fc70aee8630d4fc	0.18002111007960042
134	0xbc10ae99e9792305	-2.26083746055063e-19
135	0x3f67005faba9c4ce	0.0028077953878030476
136	0xbfe15030997759f7	-0.5410387990366975
137	0xbbdc99fc460d1cb0	-2.4226417618347543e-20
138	0x3fcd708e93fbbc58	0.22999746537923005
139	0xbfcd9b8ad4d322b2	-0.2313092745955792
140	0x3fcf6b77fe57c58a	0.2454671852024542
141	0x3c11be0bd5fd3f91	2.4045392550763954e-19
142	0xbc0bdbab663544a2	-1.8877372060680796e-19
143	0x3bfc6e42eec59f4c	9.632698831021545e-20
144	0x3c03cbea807a26c4	1.3414662016622455e-19
145	0xbfd1046e106a640b	-0.2658953819569098
146	0x3fb229f53d0f83fa	0.07095272770631303
147	0xbc0c176f7c638575	-1.9035571248701958e-19
148	0xbfd4af35fe1d09dd	-0.3231940251900179
149	0xbbfc1dd2df59dddc	-9.526240374762964e-20
150	0xbfd2a91039db91d3	-0.291568809987692
151	0xbf9156ab9e91141a	-0.01693218379320536
152	0x3fd1ef043e371909	0.28021341396051064
153	0x3f97bfd2fb30eeb1	0.02319268854283391
154	0xbfccd7d80ad3b696	-0.22533703354513496
155	0xbbe74ae5ab6f1bb0	-3.9459143317999724e-20
156	0x3fcf6dd85e4232dc	0.24553970911474365
157	0x3c051649550c9cc5	1.4289145266417476e-19
158	0x3fcee1651cac5689	0.24125350856836672
159	0x3fd0e9403addb83e	0.2642365050186334
160	0xbfd347cab2f9467d	-0.3012568233290052
161	0xbfc47ad53fe5bbfa	-0.15999856586446964
162	0xbfd1304ac4d713b6	-0.2685725137965237
163	0xbfb368a2cd213888	-0.07581536777544973
164	0x3c010ce0505fd9df	1.1553731170192568e-19
165	0xbbdd832a37235c78	-2.499794373239364e-20
166	0x3fce02289c4770e5	0.23444087630094326
167	0x3c06d19b79e4fee7	1.5462605851068205e-19
168	0x3c1143f2c88f3466	2.339901185574442e-19
169	0x3bf2ed61f58d2f7a	6.412810545630597e-20
170	0xbc074fb66c634978	-1.5796403701976076e-19
171	0x3fcdc2ecf63464de	0.23251115819656482
172	0xbfcd3fa3b0626df3	-0.22850462067150054
173	0x3be985d8f998cba0	4.3237376206448105e-20
174	0xbfd1ffdcfcf67c14	-0.2812416525211472
175	0x3fcd92ad471feaed	0.2310387227333516
176	0x3fca4ff63ed1511c	0.2055652434088494
177	0xbc0659e02335baf7	-1.514567843796183e-19
178	0x3bf9cf75a4e0b07c	8.744899896921988e-20
179	0xbc06f4a6a8caa347	-1.5555365711164708e-19
180	0xbfd02fafe1a33875	-0.2529105857364649
181	0xbfcf9ca5b7477a41	-0.24696799706630837
182	0xbfd153dca1eafebe	-0.270743520853994
183	0xbbc9c8463db1bb30	-1.0919238007479592e-20
184	0xbc10f942bea2603f	-2.3003618721199897e-19
185	0xbfd2304b44167744	-0.2841976323050981
186	0x3c05fc3e3d2aef50	1.4897835495354034e-19
187	0xbfdab04584bb38ef	-0.41700876199764897
188	0xbfd3dcd095b88595	-0.31035246487780316
189	0x3fd0f5d1c15e99e5	0.2650036228536961
190	0xbfd19a8ca8dbab9e	-0.27505794992492294
191	0xbbf7094f532de1b2	-7.805024615778848e-20
192	0x3fcf2e6ba87db6ba	0.24360414244750023
193	0x3fd04e2cc8e5dbe9	0.25477141970571765
194	0xbfcd7671b2b9a893	-0.2301771280938892
195	0x3fcb41e589d80755	0.2129485056939823
196	0x3c01f0bd14f55d12	1.2156877853801477e-19
197	0xbfc9fe81ff8e6b5e	-0.2030794618447897
198	0xbfd09518a183c6de	-0.25910011074948425
199	0xbfd52d96faf4f503	-0.33090757853990754
200	0x3fcf09a59f164146	0.24248190181652712
201	0xbc0d89d91653558c	-2.0016044985975302e-19
202	0x3c0ec156b6a995d8	2.0840554077251759e-19
203	0x3c06dac52ba85808	1.5486859762567239e-19
204	0x3c062392c8251192	1.5001941788683603e-19
205	0xbc042e8c8ba13d41	-1.367574134791294e-19
206	0xbc0faf292ced2274	-2.1470063979559365e-19
207	0xbfe46842f312997a	-0.637727236510542
208	0xbfcfe11b4b652f3a	-0.2490572088375929
209	0xbc0659c15cba587f	-1.5145360228609146e-19
210	0xbfd26f53ae10c065	-0.28804485319688516
211	0x3fcb0388afb92764	0.2110453470252721
212	0x3bff65aff62460c2	1.0637790632537025e-19
213	0xbbfae6af2ed51ac4	-9.114450791432805e-20
214	0x3fcfe6784055cc2f	0.2492208780418834
215	0xbbfec5f0e865355a	-1.0426368160233772e-19
216	0xbfd0f140b47ccc37	-0.26472489953738737
217	0xbfd52cdbd2612e23	-0.3308629564751035
218	0x3fd0516220ae9c8c	0.2549672431145573
219	0xbfcd668db4e9ff5b	-0.22969218572324732
220	0x3c0465760a3a03c8	1.382109243449936e-19
221	0xbbfa472834111f04	-8.903318215666144e-20
222	0x3bf03e749bb76f80	5.503670029807469e-20
223	0xbfd0c51cc978826b	-0.26203078913571315
224	0x3fb0e8f6a2cf5f07	0.06605473971228203
225	0x3fcc91be5729d776	0.22319773918178115
226	0xbfd0546770e26cb6	-0.2551516153705039
227	0xbc11e859a2830ae4	-2.4269347543304155e-19
228	0x3fced2f82dffc9c0	0.24081327673009234
229	0xbfd1248f59dac0c1	-0.26785644316533924
230	0xbfd2c751a486aa8f	-0.2934154612254724
231	0x3fd0b33dac1e2596	0.2609399967992315
232	0xbfd60a48e1fa9bf3	-0.3443777281594855
233	0x3fcdc98ea25461ab	0.23271353651285884
234	0xbfce3d43bcf0b6b8	-0.23624464727020267
235	0x3bf6328b34931170	7.520784059732506e-20
236	0xbc0a119c3f5c3279	-1.7664899489502693e-19
237	0x3c01cb252c3c7384	1.2057368966289607e-19
238	0xbfc1c60214a78bc2	-0.13885522850531912
239	0x3c0e5d58ac222014	2.0575876535481497e-19
240	0xbfd0144762402e54	-0.25123772234721753
241	0xbfd04216667d8791	-0.2540336609728167
242	0xbc0693eff624d12a	-1.5299366775570212e-19
243	0xbfcf678f4206c55e	-0.24534788822124204
244	0x3c0788b7b9fa7c10	1.5947294919323418e-19
245	0x3fd282d2348ee49b	0.2892346871627269
246	0xbfcdbdc53d607e99	-0.23235383507652754
247	0x3fcc6a67130fff17	0.22199715071473555
248	0xbfd68903a2dd5296	-0.3521126833414113
249	0xbfc274c6548fb370	-0.14418868187876965
250	0xbfd330e336808993	-0.2998588592764914
251	0xbfd287ccda6c4f63	-0.28953858690623785
252	0x3c0a0f4a3baa5935	1.7658757524225875e-19
253	0xbfce87c799688043	-0.23851866713175882
254	0x3fc99025cdd73275	0.19971153784571852
255	0x3c019231410e6061	1.190661614056575e-19

bias f8 [120]
0	0xbfcd49c28e46cec9	-0.2288134760579992
1	0xbfc2ccaaa6c29878	-0.14687092917046463
2	0xbfe2b8f5ef3d90aa	-0.5850782082238954
3	0xbfe89fb3ec200124	-0.7694949733559366
4	0xbfcfe820fc4dd713	-0.2492715103105004
5	0xbfeb8687204c3c8f	-0.8601718550506962
6	0xbfd4dafb674b6104	-0.32586560332630676
7	0xbfd144040b9bba4f	-0.26977635511039905
8	0xbfe54555d01a4db5	-0.6647137703425218
9	0xbfa3c8bd39dc4f15	-0.038640893281039514
10	0xbfda098c7cc5ffda	-0.40683281121164117
11	0xbfd29be8e836395c	-0.29076597859320485
12	0xbfd38c0f24678dd2	-0.3054235320580264
13	0xbfd576fd83f75bf5	-0.3353875912411575
14	0xbfe13c295863b173	-0.5385939337116227
15	0xbfd6f7133a4279bc	-0.3588302678052988
16	0xbfcdc8d95faa43d1	-0.23269192858836488
17	0xbfdefccf89fccf87	-0.48418034053178655
18	0xbfc37db0759f75fc	-0.1522732328730142
19	0xbfd193c1e823e389	-0.27464339895191664
20	0xbfe092fe729148a9	-0.5179435956618096
21	0xbfd2dad7c46f00d4	-0.2946071070000589
22	0xbfdfe703cf4fda00	-0.49847502942375854
23	0xbfc4bc5a9160f9e3	-0.16199810122084476
24	0xbfdee8fa1053e029	-0.48296977610107433
25	0xbfcfe949902ba27b	-0.24930686511585862
26	0xbfb34a21eb3a41a8	-0.0753499221120878
27	0xbfe2582795c39fab	-0.5732610631066469
28	0xbfe0e536a80e296b	-0.5279801637964686
29	0xbfc33e1280032384	-0.150331795221316
30	0xbf9e814019066856	-0.029789926078230465
31	0xbfcea387d6860f95	-0.23936555838383514
32	0xbfcc6b03281cc469	-0.22201575716602243
33	0xbfcce9305560bb55	-0.22586635750618692
34	0xbfce1b1d6e805526	-0.23520248313494924
35	0xbfe3bc61cd1af2e7	-0.6167458539926799
36	0xbfdb25bdf7db9ede	-0.4241785927283511
37	0xbfd27f51ef9d14f5	-0.28902099990621305
38	0xbfcbce2dee7db93b	-0.21722959656785598
39	0xbfa3ce99d8cbc922	-0.03868561526714333
40	0xbfc10887e25550df	-0.133072839273729
41	0xbfdd6a393ebe1fcb	-0.4596083748551762
42	0xbfd238c2755511b5	-0.28471433122856676
43	0xbfd5be71a787e292	-0.33974877701215533
44	0xbfe1b9ba35da432b	-0.5539217998321865
45	0xbfde60a73967a74a	-0.47464924436518585
46	0x3fdd6d0137e66982	0.4597781225108052
47	0xbfdd29fc3a358634	-0.45568757709961294
48	0xbfd112b2df3c7730	-0.2667662792244867
49	0xbfd7364a643ac8e8	-0.3626886347584688
50	0xbfb5bf1c2ebcdb12	-0.08494735852296412
51	0xbfcf61c81761a6d8	-0.24517155782387223
52	0xbfe378f608c941f9	-0.6085157558064217
53	0xbfd1ca04d408a4c6	-0.2779552527086476
54	0xbfd1be31d608a510	-0.27723356153235645
55	0xbfdadbc2a127fd4c	-0.41966310251151095
56	0xbfcd97e5573c177d	-0.23119799384602038
57	0xbfca37cc759b9f28	-0.2048278402573882
58	0xbfca34469942b755	-0.20472033008030147
59	0xbfd353be3f9f7e74	-0.30198627675233713
60	0xbfd03da1b2b06b57	-0.2537616963397133
61	0xbfd32d9bf4d1eb45	-0.2996587649173999
62	0xbfcdc8d861c8b4e7	-0.2326918103657711
63	0xbfca4c2958862036	-0.20544926474053832
64	0xbfd4d6716ff013a0	-0.32558856898713806
65	0xbfd6fd59856dcc80	-0.3592132380501383
66	0xbfd5c85098bc7a9d	-0.3403512469830419
67	0xbfcd87989debdc6b	-0.2307005663967375
68	0xbfd1e0b09c84af35	-0.27933898243894656
69	0xbfe3a0a28cda718b	-0.6133587599793356
70	0xbfcdeb380f1cd16e	-0.23374081361692894
71	0xbfd99704094fff80	-0.3998422709410008
72	0xbfe361b87239bf67	-0.605678771111326
73	0xbfb656968c29a819	-0.0872587291902679
74	0xbfd2badb54eae806	-0.2926548318170038
75	0xbfcf1295d4f5033b	-0.24275467775626133
76	0xbfcff2b305a2f2ce	-0.24959409499378754
77	0xbfe62a6e8ce2e3e9	-0.6926796676335673
78	0xbfe0e7da733b3c30	-0.5283024073231726
79	0x3fdc5a3540859238	0.44300586033776623
80	0xbfd5a4ef63158549	-0.3381918399446318
81	0xbfcba9eaafc4ccf7	-0.21612294752558345
82	0xbfcd924d4a0901da	-0.23102727999686473
83	0xbfc39c3988afd19d	-0.153205100766752
84	0xbfd04e70092a384a	-0.25478745360385757
85	0xbfe00709239714d3	-0.5008588500137655
86	0xbfd2e3a29070b4db	-0.29514373879903893
87	0xbfda17437e2e0a67	-0.40766990015268906
88	0xbfddbb4380e002b0	-0.4645546682877848
89	0xbfd1239dc06b6db7	-0.26779884139042615
90	0xbfce6ffcafb43396	-0.2377925737313517
91	0xbfd0205485d9c7d6	-0.2519732768188282
92	0xbfcff9ec9aae82af	-0.24981458237472995
93	0xbfe497bf1d65201b	-0.6435237478372103
94	0xbfc99fd10762708e	-0.20018971310208084
95	0xbfe547d16166a106	-0.6650168325768682
96	0xbfda4e3b18bbf632	-0.41102483191920947
97	0xbfd5846cb71230f6	-0.3362075603297535
98	0xbfe16475cc7d1c48	-0.5435132020874187
99	0xbfd6747e975e6bf4	-0.3508602598391797
100	0xbfcc16e1c2b339a1	-0.21944829947319724
101	0xbfd9aca672a556d8	-0.401162731131405
102	0xbfd07cca391bc8a5	-0.257616573114442
103	0xbfd5ed4b19adf939	-0.342608237340659
104	0xbfcf68cd1eadea29	-0.2453857803155455
105	0xbfe45899dfad43c6	-0.6358155602157403
106	0xbfe1b34673553e34	-0.5531341793629907
107	0xbfd167c91a63d244	-0.2719595678056843
108	0xbfcca17ed395d198	-0.2236784489756587
109	0xbfd557a44a9bd529	-0.3334742287255091
110	0xbfcd655ce49b444f	-0.2296558490984659
111	0xbfd279642e48b5eb	-0.2886591388695183
112	0xbfd33579a463db9e	-0.3001388650295044
113	0xbfe15b914df139df	-0.5424276850042665
114	0xbfe4f3c5be8433c2	-0.6547573777221418
115	0xbfd44da61b824210	-0.3172393101349664
116	0xbfd05b75df03cd1a	-0.2555823018912676
117	0xbfd3e54630d567a7	-0.31086878556163317
118	0xbfd5ca962a32425f	-0.3404899036477555
119	0xbfd540d63ff5ab3c	-0.33208233114298813
