pyTorch/noisey_features/models/dropout/ow_0.0_1024_NF_model_2.pth (torch, 470675 bytes, 10 tensors)

weight f8 [120, 60]
000000 14 1a f1 77 b2 da 06 3c 0a 2a db 21 5b cc 0c bc
       1.54866663882665e-19 -1.9514463807755125e-19
000010 40 89 84 63 b2 f0 ce bf 13 43 56 92 af 85 17 3c
       -0.2417204843450893 3.1878539332548877e-19
000020 5f e6 2d bb 09 e6 f0 bb 58 28 a6 0a d1 39 13 bc
       -5.72546363681228e-20 -2.6055879962914323e-19
000030 54 74 f0 a1 db c7 cb bf f4 f8 0a 2d d4 0b d1 bf
       -0.2170366802901379 -0.266346973406953
000040 6d 60 ca 34 0f 57 d0 bf ba 75 07 60 15 6f 0c 3c
       -0.2553136840374524 1.926757358557204e-19
000050 18 1b 97 e0 eb ba ce bf 8e 23 51 42 14 ed d3 bf
       -0.2400793882972827 -0.3113451621653035
000060 6e a2 9b cf 3a 12 ce bf 80 38 14 67 16 e3 d2 bf
       -0.2349313272200279 -0.2951103216772779
000070 47 7d 89 fc 0f b9 bf bf b5 8a 13 d3 fb 20 cf bf
       -0.12391757884460218 -0.24319408232175524
000080 92 17 4d 88 99 3b d0 bf 96 40 95 71 7b 00 0b bc
       -0.253637679201682 -1.82971880384662e-19
000090 cf e0 63 4e 53 70 d4 3f 83 26 88 14 65 3a 01 bc
       0.3193557992485809 -1.1674217949145993e-19
0000a0 bf e8 0c 9a 1a 5f d3 bf 20 27 5c e2 d9 46 f8 bb
       -0.3026796821974464 -8.225286957256227e-20
0000b0 e1 0a 07 e3 2c ea cc bf 4c 70 8f 0d 73 cf d1 bf
       -0.22589646420791268 -0.27828670810936695
0000c0 03 c2 c0 45 0f 3a c8 bf db 76 b4 ef 28 8f cf bf
       -0.1892718401518466 -0.2465563936647673
0000d0 13 fd 5f 2e aa 90 c3 bf 3e 3d 13 90 28 c1 d2 bf
       -0.15285231842424504 -0.2930394560798567
0000e0 e0 80 54 25 da 51 c5 bf e2 d2 2b 35 10 7d cb bf
       -0.16656042883642552 -0.214754129374021
0000f0 d3 80 48 28 96 27 d1 bf e9 e4 88 66 86 25 06 bc
       -0.2680411713972834 -1.5007107725073276e-19
000100 2f 64 4a 37 7e e6 d4 bf 80 44 f1 c9 99 9f ca bf
       -0.3265681781718425 -0.2079956279799582
000110 02 45 6b 25 2a e7 d1 bf 50 91 19 fd 8f ec fa bb
       -0.2797341695232519 -9.122230454728457e-20
000120 e7 b5 d9 55 10 b8 ca bf 26 7b 46 4b 72 31 d0 bf
       -0.20874218170085543 -0.25301797247986924
000130 22 13 c2 fb 18 62 d1 bf 2b 6b 21 56 85 3c ce bf
       -0.27161240182640445 -0.2362219496306691
000140 0d 27 43 b6 ad 75 d2 bf a7 94 72 a6 c8 2a d7 bf
       -0.2884325294404427 -0.36198631529470976
000150 e8 d9 94 07 13 76 c7 bf 6b 43 ed bb 5f 6a 08 3c
       -0.18329084272563922 1.6544602118341368e-19
000160 0b c9 68 65 1c eb cd bf e0 6c 80 0d d7 32 cd 3b
       -0.23373751594187583 1.2366085542207654e-20
000170 d7 be eb f0 d2 0e 9b bf 27 e7 5b fe f6 44 d6 bf
       -0.02642373652901039 -0.3479592784857339
000180 82 5e 7c 97 2d 1e cc bf 50 7e 4a 89 bb de b3 bf
       -0.21967096230286037 -0.07761737920599754
000190 3f d1 95 c5 23 bd c4 bf db 0a 48 eb aa e8 d3 bf
       -0.16202208659854908 -0.31107590653134104
0001a0 85 65 66 3d dd 6a c9 bf 65 42 4f c8 4f 1f bf bf
       -0.1985737371258375 -0.12157152786608945
0001b0 6f 7b d9 f4 3b dc c3 bf 15 91 54 66 1a 1f d2 bf
       -0.15515851455253535 -0.2831483840293612
0001c0 ad 26 89 cd 1c 6c cb bf 19 70 f3 cb b9 a0 c5 bf
       -0.21423683200764768 -0.16896746119061914
0001d0 0a cd 6f 5a d9 06 d8 bf 8d 1c 43 6f de d5 ca bf
       -0.3754180319949262 -0.20965176041338332
0001e0 9c 38 b7 11 1e 57 ce bf 7c 59 f0 f1 1e cb 13 3c
       -0.2370336138250807 2.6825114577484947e-19
0001f0 a2 d0 7f 56 c8 4b d1 bf e8 56 f5 8c 22 9a 0b 3c
       -0.2702504009932999 1.8703903511582067e-19
000200 a1 6d 6d 47 3e 99 ef 3b 2f 16 9e c1 09 f3 d3 bf
       5.3530121674298084e-20 -0.3117088690563347
000210 58 71 b9 80 4c fd cf bf c6 67 6a 14 a3 d5 d3 3f
       -0.24991756711359403 0.3099143695231955
000220 4b 71 67 02 af 09 d1 bf 50 5a 29 5b 89 96 d4 3b
       -0.26621604189655973 1.743874259859788e-20
000230 10 9b 2f 2f 76 a6 d2 3f ed 9f 5b 96 af 91 c1 bf
       0.29141001327518357 -0.13725848046965386
000240 5f 1d 9a 3a e7 a1 d4 bf 83 9c 4f 1a 9c 83 c8 bf
       -0.3223817894253979 -0.19151641163555064
000250 af b9 12 e3 69 42 d2 bf 7b 36 20 bf 58 57 d0 3f
       -0.28530356574165244 0.2553312174285122
000260 2d fe 6b ba 3a a0 9d 3f 1c eb 06 10 8e 2f ca bf
       0.02893153918102891 -0.2045762613541563
000270 f6 15 40 67 cb 69 d2 bf fb ae f6 73 ac 79 15 3c
       -0.28770718653717553 2.9104441938205147e-19
000280 92 20 2f 9d dc a7 c4 bf 20 41 84 35 25 17 bc bb
       -0.1613727347851222 -5.948376013791423e-21
000290 33 34 03 0a ad dd ce bf be 71 fd 4c bd fb c2 bf
       -0.24114001263515802 -0.14830747851637044
0002a0 f8 57 9a 3c 4e 97 d9 bf a6 f9 1c 8b d7 cc d1 bf
       -0.39985996168377325 -0.27812756142875583
0002b0 ac 91 91 61 98 5b cb bf bf f4 d3 da 62 c2 cf bf
       -0.2137327648553201 -0.2481196945663324
0002c0 dd 80 9f eb 1a 42 d6 bf b3 95 9d 56 8b f9 d1 bf
       -0.34778473863663156 -0.28085597475577656
0002d0 fc 1b e0 9b 62 d0 cf bf 8f 2f 3a b1 94 d6 d3 bf
       -0.24854691134552798 -0.30997197444298136
0002e0 c3 8b 71 c5 43 54 cc bf f0 76 f9 a2 4d e8 d1 bf
       -0.22132155552671237 -0.27980366626239483
0002f0 a2 ae f9 3d 11 6a dc bf f6 c4 94 75 c8 0f 06 bc
       -0.4439738373973602 -1.494955724167365e-19
000300 7e 8d fa 94 4e 32 ce 3f d1 18 79 55 d3 47 c9 bf
       0.2359102466044582 -0.19750444100845369
000310 3a 0c 50 7d 01 57 d2 bf 28 17 dd 07 93 1c c8 bf
       -0.286560413718863 -0.18837201961485417
000320 a7 f3 36 30 49 fb cb bf c9 d6 85 0a 94 94 c5 bf
       -0.21860613683921068 -0.16859674943741812
000330 c3 d4 2c df 06 11 bd 3f 97 25 d3 db 20 e6 d5 bf
       0.11354105900393834 -0.3421709200598228
000340 d3 2d 82 16 4c 4a ca bf 16 cb 2a 13 d6 7c da bf
       -0.2053923711685984 -0.4138693988017378
000350 16 15 ee b3 a3 73 d8 bf e0 32 78 38 41 f3 d3 bf
       -0.382058072770023 -0.3117220927677362
000360 5b 7f d0 e8 1f 02 ce bf c0 d0 ad b8 bd 96 d1 bf
       -0.23443983905689944 -0.2748255065446408
000370 fe ca de ae 65 a2 d0 bf a6 ba 83 8d 6c 4b cf bf
       -0.25991193844963323 -0.24448925886050182
000380 39 d9 c7 eb 03 8e d3 bf fe cb bc 39 d6 80 d4 bf
       -0.30554292703108704 -0.3203635753481534
000390 90 c9 4d 1f c6 2e c6 bf fa 9f e5 6e 1c ac ce bf
       -0.17330242661007533 -0.2396274129380343
0003a0 16 78 64 c9 87 9c d1 bf 39 9f 4c 0f aa 75 d2 bf
       -0.2751788584445206 -0.28843165868828496
0003b0 40 f9 14 c7 c4 af c2 bf 0d 19 4a 8e 8d ce d4 bf
       -0.14598903389737394 -0.32510699172452534
0003c0 aa 3d 17 9b 24 e7 09 3c 94 af 90 d5 b6 b6 ea bb
       1.755248934922776e-19 -4.525481438340695e-20
0003d0 b8 16 d6 2d 98 8f d7 bf 69 de ba e8 8f d1 03 bc
       -0.3681393096561396 -1.3429607177173842e-19
0003e0 b6 48 e7 61 28 cf 09 3c a7 9c e6 37 10 51 0e 3c
       1.7489000927436394e-19 2.0543363642815919e-19
0003f0 d2 d9 0e bb fa b2 01 bc 0a 5b 3b 3f 38 d7 03 bc
       -1.199340265419582e-19 -1.3444582640045037e-19
000400 ee 15 60 7a 44 b9 0f 3c 75 68 57 1a 68 7b 14 bc
       2.1496816060759114e-19 -2.775836368777638e-19
000410 2c 74 4c 9d 98 48 03 3c d9 51 de b3 bb 76 13 3c
       1.3067061207803216e-19 2.6378369994151044e-19
000420 0e b0 70 3c a9 05 fb bb ca bf 6b c3 1c 84 17 bc
       -9.155448205348721e-20 -3.187020945284604e-19
000430 c9 dd f4 50 17 33 d4 bf 18 9e e7 ef 4b 26 e3 bb
       -0.3156183519926939 -3.2440677830630034e-20
000440 03 f8 84 ce 5c 3a d5 bf 88 37 59 e5 50 d0 e2 bb
       -0.3316871659079654 -3.1871705750255156e-20
000450 9f 5c 61 65 39 fa d0 bf ba 5f 8c 57 8f df 06 3c
       -0.265272473339289 1.5499538078187583e-19
000460 6c 6f 78 d7 06 6e f7 bb a8 bc d5 ec ef 8d ee bb
       -7.938322273212954e-20 -5.1761238485632423e-20
000470 c9 88 47 c5 e6 e1 00 bc 20 c2 5a 8f 72 a2 ee 3b
       -1.1439977878207074e-19 5.189696421516681e-20
000480 fe d0 32 2f d3 2d d7 bf ed b2 d1 92 72 88 05 bc
       -0.36217193230847033 -1.4591327178805907e-19
000490 31 b9 5a f4 5c 8b d4 bf cf d4 92 95 ef 38 12 3c
       -0.32100604880078537 2.469596489907879e-19
0004a0 36 80 dc 5f 1c 5b ca bf 1f 99 6f bf 9a 50 07 3c
       -0.20590548210839338 1.579876452100751e-19
0004b0 4b 4c f0 ae d4 72 17 bc 68 5d 8a 8b 2f f4 e6 3b
       -3.1778721622556223e-19 3.8885335246405955e-20
0004c0 bc 6e f5 01 5e f5 11 bc ce 4b 99 23 8c 4c cd bf
       -2.433825939846383e-19 -0.22889854181502617
0004d0 b8 41 c5 26 88 0a d2 bb 18 7b c5 a0 45 3c 0f 3c
       -1.528143999129295e-20 2.1165955706300674e-19
0004e0 4b b8 87 d2 f6 b6 d2 bf 50 1f ba 44 4f 83 05 3c
       -0.29241724547944575 1.4577727243372422e-19
0004f0 d0 a8 71 6b a5 b4 19 3c 9d b4 09 42 e8 7d 05 bc
       3.483765075511564e-19 -1.4563427249919893e-19
000500 d8 72 98 73 2b 86 d3 bf 36 c4 76 76 0f bc c7 bf
       -0.30506407059310225 -0.18542664799091008
000510 78 69 b5 e4 48 3f ca bf 80 3e 30 9a f1 0a b8 3b
       -0.20505629699148264 5.091250148781759e-21
000520 12 f1 c5 25 f2 5c c7 bf 1c ac bd 09 67 f4 07 bc
       -0.18252398342509274 -1.623233424023131e-19
000530 2e 3c 2a a0 92 c4 c3 bf 47 0b 36 b0 a8 fa d4 bf
       -0.15443642445140554 -0.3277990074931733
000540 a5 45 37 31 b5 2b 1b bc c3 ee 08 9e 8c 1f d1 bf
       -3.682321039386143e-19 -0.26755061562628785
000550 d8 f9 6c 38 98 36 d7 bf b8 fd 33 a4 0a 84 00 3c
       -0.3627071906120398 1.119153284528401e-19
000560 fe 48 bf 22 5e 72 cf bf 2e 5b 0e ce 4a 77 c5 bf
       -0.24567772575989716 -0.16770300923664067
000570 ba 63 95 57 2a 31 d1 bf 20 c6 eb 13 c5 4d cf bf
       -0.2686258178051123 -0.24456084702210124
000580 51 08 76 d7 cc 50 d4 bf ae 30 d7 e6 ef fd cb bf
       -0.31743165055388994 -0.21868704577935233
000590 27 8d 4f 78 d8 0a ce bf 27 c3 fa 3e 83 67 d5 bf
       -0.23470598101185056 -0.3344429125818799
0005a0 a4 13 49 ca 98 be 0c bc c4 1d 2d b0 5f c2 0a 3c
       -1.947804364433692e-19 1.8132788419841255e-19
0005b0 8e 2c e5 1a 67 9c 15 bc e8 5c ab 67 01 51 f8 3b
       -2.928829631397261e-19 8.23872616449357e-20
0005c0 b8 7c a0 2f 9c 41 e6 3b c4 15 3b 3b 8a 81 02 bc
       3.7703620912291223e-20 -1.2540163876193464e-19
0005d0 00 dd 72 0c b1 6a a7 bb 8f 10 4c 79 26 03 12 bc
       -2.4793463333063683e-21 -2.4411226368570735e-19
0005e0 9f 77 6d 06 02 40 09 bc af 1b 83 d1 b3 ae 16 3c
       -1.711008647366114e-19 3.074042663098758e-19
0005f0 89 f3 65 3f 33 4c 06 3c ae 0e b9 fa 01 fe f5 bb
       1.51094800849239e-19 -7.451253191064745e-20
000600 5c 2c 11 55 18 ce f9 3b 4a e5 54 9e 65 da d0 bf
       8.743093997448427e-20 -0.26332989179680466
000610 c9 48 d8 5d 2d 72 00 bc 6f 5e a4 cb d3 9b 08 bc
       -1.1144246291772685e-19 -1.6675504085012018e-19
000620 b1 c3 b5 e5 71 ba d1 bf 18 f9 46 4f e5 70 f2 3b
       -0.27700469429606317 6.24805348924326e-20
000630 fb b2 67 80 b9 01 03 3c b6 1a fb 63 c5 aa 07 bc
       1.2879465817631732e-19 -1.603743345316182e-19
000640 a0 a2 8b 76 cb 46 c1 3b d8 99 d9 23 70 62 e1 3b
       7.316900186679575e-21 2.945052855895702e-20
000650 14 fb 30 0e 6d 0f 05 bc aa af d5 43 af b7 d0 bf
       -1.4270985790042695e-19 -0.2612112200210911
000660 d8 eb f5 f1 ed bc 01 3c aa d8 42 b7 02 4d 02 bc
       1.201974023444709e-19 -1.2401119824767936e-19
000670 76 cf a7 d3 62 49 cd bf 38 4d fc 93 de 92 12 bc
       -0.22880206427327793 -2.517206925187086e-19
000680 6c b0 fa c3 da ff ce bf 40 44 46 c5 17 6f d2 bb
       -0.242183061306949 -1.5614168470399523e-20
000690 1e 7c 8b 9d 5e d7 cd bf a4 c1 ff e6 a4 18 f6 bb
       -0.2331350583326363 -7.486506196476379e-20
0006a0 97 cc e5 a7 62 ec cc bf 3d fb 39 65 ca 02 02 3c
       -0.22596390913131323 1.2204661115934326e-19
0006b0 d9 33 fc 19 56 94 01 bc 30 6a 4a 3b 30 85 f9 3b
       -1.1912291089454595e-19 8.646602858443857e-20
0006c0 fe a1 36 6c a3 2f 03 3c 7d fa 0c ef a4 16 cc bf
       1.3000998513596212e-19 -0.2194410483588917
0006d0 6a 39 a1 08 cf 16 d0 bf 9e 9d b7 d9 b6 d4 cc bf
       -0.2513921341204851 -0.2252415240356926
0006e0 8d 5a 06 e6 c4 67 cf bf b6 f5 5e 0c 68 7e ce bf
       -0.24535428268128037 -0.23823261837052961
0006f0 23 d2 e9 20 db d7 cd bf 7e 3d ed e6 4f ab fd 3b
       -0.23314990145776546 1.0052311887699803e-19
000700 84 67 36 59 e4 a7 ce bf f0 8d 5b 61 a2 8c da 3b
       -0.2394986568077081 2.248817648787146e-20
000710 00 7c 8a e2 34 1b 8c 3b 25 a9 7f de dd 5a cc bf
       7.439669234662249e-22 -0.22152303089326
000720 52 f9 94 32 3d d2 cd bf d5 72 93 c9 0f 2f d1 bf
       -0.23297848672695892 -0.26849741635468877
000730 ce 3e 43 6a 8b e2 d0 bf 28 39 98 b6 0e 3d d0 bf
       -0.2638271844598251 -0.253726652445851
000740 4a a0 80 24 dc 04 0d bc 75 ba 66 42 e7 ed d0 bf
       -1.9664028509147013e-19 -0.26452046856403594
000750 a2 48 7d c7 26 f4 18 bc 00 5f 2e b8 f0 9d d1 bf
       -3.381859235533442e-19 -0.27526491152228516
000760 26 9c 82 30 47 fa ff bb 76 66 29 59 6c 8d fd bb
       -1.0834448832026945e-19 -1.001275428186191e-19
000770 08 5f 8a 6f a2 3d d1 bf 69 e5 c5 ac 5f 82 0c bc
       -0.2693868722212618 -1.9318634408542974e-19
000780 26 71 f7 11 1a 9c 10 bc 48 9a ee 3d fe cd e4 bb
       -2.251043969200918e-19 -3.524446609440922e-20
000790 e3 df 84 83 a5 82 ca bf cc 4b 22 9b d6 c1 f1 3b
       -0.20711201593235193 6.016366901460463e-20
0007a0 ff 85 e4 dd f1 4a 16 bc 97 4d 50 4b db 12 ca bf
       -3.0212314168994225e-19 -0.20370045831132863
0007b0 c5 0a 5a 1c 57 81 d1 bf af 56 89 09 72 f2 d0 bf
       -0.27351930397723506 -0.2647976964120557
0007c0 9a 56 dc 1e a6 0e d4 bf a2 38 69 54 b6 ab f4 bb
       -0.3133940984128941 -7.003522816242672e-20
0007d0 60 58 00 55 a6 f9 d1 bf 5f 31 58 3c 65 50 de bf
       -0.2808624105540556 -0.4736569489766875
0007e0 5b 0e 22 70 00 a0 cf bf 2b 1c 6c c4 c1 7f ce bf
       -0.24707036471601182 -0.23827383128102161
0007f0 e1 69 78 20 59 11 b8 bf b4 89 29 9c d3 6e ce bf
       -0.09401471178754363 -0.23775715947256304

bias f8 [120]
000000 20 cd 0f 65 2f ca c6 bf d0 55 4d 86 0e c7 d2 bf
       -0.17804520067839125 -0.29339945903242626
000010 7c 1d 5c 54 93 b1 c5 bf 81 a8 5f db 6e a4 d1 bf
       -0.16948167437679362 -0.2756611959763476
000020 03 cb 9b 7a d3 ad d2 bf 74 e5 44 2c 7e 09 d5 bf
       -0.2918595025395662 -0.32870439837605336
000030 37 bf bb 49 2a 53 cf bf c8 bb 47 d3 23 70 cf bf
       -0.2447255001093198 -0.2456097394601484
000040 43 63 59 2a e3 0e c8 bf cd 37 eb da 98 95 c4 bf
       -0.18795432632284745 -0.16081534089465635
000050 5e 79 77 39 ea 00 d3 bf f8 06 de 3b 49 ca d6 bf
       -0.29693084346754073 -0.35609656187453664
000060 74 e4 45 84 e8 d1 d0 bf e9 c5 43 5c 72 4a c9 bf
       -0.26281178395544846 -0.19758443360437575
000070 e3 c5 cb 80 64 3b d2 bf 95 56 a6 fa 5f a8 ca bf
       -0.28487503602727154 -0.2082633947253966
000080 d8 d6 a2 93 b9 5f c9 bf c4 b8 5f d1 76 e8 b6 bf
       -0.19823379238885397 -0.08948462115924644
000090 41 2d 28 1f 32 9a d5 bf fb 77 24 e5 40 7c cf bf
       -0.33753636400861714 -0.24597941578480217
0000a0 45 31 5a 9d 22 c5 c6 bf 96 7b f9 5b e8 0e cd bf
       -0.17789108927935096 -0.22701744547790942
0000b0 31 48 19 49 2a 4d c9 bf a9 5f 79 99 eb 86 c2 bf
       -0.1976673943450478 -0.14474244111874882
0000c0 47 ac bb a3 8d da d2 bf b4 27 a2 a7 89 84 d2 bf
       -0.29458943357048323 -0.28933946009112366
0000d0 dc cb 68 73 28 8a c8 bf 8c d8 89 e5 2b e6 c9 bf
       -0.19171624789450348 -0.20233677585537568
0000e0 c6 31 ae 3c 17 b8 d2 bf 3a 6b 45 51 7a ba d4 bf
       -0.29248600889038945 -0.32388170181882325
0000f0 1f f0 41 53 0a 55 cb bf 4d 88 49 a6 e5 9f ce bf
       -0.21353272500334783 -0.23925467128271052
000100 da b4 f9 20 8b 11 cd bf cc 22 a6 b4 8b 55 c8 bf
       -0.22709788427474714 -0.19011064835310376
000110 a6 52 0a 00 82 76 cf bf ba bd 35 65 be 27 d0 bf
       -0.24580407144516875 -0.2524257648828684
000120 00 8d e3 8f 54 89 d5 bf f1 77 b8 91 5e 49 c8 bf
       -0.3365069775738476 -0.18973905673277572
000130 80 f2 7d 9b dd 4d ae bf ad 0a 66 b8 68 3c bd bf
       -0.059187817793803 -0.11420301916045146
000140 d0 57 9b 1a 49 02 c3 bf 3d ae f5 3b d0 59 d1 bf
       -0.14850724982414798 -0.2711067758125159
000150 34 fc 67 48 f0 fc cd bf bc 35 e6 d1 1b 8a d5 bf
       -0.2342815736337528 -0.3365544843480526
000160 9c 1d 1c 5e 50 d7 d2 bf 98 54 18 86 ca 44 cd bf
       -0.2943917197266843 -0.22866183803185858
000170 09 91 31 d9 0f 05 d4 bf bd 7b 76 6d 0f c2 c9 bf
       -0.31280895433725725 -0.20123474926819354
000180 8b 28 21 b5 99 82 ce bf 36 d0 92 26 f8 ff ca bf
       -0.238360608522559 -0.2109365642878644
000190 9e 16 9d e9 1b fa d5 bf 54 7a bc ad cf a8 d0 bf
       -0.3433904439337797 -0.26030342070035783
0001a0 37 55 59 00 65 8c cf bf 22 76 6c e1 2a c9 ce bf
       -0.24647200123824017 -0.24051414496436602
0001b0 37 aa 68 23 ed fd d6 bf 30 f6 d5 5c e0 9c ca bf
       -0.3592484327115559 -0.20791248829839182
0001c0 5d de a9 5b 4d 9d d2 bf 46 98 07 d8 f4 6a cc bf
       -0.2908509631301735 -0.22201405094455334
0001d0 74 21 6e 33 44 35 d4 bf ee 3b 0f d8 f6 53 d1 bf
       -0.3157511236427333 -0.27074977016030644
0001e0 2a 82 65 de 70 e4 c5 bf 1f 20 d9 a6 11 eb cf bf
       -0.17103396281437827 -0.24936123511202
0001f0 b3 51 69 34 54 23 c8 bf a6 36 b1 9c bc c2 c8 bf
       -0.1885781532206586 -0.1934428944681958
000200 0c 35 9b 87 e6 62 cb bf 9f 31 9f 7d b7 d2 f1 bf
       -0.21395570393944074 -1.1139445216277648
000210 88 71 5b b4 4c 17 cb bf 9c a2 fb 5a 5b 11 d0 bf
       -0.2116485481882473 -0.25105937848142346
000220 1a c4 8e 37 a2 03 cd bf ee c5 26 6d 88 9a ce bf
       -0.2266733905103429 -0.2390909703222372
000230 7d 63 05 e6 58 24 ca bf 2b 8c 28 c0 ae b7 ce bf
       -0.2042342303418784 -0.23998054869397953
000240 f5 50 a0 5e a0 ee cd bf ac 8e 53 71 9d 8e d8 bf
       -0.23384480114385267 -0.3837045294478496
000250 d2 56 92 b8 db 9e d1 bf 35 90 a8 8a 82 3c cc bf
       -0.27532094025205567 -0.22059661646301412
000260 07 64 78 aa cb 84 ce bf fe cf 1f 93 ab a6 d6 bf
       -0.23842759917968712 -0.3539227425346779
000270 d0 aa 96 ad 79 0a bf bf c4 de f4 14 51 24 d1 bf
       -0.12125359046937523 -0.26784159704719124
000280 61 c9 a8 42 ed 7a d0 bf d9 47 3c c4 87 25 c7 bf
       -0.2575028563470792 -0.18083283502397654
000290 3a c9 68 68 18 9e d1 bf 0f 6c e9 4b 44 f1 cf bf
       -0.2752743739721556 -0.24955037790900333
0002a0 97 03 a2 83 65 be d0 bf ba ce 7b 87 67 5e d3 bf
       -0.2616208825566501 -0.3026369879801042
0002b0 1d d0 81 90 c5 01 d1 bf 2f 13 4e 3c e8 85 ca bf
       -0.2657331381990405 -0.2072115225274955
0002c0 01 c6 01 80 8f fc c1 bf 61 8b e3 21 ec 1b d2 bf
       -0.14052003622377643 -0.2829542475648648
0002d0 dd ff 9c c5 ef 0f d0 bf 6d 4e 4c 56 77 de d2 bf
       -0.2509726934258632 -0.2948282568697554
0002e0 98 f5 72 21 86 c0 ce bf 4d 6d 7b 5b 74 be d2 bf
       -0.24025036462073213 -0.2928744214420547
0002f0 73 6d 6a 3c 4f 17 ad bf d6 06 67 83 1d 1b d5 bf
       -0.05681846249100433 -0.3297799857356102
000300 f8 4d 59 06 a7 d4 d3 bf 46 d4 81 15 eb 95 bb bf
       -0.3098542749405335 -0.1077563216693572
000310 19 1a 78 99 7c ef c8 bf 82 c8 2e e6 d8 92 d3 bf
       -0.19480855458842042 -0.3058378455999745
000320 01 40 e0 e2 00 5d d1 bf c0 97 31 35 b5 95 d5 bf
       -0.27130148082596867 -0.3372624415845813
000330 08 8d 49 ae 34 b0 d1 bf 52 a9 30 b6 9b d6 cd bf
       -0.2763797475838179 -0.23311182399749925
000340 32 28 9c 94 e6 10 d3 bf a8 f9 cd 47 fa 28 d5 bf
       -0.2979065371770303 -0.3306260777680117
000350 dc 48 5a ec 30 75 cd bf c4 d7 28 ce ab 59 c3 bf
       -0.23013888874681399 -0.15117404524215605
000360 71 e7 ab 62 9c 1f c9 bf bf 52 88 77 f9 a6 c7 bf
       -0.19627718751854276 -0.18478315674351184
000370 f7 24 62 87 67 21 c1 bf df 67 6f 44 5e 50 d0 bf
       -0.13383192167774613 -0.25490528758166237
000380 e1 b3 02 c6 2e 37 be bf e2 dd b5 6e bd e1 d1 bf
       -0.11802952131502266 -0.2794030743748107
000390 d0 6f 35 04 4f 51 cf bf 94 a9 a7 b2 9b 8a d1 bf
       -0.24466884332184557 -0.27408497282763133
0003a0 70 8b 52 18 7e 1c c5 bf ca c5 bd c5 ed 60 d2 bf
       -0.1649320238840022 -0.287166064364183
0003b0 59 92 4c 24 99 54 d0 bf 63 a2 1b 91 ed 9f d2 bf
       -0.25516346497378134 -0.29101123018930347

weight f8 [120, 120]
000000 a6 00 3d 5a 57 56 c9 bf 3b 91 40 53 87 fd cb bf
       -0.19794742494741974 -0.21867457928704845
000010 52 6c 2d a1 27 38 c2 bf 16 65 f5 56 ea 12 01 3c
       -0.14233870859138392 1.1569716701462078e-19
000020 d2 1f 97 62 77 4f d1 bf 9c c0 51 97 f8 26 02 bc
       -0.2704752409740624 -1.230042997458697e-19
000030 65 f8 c3 55 c0 72 ca bf 60 a7 45 ba c7 1d ff bb
       -0.20662693202752105 -1.054262229399745e-19
000040 e0 74 7c a3 c3 a2 d4 bf 63 4a a8 ca b5 53 d3 bf
       -0.32243433919377473 -0.301984260470965
000050 39 17 8c b4 b0 80 d0 bf bf d7 32 0d 80 05 08 bc
       -0.25785462981763235 -1.627759149915089e-19
000060 04 52 ce 19 09 03 c4 bf a0 e1 df c4 61 4c d2 bf
       -0.1563426376348077 -0.2859119818308731
000070 b0 65 b3 73 f2 c6 d3 bf f6 e7 cb 15 16 a4 d1 bf
       -0.30901776598838193 -0.27564003113332036
000080 4f d9 39 77 a8 b4 b9 bf 88 ab b3 bb a1 f0 c7 bf
       -0.1004128733710321 -0.1870309988510963
000090 86 78 cc 87 f2 38 d0 bf f0 e7 09 5e c5 1d f8 bb
       -0.25347579251855057 -8.170917839289278e-20
0000a0 aa ed 14 51 72 29 cc bf 7a 01 cb 7e b6 bb 00 bc
       -0.22001484831876655 -1.1338893560428469e-19
0000b0 37 f5 14 40 da 45 ca bf b5 b4 2a f9 33 3f cb bf
       -0.2052567303561916 -0.21286630312298419
0000c0 15 a7 50 7e d2 77 cf bf 52 4e e7 09 2c ab d1 bf
       -0.2458441845677092 -0.27607251135961974
0000d0 6c cb b5 bd 37 8d c3 bf 00 06 7a df da f0 fe 3b
       -0.15274712336721608 1.0483164268931658e-19
0000e0 ae 8c a9 e6 8a f2 a9 bf 5b 75 e7 b9 78 56 02 3c
       -0.05067857804967822 1.2426162824563542e-19
0000f0 93 cc 70 8f 36 47 cf bf a0 65 82 ee d1 a9 ea 3b
       -0.24436075214325523 4.51694880520622e-20
000100 88 55 3e 05 d1 e9 ec 3b f0 b2 b2 99 c1 c3 cc bf
       4.898111276087285e-20 -0.2247240066984868
000110 be a6 f2 28 4a 7e cc bf d3 48 51 be 50 08 cc bf
       -0.22260405539900846 -0.21900376599166424
000120 cf c2 1d 69 7f a2 d1 bf d8 ef 1d 5c 8e 9b b9 bf
       -0.275543072369186 -0.10002984761189226
000130 72 a9 95 62 a4 3f cd bf 67 f0 b2 56 cf ee d1 bf
       -0.2285047036524009 -0.280200800578092
000140 db a7 0e 12 88 41 c4 bf 2a d0 9e bb 8d 32 04 3c
       -0.15824986345006561 1.368634153783306e-19
000150 08 69 48 0a ec 78 d3 bf 38 cf 08 4a 84 e8 11 bc
       -0.3042554951113208 -2.4270229615309297e-19
000160 9b c0 c7 11 c2 88 cc bf 19 64 be 7e 6e 38 d2 bf
       -0.22292352550676217 -0.284694312832984
000170 75 9f b7 3b 1a 6f d2 bf cf 95 fd b6 a1 77 1f be
       -0.2880311568428547 -1.8316385872968714e-09
000180 52 da 85 78 9a 71 cd bf ff ae cf df 83 8b ce bf
       -0.23002940068154715 -0.23863266399654745
000190 66 79 e4 8b b1 a3 c8 bf 70 43 a1 76 f4 c3 10 3c
       -0.1924955304211366 2.2721420238762696e-19
0001a0 30 96 7b f0 71 fe cb bf 9a 3a 93 64 3e 49 13 bc
       -0.21870254747698104 -2.6137550633057885e-19
0001b0 0e 14 33 25 e5 bd cf bf be e8 3c 13 15 a4 d5 bf
       -0.24798263851531072 -0.33813979033187624
0001c0 d8 cf e7 0d 43 0d d1 bf 58 6e 2d e3 9c ff cb bf
       -0.26643444402657 -0.2187381848587957
0001d0 86 f4 0a 60 e0 cc f8 bb 8c b7 9a 4b d3 a5 fd 3b
       -8.402668038004937e-20 1.0045050241114643e-19
0001e0 a6 04 3c f8 4e 07 c6 bf 86 fd 91 81 58 08 d2 bf
       -0.1720980369646316 -0.2817593827566828
0001f0 39 8c f0 bc b3 07 cb bf 7d 51 23 fe 8d 5e ce bf
       -0.2111725494915804 -0.23726057919578727
000200 e6 da 82 ab f7 a5 04 bc c2 2e c3 cc 52 84 ca bf
       -1.399183936691835e-19 -0.20716319082418094
000210 d5 65 26 01 ba 06 c2 bf d5 83 1f 5a 9f 3b d6 bf
       -0.1408302789321129 -0.34738906670650965
000220 62 54 0d 31 48 4a ce bf f0 ec 6b 64 f4 b3 0e 3c
       -0.23664190669174717 2.0805126745837351e-19
000230 b1 9b 9c 94 39 04 d0 bf 90 0c d8 c7 ee a8 02 bc
       -0.25025786888948703 -1.2644435671725302e-19
000240 c5 d1 70 63 ce fd be bf 1c 24 84 31 53 40 ce bf
       -0.12106027534247861 -0.23633804242879897
000250 8b 44 bb 9b ee 4b ca bf 70 97 7b 8f 3f 55 d1 bf
       -0.20544226268842566 -0.270828142280485
000260 f0 df 5c 97 f0 93 de 3b 8b 5d e7 85 98 28 bf bf
       2.5900480186975368e-20 -0.12171319264540707
000270 83 74 7a c9 b6 1a c8 bf 82 bb a4 9a b4 be 14 3c
       -0.18831524694261156 2.811464074175991e-19
000280 87 fa c0 6d c9 bb cb bf bc ea ae b4 6c 8c ce bf
       -0.2166682992846811 -0.23866041967797524
000290 c8 2e c0 2a 3c 88 ce bf d8 70 d0 7d 9b e5 ef bb
       -0.23853256308972548 -5.40354569720457e-20
0002a0 a8 73 6e 9f 45 76 e9 3b fa 37 7a 37 0b c7 d2 bf
       4.313430556762358e-20 -0.2933986703654906
0002b0 b3 da fa b1 31 5f ce bf e5 67 01 87 91 48 c8 bf
       -0.23728009405541214 -0.18971461383881585
0002c0 65 e5 78 93 3a 1a 10 bc 40 37 1f a2 af 12 b3 3b
       -2.1822897628240623e-19 4.038863252247269e-21
0002d0 1e e2 1f c6 96 75 d3 bf a1 4e 3c a3 58 f1 d1 bf
       -0.30405206058597567 -0.2803556055161867
0002e0 9a d5 e2 ea e7 fd cd bf 0e 3e 2f 08 6e a8 00 3c
       -0.2343110939888618 1.1287851726076776e-19
0002f0 23 f9 db 7d 80 b3 c8 bf 1e 85 5f a5 06 7c ac bf
       -0.19297796388122732 -0.05563374298777489
000300 49 99 2b 9c 60 b3 d1 bf e2 c8 89 4f 18 ce d0 bf
       -0.2765733265972768 -0.26257903830913965
000310 2a be 8f f6 67 a5 c8 bf a8 49 f0 5e 25 41 cd bf
       -0.1925477937615921 -0.2285505975310802
000320 85 66 3d d4 4e 51 c8 bf 2a f4 71 bf b3 62 c4 bf
       -0.18998132098458967 -0.15926215026766616
000330 eb 8b 6d 42 cb 61 c9 bf 6c d5 2e 2f 43 e9 00 3c
       -0.1982969354968128 1.145946225904153e-19
000340 db 61 c1 e0 08 17 ce bf 61 7b f9 c8 7a 0b d2 bf
       -0.23507796263108002 -0.28195066095752536
000350 75 29 41 42 4e 2e d1 bf 25 ac 3b 65 0f 8a d3 bf
       -0.2684512755410176 -0.30530152212185363
000360 b6 a2 0f 56 eb a5 0d bc 18 5a 10 63 4f 83 d5 bf
       -2.009034905875634e-19 -0.3361395327969219
000370 68 6a ba 77 e6 c9 ae bf b0 e3 47 d7 34 4c e5 3b
       -0.06013412677312574 3.6079675503415736e-20
000380 d1 ec 10 95 21 3d d4 bf 00 ff 31 ba f4 5f ce bf
       -0.316231151172997 -0.2373033436924672
000390 b0 45 0d 4f 5b 09 cc bf c1 cc c6 d3 1b f6 d0 bf
       -0.21903554305985784 -0.2650212829714285
0003a0 17 83 15 14 eb c8 d0 bf 1b aa a1 fc d4 7d ce bf
       -0.2622630783208008 -0.23821508727572013
0003b0 3f 29 00 22 8e 9f 07 bc 7d f6 1d 9f 5e ff d2 bf
       -1.6007745344007872e-19 -0.2968365243794791
0003c0 22 a5 8d 37 ca 5f 9c bf 3b ae e8 77 a5 75 ae bf
       -0.027709159508423238 -0.0594913205025844
0003d0 58 ef dc 38 6a 6c e4 3b d5 d4 dc 46 f8 de d1 bf
       3.459874771689535e-20 -0.2792339984910773
0003e0 05 42 1c 91 23 da b4 bf 3f d0 03 1d d8 f9 d1 3f
       -0.08145353596433587 0.2808742793415639
0003f0 49 42 7d c3 11 54 81 bf e4 22 17 26 c1 95 c9 3f
       -0.008461130884513628 0.1998826442707219
000400 ca 95 11 0e 35 5b 12 bc 65 6f c9 24 2e ee b2 bf
       -2.4877396020446243e-19 -0.07394684217564203
000410 81 3e a9 ac 7d f1 d1 3f 63 3f e0 b3 56 0b d0 3f
       0.2803644357818272 0.2506920582391016
000420 81 4e fb 7f f7 1f 77 3f cf e3 f0 d4 d4 9d b7 bf
       0.005645720287890677 -0.0922520656466894
000430 45 e5 22 59 b2 f1 cd 3f f1 69 49 d5 15 27 ce 3f
       0.2339384970889943 0.23556778826134875
000440 78 1b a9 c4 5d 76 01 bc 00 3a 14 3f 85 27 03 3c
       -1.1832961022477984e-19 1.2979510674221277e-19
000450 86 00 cf 7e b6 4d c6 3f 2a 01 23 ae af 49 c0 3f
       0.17424660865617997 0.12724872591753328
000460 13 6b e6 8b fb 9f b7 bf 70 37 37 93 26 46 cc 3f
       -0.09228489079979978 0.2208908289744005
000470 34 ea ae 92 4a 7a c9 bf 05 f8 4d ec bb f5 b9 bf
       -0.19904453432339297 -0.10140585440782963
000480 e4 37 a6 0b 4f 16 ca 3f b7 02 52 9f 89 5b d4 3f
       0.20380580967724804 0.3180870109427291
000490 ed 34 67 97 b8 37 c3 3f e4 de c2 e6 e1 a1 cf bf
       0.1501379718087387 -0.24712775962483768
0004a0 6f a8 2c a8 54 18 06 3c 17 b0 bc b2 d8 0e cf 3f
       1.4972182674874683e-19 0.2426405785312233
0004b0 96 94 60 13 a5 41 b3 bf a7 9d bb 9f 79 15 ce 3f
       -0.07522041056707204 0.23503036784607653
0004c0 67 cc 29 76 20 48 d0 3f 42 4f cc ab bd 38 a7 bf
       0.2544022706926569 -0.04535477373261056
0004d0 54 2c b6 35 1b a7 ad bf ba 6a e1 47 2a 0f ba 3f
       -0.057915544802278035 0.10179390196700924
0004e0 48 bb e5 cf e3 66 c9 3f 4a 1b 3b f6 00 1d 00 bc
       0.1984524502872438 -1.0918794030886216e-19
0004f0 f0 df c9 e9 a8 53 f9 bb 4b 90 e8 71 48 61 62 3f
       -8.581052318855864e-20 0.0022436537685895145
000500 ae 31 4b b3 1d 39 ad bf 93 f4 26 f0 9e 86 c9 3f
       -0.0570763856281674 0.19942080236606738
000510 8d af f0 c4 ea 81 ca 3f b2 a5 d1 88 a8 86 d3 3f
       0.20708975425929702 0.30509389268135145
000520 01 0d 08 09 d0 c3 d1 3f f5 64 dc fd 17 63 be bf
       0.2775764549443949 -0.11869955013061768
000530 8f 29 d6 70 62 1b c8 3f 5b ab 2a 91 da 39 05 3c
       0.18833570966337418 1.4383291188006523e-19
000540 12 fb 8b 7f ce d7 b5 bf 06 19 fc 6f 53 28 0d bc
       -0.08532419790206472 -1.9757906217620387e-19
000550 aa d9 54 f3 07 be bb 3f 12 e1 89 86 6f 29 cd bf
       0.10836839380940569 -0.2278270155836784
000560 2e 6b 65 81 af 6c c1 bf e9 01 a3 34 43 56 d2 3f
       -0.13612932031795694 0.2865150465040914
000570 4c 32 a0 7e c5 8d 0e 3c af 1a ca a9 c6 f9 c3 bf
       2.0704056673119565e-19 -0.15606005945683907
000580 12 a6 9e ee 90 28 b1 bf 9b 6e 9f 83 c6 ca cc 3f
       -0.06702524018933101 0.2249382155122149
000590 2d 44 d5 03 e8 a0 d0 3f 9e b8 59 d7 ae 5b d2 bf
       0.2598209416801776 -0.2868458846122709
0005a0 55 46 79 ae 44 f4 05 bc b1 5f 3b 67 c5 3d 8f 3f
       -1.4876726286612132e-19 0.015254537785423712
0005b0 d9 73 0c d9 fe 4c b2 bf e6 98 f7 7b 15 44 d0 3f
       -0.07148735808409813 0.2541555128685914
0005c0 02 6a 36 1d dc f2 ce bf 90 a7 f6 e0 b7 6f bd 3f
       -0.24178649355310716 0.11498593561432657
0005d0 18 0d 34 31 6d 5c fe bb 39 b0 21 db 9a 09 98 3f
       -1.0286720863664943e-19 0.023474139809352066
0005e0 1e 3c 47 ab ea 91 07 3c d4 79 73 2c f0 e3 cc bf
       1.597164445486932e-19 -0.22570612116301325
0005f0 a5 34 5d b9 12 b4 04 bc d8 4d 6a 5b cc 0f ce bf
       -1.4029176791332926e-19 -0.2348571249354865
000600 66 13 93 74 0e 5c 03 3c ad b1 5d 88 b2 2e cb 3f
       1.3118572235615327e-19 0.2123625913476536
000610 f1 a6 c8 2f a3 cb 8d bf 72 08 5f 69 fb 2d c5 3f
       -0.014548563857789772 0.16546576161460141
000620 ab 3d 66 80 07 29 a9 3f 4e b7 d9 5f bb 2e c1 bf
       0.04914115373969293 -0.13423864536474145
000630 36 d8 69 17 41 96 02 3c 09 14 13 59 7b d0 d0 bf
       1.2594994164397009e-19 -0.26272472094234495
000640 31 46 7f e7 55 40 f2 3b 5c 11 4f 38 62 db a2 bf
       6.183784629704823e-20 -0.036830014585151644
000650 fc 6c 09 ca 0c ff cb 3f 32 67 a8 fe 81 df cd 3f
       0.21872100701407493 0.2333834165045175
000660 75 b3 a6 90 92 86 cf 3f c5 97 4d f3 3a f2 c4 bf
       0.24629432738347715 -0.16364228134187733
000670 46 bc 2b c8 12 3d ea bf 49 e9 ea 71 1f bb 09 bc
       -0.8199552449785947 -1.743596895722122e-19
000680 41 ad 37 e4 a0 91 d2 bf c3 37 c4 c6 c2 88 cc bf
       -0.2901384571730042 -0.22292360978502587
000690 d7 dc 37 0e e0 eb 9f bf f9 97 83 13 0d 3b bf bf
       -0.031173230045138247 -0.12199479795853553
0006a0 ec 22 f2 0b aa 93 f2 3b 2b cb e5 02 e0 24 d0 3f
       6.294069220948698e-20 0.25225067408534824
0006b0 3d 9b 90 43 d1 e4 10 3c a7 ea 2b fc 0a 20 03 bc
       2.289539287609469e-19 -1.2959717675695127e-19
0006c0 63 58 b0 1f b3 c1 9f 3f 02 49 5f 9b 6c ea b9 bf
       0.031012343224653082 -0.10123328011767188
0006d0 1b 45 2a 88 0c 10 bb bf 26 6b 33 73 d1 6e b7 bf
       -0.10571363758414913 -0.09153470098992197
0006e0 e0 a0 fc 09 05 8a 07 3c d4 42 08 36 5a 63 a1 3f
       1.595074129013567e-19 0.03396112355779271
0006f0 54 3f af 57 b2 5f 14 3c 27 59 ee 43 1e 05 cd bf
       2.7611668161398066e-19 -0.22671869580217072
000700 a2 c0 60 19 1a 89 a1 bf 7c 4f cb dd c5 50 00 3c
       -0.034249129865544306 1.1055825852122685e-19
000710 6b ea a8 f0 49 b9 cc 3f a1 85 75 85 e5 01 9b bf
       0.22440456629722702 -0.026374422331519324
000720 65 a1 4e be 9c d7 c9 3f 0f 7c 28 05 ca 0e a8 3f
       0.20189246456471746 0.04698783219304669
000730 64 66 7e b6 84 07 e2 3b 41 6e 20 2f a3 99 c6 3f
       3.0542938762644206e-20 0.17656364251239334
000740 59 be 00 16 26 85 b8 bf 1f 29 3c 52 5b 7e b6 3f
       -0.09578168904476438 0.08786555059137811
000750 a8 74 04 75 09 32 a9 bf 12 ac 38 89 4d 75 c3 bf
       -0.049209876570082856 -0.1520172996546028
000760 ee b9 97 3a 67 87 b1 bf d8 89 0a 0d 4d c6 d0 3f
       -0.06847233944402095 0.26210333131362296
000770 e9 b5 df 07 4e 51 d1 3f 6c 40 0b 85 8b fc 8f bf
       0.2705874516385323 -0.015618410108260337
000780 8d 73 76 d7 f1 10 ab bf 17 c5 aa d6 f5 46 d1 bf
       -0.052863652755355074 -0.26995607341366806
000790 e5 6e 56 8d a2 f3 15 3c eb fc 54 9d 5a 8b d0 bf
       2.9750099815030597e-19 -0.25850549091769776
0007a0 41 ee 63 b1 f5 f8 c8 bf d1 cb 67 b5 ce bc ce 3f
       -0.19509764825476064 0.24013694627464457
0007b0 f1 66 30 06 55 6e c5 bf 26 9d f5 00 6f 21 d0 bf
       -0.16742956926537247 -0.2520406255120683
0007c0 24 96 6f 65 64 7f 07 3c 42 3d 14 da 87 7c b7 bf
       1.5922610503149124e-19 -0.09174393724628252
0007d0 bb 81 ff 4e 10 bc d2 bf 45 02 22 e8 97 9d d2 3f
       -0.2927284976449546 0.2908687369272552
0007e0 29 83 de 57 89 77 a9 bf b7 4e 73 84 1a 64 a1 bf
       -0.04974011609670576 -0.03396685473276533
0007f0 75 e5 9e 60 69 27 d3 bf 3b 2c 0d 95 82 64 d0 bf
       -0.29928049502958426 -0.2561346488552691

bias f8 [120]
000000 ca 2d ea cd 3e db d4 bf 15 ed 7d c7 2d 12 c3 bf
       -0.32588167294371984 -0.1489922737199342
000010 82 00 63 ab 08 ab c4 bf a7 ca d5 14 59 99 d2 bf
       -0.1614695393418551 -0.2906096175640109
000020 b2 2d eb 0e fc ab cb bf dd 05 ae c2 7c b1 cf bf
       -0.216186053547387 -0.24760398393486485
000030 e6 91 2e 57 97 c3 d1 bf 8d 7e 7a 13 28 35 d2 bf
       -0.2775629378686787 -0.2844944181651748
000040 62 3f 21 42 f0 4c c8 bf 14 17 2d 55 61 0d c7 bf
       -0.18984797696111416 -0.18009583147993935
000050 f9 d5 2c f5 72 6f ce bf 42 e1 7a 58 b7 63 ce bf
       -0.23777615519945508 -0.23741809673607334
000060 76 b1 75 13 5f 87 d4 bf 74 2f 9c 5c 5c 63 d2 bf
       -0.32076241398205896 -0.28731450122790325
000070 a5 16 5b 49 2a 64 d5 bf b7 49 cf 16 51 be b2 bf
       -0.3342385975232481 -0.07321650320890326
000080 83 69 45 48 97 1d b7 bf 16 33 af b7 ce 84 d2 bf
       -0.09029527201110991 -0.28935592592169834
000090 18 c0 52 a7 72 4f d3 bf 9f eb 24 ec 9b f3 b7 bf
       -0.3017241128936816 -0.09356092944373849
0000a0 24 f2 b0 1d 97 9a ce bf 29 db 4f 0d bf 8a c5 bf
       -0.23909272146001215 -0.16829670095440832
0000b0 d3 fe f8 7c 02 bf d1 bf 44 46 f4 ea 55 18 d0 bf
       -0.27728330807074747 -0.25148532814737146
0000c0 dc 65 fb 17 01 08 d1 bf 10 7e 85 a0 c9 94 cd bf
       -0.2661135420035785 -0.231103137378327
0000d0 b6 1c a8 93 8a 4f c2 bf 48 61 f1 4c fb 33 d4 bf
       -0.14305240831183647 -0.3156727076907555
0000e0 b8 02 93 c0 10 70 d0 bf a6 56 d9 de 62 cc ca bf
       -0.25683993154602147 -0.20936237222001813
0000f0 fa 2d 50 fa ca 00 d1 bf 9d ec 3a da 5e 11 ca bf
       -0.26567339367531384 -0.20365510612268603
000100 b4 ee 4c a6 5a 1b cf bf c2 ba f5 52 31 cc cd bf
       -0.24302228088514755 -0.23279396582389295
000110 b1 b1 fc 4d 2d d4 d7 bf f0 31 bc c9 83 de d3 bf
       -0.3723252545921936 -0.3104562254018495
000120 68 14 e2 ed c3 3c cd bf 60 3c f7 24 e6 2f d0 bf
       -0.2284169112719241 -0.2529235230439948
000130 94 84 a1 ca 1e 4d d1 bf f8 bf f3 ff cb 16 d0 bf
       -0.27033204830338176 -0.25139141078307103
000140 3e eb 1c 1a 89 c5 cd bf b2 d1 44 50 b8 f0 cd bf
       -0.23259080672309013 -0.23390869063736158
000150 a3 39 6d 67 bb d3 cd bf 27 9f f0 f7 af 00 d4 bf
       -0.23302404928331297 -0.3125419541633953
000160 e5 24 56 23 4c e4 d6 bf 7a dd bb b4 19 10 d3 bf
       -0.3576841683466923 -0.2978576912859904
000170 48 51 d1 a8 bb 0b cf bf 1b 1a ad a6 ba 5e c4 bf
       -0.2425455641083636 -0.1591409028862508
000180 5b c2 c7 3c de 4a d5 bf b8 6d 85 46 23 06 d0 bf
       -0.33269458709313476 -0.25037462126575916
000190 7e 05 f2 5f 32 77 cf bf 1f 70 87 c8 07 82 ba bf
       -0.2458250969394093 -0.10354660649994728
0001a0 40 4c a5 36 69 9a d0 bf c1 70 1a 1d 8d 84 c7 bf
       -0.2594244989060748 -0.18373264237459888
0001b0 1d 44 9f 03 a1 4f b6 bf bd 5f 42 92 c9 50 c8 bf
       -0.08715254152708991 -0.18996543542448122
0001c0 87 c3 b7 62 5f 12 cb bf ec 68 71 cb 63 0e d2 bf
       -0.21149818725782785 -0.28212828509789634
0001d0 cc b9 0f 1f 52 5c d0 bf 23 d7 b6 89 53 d9 cc bf
       -0.25563481362669616 -0.22538227295233879
0001e0 8b 9c 1f 4c 31 ef d1 bf 3c 52 02 03 b5 e2 cd bf
       -0.2802241557496436 -0.23348105093886484
0001f0 6d 8a c1 2a b4 50 c7 bf ee c6 2d c3 c3 2f c7 bf
       -0.18215038383194174 -0.18114516287055643
000200 92 31 e9 fb 7b 64 cb bf 3d b5 4f 3b 36 9a c9 bf
       -0.2140040378602746 -0.20001867195188963
000210 a4 a7 d0 f4 20 14 d1 bf 0a 71 38 9e 9e fe 4e 40
       -0.26685356052132136 61.98921563869415
000220 dc 90 1c 1b 10 53 d0 bf 93 91 84 e0 1d 9a ce bf
       -0.2550697579156471 -0.2390782686499163
000230 bf ca 25 b2 9d 62 d1 bf d3 b2 3a f8 f3 ff c9 bf
       -0.27164404294232364 -0.2031235658700071
000240 f8 b4 de 18 81 13 d1 bf b7 a3 7e 47 12 ea c7 bf
       -0.2668154471273989 -0.18683079234076924
000250 e4 ea 38 ef ba fa d0 bf 76 58 6f 2c b1 43 c9 bf
       -0.26530335771137303 -0.1973782984702585
000260 91 28 54 b8 85 9c d7 bf 12 f0 00 ee db 6d be bf
       -0.36892836571554094 -0.1188638168395644
000270 90 47 b0 e2 b9 98 c9 bf f4 07 8b 79 08 76 ba bf
       -0.19997333115366844 -0.1033635422454891
000280 b0 4b 44 67 ca 47 d6 bf 2a 42 b1 8f 99 fb d2 bf
       -0.34813175282141184 -0.2966064360853432
000290 6b c8 f5 21 d0 c2 d1 bf 00 ab b1 51 77 12 d3 bf
       -0.277515443004751 -0.29800208070689393
0002a0 e4 d7 f6 27 ab 47 cb bf 2f 92 b2 8b 07 a8 cd bf
       -0.21312465144518378 -0.2316903526417646
0002b0 68 31 54 11 40 3d cf bf c3 01 d3 bd be 93 cc bf
       -0.2440567097295443 -0.22325882214319223
0002c0 8a d6 53 63 c2 83 d1 bf 8b ee e7 d1 47 2d cf bf
       -0.2736669511790316 -0.24356935262027365
0002d0 d5 73 27 4c 2f 16 cc bf 2d 16 19 16 a3 31 c6 bf
       -0.21942702501738034 -0.1733898027325024
0002e0 15 8f 14 f3 89 15 bc bf 5e 64 2e ca ce a4 cc bf
       -0.10970365700319136 -0.22377953407411416
0002f0 00 83 df e4 3d 0b cd bf a0 18 ee 4c 3b d0 d5 bf
       -0.22690557170337655 -0.34083445084287156
000300 d2 1d 45 ad 2b 3e c4 bf 47 6f 00 50 33 11 c8 bf
       -0.15814729652832554 -0.18802491575558575
000310 fc de e7 b6 23 57 da bf 95 c4 51 84 74 08 cf bf
       -0.41156857358826904 -0.24244553051861276
000320 92 19 ab 2e e4 78 cb bf 1e ee 9b cb 82 9b cb bf
       -0.21462681082466567 -0.2156833166298932
000330 3e d1 f9 94 64 c2 cf bf 33 04 a9 a7 27 7e d6 bf
       -0.24811990045749072 -0.351449884157833
000340 c9 27 77 54 f6 c1 cb bf f6 24 6f bf cd 74 c8 bf
       -0.21685675739564506 -0.19106456611033423
000350 8f ee e9 65 f0 73 b8 bf 02 47 ee 6b 43 f8 c5 bf
       -0.0955190895855884 -0.17163889665658166
000360 58 05 47 f9 c8 16 d0 bf f2 a1 b1 41 a8 16 d2 bf
       -0.2513906893110138 -0.28263288894098004
000370 dc 27 bf 65 7a d5 c8 bf 3f 77 3b 98 57 93 c9 bf
       -0.1940148350534504 -0.19980902608124926
000380 e4 49 65 ff d4 58 c3 bf 6d b2 a8 05 13 ae c8 bf
       -0.15114843817225598 -0.1928123262054159
000390 5a 9b 4f b6 7b dc cd bf 6e 3f 22 8a be 1e d3 bf
       -0.23329111482527304 -0.29875148286463726
0003a0 60 9a a2 61 a8 9d d2 bf f3 87 6c e6 6d 60 d0 bf
       -0.29087266478237517 -0.2558855772241479
0003b0 a6 59 93 a0 18 92 d1 bf c9 4d 87 79 16 e1 d0 bf
       -0.27454200440606724 -0.2637382685472543
