pyTorch/noisey_features/models/dropout/ow_0.0_64_NF_model_0.pth (torch, 470675 bytes, 10 tensors)

weight f8 [120, 60]
1.54866663882665e-19 -1.9514463807755125e-19 -0.24331957802999715 3.1878539332548877e-19 -5.72546363681228e-20 -2.6055879962914323e-19 -0.2006012223469656 -0.2658586679660748
-0.23597030301691532 1.926757358557204e-19 -0.23963940468465397 -0.3107740780793266 -0.2171379299459107 -0.25519021001477527 -0.13014925131914942 -0.2427483689205957
-0.2800105224916127 -1.82971880384662e-19 0.09727489959056439 -1.1674217949145993e-19 -0.3021245391255268 -8.225286957256227e-20 -0.20878665886119538 -0.2406466760803739
-0.19053077843458902 -0.2278784685232858 -0.115459424730306 -0.27082941448628584 -0.199164289456933 -0.1984928284127902 -0.25678684723455336 -1.5007107725073276e-19
-0.3152061527342244 -0.2078298810130186 -0.2585363771619983 -9.122230454728457e-20 -0.20852339939135958 -0.2417912219033202 -0.2603515093934238 -0.2042882644028485
-0.31231550864358587 -0.34883536523709313 -0.1723550233756927 1.6544602118341368e-19 -0.22082250801395742 1.2366085542207654e-20 -0.040073479400158325 -0.36758256978718723
-0.20850560147230945 -0.05036993825647133 -0.19495069534789697 -0.2997423747619152 -0.19912489863281727 -0.11074922368272702 -0.15503830465617613 -0.2720289049843157
-0.215886470729279 -0.17070035455116753 -0.36412884894677355 -0.2113098315146998 3.413166879264871e-20 2.6825114577484947e-19 -0.11946258480903368 1.8703903511582067e-19
5.3530121674298084e-20 -0.20363337994436723 -0.22000388402738502 0.22388346171932513 -0.25695666797263556 1.743874259859788e-20 0.2105286840856899 -0.1401489996814074
-0.22502520897234737 -0.24251233921264706 -0.27601551517145756 0.18449708660972036 -0.3263722025171312 -0.20427379099582477 -4.4268815135488964e-20 2.9104441938205147e-19
0.17964229013723537 -5.948376013791423e-21 -0.21228018204931107 -0.20729460832759247 -0.2850952168757602 -0.26885085669118486 -0.3439670798915403 -0.2184218715795856
-0.3461356375587763 -0.1889888226692147 -0.23672709741268455 3.070864255177331e-19 -0.2095501491315402 -0.2705238716885883 -0.3291359615325961 -1.494955724167365e-19
0.17048054307841254 -0.24660219845552528 -0.2746782453440001 -0.23994749880983932 -0.3246010808507774 -0.17333536200634309 -0.22125406829678076 -0.23404501251526616
-0.21006573709505308 -0.30562485939228795 -0.2673224476478404 -0.3101349417081328 -0.22264616055322886 -0.29520672393463787 -0.3658471771580933 -0.23267633398683119
-0.2104113516362077 -0.30842183174629256 -0.1761369307758504 -0.33601524615985356 -0.16311466684115705 -0.17634482406431054 -0.24252212848458712 -0.2129575179739461
1.755248934922776e-19 -4.525481438340695e-20 -0.030209961022505658 -1.3429607177173842e-19 1.7489000927436394e-19 2.0543363642815919e-19 -1.199340265419582e-19 -1.3444582640045037e-19
2.1496816060759114e-19 -2.775836368777638e-19 1.3067061207803216e-19 2.6378369994151044e-19 -9.155448205348721e-20 -3.187020945284604e-19 -0.025930607229765573 -3.2440677830630034e-20
-0.027240134351122554 -3.1871705750255156e-20 -0.02182608704252051 1.5499538078187583e-19 -7.938322273212954e-20 -5.1761238485632423e-20 -1.1439977878207074e-19 5.189696421516681e-20
-0.02972386398127177 -1.4591327178805907e-19 -0.026369703453585025 2.469596489907879e-19 -0.01698273205712795 1.579876452100751e-19 -3.1778721622556223e-19 3.8885335246405955e-20
-2.433825939846383e-19 -0.01885904058570469 -1.528143999129295e-20 2.1165955706300674e-19 -0.024039410944911015 1.4577727243372422e-19 3.483765075511564e-19 -1.4563427249919893e-19
-0.025070357316301996 -0.01531107916344533 -0.01691342425128681 5.091250148781759e-21 -0.015074099282408274 -1.623233424023131e-19 -0.012780437775215335 -0.026923290511039616
-3.682321039386143e-19 -0.022011870256610905 -0.029767466822661855 1.119153284528401e-19 -0.02022790589528261 -0.013863923286480681 -0.022099551479572002 -0.020136799111702686
-0.026078393682897022 -0.018025823005679155 -0.01933285297231946 -0.027464690436183003 -0.24167783451307176 0.20502059027489716 -0.13872871579887003 -0.3684664876100444
-0.3512258034100571 0.126407666938399 -0.1106961291275674 -0.1710957688569719 0.11111598116805647 0.09199718280146012 -0.09107060741402871 0.213280503609462
-0.36940747880782776 -0.18357858141111025 -0.13353461276151096 -0.37316055518162133 0.2420446300875507 -0.2932999398426953 -0.38394761906481856 -0.34518330443843975
-0.3234490837639544 -0.18750500793977545 -0.33198841000894974 -0.4259442718163398 -0.09364288590873533 -0.04845460747617376 -0.1380811525044751 -0.15556714088932622
-0.040188848604612686 -0.3756328376587552 -0.19747988095811345 -0.442953772436721 0.1461068274231029 -0.015908677315692028 -0.07115434713432965 -0.2449284565962683
-0.4694401897679869 -0.23416834538771486 0.15440121775921437 -0.08714366647125388 0.19971336367594159 -0.21482068159963597 -0.22602970178184711 -0.17174612704841438
0.09101195382184295 -0.26685880027990755 -0.13356153889268763 -0.07277126980743892 -0.08408226331183974 -0.0677684454382911 -0.14230539937409326 -0.10604248375926963
-0.3777449114706448 -0.21054430983778608 -0.1278242027875843 -0.02744550480488091 -0.18771167574846795 -0.1183435525295764 -0.042667207783650754 -0.09759806580898925
-2.251043969200918e-19 -3.524446609440922e-20 -0.20957476147898516 6.016366901460463e-20 -3.0212314168994225e-19 -0.20344691518271826 -0.2528629382256008 -0.264262381116696
-0.3152344281030026 -7.003522816242672e-20 -0.2802945073524463 -0.4850722794164685 -0.22841411697340455 -0.20697785716361924 -0.09766228773385928 -0.23727676020933214
00000000: 141a f177 b2da 063c 0a2a db21 5bcc 0cbc
00000010: 0cc4 0e8f 1825 cfbf 1343 5692 af85 173c
00000020: 5fe6 2dbb 09e6 f0bb 5828 a60a d139 13bc
00000030: a248 c204 4dad c9bf 3c6f 1113 d403 d1bf
00000040: 5776 245f 4634 cebf ba75 0760 156f 0c3c
00000050: 390c fa06 81ac cebf 83e5 72f5 b8e3 d3bf
00000060: a25e ebf9 2ccb cbbf 1276 9151 0955 d0bf
00000070: 73df 010d bba8 c0bf 34ed d5e8 6012 cfbf
00000080: 53ca 2841 b1eb d1bf 9640 9571 7b00 0bbc
00000090: 8391 7600 02e7 b83f 8326 8814 653a 01bc
000000a0: d53e b729 0256 d3bf 2027 5ce2 d946 f8bb
000000b0: 5331 d36f 85b9 cabf 0302 d4a1 82cd cebf
000000c0: 8d05 2103 5063 c8bf ea91 e224 1f2b cdbf
000000d0: 9f4c 3bb5 bf8e bdbf fadb 80e5 4455 d1bf
000000e0: 49d2 df26 377e c9bf 2e01 4387 3668 c9bf
000000f0: 2c95 ba19 326f d0bf e9e4 8866 8625 06bc
00000100: 5374 5f6d 562c d4bf e98e 0a67 2b9a cabf
00000110: b62c 2f29 dc8b d0bf 5091 19fd 8fec fabb
00000120: e116 6b0e e5b0 cabf 0e6f 44c7 03f3 cebf
00000130: 86c6 9360 99a9 d0bf 0f8e 482b 1e26 cabf
00000140: 8119 ea2f fafc d3bf fe6a 5891 5153 d6bf
00000150: d696 59ba ba0f c6bf 6b43 edbb 5f6a 083c
00000160: a800 1275 e943 ccbf e06c 800d d732 cd3b
00000170: 09d5 ebd6 8284 a4bf e732 f40a 7986 d7bf
00000180: d09d adc1 4fb0 cabf e6b2 06ab 16ca a9bf
00000190: bf03 6df6 24f4 c8bf b3fa 34a4 fa2e d3bf
000001a0: fd3f b9b7 ec7c c9bf d252 c6a5 0f5a bcbf
000001b0: 6212 1090 4bd8 c3bf 615b 9eec eb68 d1bf
000001c0: c32e b7f9 2aa2 cbbf 4d3f 1b5c 82d9 c5bf
000001d0: c46a 7016 e34d d7bf 62e6 d657 330c cbbf
000001e0: a495 3ffb d425 e43b 7c59 f0f1 1ecb 133c
000001f0: 86b5 d996 1995 bebf e856 f58c 229a 0b3c
00000200: a16d 6d47 3e99 ef3b 7714 9e99 a810 cabf
00000210: 08ff 7157 1629 ccbf 0b92 1999 36a8 cc3f
00000220: 579f 5b61 fa71 d0bf 505a 295b 8996 d43b
00000230: 4f4c 829a 9af2 ca3f f170 1905 67f0 c1bf
00000240: fde8 a744 a0cd ccbf 45bb e5f2 a40a cfbf
00000250: 6f66 b6fa 3caa d1bf 7617 99bc 999d c73f
00000260: c19c 083c 48e3 d4bf 98e5 e0c1 a425 cabf
00000270: 4cca fbd5 b621 eabb fbae f673 ac79 153c
00000280: 9e19 8fc0 84fe c63f 2041 8435 2517 bcbb
00000290: d3cf be3b ff2b cbbf d3ba b335 a188 cabf
000002a0: 028e 2e02 003f d2bf cb5f 3f39 da34 d1bf
000002b0: ea39 c27f 8e03 d6bf e02c 9575 3ff5 cbbf
000002c0: 28e2 d216 1627 d6bf c13f 5626 c930 c8bf
000002d0: 4a74 bbd2 124d cebf bc5f abd5 b2a8 163c
000002e0: 6229 b20e 8ad2 cabf 7925 6c5b 4350 d1bf
000002f0: b714 ae47 9010 d5bf f6c4 9475 c80f 06bc
00000300: 1424 9072 4ed2 c53f c67c be2c a990 cfbf
00000310: 9235 2b10 5494 d1bf d797 1282 99b6 cebf
00000320: 9505 a09c 43c6 d4bf 465e 8767 da2f c6bf
00000330: 2187 b8a5 0d52 ccbf dec1 45dd 2ff5 cdbf
00000340: 6dac 6a1f 6fe3 cabf 71ce fb91 5b8f d3bf
00000350: dc95 889c cf1b d1bf 56ee fe39 40d9 d3bf
00000360: 89fa 135d ab7f ccbf d0f2 36be aae4 d2bf
00000370: 6396 4e47 0a6a d7bf 1068 838e 56c8 cdbf
00000380: 9b09 fe58 c2ee cabf 6441 2eec 2ebd d3bf
00000390: 7669 a6aa a78b c6bf 88b1 4d17 4681 d5bf
000003a0: 8c54 caff f0e0 c4bf 4569 169a 7792 c6bf
000003b0: f1e4 3211 f70a cfbf cb55 9123 3142 cbbf
000003c0: aa3d 179b 24e7 093c 94af 90d5 b6b6 eabb
000003d0: 6c9e 6b2a 5cef 9ebf 69de bae8 8fd1 03bc
000003e0: b648 e761 28cf 093c a79c e637 1051 0e3c
000003f0: d2d9 0ebb fab2 01bc 0a5b 3b3f 38d7 03bc
00000400: ee15 607a 44b9 0f3c 7568 571a 687b 14bc
00000410: 2c74 4c9d 9848 033c d951 deb3 bb76 133c
00000420: 0eb0 703c a905 fbbb cabf 6bc3 1c84 17bc
00000430: bbad 1198 8d8d 9abf 189e e7ef 4b26 e3bb
00000440: 72f5 b478 d6e4 9bbf 8837 59e5 50d0 e2bb
00000450: d868 30e8 9359 96bf ba5f 8c57 8fdf 063c
00000460: 6c6f 78d7 066e f7bb a8bc d5ec ef8d eebb
00000470: c988 47c5 e6e1 00bc 20c2 5a8f 72a2 ee3b
00000480: b65c d7be ee6f 9ebf edb2 d192 7288 05bc
00000490: 00e3 c0d7 a800 9bbf cfd4 9295 ef38 123c
000004a0: 9add 20db eb63 91bf 1f99 6fbf 9a50 073c
000004b0: 4b4c f0ae d472 17bc 685d 8a8b 2ff4 e63b
000004c0: bc6e f501 5ef5 11bc 2dba 32ca c84f 93bf
000004d0: b841 c526 880a d2bb 187b c5a0 453c 0f3c
000004e0: de42 4b8f c99d 98bf 501f ba44 4f83 053c
000004f0: d0a8 716b a5b4 193c 9db4 0942 e87d 05bc
00000500: b717 1733 0bac 99bf 470e 3042 6a5b 8fbf
00000510: 9931 17b0 c051 91bf 803e 309a f10a b83b
00000520: e20f 7a5b 2bdf 8ebf 1cac bd09 67f4 07bc
00000530: cc55 2f52 a12c 8abf 6884 fb70 c791 9bbf
00000540: a545 3731 b52b 1bbc 25f6 809b 478a 96bf
00000550: e2cf f3e1 5c7b 9ebf b8fd 33a4 0a84 003c
00000560: 0eb0 25c9 9fb6 94bf c5a3 e048 b064 8cbf
00000570: e4b1 71cb 43a1 96bf b006 86b6 bd9e 94bf
00000580: 0843 0060 4bb4 9abf cae7 2b81 5c75 92bf
00000590: a098 04cd fdcb 93bf f367 df2c b41f 9cbf
000005a0: 536c b39d 4cef cebf d05f 1e5d 1d3e ca3f
000005b0: 14a5 afd0 dcc1 c1bf 9e41 7d76 f494 d7bf
000005c0: d114 caca 7b7a d6bf 1c67 bb5d 202e c03f
000005d0: ce8d 65de 9456 bcbf f9c1 dc55 77e6 c5bf
000005e0: 6304 2ed1 1872 bc3f f3d6 749b 208d b73f
000005f0: 0759 7840 6750 b7bf 2643 f089 c64c cb3f
00000600: de27 1844 5fa4 d7bf c311 b4c1 807f c7bf
00000610: 62ec 5885 a917 c1bf 9562 2acf dce1 d7bf
00000620: 5700 3385 51fb ce3f dec2 621c 6dc5 d2bf
00000630: 68ab d008 9992 d8bf 470d ecb6 7b17 d6bf
00000640: 86fd 2bc9 63b3 d4bf d501 7802 2a00 c8bf
00000650: 36ed e850 4c3f d5bf 65a9 57c3 ab42 dbbf
00000660: e527 7bec faf8 b7bf f9bf e6d4 0acf a8bf
00000670: d6b0 19a9 a4ac c1bf 38d7 39c3 9fe9 c3bf
00000680: df66 d7fc a193 a4bf f012 4350 5e0a d8bf
00000690: 0da2 2a4f 0547 c9bf d15a 90c7 5a59 dcbf
000006a0: dd94 c0e6 a0b3 c23f 058f 2c43 5d4a 90bf
000006b0: 5f01 e9d9 2b37 b2bf c569 78cf d059 cfbf
000006c0: 83d1 9edd 4e0b debf f26d 9974 3af9 cdbf
000006d0: e583 5e4a 6bc3 c33f 5c2d 8c1d 0c4f b6bf
000006e0: 37fa c71e 3590 c93f 64c8 fc7c 3e7f cbbf
000006f0: f8f0 8990 8aee ccbf e79c 71ef c6fb c5bf
00000700: 8bba 3535 8f4c b73f 2587 f6ee 3614 d1bf
00000710: 5015 c664 8b18 c1bf bc4d e94f 23a1 b2bf
00000720: 5617 194b 6a86 b5bf 59b4 dbd8 4559 b1bf
00000730: c08f 2d36 1037 c2bf 8990 bba7 9925 bbbf
00000740: 24cc 3ffe f82c d8bf fd5b 8eae 1df3 cabf
00000750: bb12 4e21 8b5c c0bf 3598 3ca6 ac1a 9cbf
00000760: 1d61 35aa ef06 c8bf d096 ce57 c34b bebf
00000770: a2b7 15ec 79d8 a5bf 526e cdd4 2ffc b8bf
00000780: 2671 f711 1a9c 10bc 489a ee3d fecd e4bb
00000790: 5143 4f85 58d3 cabf cc4b 229b d6c1 f13b
000007a0: ff85 e4dd f14a 16bc 3747 976b 8c0a cabf
000007b0: c229 8308 e82e d0bf 2065 1dc3 ace9 d0bf
000007c0: 68a4 d105 cd2c d4bf a238 6954 b6ab f4bb
000007d0: a8f0 945f 58f0 d1bf d38d 129a 6c0b dfbf
000007e0: 0d39 2c7d ac3c cdbf 9bc7 c11b 407e cabf
000007f0: 6d95 de4b 6500 b9bf d696 99ba 155f cebf

bias f8 [120]
-0.16711902920004043 -0.2815056793811938 -0.01400917070433573 -0.24254368469818044 -0.30028149980843216 -0.2925801112921594 -0.24230714182741406 -0.12595278681611688
-0.01976761270701033 -0.152097514204837 -0.2848814426844193 -0.3483422061651131 -0.24880586330568166 -0.18358194619426363 -0.18992111930455044 -0.1351218475964501
-0.00010707073052344121 -0.0008490839217439047 42.73503313760031 -0.21292560877546984 -0.16691576833057759 -0.2220476936502564 -0.2782913925129217 -0.13237306603376944
-0.2508088581462712 -0.1788284201394662 -0.18242986866599786 -0.16065738173751942 -0.022881696796244837 -0.31652038273535626 -0.20087867802475431 -0.2347594868834265
-0.16482548243479075 -0.17572966313857402 -0.25183776291382975 -0.2513104517541363 -0.15054966566760522 -0.028886125710215267 -0.020967095003046932 48.009808142434736
-0.1388752569701034 -0.2650262756914368 -0.2742665430251849 -0.32364996433921084 -0.057443284317700176 -0.3310491014435982 -0.03790100560103593 -0.011314425612522752
-0.2276899779432226 -0.006094580733522201 -0.3350800568606398 -0.14360038962883703 -0.23582946669986887 -0.08120574118627992 -0.04251831607757115 -0.1987988672656646
-0.27592527517777277 -0.22146650276563742 -0.3048433375770313 -0.12364986491484337 -0.0007353169690410383 -0.2437193221430855 -0.17839651212386498 -0.2692047042361142
-0.26194316932358375 -0.12124991176756544 -0.04442137724939779 -0.25093732380933126 -0.001736646656248612 -0.0355195694233651 -0.0009151922381159953 -3.171948777902017e-05
-4.616934078438838e-08 -0.1684522932495929 -0.07416167298833229 -0.0651891319813353 -0.18601711466325058 -0.3447366423248502 -0.26928100239010605 -0.015179861654265181
-0.02136394154901428 -0.25237726917938397 -0.21752117884314073 -0.23360257295222464 -0.2556825812363049 -0.29387387399098214 -0.11100026084822616 -0.0005175590081580384
-0.9133789916334092 -0.04415808707270551 -0.24304360914634457 -0.0013802658119054538 -0.2185365674165337 -0.02603221479447034 -0.07498257121988328 -0.23392567264816266
-0.2697262220965053 -0.10484501879058174 -0.18630364572103253 -0.30282142369164716 -0.00036936830541374005 -0.331358634279666 -0.0003113462246606907 42.75208077206549
-0.24433929486999945 -0.0424731259018512 -0.11503638774312006 -0.13423050209772466 -0.22237598115703935 -0.1742027466903482 -1.7395386741509143e-10 -0.1953937003606921
-0.11176035020408898 -0.21573866707195002 -0.5266798693437291 -0.21351355102124356 -0.14990156278499997 -0.25928893905070266 -0.2417697645961494 -0.21753842720451347
00000000: 690a 7a06 2864 c5bf bb26 a565 3004 d2bf
00000010: 0854 2710 d7b0 8cbf 84a4 d0e4 ab0b cfbf
00000020: d358 51e5 cf37 d3bf 6d6e 5dee a1b9 d2bf
00000030: 7f34 dea0 eb03 cfbf 5c8e 1b8e 381f c0bf
00000040: 00ec 6208 f63d 94bf 9505 a86c ee77 c3bf
00000050: c047 e45f 7f3b d2bf efeb d21b 3d4b d6bf
00000060: b4b8 f9da ded8 cfbf a12b 85fb 9c7f c7bf
00000070: 07cb 1dd2 554f c8bf cd6f 3336 ac4b c1bf
00000080: 06ea d124 6511 1cbf 0721 75d6 a1d2 4bbf
00000090: 1cbc db90 155e 4540 d0f4 1577 2541 cbbf
000000a0: 4a51 15f3 7e5d c5bf 66a6 300f 0f6c ccbf
000000b0: aa7b 66b3 86cf d1bf b13e bec2 99f1 c0bf
000000c0: fa42 d298 400d d0bf d413 0c84 d9e3 c6bf
000000d0: e4f4 dda7 dc59 c7bf a039 36cc 6b90 c4bf
000000e0: 3bdd aaad 4c6e 97bf 9568 17b5 de41 d4bf
000000f0: 8b3e 4a7c 64b6 c9bf 0387 4b4f 990c cebf
00000100: af6b 4d5c 0019 c5bf c602 0f42 4f7e c6bf
00000110: 7c36 e722 1c1e d0bf fd53 db6e 7815 d0bf
00000120: 1da9 3b21 3645 c3bf b21f ef14 5394 9dbf
00000130: fd22 52ed 6578 95bf f07e a964 4101 4840
00000140: 1c81 7417 aac6 c1bf c439 abc4 30f6 d0bf
00000150: 8387 2b42 958d d1bf 0110 0c57 aeb6 d4bf
00000160: 7fe8 09c7 3469 adbf 1a82 0492 e82f d5bf
00000170: 107c 15b7 c267 a3bf 559a d47f 042c 87bf
00000180: 2e51 72f8 f124 cdbf fdd5 ee8e a1f6 78bf
00000190: 7887 709f f371 d5bf 0409 9360 7f61 c2bf
000001a0: 025c 74f3 a82f cebf b37b a442 e6c9 b4bf
000001b0: 4d7d 11f2 f5c4 a5bf dea5 b1c4 3d72 c9bf
000001c0: 3cd0 417c c2a8 d1bf 1dda 44ad 0359 ccbf
000001d0: 62ff 52a1 8d82 d3bf 4ccd f67d 84a7 bfbf
000001e0: 62e3 c72a 4918 48bf ee00 01db 3132 cfbf
000001f0: 946f a568 b2d5 c6bf d2e6 275e a63a d1bf
00000200: caf1 6948 adc3 d0bf 9440 aff5 3b0a bfbf
00000210: 0413 0f15 66be a6bf 77d6 c66b 5b0f d0bf
00000220: de8d f825 0674 5cbf 712c 15fa 9e2f a2bf
00000230: 89bc ba5d 30fd 4dbf 37fd 1e4d 51a1 00bf
00000240: c7af e743 77c9 68be e1ba 3841 d88f c5bf
00000250: 1efe 1968 42fc b2bf 3c1a ea25 3cb0 b0bf
00000260: f1ca fca7 68cf c7bf 3d28 2147 2a10 d6bf
00000270: 4dc6 ac62 e63b d1bf 2d2a e78a 9e16 8fbf
00000280: 7112 11d9 6de0 95bf 8445 58fd f226 d0bf
00000290: bdc9 a8e6 bbd7 cbbf 60ae 8b69 b0e6 cdbf
000002a0: 5546 2479 1a5d d0bf 7d2a 7c5d d4ce d2bf
000002b0: 33cb 305a 836a bcbf 48d6 c381 99f5 40bf
000002c0: 0a68 3d94 663a edbf ce91 a987 e39b a6bf
000002d0: 8f86 6490 0d1c cfbf 8c26 6721 419d 56bf
000002e0: c45d 0499 01f9 cbbf 5621 bd5c 30a8 9abf
000002f0: c0cd 28cb 0e32 b3bf 10fd dbc4 46f1 cdbf
00000300: c4cc b1c5 3143 d1bf 49a3 da86 1fd7 babf
00000310: f8aa bf40 ccd8 c7bf 8529 d21b 6d61 d3bf
00000320: a9fc bbca f834 38bf f19d 5ed8 fa34 d5bf
00000330: 8f51 47da 8567 34bf 61fc c72e 4460 4540
00000340: 9a13 4c90 8246 cfbf a728 6a9d 09bf a5bf
00000350: b6e8 3453 0673 bdbf 5b54 5110 772e c1bf
00000360: 7721 3eef d076 ccbf 0847 f48d 464c c6bf
00000370: 7ed2 1a25 75e8 e7bd 5a61 7228 a902 c9bf
00000380: b4b6 1d89 539c bcbf 8d40 c71b 539d cbbf
00000390: 305f c9bd 8fda e0bf ffcc 717b 6954 cbbf
000003a0: 67f3 e372 f92f c3bf cffc 5ba2 3098 d0bf
000003b0: f810 0dc8 4ff2 cebf 95bb 3b97 4cd8 cbbf

weight f8 [120, 120]
5.838155374887833e-11 1.3982824319300302e-19 -1.6600240685481342e-15 1.1569716701462078e-19 -0.03670802595802346 -1.230042997458697e-19 -0.015756008516724613 -1.054262229399745e-19
-0.002083657682924652 -0.00016544245670958721 3.6281313952323886e-20 -1.627759149915089e-19 -4.9907683369788246e-06 -0.0029663075848907782 -9.946885800112987e-20 -1.0178511659115832e-20
-4.471447405892946e-17 -4.606584225988311e-06 -2.675363086572169e-20 -8.170917839289278e-20 -2.9418548370622366e-07 -1.1338893560428469e-19 2.1615235875383384e-19 -3.029202501119364e-09
-1.3761400151945747e-19 8.323726509604753e-20 -2.8507209690663507e-14 1.0483164268931658e-19 -9.403825150571327e-18 1.2426162824563542e-19 -0.005763139503360009 4.51694880520622e-20
4.898111276087285e-20 -0.0002764354912591736 -1.4245169855083677e-20 -0.027160057172471837 1.0063753889262595e-19 4.811718203264569e-15 -7.64204338887191e-06 5.916629792098199e-20
-3.2511644110461413e-06 1.368634153783306e-19 -2.537179066566297e-19 -2.4270229615309297e-19 4.9600418965547174e-20 -1.2067624902657323e-19 -2.3824411559028136e-19 6.512503623598771e-19
-0.0008898919956140659 -1.308343140144827e-19 1.9647894612630336e-13 2.2721420238762696e-19 -1.846489714607652e-05 -2.6137550633057885e-19 -3.601459690083455e-05 -0.013723250840236201
-0.00027925809904339507 -0.03229277984256816 -8.402668038004937e-20 1.0045050241114643e-19 1.4205235734031104e-11 -0.002910369704055703 2.136571703942628e-19 -1.4138122552171552e-19
-1.399183936691835e-19 -1.3219835608414679e-19 6.058484636641326e-15 -0.08056512929934423 -1.3038243541279889e-05 2.0805126745837351e-19 -0.00014002100491392793 -1.2644435671725302e-19
1.5029577332505608e-13 -7.925472286695138e-20 2.899424569493295e-19 9.067159171142949e-20 2.5900480186975368e-20 -1.4294185854091418e-12 -0.0007506073991271407 2.811464074175991e-19
-7.551059344043116e-07 1.870972930214269e-21 -6.836522949082438e-20 -5.40354569720457e-20 4.313430556762358e-20 -0.015820530793306073 -7.613854823972364e-20 -2.5847465456551245e-07
-2.1822897628240623e-19 4.038863252247269e-21 -0.007880139736746903 -0.03206255039707699 -1.4054388556622192e-19 1.1287851726076776e-19 -0.005941703229752801 3.022401533324088e-17
1.1706363012747838e-19 3.6623590236446486e-20 -0.0013003965162096658 -1.4711063695322725e-19 -0.0015505069869452214 -1.2142437478416285e-08 -8.27201030576279e-05 1.145946225904153e-19
2.1765902631369386e-19 -5.8083140443049855e-05 -5.788574094045043e-20 -0.014070853071098581 -2.009034905875634e-19 -0.009162791765229194 1.3125949821130004e-17 3.6079675503415736e-20
-0.002087018364553018 1.0225317875880719e-19 -0.02339467819076667 -1.4674353767228872e-19 -0.006201084517255541 2.352400275111795e-20 -1.6007745344007872e-19 -1.3132734186475026e-19
-0.11496011324463391 -0.11193519761268507 3.459874771689535e-20 -0.0006914995348415549 -0.18475927919686166 -0.12287423263440427 -0.14839145611865473 -1.1969479830901062e-19
-2.4877396020446243e-19 -0.13395530908220216 1.235360523210515e-19 -1.7480425361501307e-19 -0.06423575520474728 -0.12928567293808385 -6.550283574524847e-20 4.3108862936297096e-20
-1.1832961022477984e-19 1.2979510674221277e-19 -5.842830535687088e-17 1.0842472428366907e-19 -0.13552058050683852 1.7926569760608317e-20 -0.16566062750804084 -0.1597339291353468
9.513214012885586e-20 -1.585329540074841e-19 -0.02082167121037982 -0.0024956372359608153 1.4972182674874683e-19 -3.625686209846639e-20 -0.1395599507169685 2.1101979464572666e-19
-1.2197945115659222e-19 -0.0981529893389131 -0.10026108819610485 -7.848089282510309e-20 -0.13827074932731168 -1.0918794030886216e-19 -8.581052318855864e-20 -0.10755688486990929
-0.015322066935196632 -5.618804831666839e-20 -0.00024983078874704005 -2.0423560551150642e-19 2.1375441115047391e-19 -0.1509750341514513 -9.350088658491117e-13 1.4383291188006523e-19
-0.10527253808826324 -1.9757906217620387e-19 -0.03199585651220387 -0.0007976194164564317 -0.11680528585710986 1.4218583619796486e-19 2.0704056673119565e-19 -0.15500873085287029
-0.11375552459482152 5.833730701463867e-20 -2.1943008651282275e-19 -0.016259636846244593 -1.4876726286612132e-19 -0.09886332380516924 -0.0895201424332771 -0.08371126641699751
-0.0003461573356022374 -3.372368645951558e-20 -1.0286720863664943e-19 -0.14610941639319744 1.597164445486932e-19 -1.6607983430216045e-05 -1.4029176791332926e-19 -0.0001519999182508479
1.3118572235615327e-19 -0.11389055442587841 -0.017147358124396023 9.901325651583907e-20 -1.0880569200021488e-20 -0.09974231632486771 -0.13127551802891252 -2.7052655667922748e-05
6.183784629704823e-20 -0.11227592095886198 -0.014706643966666886 1.5380736590087755e-19 -1.1415659325679023e-19 -0.11699459076594318 -0.06738602316699646 -1.743596895722122e-19
-1.5627413907761869e-19 -1.2915380447317951e-08 -0.12562646688117865 1.838607037384444e-20 6.294069220948698e-20 1.5572240955330088e-19 2.289539287609469e-19 -1.2959717675695127e-19
-0.008943827837026526 -0.11094111219092756 -0.1837388392222306 -0.14089906860811266 1.595074129013567e-19 -0.03980142270494496 2.7611668161398066e-19 -0.0031753548171963727
-0.014279457396489436 1.1055825852122685e-19 -0.16421811960383734 -0.13851593146097899 -3.3508323168087065e-20 -0.12591180274946392 3.0542938762644206e-20 2.720361208512712e-20
-0.12611653778299314 -0.15734478483148048 -1.2918115379274973e-19 -0.12713173840345743 -0.13186994170175895 -1.2741168681273727e-17 5.733191108105448e-20 -0.006545801471027652
-0.23569603772628453 -0.26429532645281295 2.9750099815030597e-19 -0.30333282277442813 -0.2633567307613748 -0.30807123545976334 -0.2876126192924982 -0.18395030154623274
1.5922610503149124e-19 -0.2692376183634753 -0.2705170332110977 0.011798320162803301 -0.24052553235333876 -0.2188609049723905 -0.2864973366433241 -0.2448789772421552
00000000: 9163 2893 3c0c d03d 0c3c bec9 8fa2 043c
00000010: 7792 6981 82e7 ddbc 1665 f556 ea12 013c
00000020: 9e19 fbf5 64cb a2bf 9cc0 5197 f826 02bc
00000030: d5e7 2dd5 5722 90bf 60a7 45ba c71d ffbb
00000040: 45c6 5533 bf11 61bf ce91 c2e1 53af 25bf
00000050: e476 c159 ad6a e53b bfd7 320d 8005 08bc
00000060: 5ad7 5af4 cbee d4be c5b8 2442 cc4c 68bf
00000070: 1826 ed87 a75b fdbb a0dd f063 8808 c8bb
00000080: c345 9a11 b1c6 89bc 7272 ee3a 4852 d3be
00000090: c8dd 84ed c995 dfbb f0e7 095e c51d f8bb
000000a0: a304 b370 11be 93be 7a01 cb7e b6bb 00bc
000000b0: c485 f956 01e6 0f3c f82d 2b68 4905 2abe
000000c0: 70f9 e4f4 e84e 04bc 645c e4dc 3a91 f83b
000000d0: 476c 2067 520c 20bd 0006 7adf daf0 fe3b
000000e0: 20a6 e2e0 09af 65bc 5b75 e7b9 7856 023c
000000f0: 5208 07fb 169b 77bf a065 82ee d1a9 ea3b
00000100: 8855 3e05 d1e9 ec3b b52c f864 d11d 32bf
00000110: 8099 14a2 56d1 d0bb 62c6 4095 d8cf 9bbf
00000120: a4ba 661b f5b3 fd3b 142e 4a8c 88ab f53c
00000130: 05f2 1c72 ca06 e0be a8d0 b0a4 7a76 f13b
00000140: 68dc 7089 d245 cbbe 2ad0 9ebb 8d32 043c
00000150: 4c7b 5583 98b8 12bc 38cf 084a 84e8 11bc
00000160: bc7e d244 6747 ed3b d6e9 eb10 05cf 01bc
00000170: 4937 d0d9 4d94 11bc 340b 95c1 e206 283c
00000180: f43b 5282 f428 4dbf 2e74 a9d7 c74e 03bc
00000190: 4361 e36a e6a6 4b3d 7043 a176 f4c3 103c
000001a0: 3781 e211 a25c f3be 9a3a 9364 3e49 13bc
000001b0: a13f 7f20 cce1 02bf cdcf 6d8c ef1a 8cbf
000001c0: 6f80 0c67 2c4d 32bf 6e3a a4e2 ad88 a0bf
000001d0: 86f4 0a60 e0cc f8bb 8cb7 9a4b d3a5 fd3b
000001e0: 244d 2f38 d63c af3d 4a8f 57d6 7cd7 67bf
000001f0: 19ad d25b bd87 0f3c 7ccd c04f 3bdd 04bc
00000200: e6da 82ab f7a5 04bc 7fa0 3f0c 5082 03bc
00000210: 8b96 8f0c f548 fb3c e8e7 8993 ea9f b4bf
00000220: d425 248c da57 ebbe f0ec 6b64 f4b3 0e3c
00000230: 104d 1246 535a 22bf 900c d8c7 eea8 02bc
00000240: d1cd 3bd5 f926 453d 8036 f54a 5164 f7bb
00000250: c4dd 8bb0 db64 153c 7ea4 38a7 f3c2 fa3b
00000260: f0df 5c97 f093 de3b 17a2 1b6d 8725 79bd
00000270: 3914 9e1d 8d98 48bf 82bb a49a b4be 143c
00000280: 4cdf 9982 4f56 a9be 80e6 bf26 bcab a13b
00000290: c0c8 86db 872d f4bb d870 d07d 9be5 efbb
000002a0: a873 6e9f 4576 e93b 2c50 73d9 4133 90bf
000002b0: 7897 98b5 dd78 f6bb f619 7f8d 8f58 91be
000002c0: 65e5 7893 3a1a 10bc 4037 1fa2 af12 b33b
000002d0: 656c a873 7623 80bf f67a c3aa 806a a0bf
000002e0: e336 700e 99bd 04bc 0e3e 2f08 6ea8 003c
000002f0: ca84 ded0 5356 78bf 01fd 1104 476c 813c
00000300: 28ff c1f5 8946 013c fc7c e385 669e e53b
00000310: f8ae 9220 424e 55bf 9bdb 60c7 aeb5 05bc
00000320: 6607 4633 4c67 59bf a3ae 3927 6013 4abe
00000330: 7398 a68c 40af 15bf 6cd5 2e2f 43e9 003c
00000340: 58e9 9577 760f 103c ece9 5b82 c973 0ebf
00000350: 5ad1 a711 b915 f1bb 4934 23ee 2dd1 8cbf
00000360: b6a2 0f56 eba5 0dbc d313 c617 f1c3 82bf
00000370: 24d2 a974 3144 6e3c b0e3 47d7 344c e53b
00000380: b5a8 e673 cb18 61bf acd8 8420 082e fe3b
00000390: 5c4d eb46 c6f4 97bf fff1 9469 d0a7 05bc
000003a0: 02b5 38f3 4e66 79bf 98e6 3c8e b1c5 db3b
000003b0: 3f29 0022 8e9f 07bc 419d 7e1d 6861 03bc
000003c0: b5eb baa6 066e bdbf 358d 04fd c8a7 bcbf
000003d0: 58ef dc38 6a6c e43b 627a 94f1 b7a8 46bf
000003e0: 1d3b e42a 31a6 c7bf ab94 af8a af74 bfbf
000003f0: 5689 84c1 7dfe c2bf 9d4e a40e f1a9 01bc
00000400: ca95 110e 355b 12bc ca1a d193 7225 c1bf
00000410: ae4d ed62 0f3b 023c 6dc2 2c01 ebcb 09bc
00000420: a497 d623 c171 b0bf 5222 8ed4 6e8c c0bf
00000430: 871d 391c 4155 f3bb fcb4 d05b 6d72 e93b
00000440: 781b a9c4 5d76 01bc 003a 143f 8527 033c
00000450: e9dc c47b 3fd7 90bc fee2 e096 2b00 003c
00000460: 7a1c 9b06 bd58 c1bf 0046 9427 f929 d53b
00000470: 3ae1 b010 5e34 c5bf a954 d950 2972 c4bf
00000480: 1557 2735 fb13 fc3b 50c5 9fa6 3465 07bc
00000490: 632a 96b3 4652 95bf 20ca f409 bb71 64bf
000004a0: 6fa8 2ca8 5418 063c b006 536a fb66 e5bb
000004b0: 8193 14b8 19dd c1bf b858 bf39 1a24 0f3c
000004c0: 0215 1ddd 4000 02bc d51b 37e7 8d20 b9bf
000004d0: a417 ddee b5aa b9bf 7430 303e d929 f7bb
000004e0: 0157 2d1d dbb2 c1bf 4a1b 3bf6 001d 00bc
000004f0: f0df c9e9 a853 f9bb 6dd4 f916 d988 bbbf
00000500: ad7c 2603 2d61 8fbf 0647 f6ea 7295 f0bb
00000510: 8c2d 3411 775f 30bf 8951 0593 cd23 0ebc
00000520: 3d2a 46d0 698b 0f3c 20b3 1861 2653 c3bf
00000530: 5159 14d4 e772 70bd 5bab 2a91 da39 053c
00000540: 8b89 411c 24f3 babf 0619 fc6f 5328 0dbc
00000550: 27a4 a7ca c261 a0bf 4485 77a7 ea22 4abf
00000560: 8497 c182 f3e6 bdbf c426 4c07 a1fb 043c
00000570: 4c32 a07e c58d 0e3c 01c4 cd7a 53d7 c3bf
00000580: d8c3 df01 151f bdbf 22ce 8ca0 d737 f13b
00000590: 2c07 ebc9 ea30 10bc af71 ffc1 5da6 90bf
000005a0: 5546 79ae 44f4 05bc 0e5e 8456 1b4f b9bf
000005b0: 488d 15c4 caea b6bf e557 91ff 196e b5bf
000005c0: cddc 886f 8eaf 36bf 88a0 eced 2de8 e3bb
000005d0: 180d 3431 6d5c febb 65f1 859e b6b3 c2bf
000005e0: 1e3c 47ab ea91 073c 44b2 53ee 2b6a f1be
000005f0: a534 5db9 12b4 04bc aa5b 135b 45ec 23bf
00000600: 6613 9374 0e5c 033c d31b 956e ee27 bdbf
00000610: 98a6 6db9 138f 91bf e4da a4ea 3a39 fd3b
00000620: 30db 6988 e6b0 c9bb 0681 a462 b688 b9bf
00000630: ba8d 59dc a2cd c0bf 7170 8157 e45d fcbe
00000640: 3146 7fe7 5540 f23b 2187 a560 1dbe bcbf
00000650: c54b f756 841e 8ebf 9ae2 2b91 adb2 063c
00000660: 70fd 14d3 b6d8 00bc 960c 2685 5bf3 bdbf
00000670: 0eb2 b5dd 3540 b1bf 49e9 ea71 1fbb 09bc
00000680: 52f2 bcbb de0f 07bc 2122 8f34 4ebc 4bbe
00000690: e122 622f 8714 c0bf 30f8 e44a d9b4 d53b
000006a0: ec22 f20b aa93 f23b 309d 99bb 06fb 063c
000006b0: 3d9b 9043 d1e4 103c a7ea 2bfc 0a20 03bc
000006c0: 4419 7d40 2451 82bf 9c53 a400 a366 bcbf
000006d0: 2a74 bb18 c184 c7bf d1b6 da0d fb08 c2bf
000006e0: e0a0 fc09 058a 073c b73a b421 da60 a4bf
000006f0: 543f af57 b25f 143c 634d faa2 3303 6abf
00000700: 592d 2e54 8c3e 8dbf 7c4f cbdd c550 003c
00000710: ebf6 8d6e 1905 c5bf f1c8 ccd9 e3ba c1bf
00000720: 8855 3177 a2c7 e3bb 09a3 7ec1 e01d c0bf
00000730: 6466 7eb6 8407 e23b b42c e8c4 e40e e03b
00000740: 48a0 a132 9624 c0bf 1310 86b8 df23 c4bf
00000750: f7c6 3375 5310 03bc 32fd 5c51 da45 c0bf
00000760: 159d 773f 1de1 c0bf 84b3 4ef9 0e61 6dbc
00000770: 5421 0671 e0eb f03b 6121 e833 c5cf 7abf
00000780: eb63 eaaa 492b cebf 306e e6f1 36ea d0bf
00000790: e56e 568d a2f3 153c 6da6 6712 ce69 d3bf
000007a0: 1e4d 7330 d6da d0bf fad4 486a 70b7 d3bf
000007b0: adcd 71c2 3e68 d2bf 017e 9df8 ae8b c7bf
000007c0: 2496 6f65 647f 073c ed56 6e6b 303b d1bf
000007d0: 5fc4 a9ac 2650 d1bf 61cf f9b9 b729 883f
000007e0: 15c1 a767 8ac9 cebf 5b5c 9d56 a203 ccbf
000007f0: 288c d1ec f855 d2bf 73d2 5dbf 3158 cfbf

bias f8 [120]
-0.041927560372508894 -0.18346140914690617 -0.25132756865205835 -0.4737050870359081 -0.11767231850948812 -0.33358865230655055 -0.308707676805408 -0.4769398112420848
-0.6229366084187447 -0.2293331863316352 -0.572588417140335 -0.34532849135632454 -0.6347917331516247 -0.6706650890372123 -0.12151301038017381 -1.2909815166695258
-0.11842818660904579 -0.16519988731684485 -0.6971946190673611 -0.09499909911678588 -0.44221560786451614 -0.6103953966817016 -0.07205668783922867 -0.2900978289437877
-0.24793779129486304 -0.03718267443289289 -0.23671016163975023 -0.007727690873569103 -0.47625201295519914 -0.024844828549422184 -0.09068454508981505 -0.22767803434457992
-0.17175498881409926 -0.6576413456330994 -0.18977946404530224 -0.7811809958453507 -0.0944681166606819 -0.24897932338532985 -0.18069149975132462 -0.23476128695048282
-0.27924666352962296 -0.2124591924619396 -0.1807127123409946 -0.736784323341892 -0.40611707675083497 -0.09533371923339928 -0.2601298338139177 -0.8473995643833242
-0.2864377980580475 -0.20022826916033412 -0.17442155708033694 -0.5566535989502781 -0.44614330634292815 -0.12080775193612311 -0.1641939117534377 -0.1430007052522982
-0.26242987151456837 -0.6754717736410482 -0.39225130062808017 -0.2589721079682087 -0.14186327629160622 -0.2776870100264839 -0.35626191510729427 -0.3340456629269365
40.09147807479049 -0.17111973437669137 -0.18674569378669895 -0.31698543138217405 -0.20295896719717685 -0.19858496779552925 -0.09059915750130285 -0.020088012760102143
-0.7575572371357555 -0.19075599540690916 -0.7284457886407935 -0.5367127002914106 -0.22691739382221032 -0.23411632448206648 -0.20753870492805715 -0.1700835215721628
-0.2571606795058485 -0.7321150625660152 -0.4606966489541568 -0.6863029987995017 -0.2278217935025419 -0.17783546551496765 -0.40161654745345154 -0.03944904100833407
-0.2082749062665017 -0.22304795439645875 -0.07288343129542331 -0.5021522944918927 -0.20739289104590214 -0.18186708086510614 -0.6743660337418574 -0.030107280805224866
-0.19206556043104395 40.68653123569118 -0.6599468781305211 -0.23705844152581257 -0.1788926392348759 -0.6251580781871717 -0.056577945206733996 -0.22734716989099074
-0.9386462658893328 -0.6149207810478989 -0.22923207743036908 -0.162700219413974 -0.24229833335877377 -0.23164427588044142 45.99471815183913 -0.4507901526568482
-0.18631966400593422 -0.431339237320193 -0.0967417025682707 -1.258769934485025 -0.4280333626776716 -0.23885760191582966 -0.42401033090683216 -0.3845206478151474
00000000: 21b5 3379 8777 a5bf c698 2ed8 a97b c7bf
00000010: fb66 fc39 c015 d0bf e027 3124 2f51 debf
00000020: 108b a4e7 c51f bebf 5c4b fe37 8459 d5bf
00000030: bcd0 f9d7 ddc1 d3bf 9f7d dc8e 2e86 debf
00000040: 2678 14c1 18ef e3bf c746 9733 ca5a cdbf
00000050: e6f4 b5f1 a452 e2bf db27 30ac dc19 d6bf
00000060: 5109 b5c0 3650 e4bf ec7a ffa1 1676 e5bf
00000070: 2011 9f05 7a1b bfbf a260 1d3c dca7 f4bf
00000080: 6312 6944 4f51 bebf f313 aa18 4525 c5bf
00000090: 85ed fa16 6b4f e6bf 9b26 db67 dc51 b8bf
000000a0: 51c4 63b1 424d dcbf 330f 4ced 5b88 e3bf
000000b0: e641 ba9d 4e72 b2bf 2111 fd7b f690 d2bf
000000c0: 88e6 86f0 6cbc cfbf dc8c 5585 9b09 a3bf
000000d0: 28d2 6fc1 844c cebf 3290 3539 12a7 7fbf
000000e0: eefd 12b9 e97a debf 67c3 6038 ec70 99bf
000000f0: 20d4 6933 1a37 b7bf 4986 c3c7 8d24 cdbf
00000100: c9d1 f045 11fc c5bf 24bb ffdc 650b e5bf
00000110: 1d74 c387 b14a c8bf 2533 ad49 6fff e8bf
00000120: f984 92ff 0f2f b8bf 4efc a8f1 8dde cfbf
00000130: cd6e 0c29 e620 c7bf 64db e868 a80c cebf
00000140: 411e d865 2ddf d1bf 9de6 ade1 dc31 cbbf
00000150: 77ee bc1a 9821 c7bf 70af 9eb7 bc93 e7bf
00000160: 3e7c bf7a d2fd d9bf 4841 5066 ca67 b8bf
00000170: d375 3c9a f7a5 d0bf 0779 f5b0 e51d ebbf
00000180: 20d8 bf33 ff54 d2bf 01a0 e375 14a1 c9bf
00000190: 1950 b011 7253 c6bf 0c26 5635 1bd0 e1bf
000001a0: b19e 84a7 9c8d dcbf f63e abbf 41ed bebf
000001b0: 3177 975c 4e04 c5bf 0289 2edc d84d c2bf
000001c0: e581 e9a8 a6cb d0bf f119 25fb 769d e5bf
000001d0: 59b5 0033 a51a d9bf 422d 93bf ff92 d0bf
000001e0: 9c82 166a 9328 c2bf 109e a5bc 9fc5 d1bf
000001f0: d78d 8cc6 fecc d6bf c613 690f 0161 d5bf
00000200: 5ac3 b58d b50b 4440 6c8e 6c5f 40e7 c5bf
00000210: 31c9 bd6b 48e7 c7bf ac12 4643 7d49 d4bf
00000220: 135a 4537 8ffa c9bf 7c5a 1473 3b6b c9bf
00000230: 4664 83a2 8131 b7bf 7294 62b7 f391 94bf
00000240: f613 cbac e83d e8bf e1f0 e444 b16a c8bf
00000250: 59e0 e38a 6d4f e7bf c32e e31c c02c e1bf
00000260: b412 ae10 a10b cdbf 061b 8e12 86f7 cdbf
00000270: 4cfc 28d7 a090 cabf 71d7 5efd 4bc5 c5bf
00000280: 4bdd 1211 5275 d0bf 3329 5491 7c6d e7bf
00000290: 23a2 28cc 0d7c ddbf e4b2 dfb4 31f6 e5bf
000002a0: ee69 34b8 4329 cdbf 1855 3a02 50c3 c6bf
000002b0: 9614 36e4 15b4 d9bf 178d fa29 aa32 a4bf
000002c0: d0fc 7e8b c0a8 cabf 5847 c9da d58c ccbf
000002d0: f987 d511 7da8 b2bf 7f87 4eb0 a111 e0bf
000002e0: 7686 3baa d98b cabf 5f6e 44a6 6b47 c7bf
000002f0: 598b 8e13 6894 e5bf 663f b869 71d4 9ebf
00000300: 989f 5eb2 9a95 c8bf f07c 6a41 e057 4440
00000310: 525f 55ea 481e e5bf 400b cc56 ee57 cebf
00000320: 3d24 8139 f4e5 c6bf 949c 9483 4b01 e4bf
00000330: 72f4 acd0 c8f7 acbf 168e c249 b619 cdbf
00000340: 053b d0e4 6309 eebf 7868 8758 6ead e3bf
00000350: 37f8 e009 7a57 cdbf 7aaf b75c 5cd3 c4bf
00000360: ce5b d3bc a103 cfbf 0326 9b06 85a6 cdbf
00000370: 7d71 a5ec 52ff 4640 da47 c1f0 bed9 dcbf
00000380: cbeb c09f 52d9 c7bf 5d65 71e3 0f9b dbbf
00000390: 34a9 b070 10c4 b8bf e6d1 5cf1 eb23 f4bf
000003a0: 590a 930b e664 dbbf a692 50ca e292 cebf
000003b0: 884d 1a3a fc22 dbbf be2d c07d fc9b d8bf

weight f8 [120, 120]
1.941394552509439e-20 2.70885442296403e-19 -2.7805465557123895e-20 -0.2294431002500322 7.950958783415698e-06 -5.9790273419999534e-05 3.395813061210478e-20 -0.2443994588433651
1.5972353530291564e-19 -0.15581370590761168 -1.4535645887622472e-19 -0.003061018347487466 -0.1944223137725006 -1.7630866628606034e-19 -2.0702936286995288e-19 1.3189115282217799e-19
-2.262085429794348e-19 1.023899949118147e-19 -4.921135947362982e-20 -4.4021403410464443e-20 -0.15101421201436563 -0.2119982146585148 -2.5062814201914544e-19 2.636005880159073e-19
1.322768812533842e-19 1.8123292843371555e-19 8.572706372454958e-20 -0.18093031600856838 -0.18318740072289336 1.7549958075907102e-19 1.352236182865869e-19 -1.2282162051356044e-19
-0.386932416917586 -1.0779852174573343e-19 -1.702778627241465e-19 1.4172020098741593e-19 0.007630128921269202 6.374035246786277e-20 -1.687376394654573e-20 -0.14946621715299863
5.060224911732816e-20 2.4001727227214045e-19 -0.17936586628862403 8.147934064719758e-20 -0.22330777709838576 1.4619750295027414e-19 -7.084776880932655e-20 -0.18852511182786982
0.05355467733850188 1.7593758167198993e-19 -0.18095968393951306 -0.19992753059192542 -0.15619737971600417 -1.769662933244195e-19 -1.2316383568949325e-19 -2.40341273797562e-19
7.967101125173538e-20 8.540051770229934e-20 1.183464891398285e-12 0.02727044548336154 -2.13872416276914e-19 7.085123507498213e-20 -0.24347695169510344 1.45856430705291e-19
-9.55237469226115e-20 0.22216575319545515 4.857583050342873e-20 -0.22398394465328608 0.21046735431328142 0.04640501816798127 -0.24211784763376437 1.948338602368481e-19
-0.2899216524658563 4.5607010387361814e-20 -1.6687380971288738e-20 -1.6659311610508001e-19 -1.143954917079896e-19 -2.1804434542109155e-19 -1.197467841334298e-19 -2.0584446945031515e-19
0.2776881890546616 2.1168275411238895e-20 -0.018855106665891443 7.018439618353436e-20 9.517897119453193e-21 -0.1729480146835812 -1.1019045380697258e-19 1.5619980073080413e-19
2.4294108357245498e-20 -1.3457787628704545e-19 -2.6206567548641795e-19 0.12582949056866077 -1.105471146901065e-05 8.361125673240759e-20 -1.2897076867799327e-19 -2.844662792808e-20
1.3948265311209833e-19 -0.2847335853824506 -0.20339006172978366 1.3515158647820637e-19 2.5480058375439637e-20 1.5818859007192566e-19 2.187297576697137e-19 -6.461825315782193e-20
-0.2842842880577483 6.122246683053434e-20 8.653918123405543e-20 -2.5301374275357717e-19 -1.4153878814423025e-19 0.09399001318150994 -2.3891077966257046e-19 -0.1813676738850904
-1.150735179351073e-19 -0.2548531692376642 -9.034061886476506e-20 1.4755972133289545e-19 -0.0034780025583764653 -1.3129467084904077e-19 -0.1420079630364461 -1.4733974163501566e-14
1.6227752194452805e-09 -2.49614630717956e-19 -0.28677376209961514 6.621255444807876e-06 -9.280963379563757e-20 -0.23461249393334407 1.2438563503767038e-19 9.295380251093602e-09
-0.2698682722746467 -0.4001414873240782 -0.2100118815948136 -0.22432216847647243 -0.24651216650731916 -0.2713887023544155 1.5830947763606237e-06 -1.3496517110195997e-19
1.4667214763627044e-15 -2.4226417618347543e-20 -0.15483280745131672 2.2126840012343807e-05 -0.2876985442891858 -0.23519329329637684 -0.3122424402606443 9.632698831021545e-20
1.3414662016622455e-19 7.670134705230207e-14 1.8045806854972532e-19 -0.23488012482961854 -0.3124898112719279 -1.6588659705936537e-13 2.9198465528197013e-05 1.7914613312793615e-19
1.6749368082551844e-19 -0.20057940387128667 8.459125166765365e-06 -0.14732892323469543 -0.26998021308301556 1.4289145266417476e-19 -2.1333003345506347e-19 -0.22253241866777376
-0.15285152523507678 1.3269141990569118e-19 -0.24020631974324647 -0.2717005747565598 -0.10597452259610322 0.0001423532404196024 2.6647613788607437e-19 -0.15017047162320993
-0.16132843452305667 6.412810545630597e-20 -0.26956957271777265 -0.13025692582005705 -0.23962006248004397 -0.21324483328585006 -0.2869001171403931 -0.22456449874653361
2.415689557656571e-19 -0.17486135496743013 -0.007040805071399627 -1.5555365711164708e-19 -0.24283128972536192 1.3027447697600226e-19 0.0008201821235380704 -0.26289967991687635
2.367420730751005e-09 -0.22695047825823336 -0.24831890396350836 -0.18034446929859066 -0.17742436117022453 -0.2643420901055239 -0.3296006960751403 3.879399081670579e-07
-0.3110023907860587 1.0383847846445356e-19 -0.16572106366618078 -0.30681382504270394 -1.1372243163235448e-13 -0.27876211051363287 -0.23393756520118536 -0.26373830229562006
-0.21894004435096717 -0.17381260496358247 8.155962892107173e-05 -0.1887774118022107 -0.18988459116698236 -0.2695339838662776 -0.1682813763932992 -1.5751428197160242e-13
-1.7273260995447777e-19 -1.5145360228609146e-19 -0.2457754196451857 -0.3038318651039534 1.0637790632537025e-19 -0.2730317510953219 -0.29362114836173503 5.3439745436117175e-19
-0.28660786604250565 -2.773923393966552e-19 -0.10162382251219353 -0.2718850463762517 1.382109243449936e-19 -0.2894876277421088 6.51024019532474e-17 -1.8314416028943469e-16
-0.38578692318916563 -0.14899023807765738 1.0725496787374249e-19 -2.4269347543304155e-19 -0.2766399924058709 -0.24894830148993524 7.553456839510014e-13 -0.2949215343266734
1.4801834829640018e-19 -0.24506977059950955 7.837842344631202e-20 -0.2218451621396918 -0.26841971389240477 -0.2916586084277508 -0.2504337393579218 -0.27844399710452133
0.002399281351451297 -1.8003832973962398e-19 -0.2971519902518937 0.16719288064687357 0.1412049966453609 -0.2863517267326243 0.24877596548391778 0.2532853721339669
-0.25964074662672987 -0.1585139084945765 -0.14823792457782545 -0.2739776671083292 -0.09119184033143972 -0.2899549791277586 0.008092822334119353 -0.011786307625200831
00000000: 78bc c647 81eb d63b fa07 149f e1fc 133c
00000010: 183a fed8 d769 e0bb 43f1 ee39 645e cdbf
00000020: 4e75 4c74 a3ac e03e 5158 d326 ea58 0fbf
00000030: 6020 5a8c 9b0b e43b 9038 7241 7b48 cfbf
00000040: 6ca8 223f 2f92 073c 0025 9219 b4f1 c3bf
00000050: 84bf d268 6973 05bc 9bbd 3cb6 6b13 69bf
00000060: 3bfd a193 d4e2 c8bf 437b 89ca c004 0abc
00000070: 5a7b 3523 598d 0ebc dde9 cff5 b476 033c
00000080: 8f28 9564 f5b0 10bc c753 4b89 5e38 fe3b
00000090: 8896 3d42 9c0c edbb 1c54 f08e 53fc e9bb
000000a0: d19c ea06 6f54 c3bf 0d65 62eb c122 cbbf
000000b0: f629 fa53 3b7e 12bc 43b8 483a 4673 133c
000000c0: da95 267f 4785 033c 440f 1755 c9be 0a3c
000000d0: 9c3a 8a92 5a4d f93b b54d 0e7f b928 c7bf
000000e0: 0271 924b af72 c7bf fe84 cccb 2fe6 093c
000000f0: 2f03 ab96 9af4 033c 6582 72d3 1120 02bc
00000100: d716 1b2f 80c3 d8bf e0b1 faa8 06d1 ffbb
00000110: 14ec 2370 ea20 09bc e114 5bae 09ea 043c
00000120: d3d8 e522 c540 7f3f 28a5 c0b9 15d0 f23b
00000130: e8ca 0b40 c8eb d3bb 12b5 4381 b521 c3bf
00000140: 78f5 14b2 cbde ed3b f53a 774f ccb5 113c
00000150: 8b3a ddf0 75f5 c6bf d19e a5a8 670c f83b
00000160: 3f3e ca67 5995 ccbf 4564 177d 2f93 053c
00000170: 40f9 cf26 1be9 f4bb bd41 e342 9721 c8bf
00000180: 07f3 6ec7 846b ab3f c099 88e1 bbf6 093c
00000190: 0e15 35da af29 c7bf 962e bbae 3997 c9bf
000001a0: e2f1 cc96 46fe c3bf c26e 38f8 981d 0abc
000001b0: 3c19 2f87 ff2c 02bc 3046 ed15 ebbb 11bc
000001c0: 680d 327b c583 f73b 0d1f f540 ae34 f93b
000001d0: f5ac 8c1f dad1 743d 9d59 fe9d c8ec 9b3f
000001e0: 8cd8 d016 df8f 0fbc 65b6 ed32 5ee9 f43b
000001f0: 611c 6eb4 402a cfbf ca5a 1dd7 4c86 053c
00000200: 7a7f 12fc 9131 fcbb 0b02 226a ed6f cc3f
00000210: 2883 2c6c 92ac ec3b 48b6 8e82 81ab ccbf
00000220: 235a d321 98f0 ca3f 31b4 cd06 66c2 a73f
00000230: feb5 aeb6 b7fd cebf 0003 3179 9dc0 0c3c
00000240: 748f ef8b 138e d2bf 004f d8c1 efeb ea3b
00000250: 18f7 e190 73b3 d3bb 763f 64c1 b595 08bc
00000260: ab84 ff4e bde1 00bc c25a 89c1 bd16 10bc
00000270: 3e12 4fd5 e7ab 01bc 3d2d 328d 9560 0ebc
00000280: 476a 9eae a4c5 d13f f069 1bfb b7fd d83b
00000290: ea6a f8c9 c04e 93bf 93b6 aca8 fbb6 f43b
000002a0: 4015 e33d 3779 c63b 9baf 7c19 2923 c6bf
000002b0: 36ea 6dad e042 00bc 83f7 e7c6 0f0d 073c
000002c0: a049 4497 71ae dc3b 565b ea5a 35dc 03bc
000002d0: be64 9bd8 4756 13bc c0af 6e45 2e1b c03f
000002e0: a70c a9f9 f32e e7be 4eac c6e9 7cad f83b
000002f0: f346 e3bc 6008 03bc dcff 8e9d bbca e0bb
00000300: 1a7d 2572 8195 043c b796 5237 1339 d2bf
00000310: dffc ba7f af08 cabf a872 8cf0 e1f1 033c
00000320: d0e7 7507 e014 de3b 8af7 d02a 3258 073c
00000330: 6a72 cd34 b023 103c 7036 69cb 6a12 f3bb
00000340: 0861 feb9 b631 d2bf 022e f9bb d611 f23b
00000350: 229c aa35 b78a f93b 07e4 a462 4bab 12bc
00000360: 0a4e e929 2fe3 04bc c3e3 c3c0 ba0f b83f
00000370: 1c10 f6a3 e5a0 11bc d6ab f151 0e37 c7bf
00000380: 0668 a0c6 5afb 00bc 1a18 caaa 834f d0bf
00000390: bde8 10b5 f1a9 fabb dd93 720e a6c6 053c
000003a0: c3d3 cb67 e67d 6cbf f546 fa23 2c60 03bc
000003b0: afad 8122 512d c2bf e82a ff66 c796 10bd
000003c0: 4e0f e977 0ae1 1b3e 58d7 c149 166b 12bc
000003d0: 1866 6456 805a d2bf b2d8 87d6 84c5 db3e
000003e0: 8c00 d466 7f64 fbbb 799e 563e c807 cebf
000003f0: dca2 d90b 285b 023c 6dde 4778 30f6 433e
00000400: ca72 e992 8545 d1bf 0b1a 750a eb9b d9bf
00000410: 9a4e 9c59 abe1 cabf 77e7 afbc 96b6 ccbf
00000420: 8286 9bee b58d cfbf 106e 47b8 6e5e d1bf
00000430: e28e 4e1d 578f ba3e 12a7 6e0a d7ea 03bc
00000440: 8452 bd15 0f6c da3c b01c 0d46 fc99 dcbb
00000450: 6ef6 2cba 8fd1 c3bf 687a 12de a033 f73e
00000460: 0d0c b527 a769 d2bf 1426 7957 d01a cebf
00000470: d0ee 55b7 c7fb d3bf 4c9f c5ee 426e fc3b
00000480: c426 7a80 eacb 033c 1ac0 821e ea96 353d
00000490: 0b8b f058 83a1 0a3c 6dd2 4f4b 8d10 cebf
000004a0: ccc0 ef43 d5ff d3bf 9a89 f4cc b158 47bd
000004b0: 0e94 c845 e79d fe3e e718 2a16 f36f 0a3c
000004c0: b473 a47b bbb7 083c d76d f0fd 95ac c9bf
000004d0: 8ad9 694f 75bd e13e f621 8695 acdb c2bf
000004e0: f08d 7016 5b47 d1bf c59c 0c55 4916 053c
000004f0: 7e02 fe7b 617b 0fbc c92a 3d3a f17b ccbf
00000500: bea1 0387 a390 c3bf f04a 24ab f094 033c
00000510: 587d cba7 14bf cebf a190 b8ce 8a63 d1bf
00000520: 0b6d c274 2521 bbbf 8796 2f06 95a8 223f
00000530: 1672 9a88 97a9 133c 9f29 3938 c938 c3bf
00000540: fc7f 18ff 68a6 c4bf 7a2f 8df5 61ed f23b
00000550: 2373 b4bc a040 d1bf 1ac1 3c4a 42ac c0bf
00000560: 289c e8c5 deab cebf 2f79 8050 9b4b cbbf
00000570: 288a 154f 925c d2bf 58c0 fa8c 87be ccbf
00000580: e035 97ca 1bd3 113c 93ad 755c db61 c6bf
00000590: a987 4eb8 d1d6 7cbf 47a3 caa8 a6f4 06bc
000005a0: 6770 e87f 1815 cfbf 2286 4a6e a139 033c
000005b0: f8af dcb2 2fe0 4a3f 6ccc d72d 59d3 d0bf
000005c0: 9eea dd63 0356 243e 3d20 f798 b60c cdbf
000005d0: 123c c0f1 e9c8 cfbf 3672 d30e 8715 c7bf
000005e0: fcb1 5e6a d7b5 c6bf 9e68 fd15 fbea d0bf
000005f0: 886b 9884 2d18 d5bf 6940 77c2 c108 9a3e
00000600: 0dda 5992 76e7 d3bf 2940 7048 d0a5 fe3b
00000610: b02f 5a0a 5936 c5bf 9838 2174 d6a2 d3bf
00000620: 3cdb be4b 4801 40bd 8847 0109 3dd7 d1bf
00000630: 9c27 ec87 aaf1 cdbf e7fb c39d 16e1 d0bf
00000640: 3dd7 2235 3a06 ccbf 6abf f9ce 7d3f c6bf
00000650: 885a 6cc1 5f61 153f 96fe f4b4 db29 c8bf
00000660: 66cb 8966 234e c8bf b470 7777 0b40 d1bf
00000670: 844a 1180 3e8a c5bf bfc3 e0d2 0c2b 46bd
00000680: 25e4 e74b a77d 09bc 7f58 ba5c c159 06bc
00000690: 2db4 c4a6 9175 cfbf 9daa 0635 fb71 d3bf
000006a0: c260 24f6 af65 ff3b 5756 6e2a 5a79 d1bf
000006b0: dc2a 685b b0ca d2bf 12ac d2c2 3db7 233c
000006c0: 4673 db84 c857 d2bf 7eb8 870b cb77 14bc
000006d0: 8333 2fd2 0404 babf c546 9d89 9066 d1bf
000006e0: c803 3a0a 7665 043c 48ef 6f1d f786 d2bf
000006f0: 6193 8f9a b5c3 923c 9ecb 2bb0 d364 aabc
00000700: 829a 94a2 bbb0 d8bf dabf fbb3 1c12 c3bf
00000710: f09b 92cc f4a7 ff3b e40a 83a2 59e8 11bc
00000720: a487 093a 78b4 d1bf 72a2 a5b6 89dd cfbf
00000730: c9da 9b90 8c93 6a3d d56d 3492 fedf d2bf
00000740: 855c cf9f f9d7 053c 6147 fb3c 725e cfbf
00000750: e6a8 6632 1b22 f73b ba38 151a 6c65 ccbf
00000760: 6540 31e1 c92d d1bf e0d1 32de 88aa d2bf
00000770: 62dd 163c 1b07 d0bf 4736 55c5 06d2 d1bf
00000780: 1542 075e a8a7 633f d842 fbe1 a791 0abc
00000790: 37af 04c8 8904 d3bf 1d4d 4089 9366 c53f
000007a0: 9cd2 4f5d 0113 c23f 6410 5e31 9653 d2bf
000007b0: 5c62 e40d e4d7 cf3f 8bb7 77d9 d335 d03f
000007c0: 0822 de38 f49d d0bf fd00 790a 2f4a c4bf
000007d0: b359 0bd7 75f9 c2bf 3523 04a0 d988 d1bf
000007e0: dbb5 e233 5958 b7bf 26a1 2a54 9f8e d2bf
000007f0: c61d 0f3a f892 803f 40a0 536e 6b23 88bf
