pyTorch/regular/models/swag/ow_0.0_1024_REG_model.pth (torch, 469469 bytes, 10 tensors)

module.model.input.weight f8 [120, 60]
000000 ae bb eb b2 7b 53 cc 3f cc e3 5a 5c 60 5e ad bf
       0.22129770504349494 -0.05736065986042824
000010 83 29 a8 c4 ed 62 ba bf 9f 3f 23 5a a3 d9 b6 bf
       -0.10307203341668551 -0.08925839377047716
000020 1d 4a 0b 09 b1 e4 b8 bf 12 65 87 a5 1c 39 cb 3f
       -0.09723955603411878 0.21268041689362654
000030 c0 ec 33 52 cf 03 b7 3f 13 e1 b9 f1 37 62 90 3f
       0.08990188366799412 0.015999673966207228
000040 92 e6 14 7e f8 ec b3 3f 68 3e 87 5f 7a b0 ba 3f
       0.07783463552632444 0.10425534088357724
000050 11 6d 2a ef d2 40 bd bf e2 a6 c7 78 52 fb b7 bf
       -0.11427038516051292 -0.09367862175681865
000060 dd 8a a0 c9 0b c1 b8 3f 8f d9 64 f4 5e 19 b8 bf
       0.0966956488851269 -0.09413712946557083
000070 00 ad 3a 45 90 c6 b4 3f fe fd 4d 95 c9 a2 b8 bf
       0.08115483942190238 -0.09623393912442421
000080 85 08 1b ce ac be 42 c0 1b 39 e0 45 2d 70 34 c0
       -37.4896485931395 -20.438190810434303
000090 76 0c 36 a3 e2 31 34 c0 09 34 55 de 7d 38 c2 3f
       -20.19486446446941 0.14234898906798346
0000a0 2e fa 95 09 a4 28 3e c0 47 bb 27 e0 7c 3a 40 c0
       -30.158753012767356 -32.456935901069805
0000b0 d7 f0 e9 26 0f cc 3e c0 bb a3 b1 8b d5 93 c1 bf
       -30.79710620128102 -0.13732404061309275
0000c0 10 07 3b 6b 52 69 24 c0 29 b4 ca a3 6b 65 3f c0
       -10.205706931071774 -31.39617370318243
0000d0 aa ea 08 ea 60 f2 3d c0 c2 4c 7d e9 02 9f b9 bf
       -29.94679129331295 -0.10008257103372656
0000e0 fc 49 7c 17 08 e3 21 c0 fa d2 26 33 e3 b5 16 c0
       -8.943421110078809 -5.677624510998379
0000f0 bb 81 69 49 68 77 12 c0 9f d2 34 e2 33 4a b1 3f
       -4.616608759941694 0.06753849289527601
000100 6a e6 19 af 29 e2 21 c0 d4 ed e7 58 ad a2 21 c0
       -8.941724273597362 -8.817728784858367
000110 8b 6a d6 86 40 b9 21 c0 5f cd 31 4d cc 2f 2d c0
       -8.861820424722529 -14.593355572060942
000120 e7 d6 ac 8e 6d b0 21 c0 85 f6 c3 41 81 bc 21 c0
       -8.844585856054847 -8.868173651858578
000130 2a 03 45 3b 38 f9 21 c0 77 c7 57 cf 15 95 41 c0
       -8.986757137464867 -35.16472808633892
000140 67 ed 7a 34 11 d8 21 c0 69 eb 7c fd 91 f6 21 c0
       -8.922006263738423 -8.981582566737147
000150 95 36 a1 76 13 99 21 c0 d2 2d e5 ed 59 86 41 c0
       -8.798976618937823 -35.04961942377453
000160 c7 99 d1 e7 e5 b4 21 c0 3d a0 42 c2 65 be 21 c0
       -8.85331654008486 -8.871870108254479
000170 ec ce 44 7e e6 89 21 c0 02 41 36 1d d7 2d fc bf
       -8.769336648845147 -1.7611914769259447
000180 69 55 f6 59 37 78 21 c0 28 6d 8c 03 c3 87 21 c0
       -8.73479729778292 -8.765159712688344
000190 2c 53 b1 39 2f 97 21 c0 c0 dd 32 38 72 a8 21 c0
       -8.795282175918679 -8.828996425828223
0001a0 64 9f 32 b5 fb e2 21 c0 e4 53 ee b3 78 79 21 c0
       -8.943326628140944 -8.737249014704453
0001b0 c1 e5 0f 4b fd 94 21 c0 47 06 42 74 38 cc 21 c0
       -8.790994973841295 -8.898868210849413
0001c0 76 ad 54 3c 3f b1 21 c0 54 a6 cd e3 10 9a 21 c0
       -8.84618557485258 -8.80091010938046
0001d0 33 4e 2e 57 75 fb 21 c0 5d 15 25 2e e6 ae 21 c0
       -8.99112961235287 -8.8415998859661
0001e0 7b 7a 16 2d 96 01 bf bf bd 17 c1 d5 53 11 bb bf
       -0.1211179599836018 -0.10573314636812277
0001f0 25 2d a6 03 b8 0d a8 3f 55 e3 89 c0 47 b5 c8 3f
       0.046979666181039804 0.1930322351579671
000200 09 96 68 2e 68 e8 b8 3f ec 24 a7 35 9f dc ba 3f
       0.09729624875088673 0.10492892322431019
000210 28 fb 63 84 79 c1 b6 3f 12 8b 19 31 ef c2 97 3f
       0.08888968927565755 0.023204553005039825
000220 cc 23 09 38 49 9c b5 bf 9b cb bd a7 2f e6 b6 bf
       -0.08441598527964728 -0.08944986195801478
000230 85 b2 b2 f0 01 50 c1 3f e7 55 d7 62 2b 66 c2 bf
       0.13525413754304708 -0.14374296499469993
000240 ca 75 e1 d0 07 73 bc 3f d7 d2 eb 2d 48 90 9b bf
       0.11113022660852959 -0.026917579462820775
000250 bf 13 39 db 3f d2 cc bf 87 e1 f8 30 fe c7 9c 3f
       -0.22516630367513632 0.028106662501359316
000260 ea 5e ad 70 15 dd c4 bf 89 7e 30 41 dc 87 9a 3f
       -0.16299694063012932 0.025908891180846303
000270 64 4e 0a 0f 43 7e c8 3f 6d 4d fc a2 65 6a 50 40
       0.1913532088698161 65.66245340956603
000280 29 d0 96 a6 d5 27 ad 3f ce 38 e8 c7 8b d1 a8 bf
       0.05694453867491262 -0.048473709252094474
000290 7f e6 81 b0 5b ad b1 3f b2 81 9b 09 06 b6 49 c0
       0.06905148562682405 -51.42205925076577
0002a0 3a 45 af 83 c0 c3 b8 bf 7a a2 ea f1 71 a7 96 bf
       -0.09673693861920621 -0.022123127355970308
0002b0 99 59 e2 95 dd 3a b8 bf 8a 22 e2 b6 fb 00 4b c0
       -0.09464821728975038 -54.00768171350235
0002c0 a4 74 ba 96 9f f8 e0 bf bd ed 7e 5b 10 d4 4c 40
       -0.5303495353615699 57.656749188401115
0002d0 db 60 ba 85 6e 78 50 40 34 76 52 83 c2 4d 48 c0
       65.88174575043688 -48.60749856497242
0002e0 7f 75 91 7b fc 0d e2 bf dc 63 ff f7 1c ef 49 c0
       -0.5642073071900738 -51.86807155580729
0002f0 79 44 9d 6e af fc 49 c0 04 92 c1 96 96 26 47 c0
       -51.9741037624271 -46.30147060825041
000300 1c 5c 71 a4 80 f1 4d 40 b3 56 93 40 db fc 49 c0
       59.88673835311076 -51.97544104761382
000310 14 0e 9b 23 4c 06 4a c0 0e b3 a4 0f f4 85 49 c0
       -52.04919858046574 -51.04651065389599
000320 8a 66 10 95 40 fd 49 c0 42 9f 84 21 8c e2 49 c0
       -51.97853339482124 -51.76990145660103
000330 ce 3e 83 85 6d ec 49 c0 6c 27 a0 a1 29 7c 47 c0
       -51.847092331967005 -46.97002048797626
000340 60 1d 5c 3d 0f f4 49 c0 7c 3b c7 b4 bf e2 49 c0
       -51.90671507833281 -51.77147540786879
000350 6d 73 68 3b 3a f2 49 c0 94 73 31 6f 25 9c 49 c0
       -51.892402101518066 -51.219892405649404
000360 ab a5 21 aa 05 e6 49 c0 9a 9a b2 95 36 fb 49 c0
       -51.79704786913802 -51.96260329457182
000370 a2 4d ff d6 41 eb 49 c0 06 24 63 d2 a4 f3 49 c0
       -51.83794677225093 -51.9034674629293
000380 32 d8 f7 14 2e f1 49 c0 fd 94 5f c1 d3 fd 49 c0
       -51.884218808191136 -51.98302476088609
000390 c3 59 fa d0 11 ed 49 c0 4d 6e be 2d 5e 01 4a c0
       -51.85210621093895 -52.01068660543806
0003a0 ae c6 94 78 4f f2 49 c0 08 98 fa b0 0b f4 49 c0
       -51.89305026306589 -51.9066067908862
0003b0 11 ab 21 80 92 e8 49 c0 82 38 0b 59 be f8 49 c0
       -51.8169708408733 -51.94330895469558
0003c0 fc 75 cc d6 98 74 ba 3f f9 3e 11 2f cd 5a 73 3f
       0.10334162944896969 0.004725266932908084
0003d0 b4 01 10 5f 0a 2b cc bf 73 ae 41 7d 83 43 b8 3f
       -0.22006349221920873 0.09478017623922046
0003e0 66 8f 0c 46 0d 49 c3 bf 77 51 03 88 6d 5a cc 3f
       -0.15066686554302605 0.22150963917978192
0003f0 f8 9e d2 57 31 20 b3 bf 9e 82 5b 84 3c 81 40 3f
       -0.07470997232541865 0.0005036874287861098
000400 70 7e fe 7d 65 67 cd bf 37 f8 4f 14 d8 a1 b5 3f
       -0.22971790935570224 0.08450079437167878
000410 46 9c 3c 00 3b 7c b6 bf 05 45 7b 41 e4 47 b7 3f
       -0.08783310657291662 0.09094072912855118
000420 69 ba de c1 a6 e1 b6 bf bd 36 6a e2 79 d3 cb bf
       -0.08938066704897953 -0.2173912387410634
000430 d2 57 fb 58 35 82 b9 3f 52 71 6b d1 5b 38 c1 bf
       0.09964307234198991 -0.13453242993899522
000440 0e b7 83 ad 9e db b4 bf aa 2d bd ce f9 04 be 3f
       -0.08147613273805751 0.1172634248479684
000450 bd ad 10 9c 61 a4 b8 3f e7 16 9b 32 8c 63 4c c0
       0.09625825939354278 -56.777715993621136
000460 da 47 d9 0c be 77 b6 bf ee fc 5c d2 fd 04 bd bf
       -0.08776462377252817 -0.11335741411038544
000470 01 9a 34 25 c3 0b 96 bf 96 e8 25 d4 8f a3 4c c0
       -0.021529244561998343 -57.2778268036938
000480 d4 d0 3a ad 7b f0 c1 bf 0a bb 80 25 e6 a4 9f 3f
       -0.14015146215900265 0.030902477301590493
000490 38 68 8c 1f 1d b3 9c bf db df 28 92 4f 08 4e c0
       -0.028027014780583864 -60.06492831226179
0004a0 ee 93 c5 23 d9 51 bb bf dd 7d c9 2c d0 36 4e c0
       -0.1067176544507473 -60.4282279952856
0004b0 b3 a7 70 b5 c9 58 4e c0 8b 59 98 cf f9 dd 4f c0
       -60.69365566254364 -63.734186124219455
0004c0 ed 56 2f 7c f9 e9 c2 3f aa 31 6b cd 7f 45 4e c0
       0.14776533664433292 -60.54296272024233
0004d0 6a 89 58 66 8b 96 4e c0 7f 79 bd dc f9 6b 4f c0
       -61.17612914393506 -62.84356269122781
0004e0 6c dd 7f 89 fc 71 4e c0 4b f1 62 92 52 9a 4b c0
       -60.890519320901916 -55.20564489203624
0004f0 23 5d b9 b1 2c 4b 4e c0 cf cc 06 2b 34 13 4e c0
       -60.5873014597985 -60.15002954322846
000500 35 d0 76 0e 54 73 4e c0 8c 20 c2 61 a2 66 4e c0
       -60.90100270081931 -60.80183050135483
000510 c3 f0 5e 94 b7 68 4e c0 6e 86 7d 72 c1 21 4e c0
       -60.81810240398183 -60.26371604088932
000520 30 ff 7a 89 53 66 4e c0 94 38 af 2e c7 6a 4e c0
       -60.799424347931904 -60.834203563267835
000530 bf 97 6c 98 58 63 4e c0 eb 94 19 95 10 ca 4f c0
       -60.776141217254455 -63.578631055346555
000540 a8 d2 5e 1a f6 7a 4e c0 74 b7 78 18 59 6f 4e c0
       -60.96063546781562 -60.86990648168913
000550 42 37 d4 c7 71 79 4e c0 e4 6c 42 31 95 f3 4c c0
       -60.94878480779745 -57.90299049132753
000560 73 77 4b f8 06 6d 4e c0 a5 65 a6 f4 c0 64 4e c0
       -60.85177520451443 -60.787138539551314
000570 ec 1d 07 4d 76 6f 4e c0 e6 6d 5c 5a a9 1c 4e c0
       -60.8707977566481 -60.22391824257993
000580 c5 48 87 fd a3 74 4e c0 31 04 3e d4 29 6a 4e c0
       -60.91125458818127 -60.829401521951134
000590 48 ce 93 f2 dc 6b 4e c0 50 ea 9e 0e 72 76 4e c0
       -60.842680284663004 -60.925355746837
0005a0 00 f0 62 17 97 72 bb 3f 48 d7 88 2f ae 87 c0 3f
       0.10721725769957402 0.12914063759824956
0005b0 06 8c b3 8c 14 ee bc 3f bf 91 34 f4 1c ec bd bf
       0.11300781664935763 -0.11688405000729228
0005c0 8c 72 20 27 d2 e2 b9 3f e5 3d 85 64 70 3d b0 3f
       0.10111726241343372 0.0634374852572744
0005d0 2f 17 08 ac 40 d9 ca bf a2 b2 66 8f 77 3f a1 bf
       -0.2097550239561143 -0.03368734002592545
0005e0 64 8e ad 16 50 95 b6 3f 88 8d 29 a2 e5 ae 94 3f
       0.08821583322201715 0.020198429129221235
0005f0 c0 13 57 f7 59 b5 b6 bf 13 8c 9b cc 09 b1 ba 3f
       -0.0887047032220627 0.1042638897447861
000600 f5 ca ca 0f 42 2c b9 3f 13 5a 37 6d e5 c1 bf 3f
       0.09833157430220381 0.12405237118159844
000610 36 18 d4 78 96 0c b9 3f 05 a8 76 eb 82 26 c2 3f
       0.09784832429804244 0.14180027482262872
000620 2f 9c d2 f7 fb 03 70 bf cf 21 8b 97 2e bd ba bf
       -0.003910049677108992 -0.10444918823043924
000630 4d 7f a5 0b 27 ce 71 3f a0 d8 b8 fe 8e c7 4e 40
       0.004346992989979826 61.55905136132901
000640 ba 5e de c4 eb 05 d1 bf 6b da a1 b7 1b 6c dc 3f
       -0.26598638749554093 0.4440984051974854
000650 d1 c3 6d 06 b2 e3 de 3f e4 c0 9e 7f 26 3e 47 c0
       0.48264742496308793 -46.48554988147387
000660 1a 9e 13 c9 68 e3 c6 bf 93 ba 05 e9 9c 45 d8 bf
       -0.1788149816340912 -0.379248836098591
000670 19 90 8f f2 13 9b dc bf ca d1 ce 48 cc 8e 4c c0
       -0.4469652050740947 -57.11560926531418
000680 4d 02 1b ff ab 77 e5 bf 92 5e 06 96 59 19 4e 40
       -0.670858381512582 60.19804644881255
000690 8e 83 f0 13 69 22 4e 40 56 76 95 e5 a8 71 47 c0
       60.26883172267763 -46.88796682165109
0006a0 2d bd 63 1b 94 50 92 bf e0 58 a2 44 d7 33 4a c0
       -0.01788550774739155 -52.405006961127356
0006b0 56 b6 fb 68 22 34 4a c0 bc 03 c2 d0 6b b5 49 c0
       -52.40730011263501 -51.417352766736684
0006c0 14 13 a3 9b 89 3c 4e 40 93 fb 1f 86 db ea 49 c0
       60.4729494615805 -51.834824338547286
0006d0 f0 56 98 f7 a0 f2 49 c0 79 47 ac bb 68 1b 4a c0
       -51.89553732813317 -52.214133700485895
0006e0 bd a3 5c 98 c7 f0 49 c0 dc 24 1f 59 aa ef 49 c0
       -51.88109116099756 -51.87238611241057
0006f0 d8 6c 0b 52 d2 ee 49 c0 9d 2c 8c 86 07 26 4a c0
       -51.86579347188825 -52.297104662365406
000700 e3 a8 71 3e de ef 49 c0 61 a9 d0 11 69 eb 49 c0
       -51.87396984624663 -51.839143969426694
000710 5a 3f fd aa 3d ef 49 c0 a7 a7 0b 48 f7 0a 4a c0
       -51.86906945577239 -52.085671430292955
000720 a1 18 1f c3 ca ee 49 c0 a1 cc 0c 3e 4c f5 49 c0
       -51.86556281107301 -51.916389232873605
000730 06 f7 b3 1a 80 f3 49 c0 18 3c 44 1f 03 43 4a c0
       -51.90234693324423 -52.52353277999663
000740 40 8d da 8a ce ec 49 c0 da 2b 80 ca 13 fd 49 c0
       -51.8500531737468 -51.977166473945275
000750 46 86 19 3f cb f1 49 c0 3a f7 d5 f8 83 f6 49 c0
       -51.88901509043039 -51.92590246627374
000760 be c5 53 90 fa eb 49 c0 dc e9 95 d1 98 e8 49 c0
       -51.84358409967852 -51.817163656425436
000770 53 9c e8 e4 34 fc 49 c0 25 e5 b0 c9 39 f7 49 c0
       -51.97036420209829 -51.93145104539352
000780 ac 5f f6 64 bf a6 b2 bf 58 17 c4 6c 8a fd b1 bf
       -0.07285686697866706 -0.07027497439784491
000790 12 dc 95 9c 6a 3f bc bf 90 a9 13 87 bf 2b c2 3f
       -0.11034265826116066 0.1419600877337186
0007a0 8e 28 38 7c 8f 51 be bf 31 9c d2 0d dc ca 97 bf
       -0.11843201430034098 -0.023234785407705686
0007b0 4b c4 97 c0 7e eb b7 3f 73 33 04 d0 0b 70 b7 bf
       0.09343712045644385 -0.09155343845868717
0007c0 03 dd dc 8c 36 d7 b5 bf 59 cf ba 97 3e 13 b9 bf
       -0.08531514109641951 -0.09794989780749343
0007d0 12 12 1f 03 2a d6 80 3f ef d5 65 0d 99 dd bb bf
       0.008220985622650754 -0.10885006501288051
0007e0 15 32 cb 11 29 bf b9 3f cd ad bc f4 77 b2 b6 bf
       0.10057312664429958 -0.08866071438813279
0007f0 7c 2f 37 27 a6 d9 cb bf 44 3f 60 6d 2c a8 b7 bf
       -0.21757962145636245 -0.09240987463294653

module.model.input.bias f8 [120]
000000 58 05 27 9b b2 b7 42 c0 a9 f7 d0 f2 92 ed 49 c0
       -37.43513812451664 -51.85604701236236
000010 9e cc fd 44 f1 64 4e c0 d3 ee b2 45 56 fb 49 c0
       -60.78861296074432 -51.96357032048186
000020 e0 ae aa 38 d8 85 db bf ca 3f 53 3a 07 64 4a c0
       -0.43004422696934164 -52.78147057595159
000030 1e e9 28 cc 43 0e 4d c0 fc 74 31 23 e0 6c 4e c0
       -58.11144401547993 -60.85059013285533
000040 a3 b6 c6 f0 33 62 0e c0 aa 4e 78 db 74 96 4e c0
       -3.7979506312029385 -61.175441201919355
000050 c8 07 0c 83 22 2c 0f c0 15 b5 70 ba bd bc 4a c0
       -3.8965502012297044 -53.47454004767693
000060 fa db 90 00 31 1e 4a c0 68 de f4 ff 82 3c fa 3f
       -52.235870428783485 1.6397733686734686
000070 19 06 c1 44 fa aa 49 c0 34 ee 68 8a 1a 79 f4 3f
       -51.33576259064666 1.2795663267742272
000080 ca 7a ce cb a3 71 4e c0 68 4c dc a2 27 73 d8 bf
       -60.88781116086973 -0.3820284929690332
000090 0f 69 0b 56 31 c5 4c c0 09 f2 22 02 a7 bc d9 bf
       -57.5405681186404 -0.4021394272674859
0000a0 6c a3 25 0f ca 14 da 3f f6 a3 42 b6 a7 cc 06 c0
       0.4075188777847447 -2.8499292601668413
0000b0 81 75 7a 71 b7 6c 08 c0 9d df c7 d3 6b 90 4d c0
       -3.053084265279438 -59.12829062709282
0000c0 ed 5c 23 69 ab 19 d4 3f ce bd 8d 53 de a1 d0 bf
       0.3140667464007965 -0.25987966689623654
0000d0 6f a6 59 3e e4 77 d5 bf 40 60 22 cc e1 d8 fb bf
       -0.33544260109793006 -1.7404497121806486
0000e0 34 74 81 ca 6a e6 4d c0 f1 e4 9b 5d c9 e2 0e c0
       -59.80013400383942 -3.860735637016312
0000f0 11 f6 c1 2e b2 80 4b c0 53 f2 83 cf 5a 75 4b c0
       -55.00543770285379 -54.9168338197966
000100 79 72 43 07 43 32 47 c0 71 19 84 23 75 db d9 bf
       -46.39267054360693 -0.40401962726936974
000110 3c df d4 82 bf 63 4c c0 30 35 90 6a 18 e3 4d c0
       -56.77928195375577 -59.774182625211665
000120 0d 1f b1 b3 4c 3c d3 bf 32 cf d8 15 67 b7 e1 bf
       -0.3005553965381161 -0.5536380221078387
000130 98 88 15 09 29 2f e2 3f a1 04 b2 a2 3b e1 4d c0
       0.56825687193147 -59.75963243191041
000140 a3 3e 38 04 80 52 d5 bf 8d 51 88 da dd e7 4c c0
       -0.33316040432053223 -57.81145793586902
000150 3d e8 06 24 16 b9 d6 bf 73 16 67 0d 23 22 4e c0
       -0.3550467826677311 -60.26669471295909
000160 af e4 f3 e1 46 71 4e c0 67 68 02 4b 10 d3 df bf
       -60.884975666130565 -0.4972573025239683
000170 e1 d3 5a e8 88 ba 4d c0 21 ae ac 67 38 0d 32 c0
       -59.4573030894751 -18.051641921671152
000180 15 ea 7b cd dd f1 fc bf 5c 29 42 f5 fe a1 ea 3f
       -1.8090494181366286 0.8322748937801339
000190 c5 7f 72 ec e3 82 4e c0 65 82 3f e6 c6 97 f2 3f
       -61.02258067694451 1.1620549196305998
0001a0 2f d5 ad ec 56 af 49 c0 c5 d2 63 f1 69 e3 0d c0
       -51.369840226058265 -3.73604191385161
0001b0 20 4d 35 75 e7 c8 e0 3f d7 a0 c6 11 5e e3 4d c0
       0.5245244302008452 -59.77630827139517
0001c0 9d bb 14 7a 9e 9b 4a c0 b3 05 8b 62 ed f7 4b c0
       -53.21577383053157 -55.93693191326329
0001d0 23 e6 77 c7 3e 9d 4a c0 2e 55 4d a0 7b c1 49 c0
       -53.22847836832468 -51.51158527160656
0001e0 d5 20 bc 66 18 e4 06 c0 16 c2 3c c9 5e 31 02 40
       -2.861374666801661 2.274106571356479
0001f0 7f 76 41 84 3e a0 4d c0 cc ff c6 77 4a ab 4c c0
       -59.2519078559535 -57.33821007935293
000200 ae b7 d7 0b 3a a8 4c c0 3a 6c c1 84 ab ef 4d c0
       -57.31427143128472 -59.87242183155509
000210 5c a4 b0 e3 35 f6 4e c0 dd 40 a6 4d 45 40 0e c0
       -61.92351957440471 -3.78138218558898
000220 8b 9b c3 1a 72 df 4e c0 7c 76 ae 73 95 c1 d9 bf
       -61.74566969443466 -0.4024404172613243
000230 67 12 67 06 86 84 3e c0 8d d7 e5 89 69 4d 49 c0
       -30.517670059360537 -50.60478328440431
000240 61 6c 11 05 ec e3 4d c0 51 28 5c e3 14 e0 4d c0
       -59.78064025259733 -59.7506374549854
000250 30 ff e1 d2 10 12 f5 3f 7b 5f e0 e5 a5 2f d3 bf
       1.3169105756387118 -0.29978320549843546
000260 14 de 66 3d 38 81 49 c0 03 2e cf fe 4c 23 4a c0
       -51.00952880404307 -52.27578721157263
000270 75 38 3a 99 a8 f3 4a c0 1a fa 21 6e 9b 90 4a c0
       -53.90358271925735 -53.12974335345298
000280 aa 08 e6 1d 4a 7f 4c c0 97 5b 5d c7 d0 19 0b c0
       -56.9944493649685 -3.3876052451482326
000290 83 07 17 4b 18 1a 32 c0 23 12 ef 44 d0 19 4c c0
       -18.101933186647795 -56.20166837380773
0002a0 ac f5 d3 22 ef 23 4a c0 d4 78 91 63 5d fb 47 c0
       -52.280735352989126 -47.96378750422596
0002b0 9d ba 97 d7 3e f5 31 c0 99 ec 68 74 65 ff 4b c0
       -17.957990145247653 -55.995283652527355
0002c0 9a c6 e5 4f fe 32 dc bf 25 75 81 80 27 d3 cf bf
       -0.44061239054199464 -0.24863141798679425
0002d0 3d c9 f8 1d 83 ea 1d 40 bd f0 e2 45 60 6d 4e c0
       7.479015796956728 -60.85450051861833
0002e0 68 6e 7e 74 1a ec 4b c0 65 0d 03 7b bc bc 4b c0
       -55.84455734418299 -55.47450196885146
0002f0 5d ad d1 63 c2 21 4c c0 e3 21 3b 9c d6 45 4a c0
       -56.26374480951447 -52.545611885903575
000300 9b 49 6f f9 4f 0e 4d c0 2b 9c 7f 92 88 cf e3 bf
       -58.111815623607264 -0.6190836774156926
000310 9d f2 a2 82 d6 fb e8 3f 61 8d df 9a de 29 e0 bf
       0.7807419349188255 -0.5051110291355309
000320 e3 d1 d1 13 74 17 32 c0 f7 a0 7c c3 c8 67 cc bf
       -18.091614950871996 -0.2219172434354346
000330 e6 36 87 9e 2c 2e 32 c0 d8 28 55 05 0d 7f 4e c0
       -18.18036833573469 -60.99258486421758
000340 82 33 65 f2 a0 9b f3 bf df b8 0d 80 63 8d 42 c0
       -1.2254952877585485 -37.10459900541331
000350 42 86 4e 9e 2e 46 4a c0 64 76 8c 62 b1 c8 4a c0
       -52.54829768022729 -53.56791335924643
000360 78 e2 2d 12 98 8d 05 c0 6d 3d 42 83 c0 6e 4e c0
       -2.694137708688057 -60.86525002226231
000370 c3 66 f1 5d 09 82 ca bf 38 c6 10 61 e4 e4 de bf
       -0.2070934017854623 -0.4827204654603494
000380 ac d2 dc ef 03 58 4c c0 e4 78 e2 27 e8 a9 d8 bf
       -56.68762014658327 -0.38537029166208314
000390 15 9a 91 27 1c 09 48 c0 22 d4 9f 24 66 7e 3e c0
       -48.07117170915095 -30.493746079464593
0003a0 fb 19 2a 4d ee 29 05 c0 e1 a9 e6 44 6c a2 c0 bf
       -2.64547405514463 -0.12995675434406365
0003b0 4d d4 81 8e bf cc 4a c0 d9 e4 6c 61 af b4 e1 bf
       -53.59959584559747 -0.5533062842215727

module.model.hidden1.weight f8 [120, 120]
000000 d9 a4 f2 94 8a dd 31 c0 d0 0f 00 07 a4 e9 49 c0
       -17.865395840872996 -51.82531821730629
000010 ef b9 97 34 a1 0d 4e 40 ed 57 da 6e e6 3e 4a c0
       60.10648209961425 -52.4914072576647
000020 99 85 ad 0d d6 00 c3 bf 5e b9 5b 26 a1 24 4e 40
       -0.14846301715719504 60.286167902743486
000030 17 8c 81 5d 21 e3 4c 40 cc ae 82 4c dd 1f 4e 40
       57.77445572686718 60.24894100552555
000040 ed c7 b1 ab 06 ba 31 c0 86 43 04 13 83 32 4e c0
       -17.726664286521487 -60.394625069696346
000050 28 0c db 6d 5d 5d 31 c0 7f e3 4a a5 64 2f 4d 40
       -17.36470686529006 58.370258962218024
000060 2d 2b be 4e c9 12 4e 40 06 05 df 4d bd e0 97 bf
       60.14676842008189 -0.02331825053966432
000070 27 14 81 9a 83 74 50 40 e6 a1 8a 07 12 dc ab bf
       65.82053244214386 -0.054413379116627955
000080 e9 8c aa b3 67 1c 4f 40 a8 c3 3b e5 5a 28 dd bf
       62.22191472842844 -0.4555880774124099
000090 38 2c 46 01 74 88 4e c0 69 ab dd 1e 97 9b ae bf
       -61.06604019094851 -0.0597808098962876
0000a0 41 02 b8 ba ba 0c 92 bf f0 f9 23 39 81 fd 8f bf
       -0.017626683851633244 -0.015620240742006936
0000b0 ca f2 cc 94 23 ce 8b 3f 26 93 25 85 0e b9 4d c0
       0.01357677266934711 -59.44575561842639
0000c0 69 4b d7 e1 43 70 d0 bf dc 06 95 0f a3 e9 de bf
       -0.2568521218756162 -0.4830100681466385
0000d0 25 40 7a ac b1 eb de bf a2 cc 01 a0 e9 75 93 bf
       -0.4831356224394788 -0.019004488364271162
0000e0 6f 9c b0 17 27 a8 4d c0 98 17 78 16 e7 a3 31 c0
       -59.31369300960147 -17.640244869536758
0000f0 84 f4 e3 e9 fa 05 4e c0 6b c5 b9 28 fa 0a 4e 40
       -60.0467197764456 60.08575924940927
000100 18 1a e5 28 d5 64 50 c0 d1 91 a5 1b 12 47 94 bf
       -65.57551023839221 -0.019802363336013876
000110 17 6c fa c4 15 5a 4d c0 97 d5 b7 71 97 db 4d c0
       -58.70378935077331 -59.71555921055113
000120 96 72 dc c9 04 47 df bf 19 a9 12 d9 b0 df b7 bf
       -0.4887096377658876 -0.0932570009196393
000130 bf 1e c9 47 dc 6c 90 bf 7b 00 98 80 ef d1 4d c0
       -0.016040269738623488 -59.64012153074233
000140 de cf 30 b0 90 43 db bf 68 95 94 05 c2 b0 4d c0
       -0.4259988518344907 -59.38092107539234
000150 ce 52 46 7a ee 7a db bf 74 84 fe cb 21 dd 4d c0
       -0.4293781465615155 -59.7275938980828
000160 dc af a5 6e 7a 08 4c 40 1b 4f 94 64 36 ef b8 3f
       56.0662363347071 0.09740009265470599
000170 8e c1 dd d6 26 fa 4d c0 f4 6d 99 f1 f8 a0 31 c0
       -59.95431028201993 -17.62879858012998
000180 08 aa de 88 05 9e 98 bf 38 d6 09 e2 43 8f 92 bf
       -0.024040304640644578 -0.018124638243952357
000190 84 8f eb 05 c8 21 4e 40 26 1f 43 74 07 e9 bc 3f
       60.263916721362904 0.1129307421534774
0001a0 f8 43 e8 15 9e 25 4a c0 16 f0 0b 75 4c 50 2f c0
       -52.293886888895884 -15.656833322245841
0001b0 3b 05 4a 31 16 d6 c3 bf a8 47 da 81 be bb 4d c0
       -0.15497090727516558 -59.466751319486605
0001c0 01 76 66 bc bc 32 4e 40 af 55 28 9b 2f 8a cb bf
       60.396384763746035 -0.21515460086872681
0001d0 59 7a c6 79 a4 20 4e 40 f8 97 79 d3 50 4e 47 c0
       60.25501939956002 -46.61184161603154
0001e0 3f f6 03 a3 5c 69 96 bf ba c2 9e 6a d0 b2 a2 bf
       -0.02188629860847002 -0.03652049352183924
0001f0 96 77 94 b0 d1 5d 37 40 fb a4 e6 15 bb 0e 4b c0
       23.36648086189924 -54.11508439790665
000200 5e f5 92 f5 45 e0 95 bf 40 52 c8 68 4c c2 4d c0
       -0.021363347161913786 -59.51795682698548
000210 cb c0 28 7f 7d a7 4b c0 6f 01 40 51 e7 bc 31 c0
       -55.30851735582254 -17.73790462315213
000220 0d e0 47 86 94 a4 4b c0 3c a7 e2 38 07 b0 b0 bf
       -55.2857826090768 -0.06518597735216941
000230 90 03 86 ad e3 1d 86 bf 07 15 39 0b dc 08 49 c0
       -0.010799196942345352 -50.06921520507063
000240 4c d6 a3 66 09 a8 4d c0 7d 84 71 b0 5c 1f 4d c0
       -59.31278689384325 -58.24501615088318
000250 ed 8d 6c 25 7c ed ab 3f 23 0e 2f 70 65 e9 db bf
       0.05454624134861406 -0.4361203761620535
000260 e4 38 3f 24 f7 c2 4a c0 33 10 ef 64 ba 2f 4a c0
       -53.52316716277144 -52.37287580178272
000270 c9 4c f1 8b 29 79 4e 40 11 9e be 06 9b 42 4e c0
       60.946580403158414 -60.52035602862828
000280 a1 ab a9 85 92 27 4e c0 f4 71 f5 10 b8 03 ad bf
       -60.30915900025071 -0.05666899878517376
000290 dc ac 21 ec e8 c5 32 c0 ef 71 25 a7 55 8c c1 bf
       -18.773085363599293 -0.13709517156065895
0002a0 3d 24 ac 8c c2 43 4e c0 e9 9e 1f ba 7a e8 96 bf
       -60.529374679616446 -0.022371213541105304
0002b0 c6 c3 7e 06 ac 9b 2a c0 d8 2b f2 03 2c cf a2 bf
       -13.304046824430667 -0.036736846429526515
0002c0 42 93 02 7a b5 b4 b3 bf 4f 58 a2 a3 4b ee a8 3f
       -0.07697614887963503 0.04869305012213997
0002d0 dc fb 85 3b aa a6 31 c0 ad cb db 9b 77 fd 4d 40
       -17.651035042010207 59.98021267158706
0002e0 16 88 a5 8d 19 1e 4d c0 ce 50 62 05 76 7d 4e c0
       -58.2351548250446 -60.98016421604699
0002f0 76 55 42 74 ae c0 cf bf cb bc 1e 06 53 08 4a c0
       -0.2480676715537517 -52.06503368855336
000300 cb 4b 22 96 15 84 4d c0 d4 63 5e 4c 5f 03 96 bf
       -59.03190876650441 -0.02149723914735431
000310 27 e5 d7 27 90 bc b4 bf ec 8d f3 45 e3 56 a7 bf
       -0.08100224468934823 -0.04558477620028242
000320 83 f4 fe 24 72 20 30 c0 3b cb ee ef ba a0 dc bf
       -16.126741707081703 -0.44731019431053526
000330 0b d6 a5 51 ab be 31 c0 79 02 88 d8 a5 c3 ad 3f
       -17.74480161951764 0.058133299524347266
000340 3a 09 f5 b2 4e 4a e0 bf 25 ff 18 b5 af fc 7e bf
       -0.5090707297570483 -0.007565199238854158
000350 93 b2 6a ac 01 36 4e 40 fa 03 b8 b8 d8 45 b7 3f
       60.42192607126085 0.09090952405678357
000360 c0 b3 4e a0 d4 0c c3 bf 31 18 79 3a a8 03 4e 40
       -0.1488290579558491 60.028571423652814
000370 9f f1 8d a2 39 c2 db bf 26 2a ef 18 04 be 95 bf
       -0.43372956156215453 -0.02123266603647713
000380 ae c4 0a a6 50 bd 4d c0 44 6f d3 e9 24 5c be 3f
       -59.47902370000644 0.11859350880280056
000390 89 57 1e c5 16 09 cb bf d9 79 4d 52 3a ce b4 bf
       -0.21121487259796037 -0.08127178677884873
0003a0 9b bf cf a4 68 ed c5 bf ac d3 e2 18 14 9c a7 3f
       -0.17130764052808164 0.046112659490439384
0003b0 be 58 59 b2 f7 fe cb bf f4 b6 78 79 46 43 91 bf
       -0.2187184925884988 -0.01685819736865475
0003c0 c3 ff 4b 48 27 a1 dd bf d3 9e 5c 69 37 2b df bf
       -0.46296102581254334 -0.487012722866422
0003d0 7c b9 e0 2e fb 9f b7 3f 1e a9 06 a4 f2 93 de bf
       0.09228486914137152 -0.477780018026026
0003e0 98 f9 87 61 2f 40 e2 bf 2e 1d 5e 03 63 1d 4e c0
       -0.5703350930123632 -60.22958414168748
0003f0 84 b0 bb db d2 6d 9d bf bd 00 0b 53 6e 02 9c 3f
       -0.028739256535957228 0.027353023356000195
000400 89 23 bb 6e 6f 2b e0 bf e7 0e b8 47 30 f7 c0 bf
       -0.505302158614641 -0.13254359723952477
000410 a8 e6 ec ee 57 d4 ba 3f 3c e0 ad cb 4f 4a 4e c0
       0.10480260451449885 -60.58056016912494
000420 df 43 e1 05 22 7d 4e c0 6e 15 c0 87 45 c3 df bf
       -60.977600798599944 -0.49629343277805205
000430 53 a9 21 67 70 83 4e c0 7a ef 7a 76 c3 6a b8 bf
       -61.026867762981645 -0.0953790821321813
000440 e1 9f 18 51 dd 9c bc bf 2e 49 4d c5 5e 72 ad bf
       -0.11176856260192337 -0.05751320036383088
000450 50 9a e7 04 71 92 bd bf 63 ad 46 34 a2 ed ab bf
       -0.1155157696699487 -0.0545473755658701
000460 47 79 2b c1 9b 77 db bf f1 8d 5b 74 07 2c dd bf
       -0.4291753183769242 -0.45581232417154555
000470 e4 ef 6a 68 18 b7 a1 bf 18 9f f6 89 82 4d b5 bf
       -0.034600031610778875 -0.08321395748373239
000480 72 d7 e3 62 c0 63 e2 bf 3f 30 2d c9 7a db b8 bf
       -0.5746766978688653 -0.09709899341140814
000490 5f 8a ea 01 52 27 a3 3f 30 24 dd bf 19 f3 d5 bf
       0.03740936540022654 -0.34296268212034686
0004a0 5d 71 39 76 22 c6 e3 bf 3a 32 5e 61 7b 52 e3 bf
       -0.6179363545484581 -0.603818597957406
0004b0 0a 2c 6c ea fa a9 4b c0 e1 11 19 8d ea 32 4c c0
       -55.32796983987653 -56.39778293346513
0004c0 7d 2c 23 62 9d db d9 bf ff 4f 88 4c c8 d6 df bf
       -0.40402922233324273 -0.4974842784297379
0004d0 4a 92 70 e3 1a 40 dd bf ad c9 bc 67 9b e2 a1 3f
       -0.4570376607028136 0.03493199960066149
0004e0 25 3a e7 69 a5 ea b8 3f bb f1 4a 8e b1 a1 b3 bf
       0.09733041606453037 -0.07668599819130055
0004f0 96 a7 68 c3 1b 9e df bf f5 05 b8 4f c6 e2 b8 3f
       -0.4940251739777691 0.09721030660877956
000500 1e 53 f0 1b 32 bf cb bf 09 5d f5 a4 c1 8d b0 3f
       -0.21677233089635534 0.06466303136163644
000510 eb c5 1e 5d c5 cc bc 3f 2a 8a 1a ef 42 d5 4d 40
       0.1124995567650086 59.666105163534965
000520 62 d0 84 eb 19 bf af 3f 3a d5 1f f4 0c 58 b1 bf
       0.062004861831525884 -0.06774979553286622
000530 8b f3 5a f6 ff a8 d2 bf 9b 24 d1 94 0e 63 e1 bf
       -0.2915649324239033 -0.5433419138509125
000540 97 c9 26 b0 f0 b7 dc bf 4b aa a9 92 91 53 db bf
       -0.44872681810661547 -0.42697562525305405
000550 4e a8 fb a6 9c 87 de bf c8 d8 ef 83 ec 4b d8 bf
       -0.47702709490716166 -0.3796340263792328
000560 54 be 8c 01 0b 1e e3 bf 9b 7c 80 00 43 96 c5 bf
       -0.5974173574704289 -0.16864812397486592
000570 81 a7 42 90 ec 21 e2 bf 8b c2 ef 6d 15 34 e0 bf
       -0.5666411225877114 -0.5063578746031266
000580 4e 0a c5 2e 8d f4 4b c0 4c 34 09 ad a0 96 4b c0
       -55.91055855389696 -55.17677843999317
000590 0d f0 8c ae a9 7e 4e c0 b9 d7 cc a6 ec 53 e1 bf
       -60.98955327874874 -0.5414946801963573
0005a0 94 5d ae 15 c1 d5 dd bf 3f d0 41 1a 38 06 dd bf
       -0.4661715232591288 -0.4535045868317446
0005b0 ad 63 08 f0 55 7a 4e c0 f6 1b cf f6 a7 86 c1 3f
       -60.95574760827672 0.13692187834951114
0005c0 ab fa 39 75 fc 1e bb 3f ad ee 8e 2b b2 6d e0 bf
       0.10594156133627546 -0.5133906222103711
0005d0 00 bc 99 8e d9 55 4b c0 c5 e6 7d 5f bb c0 db bf
       -54.67070181376039 -0.43363842320796336
0005e0 16 c9 bf 77 76 c6 49 c0 cb 2b a7 36 97 31 b9 bf
       -51.550490349431286 -0.09841294369031954
0005f0 02 76 aa 1b 79 f9 9c 3f fe e4 b9 49 94 a4 b6 bf
       0.028295414270010262 -0.08844878005938381
000600 57 a8 29 5f 8a 8d bb bf d7 df cb fb 4e 6c 69 3f
       -0.10762848685559 0.003103403343967397
000610 5a 91 c0 4d 84 92 db bf 8b d1 8a ea 6a fb be bf
       -0.43081767647733715 -0.12102382875565902
000620 bf 98 c4 38 ca c6 d6 bf 0f e5 36 87 21 70 df bf
       -0.3558831743597572 -0.4912189312413639
000630 ef a1 22 3f 38 7f 4e c0 d2 3a e1 17 61 2d ba bf
       -60.99390401068728 -0.1022549327183058
000640 15 15 7d bf 65 2b dc bf db 16 4e ee 6d 9b b9 3f
       -0.44014877033289795 0.10002791469568299
000650 51 f6 0d d4 e1 88 c9 3f 75 51 00 05 69 f3 4b c0
       0.19948981146073888 -55.90164244189774
000660 9b 2d e7 30 bd 36 e2 bf e5 b6 32 fd 8c de c1 3f
       -0.56918201018691 0.1396042095488418
000670 72 c6 ce 22 7a c2 d1 bf ad 62 89 27 d2 dc 4b c0
       -0.27749493979636164 -55.72516340454363
000680 58 b9 79 d8 a4 af e2 bf 80 e1 75 10 fe 74 80 bf
       -0.5839409091984562 -0.008035645367940658
000690 00 3b 3a 97 7f 70 e1 bf b4 ba 60 b9 72 17 e0 bf
       -0.5449827150021918 -0.5028623219166861
0006a0 08 ec 2f 2b 74 4d b9 bf be a6 85 bc 9f f1 4b c0
       -0.09883810095190892 -55.887687268504564
0006b0 5e 3c 5f 3d 5f e5 4a c0 d7 75 3e 8f 69 98 dc bf
       -53.79196898603617 -0.4468025111071631
0006c0 5f 40 c6 29 61 63 a2 bf e7 3e 44 e4 d4 3a bf 3f
       -0.03591445574704787 0.12199144909777325
0006d0 4e b0 c8 48 f5 8a e1 bf ce e2 de d0 ec c0 e1 bf
       -0.5482126637994129 -0.5548004226212357
0006e0 2e 8b 87 cb c1 12 da bf be 32 05 2b 24 6d 94 3f
       -0.40739483714985425 0.01994759094786746
0006f0 08 bc 15 d7 47 9c c1 3f ac 8d 52 e6 a4 7b 4e c0
       0.1375818062037697 -60.96596983939102
000700 4e 37 be 19 79 ab dc bf 19 93 74 95 ee 85 ae bf
       -0.44796588434188755 -0.059615569824279464
000710 30 75 e8 d8 b3 ab 4e c0 0d e5 e8 21 46 fe e1 bf
       -61.3414260039375 -0.5622893011378963
000720 b9 1a 3d ee 2c 71 86 bf ff 11 a2 60 f5 e3 db bf
       -0.01095805265471249 -0.43578848301720535
000730 ea cb fd ae e0 c7 db bf 6a 07 4e f6 ab cf a3 3f
       -0.43407456482890316 0.03869378453874968
000740 4a 8f 51 19 7e a1 de bf e5 31 af e0 32 77 dd bf
       -0.4786067244769937 -0.4604003137763171
000750 31 4a a0 a0 f6 86 92 bf c4 3d 01 a5 b6 2f b7 3f
       -0.018092969468918866 0.09057179954947175
000760 fb 01 06 66 e0 1d e1 bf 2d 68 1e b7 1b bb e0 bf
       -0.5348970406194548 -0.5228403641260734
000770 b3 e6 91 68 3a 60 e1 bf 8f c9 96 a7 96 be e2 bf
       -0.542996601331842 -0.5857651971075927
000780 a1 7d 45 6e 24 01 48 c0 56 21 57 e3 e1 0d dd bf
       -48.0089242781935 -0.4539723129387502
000790 ed 69 02 dd 81 46 97 bf fd 94 b2 18 70 65 e1 bf
       -0.022729901422829647 -0.5436325533270573
0007a0 42 7a 4a fc 75 18 e2 bf 97 4c dd 58 f4 1c 4d c0
       -0.565485947375983 -58.22620688253044
0007b0 35 00 07 de 92 bb b6 bf bc 8e b7 92 6a a8 b1 bf
       -0.0887996475275948 -0.06897607881506479
0007c0 a3 0a 78 a0 45 07 e0 bf 42 96 92 b0 70 3b a1 bf
       -0.5008876928480571 -0.03365661769320784
0007d0 6a 83 8a 88 ed 42 b3 3f eb 77 ec eb 34 73 4e c0
       0.07523998816988145 -60.90005253835974
0007e0 23 93 65 69 12 7e 4e c0 57 bd 22 81 ef c9 db bf
       -60.98493688068108 -0.43420016871364936
0007f0 0c 7a a5 d0 2e 88 4e c0 8f 51 3d 0b dd d7 a7 bf
       -61.06392868118209 -0.046568782445919436

module.model.hidden1.bias f8 [120]
000000 fc 4d 30 71 f8 12 4b c0 bd c7 52 49 dd 85 50 c0
       -54.148206852518314 -66.09163125118262
000010 03 19 69 11 71 bb 52 c0 72 4d 20 24 66 aa 45 c0
       -74.92877612365196 -43.33124209954521
000020 74 e4 0e fd 4f 49 47 c0 98 75 35 62 78 80 4f c0
       -46.57275355555694 -63.003673816779326
000030 ae 87 00 6e b9 80 4b c0 b6 c5 0b a4 e5 f0 42 c0
       -55.005658865221775 -37.88200808119602
000040 51 c0 4b 98 f2 ab 49 c0 95 f0 95 da c7 10 53 c0
       -51.34334090899268 -76.26219811098629
000050 58 f6 0e d3 aa d6 49 40 7d 50 1f fd 56 94 54 c0
       51.6770881484087 -82.31780937250183
000060 26 1f 13 ab 23 de 4b c0 aa 08 01 97 4f b6 4b c0
       -55.73546350892711 -55.42430388975602
000070 d1 4d 3d 0e 5d 44 44 c0 ea 16 e8 20 e1 3d 34 40
       -40.534089832242564 20.241716438925245
000080 19 f1 da da d6 fe e5 bf 9d 9e 8a 42 83 74 4c 40
       -0.6873583101765092 56.91025573509726
000090 f2 b1 1c 10 d8 49 50 c0 b7 10 9d de 62 2d 50 c0
       -65.15381243517166 -64.70915952051551
0000a0 0b 98 51 0a 28 33 4d c0 5d a3 ea b8 b6 ae 4b c0
       -58.399659433213024 -55.364951242989925
0000b0 26 f5 9d db 90 79 54 c0 bb 9d 11 c9 f2 95 46 c0
       -81.89946642327831 -45.1714717231766
0000c0 a9 54 20 df 30 21 2b 40 0d 87 20 70 8f 33 30 40
       13.564825985619182 16.20140744012956
0000d0 36 61 31 7d 03 81 4d c0 67 5c b1 6c 67 2c 50 c0
       -59.0079189768898 -64.69381253548055
0000e0 62 f3 c0 54 52 6c 45 c0 4f d7 70 ca ed 6e 42 c0
       -42.84626254483625 -36.86663179883782
0000f0 0a 29 d0 1d 7f f5 19 40 16 ca d9 3d c2 47 53 c0
       6.489742723302934 -77.12123056667801
000100 b0 4b a8 de 67 51 46 c0 c6 79 2a 60 18 6d 42 c0
       -44.635982353377926 -36.852306385746076
000110 0c 09 f1 53 1f 2e 56 c0 e9 ce 48 ad a7 0a fa bf
       -88.72066210306747 -1.6276013153955609
000120 db 7d dd b1 b4 23 29 40 5e eb 07 3f 10 a7 53 40
       12.569737966811706 78.610366590246
000130 b3 a6 72 60 af 9a 54 c0 0f 98 b2 f9 72 88 48 c0
       -82.41695414730457 -49.06600877018365
000140 b6 f4 64 b1 44 a4 53 c0 df d7 e9 c3 87 eb 52 c0
       -78.56669268473601 -75.68016145550017
000150 cc b8 15 28 06 2c 53 c0 fb d2 50 de 17 93 54 c0
       -76.68787576791073 -82.29833181279166
000160 63 a8 3f b3 6e 28 54 c0 33 81 39 46 24 37 56 c0
       -80.63175660339907 -88.86158900848095
000170 b8 48 4f ab a0 8f 52 c0 03 7b 44 43 ee a2 4f c0
       -74.24418146841606 -63.272896202504874
000180 ad 2d d2 21 f1 91 4e c0 86 7f e1 05 0f c1 55 c0
       -61.140171268106634 -87.01654192944815
000190 a6 9a 9b 1d d2 1b 42 c0 19 b0 24 e3 3a 05 4c c0
       -36.21734972093445 -56.040859597124104
0001a0 b8 93 30 c5 ae 58 54 c0 89 05 cf 4c c2 b6 47 c0
       -81.38566713088846 -47.42780456646421
0001b0 92 c4 f9 06 b9 b8 27 c0 80 43 3f 19 20 65 54 c0
       -11.86078664587902 -81.58008414438336
0001c0 a0 e4 2b ef 47 2e 4a c0 a3 8f 3f ff e5 89 54 c0
       -52.36157025950638 -82.15466290671479
0001d0 7e 8a 7f 1d 84 9d 52 c0 8e 7a 71 c1 b5 76 51 c0
       -74.46118867354559 -69.85484348375232
0001e0 97 bb 45 62 fc a1 4e c0 32 24 44 de db f9 4d c0
       -61.26551464466973 -59.95202234580246
0001f0 73 fe f6 ba 49 ab 54 c0 08 dc c8 1d de eb 45 c0
       -82.676375142293 -43.84271595294564
000200 40 d8 e6 30 e8 ed 46 c0 be a3 14 aa 0a e0 46 c0
       -45.85864840766635 -45.750325450971545
000210 f3 c7 cc 6f 81 ab 48 c0 44 94 fd c4 5e 5d 4b c0
       -49.33988759516787 -54.7294546354465
000220 16 8f 70 cf 9d 65 30 40 db b8 93 c6 03 b5 46 c0
       16.39693924425145 -45.414177724962165
000230 27 da 84 e2 6e 3a 2c 40 84 b5 b3 57 38 81 50 c0
       14.114127234189324 -66.01906387853347
000240 26 4e 59 0e e9 b1 52 c0 6e c6 e2 ed 3d 4c 49 c0
       -74.77984961243837 -50.59563993046764
000250 24 54 a2 a0 17 d9 49 c0 f7 ba 45 7e fc 9c 44 c0
       -51.69603355337338 -41.2264554825287
000260 58 58 0b c6 f5 10 47 c0 1a e9 ac 89 9a 25 50 c0
       -46.13250041536293 -64.58755723844334
000270 b7 07 08 78 be 39 54 c0 93 d2 2c 36 18 c8 40 c0
       -80.90225029739564 -33.563238880048765
000280 c2 72 76 14 3a ad 3b c0 f8 dc f3 93 94 25 4c c0
       -27.676667479436908 -56.2935967388857
000290 d9 f8 b1 a0 e5 9f 53 c0 4b 10 87 8a 84 cf 31 c0
       -78.4983903635033 -17.810616167044184
0002a0 96 89 3a 73 ab 01 49 c0 ba 8e f3 13 3d 24 46 c0
       -50.013044742186295 -44.28311395065744
0002b0 6f 8c 48 f7 f2 07 4b c0 55 fa 0b b2 d7 76 53 c0
       -54.06210223238383 -77.85691500825608
0002c0 77 cb 2f eb 9d 76 54 c0 86 a6 70 d1 ce 7f 50 c0
       -81.8533885924097 -65.99699817658447
0002d0 1c d1 ad 2c 63 a0 54 c0 3e 0a 3f 21 f4 c1 48 40
       -82.50605313276577 49.51526275232435
0002e0 8b 0c f1 4e 32 b6 4b c0 56 00 11 61 70 4b 51 c0
       -55.42341028947802 -69.17873407993588
0002f0 3d a4 5b be 6d ec 53 c0 3b 5a 10 7a a6 e6 42 c0
       -79.69419821690913 -37.801955469116784
000300 2e 98 ac de f7 53 53 c0 63 4c ba 46 c4 9b 46 c0
       -77.31200377325942 -45.216927376714715
000310 b8 e4 a0 bd 44 cd 2c c0 cd fe 2c 82 17 4b 4a c0
       -14.400915075197517 -52.58665492245709
000320 49 6c b9 e9 9e c3 53 c0 72 68 5f fb 83 77 47 c0
       -79.05657427890505 -46.93371526869386
000330 bc 54 7e 2a 8f 67 4c c0 1b d8 9c 71 54 96 52 40
       -56.80905657928949 74.34890404049695
000340 e7 58 6d e5 d6 84 4b c0 6c cc 69 3d 8a cd 4f c0
       -55.03780811156485 -63.60578124681419
000350 2e 73 76 01 b0 f2 4e c0 6c d4 26 00 04 e9 52 c0
       -61.89599626811683 -75.64086917678804
000360 72 8f 21 93 8e 79 4b c0 6a 67 34 07 bf b5 54 c0
       -54.94966353548706 -82.8397844325788
000370 c6 81 67 7c 49 8f 54 c0 33 d0 d0 1e eb 15 32 c0
       -82.2388602267084 -18.08561890218716
000380 5b db 82 7e bb 8f 4a c0 50 dd 3e 15 94 5b 54 c0
       -53.12290936841483 -81.43091326846229
000390 6c 3f 8c 1a 46 19 52 c0 1d 51 60 06 5f fb 51 c0
       -72.39490379043644 -71.92767486005728
0003a0 9f 32 5e a0 be b5 54 c0 a0 a6 ba 8f 1a ba df bf
       -82.83975991438864 -0.49573387180371675
0003b0 06 24 d8 c6 38 9e 54 c0 c5 a2 77 31 94 ff 50 c0
       -82.47221537692539 -67.99341999705491
