pyTorch/noisey_paths/models/realswag/ow_0.0_1024_NP_model_1.pth (torch, 469469 bytes, 10 tensors)

module.model.input.weight f8 [120, 60]
-2.779169553969424e-10 -0.005598169769887761 2.6608893181315116e-10 1.0989727079842178e-10 -0.004702049455445273 -4.4570652542377583e-10 3.708438169571833e-10 0.005644981938396297
-1.998776309093243e-08 0.0034413406193016627 1.5120739835246462e-09 1.09133655057058e-10 0.004502825192697141 -0.0017772789303493303 -4.674358747956372e-10 -7.416845874184123e-10
-1.6162846392672958e-06 2.269927039230402e-09 0.004143399466742633 2.8591536172245678e-08 -8.106299232375787e-09 0.0004972530894742647 8.43703964764257e-10 -3.05853195334039e-10
1.6428731967870798e-07 1.3184086791430013e-09 1.141232615957428e-09 0.0006145456013576649 -0.5645233161711242 2.7992937759549016e-07 1.3882640086652036e-10 0.0004264720169556187
-0.5343639527751076 -0.43881811069823734 -0.4829142746830258 4.759931698326065e-10 -0.4372296922529907 -0.46081187410654506 -0.5793977082413091 -0.0006606397380386042
-0.5146516335211133 -0.5742291166388772 -0.3916195516839879 -0.0006768359593657677 -0.4459605492250314 -0.4645144849135759 -0.3619789944670451 -5.830176126596532e-11
-0.32743895923101846 -0.35780197557127463 -0.3879250354833558 -0.4500869082345656 -0.5359724202487344 -0.3298907247174632 -0.38363774848279303 -0.4915070411115239
-0.43882944273879987 -0.39355308042622605 -0.583776351367552 -0.43424366301656186 -7.484219702482624e-10 1.9320981495765177e-11 -8.799998795795345e-10 3.0097139568381093e-10
3.6120508032437624e-05 6.593059147029347e-10 6.2354314307418504e-06 -4.669244802898308e-10 7.395750850362036e-10 1.2348793502189703e-10 1.3229481825556647e-08 -1.1392467518083363e-09
-1.706310472806692e-06 -0.010656259780999482 6.465574672794098e-10 0.0027527475527732107 -2.1169897195344204e-10 -8.334717531044824e-10 -1.4220289692829306e-09 1.2013788756674152e-10
1.6414647584753793e-07 -2.0615602510229775e-07 0.00369260586360919 3.998572489524407e-11 -2.8083507082213278e-05 5.060564452484862e-10 -0.00010065075712248592 -3.845155026792735e-05
-0.5305684482848754 3.0445148136775304e-09 1.2444604742495225e-10 -9.234636005313718e-10 -0.5421232325772916 -0.4483992939197936 -0.5544361928788673 -7.43682916736818e-11
-0.5340981550059625 -0.5336465570010368 -0.6074051648887152 -0.00021587458929767073 -0.5367354566295189 -0.3281004762451982 -0.405292477168991 -1.7667536360908855e-10
-0.4649160929231677 -0.3296744504635021 -0.45060290740392545 -4.1203203859643674e-10 -0.3552472846172812 -0.5208051240955472 -0.39614678409703746 -0.4837967797432463
-0.44241949475240167 -0.5412268881851832 -0.41030642925076627 -0.5688926287578944 -0.45125107840290035 -0.4648078038975645 -0.37517054685911894 -0.5015105028791061
-0.0004264276796330644 -0.0025926297318638798 -2.3810645555614433e-10 -9.022119514220996e-10 -1.5621717305054885e-10 -8.859980273365721e-10 -0.0042721604291080404 0.002596205481869861
-2.0632185558172448e-11 -7.733985215228993e-11 0.00031562660415641056 1.2977077767435608e-10 1.5268119647591854e-09 -1.5808900128893988e-10 0.0033078818781009348 9.02423139665046e-10
7.159901125085948e-09 -8.768274447504619e-07 1.6329226958676178e-09 -1.1344635032493448e-09 -2.096488341317957e-10 4.602491329019874e-07 0.0008633157223718334 -0.00796456821254245
-7.595363027213218e-10 -4.188270244802109e-10 0.006456414403901183 1.1717507545593423e-10 3.2563296317181607e-07 -0.0016130898217962255 2.4218636036187946e-10 -3.347528378541065e-11
3.148171060462546e-08 0.0037925090284916937 -5.739002911073214e-09 0.006786021507619586 -0.5068694160079968 4.511459165498944e-10 9.609476345588379e-10 0.002981585149069694
-0.5187395669394178 -0.40644888604531804 -0.4248731873093332 0.005671285033661061 -0.40372445538534557 -0.44310417766054155 -0.37736153739127554 1.5240368352482482e-07
-0.5862608625521013 -0.4835298738104909 -0.5728425177780263 -0.005904524921252886 -0.46300018270338417 -0.38981353111363093 -0.4845390476144919 -4.351404400003771e-07
-0.530347609900019 -0.4376669294988808 -0.4527021909178097 -0.5463141306320259 0.005046666267774083 2.3309914172432877e-08 -9.928800061526395e-10 1.3780892997970017e-09
-0.007614923512068823 5.108088140855358e-07 -6.832918706406012e-10 3.327611130245131e-10 0.004978745377041516 -4.741058036617941e-10 1.8957750680149915e-09 2.5347056335841584e-05
-0.0004983048673399718 2.506490994259218e-10 2.444849327612603e-05 2.2935812149119512e-10 -0.002209015752849341 -2.4566439695562026e-11 1.1679716486035688e-10 0.0013172880012244047
-0.4253061214709335 7.142238427863426e-10 0.003911824865315519 9.137106915402892e-10 -0.6913065719481085 -0.6035798422086658 -0.6713542869943818 -9.853450731846597e-10
-0.9475734701807055 -0.7573189013878179 -0.6865092713576082 1.8420316566553972e-09 -0.3472673215942874 -0.8324472675268988 -0.8347408101976491 -4.921103684566202e-10
-0.2993651148127981 -0.3151297118795714 -0.37584991821712366 -0.5242822012505592 -0.3614020381919312 -0.35269595405970794 -0.34610252928245483 -0.6721961905841868
-0.35427987629541474 -0.3194498566186291 -0.34937889726062177 -0.7490228493133468 -0.34587184102801655 -0.39670430348250685 -0.3826603390072996 -0.950993308469477
-0.33036035868844915 -0.4574887745634975 -0.36932690463444523 -0.4062186685688442 -0.3238905150645854 -0.29746692885790216 -0.45068569352395577 -0.4117679077429096
2.4646955143306578e-12 -0.000994740992714017 1.5108370351161127e-06 3.4171291449080686e-10 -2.266496788028154e-10 -2.0246198522979152e-10 -8.341553090665941e-10 0.0017516888623137531
-0.005434774174763425 -7.845304188993198e-11 0.0001933405768407343 9.178961263612616e-11 0.0014128716564185862 -0.0034512077376512647 -1.9927709293294913e-10 -5.132079713110055e-10
00000000: 2f3b 5fb2 2a19 f3bd 4c17 4441 1bee 76bf
00000010: 2f10 a003 1649 f23d 3a54 343b 5535 de3d
00000020: fa3c 2aca 7442 73bf 6c98 e7bd f3a0 febd
00000030: c5a0 6b13 f47b f93d bea2 fd4c 311f 773f
00000040: 9217 a2c9 3176 55be d7eb 41ad 0331 6c3f
00000050: e95f 0af5 2bfa 193e 84a0 2a27 99ff dd3d
00000060: 5369 13ef 8d71 723f b61a 6eb8 721e 5dbf
00000070: 27ce 0904 9c0f 00be b12d 3c37 ed7b 09be
00000080: c50f 32c1 e31d bbbe 5d5a 2d52 9f7f 233e
00000090: 3c45 4353 abf8 703f 04e8 9a7e 2eb3 5e3e
000000a0: ad45 9e31 7c68 41be 0389 e9e0 424b 403f
000000b0: add7 3f6e 4cfd 0c3e c640 2756 a004 f5bd
000000c0: aae6 d78b de0c 863e 66d5 8235 6ca6 163e
000000d0: 048c 2cb2 319b 133e 75e4 3ea1 2e23 443f
000000e0: 2f1a 9933 9310 e2bf 3f43 286c 26c9 923e
000000f0: 66af ee0d 8514 e33d 4b54 905d 03f3 3b3f
00000100: 7092 aa6e 8219 e1bf 1bda 958e 9815 dcbf
00000110: 0140 2246 11e8 debf 0ae3 c554 e15a 003e
00000120: 7645 443f 92fb dbbf 6159 3916 f17d ddbf
00000130: bec2 0810 6d8a e2bf 6646 df08 d9a5 45bf
00000140: 0ecc d9b3 0678 e0bf 91ff 8bbd 1560 e2bf
00000150: 023e bd73 4b10 d9bf fdb4 b527 b62d 46bf
00000160: c592 8e1d 9e8a dcbf c936 4ef6 9aba ddbf
00000170: 8dcb c4f1 a92a d7bf 64aa 4729 9f06 d0bd
00000180: 1758 5589 c2f4 d4bf cf75 e141 3ae6 d6bf
00000190: 7ed7 2c87 c3d3 d8bf e169 ce51 39ce dcbf
000001a0: 4ed7 10a2 af26 e1bf 5993 7afc ed1c d5bf
000001b0: aba8 cf57 858d d8bf 68f9 d4f2 d974 dfbf
000001c0: 7671 4516 c815 dcbf baec 6a42 f92f d9bf
000001d0: aea8 29be 4bae e2bf 2db0 c9ee a5ca dbbf
000001e0: 427d 0274 30b7 09be 00bf e770 5f3e b53d
000001f0: befd 9b90 8f3c 0ebe a0fb 5aaa beae f43d
00000200: d8a8 a934 03f0 023f d176 96ef 50a7 063e
00000210: e0ee 2f57 3e27 da3e 3440 2d75 1c0b 00be
00000220: 7ca3 e709 5f69 093e 1e46 b16f d8f8 e03d
00000230: ebea 5b0b fc68 4c3e 34a7 cdcf 7592 13be
00000240: 642b 9834 8ca0 bcbe 3c7c 0efa f2d2 85bf
00000250: faca fefb 2d37 063e f464 d316 ee8c 663f
00000260: aa5c 89d2 7e18 edbd b279 d189 4ba3 0cbe
00000270: 850d b748 266e 18be 25fe 2fe4 f982 e03d
00000280: 0707 bbab 0708 863e a15a ea92 77ab 8bbe
00000290: eaa0 7aad f43f 6e3f 0346 df90 7dfb c53d
000002a0: 60b6 5ee9 9b72 fdbe dfcc 22cf 5163 013e
000002b0: b2d8 33d7 8e62 1abf 4e3a 0135 e128 04bf
000002c0: 4689 b5ae 6afa e0bf c90d f978 f526 2a3e
000002d0: 6da6 7a58 8e1a e13d c91b e329 dfba 0fbe
000002e0: d647 4ad2 1259 e1bf 20d7 bbf3 92b2 dcbf
000002f0: 7e45 84f8 f0bd e1bf 6504 ed0a 3471 d4bd
00000300: 7458 9303 5517 e1bf 9328 bef1 a113 e1bf
00000310: e9ca d3f4 dc6f e3bf f6f7 259a 8c4b 2cbf
00000320: 257a 1ad6 ef2c e1bf 149c d123 99ff d4bf
00000330: 755c b0db 4ff0 d9bf c00b 1434 3648 e8bd
00000340: 744d 9f6d 2fc1 ddbf 2452 c4dd 6219 d5bf
00000350: 7312 b293 add6 dcbf 3d84 e255 8b50 fcbd
00000360: 4123 5b1b 5fbc d6bf 0f8c f281 6faa e0bf
00000370: b930 870a 785a d9bf 2812 bac4 86f6 debf
00000380: 1dc3 44db 9950 dcbf 2814 0f0d bb51 e1bf
00000390: f71d bee5 7542 dabf 866b 6e50 5e34 e2bf
000003a0: b29c 0134 4ce1 dcbf 8899 2a3b 69bf ddbf
000003b0: a5ab 4b53 cb02 d8bf b9eb 0ec1 5f0c e0bf
000003c0: f27e 29f0 44f2 3bbf ad77 167d 233d 65bf
000003d0: a113 ff24 d05c f0bd 1e01 41b4 f0ff 0ebe
000003e0: e4d1 6534 6778 e5bd d0b6 6031 5271 0ebe
000003f0: f375 3855 af7f 71bf b12c 6d34 a344 653f
00000400: be42 aca6 71af b6bd 5684 d6ea 4e42 d5bd
00000410: 6930 4ef1 55af 343f d829 8040 e7d5 e13d
00000420: 825c ea72 fd3a 1a3e 3aa7 7422 43ba e5bd
00000430: f901 898f 2119 6b3f a6c1 fc41 cc01 0f3e
00000440: 8b86 9f00 65c0 3e3e f248 2ef1 e36b adbe
00000450: 8749 db82 ab0d 1c3e 579e 455a 6c7d 13be
00000460: 1296 92d2 5cd0 ecbd c9d6 db17 05e3 9e3e
00000470: 0947 9865 044a 4c3f 8a3e ff3f ba4f 80bf
00000480: 38ef 77b4 f318 0abe f5d5 3b3b 15c8 fcbd
00000490: df46 6d8b 0a72 7a3f 6a1a 9840 bb1a e03d
000004a0: b768 e6ea 54da 953e 7c92 ed01 ca6d 5abf
000004b0: 11d2 fb66 96a4 f03d f062 6434 3a67 c2bd
000004c0: a5c3 4b38 d0e6 603e deb4 e8c7 7711 6f3f
000004d0: 78d7 f2b5 19a6 38be bd73 1fc7 a8cb 7b3f
000004e0: 571a a335 4638 e0bf a3eb e794 a400 ff3d
000004f0: 19c6 2bda 4a82 103e 5b67 9356 d66c 683f
00000500: 0dac 64b8 8399 e0bf 7edb 4330 4203 dabf
00000510: 3037 1c4f 1f31 dbbf d313 effb c53a 773f
00000520: 1b6e 1e19 9fd6 d9bf d478 f19f d15b dcbf
00000530: a848 7701 b126 d8bf 8c88 2afa 8c74 843e
00000540: bac0 f223 a6c2 e2bf 97ec a948 27f2 debf
00000550: 70ad f3d4 b954 e2bf 4e92 f6d6 572f 78bf
00000560: 2232 b084 cba1 ddbf f6f6 ea73 b4f2 d8bf
00000570: 23e9 c810 b002 dfbf 4b21 dce4 a733 9dbe
00000580: fd08 018d 9bf8 e0bf 7342 2f27 bc02 dcbf
00000590: 5c73 349c 12f9 dcbf f907 8dc5 677b e1bf
000005a0: 9dc2 2e29 d0ab 743f 49c0 1f63 6107 593e
000005b0: 879a a581 bb0e 11be a34a 409d e6ac 173e
000005c0: fb4f 2277 d330 7fbf ecbd 1876 d023 a13e
000005d0: d0d3 ca81 4c7a 07be bc55 1ad3 fedd f63d
000005e0: c0b0 1cc9 9764 743f 7713 405c 474a 00be
000005f0: d6fb 797c da48 203e fe08 bd72 0c94 fa3e
00000600: 9da9 e88d 1554 40bf f3a6 d630 7739 f13d
00000610: 9b21 38aa d7a2 f93e d8fe 0b4d d285 ef3d
00000620: b257 464d a418 62bf afc2 dd89 d602 bbbd
00000630: fdd7 1656 6f0d e03d 6b77 9e38 1b95 553f
00000640: 9c66 a02a 3738 dbbf aac4 b91d 618a 083e
00000650: 9dcd d37d d805 703f 0e0c a290 1565 0f3e
00000660: 29dd c0f5 2e1f e6bf 34f4 59ac 8650 e3bf
00000670: d672 55fc bb7b e5bf e64f 15ed 97ed 10be
00000680: b277 1f99 8552 eebf 744e 43d9 f43b e8bf
00000690: 0637 9c4a e2f7 e5bf 2df9 4745 57a5 1f3e
000006a0: fce2 4db7 a039 d6bf e285 b573 68a3 eabf
000006b0: 2def 0d5c 32b6 eabf 6681 3709 a6e8 00be
000006c0: cdca 6b4c cc28 d3bf 8652 a1cf 152b d4bf
000006d0: b698 bcd0 ec0d d8bf 94df 8777 ebc6 e0bf
000006e0: 5c7e af03 3621 d7bf b98c 070d 9292 d6bf
000006f0: 872f 1539 8b26 d6bf 75c1 e195 a182 e5bf
00000700: 7d76 9480 85ac d6bf c2e3 b8cf dd71 d4bf
00000710: 0c67 694e 395c d6bf f03d 38c4 fef7 e7bf
00000720: 2ba6 74a5 c322 d6bf e8f2 6872 9a63 d9bf
00000730: d9ce 60ca 817d d8bf 78eb d284 896e eebf
00000740: cc8c 1dc6 9f24 d5bf c163 42ff 7e47 ddbf
00000750: c905 3c50 0da3 d7bf 47c8 2196 7cff d9bf
00000760: a3f7 6b48 9fba d4bf 1885 c5ba b209 d3bf
00000770: 5378 9dce 08d8 dcbf c214 53c8 675a dabf
00000780: 86d5 fa3a 00ae 853d 0454 0702 3f4c 50bf
00000790: 10dd 45e3 fe58 b93e 66b1 8427 7a7b f73d
000007a0: c272 68d1 8626 efbd 550d 4671 7fd3 ebbd
000007b0: d59e 00c5 4ea9 0cbe 1105 1798 1db3 5c3f
000007c0: 5bd3 7715 c642 76bf b70b 635c a490 d5bd
000007d0: e3f0 b6e8 6e57 293f 891b 3ba9 1e3b d93d
000007e0: 5264 b263 0326 573f d160 ad0b b545 6cbf
000007f0: 45c8 a27b 7063 ebbd f3e4 3a9d 39a2 01be

module.model.input.bias f8 [120]
-0.3863731011846535 -0.4142472881369117 -0.39148298208984755 -0.443891003713077 -0.39786321010390563 -0.5359440600987799 -0.33541542461959256 -0.41626183807604594
-0.37294463362872643 -0.5490764701037569 -0.571133109713499 -0.3544158854252982 -0.4697883236600304 -0.4022493125702318 -0.2869808335077567 -0.435585996538906
-0.4459093834962845 -0.5239812208455907 -0.5964523068457998 -0.3228170434777941 -0.3919607719875057 -0.475812809387092 -0.4820636605811954 -0.40785403033805934
-0.3373961143898407 -0.3515138060522073 -0.07153468578006184 -0.24156619043317337 -0.48739104125440286 -0.448541037579699 -0.2866126948879447 -0.44280947084547173
-0.5361407260840974 -0.38735924033419733 -0.3921297623120867 -0.47061655267844066 -0.2655852291271354 -0.556241902463268 -0.34165866172462683 -0.46114189528814303
-0.627436266658272 -0.5765662705791829 -0.014696083549093025 -0.6213921387117534 -0.44219111907912545 -0.3371186950029569 -0.4342731997607777 -0.39747729307477536
-0.4400095536113849 -0.5278767106934164 -0.5473478931519885 -0.33630979982218867 -0.45302863937969956 -0.5053216421088296 -0.5622446444285685 0.00010529666436092527
-0.4449068318225433 0.00010438560348821342 -0.5399570124079347 -0.6179528884886893 -0.37662127624199543 -0.43723450270446984 -0.5946641857389703 -0.4982268737252494
-0.43594860017047515 -0.5381520467374136 -0.37586581403021496 -0.3474419089139442 -0.4474439959575902 -0.6304560243214802 -0.541482002598749 -0.22843494677165338
-0.5086044479344725 -0.4383083117314004 -0.5492800142050834 -0.2616839948334007 -0.44254328267512205 -0.5620558671101855 -0.4638753771504201 -0.4307378536392313
-0.4327447346492201 -0.44865330226219036 -0.4805442664446194 -0.20267334654500385 -0.32078935409065695 -0.5645113096259737 -0.2567166499383365 -0.23110355505088584
-0.4306026901514564 -0.5494500838683242 -0.4499227302246655 -0.3870865605380614 -0.5975609561464326 -0.5973907100048101 -0.3745950015688832 -0.5666817838409155
-0.6031397388014933 -0.4234997502999376 -0.39289797751317923 -0.47932846435388604 -0.4715778509738206 -0.22792055994663418 -0.6135050322597762 -0.4919308926325703
-0.28730151186766756 -0.4763176665803388 -0.3181185425 -0.5271699368744382 -0.29087031444700473 -0.39386282070685763 1.5444957802779054 -0.5792565160155114
-0.33273626036147375 -0.6288935634153412 -0.2101315942073301 -0.45114792987425917 -0.3643563307723696 -0.4512988007172616 -0.5587691177663986 -0.5276778611081224
00000000: 9219 693e 56ba d8bf 684d c00e 0783 dabf
00000010: 800d 41a3 0e0e d9bf 04ec fbcf b568 dcbf
00000020: eb61 eb40 9776 d9bf d082 5328 7426 e1bf
00000030: a72a d441 7277 d5bf 7901 47b1 08a4 dabf
00000040: 7adc 292b 53de d7bf 0629 43d1 0892 e1bf
00000050: 753b 7cf1 b846 e2bf 1669 45f7 bfae d6bf
00000060: 4c66 8a0b 0311 debf d8f7 94e6 73be d9bf
00000070: 1ea8 9fdb e45d d2bf 1dbb 6e16 a4e0 dbbf
00000080: ea25 c682 c789 dcbf b8ff e743 74c4 e0bf
00000090: d1d8 f025 2316 e3bf bb06 15d1 08a9 d4bf
000000a0: 7a14 40a2 e215 d9bf e177 d591 b773 debf
000000b0: 6352 328a 21da debf 1c00 76ca 471a dabf
000000c0: 8f84 46df e597 d5bf c68c 45c3 337f d6bf
000000d0: 007b f4df 1850 b2bf af69 dd13 a4eb cebf
000000e0: 5b44 a331 6a31 dfbf d065 d477 e5b4 dcbf
000000f0: a660 cac5 dc57 d2bf c4fb e888 fd56 dcbf
00000100: 70b7 9298 1028 e1bf 667b 4269 7eca d8bf
00000110: 6bcb 3a6e a718 d9bf 5373 ade3 941e debf
00000120: abb5 5930 59ff d0bf 6bd3 77d1 bbcc e1bf
00000130: 4f27 a04a bcdd d5bf 75fe c44b 5983 ddbf
00000140: 42e4 b338 f513 e4bf 29a8 831b 3b73 e2bf
00000150: 83f6 c7f1 fa18 8ebf 7045 38c4 71e2 e3bf
00000160: f0b1 c1fa db4c dcbf 021b 7a4a 5a93 d5bf
00000170: be1d a0d1 21cb dbbf 3f29 aa99 4470 d9bf
00000180: ad0f acd4 1d29 dcbf e2f1 17b3 5de4 e0bf
00000190: d3e9 93ba df83 e1bf fce0 e389 1986 d5bf
000001a0: 4761 92d5 6bfe dcbf a830 da4a 982b e0bf
000001b0: cc7f 057b e8fd e1bf 08ce 52eb 569a 1b3f
000001c0: 8877 1c81 5a79 dcbf 3017 3b03 335d 1b3f
000001d0: da36 b1ed 5347 e1bf 8ee2 d022 45c6 e3bf
000001e0: 4dfa 1b20 901a d8bf fa1a 736c a6fb dbbf
000001f0: 3c3e bb2f 7d07 e3bf 61d9 28f8 f2e2 dfbf
00000200: e506 1ef5 94e6 dbbf ab67 20a4 8a38 e1bf
00000210: a16d bc7c 2f0e d8bf 94e4 02fd 7c3c d6bf
00000220: 647b 5b24 eca2 dcbf addc c01c b22c e4bf
00000230: 4818 9110 d253 e1bf 8ae9 d238 5b3d cdbf
00000240: 7651 cfd5 7c46 e0bf b8e2 1c4e 3e0d dcbf
00000250: 956e 2bae b393 e1bf b98c ec39 6ebf d0bf
00000260: 4fdd 890f a152 dcbf e16b f895 5cfc e1bf
00000270: 51f7 9159 22b0 ddbf 25e7 a180 3591 dbbf
00000280: 0f6a b5f8 16b2 dbbf 3c58 1d57 bcb6 dcbf
00000290: a13c 2abd 3cc1 debf d640 9741 33f1 c9bf
000002a0: 835b 2e12 d087 d4bf 1c1a a205 7a10 e2bf
000002b0: b9b9 f4ab 0b6e d0bf f368 7721 cd94 cdbf
000002c0: c149 f195 fe8e dbbf 11f7 9f57 1895 e1bf
000002d0: 9faf 02b5 88cb dcbf b1da 8eb5 06c6 d8bf
000002e0: 4e7e 8027 381f e3bf c6f4 4c1f d31d e3bf
000002f0: 63f0 3e50 5df9 d7bf d6bd 1ad6 4122 e2bf
00000300: af40 a2b5 eb4c e3bf e4c0 59b2 9e1a dbbf
00000310: 7e5a 058f 3d25 d9bf 2547 9c4b 51ad debf
00000320: 57d5 dcdd 542e debf 4445 873b 802c cdbf
00000330: d896 2f4e d5a1 e3bf 3cef efb5 cb7b dfbf
00000340: ff07 64e1 2563 d2bf b80d 1e18 fd7b debf
00000350: d579 12e0 0d5c d4bf 50ec c97c 93de e0bf
00000360: f655 fb85 9e9d d2bf 02f6 8267 0c35 d9bf
00000370: 5ea8 1135 41b6 f83f 3a02 09f6 4489 e2bf
00000380: 2689 1c07 8d4b d5bf d414 f164 e51f e4bf
00000390: a108 7d92 97e5 cabf 71f4 1d91 9bdf dcbf
000003a0: 3481 3037 9d51 d7bf 8c7f 735d 14e2 dcbf
000003b0: 5b49 dac5 6fe1 e1bf 310b 89ae bce2 e0bf

module.model.hidden1.weight f8 [120, 120]
-0.3931521363270586 -0.23175157697535656 -0.338435818841175 -0.0015512822850421541 -0.3314864739639238 -0.16595784110841696 -0.2743890985602085 -0.20081019103860964
-0.30081688550316926 1.6931893554303363e-10 -0.0006007832889467022 0.005544136592584584 -0.2967365091192322 -0.18527981654627176 -7.020714869482692e-10 -2.8153778252643364e-07
-0.005672038097353889 -0.004447470926566788 0.0010809325646731096 0.0006164545238660806 -0.07801947370100053 -0.15213595084877224 -7.31013396370034e-10 -0.16653243506210252
-0.39503079696523313 -2.0304870800073828e-06 8.335542677329947e-06 4.484621503077999e-05 0.00011514746511378467 -0.169888390812511 -0.3631549686066075 8.915355360001294e-05
1.2393322347866207e-09 -0.16468613159896217 2.856025061421936e-07 -0.4096083296750351 3.7254978181225214e-10 2.927850491366875e-05 -0.08320876309017662 -0.3444453704395865
-1.0016102248366847e-09 -0.09786723521349561 4.378850518886589e-10 -0.05959900418047592 -5.998234997561854e-08 5.3033751046742325e-06 1.9372075108957372e-07 -0.0264970377406509
-0.17616202552232083 -0.15607864605587687 -0.1910529193258525 9.03706832002462e-11 -0.20974749536152534 2.4438570406524548e-09 -0.3518794215183212 -0.18844808517300726
-0.06392672930860947 -0.3576255006762697 -0.19803408268762396 -3.957332816920295e-10 -0.02671435578764245 8.094204259226308e-05 -3.1142734926476177e-10 -5.425168864583929e-09
-0.023993319439354968 -0.23676225178944316 -0.04470765043553353 -0.30479502320825735 -0.1821240900072735 1.9684966014951275e-07 -0.00850569768857446 -0.0012570531082765634
-1.9359217919187573e-05 1.8451992206612368e-09 -6.207095340980637e-10 0.008902510585096814 1.428217608185318e-09 -0.11303259658295906 2.282513972687647e-09 2.0080745380977885e-10
2.747649704295005e-10 -0.0047704091646163845 0.0005374394326983444 -0.3310307607460689 8.562572255710736e-10 -0.18058653398081895 9.769351232195347e-11 -0.20469392079731866
-0.28832124436169376 1.1006103794492542e-07 -0.2140276461027097 -0.46142265699770546 -9.173779485452867e-10 -0.014329934245504498 -0.37124073658478207 8.525563880221365e-05
-9.66216031021831e-11 -0.061456533066119624 -0.2484530983520491 -0.21458885127562866 4.7201325077342135e-09 0.00047522488509770796 -0.2755607554697413 0.004128537247486719
0.010223848360034146 -0.00466579764530253 -0.03354223597347236 0.003049208499256235 3.1143654265461607e-09 -0.4143559557213984 -0.010527497714089555 -1.8712965040549796e-09
-0.19985666203663532 -1.2041778161577565e-10 -0.356343004716118 0.00027773721539388926 -0.3529448393487491 0.006826797297562919 1.5322476182678836e-10 -0.017753020424656932
-0.4674921126330415 -0.49292038937678667 -0.0027847542798787937 -0.5579956276580097 -0.5766050364136781 -8.855306076036731e-10 -0.4398294745835571 2.631461718054286e-10
-0.511195372010259 -7.723990629401318e-09 1.1040808784795824e-09 -0.3770838977685754 -0.478670453671909 -0.5019513085566253 -0.5885205749375191 5.702469825067171e-10
5.058739856834423e-10 -0.004771571799524114 -0.0050021126987445505 -1.8230606339107178e-09 -0.43532074486476563 -0.46151066649665845 -0.5418836815564102 0.01409006192543432
-0.5803415023602339 0.002875014155516329 -0.005140831551631308 -0.4284825979397816 -0.6268564192788775 -0.6106586937956756 -9.362913319663487e-10 -0.5110930520669171
-0.4722282088561744 -0.5038769872769683 -0.4822610185569336 -8.557432136558658e-10 5.2410411922907196e-05 0.000772699279651468 -0.49979022036190873 -2.7988206689416567e-09
-1.6380349115957888e-10 0.0026468913811473513 -1.9969663565444818e-10 -1.6305823881095485e-09 -0.006689425484240795 -3.842324656591219e-05 -0.43020153169083974 -0.550212192591423
-0.4540449391365453 -0.4325511348133793 -0.4830992514205462 -0.4600410563908291 -0.6041349785759381 -7.432263338280156e-10 -0.5727331179331158 -3.167563102798829e-10
-1.9825689061856813e-08 5.617810277125903e-05 -0.49088304135323624 -0.564137416328118 -0.4719464013301094 -0.48476210722786806 -0.4743539464815337 9.05511693871508e-09
5.963230218403227e-11 -0.5196260475293272 2.5786162854594997e-10 -0.43911733210579357 1.854788704506864e-08 0.000928188414954477 2.6264462918042643e-10 -0.4194310145089254
1.346901857647512e-09 0.005911963541171843 -0.4558519085583953 -1.5597819364541728e-09 -0.4379144700025496 -0.498026310186833 -0.5120767273401577 1.7898975338371973e-10
-0.45483629278806814 0.001575470340218962 1.1800297623278966e-09 9.846037745927241e-08 -0.6006280072860821 -6.511585647639661e-11 -0.5263282891189676 0.005273517892535352
-0.5905076250722084 -0.2290945646934845 -0.5514556122671515 -0.5071416137686617 -0.0015912335163714628 -0.5931006938348826 3.682005285907472e-05 -0.4526558832962876
1.7823118648918356e-11 -3.523129128106143e-11 -0.5546606650058135 -0.5608731519188304 -0.4647320950323846 0.0056244827517172085 -3.559692388241036e-11 -0.4784793653592745
-0.5382974439848814 1.0940952761881775e-09 -2.3521398583996414e-07 -0.6170539039838876 -0.41783361924287427 -0.44074093340511744 -0.4737473366371296 -0.0015799400647660542
-0.48439982894930045 -0.5873137309305505 -7.687425201343046e-09 -8.05029940686057e-06 -0.5407942061223568 -0.5513634632176057 -0.5782863602932398 -0.5933208723200842
-0.5599567508724241 -0.45418806504859405 7.737533514322036e-10 -0.5469383948845143 -0.5657296363367338 -0.014985003544940093 -0.6034076361937896 0.0011040377444083373
-0.5011166193776446 0.0007392419881886125 -3.154771353375658e-10 -0.4173402255664622 -0.48429810331662204 -0.43439417051336887 -0.5650850964701403 -1.2368429031069473e-07
00000000: de24 f893 6729 d9bf 25ea f321 09aa cdbf
00000010: e2f0 6db5 eea8 d5bf 3079 97ab 8c6a 59bf
00000020: 3b73 2f0b 1337 d5bf 35a7 0946 1b3e c5bf
00000030: 257b 2c4b 978f d1bf 846f 9bf9 25b4 c9bf
00000040: 2986 5477 9540 d3bf d072 d963 6145 e73d
00000050: 5036 fc49 bcaf 43bf 1067 98d5 72b5 763f
00000060: 5090 8c20 bbfd d2bf 3b6a 56c0 3fb7 c7bf
00000070: ae77 8971 7c1f 08be 4683 1e43 c8e4 92be
00000080: 3baa 1322 903b 77bf 4d4b dfe2 8237 72bf
00000090: cec9 ec80 c2b5 513f 1931 7e02 3233 443f
000000a0: c336 ff8f 15f9 b3bf d67d b8da 3079 c3bf
000000b0: 6954 6ad4 0f1e 09be 1251 2851 ef50 c5bf
000000c0: 3839 7840 2f48 d9bf 0037 c713 7008 c1be
000000d0: a81b 1f43 1c7b e13e 88cc 1a37 2883 073f
000000e0: 43c6 3463 6a2f 1e3f 2e41 411d e7be c5bf
000000f0: f7e5 6256 ee3d d7bf 86f1 5c63 fe5e 173f
00000100: 16a1 350c a44a 153e f440 a966 6f14 c5bf
00000110: 6c3c 0f1b 9d2a 933e cde6 07db 0537 dabf
00000120: 43e9 fc0e f799 f93d f029 8b89 63b3 fe3e
00000130: f581 3664 2b4d b5bf f9fb 5298 640b d6bf
00000140: 28b1 dcdb 2035 11be f886 97be d30d b9bf
00000150: 364a def4 5a17 fe3d 809b a8bb c283 aebf
00000160: 9ebe ffa8 f419 70be 0bde 04a6 743e d63e
00000170: 42e1 35bf 3100 8a3e 57dc 251a 0a22 9bbf
00000180: 9f2e 352d 7a8c c6bf 55fc 3494 62fa c3bf
00000190: 96a9 270c 6c74 c8bf e9b7 3080 45d7 d83d
000001a0: e371 7f84 01d9 cabf 4e4c 0b35 19fe 243e
000001b0: 249f e343 3185 d6bf f8eb 671d 111f c8bf
000001c0: 4381 b88b 805d b0bf 6db1 6711 56e3 d6bf
000001d0: 8a7f 514a 2e59 c9bf 3b27 8d42 d031 fbbd
000001e0: 593b c411 025b 9bbf dc47 06b4 ed37 153f
000001f0: 980d 1718 b066 f5bd 1ea3 a147 094d 37be
00000200: 140f 4269 b491 98bf fe75 2eb8 394e cebf
00000210: e6d3 00d1 ebe3 a6bf 066f 2afc c281 d3bf
00000220: 5d8f 3299 d74f c7bf 1c76 0cec b36b 8a3e
00000230: 037b 376b 6f6b 81bf 050d 527f 7698 54bf
00000240: 9209 4f53 b34c f4be 432f 72a1 45b3 1f3e
00000250: a2f2 fc9c d153 05be f4b3 85be 7a3b 823f
00000260: 640a 6f12 5e89 183e 60ad b449 b4ef bcbf
00000270: 92ab 7522 4d9b 233e 36b6 90bf 4899 eb3d
00000280: 14ef 1e6b b7e1 f23d 26eb 9bf5 228a 73bf
00000290: cc13 bd64 5e9c 413f 9ff5 d7a4 9b2f d5bf
000002a0: 55fe 6adc b76b 0d3e 8dd6 c5a4 751d c7bf
000002b0: 5ec0 dddc 91da da3d 11db c10f 6933 cabf
000002c0: c7a1 d1f2 da73 d2bf 000e 7a41 568b 7d3e
000002d0: 5eba 3906 4265 cbbf 8a11 5ce5 f287 ddbf
000002e0: cf6f 5d7e 5785 0fbe e294 8137 0359 8dbf
000002f0: 14c6 a481 68c2 d7bf 8338 c9b8 6859 163f
00000300: 86b8 1a10 248f dabd 5dff 490f 3b77 afbf
00000310: ac86 01a6 4fcd cfbf 0053 28c1 a577 cbbf
00000320: 7f2b 0c30 d745 343e 9733 f956 f324 3f3f
00000330: 0d6e 3394 c9a2 d1bf 6716 55c7 15e9 703f
00000340: 1ecf c3b2 3df0 843f 9dc2 bd84 711c 73bf
00000350: ece0 14ad 722c a1bf a942 0e59 a7fa 683f
00000360: 3b03 2fdf 8fc0 2a3e 8e7a aed7 ce84 dabf
00000370: bc36 20d3 708f 85bf c1a8 a047 0613 20be
00000380: b0e3 aa31 e794 c9bf 607b ecf3 d28c e0bd
00000390: a080 dae3 52ce d6bf 6cad ca41 a833 323f
000003a0: d8de 92f3 a596 d6bf 453e 1272 6af6 7b3f
000003b0: 4f90 e5f5 1d0f e53d 7138 8408 d92d 92bf
000003c0: 2f66 b909 64eb ddbf a1e9 f9f5 018c dfbf
000003d0: 0f39 e791 0dd0 66bf c544 83a5 19db e1bf
000003e0: 6061 c367 8c73 e2bf 3936 3fa8 356d 0ebe
000003f0: b3ce 4986 2a26 dcbf 9d56 5400 5115 f23d
00000400: d9d1 9465 b65b e0bf 0026 900a 4f96 40be
00000410: 04f5 e78e ccf7 123e 4ae9 3080 2422 d8bf
00000420: ef44 0566 89a2 debf 6dec cd30 fc0f e0bf
00000430: 0227 cc19 29d5 e2bf 31da 880c f297 033e
00000440: 5599 5bf2 b661 013e 5e84 450d 5b8b 73bf
00000450: 2f73 3b67 187d 74bf 406c 42cc e751 1fbe
00000460: d5ba 9d8a 4bdc dbbf 91ee d608 6489 ddbf
00000470: e3aa 5072 1c57 e1bf 9cca 5819 40db 8c3f
00000480: 3ec2 a457 2892 e2bf 7b58 c078 578d 673f
00000490: 3f4d 3776 8d0e 75bf 5a9d 4346 426c dbbf
000004a0: e8e4 8231 350f e4bf 2ddb db19 848a e3bf
000004b0: 0cdd cc52 da15 10be 33e3 fad0 df5a e0bf
000004c0: 9f4c 52aa fc38 debf 85f8 b1a1 c21f e0bf
000004d0: 889c b551 5ddd debf f2fc b868 3267 0dbe
000004e0: 662b 9b0a 687a 0b3f 6a1e 6011 df51 493f
000004f0: 7929 d41e 90fc dfbf c259 18f7 ab0a 28be
00000500: f2a0 f9ae 5283 e6bd c702 61fd eeae 653f
00000510: b88c 4963 3372 ebbd 4d38 128f 6003 1cbe
00000520: 8b05 f1fa 5e66 7bbf ad4d 02b3 1425 04bf
00000530: ea47 5301 6c88 dbbf b84c a199 569b e1bf
00000540: 945e 2081 120f ddbf f1c0 77f4 eaae dbbf
00000550: 66b1 641f 19eb debf 8d04 010b 5071 ddbf
00000560: 5b4e ebe0 1255 e3bf 0ebc 87eb 7c89 09be
00000570: a57b 5b67 d453 e2bf d472 d799 6fc4 f5bd
00000580: fd40 7cd7 a449 55be 0583 c9e9 1874 0d3f
00000590: 8a7b 31b4 a06a dfbf d588 32e9 690d e2bf
000005a0: 9d5f cbad 5e34 debf 2c8f 38a5 5706 dfbf
000005b0: 5d78 b7a7 d05b debf a4fe 2a6a 1a72 433e
000005c0: 9d8e 3a0e 4064 d03d f338 09ce c6a0 e0bf
000005d0: 3a79 c388 59b8 f13d e912 2095 7f1a dcbf
000005e0: 101d bd84 67ea 533e c034 8171 356a 4e3f
000005f0: f635 0d41 7e0c f23d a69c 8f2e f5d7 dabf
00000600: e4b5 11ad bc23 173e 7819 08a1 2437 783f
00000610: 9af5 c47b ad2c ddbf c942 4256 fecb 1abe
00000620: bbca c669 ca06 dcbf 3133 b3be a9df dfbf
00000630: 7bff 9ebb ee62 e0bf 378c 8f5f a499 e83d
00000640: a6c0 a3ae 091c ddbf 8b5d 9265 00d0 593f
00000650: 9217 4466 d345 143e 9f80 3c47 256e 7a3e
00000660: 365f 0b3a 5838 e3bf 15df e3fc 1ee6 d1bd
00000670: 1a38 976c aed7 e0bf db09 222e af99 753f
00000680: 1529 373f 70e5 e2bf 3662 867f f852 cdbf
00000690: 2042 7c3d 86a5 e1bf 5277 b20c 813a e0bf
000006a0: db77 70fa 1d12 5abf f02e 684e aefa e2bf
000006b0: 08f2 0762 e74d 033f fe5e c661 50f8 dcbf
000006c0: 68dc 4f0c c398 b33d 77f3 d20a 5d5e c3bd
000006d0: 8a7b 12b9 c7bf e1bf 2044 9640 acf2 e1bf
000006e0: b533 64af 2bbe ddbf 67d1 9b97 b209 773f
000006f0: 42c7 5558 d291 c3bd d0d9 81ea 679f debf
00000700: 45ef ad8f bb39 e1bf 3a64 00c5 e1cb 123e
00000710: b097 7d19 e491 8fbe 845b 2fd4 e7be e3bf
00000720: 4951 7438 c9bd dabf 8ef1 be75 1935 dcbf
00000730: d71b 5b59 e051 debf 7a90 19ba bfe2 59bf
00000740: 869d e123 6800 dfbf a6d4 5a2a 46cb e2bf
00000750: eb7a 2dea 3482 40be 98ea c1b9 f8e1 e0be
00000760: 832d a5a6 2f4e e1bf 4653 57fd c4a4 e1bf
00000770: b6d5 a565 5281 e2bf 3ac4 d40d 7cfc e2bf
00000780: c67c 856b 2aeb e1bf bb80 67d1 6a11 ddbf
00000790: f85b 10a7 0196 0a3e 4895 def2 8480 e1bf
000007a0: 4137 ce09 751a e2bf e268 3f21 75b0 8ebf
000007b0: dd7c f387 1d4f e3bf 67c1 5e80 ab16 523f
000007c0: a6b0 76b8 2509 e0bf e176 e014 3639 483f
000007d0: a0dd 8ab5 eead f5bd f83e 07c7 b3b5 dabf
000007e0: 449f d078 bdfe debf cf63 fb34 1dcd dbbf
000007f0: f17a 1957 2d15 e2bf 3d9e e085 c299 80be

module.model.hidden1.bias f8 [120]
-0.40518379624621187 -0.5544957628463624 -0.45404153321915575 -0.5548471540889194 -0.5097493637549955 -0.4518579101006536 -0.531949642624152 -0.7503212739525033
-1.6833086940854864 -0.4842662692322302 -0.47110114211192755 -1.7515358440511803 -1.8063837027954661 -0.49228044887467143 -0.47166751927370276 -0.46235249665727896
-0.6867350776501984 -0.6139012009800193 -0.5060430759775133 -0.7343416561674146 -0.23352280661632435 -0.44058993862181756 -1.6765448573416724 -0.4859194976967222
-0.5084118102294977 -0.4624969659161687 -0.2625836926034458 -1.7207520481749965 -1.7469779088342465 -0.4694816232229468 -0.4086799860645251 -0.375823273767545
-0.5495899483609301 -0.4550927815285869 -0.40314249460688956 -0.4550722596344986 -0.4639461677693523 -0.4414588203189649 -1.7667188470957658 -0.36093156901955525
-0.6120946829803167 -0.5272057521419874 0.15248925891488163 -1.802111758357578 -0.6638372242735722 -0.4487729635496278 -0.5054500694088986 -0.47446304011010754
-0.6389916710068356 -0.5104441025191631 -0.8210560325419423 -0.6534837727589278 -0.4495367141566459 0.018818500579312735 -0.4832806727989474 -0.2679976539168592
-0.4930590163548551 -1.7841408729784356 -0.5208049879682305 -1.7750215599107142 -0.10303305806642274 -0.6384995175793585 -0.35749738270787645 -0.12330209593000639
-0.6381295791989166 -0.49058038491649614 -0.014654177557953675 -0.6735881228584766 -0.4771600703908158 -0.5017122588725754 -0.4772732738531476 -0.5649378136481342
-0.4333599517879334 -0.47673020217248485 -0.47091188330515377 -0.6563266436413164 -0.5094027035108802 -1.8258673511043302 -0.3218370081840729 -0.5727115872703902
-0.34803211371615 -1.7821147047217671 -0.4234675652063329 -0.47925287357134705 -0.4077166941093366 -0.45796609141143946 -0.3439567885773145 -0.46687209624698306
-0.08672201585087085 -0.18263787526409003 -0.08061859997447451 -0.639724675788809 -0.4481128722707831 0.005574182237795598 -0.7104091171159483 -0.6209194745575837
-0.4391744587504176 -0.4557551221076078 -0.43774345070482973 -0.44590058759882284 -0.38152839004205 -0.4286574196778649 -0.5083321568908483 -0.6160392797600263
-0.46891056684315524 -1.6696340325750987 -0.4702069198992374 -0.4271677133304061 -0.4779101505368348 -1.8035921771222645 -1.7038901761246414 -0.6543323764525084
-0.5300798508671551 -1.6760200947052972 -0.45739734958129913 -0.43431992209156417 -0.3960273906525271 -0.3816070349815604 -0.7582097735125184 -0.5744059474092659
00000000: 6bc8 6f04 88ee d9bf 2943 e6e5 6dbe e1bf
00000010: 1aed 0c38 040f ddbf 0be6 a2d1 4ec1 e1bf
00000020: 2281 cfe5 dd4f e0bf cb8e 9470 3deb dcbf
00000030: 5f11 c641 bb05 e1bf 53cf a3c2 a102 e8bf
00000040: d1b6 e218 d5ee fabf 9122 3af3 37fe debf
00000050: 90a7 9e67 8526 debf 938b ff72 4a06 fcbf
00000060: e68a f898 f2e6 fcbf 5b1f 18db 8581 dfbf
00000070: 986c 77f6 cc2f debf 507c 17ed 2e97 ddbf
00000080: 84c1 70d7 bbf9 e5bf d6e5 a521 14a5 e3bf
00000090: e919 b63f 8131 e0bf 738b aa12 ba7f e7bf
000000a0: 76c4 a448 13e4 cdbf 5df3 5424 a032 dcbf
000000b0: 95f3 48b3 20d3 fabf a327 c617 4e19 dfbf
000000c0: 4abf 3ad8 e844 e0bf a9fc c6df 8c99 ddbf
000000d0: 3d76 0cd5 2bce d0bf 6cfc b64c 3388 fbbf
000000e0: e170 941b 9ff3 fbbf fb31 74a6 fc0b debf
000000f0: db51 ab19 d027 dabf 8e10 7a0f 7d0d d8bf
00000100: ee74 cda8 3d96 e1bf aae6 5379 3d20 ddbf
00000110: 80b9 7d2d 16cd d9bf 869b 1c66 e71f ddbf
00000120: 2321 6b44 4bb1 ddbf 943e f37e dc40 dcbf
00000130: db0c 58fb 7a44 fcbf f61b 42b9 8019 d7bf
00000140: 2097 ae96 4796 e3bf 39d0 f698 dede e0bf
00000150: c0ed 039e c484 c33f 2a20 9e23 73d5 fcbf
00000160: c8ea 0390 273e e5bf e493 713c b2b8 dcbf
00000170: a6e8 bb9f a52c e0bf e4c0 1b3a 9a5d debf
00000180: 0781 2ca9 9e72 e4bf 2430 d8de 8e55 e0bf
00000190: da6f fe4c 1746 eabf daeb 0ecd 56e9 e4bf
000001a0: afdc 69a3 35c5 dcbf 130e 3132 2845 933f
000001b0: 7876 1d0f 12ee debf 9991 bea1 df26 d1bf
000001c0: 737d 8f67 478e dfbf 6a63 ce4c d78b fcbf
000001d0: e559 dd38 6faa e0bf c92e d801 7d66 fcbf
000001e0: 025a cdde 5f60 babf e17b 508a 966e e4bf
000001f0: 00b3 c8b3 3ce1 d6bf 9f31 8ce5 b990 bfbf
00000200: 78a0 28b9 8e6b e4bf daa0 5145 ab65 dfbf
00000210: a1b6 e36a 0203 8ebf 86d6 d4ad 088e e5bf
00000220: 7747 5264 ca89 debf 1985 fbdd 060e e0bf
00000230: 5110 9d33 a58b debf 308f 3c77 f813 e2bf
00000240: e4d1 1461 2bbc dbbf a029 d664 bf82 debf
00000250: 54fa 8598 6b23 debf 52da bdbb a000 e5bf
00000260: c757 02e6 064d e0bf 683c fdae c036 fdbf
00000270: c8c1 3240 fa98 d4bf fdba 2b40 a753 e2bf
00000280: 6d97 977c 2846 d6bf d002 68b5 8a83 fcbf
00000290: b096 deb3 171a dbbf 7830 a03e 14ac debf
000002a0: cbe6 cec2 0718 dabf 4580 5202 514f ddbf
000002b0: e84f 8b55 6303 d6bf aded 3280 3be1 ddbf
000002c0: 0335 ecfd 6933 b6bf b895 a28a ad60 c7bf
000002d0: e8f4 56aa 6ba3 b4bf dfa0 1ee2 9f78 e4bf
000002e0: f674 d49c e1ad dcbf 7ec7 9c26 f4d4 763f
000002f0: 2862 99e6 abbb e6bf 1494 9584 92de e3bf
00000300: 3094 6430 6f1b dcbf 46f2 1b88 172b ddbf
00000310: 0930 341b fd03 dcbf 9f43 409e a289 dcbf
00000320: 0779 6e0d f66a d8bf 3b11 ad87 1f6f dbbf
00000330: 223e abcc 4144 e0bf d6dc f301 98b6 e3bf
00000340: 68c5 5577 a102 debf a92d e32c d2b6 fabf
00000350: c97c d4c3 de17 debf 0f51 aa3f b756 dbbf
00000360: 6bdb be74 1496 debf 2cfc 8078 83db fcbf
00000370: 70e5 6658 2243 fbbf c07a b273 4af0 e4bf
00000380: 90c6 f704 6af6 e0bf 502b 6372 fad0 fabf
00000390: fda3 6e88 ff45 ddbf 3d9c 58c9 e5cb dbbf
000003a0: 7c0f cb44 8358 d9bf 4dd6 cae9 3f6c d8bf
000003b0: 7ccd 9724 4143 e8bf ad05 d894 8861 e2bf

module.model.hidden2.weight f8 [120, 120]
-0.005026670617681632 9.361245845339178e-11 3.495430388127363e-10 -0.00385425108113285 -0.39468632629936173 -1.0046199558385516e-09 0.07764406116284191 -0.4185489345675
0.0024187787105704123 -0.4557310898116205 4.148698630859935e-10 0.0026745206057892353 -0.005903384907893697 0.01219748802066692 -0.4297980834399053 -0.44107461343260224
0.5509947331285493 0.0020475944269357344 -0.00017808100534536845 0.5224394598453442 0.573271481023108 0.46001563142534785 -4.641625917977745e-11 -4.777472900560152e-10
-0.42159550397497925 -0.00398138771571609 0.47954215821643453 1.5105320936374784e-10 1.8307385559068854e-09 -0.006736751857494669 -0.0015466330800449992 -0.23427161724610188
0.005507842999694201 -1.3118979288950208e-09 -0.6589767611752345 -0.4330238127385577 0.3868073987568347 1.2062597068992217e-09 1.962492094532317e-08 0.48221081466759386
0.0027619080438966246 0.5589934837383714 0.5294925996098396 0.001808879216928265 0.45488263641191695 -1.1792103209082146e-09 0.43088402409325166 0.00510757705210637
0.5329601617367743 -0.48230234887920964 -0.5204793389266688 0.49550155101195387 -4.216279807817254e-10 0.5298127814531098 -0.43970231759633116 0.4394870596022165
-0.004176034922957336 -0.00185202963824022 -0.004571520067697155 0.005411564947428702 -0.11436398450130725 0.49723963010774774 -4.1025806473255095e-10 0.48225921344148437
0.5450191724827694 2.2991729897287594e-10 -0.15694037264965738 0.4619586002913246 3.655593620963462e-05 1.0559906241991026e-09 -1.577944926108842e-08 0.4065814233594507
-4.103137680130586e-10 0.0008219554416927187 2.0861171734594742e-10 0.4505726548694698 -1.4732574714237286e-06 1.5351019240822903e-05 0.48121757783549224 0.007993779573199791
0.4815549284519489 4.831366657685897e-06 0.006477743219493709 -1.4527236995362671e-09 -0.16956495600441823 0.0003407113559999072 -0.5947329201949492 -0.012401235552261348
0.5290641775629323 0.5286620029548756 0.5739176548753117 0.48918411943625334 -0.5495973203570452 0.4550355458394416 0.49765376224219227 2.277802381144097e-10
-5.706735931179202e-09 0.0008580480976290359 -0.004061603458330127 1.2214987865377056e-09 -0.14707961605011002 -0.18028458826614033 -1.936189506931005e-09 5.647432705137603e-05
-2.4667076322673277e-09 -9.755882792661069e-10 -0.0004981219302108537 0.4096467377410184 0.4041881828202763 -1.7349837638343386e-09 -9.863451246259656e-10 0.4947361075777341
0.46830936070254026 1.709555555273712e-10 0.4694149730462602 0.3915766935485488 -4.355670116146041e-06 -0.19225679979406396 0.5419076681633066 -0.009934340808278994
-0.010832661910607026 2.100275052218725e-09 -7.360345302225575e-09 -0.03296728438883525 0.006512853747869388 3.8707610159615e-10 -0.4205753512114873 -0.0003838580247986678
-0.04350080330368417 -2.8600570481964898e-08 -1.0007709994656644e-07 3.696663306136357e-06 2.6164801278329467e-06 -0.008002899240212588 2.4332083883931527e-10 3.8251306456216633e-10
1.893395771493868e-08 -0.002821565995663928 -1.2453386046521577e-05 0.00010833755959464027 -0.5464488957831314 -0.5689832122084614 -5.054030468420986e-07 -6.490013626207682e-10
-0.0026672411162833665 -0.008117629844492723 -0.4403935300338153 -1.5798845063548967e-05 -0.00798816599157948 -1.943248449423841e-08 -0.0401768704269815 -0.5443070864034447
0.0028196629516567444 -0.0067768666504198416 2.447110751523737e-09 1.1484390856665857e-10 -0.5594092548179403 -0.0003471553847244255 1.6012666808160497e-09 -0.440545877437376
3.499238639979267e-10 -0.534903874418595 -0.5313605082683434 -2.661806724116666e-08 -0.026266802885812728 4.522207912483419e-05 -2.320081851501379e-09 -0.029567992218828214
-0.00352112931144119 7.766562510630522e-10 -1.4578277198035794e-05 -0.00922242042615428 -0.007455904561518159 -0.5694923531676603 1.3097011926658446e-09 -0.46642369742708517
-1.6282952173993356e-07 -0.00010093877762621264 -0.03692532129713489 -1.2368679506304749e-05 -0.4794906056196611 -0.0011202022059416251 -0.028408778088412547 -0.5305193715853048
-2.253732593035275e-07 -0.018289136829836853 -0.5678859954726159 -7.747704739188633e-05 9.61117499889041e-10 0.005519224978351484 2.2554709704832393e-10 -0.46534998106784
-0.0046437041197166 -2.223050088818237e-08 -5.782341166998518e-06 -0.030237259517615515 0.002961360806118519 -0.00032819399643040136 -0.4833823777263194 0.007967897341863437
-0.5364555404315329 -0.02498515321842687 -6.697852710822534e-06 -0.0025382082001318878 -0.5668931432634772 -0.00011212079292141177 0.0001840373523935171 -0.008228623322008273
-0.5306200187290382 -0.5370960560216296 -0.44758787414481715 -0.00023200468448153922 -0.003480165337890396 -0.440199178380315 6.225661767358696e-08 -0.0012599113577902576
4.191571550974183e-05 5.893165389280711e-10 0.00012328889102300239 8.733996216857008e-05 -0.5217464238050133 -0.446980753266592 -0.0025074953122479313 9.741256998492949e-08
-2.9778976206478625e-10 -0.012024950374976062 -5.8742642142833123e-05 -0.5662452611013981 -0.4478258686698836 1.8980812562356497e-06 -0.00026464323664534173 -0.0010677224269808974
-0.5706519044056352 8.282901808750537e-05 -0.4825788788738687 -0.47981406440030283 -2.0443101023534598e-07 -0.5317795535721666 -0.0009981711003018549 -9.662954568566722e-05
-0.003934854065610795 0.5262258432488144 0.4271958118801223 -0.007519119901653653 8.891573182115586e-10 0.4246281886609996 -0.45420457342636256 -8.386035501842288e-09
-0.7289872739626835 -2.6083155242026597e-09 -2.332057392762298e-09 -0.8638460242063221 -0.8442751299526148 0.5635537654902039 6.4976537590687055e-09 -0.004442760720784733
00000000: 3841 929e d896 74bf c5d4 cc21 64bb d93d
00000010: b69a 3be6 3905 f83d 785c 024b f392 6fbf
00000020: ce95 e86f 8a42 d9bf d6c7 c283 5d42 11be
00000030: ad4b 6c2f 7be0 b33f 3c8e 6f78 81c9 dabf
00000040: 3241 a9ee 8bd0 633f f1b9 a0bb b22a ddbf
00000050: 3be0 c3c2 7782 fc3d 3a56 1951 e0e8 653f
00000060: aa76 d7d1 252e 78bf d10d 2321 fffa 883f
00000070: fb80 10d2 cf81 dbbf d47c f203 913a dcbf
00000080: 91c5 e1b4 bfa1 e13f 5b53 2ce3 1dc6 603f
00000090: 4565 2030 6857 27bf ff9e 45f5 d2b7 e03f
000000a0: d328 d76e 3d58 e23f e0b8 2767 e570 dd3f
000000b0: c162 f9fa 8184 c9bd a192 3c42 4f6a 00be
000000c0: a4a4 6db5 6bfb dabf 74d4 81a0 c94e 70bf
000000d0: 28f1 a597 d1b0 de3f 21a8 d45a b6c2 e43d
000000e0: 68bf 9a5e ac73 1f3e 7d1c 8c0e ff97 7bbf
000000f0: 2a66 da9f 0c57 59bf 1ffd 39c3 9cfc cdbf
00000100: 000e e258 648f 763f ce9f 84c1 c989 16be
00000110: d54a c26e 5616 e5bf 407c 8682 a9b6 dbbf
00000120: 5ebb e0d1 73c1 d83f 3064 0eb1 2fb9 143e
00000130: 274a a00a 7512 553e dc96 b1bf 8adc de3f
00000140: d498 2317 24a0 663f 52ab 6a4d 46e3 e13f
00000150: 8a8b d976 9af1 e03f 7a51 1045 fda2 5d3f
00000160: 8813 ba0f cc1c dd3f a57b 5bca 3842 14be
00000170: 705c f695 9a93 db3f 58d8 68c6 aeeb 743f
00000180: c05e 1778 020e e13f 8e17 ceab 0ade debf
00000190: 37e1 5d49 c4a7 e0bf e9ab 2d23 4cb6 df3f
000001a0: 08ba fc9d 5bf9 fcbd 3f01 2bef 39f4 e03f
000001b0: 324e 8330 1524 dcbf 256e 0055 8e20 dc3f
000001c0: d6a4 bcd6 e31a 71bf 14c7 8eae f957 5ebf
000001d0: a7b5 f012 96b9 72bf 249b 82e7 6f2a 763f
000001e0: 48fb 4545 f546 bdbf 60a0 652b c6d2 df3f
000001f0: 6cbf 4411 5631 fcbd 4641 7bbf 55dd de3f
00000200: 1135 300c cc70 e13f b9ad 88ec 7e99 ef3d
00000210: fee5 f943 9f16 c4bf f5db 16ce ba90 dd3f
00000220: eff1 6967 742a 033f c059 d3be 4b24 123e
00000230: 89d8 3f07 6cf1 50be b05b 1f17 6e05 da3f
00000240: 1b4d c7ee 5032 fcbd d6d3 d3de 0fef 4a3f
00000250: 1b0c 154e dfab ec3d 9db8 48b0 2ed6 dc3f
00000260: fc31 75b8 97b7 b8be 33ba 7402 c218 f03e
00000270: de14 c4cf 44cc de3f 3be4 b4ee 0a5f 803f
00000280: 7c70 3bc3 cbd1 de3f 50fa 5cf4 a343 d43e
00000290: a049 79f4 6788 7a3f d8a1 5c7a 25f5 18be
000002a0: 8417 4bf2 4db4 c5bf 4121 a321 3054 363f
000002b0: b8f0 4255 0d08 e3bf fa00 04a9 d165 89bf
000002c0: 18c6 83ff 17ee e03f 8c87 aa93 ccea e03f
000002d0: d52a c98e 885d e23f 8be1 ace8 ca4e df3f
000002e0: 48e3 9c1e 4d96 e1bf 5e77 f968 4d1f dd3f
000002f0: daf0 632a 8fd9 df3f c571 b1fd 4d4e ef3d
00000300: 8fb4 025d 9f82 38be b660 4442 d41d 4c3f
00000310: 4796 5d60 e6a2 70bf 6b6e b65e 35fc 143e
00000320: 79f6 6b3e 81d3 c2bf 07b7 49bd 9013 c7bf
00000330: c41d f1ca b9a1 20be ce49 1c1a db9b 0d3f
00000340: f133 5af2 5830 25be f0ba b3c0 aec2 10be
00000350: 6295 28b3 8c52 40bf 57b0 60f3 a637 da3f
00000360: e922 a91c 38de d93f 38f9 dd0e 8ace 1dbe
00000370: 2c4e 49e2 fdf1 10be d496 8ca2 c1a9 df3f
00000380: 6e32 28d3 c7f8 dd3f 2f5a 99c0 f67e e73d
00000390: 5321 5f19 e50a de3f 5dad 2ab1 970f d93f
000003a0: b218 207c dd44 d2be b449 c6ed de9b c8bf
000003b0: 14d1 06c0 4e57 e13f 65f0 07a7 7458 84bf
000003c0: 2fd4 1345 6f2f 86bf 005a 29be 8d0a 223e
000003d0: 1b49 c405 c99c 3fbe f371 9380 16e1 a0bf
000003e0: 1d97 9cdd 38ad 7a3f 1218 73c9 8399 fa3d
000003f0: 5740 bde0 b4ea dabf 4767 aea9 1128 39bf
00000400: a9fe 13bf bc45 a6bf 7eb9 423a aab5 5ebe
00000410: cf15 07f6 3edd 7abe 333d 0025 8602 cf3e
00000420: 9cd8 8529 d9f2 c53e 8544 14f4 d263 80bf
00000430: 25e8 9da3 8bb8 f03d 0842 edb1 3d49 fa3d
00000440: 647a a3d3 8654 543e a8a2 98b5 401d 67bf
00000450: 243b 6d58 dc1d eabe a729 ff19 6966 1c3f
00000460: 135d 0a65 827c e1bf 5d11 0d48 1c35 e2bf
00000470: 77c2 ad0d 61f5 a0be 5b08 be25 ad4c 06be
00000480: 12f2 ad2b 9cd9 65bf 8602 a0d5 f99f 80bf
00000490: f05f 3758 682f dcbf 5515 a55d f890 f0be
000004a0: 82c5 827d 195c 80bf e462 b587 8fdd 54be
000004b0: 533b 1411 1092 a4bf d4ae e2b1 f66a e1bf
000004c0: 6a2f 3805 4319 673f 5762 204a 0fc2 7bbf
000004d0: 4ac3 32e2 4005 253e d03b 70ef 6b91 df3d
000004e0: a6ba d03c aee6 e1bf 5749 2606 4dc0 36bf
000004f0: 8f16 bb01 7282 1b3e 3bcb fe55 e731 dcbf
00000500: b940 c7fb ec0b f83d b635 e4ba ee1d e1bf
00000510: 49c0 acc0 e700 e1bf fba5 d5f6 b794 5cbe
00000520: 1ece 754d afe5 9abf dcc2 a3ce 9ab5 073f
00000530: 8668 61f8 e9ed 23be 1e5e 5a5e 1247 9ebf
00000540: c0a3 9ae7 57d8 6cbf cdda c466 8aaf 0a3e
00000550: 3c8e 5929 a792 eebe 3c5d f650 34e3 82bf
00000560: 2aa3 0f24 158a 7ebf 7cab 0507 4839 e2bf
00000570: 568e 6873 2080 163e b7d6 a1c7 e2d9 ddbf
00000580: a468 b79e c7da 85be 4129 c6fe e275 1abf
00000590: 1121 bb2e e0e7 a2bf 7d51 ff5d 62f0 e9be
000005a0: 1d0b 785d f9af debf 3e29 b9f5 775a 52bf
000005b0: 7778 3cd3 3017 9dbf b14e dbc2 03fa e0bf
000005c0: 9e2f 4f27 c43f 8ebe 5191 3932 63ba 92bf
000005d0: 4829 4d40 1f2c e2bf 65f7 f889 654f 14bf
000005e0: e9dd 841a 0a83 103e ad25 80ac 539b 763f
000005f0: aa31 faa4 bbff ee3d 9e5b 7849 4bc8 ddbf
00000600: 8446 39d5 4605 73bf 13ab 106e acde 57be
00000610: 2c18 54d6 bd40 d8be 8ecb fe22 84f6 9ebf
00000620: e8c1 0b7a 6c42 683f 08d3 3d7b 2e82 35bf
00000630: 5206 f3a3 bcef debf 456f 0214 7951 803f
00000640: 832a 3dcf a42a e1bf 80b3 d53f b595 99bf
00000650: 4292 f2bb c317 dcbe 6a5d b826 02cb 64bf
00000660: ba95 d416 fd23 e2bf b256 218e 4c64 1dbf
00000670: 48b6 cdd1 441f 283f 5118 7920 2bda 80bf
00000680: 7c69 61d5 d6fa e0bf 2c8d 6d11 e42f e1bf
00000690: 1c71 629c 47a5 dcbf a068 9210 c968 2ebf
000006a0: cffd f289 6f82 6cbf 45a6 b72c 392c dcbf
000006b0: 11f7 2700 3eb6 703e 3de0 f684 73a4 54bf
000006c0: 0d52 b704 d5f9 053f 5715 60df ae3f 043e
000006d0: b0c3 8282 e328 203f 3a3b e51f 49e5 163f
000006e0: 0685 618e 25b2 e0bf 5d2c 4e29 559b dcbf
000006f0: 1922 8d4b 998a 64bf 0aa5 e20d 2426 7a3e
00000700: 9247 89dc c576 f4bd 73b9 c584 89a0 88bf
00000710: 5f9c a8d0 4dcc 0ebf 6b41 be61 ae1e e2bf
00000720: 325b 0fd5 2da9 dcbf 27d4 6469 32d8 bf3e
00000730: 5461 e70b fa57 31bf 2af9 ec39 5a7e 51bf
00000740: 7550 5ac8 c742 e2bf 9c96 04b2 8fb6 153f
00000750: 2b3b a085 92e2 debf 1ca6 b00c 46b5 debf
00000760: 9a6a c22e 3270 8bbe 14c4 e88d 5604 e1bf
00000770: baad d20e a25a 50bf e1bc 45f4 b254 19bf
00000780: 0fda 6b58 fe1d 70bf ab09 6294 d7d6 e03f
00000790: cdd9 401a 2d57 db3f 7929 2861 5ecc 7ebf
000007a0: 3184 9248 1c8d 0e3e ba8e d0b5 1b2d db3f
000007b0: b6d4 230f b011 ddbf 79c3 e392 4502 42be
000007c0: 5ed6 9b1e dd53 e7bf 6be6 541a bf67 26be
000007d0: 19fa c299 3f08 24be 69dd d76a a0a4 ebbf
000007e0: ca1f ff46 4d04 ebbf b42d 0ae8 a108 e23f
000007f0: 031e c5f0 3ee8 3b3e 66de fe7f 9232 72bf
