pyTorch/test_experiments/2/noisey_paths/models/ow_0.4_24_NP_model_3.pth (torch, 470675 bytes, 10 tensors)

weight f8 [120, 60]
-7.286284653400385e-08 -4.3073391029063745e-08 -5.023719038049246e-08 -5.872858721133458e-08 5.3723292593277445e-08 6.411785902136464e-08 -7.251564697850588e-08 9.10398530122246e-08
1.1458930752730328e-07 -7.479253173641915e-08 -8.488969653673174e-08 8.579550036110167e-08 9.480043226834858e-08 -9.75515147225217e-09 6.631790745117131e-10 1.2343911653644978e-07
4.0985673393261786e-08 -1.7373631642731756e-07 -1.539006485004848e-07 -4.560912418296067e-08 -0.19460521756902777 1.0147721794307147e-07 -1.1941372818081933e-07 -2.203068217878354e-08
-0.27165631531202045 -0.19816803927916954 -0.19007300972748212 -1.4487354467723208e-07 -0.29491387483622955 -0.2726239703411431 -0.2718047308830443 -5.098506043068292e-08
-0.31592803011085513 -0.2246364823594553 -0.200537842544021 -7.040908094991581e-08 -0.27029616097755454 -0.19027522542253822 -0.27860109631452695 -0.23304997479583234
-0.23543407294939656 -0.28333225990380145 -0.3159673941399245 -0.20109790834498822 -0.27625606863652113 -0.2803295761560404 -0.28776038863114806 -0.31581619710900466
-0.3157806013797989 -0.1928174214681716 -0.27708748115516757 -0.28203615479270744 -0.2256538079241014 -0.23395238203175292 -0.19005864717562845 -0.1903139657834781
-0.19154064558158113 -0.19041186606637373 -0.1900672513589574 -0.1950007331247278 -1.138789036581524e-08 -4.536770013357824e-09 -3.505073980932867e-08 7.644029564600887e-09
-1.65887807594097e-07 -4.950247196527182e-08 1.1887256732053392e-07 -7.27828448279815e-08 2.5874168515389602e-08 7.265417377994111e-08 1.4542776160963574e-07 2.974907523296146e-08
1.0613875516010567e-08 5.06109668983445e-08 -8.768445474647236e-09 7.15376833671893e-08 7.383162206460442e-08 6.422294665672064e-08 -1.1607736844910002e-07 -7.460218609822307e-08
-1.1559262656354623e-08 -8.244926514140689e-09 -5.2986209199997726e-08 -1.4118781954657515e-07 -5.4754117642911284e-08 3.5129599122715816e-08 1.2104259719585141e-08 -1.1974001580551175e-07
-0.22731828302073281 4.9891722701347216e-08 7.822084893094818e-08 -5.551090844471142e-08 -0.27126902045404866 -0.25592259716386334 -0.26812670745205597 -4.822856123941496e-08
-0.21110809333349342 -0.22708027076833218 -0.22650873815968123 -5.666206543929797e-08 -0.25479590786598066 -0.25145921197038157 -0.23853757402812362 -5.563765253360861e-08
-0.25475422789234636 -0.2155960206977392 -0.21745414436076682 -8.304300347913652e-08 -0.22454810993751007 -0.2109379347653717 -0.2715955173030132 -0.21336574266444044
-0.26458813931436326 -0.2237847449633858 -0.22210626901274716 -0.24873003488088455 -0.2681007011870429 -0.22109322098330336 -0.2101740431640805 -0.2294496344334989
1.5005628751823515e-08 5.5012421778978636e-08 -1.309799600270618e-07 -1.3412593825043716e-08 -4.6810122297731346e-08 -2.202602373199451e-08 5.5795971616512235e-08 -1.1104757405114453e-07
5.164720010491241e-10 1.7431691000026843e-07 -3.418582888726586e-08 -5.9504733335814616e-08 1.7770609142092006e-08 -8.094163179035794e-08 1.4927290441988706e-08 1.716036335982458e-08
4.694613314690734e-08 -6.59079361719336e-08 -2.3342361783498618e-08 6.638390683125518e-08 -7.342345358865714e-08 -8.118293390043e-08 -5.0319307306678235e-08 4.3441828192632144e-08
-7.603288862645606e-08 1.543823413012509e-08 1.085502261769708e-07 -1.4159456976763903e-07 4.707391902742363e-10 7.509093716125909e-08 -1.0247171891888564e-07 -9.91088464734006e-08
1.60253463803834e-07 -4.487225429505409e-08 5.191167963636403e-08 3.038533553262502e-08 -0.21193786323510647 8.111489978360824e-08 -9.447859035946e-08 3.5155259456565416e-08
-0.2948771588169345 -0.19243376233171136 -0.17931898310763422 -8.013838619833423e-08 -0.1763581949868629 -0.2638678623057017 -0.2087876267884906 -4.302571819299693e-08
-0.31290936742331354 -0.18829486974536822 -0.26530485308579504 -3.743670318185037e-08 -0.1845428336741012 -0.22907621866694225 -0.14853879545646317 -4.924859947604969e-08
-0.19543101442256489 -0.1685648225821382 -0.19823814579173132 -0.2280495377735018 1.1962031041891642e-07 6.661106541554581e-08 9.447189171635845e-08 3.9120902489718476e-08
3.072602053879477e-10 5.168176912028406e-08 -1.6031293630917438e-07 1.6590903621136268e-07 2.3693644337623838e-08 -8.013557286008856e-09 8.285556350988492e-08 1.7195347072577694e-07
-8.288091537462067e-08 -5.9253647658869666e-08 1.9336142981654694e-09 -6.20157270174977e-08 1.3030476963307648e-07 -6.912867844432695e-08 -1.0550819262490849e-07 -5.6109533756005126e-08
-0.2087255062938271 -3.050478707345354e-08 1.0432844975073129e-08 4.8166893261274624e-08 -0.2715833434381812 -0.3142135436951265 -0.3095913146214286 6.945895087890752e-08
-0.20645999913388643 -0.2269506369809648 -0.18955517566251176 9.271849423673404e-08 -0.26125764136047275 -0.19038617422943754 -0.23303060372436774 -4.294222711939433e-08
-0.23324666874837222 -0.18991999028705583 -0.2630042047405445 -0.3002054670850177 -0.18959452323437442 -0.23358496023679257 -0.27627693594608577 -0.22755034793151072
-0.2715389249397494 -0.2119682964560958 -0.31505757680656205 -0.2560206102135201 -0.22228097101679092 -0.1894730192670141 -0.3150496048180845 -0.24379309812482133
-0.196274422309841 -0.3150814116373895 -0.26139900039267494 -0.24067231538463751 -0.2976879221754635 -0.1921604442637181 -0.27133700354637397 -0.28110626420760904
-4.016252750172154e-08 4.9605440775503246e-08 1.086971807760133e-07 6.385491960471693e-08 5.4501693184125275e-08 -3.349566943397981e-08 6.236129455358158e-08 -6.438984696851697e-08
-7.1534139082773805e-09 -5.574512730434371e-08 -4.519500915543504e-08 8.905936222449063e-08 7.068239834028541e-08 1.1318600912414806e-07 -5.584433735306092e-08 8.756012622875695e-08
00000000: e8eb 7fc0 188f 73be 967e 9337 f61f 67be
00000010: 5e65 c1ff 8bf8 6abe aa40 f676 9887 6fbe
00000020: 8f26 0251 acd7 6c3e d814 ff4d 2536 713e
00000030: 7aff b5c0 3c77 73be 490a 1a08 3670 783e
00000040: 363c ae6a 84c2 7e3e 60e8 0e22 b413 74be
00000050: 56bf b055 93c9 76be 91d1 7467 d207 773e
00000060: 3534 70d7 a272 793e 1074 4884 f3f2 44be
00000070: 0075 3484 62c9 063e 9545 9ef3 5591 803e
00000080: b5c4 d72e 0701 663e fb1d f6cc 8851 87be
00000090: 0093 9e6b fca7 84be 9ca3 5965 787c 68be
000000a0: 1e83 8be2 d2e8 c8bf 2e3e ea18 763d 7b3e
000000b0: bd78 de42 0607 80be 4050 3470 bfa7 57be
000000c0: 6516 812b d162 d1bf 4e82 e8ff 915d c9bf
000000d0: a9df 50f8 4f54 c8bf 3780 e92c d171 83be
000000e0: 42ba e371 dedf d2bf f522 2ecf ab72 d1bf
000000f0: c19b 82ab 3f65 d1bf 8d6d 5056 555f 6bbe
00000100: 18d0 4d33 2a38 d4bf af75 9c64 e3c0 ccbf
00000110: c121 ab59 39ab c9bf 21c3 baa6 79e6 72be
00000120: 3982 e844 884c d1bf e2e3 3647 f05a c8bf
00000130: ad3d 53b1 99d4 d1bf f075 0ae2 94d4 cdbf
00000140: 2443 d725 b422 cebf 0312 8ca1 1d22 d2bf
00000150: 7abb 1b4e cf38 d4bf 995f d185 93bd c9bf
00000160: 8b62 07ef 2dae d1bf 6345 6c76 ebf0 d1bf
00000170: 6e52 908c aa6a d2bf 4256 8823 5536 d4bf
00000180: f6cb e8d6 bf35 d4bf 2c05 a7c3 3dae c8bf
00000190: 4851 6c21 cdbb d1bf 13f4 475f e10c d2bf
000001a0: a43d a056 39e2 ccbf 13e7 d2d2 26f2 cdbf
000001b0: 677d f87c d753 c8bf 8a8c 8141 355c c8bf
000001c0: c855 5064 6784 c8bf 8c40 c380 6a5f c8bf
000001d0: 784c 50aa 1f54 c8bf cdbd bbb5 c8f5 c8bf
000001e0: 04d4 7616 8f74 48be 10b1 dd3b 3b7c 33be
000001f0: d01b 7d45 56d1 62be f007 9785 596a 403e
00000200: a2a8 3b96 dc43 86be 3deb 9764 9193 6abe
00000210: 2eab e351 dce8 7f3e a2a4 d858 9989 73be
00000220: 3adb bcbe 3cc8 5b3e 4856 f6bd c180 733e
00000230: 264b 7f1e dc84 833e 2cfe 8810 5df1 5f3e
00000240: 8807 8d2e 0acb 463e e517 5417 eb2b 6b3e
00000250: 108c 2dfe 80d4 42be c1c9 273c 0834 733e
00000260: ae49 9ea1 abd1 733e 6bc0 a106 5e3d 713e
00000270: c623 4ba9 c628 7fbe c752 8389 9f06 74be
00000280: e847 ef97 c5d2 48be a072 d03f b2b4 41be
00000290: 908c 0480 5e72 6cbe 12e6 bf31 2df3 82be
000002a0: 3892 a03f 5965 6dbe 0298 09e3 2cdc 623e
000002b0: 0073 801c 63fe 493e b211 4851 3c12 80be
000002c0: 8aaf adf7 c318 cdbf 9687 88ef 10c9 6a3e
000002d0: fa17 19ba 4bff 743e d856 2c75 5ccd 6dbe
000002e0: 7428 d1bc 785c d1bf 4213 482c 0961 d0bf
000002f0: 1535 eceb fc28 d1bf ea56 daa4 7be4 69be
00000300: 07e6 640a 9705 cbbf e126 4260 f710 cdbf
00000310: 2db8 5303 3dfe ccbf 67d0 9831 936b 6ebe
00000320: d718 dc7e 934e d0bf c434 ec60 e817 d0bf
00000330: 3db3 a833 6688 cebf 96ae 6fde c7de 6dbe
00000340: d62e 54ad e44d d0bf 20b3 0581 a698 cbbf
00000350: 3c5f 3493 89d5 cbbf da3c 86f7 ab4a 76be
00000360: 3cb5 4712 febd ccbf 70ca a6a5 0300 cbbf
00000370: 0da0 232a d261 d1bf 994e 6a93 914f cbbf
00000380: 8df0 5017 03ef d0bf 8e10 7b80 faa4 ccbf
00000390: daba d26c fa6d ccbf d154 acc2 62d6 cfbf
000003a0: 5c83 e8d7 8f28 d1bf 9ecb be5c c84c ccbf
000003b0: fccc eda8 fbe6 cabf d14a fc09 9b5e cdbf
000003c0: 1c7f 3840 b71c 503e 1af9 7284 d988 6d3e
000003d0: 54df 95e9 6f94 81be 6899 6bc4 a6cd 4cbe
000003e0: 71a9 acc2 8821 69be 9063 16a1 77a6 57be
000003f0: 6e38 f639 8af4 6d3e 5efc 1d95 21cf 7dbe
00000400: 00b8 448e efbe 013e 81f6 75c1 7b65 873e
00000410: a6e0 79ec 765a 62be 6083 c1ad 44f2 6fbe
00000420: 0c86 d772 bf14 533e a812 c53e 44ba 75be
00000430: f852 b0ae 2e07 503e fca2 2138 016d 523e
00000440: 5c69 7e37 3a34 693e b2e0 c8ac 28b1 71be
00000450: cc08 52af 4c10 59be 4c92 110a ded1 713e
00000460: 97dd 380e 9fb5 73be c8e1 dc46 d9ca 75be
00000470: 5e94 453b d503 6bbe 7571 8572 9952 673e
00000480: 8cd1 e2b8 f068 74be 3c1b e725 a193 503e
00000490: e15d 29c6 8323 7d3e 3155 d201 2701 83be
000004a0: 00a2 c36b aa2c 003e 0a4c 9ebc 3528 743e
000004b0: 8e9c 238b cd81 7bbe 47f6 0b44 b59a 7abe
000004c0: 6c96 ef5f 4482 853e dde8 7117 3217 68be
000004d0: 060d 22da afde 6b3e 0f84 90f3 2050 603e
000004e0: e57f b0a7 c720 cbbf 1d8d 7068 2cc6 753e
000004f0: d15c 56f0 845c 79be d503 c7ba b3df 623e
00000500: 4331 5d72 44df d2bf 2f33 ee65 aba1 c8bf
00000510: eee7 ffa7 ecf3 c6bf 4f8c 3866 1183 75be
00000520: 48d2 ecc3 e792 c6bf fe60 c407 36e3 d0bf
00000530: c4d9 6e8e 8db9 cabf 6db8 d7e0 6819 67be
00000540: d27d ec02 b506 d4bf c3cc c7d9 0b1a c8bf
00000550: 0b4f de34 c1fa d0bf b3e0 ffe4 4219 64be
00000560: 0db4 ab7d 199f c7bf 5ba1 bb99 5e52 cdbf
00000570: 6f1c 56ba 5103 c3bf 146a 7f0c ad70 6abe
00000580: aad5 c82b e203 c9bf 9b87 1f38 8893 c5bf
00000590: 9a61 7f18 de5f c9bf 2474 4d2d ba30 cdbf
000005a0: 8cdb b660 1f0e 803e 2f5b 6241 7ae1 713e
000005b0: daad 5418 0f5c 793e 460c c063 bc00 653e
000005c0: 003b 4df2 601d f53d 9ccd 4d98 16bf 6b3e
000005d0: eac1 1c80 4f84 85be 8b56 d450 9744 863e
000005e0: 3e69 3dff db70 593e 0882 dbec 7f35 41be
000005f0: 5cdd f27c ca3d 763e 1ec4 57b9 4614 873e
00000600: 82e6 987b 883f 76be b19d 0863 c2cf 6fbe
00000610: 400c 3f14 109c 203e 0a4d 1635 b0a5 70be
00000620: 5668 fbdf 3c7d 813e 2f84 7b92 7c8e 72be
00000630: 6275 fdc0 7752 7cbe 3286 a1b6 a21f 6ebe
00000640: 6fbf af73 84b7 cabf 07e0 64c7 8b60 60be
00000650: 2cee ef65 8467 463e 620d 16e5 01dc 693e
00000660: 0924 8d1a 9f61 d1bf 9b5f 881f 131c d4bf
00000670: ff2d db16 58d0 d3bf 1fb9 4bc9 2ea5 723e
00000680: 5f2a 1b00 486d cabf cede d1ed b70c cdbf
00000690: e706 2110 5843 c8bf f34b 1800 91e3 783e
000006a0: ff4a 5ef8 71b8 d0bf ea86 f6fb 925e c8bf
000006b0: 424d fb62 f2d3 cdbf 7652 1b4c ef0d 67be
000006c0: 156d 16df 06db cdbf 87dc 9159 4c4f c8bf
000006d0: 578d 8496 0fd5 d0bf be79 cdfd 9036 d3bf
000006e0: bc6b 6522 a244 c8bf 59f9 86aa 1ce6 cdbf
000006f0: f9c2 2175 85ae d1bf d395 47ab 5e20 cdbf
00000700: 2243 8dcc e460 d1bf 7fac 88f2 c621 cbbf
00000710: b16f 2f41 e729 d4bf a004 fe44 a462 d0bf
00000720: 9d26 85ee b373 ccbf 3cf4 9ce2 a640 c8bf
00000730: eeed 53d1 c529 d4bf 61e3 b7bb 9c34 cfbf
00000740: fa57 6e30 851f c9bf b5d8 a339 4b2a d4bf
00000750: 3c31 79df c2ba d0bf 4097 d0b5 59ce cebf
00000760: 8b19 8aa4 510d d3bf ae47 d9a3 b698 c8bf
00000770: b348 1be1 955d d1bf 113c de20 a5fd d1bf
00000780: 8532 c84f e58f 65be 7828 2f49 b8a1 6a3e
00000790: bfcd d606 9d2d 7d3e 3138 23a0 1324 713e
000007a0: c6ec 3ada a742 6d3e 7046 c318 9cfb 61be
000007b0: 30f2 e97e 6fbd 703e e358 d02a d648 71be
000007c0: a84e 6303 43b9 3ebe c772 1c4d 8ded 6dbe
000007d0: a668 c804 8e43 68be 992f 87de 1ce8 773e
000007e0: ceb3 d3e6 41f9 723e 6adb 8354 1562 7e3e
000007f0: 08ba c9f1 2ffb 6dbe 5239 db07 1681 773e

bias f8 [120]
-0.2327256974768921 -0.22894624495618388 -0.29598288074333323 -0.2589901289091866 -0.2592279257241338 -0.11673340282907373 -0.3467082807147143 -0.12052937886533491
-0.24559750554663462 -0.10936309728490813 -0.19823996037682284 -0.09820806226742873 -0.30468762433534 -0.36596466260181415 -0.20751651315986042 -0.09300173678793705
-0.19796631308393414 -0.39066790988570926 -0.19204841723268232 -0.1878345006292332 -0.27043554292392197 -0.27033055912037995 -0.267792533603426 -0.15464549563715332
-0.23996328599121133 -0.18944276018370224 -0.2347161054409621 -0.27606835545496716 -0.24491292345563942 -0.1926626065255596 -0.36555275551737765 -0.24941358905950825
-0.061143617527841775 -0.41837377528163394 -0.1627878591907059 -0.12657104311350045 -0.275103075202288 -0.18498972697806212 -0.2968455009646067 -0.18483007276397911
-0.18049342272564284 -0.3911838200472856 -0.18884567442323927 -0.23776936234155724 -0.06842005738217868 -0.22515796590525028 -0.21452691403570234 -0.19438518550900474
-0.2110278476971445 -0.30508204078621215 -0.03820778913712783 -0.13394265318202167 -0.14442964099739616 -0.2382953766893874 -0.21319395269822594 -0.23900900539302156
-0.316092599284409 -0.2700626112441415 -0.22110213468486548 -0.1909784486367888 -0.4574320005538364 -0.2167219835492894 -0.12055639170111769 -0.2373569624760549
-0.24503897522959173 -0.44435687147377484 -0.14014832873395386 -0.12639229846717048 -0.2857717079511246 -0.1001174926538982 -0.13937093453999938 -0.4604156081716328
-0.20285506464566797 -0.2874713852361575 -0.11026750690440713 -0.18671859153946965 -0.09316520581931796 -0.3475815302358722 -0.035466742237139734 -0.3554452578968445
-0.22286937743886623 -0.19707970906740355 -0.2330460457668247 -0.2926745726372043 -0.2003233042027616 -0.3053502971955033 -0.15708512468070696 -0.171196550879291
-0.06229782650589916 -0.5531523304474268 -0.14906654919133233 -0.23522267959052234 -0.3715616406074358 -0.3735889167889752 -0.027374957603351357 -0.15299055683844268
-0.2918226371983833 -0.2989911380822005 -0.3115489942245905 -0.2779368676161622 -0.24634007380994807 -0.24561202864409015 -0.13501222750012098 -0.291821350726067
-0.2849182588488055 -0.14303366899381229 -0.2938042999814846 -0.17475122270115712 -0.3215692531623015 -0.14570501754096024 -0.01960926738548365 -0.2590785547189201
-0.20834295706964856 -0.2222918051771556 -0.22226421695873178 -0.27111713301022006 -0.31725595880008756 -0.149976760170536 -0.19696014128671938 -0.29746255187420023
00000000: b00f cda5 f4c9 cdbf 007d 504d 1c4e cdbf
00000010: a6fb 3d2e 62f1 d2bf c6b6 6955 4b93 d0bf
00000020: 0e7c ccb9 3097 d0bf 276d 8083 3de2 bdbf
00000030: 7303 bbed 7730 d6bf fa0d 6f6c 03db bebf
00000040: 18a7 2633 bd6f cfbf b95a 3a4e 38ff bbbf
00000050: ca15 4a51 ed5f c9bf 2863 a4df 2924 b9bf
00000060: bc09 8185 0080 d3bf 2e74 570c f76b d7bf
00000070: 2066 b3ae e68f cabf 24b3 f939 f6ce b7bf
00000080: 66dd 33cc f556 c9bf 2b92 23fa b300 d9bf
00000090: cda7 a1e3 0a95 c8bf 8fab a1fe f50a c8bf
000000a0: 2331 22e1 d04e d1bf e402 a28b 184d d1bf
000000b0: f923 7c4b 8323 d1bf cb1d 1e71 6ccb c3bf
000000c0: 5956 c9f0 1db7 cebf fdfa b90d a93f c8bf
000000d0: 5851 5b66 2d0b cebf ffee 889b 1aab d1bf
000000e0: 640b 4e82 4e59 cfbf 163e 1815 2ba9 c8bf
000000f0: 803a 7a62 3765 d7bf 1b23 18d4 c8ec cfbf
00000100: 0b4d 485b 374e afbf c9ac 95cc a2c6 dabf
00000110: bf78 b489 3bd6 c4bf fd83 65dd 7a33 c0bf
00000120: 7776 c1ed 499b d1bf 53be bb4d bead c7bf
00000130: ece4 a645 84ff d2bf f056 eb06 83a8 c7bf
00000140: 74f7 df91 681a c7bf caf4 74dc 2709 d9bf
00000150: b3c6 d155 182c c8bf adb6 9ff9 396f cebf
00000160: 7ece d814 fa83 b1bf 809b ffe9 f9d1 ccbf
00000170: 1c94 f22f 9e75 cbbf d445 4b1f 9de1 c8bf
00000180: cec6 33e4 f502 cbbf 9e84 f1d2 7686 d3bf
00000190: 6cc5 97a9 f88f a3bf 8366 7a69 0825 c1bf
000001a0: 3f13 54a4 ab7c c2bf 299f d580 7680 cebf
000001b0: ec9c 457f f049 cbbf e666 ceda d897 cebf
000001c0: 70c9 1b74 dc3a d4bf eb9e cab0 b448 d1bf
000001d0: 6b0d c622 134d ccbf ac62 9157 fb71 c8bf
000001e0: f971 a1de 9046 ddbf b48f d5c3 8bbd cbbf
000001f0: d318 ae9f c8dc bebf cd01 a883 b661 cebf
00000200: 2ca0 6de8 6f5d cfbf 2fe5 aecd 5770 dcbf
00000210: 832d 4064 61f0 c1bf 8cfe 3072 9f2d c0bf
00000220: cc6a f16a 154a d2bf 45bd b4cc 4ca1 b9bf
00000230: 585e ee22 e8d6 c1bf 3791 ea06 7377 ddbf
00000240: 0195 3d9e 27f7 c9bf dd01 8861 ee65 d2bf
00000250: 1944 f7c7 7d3a bcbf 5bcd 1b12 65e6 c7bf
00000260: ff7b 1ec8 acd9 b7bf 13a1 439a c63e d6bf
00000270: 7e23 0264 b228 a2bf dbda 8b77 9dbf d6bf
00000280: a39d b0d7 fb86 ccbf 2329 936c e839 c9bf
00000290: baeb 83ec 73d4 cdbf 923e 7621 2ebb d2bf
000002a0: fdb8 16ac 31a4 c9bf 0bd4 11f9 db8a d3bf
000002b0: 3e8a 9888 5d1b c4bf 8976 9bc1 c4e9 c5bf
000002c0: e9d0 e82e 80e5 afbf d24a 1f84 6cb3 e1bf
000002d0: 1028 dad8 9c14 c3bf 3034 0fda c61b cebf
000002e0: c8d9 b679 aac7 d7bf 006e f07c e1e8 d7bf
000002f0: 130a 8b4e 2e08 9cbf 79e5 1bcf 3195 c3bf
00000300: 4af8 bfda 38ad d2bf fbd6 f6b9 ab22 d3bf
00000310: baf6 5231 6bf0 d3bf fce6 30b7 b7c9 d1bf
00000320: 359e 5a50 1288 cfbf 20ea 4307 3770 cfbf
00000330: 2c29 d6a6 1448 c1bf f926 6975 33ad d2bf
00000340: 0c7d f2ca 193c d2bf 7f14 4761 ed4e c2bf
00000350: be0e f68c b0cd d2bf 6eff 3781 3f5e c6bf
00000360: 77cc 6e34 9794 d4bf c1cb 9946 76a6 c2bf
00000370: 2608 7aa8 7314 94bf 9d36 e737 be94 d0bf
00000380: 44a8 7b65 fbaa cabf c7cc b3d0 0e74 ccbf
00000390: 9c53 7463 2773 ccbf e181 eaac fb59 d1bf
000003a0: df7a e0ef eb4d d4bf a1d6 0b40 7032 c3bf
000003b0: 6d93 b86a fd35 c9bf b466 055f a009 d3bf

weight f8 [120, 120]
-9.686687962923219e-08 1.3222554757974734e-09 -7.508374761811326e-08 -4.983678109695193e-08 -1.1300144672192765e-07 -8.264397913867054e-08 5.395202105296265e-08 8.189139357561762e-08
6.47434398000338e-08 -6.787101967669919e-08 -0.23456311796482973 7.907844607879507e-08 -2.8050028704633698e-08 -0.27000896314374373 5.0180505197786656e-08 7.845765116033048e-08
-0.2663046902335112 -0.25999431753463054 -0.27197592210322546 -4.9191830931484634e-08 -5.0387432366613785e-08 -9.320912844587053e-09 1.1407925693858392e-08 -5.530519821874605e-08
-0.2861251498839565 -2.467375303777983e-08 -3.6202856585541367e-08 -8.019226136266857e-08 -7.901735890669157e-08 -8.991848379149877e-09 9.258690960659185e-08 -8.646997239119007e-08
-0.27785046155044524 -1.0928457260939423e-07 1.7178507631818137e-08 -0.23247487112460705 6.119797562072351e-08 1.0487931865143796e-07 -6.888265083494447e-08 2.909711452086813e-08
8.029271672187273e-08 6.866992876370035e-08 7.251052525472903e-08 1.1375368103741835e-07 -0.26769807282283486 5.8901089296784904e-08 -7.44187426079999e-10 -2.808613936911404e-08
-5.560771329269168e-08 -0.2719860909226001 -1.1607707966255126e-07 -1.0970187160471743e-08 -4.4892356475204995e-08 7.61269664570994e-08 -5.381897700426634e-08 5.068349349340496e-08
-0.2731762066865044 -1.2885430245812327e-08 -0.23438406865800482 3.4604245008850335e-08 -1.672827623788678e-10 -4.453981926123916e-08 -2.552334561652159e-08 -3.810212599377606e-08
-0.24077701239995297 5.246525548918724e-08 5.512271660837194e-08 3.0442441487887736e-08 5.4618040131094494e-08 4.979753430288945e-08 -2.9089563165910018e-08 -6.68028322180288e-08
-5.473236086651212e-08 -0.22043023727378086 5.754717204497817e-08 3.7323233137537115e-08 -5.932679893591748e-08 -0.2396173099763465 8.010756898673078e-08 -1.3230104766726495e-09
5.341051081102037e-08 3.4623766595992675e-08 -1.1266178007792248e-07 4.870695305147745e-08 -0.273045111035607 2.760025067246932e-08 1.1236241388778113e-08 -9.589908235480664e-09
1.9962620633704552e-08 4.454315441590012e-08 2.5707706027402515e-08 -2.0917507856739946e-08 4.446696627980674e-08 -0.23140855226225787 -0.27430206227528703 -6.171629660109214e-08
6.933583402265473e-09 -1.1050350180052481e-07 7.123552002977485e-08 9.048825388360268e-08 -0.23768674977360946 7.621094902561046e-08 9.554813511673808e-08 -7.035376173360129e-08
-5.822770214728245e-08 1.0614569125035104e-09 6.387610848884133e-08 -4.489700217361016e-08 -7.218739098780717e-08 -4.09827610302386e-08 1.5735717706870285e-08 3.737999083172922e-08
-2.669887008313857e-08 -0.22858300807814352 -5.26044227971338e-08 -0.2767044844310081 -1.21679429711733e-07 3.493056626783997e-08 -1.1753625858750302e-08 6.771375118692457e-08
-0.22718973021374228 0.17491807397385528 -2.228887173871684e-08 -0.24183950566133378 0.25001702495691847 0.1505618654009253 -0.07345505437436724 5.49964439780294e-08
-0.2296292710627038 4.835951256694519e-08 -0.012194170770194782 -5.349820201531684e-08 -0.2729095553324429 -0.19630708617651177 -1.009814077163157e-08 6.782941080436e-08
-0.2907754349631182 -0.29262521980947204 -5.362218773568486e-08 -6.595594805892184e-08 -0.24723451077261044 0.21143177686690434 -0.12255045954713163 -6.502223989988752e-08
-0.3450590334261056 -0.2912670724471963 -0.10530677460278035 0.09304284000379516 4.8992547915631464e-08 -0.25956716267631613 0.2421609707542399 3.352276837211957e-08
-0.21236840514148775 0.2547419704874379 0.26947334463908507 0.4280487580421453 -0.27975515814629587 -0.213865509739771 -3.076064292033203e-08 0.15739125360143885
0.39210321556762545 -0.3205932025123183 1.1194821924016279e-08 0.09305545972948923 -0.2726255354078959 -0.1688444362652962 4.1545342591372684e-08 6.662046446489155e-06
0.04957595333674832 -0.30527584562128307 -1.0887395218840202e-07 3.0126329383406496e-08 -1.1795534809337641e-07 0.20160666444623052 -9.288022395345575e-08 0.18996572209527163
-0.2262056002778747 0.25724855137417796 -0.1951968281771846 -1.75375048816476e-08 0.25021368217272016 -0.23387118873334709 0.25777220951207896 -9.212453730465448e-08
-0.1759471250166981 0.249375058638374 -5.028190586749657e-08 -0.03832342443638126 1.6196416069732234e-08 -0.23284293925681399 -6.534269043540351e-08 -9.736143609508627e-08
-5.116184210924328e-08 -0.2969684121417064 4.860683987774816e-08 -0.38060811572405007 0.22815417103172986 -0.2240521061397531 -7.172153295940445e-08 0.30907757158398863
-5.2458857174585e-08 -1.5865002435179804e-08 0.20302449885934287 -9.275524282017948e-08 -0.2659736017924808 -9.520357308673408e-08 -0.08618270072249563 -0.18910558572097846
5.5891332568359684e-08 -0.26789029102527645 -0.32779090703534586 -0.25369851640149016 0.2379548982421837 -0.19258546686813294 -0.1848518883982696 3.285876907373986e-08
0.013430592850128917 2.31175409101273e-08 -1.1432059333310274e-07 0.1774271576091794 -0.3883438423121842 0.1933589584181916 0.3148122361333907 7.677806750663715e-09
-0.21297858856380264 0.19088005833264127 -0.2073504199366284 -0.13282735602229073 -3.27732235709931e-08 4.499039201145157e-08 -5.561294256448008e-08 -2.632052316091967e-09
6.495341491912701e-08 0.3612440257648424 0.2626840881792974 -0.25130682850527886 -2.465571072432932e-08 -6.204160088113628e-08 -1.9616829301777535e-09 2.636562473263549e-08
3.068057486483519e-08 -0.2863635649454865 0.29497447698541157 8.480528353873224e-08 -0.2655020951210702 -0.24830600926201846 -0.3414162107358742 0.24960119786717988
-0.2905604904902978 -0.04307096285783533 -0.24931291405615888 0.2279580173312415 -0.03149527936615946 1.1073468516491945e-08 -6.325486078587087e-08 0.1587726584318143
00000000: 68b4 002b a400 7abe 6063 2851 57b7 163e
00000010: 5a65 cb41 b727 74be aa1e 8ed9 83c1 6abe
00000020: 3165 5979 6655 7ebe bf40 a741 402f 76be
00000030: 89ec d1fb 1bf7 6c3e 748d 97a1 88fb 753e
00000040: 84ad 5ba3 2261 713e 67dc ec9a 0f38 72be
00000050: a7dc 400c 2a06 cebf c622 4bbc 3a3a 753e
00000060: 68a5 494b 551e 5ebe 6912 95ac d347 d1bf
00000070: b720 0591 c1f0 6a3e f6af 8798 910f 753e
00000080: 02c2 d4d3 220b d1bf c240 bd34 bfa3 d0bf
00000090: 25e6 aeb2 0d68 d1bf 2ac9 e7ae df68 6abe
000000a0: c2c8 422b 320d 6bbe 88b9 e8dc 3904 44be
000000b0: 2840 3bcf 927f 483e 8bdf 2dac 16b1 6dbe
000000c0: e723 54dc df4f d2bf a475 f203 457e 5abe
000000d0: 2556 dbc6 ae6f 63be c812 642e c586 75be
000000e0: 18c3 2014 0836 75be 90e3 1328 524f 43be
000000f0: af87 9a23 86da 783e 3990 70d7 2b36 77be
00000100: 2669 624d 4dc8 d1bf 9623 7b88 fa55 7dbe
00000110: 981a 4702 fe71 523e c39d 4f90 bcc1 cdbf
00000120: a689 332c 7e6d 703e bec1 657c 4027 7c3e
00000130: a9ee a168 947d 72be d477 7468 273e 5f3e
00000140: eef3 1b69 ac8d 753e 8b7d 9729 f66e 723e
00000150: d583 84a6 e276 733e 4c3a 88eb 1789 7e3e
00000160: bc7b fe18 f721 d1bf 2110 9ed7 4d9f 6f3e
00000170: c029 7e1b f191 09be 7025 305b 4228 5ebe
00000180: 0150 ba79 aada 6dbe 4faf 5e59 3868 d1bf
00000190: ddea b694 c128 7fbe 58f5 7696 ec8e 47be
000001a0: 057b c95f f519 68be bfdf c4c1 676f 743e
000001b0: f251 90e9 d2e4 6cbe ab4b d2e4 e235 6b3e
000001c0: 4be3 700e b87b d1bf 7411 d416 d7ab 4bbe
000001d0: 5a76 cb12 4c00 cebf 81c6 daa1 f893 623e
000001e0: 007a 312c bdfd e6bd 752b db92 81e9 67be
000001f0: dc33 3bc7 cd67 5bbe 8bed da60 b774 64be
00000200: 0c75 f1f8 c7d1 cebf 505a 2412 c52a 6c3e
00000210: 3248 f42b 0298 6d3e 2c3e 4830 fa57 603e
00000220: bb3c 5d72 a552 6d3e 9265 dcf9 1ebc 6a3e
00000230: 3863 5607 143c 5fbe fbce 48da a7ee 71be
00000240: e2ce 01c0 5b62 6dbe ecf8 11da 0e37 ccbf
00000250: 3eee 271d 39e5 6e3e 5e71 b385 aa09 643e
00000260: 6869 292b d0d9 6fbe 16b3 f3ae c7ab cebf
00000270: 1594 d641 f380 753e 4011 585f a9ba 16be
00000280: ae1f 2c49 afac 6c3e 2e04 ae7c a796 623e
00000290: c41f c7fe 0e3e 7ebe 50d9 398f 3b26 6a3e
000002a0: 7ec2 8e33 9279 d1bf 6051 93fa b2a2 5d3e
000002b0: 389b 4064 3021 483e bc22 3f99 1b98 44be
000002c0: 18a0 638b 486f 553e b83a 42eb f6e9 673e
000002d0: e669 24fd 7a9a 5b3e cc45 5bc2 c275 56be
000002e0: c23b 8949 7edf 673e d494 fda1 cb9e cdbf
000002f0: 55a7 ac3c 2a8e d1bf f517 6092 1c91 70be
00000300: c04f 073a 8ec7 3d3e be2f 8829 bea9 7dbe
00000310: e02d 7685 441f 733e c5ba 7832 4e4a 783e
00000320: 1f2f 7cf8 846c cebf 5e1f a231 2d75 743e
00000330: 012b b591 04a6 793e bca7 2077 ace2 72be
00000340: 70e3 6223 c142 6fbe 80e3 283d 563c 123e
00000350: 9862 6362 8825 713e c7ab 84d4 981a 68be
00000360: 2e4e 2703 ae60 73be e0d9 9bb6 a000 66be
00000370: a8b1 9ab1 66e5 503e 96d0 8f81 7711 643e
00000380: 2c38 6ef5 edaa 5cbe 92f7 0e40 3542 cdbf
00000390: 117e d095 e53d 6cbe 056a d2b9 86b5 d1bf
000003a0: 267a 2795 df54 80be 1093 740a d2c0 623e
000003b0: 3040 4dc8 9f3d 49be b400 9de8 402d 723e
000003c0: aaa6 a096 8d14 cdbf dc37 9927 b763 c63f
000003d0: 38f6 d3e9 b7ee 57be 3e1e d9cf 98f4 cebf
000003e0: 0886 6868 4700 d03f 30fb f577 9c45 c33f
000003f0: fd88 4350 f3cd b2bf 065a 3659 a786 6d3e
00000400: bc95 b5f0 7d64 cdbf ec78 8d15 7bf6 693e
00000410: b552 47e5 41f9 88bf 3285 52a5 bcb8 6cbe
00000420: b6cc baa3 5977 d1bf 32f3 8c31 9720 c9bf
00000430: 2c4a 21f8 82af 45be 9e28 399d 3335 723e
00000440: a464 e991 109c d2bf 6f41 4421 5fba d2bf
00000450: be12 6901 c7c9 6cbe fcdc 194f 75b4 71be
00000460: 7aff 1a65 61a5 cfbf 4240 7d4b 3210 cb3f
00000470: 115d dd87 775f bfbf 2249 6257 4b74 71be
00000480: a349 f07b 7215 d6bf e2fd a3a5 1ea4 d2bf
00000490: e657 f780 62f5 babf 8979 f1d2 a7d1 b73f
000004a0: 64d3 1209 7c4d 6a3e c9db b396 bf9c d0bf
000004b0: c3e7 e074 21ff ce3f 8257 4c8e 55ff 613e
000004c0: b6a7 644d e32e cbbf 8d60 0a44 b14d d03f
000004d0: 4397 9720 0d3f d13f 859a 389e 2665 db3f
000004e0: a10a c82d 82e7 d1bf 4f8f 09ed f15f cbbf
000004f0: 2dc4 fce7 b583 60be fa82 7287 6525 c43f
00000500: ad3d e115 3818 d93f 5b0f 075a 9984 d4bf
00000510: 608a c31e 6b0a 483e 5e9d 408c 7bd2 b73f
00000520: e868 a85f b272 d1bf 0b7d efc9 b19c c5bf
00000530: 63b4 d3ca f24d 663e e6bb 1762 51f1 db3e
00000540: 9bab 7ff4 0462 a93f 1ef0 4cb3 a389 d3bf
00000550: df8b 81d2 c239 7dbe 39ff 91fb 872c 603e
00000560: 6b3d b86d d4a9 7fbe e3e1 3947 3fce c93f
00000570: 9da3 fc2d aeee 78be c44e e1f9 cb50 c83f
00000580: 5fc9 ae1b 4ef4 ccbf 2f1c c6a0 c276 d03f
00000590: 7ae7 a6ac 35fc c8bf dacb cc31 acd4 52be
000005a0: 7963 7c3f 8003 d03f 270e 8bb9 7def cdbf
000005b0: b102 6b02 577f d03f ea7d e0ff bfba 78be
000005c0: fdce e275 6f85 c6bf 661b a59c 85eb cf3f
000005d0: 0b82 0e49 b1fe 6abe 00fe 3fbd 209f a3bf
000005e0: b46a 8175 0964 513e 3434 9b24 cccd cdbf
000005f0: 48d8 4bc4 508a 71be 246e 517f a022 7abe
00000600: ea17 1e4a a177 6bbe d3fe 85cc 8701 d3bf
00000610: 3313 ec23 7918 6a3e 6a20 6824 e25b d8bf
00000620: 987d 83e7 2734 cd3f 372e 3c4a bdad ccbf
00000630: 2244 1c8d aa40 73be 5457 784b edc7 d33f
00000640: 415b 3ff3 e329 6cbe 9aa2 384c f008 51be
00000650: 129f 71ef b4fc c93f 2e6a 007d 17e6 78be
00000660: f512 5324 b605 d1bf fa1a 47f8 568e 79be
00000670: e585 15c9 1110 b6bf b0cd 14a1 9c34 c8bf
00000680: cc63 0e71 a501 6e3e a3a5 b751 1d25 d1bf
00000690: b226 69b6 86fa d4bf 5b3d bfb3 983c d0bf
000006a0: 96c4 ef5c 4e75 ce3f 4417 f1fc a3a6 c8bf
000006b0: dc1f a307 3aa9 c7bf d90c 5028 13a4 613e
000006c0: b822 75a8 7f81 8b3f 40a8 8352 80d2 583e
000006d0: f625 8925 0db0 7ebe d544 addf eeb5 c63f
000006e0: 2e5d 9521 a0da d8bf 97ba 6581 fcbf c83f
000006f0: ecb4 a438 e225 d43f 5072 f83c eb7c 403e
00000700: 5e9c 50e4 e142 cbbf 6ea6 fffb c16e c83f
00000710: 9c47 3864 758a cabf 26a0 109f 7c00 c1bf
00000720: 6892 ec4a 5198 61be a463 65b1 6e27 683e
00000730: ec1b d276 62db 6dbe 4020 8fba f19b 26be
00000740: a9e9 398f 906f 713e a843 2243 9f1e d73f
00000750: e937 faeb d0cf d03f 0c44 6c3c 6915 d0bf
00000760: 9cc7 8566 4f79 5abe dd18 9c62 77a7 70be
00000770: e081 6d50 c9d9 20be 3299 e2e6 534f 5c3e
00000780: d3bc 0ec3 b478 603e cf3c 8dd8 c753 d2bf
00000790: aaa6 f3a0 dce0 d23f e015 5853 c6c3 763e
000007a0: 6720 e47f fcfd d0bf 4a1f 97c6 7dc8 cfbf
000007b0: 27d4 db60 c3d9 d5bf 26e4 f09a eef2 cf3f
000007c0: 5798 0a07 8b98 d2bf 7565 c3b1 650d a6bf
000007d0: 8dbb 2b4e 7ce9 cfbf 423b a672 ba2d cd3f
000007e0: ad4a b635 2620 a0bf e800 7a25 b4c7 473e
000007f0: 61f1 7647 d7fa 70be ef57 bb97 a952 c43f

bias f8 [120]
-0.2791151333945235 -0.2571187608186187 -0.6668509877422355 -0.33342371701885487 -0.42998173460499073 -0.302010557877861 -0.2429431869186959 -0.5419528644117643
0.4165048107151281 -0.27850721154158925 -0.311453749095022 -0.3050544819123679 -0.03703463655417902 -0.5232244146870617 -0.47213750933097964 -0.39352803794140784
-0.22766458686419658 -0.1072979782609003 -0.2309585989044884 -0.5466890938513034 -0.21198562909539578 -0.438047227119473 -0.2668147139068243 -0.1917674416497615
-0.23700438693231857 0.28160983259537675 -0.06517499830458026 -0.4959451124023669 -0.2868876014382612 -0.5030724116756451 -0.36071844076449633 -0.35700914736710965
-0.27011364109851477 -0.28309579246465366 0.1674298819340167 -0.053916733145387925 -0.24971439578411883 -0.301673679911142 -0.2202593562961019 -0.2845749293383886
-0.4056520768166577 -0.1838826929847343 -0.3111171729889076 -0.24020102251029812 -0.2570952678917271 0.14534861457809678 -0.14978842213886065 -0.6179432008831234
-0.17015074651039858 -0.11410197152057806 -0.282178028157174 -0.5880293553950628 -0.6120014657111663 -0.21088247842774774 -0.2320276589624672 -0.6615330083965517
-0.2650726048911213 -0.23083604669610214 -0.27854386509105117 -0.2430107865277137 -0.06335366648175801 -0.24249313959697485 0.1370308235995266 -0.24812262519436087
-0.35143799056428837 -0.24217863971422648 -0.2511424314940825 -0.2944401147235571 -0.18140281479691672 -0.5520841078583019 -0.16753295653618244 -0.16179825979510956
-0.4575347875827135 -0.26590658685648705 -0.19863357129709783 -0.23160778042684832 -0.28623312431613834 -0.4606591763967083 -0.27004200720404137 -0.44590359592937107
-0.780939210405324 -0.38551196626172257 -0.7006319816311418 -0.23129030309879992 -0.43223041305423227 -0.20309376401802662 -0.32274631117330055 -0.13374362812640642
-0.24567303420998338 -0.629248399353791 -0.5162325734933942 -0.015951681221520356 -0.25367228938152153 -0.3880849480078304 -0.7316227167067347 -0.2533785517959935
-0.34760013791031164 -0.03301404532528368 -0.4673840763757707 -0.3359784915967025 -0.5046176840393497 -0.2243997169084846 -0.18839495157848177 -0.7360497283309395
-0.4177589185725775 -0.3765305072056267 -0.3108137528727407 -0.6255346787085088 -0.5008509417707134 -0.4609967838150604 -0.11773681175214223 -0.30594956237292603
-0.23765067226850778 -0.1478591225264241 -0.24710899036040182 -0.5593293643679216 -0.5998012078137687 -0.25409398470532735 -0.37031359105335787 -0.26009640167255743
00000000: c9e1 6fb8 05dd d1bf 5bdb 393f a274 d0bf
00000010: f60f f5e1 d756 e5bf a2a1 136e d056 d5bf
00000020: cf5e 001c d284 dbbf ca74 4817 2454 d3bf
00000030: 3d08 4d29 c318 cfbf d5e7 9388 ad57 e1bf
00000040: 387b 29cb 03a8 da3f a55c 51e9 0fd3 d1bf
00000050: f419 a5b4 dbee d3bf 3ff5 d33b 0386 d3bf
00000060: 4c8e a331 34f6 a2bf ea96 b120 41be e0bf
00000070: 28a7 723e 8037 debf fb1c 4139 902f d9bf
00000080: 6d00 85f9 1c24 cdbf 63b7 8e5b e177 bbbf
00000090: 4e2b 8326 0d90 cdbf a87a 6520 7a7e e1bf
000000a0: 25e6 1758 5822 cbbf 4739 a53c f708 dcbf
000000b0: ee91 9405 7e13 d1bf 5a62 29e5 d58b c8bf
000000c0: d600 71e5 2856 cebf daaa 4e3f e505 d23f
000000d0: c62a 3c06 4faf b0bf f944 9891 90bd dfbf
000000e0: a288 73d0 5d5c d2bf f855 7550 2b19 e0bf
000000f0: b072 89cc 0216 d7bf 1622 14e5 3cd9 d6bf
00000100: bc2e aeb9 8a49 d1bf 4656 91d0 3d1e d2bf
00000110: 9ece a3a5 576e c53f 7119 225b f99a abbf
00000120: 31d9 9d2d a4f6 cfbf a611 521f 9f4e d3bf
00000130: af02 f765 7531 ccbf e145 b1c3 7936 d2bf
00000140: 7ed9 de20 34f6 d9bf 66bd 55d4 7789 c7bf
00000150: 7a86 cd00 58e9 d3bf f6e0 1238 e8be cebf
00000160: f048 e3b5 3f74 d0bf f4df 108d c89a c23f
00000170: dbf2 335b 442c c3bf ac83 d2d1 30c6 e3bf
00000180: 9679 d3e9 7fc7 c5bf a50a 176c c935 bdbf
00000190: d96d a56e 340f d2bf ec4f 50f0 22d1 e2bf
000001a0: 3cac 0a19 8495 e3bf dbc3 1272 32fe cabf
000001b0: 3e70 8113 15b3 cdbf b334 8945 472b e5bf
000001c0: 52aa 4416 f3f6 d0bf a01a a61b 098c cdbf
000001d0: ef51 c4a5 a9d3 d1bf 351b 5b3a fa1a cfbf
000001e0: 81ef 9e25 f237 b0bf 2d64 09e4 030a cfbf
000001f0: 61b3 f3dc 398a c13f c7c0 4d70 7bc2 cfbf
00000200: b4ea 02c5 f57d d6bf 2062 aeac b5ff cebf
00000210: 99eb 79b4 b712 d0bf 0790 d759 1bd8 d2bf
00000220: ca40 7a1a 3538 c7bf 5a91 7c4a acaa e1bf
00000230: a69c a94c b871 c5bf 9152 2f2d ceb5 c4bf
00000240: cecd 5cfd 3f48 ddbf eebb 950f 9d04 d1bf
00000250: 85ea 4d2a d36c c9bf ee5a 37e1 52a5 cdbf
00000260: d60f febc a451 d2bf 5c79 4ea0 707b ddbf
00000270: 1634 5f45 5e48 d1bf 5fde 6b3c af89 dcbf
00000280: 955b 1b3a 74fd e8bf 64e3 d361 3aac d8bf
00000290: cd65 f4c2 936b e6bf a37b d8af eb9a cdbf
000002a0: 50e3 19c0 a9a9 dbbf c14e 3df9 f9fe c9bf
000002b0: ba36 d924 e0a7 d4bf 71f7 6cde 821e c1bf
000002c0: a271 b8c7 3672 cfbf bc1d 098a cd22 e4bf
000002d0: e516 892c fa84 e0bf 018d a634 a355 90bf
000002e0: a4e2 b2b2 2a3c d0bf 0ddd f03f 62d6 d8bf
000002f0: e183 280b 7469 e7bf 412f 5eac 5a37 d0bf
00000300: 723b 1aa6 143f d6bf 8825 f689 37e7 a0bf
00000310: 6120 ade6 9ee9 ddbf cb4d 64ee ab80 d5bf
00000320: 24d5 3dfc d325 e0bf c042 ad42 21b9 ccbf
00000330: 296b e165 531d c8bf 7c27 ed28 b88d e7bf
00000340: 466b 38e7 8fbc dabf d13e 9969 1319 d8bf
00000350: 9211 ef5d 5fe4 d3bf 2624 724d 6104 e4bf
00000360: b66e e28d f806 e0bf dcff 82a7 f880 ddbf
00000370: 20c1 02ec ff23 bebf b080 2779 ad94 d3bf
00000380: fc00 a254 566b cebf a147 d537 0ced c2bf
00000390: e99f 1274 44a1 cfbf d8e2 f4b1 06e6 e1bf
000003a0: 7c2a 754d 9231 e3bf 73dc 9a6a 1343 d0bf
000003b0: d3a9 b5c6 37b3 d7bf 226b bf60 6ba5 d0bf

weight f8 [120, 120]
8.791488978832442e-08 -4.9362468368922585e-08 4.911188445135739e-08 -0.21693962486470264 -6.8422835871926e-08 -5.37783201238015e-08 5.5418879275586814e-08 7.969220530358917e-08
-0.34350277557301184 5.2020427610262416e-08 1.2533128804561917e-07 8.92958602378522e-08 -0.2699015252131592 -0.2585631301529642 -0.27501523822841956 9.880458660481763e-09
1.2151867246331878e-07 3.900220877416343e-08 -3.126694507726902e-08 8.773727120858379e-09 -3.6372329278543005e-08 -0.2757368807018989 -0.2202445754156578 -0.21914936203973337
-0.25996606018282614 -0.18541552639482944 -0.3072755106031586 -0.24557396113373003 3.905057542025992e-08 -0.251677252234204 -0.2346105411510416 -0.1652270514987529
-6.111003919137049e-08 8.520410209592794e-08 2.7077552269632367e-08 -0.3015443938438034 1.6043601482745798e-08 -9.504245611359731e-08 2.9323622083701556e-08 -0.2527263338431672
-0.26492169983427283 7.231214222227089e-08 -3.9518823856660434e-08 4.448489665224291e-08 -6.350365791538526e-09 -1.4152377121440911e-08 -0.18783772313896258 -3.638822851977758e-08
-1.7763810292492466e-09 -5.7231741444841606e-08 -8.012300202943227e-09 -0.25461677167822155 4.262040194669024e-08 5.328282761372963e-08 2.4292868362975597e-08 -5.90789525508049e-09
-0.25271809761149444 4.074282604675635e-08 -0.23116881078111343 -0.24852934627869225 -0.28305435135256374 -3.657002628788556e-08 -3.6167929786693626e-08 -6.66357729373955e-08
0.2458972826961478 -9.486809711007943e-08 2.1944918107785283e-09 -7.293061917330485e-08 -5.619043918712356e-08 -1.0636114808415356e-07 6.851340336902509e-08 9.109191049031997e-08
2.9738920481271442e-08 -4.5261059735755886e-08 -0.29834851438211557 3.111823192110216e-08 -6.486148494243115e-08 -0.2607739970977408 -5.105666468763579e-08 -0.20239598338129158
-0.2670767204902947 -0.2612720790504241 -0.3104506413132734 -1.1308029301372225e-07 0.25504733020435394 -0.3046403373299199 -0.26954904478457026 -6.118746092061095e-08
-2.544117926607761e-08 -0.44788947492872283 -1.4053673631720394e-08 -6.566881642098218e-08 -0.2355419371046992 -0.24659563415605548 2.546138243926866e-08 4.9336929524014015e-08
-0.2552247831411275 -0.301954448594776 1.0919257002901353e-07 5.45125213419673e-08 3.3871334296373136e-08 -5.640259801699892e-08 4.386058733614645e-08 -1.6083765987016783e-09
-0.27311278733337335 -0.2661618352693428 -9.108896763696711e-08 4.177017484345556e-08 -2.478160380467181e-08 -8.076154814930738e-09 -0.23035657853643948 2.4123713399440445e-08
3.9905667100293747e-08 -0.29270532998489335 -6.056309715440738e-08 -0.2826121203345754 8.520440797085862e-08 9.386263275372335e-08 -0.25202548027251714 9.198737196993275e-09
5.8203664192737915e-08 0.2300082406104391 0.5926422519350917 -0.06826851734267744 -0.2303088097975841 -1.2934528207420136e-08 7.422848187210178e-08 -0.30881566923547094
-0.5568388723100952 -8.756245463375571e-08 -0.21503659567351335 0.23308645543848402 -0.08232138615766586 1.0343388574850992e-07 7.947579278234846e-09 -6.131598129023776e-08
9.518485588554733e-08 0.22379737235791508 -5.70179917912579e-08 0.2565336024001701 0.2421459816839795 0.038850564020844906 -6.876915828251305e-08 0.10556513966779334
0.2057320637226997 -0.5289108903860223 -0.10928602948942205 -0.2819521343507812 0.23205656138259792 -0.2752667882179099 -0.11504693155732756 0.24007217092587735
0.010268737307372093 -0.18602719780516078 0.09241934965807877 -0.11252337469769015 0.26143671073785657 -0.23607696797845634 0.2642893794174948 0.5301220020207333
-0.10174565170259063 -1.0567155941689973e-07 -0.07889869454939707 0.023480439305952616 5.977750952713301e-08 -0.38023832337963254 1.9683679441331555e-08 0.2594831397404669
7.15544999455804e-08 -0.27396066260180585 1.0645062746744307e-07 -0.2877402155370671 0.3057837093293498 3.948552539711759e-08 0.25002813327008755 0.31406559774749376
-0.2097781041286126 0.23389827831122434 0.2902958966647173 0.25400575302641965 0.22660025989615395 0.006678059755658688 0.06148730619937845 -6.301221463490709e-08
0.5761437604481562 0.27554170182098775 4.923869130148744e-08 -4.6319145599320904e-08 -0.2684909645233333 -0.38625379957543965 0.39577070777991596 0.1856764609651589
-1.0392775596469676e-07 4.948766354035956e-08 -0.2482568956937285 -0.19951443169670027 0.21026534802983163 0.24076478199012502 0.23322006691351022 -0.17880678751244705
-6.988816170850849e-08 0.17235165342087447 -0.34173475666752656 1.0220881811974468e-07 -0.18437996140594967 1.518907938198261e-08 -0.04906239733397766 6.395607472125872e-09
-5.3641018721352835e-08 -0.2945387143567343 -8.232037659167103e-08 0.2682904700060448 -0.00446592813616838 -7.504396684656173e-08 -0.2989723804063972 -4.011896980110081e-08
-0.23681765855925777 0.23204013269279697 0.7383660202436816 -0.44908028702306246 0.197155429915423 0.19392928905846185 0.20950686785614397 -0.12966327311166462
-0.18294041414820322 0.23781554602457286 -8.48330265913201e-09 0.7038988326930662 0.005983516668917708 -0.06991270369667903 0.19222019473042462 0.33837644512418785
1.969065468266739e-08 0.2149481658879609 -0.28237172311773223 -0.1387956455913746 -0.398235037532523 0.12372329049309182 0.2591800434968635 4.055842558855104e-08
8.32375159475669e-08 -0.16589113138783448 -0.24008607400336315 8.144051650000675e-08 -1.0953993521662493e-08 4.424287871754038e-08 -0.20486356954496748 1.0873955507517762e-07
-0.0008460619869341293 -0.13967220914353262 -0.004060654857101088 -7.868763238697579e-08 6.605253785238366e-08 4.4660500345556234e-08 2.090951361443598e-08 2.2651729657700748e-08
00000000: a119 e418 7799 773e 2203 4e74 5380 6abe
00000010: 2079 07d1 e25d 6a3e 500d 0079 adc4 cbbf
00000020: a3ed 2242 fb5d 72be 4bb9 f06c 3cdf 6cbe
00000030: cc11 1c78 b6c0 6d3e 410d 1c1a 6864 753e
00000040: cdf6 ca10 f3fb d5bf 3d6e cd14 a2ed 6b3e
00000050: 48ef 11ab 59d2 803e 5896 e462 5df8 773e
00000060: 2196 fb0b 1146 d1bf fb55 fd5e 4c8c d0bf
00000070: faee 8583 d999 d1bf 1863 88ef d637 453e
00000080: 391e 038c 594f 803e 39cc cd39 6cf0 643e
00000090: a9e3 65d4 4bc9 60be 0085 8951 68d7 423e
000000a0: 38bf 2b91 f986 63be fb9a 3a4d aca5 d1bf
000000b0: 4d0d 4468 f930 ccbf 8930 7317 160d ccbf
000000c0: 7f88 a3af 48a3 d0bf 52a9 042b b2bb c7bf
000000d0: c0be 39e7 66aa d3bf 1ac6 e8b1 f76e cfbf
000000e0: 1594 d2f9 11f7 643e 1e8e dfe7 7a1b d0bf
000000f0: eb31 c5dc b707 cebf eb02 4df7 2826 c5bf
00000100: 2719 bb2d 7367 70be d61c 736a 2edf 763e
00000110: b219 3f59 0513 5d3e 5c7b 76db 804c d3bf
00000120: 2033 a316 083a 513e d204 f091 4483 79be
00000130: 180e f575 6a7c 5f3e bd70 ac12 ab2c d0bf
00000140: d67d 3225 7af4 d0bf af3e c4a8 4069 733e
00000150: 523a ca00 6d37 65be 002b f927 f5e1 673e
00000160: 80f3 3210 4d46 3bbe e0eb a402 5a64 4ebe
00000170: 1221 eb06 110b c8bf dfff cdf8 2889 63be
00000180: 80d0 3f3c 9b84 1ebe b2b6 e3e2 deb9 6ebe
00000190: 60b6 aa01 cf34 41be 75bf d724 a44b d0bf
000001a0: 45a7 a614 b4e1 663e c041 2cd5 229b 6c3e
000001b0: 1608 a1a3 9215 5a3e b8c0 e8ad cc5f 39be
000001c0: 2c51 1687 882c d0bf d285 67c0 a6df 653e
000001d0: f97d 1489 f096 cdbf bb7e 2e43 cfcf cfbf
000001e0: 2e2f 83ff 8f1d d2bf 93ae 8669 25a2 63be
000001f0: 1561 38e6 e16a 63be 4b9f 2bea 2ce3 71be
00000200: e677 ade9 8f79 cf3f 5c57 cb36 4977 79be
00000210: e090 0a10 bdd9 223e 1232 5505 c193 73be
00000220: ac46 f851 c12a 6ebe dce4 e01a 158d 7cbe
00000230: c5f3 e189 3464 723e 0e03 24d6 c973 783e
00000240: 789a ca7c 92ee 5f3e ce4b 85f7 a14c 68be
00000250: 3335 055e 2418 d3bf 245d 5e73 dbb4 603e
00000260: b1dc 6a4f 3f69 71be d1a5 4b6b 85b0 d0bf
00000270: aec0 1fb0 2c69 6bbe af71 bb90 1ce8 c9bf
00000280: 05d7 01f5 c817 d1bf b349 b886 aeb8 d0bf
00000290: 769d dd5d 6cde d3bf 87c3 7a8d d15a 7ebe
000002a0: 613a 8a09 b252 d03f 66f6 772f 3a7f d3bf
000002b0: 1f23 01a3 4a40 d1bf d6a9 3332 c56c 70be
000002c0: c4ac d9d5 3751 5bbe 8da7 c29d 38aa dcbf
000002d0: a8e4 a5ba 162e 4ebe 60d4 2909 baa0 71be
000002e0: 01c0 59fa 3c26 cebf 95b0 041c 7290 cfbf
000002f0: 0602 dd81 c556 5b3e 3404 d7e2 d07c 6a3e
00000300: c611 2e54 9a55 d0bf 6329 66c0 3853 d3bf
00000310: 21bd b101 a84f 7d3e d3fc 9ad5 2444 6d3e
00000320: 3308 08a1 3d2f 623e b4fc d2fe e947 6ebe
00000330: 5a0f 9139 278c 673e c092 0910 b7a1 1bbe
00000340: e7d6 6d0e ae7a d1bf ee35 7ba6 cb08 d1bf
00000350: b518 b510 9673 78be 6c6a b85f d96c 663e
00000360: 4236 a456 ea9b 5abe 9c57 85be e957 41be
00000370: 5ac1 9d09 537c cdbf babf b46a 13e7 593e
00000380: a338 f7d6 976c 653e af99 e922 afbb d2bf
00000390: f6e8 c645 dd41 70be ee92 9225 5116 d2bf
000003a0: e0e5 fccb 33df 763e 5bc8 e4e5 3032 793e
000003b0: aadd e17a 2f21 d0bf a81f 4d2b 0fc1 433e
000003c0: 3572 bd60 733f 6f3e 27bd 9df7 e870 cd3f
000003d0: 953f 49e2 ecf6 e23f 264d 55a9 0b7a b1bf
000003e0: f2d8 0753 c27a cdbf 6c3a 5203 d5c6 4bbe
000003f0: 68aa 4c43 f1ec 733e f5f4 f6cb a2c3 d3bf
00000400: 00d4 36c1 9fd1 e1bf 1d6b 0ffe 3e81 77be
00000410: 7632 eeb4 5186 cbbf 53da 9fe7 c6d5 cd3f
00000420: ebfd 4ead 0313 b5bf 3881 5029 ecc3 7b3e
00000430: c88e 9b58 3a11 413e 1196 7d26 9a75 70be
00000440: e359 7fb1 0d8d 793e 149f 9a6d 64a5 cc3f
00000450: 9c46 2b3d 7e9c 6ebe 2490 28ea 0b6b d03f
00000460: 8862 18b8 a3fe ce3f 5726 cd9b 38e4 a33f
00000470: 119f 9dd3 c775 72be 4789 7826 5106 bb3f
00000480: 0cbb b6a2 6d55 ca3f 3f99 1688 d6ec e0bf
00000490: 2317 9152 2bfa bbbf 79bc 04f7 800b d2bf
000004a0: d5f0 fa86 07b4 cd3f 5189 4497 f89d d1bf
000004b0: 363b 8b38 b773 bdbf fa36 6755 afba ce3f
000004c0: 3c43 4097 c607 853f 1dae 5e3d bdcf c7bf
000004d0: b28d 4c64 cba8 b73f c1b4 5cf6 54ce bcbf
000004e0: 2cf2 a50a 61bb d03f 2435 6724 c537 cebf
000004f0: 45cf 5100 1eea d03f 0836 b26a c2f6 e03f
00000500: 37a5 92c6 000c babf 7815 9dbb b15d 7cbe
00000510: b468 c970 b432 b4bf f0bb a89b 410b 983f
00000520: 1dac a111 e10b 703e 3d7d e61e d355 d8bf
00000530: 9ccb 96cd 9b22 553e f41d c32b 5f9b d03f
00000540: 2ca6 4a13 3035 733e ccf9 904d 9288 d1bf
00000550: 801b 323e 3b93 7c3e c671 deef 556a d2bf
00000560: 2f06 ced5 f591 d33f c812 ee6a d932 653e
00000570: ac65 deff 7500 d03f 84f2 c797 a619 d43f
00000580: 671b 5348 02da cabf 34fd f7f7 60f0 cd3f
00000590: 13a1 953d 3594 d23f 07a3 8f58 a141 d03f
000005a0: 4471 c2c0 3c01 cd3f 5f46 0504 745a 7b3f
000005b0: 0cae 7da2 437b af3f 967c 599a 2aea 70be
000005c0: d16a 1d0a c56f e23f 4357 80a9 79a2 d13f
000005d0: ae5d 986f 506f 6a3e 02f2 b80d 0ede 68be
000005e0: b48c f9b9 f42e d1bf d176 48db 61b8 d8bf
000005f0: ec49 a8a9 4e54 d93f 91be bd0b 3fc4 c73f
00000600: 3d3b 096b dce5 7bbe 85db 285e 8891 6a3e
00000610: fe69 01c8 e1c6 cfbf 3dd2 9b5b b089 c9bf
00000620: 6b95 a294 f9e9 ca3f 4e8c 5660 61d1 ce3f
00000630: f60c 15b8 27da cd3f a09a 550c 24e3 c6bf
00000640: 242e 078b adc2 72be d955 6d75 9e0f c63f
00000650: 6fc9 f274 fbde d5bf 1fb4 328b bc6f 7b3e
00000660: ab5d 2338 c399 c7bf 44ac fa70 244f 503e
00000670: a08c 06e0 b41e a9bf e035 da76 0b78 3b3e
00000680: 79bb d98f 5dcc 6cbe 165b 64e8 b8d9 d2bf
00000690: 23df 5761 0319 76be 9a48 a0ca ab2b d13f
000006a0: 5477 a874 dd4a 72bf 8067 206d fb24 74be
000006b0: 022d 100d 5d22 d3bf 3eb9 e4c2 e889 65be
000006c0: 954b 5081 0a50 cebf 4735 a3b6 7db3 cd3f
000006d0: c193 adc6 b1a0 e73f ceb5 823e bbbd dcbf
000006e0: 8897 db9d 633c c93f 500e 1fc9 acd2 c83f
000006f0: 4e61 ddfc 1ed1 ca3f 9de2 c05e ce98 c0bf
00000700: a20d f16b 976a c7bf 4bf5 5364 bd70 ce3f
00000710: f869 8eb5 be37 42be 587f 43d8 5686 e63f
00000720: f176 8706 2c82 783f b9c1 f387 cce5 b1bf
00000730: 04bc ffdc ab9a c83f 56e3 62ad f5a7 d53f
00000740: 2ebd 5da4 8624 553e 0278 69e7 6b83 cb3f
00000750: dfc5 06d9 6012 d2bf 5132 5243 0ec4 c1bf
00000760: 88b4 94cf ae7c d9bf bfdc 6b5e 54ac bf3f
00000770: 9e12 a6e4 6796 d03f 0013 bcbc 4ec6 653e
00000780: 5801 cedd 0958 763e 8beb 00ac eb3b c5bf
00000790: bde4 08f6 23bb cebf 8325 c3b7 8cdc 753e
000007a0: 1897 2389 0586 47be 6e54 36e8 b1c0 673e
000007b0: ca31 ab2d f838 cabf 8a8d b77b 8630 7d3e
000007c0: 1707 3a48 48b9 4bbf dc3c 3769 c7e0 c1bf
000007d0: a848 fcbc e7a1 70bf e78a e577 5f1f 75be
000007e0: f2de db88 18bb 713e 5fc9 6da9 17fa 673e
000007f0: c0cf e336 9073 563e 949d fbc4 7552 583e
