pyTorch/test_experiments/2/noisey_paths/models/ow_0.8_12_NP_model_2.pth (torch, 470675 bytes, 10 tensors)

weight f8 [120, 60]
00000000: eeaf dbae d595 66be 54cf 5060 3978 773e
00000010: ee26 a687 9775 803e d402 550e ceb7 543e
00000020: d8fe cda5 c1b7 68be 4f04 f6aa d2b3 7fbe
00000030: ca3f cac3 c55f 843e 7ffd 19dd 24a6 73be
00000040: d6ca 1f3e 0d58 69be fedd 0fee 9f4e 703e
00000050: 5074 0ee2 edad 4c3e 7058 d5df cdb3 48be
00000060: 54a4 e4d9 1e3c 75be f886 0e5b 259d 73be
00000070: c049 3709 8e1b 1a3e b807 2d5d 9c5b 453e
00000080: 0211 438b 4a0c 6ebe 9486 3d5b ddbc 58be
00000090: ab5f c79e 8b26 60be cd16 1cb1 3479 d0bf
000000a0: e6f6 97a0 ce72 65be 2c02 eac3 e482 cebf
000000b0: 1e2b 8eb8 e348 d2bf 4564 aecd baca d1bf
000000c0: 9db0 b75e 6ff0 6d3e ca65 01e4 508b cfbf
000000d0: c999 ea22 4b5f cebf be11 439b 6dc6 d0bf
000000e0: 57ad e4a1 a53b ccbf d298 2948 c395 d2bf
000000f0: 54f1 2e03 6510 d0bf a435 09a1 972c cdbf
00000100: 00eb 251b 1844 ccbf 14b4 0cb9 e44f ccbf
00000110: 3884 45fb fb66 d0bf da8f 980e c208 cdbf
00000120: 6368 ee57 8055 d1bf c2c1 591c db38 ccbf
00000130: b8aa e558 40a1 d2bf 47fa f7cf 68a6 ccbf
00000140: 1d0b ffb7 67c1 cdbf 4ea3 db63 f222 d2bf
00000150: 5adf 08dd 5ce7 d0bf 3ba1 1900 c241 ccbf
00000160: 2408 5496 314b cdbf bf2b f6b2 ac40 cfbf
00000170: 2dd9 aaa8 a243 cebf 059e db64 a2d5 d1bf
00000180: e73a 3b68 b640 d0bf 6c60 7635 c631 cebf
00000190: 7beb 0000 577d d1bf 5580 97fd f4de cfbf
000001a0: 6c3c bc82 685f ccbf 7aa2 eb75 022a d1bf
000001b0: 52fa e7a7 b1ee d0bf 17ae 335a 9d18 d2bf
000001c0: c2f1 5e0a abce ccbf 7479 c2b6 eb69 d1bf
000001d0: c397 4bb9 a599 cfbf f723 2d0d 0250 d2bf
000001e0: 4303 b38b a7b4 73be 77a2 4944 5f01 82be
000001f0: 59b3 1f61 a29e 64be 534f 8b72 32e6 6ebe
00000200: 5e69 84ec 86f6 793e e77e 482f 3afb 7dbe
00000210: fe0c 1f5b 78d0 6b3e 8ac7 7e64 2c82 823e
00000220: 4e96 29a5 d899 6cbe ec6c 58de 55cc 703e
00000230: f87e 0a65 19af 4abe 90f1 81a8 4dbe 683e
00000240: da5b f2e6 e83a 80be d8bd 2abf 76c5 7ebe
00000250: 79d9 50f1 7a4d 82be 9824 4bf2 b740 4dbe
00000260: ab46 cc69 a410 733e 612c e6a4 26fe 75be
00000270: aadb a670 367b 7fbe 846a bec3 7085 54be
00000280: 5ade c292 a38f 843e 067f 0700 1169 873e
00000290: 4246 e125 8a91 6bbe 9e17 56e1 0d95 5f3e
000002a0: 2669 3400 a825 60be 35c4 af49 2577 7d3e
000002b0: 9840 476d 32ad 52be f49b 5b71 debe 5dbe
000002c0: b67b f9ad 6938 78be 30c7 6da9 e52e 75be
000002d0: 7881 3b25 d629 363e debc 7bce 6af1 6fbe
000002e0: 1fa3 bd20 8eb0 a5bf 4a6a 68ea cecf 83be
000002f0: 22af a33f f8e0 67be f9f7 aee8 6a87 7a3e
00000300: e61d 031b f076 a5bf 2f5b 9be4 4b12 a6bf
00000310: f0ef d1c1 3e28 a5bf ed08 c472 382b 763e
00000320: bbf7 b504 8606 a4bf f77a 65ea 7d86 a3bf
00000330: 21e2 8508 7192 a4bf 7066 bcee 9bcd 7abe
00000340: 4bae c312 de26 a6bf 9aa0 6040 8bef a4bf
00000350: 7fca abac 3ea0 a9bf 5f4e 591b 4ca3 84be
00000360: f361 af1f 3446 a3bf 3748 dab4 c944 a3bf
00000370: 0486 208f ad0a a0bf 3be6 5c4a 7e52 703e
00000380: 0095 89fb 83fa a3bf 58ed f38c 89cb a4bf
00000390: 2d90 b17c 32ba a4bf 6a7f f253 953e a3bf
000003a0: ec35 9dd9 7ec6 a5bf c8e4 02f7 3d4d a6bf
000003b0: f5e6 e921 6c2b a5bf cf30 c637 13c0 a6bf
000003c0: 8124 3cd0 5d0a 73be 8241 6944 553d 5a3e
000003d0: e023 12c7 81e5 663e 03da 4ddc 90c1 6c3e
000003e0: 2776 a090 56f0 773e 3bb4 c30c b842 78be
000003f0: 2a03 5e60 d72d 743e d71c 43be 4def 79be
00000400: 3083 6f30 d4b4 69be aecf 7568 74bf 6dbe
00000410: 841c 96ff cfa6 403e ebbb 1664 01c7 773e
00000420: a297 a8f5 6460 783e e9b5 38bc 8da4 6abe
00000430: 9fa9 52bb 3738 79be c8d5 07ec bcae 4ebe
00000440: be61 655e 2be9 6abe 43cb 9f62 0115 673e
00000450: f641 6709 57fe 66be 09b3 8fc9 d550 823e
00000460: ac35 2e63 0586 49be f6a6 9bb1 7d68 813e
00000470: d85a 0bca 2f39 45be adf5 9ace 61cf 7b3e
00000480: 8a01 c0d7 91f2 70be 8bc8 1f2e d77c 7f3e
00000490: f140 b7fc 62b6 733e 5334 2cff ab86 773e
000004a0: 704f 4b8c d4d9 5ebe 809b 37c0 61d0 4fbe
000004b0: 584c caea cf92 48be dbc3 5cc6 95d4 69be
000004c0: b99a 4ad3 00d0 d6be ec67 e80f 77f7 73be
000004d0: ec74 a220 3eb3 473e 1648 cfe5 18e7 79be
000004e0: 959b ec5f b3a9 d5be 4e65 888c 5a7e d2be
000004f0: 2dd0 9c2d 223f d6be 3219 ee85 2c3c 65be
00000500: 5537 98b9 f17f d6be a2d9 2f9e 6cac d6be
00000510: a2ab 1fc5 289c d2be 173c ced4 6f58 7b3e
00000520: c402 accb 7af9 d1be 5fc2 aaa1 9cb3 d8be
00000530: 3938 7906 b5ff d6be 40e6 5392 f252 41be
00000540: 2352 bbb2 172a d7be 288e 4ad0 0952 d3be
00000550: 8c2d 61ce e62c d3be 0971 480c 402c 793e
00000560: c1ac 3f7b 3073 d3be a285 3818 edca d6be
00000570: 2aeb 1249 f5e2 d5be 383d b32c a5d1 d6be
00000580: 32c7 58a4 439e d6be 6a2f a2c2 d783 d4be
00000590: daa1 6ba9 6860 d9be 2108 7553 518a d4be
000005a0: b658 aa02 cc0e 71be 982d 0c39 731c 493e
000005b0: 5cce 6a5b c3fb 82be 6ec1 94d1 101c 7a3e
000005c0: 2cc1 d5ba 99a9 77be 1ea7 f9d1 43e8 72be
000005d0: 90f3 3088 c2d5 62be c8ce 17b6 1bd3 3abe
000005e0: 5b02 125d b513 773e a955 9025 3342 6ebe
000005f0: 9825 de6f e0ac 7dbe ae2b f411 49de 64be
00000600: ce56 5599 53dd 803e 0083 634c d886 363e
00000610: 6ff4 0071 ff2e 6abe 0a69 95e1 ae5a 6d3e
00000620: 2565 3f76 4a74 833e c55c 537d 2d49 72be
00000630: 25b5 67ab d9c6 6f3e b41a 7b25 a02b d0bf
00000640: be74 ef41 b7f4 7e3e 30b7 23b0 3a8b 61be
00000650: 20ba 7606 58e6 293e fc65 e52d 0644 cdbf
00000660: 28ae 73ff 6e4a 7f3e 4983 508b c2ea ccbf
00000670: a79c c867 477c d2bf 5321 21c5 7dd1 d1bf
00000680: b87f 9409 eb85 853e a6c6 d482 def2 ccbf
00000690: 7a45 a198 a7ca d1bf 1e8a 630a b882 d0bf
000006a0: 7f94 2518 af5a cdbf 06fc e937 6638 d0bf
000006b0: a710 6f7a ca3c d1bf 648c 7278 661a d2bf
000006c0: 4705 2258 334b cdbf 11fb 3523 19bb d1bf
000006d0: 9898 03a4 26b1 d1bf 20f9 5bc3 a465 cfbf
000006e0: a0fa 2356 cd1c d3bf 3955 ec88 9eff cfbf
000006f0: 9e0f 1286 a0ee ccbf ac35 f564 2148 d1bf
00000700: f32b 5e82 8843 d3bf 49ff eb8e 0cb9 cdbf
00000710: 6cb6 8748 ea19 d0bf 78d9 db81 fcea ccbf
00000720: bf38 25ae fd18 d3bf 64c4 6c09 248a d1bf
00000730: 9a28 f7e3 11e6 ccbf 2f72 ddd7 111c cdbf
00000740: ee53 c068 e7a9 d1bf f8bb ae49 10fe d2bf
00000750: fc1d 9115 34a6 d1bf c02e a4bb 0261 cfbf
00000760: 7b0b 494e e190 d1bf 5f74 8eee 557e d1bf
00000770: b86a 82cb bccf d1bf 24dd 5b68 ae40 cdbf
00000780: 5eb4 efd8 d377 84be fde3 fb60 6783 79be
00000790: 874d 7280 0a82 7fbe 737c 3d20 313f 62be
000007a0: 90ce 4ca7 e0bb 713e 5afd 6e1b f787 523e
000007b0: acd7 88e5 4446 6cbe ed63 75ad c782 853e
000007c0: ffe3 491f e7f9 633e 8177 ceb8 b4ee 74be
000007d0: 469e 5465 ddfb 6f3e ad1f 9cba c2bd 703e
000007e0: b9f8 aa02 141e 71be 9e88 f49b db46 7bbe
000007f0: e7f2 0627 e501 81be 0c91 614e 100f 5fbe
-4.2068384204857836e-08 8.743116815327658e-08 1.2263166466698628e-07 1.9295129845668635e-08 -4.604048762287481e-08 -1.181007671571262e-07 1.5179895908713974e-07 -7.319822905616486e-08
-4.720678938021514e-08 6.074878512718064e-08 1.3354891472041116e-08 -1.1502932823853082e-08 -7.910596486596254e-08 -7.306728978678722e-08 1.5196644262970331e-09 9.945526102003694e-09
-5.5968784635982235e-08 -2.3038827470252807e-08 -3.008277702263346e-08 -0.2573978166186464 -3.995088000348214e-08 -0.23836955610387756 -0.2856988241480155 -0.2779986389737739
5.5766104480607776e-08 -0.2464390862758548 -0.2372831268778113 -0.26211109316161785 -0.22057028202957937 -0.290390797110729 -0.2510006457412335 -0.22792334902844147
-0.22082806897727636 -0.22118815456033813 -0.2562856630157202 -0.2268297740239394 -0.27084358775176137 -0.22048510441119445 -0.2910920017372223 -0.22382841257781846
-0.23246475681488557 -0.2833829856086155 -0.2641212614575942 -0.2207567692269182 -0.22885722961660904 -0.2441612123332941 -0.23643906818114982 -0.27866420602228487
-0.25394973925442205 -0.23589398966283015 -0.2732751369509782 -0.24899160749828533 -0.22166162856635496 -0.2681890632216334 -0.2645687236508013 -0.28275235947396155
-0.22505701071157885 -0.2720898899805413 -0.24687644527074157 -0.2861333016085718 -7.340938428230104e-08 -1.3415038515047118e-07 -3.840711938749912e-08 -5.755425853062092e-08
9.671969814322896e-08 -1.1168925679498595e-07 5.180823893461328e-08 1.378989955537123e-07 -5.3273443119389276e-08 6.25781165431798e-08 -1.2425697055756798e-08 4.608812270796483e-08
-1.2092378962456698e-07 -1.1463218622486322e-07 -1.3636542264975054e-07 -1.3621899671954128e-08 7.102269212698815e-08 -8.192947940058086e-08 -1.1727697938374899e-07 -1.9111905155345266e-08
1.531920558234058e-07 1.7442118861645016e-07 -5.135035928471624e-08 2.9413255905125106e-08 -3.007630768933394e-08 1.0976721613577825e-07 -1.7393893285607108e-08 -2.7702731739567743e-08
-9.022788160496374e-08 -7.891353913187973e-08 5.1603242405890466e-09 -5.9498541036634504e-08 -0.04236263417880636 -1.4760904783267385e-07 -4.447770858721956e-08 9.882813338434799e-08
-0.04192304925669159 -0.04310834088908277 -0.04132267108886356 8.258532763555619e-08 -0.03911227042679807 -0.03813546644481918 -0.04017976025619797 -9.984955412177545e-08
-0.0432652852922187 -0.04089007531030227 -0.050050695970544894 -1.5376418864792112e-07 -0.037644986026581416 -0.03763418514894606 -0.03133146640926657 6.080508060677126e-08
-0.03902065701985613 -0.040615366417081133 -0.04048307201517818 -0.03758684777972017 -0.042530025543424305 -0.04355806007647228 -0.041346911563733636 -0.044434166487094744
-7.09313674984573e-08 2.4437515367467845e-08 4.26480760785508e-08 5.356244118283147e-08 8.91790571670554e-08 -9.037785559150998e-08 7.517288488739466e-08 -9.66145843910657e-08
-4.788183188115752e-08 -5.5409725747712656e-08 7.754010755322355e-09 8.857758706266703e-08 9.080968991405397e-08 -4.962605928654781e-08 -9.395033269641322e-08 -1.4287685146957712e-08
-5.012530461767891e-08 4.299367291340453e-08 -4.2828760249785684e-08 1.3646306198881213e-07 -1.1885315042717461e-08 1.2970095824372424e-07 -9.882908992407816e-09 1.0360064419796782e-07
-6.313449846251895e-08 1.173006683173114e-07 7.343459101157516e-08 8.764141038956583e-08 -2.873213912869437e-08 -1.481454426403063e-08 -1.1442920688504371e-08 -4.811288860233226e-08
-5.438926838386115e-06 -7.438160663127651e-08 1.1036250153600896e-08 -9.64951651493559e-08 -5.164836237614864e-06 -4.409210483413457e-06 -5.304006401907934e-06 -3.9553371015141e-08
-5.364366097560865e-06 -5.405791372750664e-06 -4.436969065916865e-06 1.0186976347039787e-07 -4.285461893572307e-06 -5.889322461414229e-06 -5.4833545629195746e-06 -8.0671225901533e-09
-5.522829080912886e-06 -4.606357155853852e-06 -4.571770864168929e-06 9.377618243777137e-08 -4.6372314734630005e-06 -5.434198445482097e-06 -5.218161406246236e-06 -5.440456060059558e-06
-5.392603787112044e-06 -4.891159770658305e-06 -6.050252202107322e-06 -4.897189959609069e-06 -6.354525853633855e-08 1.1693282593527052e-08 -1.414377217200219e-07 9.726595741745314e-08
-8.814968906700278e-08 -7.043512483822095e-08 -3.508292058987022e-08 -6.245598567392027e-09 8.596847257854555e-08 -5.636102135706612e-08 -1.1054910584013225e-07 -3.887024235302755e-08
1.256507401829391e-07 5.24491489668374e-09 -4.877072801209634e-08 5.46765159352296e-08 1.4494554101302497e-07 -6.812010096571492e-08 5.9188825774504105e-08 -0.2526626935981924
1.1531979325582478e-07 -3.2677993659859125e-08 3.015131300630591e-09 -0.22863843194026845 1.1656715047700409e-07 -0.22591430475679378 -0.2888353837501633 -0.27841133356971176
1.6035972264741797e-07 -0.22616177929153486 -0.2779940596129432 -0.2579784490064031 -0.22932995490115002 -0.2534423395190405 -0.2693353839533849 -0.28286134493300197
-0.2288574390732185 -0.2770445674758984 -0.2764374353122405 -0.24528941668536053 -0.2986329404083481 -0.24998838124944614 -0.2260323195115434 -0.27002749308743534
-0.3009969018100371 -0.23220974901777883 -0.25158173640270465 -0.22592121449242675 -0.2984003258360523 -0.2740564434089434 -0.22577117568136346 -0.22741911926540712
-0.27599511365525486 -0.2967568130069931 -0.2757692537893204 -0.24514803087401127 -0.27446777958919427 -0.2733359174397431 -0.27830428956955755 -0.22853641601225505
-1.524990520246776e-07 -9.50444347633689e-08 -1.1737634518704698e-07 -3.398739425899191e-08 6.606391329545034e-08 1.7258445086018778e-08 -5.266533937115413e-08 1.6026839120655545e-07
3.72085401699346e-08 -7.797943464427326e-08 5.9574557435053694e-08 6.236602581252323e-08 -6.376762999146417e-08 -1.0161395546220078e-07 -1.2671502559553356e-07 -2.892580121988783e-08

bias f8 [120]
00000000: d293 27f8 0765 cfbf 4174 4a75 18ee a5bf
00000010: 04e5 12e5 eef9 d1be 9f1b 35d6 f346 d3bf
00000020: 5b26 1fb8 bf02 d9bf 96d5 4658 1d02 d0bf
00000030: bd1e 5be8 7f02 d1bf 7279 8a3c 18a0 c2bf
00000040: 392e bdf0 23e0 9cbf 0edd 7a27 f699 ccbf
00000050: 09c7 255c 3920 c8bf bd24 3f70 cf47 d5bf
00000060: 5ad6 5647 9103 a6bf 694c 39d8 a49d bdbf
00000070: 98f5 49c6 0927 e1bf 489b 2df8 c76c d3bf
00000080: c2ad 7851 e34f d2bf 3362 c057 48f5 d0bf
00000090: b9f8 b644 3429 8bbf cfbc 5f68 83a1 cdbf
000000a0: f030 9b18 34eb c3bf af2d 93ae f459 d0bf
000000b0: 6cf5 fae7 c4ab d0bf b76c 2478 6f5b babf
000000c0: 4117 cee1 4bbc d0bf a3b7 5b75 1f46 d0bf
000000d0: 7d79 ed68 3f08 cfbf 8d3e 5778 a867 cdbf
000000e0: a93b a981 4c5f cabf 4385 198a d91c 74bf
000000f0: 48aa 149a 1e0f bebf 243d 4873 7de6 d0bf
00000100: 7177 473e 4981 ebbf e3dd b1e0 cf5f c0bf
00000110: e8d3 c87c c186 c4bf 21e9 036b bd30 c8bf
00000120: 8feb ef6f 8260 d1bf 90ea 197f 1a36 e1bf
00000130: c99a 3892 eb21 cfbf 001a b3ef 4bb0 d8bf
00000140: f4f5 e13a 0fe1 cebf 7f4b 2958 8042 d1bf
00000150: 46fe 7f7b d75b ccbf 8dd4 1260 fbb4 cfbf
00000160: 82d8 77f0 b5e7 cdbf d009 4ab4 e290 dabf
00000170: 0321 4cc8 4692 c1bf c11b 2164 1e11 d3bf
00000180: 713a b9c0 fe68 b4bf bad4 b586 32de dbbf
00000190: 9f29 dc48 d9e1 cdbf 1640 8017 165f a93f
000001a0: d70b 3897 3832 a7bf bfea 443a d3a7 81bf
000001b0: e9b8 7e6c 741b d1bf 33ba b666 3efa c7bf
000001c0: 2b59 b4b9 1399 cbbf 26fb e983 67bf d1bf
000001d0: 05c7 ec25 f97d d1bf 7cdb 78c1 98c4 bbbf
000001e0: 12b8 29ff a8e7 d1bf 64cd 76b6 dc70 c8bf
000001f0: b411 d875 368a c4bf 121b d2f4 4cdd d3bf
00000200: 7ab0 7d28 4ad8 ccbf 810e f305 cd9b d0bf
00000210: db73 d121 da05 d3bf b761 3365 1b61 d2bf
00000220: 5925 70d0 7020 cbbf 4710 a4bc ca7e 34bf
00000230: ad73 3d87 745a ccbf 264b 2396 be63 c4bf
00000240: 8a3c 5386 6605 cfbf 799a cfa3 f9d6 c3bf
00000250: e69e c20b c785 d3bf b85d fd4f 1bae c8bf
00000260: 4b4b 7e45 df08 d6bf 67ef 28c7 f829 d1bf
00000270: 12a9 5139 7e43 c6bf e084 5f9d 61d6 c1bf
00000280: af3f e7bb da7f cdbf 560c 87cc 8f34 c3bf
00000290: 57d1 50f2 e1b3 c1bf c815 c2c9 1e47 c5bf
000002a0: 8c50 f4a3 02cb ccbf 364f 5fcd aaea d2bf
000002b0: 1c8a 333c a355 d2bf a420 bcdb 427d cabf
000002c0: 2aef ca0b cc55 d6bf e042 50cb 74df d0bf
000002d0: f0af 60f5 bad8 d1bf b21a 7ee1 ad5c cfbf
000002e0: 0065 5daa 06c2 c4bf 1a8a d543 12fb b9bf
000002f0: 3952 22d1 9ea1 cabf 6645 03ed 983c cfbf
00000300: 232d 4101 eecd e0bf 118d cbae 90cd cfbf
00000310: c8a9 e413 41a9 e1bf c907 2699 3911 cabf
00000320: da06 23c2 05b4 c9bf 7b74 9495 7bc5 c2bf
00000330: b886 e9b8 d42d cdbf 3138 88ed af72 d3bf
00000340: 6516 0858 39da c4bf 66a8 658b 7139 c9bf
00000350: 6ab6 909a 8b80 cdbf d962 f3ca b3c6 d0bf
00000360: 2868 a477 9375 ccbf bfab ebec ba65 cbbf
00000370: 275f 449e cabe c6bf d241 e2b1 a516 d2bf
00000380: a33f 709f 9acd c6bf e542 6e14 e27d cdbf
00000390: 4191 c9d8 60aa d0bf 57da 460d 878d d1bf
000003a0: 52e1 dc1b a6fb bbbf a086 f48b 1789 d9bf
000003b0: 66ac 21bb ec80 cfbf 4165 6c23 0209 d2bf
-0.24527072541164202 -0.04283214980862527 -4.285884260096495e-06 -0.30120559614845804 -0.39079277973778453 -0.25012906666537427 -0.2657775658703761 -0.14551070171450992
-0.028198777740995083 -0.2234485333226321 -0.18848340033905966 -0.3325079532774671 -0.04299596782531685 -0.11568670538808735 -0.5360154030637885 -0.30351447330615544
-0.2861259742373613 -0.26497086114389673 -0.013262184473998283 -0.2314914950979756 -0.15561534120059362 -0.25549046562511085 -0.260483957808751 -0.10295769389306285
-0.261492701065766 -0.2542799612118591 -0.2424391996709793 -0.22972589374557054 -0.20603329020602004 -0.004910325778469118 -0.11741820584999474 -0.2640679956247871
-0.8595319954290358 -0.1279239508764781 -0.1603624209689365 -0.1889874241385963 -0.2715154736649134 -0.5378544313856128 -0.2432226623506806 -0.38576029213109564
-0.24124327063684314 -0.26968391999724156 -0.22155278711578513 -0.2477106303319129 -0.23363374940499076 -0.41509311300629026 -0.13727650432725377 -0.2979198434663282
-0.07972709851422068 -0.43543685107517727 -0.2334548574220436 0.04955357586743518 -0.04530503126081669 -0.008620882240042758 -0.2673007068177769 -0.18732433333703255
-0.21560904090501629 -0.27730739481187283 -0.2733137960777728 -0.10846857760848921 -0.2797644130540685 -0.1909442797601556 -0.16046791795828386 -0.31038211735033017
-0.22535063721750587 -0.25950933056831366 -0.2972321825271231 -0.2871769417083913 -0.21192751100196963 -0.00031273316984959217 -0.22151047328489196 -0.15929395991278134
-0.24235230978817796 -0.15499802111226638 -0.3050401320310655 -0.1928133144926798 -0.3442915133138526 -0.2681867546959808 -0.17393472479609123 -0.13935489830240666
-0.23046430754629685 -0.1500415562314596 -0.13830208141156206 -0.16623291827651898 -0.22494538312514967 -0.2955729489888087 -0.2864769065764976 -0.2069476674007592
-0.3489866366542055 -0.2636386857493971 -0.27885316813148986 -0.24501584539776428 -0.1621712047442898 -0.10148729473215959 -0.20805726253151294 -0.24403678486718688
-0.5251379036430176 -0.2484608510486415 -0.5519109142817848 -0.20365066507298327 -0.2008063505109508 -0.14665169528680963 -0.2279611494914684 -0.3038749522828566
-0.16290966795365872 -0.19706553751467765 -0.2304853920663164 -0.2621278268757528 -0.2223381361189365 -0.2140420586432281 -0.17769749381909003 -0.28263227817026604
-0.17814953599053948 -0.23040414807885337 -0.2603990666450678 -0.2742631559043835 -0.10930860691303693 -0.3989924303769872 -0.24612197053224633 -0.28179982623403893

weight f8 [120, 120]
00000000: e4e2 6e4f af2f 743e 40e7 b9fd f1cb 113e
00000010: 3e0c 8f9a 87c2 72be 1b19 6f8a be36 77be
00000020: 3cea 4b21 8067 5d3e 4df1 9a67 a4ac 69be
00000030: b63b 4772 e785 6c3e 78d0 8c9e cf75 303e
00000040: fc1a 1819 1ec0 473e a2b2 f301 4322 70be
00000050: 921d e19a 6854 613e 7a56 83de 411f 653e
00000060: 5411 f4b1 6154 6c3e 8cbd 79d5 dc7b 5dbe
00000070: d63d 73c2 495f d53f 346c 4884 80be 50be
00000080: 7cbd a01f 4bfa 6d3e 0ec6 e533 81ec 70be
00000090: 4800 f8e1 1832 4d3e 635b 24cf c3c3 66be
000000a0: d623 fba8 bc4a 523e 3a31 f074 a297 73be
000000b0: 8ef1 a42c 5ae9 713e 864d 0917 4a6b d2bf
000000c0: 5991 f81c 697e 7c3e 6016 d6a4 ed4b d43f
000000d0: 88df 49cf cb70 713e c83f 4557 12cf 633e
000000e0: ca62 2e34 eee5 763e 8826 a0b3 e40e 793e
000000f0: a985 df44 d061 753e ae62 b93a d9b8 70be
00000100: f559 4e8b 9368 68be da75 a330 4bdb 6e3e
00000110: 8815 3efb 8476 d53f 8af0 1098 93e8 803e
00000120: f09f 418f d47a 33be ce43 fbd6 0354 533e
00000130: ff30 c795 9d87 69be defa 5c9a 64f4 d1bf
00000140: e5c5 bad9 b23f 5cbe 1c95 9423 223a 623e
00000150: c52e 525f f784 b3bf eb8f c35f cf0e 6bbe
00000160: 54bf 304d 3eeb 80be 7b3f e547 695c d53f
00000170: 5362 a104 96ff c33f 40ea 5ae7 3a83 333e
00000180: 9206 4e7c ad13 683e 8884 f1b8 f6ec d33f
00000190: 4cee 9930 1f7c 5e3e 698b c177 f581 66be
000001a0: f8cc ab7c e0a0 793e 625d 8b7b 17fa 6c3e
000001b0: d4df 9013 aa88 5e3e 2eac 2849 130b 603e
000001c0: ba14 0f71 2b76 733e 5130 5bba f0fb 6e3e
000001d0: c87a f4a3 b46d 77be f06e 3d56 762a 233e
000001e0: e233 6b59 bb97 703e 2ea1 e279 6ace 693e
000001f0: 3489 fd1d 88b0 593e 8e71 31d5 68e4 76be
00000200: 364d e5a1 1b63 723e db41 95b3 f63d 6c3e
00000210: fbf5 bafd 0506 743e 7033 6d5a c194 bfbf
00000220: 6c13 9cad 7f45 7f3e a143 f95c a30d 6d3e
00000230: 9ce5 0aa1 1f69 633e de50 c9b0 6ccc d23f
00000240: 08d1 1faa fe45 713e 423b 8d40 9dbd 7a3e
00000250: daa5 a88a 1dee 71be 53da 3e91 192e d43f
00000260: 4042 30f5 768f 713e 037f 90f9 442d 743e
00000270: 4b90 fd03 39be cfbf 53f0 11f6 436c d93f
00000280: 6ae3 9fde 1445 73be 6c7c 2aea 81cb 6bbe
00000290: 8272 90c5 06cb 6abe 414d 136c 9b76 74be
000002a0: cdfc 8bd6 ae11 73be 3e7d 3110 212f d53f
000002b0: 30bd c747 e28e 6e3e c831 92f6 cd3c cbbf
000002c0: 4169 1fbd e904 d3bf 9d48 5454 8825 693e
000002d0: 1827 4e6d 6ca3 5f3e c174 6105 84f8 773e
000002e0: 233e 52a4 c7b1 d0bf 199c 5554 74ee 643e
000002f0: d512 51bf f733 d53f 300d f87f f596 583e
00000300: 5282 2ae6 938b bbbf e5d7 be97 3fa2 64be
00000310: 52fe afda 3582 d8bf d88a 1eff be7e 71be
00000320: c043 f0b1 1e9f 133e 628a 004a 3527 603e
00000330: b4a0 5ece 8293 553e 3e65 b052 cf17 72be
00000340: 24d2 abfa d68d cdbf f4b9 a45c 8617 70be
00000350: 0818 598b 9714 45be 08c3 c0c1 0180 47be
00000360: 4822 a097 8365 5e3e 76ca 21db 4581 74be
00000370: a0c7 99fa 0123 d2bf d6a0 187b cdf3 66be
00000380: 157a f003 dc3d 72be a333 2141 2d4b 75be
00000390: 78f8 398e 8e64 44be ab5b 5993 4679 793e
000003a0: c77b e307 8b79 d53f aac0 951c f55c d0bf
000003b0: aa83 4f41 dd9d 603e 4660 459d 4250 75be
000003c0: e02e 24ed b527 d13f 204c 5b63 6b14 54be
000003d0: cf87 517a 2fd3 71be 7422 cd4e 2452 7c3e
000003e0: 1885 e719 c158 4f3e 781e 1ec3 89ce 623e
000003f0: 84e2 b236 39dc 50be b73e b96b 5adf 76be
00000400: e2ce f32b e734 d1bf 80f4 ace3 6587 f53d
00000410: 3858 8ae9 f5c5 673e 0213 9f26 8956 6fbe
00000420: 6fde 3c29 5b18 7dbe 8014 f261 b5e4 203e
00000430: e373 6478 57e6 643e ac07 7b01 9f31 70be
00000440: ae5f 3727 3b44 6fbe dfcb 4eb6 d78a cebf
00000450: eced 6acd 7ac8 47be 5793 efe3 5e67 71be
00000460: 69a6 6682 e984 d0bf 0758 e7a5 6ea6 6abe
00000470: ee04 3651 c905 d13f dfd8 bd0f 14a6 69be
00000480: f144 1d93 3824 7e3f 7049 0f33 3b0a 493e
00000490: 4848 30e1 24d0 6c3e 1f0b 217a b65c 613e
000004a0: e11c 6427 ecfd 703e 84f2 b9d3 19d4 68be
000004b0: e2d4 13cf d4ce 6abe 7c07 d7ce 1af0 74be
000004c0: b281 0d19 5978 ca3f 137c 84fd 0bd9 6abe
000004d0: 1a3c e7da 9080 70be a418 1d31 4c30 59be
000004e0: 1ae1 598b 2286 573e c84f def5 24d6 703e
000004f0: 062b 8ea0 4161 523e 52d6 cc0c e866 793e
00000500: 4671 5462 430e 7e3e 5997 4bf1 edc3 cfbf
00000510: 4ca2 5bf6 874e 723e fa2f 6ee9 6c8d 753e
00000520: e006 c637 c695 553e 609f 0c0c 47ab 31be
00000530: c8d2 7a06 e5b5 d1bf e28d a35d 3d6e 703e
00000540: e88a f857 6f7e 3fbe b410 1992 f58f 66be
00000550: 7d29 aa65 4013 733e f040 e63c 6864 e0bf
00000560: a6c1 4aeb 13b1 6a3e e91a 1730 c7be 743e
00000570: dc96 b965 020b 44be e849 a29f e7c9 7b3e
00000580: 7a9a e621 20bd 713e e0b8 6975 2faa 483e
00000590: 8665 c062 90cf 683e 0e90 2a14 406e 62be
000005a0: 171d bf19 5e86 67be cc80 bcc0 e4f1 803e
000005b0: 0d7a 2f0a d47a d0bf d0eb 5524 4c4e 453e
000005c0: 9cc2 87a0 def4 5d3e 25dd 6215 bebe d1bf
000005d0: 108f 0080 f206 703e 51ac 8473 db7e da3f
000005e0: 134f de55 e978 67be 4c6f bc42 5581 54be
000005f0: 7e4c 8777 b516 693e e0f4 6225 4851 d0bf
00000600: b308 f0b6 893d d13f fc04 1731 f24f 6f3e
00000610: 36f2 a9d0 f12c 78be 7068 b403 2850 763e
00000620: 4832 627a eac4 673e 5e2d 76dd 20f3 7f3e
00000630: 522d 86da f7cd 55be d85d a370 f6b3 79be
00000640: b9fb 983b ac75 6bbe 4467 75ab 57dd d03f
00000650: a6af 9c54 2977 d13f 32ce cff7 3f9f 6b3e
00000660: bd3a eef1 ffae 71be c37b ea1f 1216 703e
00000670: 4fd3 fed5 f986 6bbe 6c40 eed4 a5c0 553e
00000680: 7804 e7f5 23ca 51be 2e02 e822 8f23 d13f
00000690: 024b 4453 5b77 58be 20e0 657e 959f ccbf
000006a0: a5e1 9c42 1401 793e 24ac 0122 fd82 5cbe
000006b0: ff05 2232 6fcf d13f a3b9 3a93 2d8a 7a3e
000006c0: 7aae 1e33 bdd5 db3f 6ea0 e74d 515a 7dbe
000006d0: 8a7d e4f7 a898 dcbf f244 6d91 453c 7cbe
000006e0: 6606 f379 aeaf 693e 15ef c197 9095 d03f
000006f0: ca22 3fa9 1b55 733e a727 8964 7148 7cbe
00000700: a6f0 a0a6 74c0 80be 8c5c 0ebc 1631 743e
00000710: 081d a7e2 2e13 63be cfff 2622 3dc8 68be
00000720: 2b09 c522 8572 72be 9fba add8 590b ce3f
00000730: b6fa cdd1 81bc 80be e889 d45b 423b cfbf
00000740: 1e22 d622 4834 6a3e 7b61 337c 9b5c cd3f
00000750: 38d4 5930 9ff7 743e 1c99 0ed1 b3f4 7b3e
00000760: 66a5 3060 9076 773e 44f7 00eb fee3 673e
00000770: 7a7b b614 a463 533e 6e7a f865 2ac1 65be
00000780: 8452 8080 7427 6d3e 93f6 ae29 3341 7dbe
00000790: 1564 82d3 2d0e 7a3e 00f8 704d 91fd 65be
000007a0: 8484 9ef3 bbb0 d53f 16eb 718f b6ea 70be
000007b0: cfd4 a9be 378b 65be 1935 ba82 5dd9 713e
000007c0: 687b 5263 bc5e 49be d002 fba7 c309 713e
000007d0: 4095 51b1 0632 1fbe a459 3416 2891 7abe
000007e0: 1cf4 02c8 2452 64be 8ce0 169e 35b2 5bbe
000007f0: 564f 227d 4500 d3bf 0412 087a 867d d3bf
7.519971122097448e-08 1.0359020229326084e-09 -6.98860051071072e-08 -8.647831127505708e-08 2.7384887318712297e-08 -4.782226610325285e-08 5.312834464346659e-08 3.832438790624892e-09
1.105966943288244e-08 -6.010321883563751e-08 3.227912102936131e-08 3.93429749349126e-08 5.276802128066798e-08 -2.745896429543196e-08 0.3339409254958502 -1.5594203499774753e-08
5.5837833870852205e-08 -6.304624109388997e-08 1.359530360425116e-08 -4.240257024856969e-08 1.7035697795820568e-08 -7.298708946962299e-08 6.672565714278785e-08 -0.2877984261478662
1.0614764466753531e-07 0.31713429543774474 6.497133482076635e-08 3.6896902341266244e-08 8.53023154736998e-08 9.334898445913796e-08 7.965447076888249e-08 -6.229454523868627e-08
-4.546437663078386e-08 5.747492622260231e-08 0.3353588536777683 1.2597815771283398e-07 -4.5354957464209076e-09 1.8000773703924687e-08 -4.7552861845777824e-08 -0.28054156374484573
-2.6308766372639243e-08 3.3950588516118455e-08 -0.07624765469716539 -5.039917636161681e-08 -1.2605577257148479e-07 0.3337653352837077 0.1562373659715087 4.543135303446645e-09
4.484665753254766e-08 0.311338120087449 2.839122984495359e-08 -4.1923768429711736e-08 9.54733245064557e-08 5.397372099751259e-08 2.84368592876569e-08 2.9882906056197506e-08
7.250011103885568e-08 5.7712461738047116e-08 -8.727810384523382e-08 2.2312007119660722e-09 6.181263354915432e-08 4.806800223247886e-08 2.3925282976476603e-08 -8.528018229217759e-08
6.849743570030085e-08 5.260490927117402e-08 7.459345801715053e-08 -0.12336357553176724 1.1649533906636286e-07 5.4115939837472225e-08 3.6155132337186264e-08 0.29372708572669903
6.434849322817977e-08 9.961679848828574e-08 -6.679497014578499e-08 0.3153137129224081 6.541762091772061e-08 7.516456292143437e-08 -0.24799263663146784 0.397233000090414
-7.178578412249421e-08 -5.177213082307575e-08 -4.9905985739978315e-08 -7.623176669366795e-08 -7.103783662350564e-08 0.3310015352380623 5.691897173368049e-08 -0.21279310741046076
-0.29717486828817036 4.683921387740686e-08 2.9465531198607177e-08 8.929805636730132e-08 -0.2608508209895907 3.898788717808944e-08 0.33129686053534374 2.290092737494427e-08
-0.10759853715217929 -3.843341553294375e-08 -0.38294741016577405 -6.517433329007584e-08 1.1421252344522493e-09 3.008759930113309e-08 2.0094415818496782e-08 -6.740170437092737e-08
-0.23089110603145102 -5.994697641475142e-08 -9.816343608749027e-09 -1.0943052734884605e-08 2.8308983136855653e-08 -7.638697388667638e-08 -0.28338670227742035 -4.275209110018487e-08
-6.795539862810847e-08 -7.932506232537366e-08 -9.49613760477107e-09 9.48970509615632e-08 0.3355434014355833 -0.25567367354870874 3.0950936181839726e-08 -7.939903607279148e-08
0.26804874571165094 -1.8700737145306863e-08 -6.640308798788264e-08 1.0550344926614374e-07 1.4596943040522797e-08 3.5030375391282e-08 -1.570232958651823e-08 -8.520660348923252e-08
-0.268853943750612 3.132867053241195e-10 4.428119132931048e-08 -5.837163004300636e-08 -1.0838784652861679e-07 1.9666497454553046e-09 3.8928859290842476e-08 -6.032672705393556e-08
-5.8238445978664866e-08 -0.23861214067218747 -1.107488005241111e-08 -6.483417623567122e-08 -0.25811231359930403 -4.963972765100599e-08 0.26597817354929887 -4.77745078765846e-08
0.007358761782442645 1.16601427141348e-08 5.366851154471363e-08 3.233954194759869e-08 6.32997031215922e-08 -4.624672064483323e-08 -4.99336695411431e-08 -7.799978948063345e-08
0.2067977306678706 -5.000799746718501e-08 -6.14755239832256e-08 -2.3458770099441375e-08 2.19083992809061e-08 6.272085559109294e-08 1.711762290553498e-08 9.462974333022018e-08
1.1196626610973169e-07 -0.24816679269786837 6.819800332412589e-08 8.028910723610218e-08 2.010264975446887e-08 -4.113896946007873e-09 -0.2767269671706285 6.120884369107043e-08
-7.332741857752755e-09 -4.202563476084621e-08 7.106066261301959e-08 -0.512256735748478 4.971718451285604e-08 7.728199238116282e-08 -9.333251663883274e-09 1.0352093929498545e-07
6.608207356890597e-08 1.1485436307939112e-08 4.621371049746127e-08 -3.432978925202563e-08 -4.3818491251738936e-08 1.2624931888198367e-07 -0.2574968432872147 9.92130922793459e-09
2.7899185213748526e-08 -0.27726699913496794 5.970574079631929e-08 0.4139927509410813 -4.3720585137618126e-08 -1.909696238567145e-08 4.673135739802336e-08 -0.2549610486128824
0.26938097825053403 5.832368378143824e-08 -9.006099702976213e-08 8.312281434379867e-08 4.427359039200548e-08 1.1902198281657611e-07 -2.030708193401948e-08 -9.575105877915895e-08
-5.11476012207791e-08 0.2635096716309031 0.27289803755661024 5.1450114370215077e-08 -6.587651711477877e-08 5.992581717871891e-08 -5.1273498113447925e-08 2.0258622608941318e-08
-1.656786651773667e-08 0.2677953568345711 -2.2785959078828717e-08 -0.2236201159646507 9.31479610361703e-08 -2.6553566568140058e-08 0.2782857884959355 9.8868302706866e-08
0.4349205970017703 -1.0934771264121495e-07 -0.4468176289392082 -1.0518519775778074e-07 4.7844380229790804e-08 0.25912871189187686 7.201900081779668e-08 -1.0536231188313068e-07
-1.2481048666964512e-07 7.522014212748555e-08 -3.552983359220571e-08 -4.616041262032642e-08 -6.872171160347465e-08 0.23472140388499427 -1.2469556845067533e-07 -0.24399594768426813
4.8809173906645197e-08 0.2293886524628411 7.810917787029902e-08 1.0414372676615352e-07 8.74070096723631e-08 4.4499726015586935e-08 1.8057620549562037e-08 -4.0521012986196384e-08
5.430378285945049e-08 -1.0898220141518642e-07 9.70638794915634e-08 -4.096049515581559e-08 0.33891199866236144 -6.302017029224802e-08 -4.012849060413031e-08 6.649301614367003e-08
-1.181385576371473e-08 6.347202407675205e-08 -1.8158121163579359e-09 -9.896985413526522e-08 -3.785057689626307e-08 -2.5794031693302733e-08 -0.29689156742209855 -0.30453645627156356

bias f8 [120]
00000000: 1b42 956f b5c0 e3bf 57f1 6dcd fa50 cabf
00000010: 89f5 92ce 5cd9 e2bf 7342 56d9 e481 e4bf
00000020: 3f68 5ce6 8611 e5bf d7ba 5c0e 91da d2bf
00000030: c08a 6223 02ae ecbf 61c8 85a7 0648 e4bf
00000040: 4698 a289 1d97 e7bf 0da5 e70b 5a13 d3bf
00000050: c885 542f 0c22 a3bf bd78 a1f2 7e4e d9bf
00000060: b502 4a1e cc0c cabf a53d afaa 090f bcbf
00000070: a761 79a5 d602 dabf a915 611a d392 e4bf
00000080: 1215 06e7 54e9 d6bf 1b53 f641 7ec2 bfbf
00000090: f2aa 211e 2960 dfbf 63c1 8c06 80a9 b2bf
000000a0: ac49 b290 d592 d9bf 9b79 c440 b74c d2bf
000000b0: 2dbc b29c 40d5 debf b11c 8c11 6e5c cbbf
000000c0: 60f6 3ad3 f131 d2bf d762 7bfa 254c cdbf
000000d0: e350 4a64 2594 d6bf 3aa0 1d40 dca5 c6bf
000000e0: e3e5 79b9 1c54 ecbf ce45 7e17 d810 d0bf
000000f0: 5996 2927 311d d6bf 8ccd aec5 50b8 c4bf
00000100: 9817 a5c2 859f cfbf 92d1 7665 d4c4 c1bf
00000110: cd28 8919 97b1 edbf efd2 aaf0 af99 e2bf
00000120: 1395 fad7 5186 b7bf 9083 c1a1 28cc cabf
00000130: 7fad e863 b76b c1bf 27f8 4174 79f2 d1bf
00000140: e47c f01c 6460 e2bf 79e5 8910 ae66 cabf
00000150: 5704 0d4a 3115 d1bf 019a 131e fe1d ddbf
00000160: 0b9c c482 0e28 aebf 55c2 ce7b dca1 d1bf
00000170: a0ce 17d5 edec d1bf 5c05 998b 206c d4bf
00000180: 851e a65c 2c8b d0bf ba9e 1772 5501 d0bf
00000190: 5137 f2a1 6b17 cfbf ee01 1842 0a5f d1bf
000001a0: 9fab af46 e23d d1bf dfdb 65c5 c35e d0bf
000001b0: 13a4 390f c3dd e2bf c131 de6a 6d1e d5bf
000001c0: d6de f1b6 13c5 e4bf 75e4 3a24 c182 dbbf
000001d0: 76a2 4abc 0e76 e1bf 0cbd 9314 7e83 d5bf
000001e0: f783 9e9f 1918 e2bf de78 b53b 26e5 c9bf
000001f0: 70ed 1573 5248 e3bf c47e ad55 c420 d8bf
00000200: f256 da2e 1c51 95bf ce2c f87a 96f9 d6bf
00000210: 5cb6 3da0 bd5c dbbf 1e7e a99b cf7e d0bf
00000220: 367e 704b 1f7d cdbf 9660 8d65 ab21 e3bf
00000230: 3401 acfb 9c20 ccbf 73b6 0fc7 66ae dfbf
00000240: c7d7 79ed bd0c cfbf 1195 70c2 9613 d9bf
00000250: 5cf5 f61e ba14 dfbf 177f c29c 78fe d7bf
00000260: fa75 4e66 03f3 b9bf c1ef 9ed6 9788 c0bf
00000270: 72f7 e13d 72e4 d1bf 0908 33bb 3922 e0bf
00000280: 1bb5 2ff2 b540 dabf 8a4c d624 3746 e2bf
00000290: 7ed4 548e 94d9 e4bf 0f2d 2131 4ca5 cabf
000002a0: b134 4327 fc25 d1bf b4c5 70f1 ff1d e1bf
000002b0: 46d3 2d3f 45fa cdbf eeda 9871 0876 d2bf
000002c0: 7b6f 98f6 c1ad c7bf 8a30 57ab 0124 dbbf
000002d0: daca 6802 4f13 b7bf eb52 21cf eaaa c2bf
000002e0: d7e8 02c1 2c0e c8bf 4416 255a c7b6 d2bf
000002f0: 31b5 72b0 b962 a3bf 2b8a 3b6d f690 e1bf
00000300: 842a 4557 b6cc cdbf 9513 d2fa 43c2 c0bf
00000310: 13ac 0024 ecc2 e9bf 861e e38e dd60 e5bf
00000320: b019 7828 6a1d e3bf ad9c 24bb d103 c1bf
00000330: 739a 6142 2906 c4bf cd2a 5792 9cf6 c8bf
00000340: d3c2 7def 417d e1bf ed5d 7e73 e4da c9bf
00000350: 4295 b2ec 2e79 c9bf 99c6 1a12 aa57 d4bf
00000360: 4635 0a0a bcaa dbbf f68b fd90 973b d2bf
00000370: b281 0bd0 928b c7bf 3cf4 2fa0 7155 d0bf
00000380: 9815 a264 3038 e6bf 8628 e3fe 23fd e1bf
00000390: 5402 61b6 a9b9 dabf 63d8 a468 3695 c3bf
000003a0: ff01 3f89 a5fa d4bf 447a ccdf 4631 b4bf
000003b0: cd2c 2702 e994 e1bf cd67 047b e949 dabf
-0.6172740153652428 -0.20559630423293626 -0.5890335116052238 -0.6408561940061887 -0.6583895205724345 -0.294590248132335 -0.896241253958884 -0.6337922355580866
-0.7371967018305063 -0.2980561367281361 -0.0373691375518877 -0.39541600889596024 -0.20351554373703143 -0.10960445801833048 -0.4064232459982357 -0.6429229274005382
-0.35799143372453657 -0.12406148062138948 -0.490244178223903 -0.07289886627109392 -0.39958705072890655 -0.2859323627943923 -0.4817658930068685 -0.21375823838045485
-0.2842983782573807 -0.2288863633209732 -0.3527921180150441 -0.17693665629053773 -0.8852676031667069 -0.25102808279288247 -0.3455317385145001 -0.16187486317140232
-0.2470557403959759 -0.13881926492980462 -0.9279284952874832 -0.5812606525929293 -0.09189330599709349 -0.20935542963254905 -0.13609974268306854 -0.280424464733985
-0.5742664876196639 -0.20625854308654448 -0.2669184897568519 -0.45495560586132916 -0.058899358237162934 -0.2755042275485143 -0.2800860005365653 -0.31909955628005604
-0.2584944634222455 -0.2500814069921763 -0.24290223510291267 -0.27142578558416985 -0.26940209296179235 -0.2557839801515324 -0.5895705506674197 -0.3299821418411533
-0.6490572522297622 -0.42985561884012863 -0.5456613233155412 -0.3361506653736377 -0.5654419057428858 -0.20230558314773978 -0.6025783775107083 -0.37699993483509453
-0.02081722293822614 -0.3589836312173248 -0.4275354447225703 -0.25773992730498374 -0.23038092788282122 -0.597860048622368 -0.21974527634302776 -0.49501962127292315
-0.2425763520765811 -0.3918206118417667 -0.4856400778188197 -0.37490668591088777 -0.1013643383762072 -0.12916849116834153 -0.27956825297575627 -0.5041779190289627
-0.4101996293164391 -0.5710712165331568 -0.6515600948247451 -0.20816948317438075 -0.2679434188292574 -0.5349120822558491 -0.23420014939224582 -0.2884541615816677
-0.18499016323846348 -0.4240726636169333 -0.09013837632009417 -0.14584097970750717 -0.1879325811804111 -0.29240592768869456 -0.037862589634963924 -0.5489456304024477
-0.2328098226665426 -0.13092851397609864 -0.805044241254452 -0.668074397160084 -0.5973406591809205 -0.1329290546211487 -0.15643802396080594 -0.19502598901302406
-0.5465402295650058 -0.20199256553017567 -0.1990107208013488 -0.3178506066134133 -0.4322958086057337 -0.2848872104570427 -0.1839469447941276 -0.2552150787667562
-0.6943590131274275 -0.5621509531276991 -0.4175819664997438 -0.1529911051708864 -0.3277982559484655 -0.0788769050964016 -0.5494275133181873 -0.41076123250388435

weight f8 [120, 120]
00000000: 09b7 f70e f7ab c7bf d4d4 84c5 96b0 6cbe
00000010: a09d 75b1 0527 4bbe e02e e0c3 1eac 263e
00000020: 984f a648 323f 473e e48e ecf3 14c8 703e
00000030: c8d4 d25e 24ef 4f3e 483c 53dd 7c91 543e
00000040: eedf 5cc3 f783 6a3e 7e5a 873d 10d7 5c3e
00000050: 542b 554d d8d6 583e 692b ef11 6a7d 6dbe
00000060: 4cf5 f632 2b84 6c3e 0545 274b 1d60 75be
00000070: 6ce2 2113 95dc 633e 2a54 5530 5076 763e
00000080: 1218 fe6a 53d4 733e f24d ac33 b4f3 553e
00000090: cb00 8c53 57ba 663e 5195 e586 0fd9 66be
000000a0: 08ca 5899 4a30 4bbe dd79 8251 0554 663e
000000b0: 00d4 6fb6 eab9 143e 2824 99df 47fc 69be
000000c0: 327f 4a01 359c 78be 9c55 e32d fe48 7ebe
000000d0: 7c5c 8191 482d 413e aa21 7fa3 ea9d 6a3e
000000e0: a4ea 8545 c91c 5d3e 042e 634a 85b2 70be
000000f0: d00d 44ac 01b2 6d3e 1c57 623b d59b b8bf
00000100: fe7f 72eb 3e31 5e3e 4605 900a 2254 71be
00000110: a49b b8ac 9f44 60be 9025 9d72 449d 523e
00000120: 987b 4ec1 d545 3d3e 408e 18b6 d3e5 2ebe
00000130: d5b1 9c3f f38f 7cbe 1c51 14aa d207 593e
00000140: 0db7 2e42 d1df 73be 1fea 1d64 77b2 67be
00000150: f494 ef19 b8fb 503e 3c49 8be9 feb2 cbbf
00000160: 32b5 a4c5 892f 7a3e 99f2 9c14 79dd 61be
00000170: c861 753a cc5d 513e b864 88d3 ee20 563e
00000180: bdf5 0a9e 847c 763e a84a 89d8 6c41 403e
00000190: cea8 197f 5065 6cbe 67d4 2e4b e284 7b3e
000001a0: 0b4e 9062 6249 733e 6d1a 45d3 4279 72be
000001b0: cacd 83a4 765b 523e 3b44 de70 2c70 64be
000001c0: d2f0 1eb4 9192 7a3e 17b2 3651 4e3f 613e
000001d0: 0a54 cc8f 0dc9 75be 8e45 3e79 9cbe 653e
000001e0: f961 0c07 6b3f 6b3e 0074 65b8 c6e5 6e3e
000001f0: 1472 213d 97c8 763e 5412 0332 ac61 7bbe
00000200: a6f6 5916 71a7 64be 0c67 40b6 ea7d 45be
00000210: e457 acf3 0dd4 61be 9465 744c d5bd 643e
00000220: 067d 48b3 7c7c 773e 34f7 6478 123d 76be
00000230: b0a1 3ec4 6c3d 4a3e 80c5 164a 63e0 233e
00000240: 3856 af2e 7627 3fbe 60a4 92ed c800 783e
00000250: 5e14 ab56 9219 733e 80b2 e6c0 35b0 41be
00000260: 627e 54b0 eebe 72be c081 6f3a 2544 6fbe
00000270: d287 2a9b 48ed 543e 3a74 45d1 0f84 7a3e
00000280: 8fbd 3ee4 9af6 7b3e c0d9 5f5e 6c16 29be
00000290: 8d82 166c 77c2 66be 3e29 98db 7b51 653e
000002a0: f894 eacd 11af 603e 2048 69a4 fd33 3f3e
000002b0: 9218 3a4c fe55 6b3e e0db bf00 f51e 39be
000002c0: 78fd d524 acd0 63be b592 17e5 8da6 79be
000002d0: 21ad 5013 4940 c0bf c0e5 83a0 8eee 58be
000002e0: f0ff 20ac 98f1 353e 207a 7e9b 286b 363e
000002f0: 9a71 fec1 83a1 6c3e 047a 72a1 b8d4 673e
00000300: 06f8 cff9 bd3f 713e dda4 358e 226b 5c3e
00000310: f02b 5c49 1b08 4e3e 4db5 8917 e258 6c3e
00000320: ad68 dd2b 9ebd 72be ecb9 eee5 5ae6 803e
00000330: c235 204d 4241 703e 4a6f 1d55 d420 613e
00000340: 9bb9 0874 dbcc b8bf 0d06 ce2d f09e 783e
00000350: 6f5a e876 d5b5 c1bf 7952 6e96 49d4 7ebe
00000360: 55d9 e118 4007 74be 84fe e208 2705 733e
00000370: 646d 55ad e5e0 513e a1b5 1508 2e3f 7fbe
00000380: ac2c 81ed e12e 64be caa2 5892 966d 613e
00000390: d64e 193e 9f3e 6ebe 6278 f82a fd77 c0bf
000003a0: c7e5 cc74 6e2c 683e 4217 5139 434b 7ebe
000003b0: f0a0 9810 eb4b 6f3e 7a1e e616 0833 683e
000003c0: 5252 f24b 49dc 6c3e e4ff eeba bcfa cfbf
000003d0: 699c c23d 989f 71be dceb 62fe 1110 4b3e
000003e0: 0e06 5c71 c939 cbbf c56f 687d 435d 72be
000003f0: 4896 d095 ebcb 673e f358 9855 a358 7bbe
00000400: ed44 27ec 7a2c 723e 5943 3681 3164 75be
00000410: a84a 5e5b 1a5e d1bf 0632 7f81 21a2 6cbe
00000420: b0a8 98f4 de9b 723e c4b8 1ca6 2f53 663e
00000430: 58a0 55fa 9786 d1bf 96f9 509f 99e1 703e
00000440: 26fc 4ea0 19a1 7abe 0002 f0a6 8e96 d0bf
00000450: 0049 c7c4 cbfd 24be 3f07 16b1 a2b5 64be
00000460: 86d3 5cf3 0896 5bbe 80da 227c 91ec 71be
00000470: 2b78 a9be 3639 743e 51c8 6d33 6361 cfbf
00000480: 8c2f e581 cc34 6cbe a02a 14dc b796 7fbe
00000490: ac82 3ddb 615b 723e 0cf6 c8bd bb27 773e
000004a0: 1421 4186 d7e7 533e c110 de2b 3a54 74be
000004b0: 1de1 26d7 9cbf 5a3e 492d 5154 f8a3 7bbe
000004c0: 22ed 3724 287a 783e 8f7d f95b 956e d0bf
000004d0: bc95 7d0d a173 d2bf 161d 0019 af71 6abe
000004e0: 1053 5ccd 3e81 63be d022 3c50 63a4 25be
000004f0: 5d80 2cb9 0a32 713e 9b63 5b80 e6bb 76be
00000500: 01e8 954b 7e23 74be 6a5e 827e 5080 56be
00000510: f83e 2553 9fd5 3bbe a347 9c9a 0cc2 64be
00000520: 6d86 451a 04c4 6fbe ceb2 baa3 fe7c 60be
00000530: 15ab e088 e0ba d0bf 6c75 a16f 7fd8 493e
00000540: fe77 7e2b 7114 683e ac3f 5168 ac69 6bbe
00000550: 28e7 9bda 012c 4d3e e0e3 4fe7 4209 383e
00000560: 226b dbf0 ee95 623e 0f76 ddc5 f3df 7cbe
00000570: c1d9 0536 d930 cabf 365b 7243 e62d 78be
00000580: a611 04ad 155a 763e 7eab b52a 8680 d1bf
00000590: 7ca4 1a76 81e1 70be 803a f175 3a68 443e
000005a0: fca9 4321 6381 7fbe dd2d 991d bf70 78be
000005b0: 8a25 6b17 4246 7dbe 00cf e2ac 3713 53be
000005c0: 6055 55e2 1ce2 4dbe 4070 d7f1 8e0d 1bbe
000005d0: 92c9 cf51 bab9 6c3e c58f 1ace fa3d cfbf
000005e0: 2020 591f 9c8e 423e 789e 4dfa 991e 75be
000005f0: 0294 d442 ff34 cebf 7d16 07e2 d5a1 70be
00000600: d86f 00a3 eca1 323e 3691 7660 6583 6c3e
00000610: 581a aaa5 8b31 cbbf 38db 9a9a a345 76be
00000620: 90c1 13e9 a057 543e 0434 3f40 b64e 6dbe
00000630: 721f ee74 fc33 53be d7d1 025f 80ad d1bf
00000640: 6a52 a2e8 9490 7a3e dce3 1da0 7834 613e
00000650: ad87 af54 3e0a 80be b2da ff46 2e08 6a3e
00000660: 3c6c 3f82 8207 723e 051a af19 3843 7d3e
00000670: 862c ad50 0a7d 613e 31b2 f692 83fb 6a3e
00000680: 6a2f 0191 3e1f 5ebe 4286 0c1d b650 6f3e
00000690: f52e 6964 97f5 ccbf 3f6c 1870 4c41 673e
000006a0: 3bae e96a 14a1 60be 704c fe9b 51a7 3dbe
000006b0: ce84 1726 6e67 62be 9765 4752 e6fd ccbf
000006c0: e8bd 6d57 80bb 73be 898a 4872 efd8 693e
000006d0: 1d18 ce23 d2c9 703e 7c2f b9ce d3c7 72be
000006e0: dc81 36da 2554 69be 9907 781b 16f8 cabf
000006f0: 5aea 802b d499 78be 8c7f 09d7 20c2 563e
00000700: 0533 fe70 d9c6 76be a842 5b91 3e9b 533e
00000710: 55d0 2d5e f6ff 5cbe f6a7 d16e 888e 7bbe
00000720: d042 f19d d3e5 453e 98d9 83e3 8881 5fbe
00000730: 0a44 f4ee f1ad cebf 00a5 2461 c683 f43d
00000740: be72 b336 2b4b 763e 53d5 07a4 ce1f 75be
00000750: f7c3 e2e2 00bc 68be 9c3f 40c9 547b 673e
00000760: 6fc6 15cb 338d 74be bab6 704c 48a6 5a3e
00000770: c0f2 e8a5 158d 683e 2cf5 a296 0462 513e
00000780: 05db 2431 51bb 6e3e c03f ce65 8993 563e
00000790: ea64 7a07 7eca c7bf c039 ab92 d860 553e
000007a0: bde2 782e 6d05 77be 0830 f2bf 2b9a 783e
000007b0: 961f f99d b688 613e 005d f490 d02a f8bd
000007c0: 9942 adc9 3c6f 7a3e cc68 272c 3842 763e
000007d0: 703d d7b8 fea2 493e cc6c 04b8 51ba 6d3e
000007e0: 6746 34a5 734c 78be b1b8 ed21 5bcf 6b3e
000007f0: bccd 63cb 3954 72be a857 dbfc b341 433e
-0.184935457523743 -5.3438917903977645e-08 -1.2643835796672843e-08 2.6394082744110263e-09 1.0825163228302182e-08 6.251621885146171e-08 1.487049680125472e-08 1.9155732851335792e-08
4.938896617931919e-08 2.6859428321963894e-08 2.3133343092934377e-08 -5.4929218721772714e-08 5.311571837526068e-08 -7.96297452761767e-08 3.6995205469332457e-08 8.36780707687702e-08
7.387026346007514e-08 2.044436373932836e-08 4.2334003363607386e-08 -4.2557517387554715e-08 -1.2660696306533235e-08 4.158952488061107e-08 1.2064258149314549e-09 -4.840171281530558e-08
-9.168007892657112e-08 -1.1282089526787887e-07 7.998612036744719e-09 4.9577768057208196e-08 2.711307831155316e-08 -6.22024623780739e-08 5.5311877330081556e-08 -0.09612782192047259
2.8118832342952954e-08 -6.455423097464063e-08 -3.030162573315619e-08 1.733594171625965e-08 6.815603211065743e-09 -3.5969728729984313e-09 -1.0640287931009429e-07 2.3311523937828018e-08
-7.403748773670685e-08 -4.413935218626249e-08 1.5816910111425086e-08 -0.21640001681823573 9.754931920977535e-08 -3.327639548501313e-08 1.617371805698449e-08 2.06089058892182e-08
8.376836247832301e-08 7.56958830439845e-09 -5.2891223745214156e-08 1.025165541752423e-07 7.18483980230313e-08 -6.881980569194079e-08 1.7096548427789562e-08 -3.806907332351324e-08
9.899040967395181e-08 3.212557877648236e-08 -8.115680212265216e-08 4.0502427327920734e-08 5.075284626436471e-08 5.755119674114587e-08 8.487536654181381e-08 -1.0200416200856175e-07
-3.84712020408595e-08 -1.0007928437404733e-08 -3.320786708651725e-08 3.863412128598253e-08 8.749320274573818e-08 -8.28451033095583e-08 1.221892465665549e-08 2.3139308947328013e-09
-7.253640114736467e-09 8.94183885986212e-08 7.11526319348631e-08 -8.236765960988357e-09 -6.983365715253008e-08 -5.823782283482499e-08 1.9489684264580584e-08 9.877929968900128e-08
1.0417141377174309e-07 -2.92057998878559e-09 -4.2393123243825664e-08 3.970842095073249e-08 3.107612100054342e-08 7.265035301285649e-09 5.0917103003526855e-08 -5.848921357651926e-09
-3.690854964276667e-08 -9.555594118017703e-08 -0.12696183627245097 -2.321960759861377e-08 5.109174141106139e-09 5.219734359935432e-09 5.3329238135937476e-08 4.438858896529111e-08
6.425750460889519e-08 2.646678688486819e-08 1.3984584417149488e-08 5.280077436808058e-08 -6.981452835061541e-08 1.2591350448177805e-07 6.055428805625158e-08 3.190383303264037e-08
-0.09687587340224584 9.171982236039873e-08 -0.13836162858997933 -1.1484789795422799e-07 -7.46113128796072e-08 7.08554941134967e-08 1.6650654928934717e-08 -1.1640338650416086e-07
-3.759401828779961e-08 3.2462326420982675e-08 -5.6334989795165845e-08 -0.12866177175687016 4.5026765072051625e-08 -1.1285392383192619e-07 5.829437739148854e-08 4.507478733583065e-08
5.375685807013848e-08 -0.24983939292542268 -6.565234350834873e-08 1.2602086440672051e-08 -0.21270101580744022 -6.841238984377617e-08 4.4324553562490666e-08 -1.0187269108177405e-07
6.770249697605101e-08 -7.968910180888081e-08 -0.27136858866394187 -5.3333721605414946e-08 6.932344578299254e-08 4.1583452027559786e-08 -0.2738399452850948 6.288755812018562e-08
-9.920186279289366e-08 -0.25918928434842314 -2.44371948217621e-09 -3.8574475290214857e-08 -2.5691533531857635e-08 -6.677245692724355e-08 7.533837701733989e-08 -0.24515953074620936
-5.253822642439862e-08 -1.1767723774953063e-07 6.838501215084561e-08 8.625987341859362e-08 1.8538564808512957e-08 -7.57314735072441e-08 2.491146972882066e-08 -1.029689161307295e-07
9.118458259981524e-08 -0.25674947721378144 -0.288307440924054 -4.9255933665164766e-08 -3.633064131321389e-08 -2.5194767399796133e-09 6.405814038631023e-08 -8.469069720118152e-08
-7.502230205637591e-08 -2.0955901819899766e-08 -6.480715785482539e-09 -3.866479698749404e-08 -5.916820392210891e-08 -3.071177842365223e-08 -0.2614060723014274 1.203533938150808e-08
4.485221921579834e-08 -5.10602946943026e-08 1.358422603872633e-08 5.596358589211465e-09 3.4618521478025185e-08 -1.0756706233851669e-07 -0.20461573732218422 -9.007489231087723e-08
8.32672910657571e-08 -0.27346948786605896 -6.288618472717829e-08 9.50281603246669e-09 -1.1736683120140701e-07 -9.104764533382072e-08 -1.0905580958698681e-07 -1.7765041709137456e-08
-1.391547417110378e-08 -1.5746896628364307e-09 5.35054118579647e-08 -0.24407897056255315 8.641308983596453e-09 -7.86764063461119e-08 -0.23599234355165782 -6.195966096360348e-08
4.338220935286388e-09 5.311009592813867e-08 -0.21244950856290035 -8.296976852337934e-08 1.894524232366314e-08 -5.4589413905557765e-08 -1.78842534631722e-08 -0.27621468809527755
9.896148803402617e-08 3.2046745714526604e-08 -1.1950741404727694e-07 4.848829682207243e-08 6.716450734417407e-08 1.0901158591014388e-07 3.2574755412679915e-08 5.025877880134383e-08
-2.805334370385047e-08 5.832925221148906e-08 -0.22624485400080344 4.331594817224024e-08 -3.0974331867474314e-08 -6.904264215808945e-09 -3.42801669375026e-08 -0.22649840371631733
-7.350901918916164e-08 4.8144541051993603e-08 6.254152480457252e-08 -6.99630963659505e-08 -4.717838500011495e-08 -0.2106959947705576 -9.164547065755889e-08 2.119533121442432e-08
-8.485002589275004e-08 1.8259904774691518e-08 -2.7008217783284224e-08 -1.0265696533261906e-07 1.019693923582992e-08 -2.9342244385057668e-08 -0.23968338172610998 2.9852884152812313e-10
8.305023662135582e-08 -7.86939518061744e-08 -4.607138880239366e-08 4.3738190985794856e-08 -7.656057012474162e-08 2.4819318846807558e-08 4.573000888074597e-08 1.6189070896985487e-08
5.724226616532124e-08 2.1025832064628394e-08 -0.18586707463399615 1.9910097718781047e-08 -8.576064269232514e-08 9.165044899584926e-08 3.265968806211308e-08 -3.5167970007880806e-10
9.847626573673495e-08 8.292000600683532e-08 1.193801837497902e-08 5.537236003242242e-08 -9.051948639631197e-08 5.18001323977612e-08 -6.8280871487993e-08 8.967077659760744e-09
