pyTorch/test_experiments/2/noisey_paths/models/ow_0.4_48_NP_model_3.pth (torch, 470675 bytes, 10 tensors)

weight f8 [120, 60]
0	0x3e50f56c993c3188	1.5794009280152887e-08
1	0xbe69dcdb9434f38c	-4.817308021452429e-08
2	0xbe8665135a16f3d8	-1.6685446006621619e-07
3	0x3e6a70f9ad2c1524	4.9250777364417695e-08
4	0xbe336cc7492d6680	-4.5227156627767506e-09
5	0xbe7e8c1912b302bc	-1.137974023233702e-07
6	0x3e6951efa89253ae	4.716229280128263e-08
7	0x3e6597b25da729e6	4.021928719544022e-08
8	0xbe0932e1963e8e80	-7.333802840090613e-10
9	0xbe7494c253d5f826	-7.667053566158659e-08
10	0x3e4c1e9a8dee2920	1.3094183901893736e-08
11	0x3e24aa0580851ec0	2.40562325976024e-09
12	0xbe80fce35f3a494f	-1.265693040276266e-07
13	0x3e6e88ac98608783	5.687379016373259e-08
14	0xbe77bfec57dea3bc	-8.847452723108293e-08
15	0x3e61ac0858d7a5cc	3.2916669483726136e-08
16	0x3e6ce3dbe5ab79a2	5.381195640972444e-08
17	0xbfca744abfa3e76f	-0.20667394978937234
18	0xbfcffce11729949e	-0.2499047625634931
19	0xbe162eed8180f180	-1.2912386767583057e-09
20	0xbfc07f3190bc2520	-0.12888164107452216
21	0xbfcb3397a8932dd5	-0.21251197558591053
22	0xbfcb16a69122bd32	-0.21162874304489204
23	0xbe5ed8f0bd34bcec	-2.8728901768971122e-08
24	0xbfcab55df0f55f9b	-0.2086598803095939
25	0xbfc67e99fe5c3c33	-0.175738572310793
26	0xbfb6137a55134ba5	-0.08623470856700395
27	0xbe6ba79ddb1da260	-5.1510990485921104e-08
28	0xbfc5a753b19da8ca	-0.16916891262673622
29	0xbfcb439722a3379c	-0.21300019446647134
30	0xbfc5aad4cece64be	-0.16927585695228758
31	0xbfd252d0adc7428c	-0.286304635720662
32	0xbfc0d96a7386e919	-0.13163500443426626
33	0xbfb67d80c61f88cf	-0.08785252415649157
34	0xbfc05f070eba8afb	-0.12790001124547942
35	0xbfcfa22300c8e732	-0.2471355203468249
36	0xbfb71f25aad26d54	-0.09031901760538591
37	0xbfc4e32ea2a2886d	-0.16318304959446853
38	0xbfc471613f06333e	-0.15971007897715056
39	0xbfb632d67ac75ab6	-0.08671322343375718
40	0xbfc9d30280c86c60	-0.2017520073721668
41	0xbfb7473da0bb72cd	-0.09093079733015515
42	0xbfc59e1f53522ab5	-0.1688880116310735
43	0xbfbf12bdcb5dd085	-0.12137972083093203
44	0xbfc5a4e297479a7d	-0.1690943945570388
45	0xbfb8aec3c164808b	-0.09641669723032657
46	0xbfc26db68ac2a076	-0.14397317672160498
47	0xbfc1399b0f31ff97	-0.13457048646887124
48	0xbfca26af42469f01	-0.2043055604565254
49	0xbfcac924ae8cffc0	-0.20926340601908855
50	0xbfc2340113858a29	-0.1422120423622613
51	0xbfc4c646da1da81b	-0.16230092668712434
52	0xbfc5182365f851b7	-0.1647991416836143
53	0xbfbe03775e523381	-0.11724039128075782
54	0xbfb6606d9d0dce7c	-0.08740887722324858
55	0xbfc18ab32304ea92	-0.13704528055116733
56	0xbfc0a5d8dae0fdfa	-0.13006125152058684
57	0xbfc0a0c68f46d00e	-0.12990648265770272
58	0xbfcb152f50a11ac2	-0.2115840095231843
59	0xbfbaa9a79d980b03	-0.10415122601993336
60	0x3e68a7862d7b9c5e	4.592238206178653e-08
61	0xbe58877e5548fd2c	-2.2844664231697792e-08
62	0x3e6c64fea4dd9eb7	5.288889735785041e-08
63	0x3dfa59c6e02fc300	3.834530194987775e-10
64	0xbe317d12bbfe69e0	-4.071874337621726e-09
65	0xbe7457dbe48778b1	-7.578432204650939e-08
66	0xbe7a444e135d93f4	-9.785151608222327e-08
67	0x3e5da168dc32c224	2.759555940414076e-08
68	0xbe6ace8b2ce9d6cb	-4.993157675253032e-08
69	0xbe82e24f386fdd3e	-1.4069692275107998e-07
70	0x3e50219209310d22	1.502328978950677e-08
71	0x3e62b3e1c87eeb18	3.483642624322045e-08
72	0x3e44178ca296cec4	9.356061775020255e-09
73	0x3e756f38058597df	7.984954331560182e-08
74	0xbe821a236d47be14	-1.348711779060015e-07
75	0xbe71ab205da635ad	-6.582015236161898e-08
76	0xbe6dbf691c07cdf4	-5.5409404623506114e-08
77	0x3e7b20ee10fa7bd2	1.0106203184944192e-07
78	0xbe64769082fbd1ec	-3.81155732513596e-08
79	0xbe3bd205e5e2a340	-6.477442219894651e-09
80	0xbe5fe9cdd128382e	-2.972157371090063e-08
81	0x3e52620db31c6ce0	1.7120522949944722e-08
82	0x3e7284611cb827f9	6.89815983710673e-08
83	0x3e7303e34c18aacc	7.083709176932821e-08
84	0xbfd19384c5809ec8	-0.2746288231596563
85	0xbfcf151ba4bd6248	-0.24283166450438132
86	0xbfd04019ff4e4910	-0.2539124482365347
87	0xbe158c98997cb640	-1.2543287293802077e-09
88	0xbfc7acde08c9f7cf	-0.18496299199244823
89	0xbfcef1a82780271e	-0.24174978188266832
90	0xbfd177221ba057ac	-0.27289631555447147
91	0x3e74daef6148f399	7.769173066773205e-08
92	0xbfd1d96227a130b7	-0.27889303083498923
93	0xbfc83db3918d8d4a	-0.18938297850682267
94	0xbfd1e292de9e4480	-0.2794539617544345
95	0xbe5a6b4d9bb9aec8	-2.4604753552666292e-08
96	0xbfc938dde5bc4def	-0.19704793660694928
97	0xbfc838f124f88995	-0.18923773102967503
98	0xbfd0d921279a004e	-0.2632525336011938
99	0xbe43ffbe4ecaac68	-9.312758974857982e-09
100	0xbfc77c59899f34e0	-0.1834823533994614
101	0xbfc7cf3294007412	-0.1860106680550478
102	0xbfd0923fb9b94424	-0.2589263261516541
103	0xbfcc1c995ab72f35	-0.21962277345152761
104	0xbfc768f3a3ef017c	-0.18289037231989969
105	0xbfd184be4f24ef6a	-0.2737270138638822
106	0xbfcb2e9123960e52	-0.21235861051183008
107	0xbfd0b7d88c91b88d	-0.26122106292212594
108	0xbfc769e7eb2b0be1	-0.1829194925577147
109	0xbfc92f37d967ddc7	-0.19675348392023137
110	0xbfcea568695d1bee	-0.23942284722053792
111	0xbfcffa53552f9f8a	-0.24982682857011823
112	0xbfd1c54eea436574	-0.2776677406050887
113	0xbfd0d4f089bef734	-0.26299680186990604
114	0xbfcdf0de0ef828b0	-0.23391319018293677
115	0xbfcb11901cff01fe	-0.2114734784681928
116	0xbfc7cbf10a5fada5	-0.18591130262880742
117	0xbfcb0c7f5deeaffe	-0.21131889425794265
118	0xbfcb710c141205de	-0.21438742618560885
119	0xbfd0ababffa8ae5e	-0.26047801939669124
120	0x3e7c2bfea517dfab	1.0494833559821096e-07
121	0xbe84a38923bacbed	-1.5377112726685478e-07
122	0x3e84e247304e24b5	1.5559717083901585e-07
123	0x3e61d8461e9bdf12	3.323856729951752e-08
124	0x3e7b4dd9ad4acccb	1.0171570903154401e-07
125	0xbe6cde4b33ebf6e6	-5.377146416149349e-08
126	0xbe858559ae16ccfd	-1.6034319742577868e-07
127	0xbe73a5a06b1f19b5	-7.319070041622267e-08
128	0x3e6c082d15541358	5.221355318423495e-08
129	0x3e84fbe444964507	1.563426244408598e-07
130	0x3e67ef3f929717d0	4.4581599144578277e-08
131	0xbe7277c83f39ce31	-6.87982860072106e-08
132	0xbe79b33177c18090	-9.573986220609409e-08
133	0xbe76298046e092c2	-8.256030678604794e-08
134	0xbe6ccad8f0fba209	-5.3629973460249804e-08
135	0x3e6239579a66cd4c	3.394483210090394e-08
136	0x3e85740bd1ad11f0	1.5983958053847e-07
137	0xbfd022174b395fce	-0.2520807489977387
138	0xbfc88b1e349ab32b	-0.1917455441338459
139	0xbe61ab0a00771f90	-3.290944055770743e-08
140	0xbfd0ad4d9dc5e9b6	-0.2605775871994881
141	0xbfce1f63477564b9	-0.23533287991702936
142	0xbfcbef314afc171c	-0.21823707734454778
143	0xbe71de5fd0543d94	-6.65659066376866e-08
144	0xbfca6aa6409c0f4c	-0.20637968210950886
145	0xbfcdfd7c74f69f4f	-0.23429828368284197
146	0xbfd089203b19a4d1	-0.2583695008421048
147	0x3e73c5d9f2f0fd0a	7.365963193647597e-08
148	0xbfcdd88169e4c572	-0.23316972418391974
149	0xbfd27c5534142229	-0.28883867345624253
150	0xbfcc092afa0b3a2f	-0.21902978142903026
151	0xbfd0f2a98c0bb8e6	-0.26481093098017394
152	0xbfceb4baf9ac6467	-0.23989045325359656
153	0xbfd1b9746c71c2e5	-0.27694426145812506
154	0xbfd134a528ebc1f6	-0.2688382053011361
155	0xbfcbe4abdb15fcfc	-0.21791599462083144
156	0xbfce746c485772aa	-0.23792794735245099
157	0xbfcf741cb5cdd122	-0.24573096158167923
158	0xbfcf12a94328010b	-0.24275699404825732
159	0xbfd042dbeaaebdae	-0.2540807525465095
160	0xbfcbee11f5fdf347	-0.21820282470062066
161	0xbfcffbbd06a29b0d	-0.2498699457548458
162	0xbfc89cb2fa0ed6c6	-0.19228207788335377
163	0xbfca73e1dfce1f1f	-0.20666144779192394
164	0xbfcffa044765a783	-0.24981740461526777
165	0xbfd04eb57dbf1615	-0.25480401306080697
166	0xbfcdf3825b120fce	-0.23399381110004785
167	0xbfd2f734db500f08	-0.29633828561075903
168	0xbfce1fb5ff0170d5	-0.23534274054953266
169	0xbfce90721a6b8743	-0.23878313341179522
170	0xbfd049f79611591d	-0.2545145955567863
171	0xbfceaed0b0b8a8e5	-0.23970993641825725
172	0xbfcec77d2a813242	-0.24046291900084965
173	0xbfcd83ec018abf6a	-0.2305884368447509
174	0xbfcffb25aff68327	-0.24985190479221694
175	0xbfcd1df85e70f645	-0.22747711764707126
176	0xbfcdef4526ed207e	-0.23386444473931428
177	0xbfc723c06cdc9745	-0.18077855411064028
178	0xbfd0be34acc1a44b	-0.26160923834556077
179	0xbfd2d17fdf7f6b7d	-0.29403683496428085
180	0xbe6153fd5d64f9c8	-3.227607308025475e-08
181	0x3e57df19d5f46888	2.2232055638378158e-08
182	0x3e78557f56457e74	9.065111822780487e-08
183	0x3e75f072ebf00648	8.173008846092863e-08
184	0x3e5d9d18c1813560	2.7579869138745255e-08
185	0x3e58d9f7acd45054	2.3144702866981265e-08
186	0xbe7ccd50ffb2ca02	-1.0729587522870674e-07
187	0x3e710234fba686a3	6.336205063972409e-08
188	0xbe71cfe80e8b3508	-6.635537242866761e-08
189	0x3e46bbb6524ab784	1.058599481107044e-08
190	0xbe64cae844c718c2	-3.872924789513305e-08
191	0x3e3be0d1741aed00	6.4908983202935204e-09
192	0x3e7af9932c92cbfe	1.0048934053173423e-07
193	0x3e7d94fd859a4314	1.1020151315989902e-07
194	0xbe63999ea4864433	-3.6507988246334626e-08
195	0x3e71204fceedb60b	6.380013293862041e-08
196	0xbe33658a1005ef60	-4.516131691156608e-09
197	0x3e75465e3f9b1717	7.92550877383882e-08
198	0x3e2874b47d1d9c60	2.847039028944699e-09
199	0x3e866edb8c79739b	1.6713915428320025e-07
200	0xbe85a8f9b9a07c33	-1.6138002650962552e-07
201	0xbe407e8c1d5fb7a0	-7.680768836890052e-09
202	0xbe6a17f726d67b61	-4.860314537922462e-08
203	0xbe690f7ce19d6cf2	-4.667881743524656e-08
204	0x3e6fb1c74b15e308	5.9035508380211374e-08
205	0x3e533d17cf31da98	1.7917383976203778e-08
206	0xbe6df3aa8a8de918	-5.5789614101169114e-08
207	0x3e6ced82e20abef0	5.388218605095485e-08
208	0xbfa98ce8ff97742e	-0.04990318412794924
209	0xbe709e2e1b011db0	-6.190646817491246e-08
210	0xbe4d647cbd843140	-1.3686962605407485e-08
211	0xbe7468f4b771c490	-7.603311568003103e-08
212	0xbfb00e690f1d4f0e	-0.06271988505369228
213	0xbfad6a9ccc60e93b	-0.05745401377540068
214	0xbfa96f0c11a21917	-0.04967534747361151
215	0xbe68fa7b740be139	-4.652598173908788e-08
216	0xbfaf2ba6f27a15e7	-0.06087991437838607
217	0xbfaec7909d60a73d	-0.060116309367300926
218	0xbfae12534439ed0b	-0.058733560636904235
219	0xbe6c7e02265f298e	-5.307089594139034e-08
220	0xbfaef9822a37a7f5	-0.06049734845494462
221	0xbfac63f201aa2066	-0.055450022414391495
222	0xbfaa950d79891f17	-0.051918431363956845
223	0xbe7943464c6f2173	-9.411123179294914e-08
224	0xbfab7d43fcfacc5b	-0.05369007552271717
225	0xbfb018894efe47fa	-0.0628743951658918
226	0xbfab96aa62d1b746	-0.0538838620785627
227	0xbe71f159a2fe1e73	-6.684204189980661e-08
228	0xbfabf5156ceac358	-0.05460421518853903
229	0xbfb04a4cf1705366	-0.06363373655797275
230	0xbfaf7158dfe1bde1	-0.06141164524967358
231	0xbfa9839cc23d7d4a	-0.04983224745842081
232	0xbfaa44eb9cc768b6	-0.05130707062535704
233	0xbfad20a8b26b30e4	-0.05688979318583323
234	0xbfa97aed0c1314a3	-0.049765975688879104
235	0xbfaa1152067719d8	-0.050913394250119814
236	0xbfad82b23420d33d	-0.057637757170971395
237	0xbfab32eff1a375c0	-0.053122995612038704
238	0xbfae36da5831a658	-0.059012244478094444
239	0xbfaa9abc098a89cd	-0.0519617807051592
240	0x3e6c4a612bf98b7a	5.2695246829912944e-08
241	0x3e4226d3a4331e38	8.452528571503133e-09
242	0x3e6df087b999b044	5.5766796691652615e-08
243	0x3e7488d144d98b23	7.649676200256013e-08
244	0xbe84b45263827c24	-1.5425966793256884e-07
245	0x3e5906e849bec962	2.330819325020774e-08
246	0x3e817b7379972c61	1.3025276927725967e-07
247	0x3e5350aee486a978	1.798865259672452e-08
248	0x3e817a02f84e1dfb	1.3021087510673766e-07
249	0xbe81491f96c62704	-1.2878804102013711e-07
250	0x3e26e6c60f67ccf0	2.6660807964475817e-09
251	0xbe7260c90b5a46e3	-6.846363728222208e-08
252	0x3e64fd6da6409884	3.909683668505162e-08
253	0xbe83f5c832f6f5e2	-1.4871422980386545e-07
254	0x3e6254b441969dbc	3.414391631521511e-08
255	0xbe568e8186819208	-2.1007530298996186e-08

bias f8 [120]
0	0xbfc5bf6d363dadc6	-0.16990437649233864
1	0xbfcbc531c2d81ecf	-0.21695539487722335
2	0xbfd09548a3b0bd68	-0.25911155686750087
3	0xbfab27dd38915456	-0.05303851428531263
4	0xbfca8f14c7584fed	-0.20749149068490116
5	0xbfd2c0393efbce66	-0.2929823985170742
6	0xbfbb51681dcb7671	-0.10671091773425602
7	0xbfca16202480ebe6	-0.20380021841432877
8	0xbfcc779cbbf2b804	-0.2224002759662086
9	0xbfca4cf3e6f8ae36	-0.20547341134930414
10	0xbfc68d9d612dfa61	-0.1761967396268629
11	0xbfd451eacf219938	-0.3174998305097634
12	0xbfc7f4836eff4046	-0.18714945716647174
13	0xbfd0e1295b2dbea9	-0.26374277023476594
14	0xbfd2c51b463d68b3	-0.29328042849887054
15	0xbfd11e8f556cd791	-0.26749022810269546
16	0xbfcbd03988df0d07	-0.21729201491516667
17	0xbfc93747458249dd	-0.19699946302405538
18	0xbfc4b94e7c17fbcb	-0.16190510806333544
19	0xbfd6fbf14da9950d	-0.3591273554250883
20	0xbfd14f1fced168d3	-0.27045436093397973
21	0xbfd5253977ccb77c	-0.3303970022124003
22	0xbfca427e97714ae8	-0.20515425104766583
23	0xbfcae834aeeb1d32	-0.2102113584607906
24	0xbfd4e74a59389fcb	-0.32661684716231026
25	0xbfd6cfc84e90567b	-0.35643203422782904
26	0xbfb89f1f7772dfb6	-0.09617802301624931
27	0xbfd0579c9fe81e78	-0.2553474008168233
28	0xbfcf4bbf49bd4e93	-0.24449912167130047
29	0xbfce6bc9143a06a1	-0.23766435134534894
30	0xbfccd70d438996e0	-0.225312860467219
31	0xbfc9e28d6a57fdd3	-0.20222633068622872
32	0xbfc98dbb780803b8	-0.1996378265467038
33	0xbfb815751674b96e	-0.09407741354218555
34	0xbfd7833742362b3c	-0.36738378015495576
35	0xbfce01052ed6a73e	-0.23440613543544403
36	0xbfcd74e734c30ed5	-0.2301301009775815
37	0xbfcd2fcb05952416	-0.22802102825724607
38	0xbfce319de92b7f70	-0.23588918576478646
39	0xbfcff539083bd04c	-0.2496711054042201
40	0xbfcee77a3f4ac4a9	-0.24143913355286387
41	0xbfc3d5ca45d34dcb	-0.1549618569321026
42	0xbfd17fd331683297	-0.2734268171778153
43	0xbfd0e3eabdfc5e94	-0.26391094735434106
44	0xbfd70fc14e66aed7	-0.3603366151462359
45	0xbfcac8cd73bba86a	-0.20925300742175362
46	0xbfd26f7215190c06	-0.288052101710662
47	0xbfd12f6e8885c4fb	-0.26852000553397176
48	0xbfcf574afec821c0	-0.24485146942630642
49	0xbfc919851c832cb6	-0.1960913075657566
50	0xbfd2ffc9dc95c361	-0.2968620924139512
51	0xbfbe77c79a6f0187	-0.11901519317962626
52	0xbfdd6a9358d635b0	-0.4596298568293049
53	0xbfce08c585e73e29	-0.23464268720862094
54	0xbfd15603c2b98b0d	-0.2708749200448189
55	0xbfcd4e8ca3e6d05e	-0.22895963671692504
56	0xbfd19c4a1fec9e0a	-0.2751641570816622
57	0xbfd34d461f4387c3	-0.3015914254484608
58	0xbfcb90e34c3c3e4f	-0.21535912725856796
59	0xbfd11931164cbe32	-0.26716258218491185
60	0xbfd1fc7df9d5e0d2	-0.28103589437479315
61	0xbfcf03fcfa0b2f8a	-0.2423092099110103
62	0xbfc88a2fedffa9ad	-0.1917171394446319
63	0xbfd2caa6eddf1257	-0.29361890058161094
64	0xbfcc8433421a7167	-0.22278443076801155
65	0xbfce636dcb3df008	-0.23740932868884124
66	0xbfd4b9dafccd97fe	-0.32384371459772854
67	0xbfcad639e56a873f	-0.20966266347846305
68	0xbfce97c52cd907df	-0.23900665941078977
69	0xbfcdc9d9db3c9b40	-0.23272250370902192
70	0xbfd2097618a9e8d0	-0.28182747276845266
71	0xbfc5c69aa5b8d212	-0.17012341586963992
72	0xbfceee2d41836f51	-0.24164357851884202
73	0xbfc47460fd840f68	-0.15980160120681863
74	0xbfd86930896845d2	-0.3814202634685816
75	0xbfdd8b857b485564	-0.46164071120559513
76	0xbfd224bf3f4f3b73	-0.28349286253517575
77	0xbfd0d6b7e64ae1bf	-0.2631053685140862
78	0xbfcc167f1e67aa75	-0.21943654045692865
79	0xbfd569f3603eba82	-0.33459171675614396
80	0xbfd1f42d97273a7a	-0.2805284477334805
81	0xbfcc79e9db0c5d34	-0.22247050471990237
82	0xbfcfd18c1c5c2b66	-0.24858237633483354
83	0xbfd30e63db2ec3b0	-0.2977532997566028
84	0xbfcd601814d81bfa	-0.22949505822927546
85	0xbfd2756c65825957	-0.28841695702557985
86	0xbfd35bc977729be0	-0.3024772325974805
87	0xbfd3ae670e49044b	-0.30751968760529697
88	0xbfd0ed927819cd66	-0.26450025299637614
89	0xbfc3916cc45a4b9d	-0.1528755148652551
90	0xbfd2bea354201f6d	-0.29288562026385173
91	0xbfcb1b0cb29aa3a2	-0.2117629882898458
92	0xbfd327884e661d8e	-0.29928786903516247
93	0xbfd1ce61ed5263f6	-0.27822158981285783
94	0xbfcab204c6b7b94c	-0.20855769827853476
95	0xbfd08dcdefcd2111	-0.2586550561723167
96	0xbfd89ca92669ffc1	-0.38456181289074826
97	0xbfd55bab3df22244	-0.33372002648733123
98	0xbfd015ff46282d17	-0.25134260035766104
99	0xbfc7dd077536cf9d	-0.18643277381272308
100	0xbfba11825035a675	-0.10182966669312939
101	0xbfcb0e1d97f03ab4	-0.21136827391497592
102	0xbfd3528f7f4b76f9	-0.3019140952218176
103	0xbfb8f1c55964a220	-0.09743913109253599
104	0xbfd36448e5b5713e	-0.30299589569564833
105	0xbfcbd300460322da	-0.21737674158636971
106	0xbfcb61d688e0929d	-0.21392327960451932
107	0xbfd05f98ef5a2651	-0.25583480238183137
108	0xbfcb2cb9eee6e09a	-0.21230243840341673
109	0xbfd195a1f3b09426	-0.27475785062626057
110	0xbfd109107377bc4b	-0.266178238641207
111	0xbfd14d0c0d7c3dcd	-0.2703275806133803
112	0xbfc7c6ddfec08d06	-0.1857564443499557
113	0xbfd1d6fcb21b0906	-0.27874677079320553
114	0xbfce945ee2aaba3f	-0.23890291278572026
115	0xbfd72f2ca25572a8	-0.3622542939463451
116	0xbfd269f25812cdc1	-0.2877164707271867
117	0xbfd1d4595d49269b	-0.27858575925766055
118	0xbfd9f8d788d3e568	-0.40581310617525057
119	0xbfc9fc9e8c5f4826	-0.20302183012114589

weight f8 [120, 120]
0	0xbe69732a997016fb	-4.740407460322456e-08
1	0x3e6e0436089ebbfb	5.5909994036713135e-08
2	0x3e78b62677c95e87	9.205760238253338e-08
3	0x3e5c439ece709764	2.632303344406506e-08
4	0x3fd4809d467710e3	0.3203499973426586
5	0xbe657834e5eadfd4	-3.9990166502410257e-08
6	0xbfd711d6cab23460	-0.36046380800764233
7	0x3fcebdbe7471473b	0.2401655262534009
8	0xbfbee8f10611b7e5	-0.12074190519498947
9	0xbfd34a82c748373b	-0.3014227815736949
10	0xbfd12909064c982a	-0.26812959304004613
11	0x3fd43cc95f0ff4aa	0.31621012004309057
12	0x3fd1d158bacadc1f	0.27840250245520964
13	0x3e4d8a4caf93b970	1.3755742755334985e-08
14	0xbfd3d704e87d4e83	-0.3099987287907668
15	0xbe793817a60742cc	-9.394850897867246e-08
16	0xbfd312e5c73be303	-0.2980284162181734
17	0xbe79c95761d9ed5a	-9.606215952723883e-08
18	0x3e64333cdf9a8ce2	3.762570695050729e-08
19	0xbfcd0719532b794f	-0.2267791420080791
20	0xbfd198cf9ca03489	-0.27495184226501884
21	0xbfce0a8de6fc777f	-0.23469709185240714
22	0x3fd123421ded18e1	0.2677769939658799
23	0xbe7115793bc6e394	-6.364241662047078e-08
24	0xbfc8306b991a1a03	-0.18897767043763744
25	0xbfcb8b4c9273076e	-0.21518857146116538
26	0x3fd2e201b2971f42	0.2950443500562764
27	0xbfd6f03b8103b599	-0.3584126243502737
28	0xbfbf3ed54c13d63c	-0.12205250842438259
29	0xbfcf6f1b347d24e2	-0.24557819426471555
30	0xbfd55ea5e906a061	-0.33390186077531864
31	0x3e771a111b769b9f	8.606099909676248e-08
32	0x3e70d09471b348a5	6.263988121542657e-08
33	0x3e67cab22bd24d36	4.4315645799818464e-08
34	0xbfc7e29c49d1ddaa	-0.1866031036804377
35	0xbfcf4015df213291	-0.24414323229793358
36	0x3fcb6fb14b76ea89	0.21434608635702926
37	0xbfcea85f207ec0c7	-0.23951329313923095
38	0xbfd2ad9648bc3944	-0.2918449125580944
39	0x3e3c4b3ca2050ca0	6.587685536237396e-09
40	0x3e76f32eccc61276	8.549516223282243e-08
41	0x3e6d6e4a4eecf5c8	5.481917663426043e-08
42	0xbe727578f08274dd	-6.876467406815483e-08
43	0x3e6536075eaa7bf4	3.950865930701418e-08
44	0xbe76f1bae0c2bf3c	-8.547402091901424e-08
45	0xbe57f5701ed09f6e	-2.2313317350193968e-08
46	0xbfd1276f56bde97c	-0.2680319163406677
47	0xbe399a6dc47add00	-5.961218247917603e-09
48	0xbfd0bdf0f4fb5cb8	-0.2615930931473929
49	0xbfb279368448a4db	-0.07216206292709464
50	0xbfc783b1267069fb	-0.18370642067823426
51	0xbe66cc33339c8313	-4.2463943873569114e-08
52	0xbfc64dbd75dbf03b	-0.17424743895378633
53	0xbfd111553181b40a	-0.26668290934213756
54	0xbfd3fb492d289a92	-0.312212270832256
55	0xbfd04851fd933e89	-0.25441407931519017
56	0xbe6f0d3fc5466fd2	-5.7838399544778845e-08
57	0xbfd7580fdea23d2f	-0.3647498773725201
58	0xbfd2d815428ba5c5	-0.29443866251548584
59	0xbfcea542ffbbf112	-0.23941838728922754
60	0xbfd1c9560aeacd0d	-0.27791358057147947
61	0xbfd2f4a1868dc59b	-0.2961810888292235
62	0xbfcde4fdaa6625bf	-0.2335507471109803
63	0xbfd30960237ad077	-0.29744723763292974
64	0x3e5d16862360437e	2.7090296415900875e-08
65	0xbfd880633c79b06d	-0.38283615976138813
66	0x3e7048a6962cf94d	6.066185202506325e-08
67	0xbfd40cdfa9bb3227	-0.3132857472926695
68	0xbfcb5c78b25d209b	-0.21375950535935292
69	0xbfd20e4225ccb903	-0.2821202630174328
70	0x3fd2e8f9d6e331ab	0.29546972260575427
71	0x3e655af37e48c250	3.9777304814882505e-08
72	0xbfcec056531880e7	-0.24024466569335987
73	0xbfd06a7c812754c9	-0.25649941075000676
74	0x3fd4db271058c748	0.32587601276747025
75	0xbfc8f0920882a70f	-0.19484162726922036
76	0xbfaf06fa4914e7f3	-0.06060011045560989
77	0x3e6cbbf7f120f86e	5.3521715185221945e-08
78	0x3e63a94754978601	3.662192200514097e-08
79	0xbfd4e9cbf082dd15	-0.32676981437130453
80	0xbfce411c12ba5cdb	-0.2363619891591274
81	0xbfd072bcf512c05d	-0.25700305874761914
82	0x3fccb4bdf2e5e207	0.22426580772641122
83	0xbfd171b140545a28	-0.27256423265626717
84	0xbfc120424b06ed3a	-0.13379696525030643
85	0xbfcf24e1c2e34cb6	-0.24331304565439432
86	0xbfcc190a8461a751	-0.21951419319094126
87	0x3e70a676c7a67c46	6.202701455800458e-08
88	0x3fd03bd1d5e1c2e4	0.2536511028948054
89	0x3fd2a7daf2520f41	0.29149507202258823
90	0x3e62dc69214f2eec	3.513131133884403e-08
91	0xbfd04a6518ffabe8	-0.2545407051208586
92	0xbfcbfcd4620ef091	-0.2186532477188661
93	0xbe6ae5ac5c7473c6	-5.009986697222985e-08
94	0xbfcc8af8347aaf50	-0.2229910141226079
95	0xbfccba00d1a870b2	-0.22442636716085002
96	0xbfcc0dab1ff6150a	-0.21916712818725897
97	0x3fd0cfff9908b806	0.2626952166054938
98	0xbfd36e587f9fba6e	-0.30360996688151587
99	0xbfbe658d03cb7f11	-0.11873704283379662
100	0x3fd67cef46810ebf	0.3513754070774943
101	0xbfd5936d82472d4b	-0.3371232769247469
102	0xbfd739e5d7535f44	-0.36290880229852385
103	0xbfd3d88dd8fb03d5	-0.3100924128485166
104	0x3fd00b6567d7d81d	0.25069556370670104
105	0xbfcfe0308f484a29	-0.2490292262669567
106	0xbfd175591291771b	-0.2727873498277959
107	0x3e6a457feed1a462	4.8934451026706964e-08
108	0xbfcc015e50c071bb	-0.21879176085429983
109	0x3df65911169a2b00	3.25204993665266e-10
110	0xbfd0fec5af68ac6b	-0.26555006150983357
111	0xbe55b28dc4c69236	-2.020734894834611e-08
112	0x3e2bd1ece2b5ae40	3.238676678991096e-09
113	0x3fd0d2cc7a44d044	0.262866134074333
114	0xbfd1e57b953e8f1c	-0.2796315152611315
115	0x3f11bfb3579b5279	6.770641439441697e-05
116	0x3e66c95e83e8e2d6	4.244334704913824e-08
117	0x3e6413e9696d1595	3.7397780142235445e-08
118	0xbfc66ce24266351a	-0.17519787065649767
119	0xbfc6b759d3291888	-0.1774704247529295
120	0x3e5db06d97056dd0	2.765019630042203e-08
121	0x3e20107ae5894e20	1.8701394151079155e-09
122	0xbe542799acd645e4	-1.8770516520938637e-08
123	0xbe5836c6a938362c	-2.2551015789161555e-08
124	0xbe74cc908d304da3	-7.748261347832678e-08
125	0xbe67379adb2a17c9	-4.324541737648351e-08
126	0xbe7cffee997e48e6	-1.0803242955621514e-07
127	0xbe5203845f57a918	-1.6776601404890008e-08
128	0x3fc4d1ec775bda5c	0.16265636280123175
129	0x3e6bd6a8124f4177	5.1853250838628536e-08
130	0x3fd1b385bdae02a5	0.276582179292783
131	0x3e6879c280532fea	4.558940251142006e-08
132	0x3e64d57bc7c9318f	3.880620000739215e-08
133	0x3e5aec94af9b4532	2.507506289309428e-08
134	0x3fc66219bb7d6951	0.1748687901952715
135	0xbe714c837ef154eb	-6.44433553060213e-08
136	0x3e6af4e2fff018f4	5.021055925900972e-08
137	0x3e6f6792c49d1706	5.849559465849558e-08
138	0xbe6e15f8eba8ca12	-5.603922433420709e-08
139	0xbe7055d773157a9f	-6.08538044586165e-08
140	0x3e6f83f2e86150d2	5.8702053926677985e-08
141	0x3e77e044ec7368bd	8.894522373088896e-08
142	0xbfb743898c98dd26	-0.09087428743884071
143	0xbe7129c96f0ffd8a	-6.39380137862272e-08
144	0xbe7723a71bc9d533	-8.620049291883301e-08
145	0x3e71d6177bf8abfe	6.644537985853169e-08
146	0x3e69abb261d32e8e	4.781538740782677e-08
147	0x3fc36d9a0e75fb00	0.15178228098007907
148	0xbe67616d12eb0b6a	-4.35497063875515e-08
149	0x3e58ff59bf66cacc	2.328070177756891e-08
150	0xbe3560ca9b2618f0	-4.977474809386956e-09
151	0x3f1fb82877a9c968	0.0001209997844087478
152	0xbfbf29448da81512	-0.12172344644939795
153	0x3e8053239d1c91ba	1.216289562895761e-07
154	0x3e4244183bf4ac38	8.505766645343439e-09
155	0xbe616205ffc9cdf6	-3.237818188986929e-08
156	0xbe6646544e3c5ce7	-4.1489906425583875e-08
157	0xbe6ac6ba12e1d406	-4.987470202190608e-08
158	0x3e646260dc0068ec	3.796869973999872e-08
159	0xbe78a0cc3616a424	-9.174688166711899e-08
160	0x3e6d5f35d6dbecc0	5.47094555057949e-08
161	0x3e78bc797e952a84	9.214963338670223e-08
162	0x3e6b74265b9a13d0	5.1136520307289414e-08
163	0xbe699efd92b782de	-4.7722937015142255e-08
164	0xbfc76fb170a5aeca	-0.18309610367156487
165	0x3fdc6abb141c4988	0.44401432956615183
166	0x3e80eedb2abf6551	1.2616091760071045e-07
167	0x3e6a66b297ebf5f9	4.9175997487629574e-08
168	0x3fcba4e3364324e7	0.21596946858907204
169	0x3e7f5e9a2ab88048	1.1686064265619298e-07
170	0xbfb86ff67c5bf013	-0.09545841728316899
171	0x3e19114efca28ce0	1.4591270297395559e-09
172	0x3e3ed9d8235bc2f0	7.183047536752408e-09
173	0x3e5a2a049fa2a148	2.436724775485696e-08
174	0x3e532a21b3374a30	1.784840293428268e-08
175	0xbe6edd3b141b1864	-5.7489020222716394e-08
176	0x3e3b3bb56813d8b0	6.340732051600755e-09
177	0xbfbb6f45e6ca3fad	-0.1071666420414192
178	0x3e28f6a8588fd7e0	2.906134614635068e-09
179	0x3e652e5791be9999	3.945273105371641e-08
180	0x3e6115ac9eb21101	3.182266879959394e-08
181	0xbe70afcaf6d8e5f1	-6.216276712206673e-08
182	0xbe6d8507e1572224	-5.498463566015629e-08
183	0x3e5f70d2c944af64	2.9281448891599407e-08
184	0x3e683b254c7bec98	4.5133825175467255e-08
185	0xbf875adcb9b03359	-0.011403774658924769
186	0xbfb6e8221f67ac99	-0.08947957293246346
187	0xbe60b002d3c28b59	-3.108297128128643e-08
188	0xbe727e2b1faa8247	-6.889121798937534e-08
189	0x3e621d1bdea4b174	3.373940756149859e-08
190	0x3e706b2bb3ac3fe0	6.116418386722381e-08
191	0x3fb27e23c770708c	0.07223724002000348
192	0x3e59f5b34c2132b4	2.417691714216463e-08
193	0x3e6e89ba1f0cfbb0	5.688145055534782e-08
194	0x3e7b2cd3f6fd8e50	1.0123517113279696e-07
195	0x3e79a0deabb1d3b2	9.547322126094137e-08
196	0xbe62ea96029c32ac	-3.523445031407537e-08
197	0xbe461041670dea40	-1.0274116864338201e-08
198	0xbe5cc10cee3b6b34	-2.6779345753797065e-08
199	0x3fbf86adcfe9b305	0.12314878774641265
200	0x3fb995c9e07190e8	0.09994184236126424
201	0xbe5b1e039cab3ef0	-2.5254900208267433e-08
202	0xbe716b97431980fe	-6.489558825864539e-08
203	0x3e2a0749df24c780	3.030112821376032e-09
204	0x3fc0ade5ee29f78c	0.130306950846656
205	0x3e5e5c0925d84164	2.8274501287214747e-08
206	0xbe62b97df045539c	-3.487724423387817e-08
207	0x3e7f1d36ad0ee716	1.1590911276520312e-07
208	0x3e5919d689295f64	2.3377062572472284e-08
209	0xbe32e216e6cf1200	-4.396578751187769e-09
210	0xbe703c73383bd905	-6.048430916866914e-08
211	0xbe745e96a53be408	-7.588224920284064e-08
212	0xbe6453be641366bc	-3.786221870203236e-08
213	0x3e69c9a62212c928	4.803331799789555e-08
214	0xbe3787ee276eee10	-5.4787326818811494e-09
215	0xbe608fda00b931a2	-3.084898033949441e-08
216	0xbe759daeddfd227b	-8.05256870048526e-08
217	0x3e63f79e0ac0214f	3.719191118972767e-08
218	0x3fbf024b52833eda	0.12112875713796303
219	0xbe6da40412cbbb41	-5.521008215001744e-08
220	0x3e693071f4aed81b	4.6918613514688735e-08
221	0xbe697e7cbdb5f769	-4.748644474426094e-08
222	0x3fc8cc90b0ee3ba6	0.19374283446492518
223	0x3e6c8cff32bd8dd2	5.317995141367829e-08
224	0xbe700a92bde04eb1	-5.975850522781395e-08
225	0x3e52d750da48d0bc	1.7547120772200832e-08
226	0x3e74a7eb0e466692	7.694933718549515e-08
227	0xbfbc61086326edd8	-0.11085560246186021
228	0xbe61d45d5416e419	-3.321012310591098e-08
229	0x3e6a4b48cec08ea4	4.8976540018250306e-08
230	0xbe76e7e7f9698b87	-8.533106519432404e-08
231	0x3e553528bacdcf94	1.975116574759176e-08
232	0xbe709346ba490827	-6.174779671692235e-08
233	0x3e65e110ff03a564	4.075312165666061e-08
234	0xbe80e67a85573e1d	-1.259170995652388e-07
235	0x3e48cb24733050d8	1.154538473682003e-08
236	0x3e799c0af704f2b9	9.540297952067093e-08
237	0xbe421aab5653f348	-8.430414320191063e-09
238	0xbe705a7e85a2c4a2	-6.092150908983138e-08
239	0x3e7f6039ecb2c3dc	1.1688427574669837e-07
240	0x3e65ece03cee517b	4.0839047358402025e-08
241	0x3e5dfebe6891cff0	2.793510714802378e-08
242	0x3e6eb6b6e84b3502	5.720877730361646e-08
243	0xbfd2719bbb522335	-0.2881841019921468
244	0x3fc90a7a93c75b28	0.19563228812941102
245	0x3e5d5c19e82834b8	2.7343416872774552e-08
246	0xbfd7bbf42d4a7f51	-0.37084679053258635
247	0x3fd2b84e6fcdc7aa	0.29249916952459876
248	0x3fc20c67c7c5e696	0.14100358252089923
249	0xbfd011d9f072c9c3	-0.25108955842292974
250	0xbe6cd77afda009b6	-5.3721890672114656e-08
251	0x3fb2865b4e9aa7f9	0.07236262005849871
252	0x3fa0859827d85507	0.0322692440642332
253	0xbe63d6ea43a1f079	-3.695397095355441e-08
254	0xbfd082da6b724fe1	-0.25798664563012436
255	0xbe544383901f4f30	-1.8872065694747312e-08

bias f8 [120]
0	0xbfe06dcbb0871283	-0.5134027908139419
1	0xbfcdde5e41316175	-0.2333486383747744
2	0xbfe0bd97a986b7ab	-0.5231436072406174
3	0xbfd1aac0d836ce74	-0.27604695429474835
4	0xbfd000b6ae2a6c1b	-0.25004355438585585
5	0xbfd268d3d6d96806	-0.28764816266414106
6	0xbfd1d4d84af5e6c0	-0.2786160213505404
7	0xbfd3da949ffcffd5	-0.31021609901290265
8	0xbfce32a6fff4a4ea	-0.2359207868369489
9	0xbfd081a05daccdbc	-0.2579117693705617
10	0xbfc74ecba4524563	-0.18209214709763008
11	0xbfd6632f3d7855bd	-0.3498037433904207
12	0xbfd22257cf25b4ca	-0.28334613064982916
13	0xbfd8dea175854a37	-0.3885882995283824
14	0xbfc98c617a225d9b	-0.19959658111177422
15	0xbfddc5a309f0d501	-0.4651877972676886
16	0xbfd2581c947d4fb6	-0.286627907761836
17	0xbfd54d33e3e5150a	-0.33283707862240475
18	0xbfcf7fae3f3bb44a	-0.24608400428351934
19	0xbfc5ea060b7f26e4	-0.17120433389054945
20	0xbfdb753196266d69	-0.4290279356298102
21	0xbfdb979747accf3a	-0.43112737655177436
22	0xbfd2c388e0638a51	-0.29318448937389
23	0xbfd1dfaa0bdbcdd6	-0.27927638204638805
24	0xbfd35abbd28d15d6	-0.302412944427798
25	0xbfd9cd461596fa3c	-0.40315391643881404
26	0xbfd25baa12ad4dc9	-0.28684474777147934
27	0xbf915bf33e138969	-0.0169523245466591
28	0xbfe13a35dc9ef888	-0.5383557614329826
29	0xbfd935b36c2fadf4	-0.39390264096320426
30	0xbfc6ee25a7bdfe90	-0.17914267244849613
31	0xbfd6573e216eeb9c	-0.34907487168282514
32	0xbfc96cbfade1eb9c	-0.19863124838215362
33	0xbfd1f88a4793ff9a	-0.280794687176234
34	0xbfcde4f8acf7e38a	-0.23355015226095716
35	0xbfcb629e63606c4d	-0.21394710399985897
36	0xbfd6a1431702ff7d	-0.3535926556323757
37	0xbfcc4a732061fa67	-0.22102202492893072
38	0xbfdb0e6bdc1b671c	-0.422755207966121
39	0xbfd0f82319adcc3b	-0.26514508731560554
40	0xbfce35c12ee26714	-0.23601546086575154
41	0xbfc3e4093f7925ff	-0.15539661025313475
42	0xbfd3a9f5dcab368f	-0.307248559471966
43	0xbfd0ab596fdecbb0	-0.2604583351596217
44	0xbfd04f585c98bb16	-0.25484284441601923
45	0xbfdc105acb94638a	-0.4384982097704372
46	0xbfd925b8d8db0028	-0.3929273717622004
47	0xbfe53f156ee0fa30	-0.6639506497957139
48	0xbfca5b8eb0f0fdc0	-0.20591910972323824
49	0xbfd45f0ffd11ba36	-0.31830215181153976
50	0xbfcf2102b6480b73	-0.24319490337810698
51	0xbfdf39d2a9e51211	-0.4879042300347303
52	0xbfe1b1d161b4fc14	-0.5529562862719808
53	0xbfcd5e6db0bd55bc	-0.22944422845709578
54	0xbfc86280c2f06a3c	-0.19050607222091454
55	0xbfd775aeba5e6773	-0.36655777168345266
56	0xbfc7efaaeef3fb42	-0.18700157802228473
57	0xbfc92c3bfd53a8e9	-0.19666242475006548
58	0xbfd9e36615c0adf3	-0.4045043194225563
59	0xbfe02190dc29165b	-0.5040973949441637
60	0xbfce81509c45d758	-0.23832137709149026
61	0xbfdc82137d34a349	-0.4454392168723201
62	0xbfd04544ea00bd24	-0.2542278561767992
63	0xbfcaff8849020808	-0.21092322888222292
64	0xbfd1719037275f7b	-0.27255635629762026
65	0xbfb7fb46a10cff26	-0.09367791587737581
66	0xbfd8917069d6b6da	-0.38387689910710565
67	0xbfcf5a39ad355200	-0.24494095761714618
68	0xbfccf224ba6713f4	-0.22613963224117095
69	0xbfb9f15a2e5a110c	-0.10133899337421698
70	0xbfd017b97d53ebc1	-0.2514480327515081
71	0xbfd1f4d02aa6d1f0	-0.28056720891188913
72	0xbfcd3c44ea8e84a3	-0.22840177014316962
73	0xbfd01c93a3ba21ef	-0.2517441843888539
74	0xbfd86ee9bfdd5922	-0.3817695974043024
75	0xbfd2d52413654c3f	-0.29425908941374596
76	0xbfd798aa06e4befb	-0.3686928813285559
77	0xbfcd727918e1ea3f	-0.23005593981709357
78	0xbfe15014a03e996d	-0.5410254602218579
79	0xbfcf30c45892fd5b	-0.2436757500163179
80	0xbfdbc5d1923f39ca	-0.433948891467392
81	0xbfd0131ef2a23808	-0.2511670464963349
82	0xbfd05b346ece328e	-0.25556670018048855
83	0xbfd07e3610730eb2	-0.2577033196105091
84	0xbfcd9bc2e4545fc6	-0.23131595753579698
85	0xbfd3bddced665cb6	-0.30846331771449387
86	0xbfcfe568c3086018	-0.249188513975924
87	0xbfd4279171b87ff1	-0.3149150476983769
88	0xbfcf6cb92aef129a	-0.2455054721487116
89	0xbfd4d54dbdf9e6ea	-0.32551902344094563
90	0xbfdf7c17978df8e5	-0.4919489841485201
91	0xbfd0e210e16d8b83	-0.2637979699558672
92	0xbfd2c2a14a54a59f	-0.2931292749295497
93	0xbfd4c45b08a9c040	-0.3244845947838293
94	0xbfbb1f2d7a09b6b7	-0.1059444830841255
95	0xbfcbb0bc644dfd56	-0.21633105180442652
96	0xbfc866a20f9652c5	-0.19063211213201306
97	0xbfc1642783b88ff3	-0.135868968312138
98	0xbfdd784e732b341c	-0.4604679226584396
99	0xbfcb56e639e25731	-0.2135894568097512
100	0xbfd4e8517710b12a	-0.3266795790430189
101	0xbfd60eaa28547f90	-0.34464506090625324
102	0xbfd34d9d1404e3d8	-0.3016121573924102
103	0xbfdb4f48cd305d35	-0.42671413457852064
104	0xbfbf59439f7cafec	-0.12245581287123714
105	0xbf0436a48ead67ad	-3.855409325721703e-05
106	0xbfc67f4d75cd623e	-0.1757599663931319
107	0xbfd718eed5819706	-0.36089678621498
108	0xbfcf88641c263339	-0.24634982466195668
109	0xbfa087700f7adca7	-0.03228330792392713
110	0xbfde00d62b63fbc3	-0.4688010619865361
111	0xbfce298d9e5a34e5	-0.23564310295151994
112	0xbfd2b5287ef495cc	-0.29230701826085403
113	0xbfd4cf7afc8331a4	-0.32516359958096985
114	0xbfcce840915e354c	-0.2258377752117816
115	0xbfe1445c35304595	-0.5395947493399712
116	0xbfdd90c47734b44b	-0.4619609035606273
117	0xbfd00caf185c166a	-0.25077416781309714
118	0xbfcf636aec45f470	-0.2452214864423783
119	0xbfd449d6320ba5a3	-0.31700663459067807

weight f8 [120, 120]
0	0x3e70172f82330384	5.994203937637552e-08
1	0xbe534726a1ecfce4	-1.795397441416068e-08
2	0xbfd3103b2b8ffc9f	-0.29786566976685863
3	0xbfd33bfd9abe58a6	-0.30053653823541493
4	0xbe6d8ecb76e5fc80	-5.5055678116298534e-08
5	0xbe72821249a8518e	-6.894801388879089e-08
6	0xbe7613982af66be9	-8.224152269477793e-08
7	0x3e40b80630092d18	7.78531861300292e-09
8	0xbe66fe79c3008444	-4.282974719349777e-08
9	0x3e504865f5f4dff0	1.5164544617615295e-08
10	0x3e78b8147736e05f	9.208568290438837e-08
11	0x3e4f1503611bad8c	1.4473722695588133e-08
12	0x3e640d6f2b6d9071	3.7350650064825214e-08
13	0xbe28f354666c6e40	-2.904621254792553e-09
14	0x3e69d7bbfa8cd252	4.813580229413408e-08
15	0xbfcf5a0cb701853d	-0.2449355977615059
16	0xbe6c59a796cf0809	-5.280638757473492e-08
17	0x3e6bac4f4f963060	5.1545137889816366e-08
18	0x3e70b283064cb42d	6.220233357270827e-08
19	0xbe748de31759b148	-7.657053465734117e-08
20	0xbe66e90167e9fc55	-4.2673531365667487e-08
21	0x3e758e2f7ecaef4c	8.030016802445281e-08
22	0xbfcb8506a225735e	-0.2149971286516132
23	0xbe68ca22091c2df3	-4.617419436915028e-08
24	0x3e51abd4bfbfb1a4	1.6457601489872316e-08
25	0x3e74cabed25e679a	7.745613980620199e-08
26	0xbe6aa3f0a4c0ec07	-4.9621594472704255e-08
27	0xbfd22f6f08d2fe1b	-0.2841451250241975
28	0xbe6e1262f78c428c	-5.601313452484496e-08
29	0x3e78eacdf1679572	9.282382182998463e-08
30	0xbe4b5c5618d0e19c	-1.2740813537968702e-08
31	0x3e7afdaeda17ff28	1.0054912149420606e-07
32	0x3e79189b8a3044b6	9.349034484097373e-08
33	0xbfce0fa314cd4d0b	-0.23485220447273777
34	0xbfc11d8a37f5504d	-0.13371398670517678
35	0x3e7368560b0a23ec	7.229880583983453e-08
36	0xbfce0466e14a4d9a	-0.23450933456898043
37	0x3e73b81f0d476561	7.345983316728659e-08
38	0xbfcfaae4e8704b6b	-0.24740277623694892
39	0x3e6414158a1373ad	3.7399034322314486e-08
40	0xbe7d5b35f56241eb	-1.0936071012852951e-07
41	0x3e78ca9bf1c91b76	9.2355318456322e-08
42	0xbe6a92dc641de966	-4.9497327582952736e-08
43	0x3e747a1dbd173aec	7.628283007282529e-08
44	0xbfce800bcb4751d6	-0.2382826559611561
45	0xbe51604cf8827d52	-1.6182823553963207e-08
46	0xbe4c54b21056292c	-1.319257637401499e-08
47	0x3e44ec99b197e210	9.743599304981398e-09
48	0x3e70ee55c6d2ffa8	6.307287643818904e-08
49	0xbe66715b2820edf3	-4.1802967324214937e-08
50	0xbfcd3eb4315b59f3	-0.22847607049943938
51	0xbe3e494acd9ecd38	-7.051578177212898e-09
52	0xbfcf1707d1e96b49	-0.24289033650969774
53	0xbfd278cd0dff2402	-0.2886231075941056
54	0xbe56b1e89a0ac218	-2.1136324359739785e-08
55	0x3e4fabcaba00da20	1.4747987553501938e-08
56	0xbe76b234fd3c64d8	-8.454963956426059e-08
57	0x3e746350ea7ad174	7.59510451153208e-08
58	0xbfd017c712123d7e	-0.25145127072115503
59	0xbe6a35c1748532dd	-4.881989795982948e-08
60	0xbe6ac240c3bc7dab	-4.9842150377653887e-08
61	0xbe70beca51424b66	-6.238100908250454e-08
62	0xbfc786c57274934f	-0.18380039299622772
63	0xbe5a3ac9e9185c8c	-2.4428259031992314e-08
64	0xbe5399796c73bc0a	-1.825346520889992e-08
65	0xbe6c69a8c82a2316	-5.292283679787489e-08
66	0xbe6f28e837163b8c	-5.803963788318335e-08
67	0xbfcd3d0a170bf3db	-0.2284252750904717
68	0x3e73488fefccacee	7.183643542230416e-08
69	0xbfd1157116fc782a	-0.2669337009882634
70	0xbfcd4086c05c72af	-0.22853168861992887
71	0xbe0e1aafe5cec740	-8.761488857473573e-10
72	0xbe6ad9b293e42f27	-5.001273216579888e-08
73	0x3e765ded61437b5a	8.332320816952808e-08
74	0xbfd01bc0030e6053	-0.2516937284322058
75	0x3e691f7333978d2e	4.679495764126051e-08
76	0xbe739b02575c9430	-7.303619561619094e-08
77	0xbe7381ea7fd3fb0c	-7.267104247877785e-08
78	0xbfcf1cd3e99d9451	-0.24306725413331035
79	0x3e70060216c4ec6a	5.969207500938376e-08
80	0xbfcea2efb08c3ba4	-0.2393474208879215
81	0xbe68f72ca89df46c	-4.650191438770999e-08
82	0xbfd1d0de876f0b76	-0.27837336755708664
83	0x3e6a9229e97d20c6	4.949225490422441e-08
84	0xbe76d750c9008559	-8.508964044518724e-08
85	0x3e4bc98c870e7554	1.2939470135822023e-08
86	0xbfd047fc4b0712cc	-0.25439364745060966
87	0xbfcd639bb0fa0402	-0.22960230008541777
88	0xbfd23a75eb03db0c	-0.2848181529110867
89	0xbfd2c1477eef9f0b	-0.2930468310937477
90	0xbfce1f01c0f57ae9	-0.23532125398465745
91	0x3e62c0839d119c72	3.492833723015492e-08
92	0x3e3ace6c6b2b29e0	6.2413378239063415e-09
93	0xbfd1ed8476740eef	-0.28012191360197297
94	0x3e7f7923004ac67e	1.1724677057946914e-07
95	0xbe6b1ff55c220808	-5.0523947262896557e-08
96	0x3e759ab18680149a	8.048218236307622e-08
97	0xbe59f4c9fb03bfc8	-2.4173601510227022e-08
98	0xbe7abd0d7210f9d2	-9.960862403042546e-08
99	0x3e45705c5c2624d0	9.983270103625075e-09
100	0xbfc2249b4703aba7	-0.1417421433210084
101	0xbe75891518e3f0da	-8.02259078925602e-08
102	0xbe7c538dc892e052	-1.0552399677926324e-07
103	0xbe707c2ebe0bc7e3	-6.141173925966887e-08
104	0xbe6d423d3da2a2b2	-5.449866309740148e-08
105	0xbfcb8b8982c23b4f	-0.21519583592131616
106	0x3e773e171cd3aa36	8.658520940825553e-08
107	0xbe6c581de560baa8	-5.2795198144145255e-08
108	0xbe547989bfd4ca62	-1.9068604463835132e-08
109	0x3e7094876f904e9c	6.17660268628527e-08
110	0x3e47045986d0662c	1.0718121690568822e-08
111	0x3e6de7b6dfb29b4c	5.5702653123122186e-08
112	0xbfd27cbe9613c958	-0.28886379867539835
113	0xbfd1ba3fd4e1af69	-0.2769927576944072
114	0x3e67549474e90161	4.3456238264536183e-08
115	0xbe7df21e7d0b79db	-1.1155671520875557e-07
116	0xbe78d9e7d80843fd	-9.25779115662023e-08
117	0xbfd2cfe48da811d8	-0.2939387687077022
118	0x3e56bee6ee9b25a2	2.1183594356768586e-08
119	0x3e45c655c28b8990	1.013965629640034e-08
120	0xbe3a5fa995fea2d0	-6.140601221874984e-09
121	0x3e50bb7171605368	1.5583075351004043e-08
122	0xbe6d59a0c22759d9	-5.466883858426138e-08
123	0x3e6197592c0e6181	3.276617156002529e-08
124	0x3e74baf2ee33bf5b	7.722627120057859e-08
125	0xbe6b2b2e6720fe1e	-5.060560405488496e-08
126	0xbe64b0b0b15d2a12	-3.85384934369263e-08
127	0x3e704201f93f8624	6.05651833680866e-08
128	0xbe71e1ba4257719b	-6.66147036069325e-08
129	0xbe75a524f800e905	-8.063426371131124e-08
130	0xbe7523e1ae216858	-7.875324173467444e-08
131	0xbfc9c03ccd6dc137	-0.20117912321757966
132	0xbfc8babfe6e7bf83	-0.1931991460291976
133	0xbe5c0a8849db4538	-2.611534865340631e-08
134	0x3e5a6a38c3d21f28	2.4600819371655586e-08
135	0xbe7148209526b116	-6.437952507790437e-08
136	0x3e67a3a1a5b90289	4.403141381755737e-08
137	0xbfd060e5bd60a5f5	-0.2559141492261852
138	0xbe649ae1e3bf3be7	-3.837982062682241e-08
139	0xbe3bf7300d21d6a8	-6.511243282494606e-09
140	0x3e4dc1d0b042e20c	1.3856725107931947e-08
141	0x3e725e219ab82a74	6.84250155912109e-08
142	0xbe3342eb9e7ac858	-4.484645966801586e-09
143	0xbe3e8241e1c5d350	-7.103387680462087e-09
144	0x3e70479898625e33	6.064650479237207e-08
145	0x3e7614ee31aff5a1	8.226096463722449e-08
146	0xbfc81fcf8449d183	-0.18847078284637683
147	0x3e622e835f264bbd	3.386604054407196e-08
148	0x3e7d53d93929bb73	1.0925357533398217e-07
149	0xbe742545daeba5a4	-7.504819763870434e-08
150	0x3e463c219c98dc88	1.0353926510528884e-08
151	0xbe80ede1802d82d8	-1.2613253382988255e-07
152	0x3e58a57a15fe1170	2.2953743239043288e-08
153	0xbfd1c93e46748eb8	-0.2779079139747682
154	0x3e4b88782d483680	1.2821091224304349e-08
155	0x3e569a196dc995c8	2.1049706743627812e-08
156	0xbe1a8d05b7ca0c00	-1.5454639505267848e-09
157	0xbe72cc2373f6e3f8	-7.002583134783436e-08
158	0x3e4cdf366694874c	1.3444537221856941e-08
159	0xbfd1c3e4667567bf	-0.2775813103268056
160	0x3e6156053544297b	3.2290847914035796e-08
161	0xbf133983131d471e	-7.333624378460773e-05
162	0x3e7f4f25dd49c96c	1.166357528977157e-07
163	0x3e64e89849ce3a42	3.894525344500815e-08
164	0xbe66d5f74f6ecfae	-4.253500123595005e-08
165	0xbe5da1a050fcb1f4	-2.7596347484231695e-08
166	0x3e6896fae021b817	4.5802007534647164e-08
167	0x3e60168cbeae8738	2.996639366445461e-08
168	0x3e3c4e2ddd87abd8	6.5903615555080436e-09
169	0x3e736a8acf95f772	7.233090917009454e-08
170	0xbe6b57a23bc0b52a	-5.0929038292487e-08
171	0x3e7982ec600da632	9.503744281620756e-08
172	0xbe6ac385400e9116	-4.985137281386957e-08
173	0xbe64a49185f6b2b2	-3.8450296054167074e-08
174	0xbe80cd61988ebe0d	-1.2518667016684912e-07
175	0x3e6172e9a3a015ea	3.250106712930183e-08
176	0xbfcc4bdb0893f543	-0.22106492918821105
177	0x3e61c5044898d997	3.309845293365201e-08
178	0xbe648af3666bed22	-3.8263902981848464e-08
179	0x3e585310f5c28458	2.2653935047846735e-08
180	0xbdc8177011ec4800	-4.3822281082007024e-11
181	0x3e7b7555c860e1ca	1.0229028832374648e-07
182	0xbe6c3b3add7c6e72	-5.2585018726742956e-08
183	0x3e71b4bd1d8c47e0	6.596002978209097e-08
184	0x3e799d246e1f4f69	9.541897896754424e-08
185	0x3e62672e9739b0ad	3.42783605084387e-08
186	0x3ec1147f463c9379	2.036102658824925e-06
187	0x3e6b2072212e10dd	5.0527493431478644e-08
188	0xbe6d8372d9077146	-5.497312394509814e-08
189	0xbfd251cc417aa78d	-0.2862425460285685
190	0x3e5f5d3063603edc	2.921001947963959e-08
191	0xbe4870d1b9f85c9c	-1.1381087904609541e-08
192	0x3e6a5864dc7c1a4c	4.907192479972358e-08
193	0xbe69d23c60df207d	-4.809579588722518e-08
194	0xbe7557bdf52f10fc	-7.950791074048456e-08
195	0xbfcd86fd6e13d89a	-0.2306820666778478
196	0xbe73f70f97977a4d	-7.437572504358723e-08
197	0xbe71ea0d3d43d719	-6.673583580529849e-08
198	0x3e699df7cedf00e2	4.771549720573667e-08
199	0x3e64bc509015ff8e	3.8623072749591836e-08
200	0x3e4b3f5b4a874a10	1.2688099752202582e-08
201	0xbe6ccfe4628d787c	-5.366667849589165e-08
202	0xbe469f138ed4d0f8	-1.0533906603419174e-08
203	0x3e6bcbbd35e7a1a4	5.177381611263356e-08
204	0x3e7dbdade2b3c492	1.1079361488302423e-07
205	0xbfc9691a2bf8389c	-0.19851996561960028
206	0xbe61aa775f5c9cfd	-3.290527310204299e-08
207	0xbfd08c7046534e3f	-0.2585716902515038
208	0x3e5a2913b9aebbe3	2.436382438478515e-08
209	0xbfb71515cf8ff6f9	-0.09016548459473119
210	0x3e74a345ff68f88a	7.688174705978543e-08
211	0xbe68b4ff3a38c688	-4.6020409951916735e-08
212	0xbfc57ae55a8ec1bb	-0.16781298562774602
213	0x3e6f6b597f5dd48a	5.852307076354139e-08
214	0x3e577cbcac416704	2.1874209791021734e-08
215	0xbfd0afe79802e750	-0.2607363686071169
216	0xbe6c4b8a1fe225cf	-5.270368673519925e-08
217	0xbe56d5bb5db71ba8	-2.1266648759525095e-08
218	0x3e6983175aa06704	4.751994293911953e-08
219	0xbe41c3c2878abb18	-8.27232703287432e-09
220	0xbfd152b651f10c54	-0.2706733513079531
221	0x3e5194de5d9e66ac	1.6374064638544303e-08
222	0xbe7c29d6ab283914	-1.0491695937744815e-07
223	0xbe758bcc91caaa49	-8.026544091414253e-08
224	0xbfb855fd7e478b36	-0.09506210644717047
225	0xbfc96cfad6c6476b	-0.19863830077207054
226	0xbfcf085a3271e483	-0.2424423929512934
227	0x3e67c8c1397de89b	4.430152172794416e-08
228	0x3e70a3a54f8df1a4	6.198600378636696e-08
229	0x3e6ced08b5af0155	5.3878713677636866e-08
230	0xbe6c959a5b34eec7	-5.3242568932217843e-08
231	0xbe70f92d4550d998	-6.323064501230662e-08
232	0x3e634fe57aeae44e	3.5971580704957224e-08
233	0x3e6ae726a458fc65	5.01106183600887e-08
234	0xbe6db23cd741e6cc	-5.53135589839635e-08
235	0x3e6a380ec1033d29	4.883664683904021e-08
236	0xbe74b073e86b83d3	-7.707353165020253e-08
237	0xbfcc2498a6a65f00	-0.21986683022691267
238	0xbe53409c3a6d874c	-1.7930179698080513e-08
239	0xbfc4be532559d7f7	-0.16205825160767492
240	0xbfc32a2bac933cc4	-0.1497244446422653
241	0x3e5ebc57907c2c5a	2.862486161908938e-08
242	0xbfd2ed4f1bc12182	-0.2957341929473146
243	0xbfb78843768e2508	-0.09192296642699571
244	0x3e6692b02a838b90	4.204549003559691e-08
245	0x3e6861438603893c	4.5411170603172655e-08
246	0x3fcf0131c7f461fa	0.24222395194443874
247	0xbfc15314420c79dd	-0.13534787392650474
248	0x3fcd353a7fc4d3f2	0.22818690527643032
249	0xbfcab7cd8143cbdc	-0.20873421489485977
250	0x3e78db51c2dded8b	9.259848418417113e-08
251	0xbe7c82d547e36c8e	-1.062120009472645e-07
252	0x3e727b01abacc4bc	6.884520590830266e-08
253	0xbfc774dd06e07c11	-0.18325388751779362
254	0x3e67a9bf6183de96	4.4075914641962826e-08
255	0xbfcdf7760c8a56e9	-0.2341144143326155

bias f8 [120]
0	0xbfcde517d891e61d	-0.23355386805251124
1	0xbfca1bf44feb8dc2	-0.20397809889173685
2	0xbfd02c91d02aea2a	-0.25272031144018803
3	0xbfb10ca710527629	-0.06659931324471614
4	0xbfcdcd62ad2cdca8	-0.23283036666700707
5	0xbfcb2b7cf8ca3754	-0.21226465366310754
6	0xbfce7fe1e3ede549	-0.2382776606498658
7	0xbfce5f8f9e74a9f0	-0.2372912906369744
8	0xbfc78a35275f85b4	-0.1839052622081404
9	0xbfd28f44cad0295f	-0.2899944286915765
10	0xbfdd5c8c5c0afefb	-0.45877369869775436
11	0xbfd527815b813237	-0.33053621231082125
12	0xbfd20308580a60dc	-0.2814350948115256
13	0xbfcf868b0089aad2	-0.24629342581041286
14	0xbfc9df8451af76f9	-0.20213369358582847
15	0xbfd84ce351d9bf59	-0.3796928691217452
16	0xbfc41352ea8a98cc	-0.15683971836296562
17	0xbfc1f164e8766eca	-0.1401792655059267
18	0xbfde8115e1558d94	-0.47662875180523057
19	0xbfd1a6902e563274	-0.2757912113673122
20	0xbfca4fba035671d2	-0.20555806315395714
21	0xbfbd9458808313ae	-0.11554482591152634
22	0xbfd0d62e8459a879	-0.2630726139528928
23	0xbfd4c6fb7f004e3e	-0.32464492227993336
24	0xbfcc7f5ae3eea15e	-0.22263656739711285
25	0xbfd2c7c8990b3f0f	-0.2934438223428381
26	0xbfdb6e98fec059d0	-0.42862534406722563
27	0xbfd7bdcbc684de61	-0.3709592283880508
28	0xbfd953dd213da70a	-0.3957436394326669
29	0xbfd447bd3a54fbeb	-0.3168786115310797
30	0xbfce9170bf266665	-0.23881348927970972
31	0xbfb674bccadd2798	-0.08771877243739679
32	0xbfd639430682be80	-0.34724498401462967
33	0xbfcdbb2c306e3fd5	-0.2322745548703994
34	0xbfd2cbb72af12e2d	-0.2936838073116828
35	0xbfbbe85acae7f59d	-0.10901420072328567
36	0xbfcdb7f5cf5cedf9	-0.23217651963373934
37	0xbfe0c74f924ee330	-0.5243299348431716
38	0xbfd1dc224e6e67d1	-0.27906091365150326
39	0xbfd57bfdefc3ed01	-0.3356928674181319
40	0xbfd2ff2cc3a1e8bb	-0.2968246374581544
41	0xbfc8b7e59ff4d4eb	-0.1931120902096731
42	0xbfcf31febdaedabc	-0.24371322881571256
43	0xbfcca61245e2926f	-0.22381809627872282
44	0xbfd0001acbcca08a	-0.25000638868596836
45	0xbfcbf4cd23b7743f	-0.218408243598704
46	0xbfc8886258b5c550	-0.19166211444420833
47	0xbfbbcf72724c40e5	-0.10863414087748742
48	0xbfde1eccf6602061	-0.47062992153269617
49	0xbfce123697519f8d	-0.23493082417121194
50	0xbfc78ceea4772c7b	-0.18398840933364
51	0xbfd18f3f70cb874d	-0.2743681527627942
52	0xbfcc133d77cd42fd	-0.2193371615380996
53	0xbfc3ac92a3990bc1	-0.15370400417495314
54	0xbfd6144545f9073a	-0.3449872191741751
55	0xbfcea8a8681c8c3d	-0.23952202876634657
56	0xbfd44af3dbd52fe8	-0.3170747420124358
57	0xbfde741cdbb5ead2	-0.47583695846666985
58	0xbfc98620667152a7	-0.1994057178696
59	0xbfcfbbadfb4a5742	-0.24791502733267562
60	0xbfd7b7089526b088	-0.3705464798501983
61	0x3fc5cc12483a996c	0.1702902653389161
62	0xbfcd4015e645bb1b	-0.22851823562401638
63	0xbfd34ae27c46065b	-0.30144559990012504
64	0xbfcef7d34b2d4cb0	-0.24193802996396618
65	0xbfb858b6e1ceaf8f	-0.09510367405772356
66	0xbfcd34ea258dee68	-0.228177326523894
67	0xbfd1ccf3d84b5867	-0.2781343090295025
68	0xbfd45d96efa331f2	-0.3182122554979109
69	0xbfd7f3a6ea5dc5e1	-0.3742463387235074
70	0xbfd9b94681869953	-0.40193331383706726
71	0xbfcf2531524ea65e	-0.24332252997310183
72	0xbfc0ce812369796b	-0.13130201558210372
73	0xbfdf8c7b6b7b23c7	-0.4929493474597248
74	0xbfd2a2d0cd032d0f	-0.2911874773096352
75	0xbfc18e380ba1c06e	-0.1371526772304636
76	0xbfd4d88c06cf2ca9	-0.32571697869270594
77	0xbfd2cceee0333325	-0.2937581242993466
78	0xbfd0af50f51830f0	-0.26070045409211584
79	0xbfcf778e7fb3f34a	-0.24583607898230248
80	0xbfd3ad10344d94bb	-0.30743794543952746
81	0xbfcd49ea7be32be9	-0.22881823586644082
82	0xbfd21642f061d973	-0.2826087329371127
83	0xbfca60ee610772d8	-0.2060831044936069
84	0xbfc7b20cd45d9264	-0.1851211583081237
85	0xbfd1a3ab71c746e5	-0.27561460601019255
86	0xbfd57af81869d322	-0.33563043960684713
87	0xbfcaf2e33c3bca8e	-0.21053734246341488
88	0xbfd19231d6b0a816	-0.27454801526857986
89	0xbfd7abeb2afcba5a	-0.3698680801198059
90	0xbfc923010707e95c	-0.1963807377176846
91	0xbfd07eb45512cf1a	-0.25773342426258383
92	0xbfd029ce43776a43	-0.25255161846658697
93	0xbfc2197fc6ecc5fb	-0.14140317166452107
94	0xbfd123ddf478562e	-0.2678141486552218
95	0xbfd15b5b98810647	-0.27120103733986806
96	0xbfe0b17905d25b1e	-0.5216641534524091
97	0xbfcd6d8c33b089e1	-0.22990562938600959
98	0x3fc6e16ea5f0ac4c	0.1787546453718697
99	0xbfd332e8043c0bba	-0.29998207486658723
100	0xbfc9fdd4756724b8	-0.2030587743049972
101	0xbfa682ff5b391fbb	-0.04396818150104261
102	0xbfe1812c1e97a6ed	-0.5470181081302293
103	0xbfd2d79e20e8bd92	-0.2944102593782755
104	0xbfccc0afcf01b69b	-0.22463033302067434
105	0xbfcba5fe6cc1531e	-0.21600323019324547
106	0xbfd358e4e632e69c	-0.3023006675754034
107	0xbfd31877d1e47809	-0.29836841103849615
108	0xbfcc3fcc10d05c22	-0.2206969339465284
109	0xbfcfca8bf7538fc8	-0.24836873604283327
110	0xbfd28104d57bfa8d	-0.28912468765330673
111	0xbfd2774ae4da2700	-0.28853103970378413
112	0xbfcc8a667da7bea0	-0.2229736436415708
113	0xbfcd72507b4a127a	-0.2300510980604889
114	0xbfd2a2b6b23c3a1f	-0.29118125348841944
115	0xbfbfc1e6f7d58ebf	-0.12405246306075933
116	0xbfca223ac978d111	-0.20416960561272693
117	0xbfd926314112e90e	-0.39295607905263885
118	0xbfccaf85e3793061	-0.22410653693293894
119	0xbfcf930e81839698	-0.24667531322409242
