pyTorch/test_experiments/2/noisey_paths/models/ow_0.4_12_NP_model_0.pth (torch, 470675 bytes, 10 tensors)

weight f8 [120, 60]
-5.6231761288112364e-08 -3.735494244315896e-08 4.0712337026460574e-08 7.35851596219174e-08 1.1532940219726854e-08 6.880401816844215e-08 -4.878721595792009e-08 -1.2545108488956773e-07
6.446499179843064e-08 8.527115553123779e-08 1.0937860111666734e-07 -6.345505665369425e-08 1.179303751375354e-07 -3.7470005108929015e-08 7.175831713653904e-08 3.100145396587788e-08
1.7835074489410897e-08 1.296212878905801e-07 1.0934868675323603e-07 -4.1401909113749116e-08 1.0607409118341371e-07 3.7750796604453484e-08 -1.2131342233991466e-07 -3.473582912727717e-08
-0.19134634806895381 -0.24432242822719674 -0.1733673853338445 -1.5985049263993422e-07 -0.2641189252466978 -0.24055943812309594 -0.22865673491162972 5.372250368201924e-09
-0.18460397075882448 -0.17787154527840748 -0.24057671310150378 -4.7923830592239095e-08 -0.18746379242397596 -0.1936691952922741 -0.20167196876169796 5.748295712123496e-08
-0.22944612314207638 -0.24558254018446699 -0.26277275082639373 -0.17535502326691826 -0.17491919457861305 -0.1990765658499509 -0.20511395483899247 -0.25727489606868725
-0.177716094345267 -0.24018031446536975 -0.1756612898445977 -0.2568587153458414 -0.1733096965035223 -0.22682932587529234 -0.2343532631429265 -0.24085075107672585
-0.21815419408299808 -0.17778828028442115 -0.2238958100035189 -0.19784652212219694 -9.900329775834534e-08 7.260066928933266e-09 -3.593605396094468e-08 -1.1416781068120893e-08
-1.2146284753653506e-07 -1.2906398611219055e-07 -5.832876634595235e-08 1.0164772745915998e-07 7.1425636594080716e-09 1.2558818414443927e-07 3.9041125746537136e-08 -3.685949896971145e-08
-4.7166887686889327e-08 2.697907942714552e-09 6.085033042448345e-08 9.461691446747347e-08 -5.618287551097304e-09 -1.0196653436822188e-07 1.308235131078734e-07 -2.092124236917954e-08
-0.2271770841472683 -5.217373365550458e-08 -1.546341493889096e-08 1.6123357550257225e-07 -0.23101523878122068 -0.28360818961303047 -0.2891009683102862 -7.132795164872948e-08
-0.17755482660519348 -0.19776035539090783 -0.17737953283134858 3.7325641817921465e-08 -0.22964725990419 -0.2564989032163329 -0.19696355763698037 -4.140683093119349e-08
-0.18284515341507598 -0.18299604129174535 -0.24260854127917472 -0.28363992067767346 -0.1860807748106151 -0.2559059219209461 -0.2465010772565761 -0.2638590018462234
-0.17849562617540615 -0.24605420070142298 -0.19850343704853998 -0.25812310545814404 -0.18662792195604505 -0.2451715620456002 -0.19566556725408438 -0.23575142607900829
-0.17971193111713835 -0.20667615568117564 -0.19956581886473618 -0.2600131723843058 -0.26002988624788315 -0.23528420936253214 -0.23751118390669484 -0.2075980320396828
-4.349388101624099e-08 9.588426504991459e-08 -3.764335758653706e-09 3.453976456061394e-08 9.042090764721189e-09 1.0319034548658535e-07 2.9347755775824837e-08 1.503923174346655e-07
-4.9094204707046884e-08 8.45754569337809e-08 4.811017457999097e-08 4.3403540645126506e-08 -4.257334559621504e-08 9.929585026006163e-08 -5.648475878592563e-08 5.3051538572851164e-08
-4.651630401177861e-09 5.3465944660597454e-08 -3.936383831160536e-08 -1.740937006440567e-07 7.359768494181108e-08 2.5615317666719505e-08 7.17798623028437e-08 -1.584113212932224e-07
3.205232509263879e-08 1.1324631203888779e-07 1.0651424890163891e-07 -9.798266514537957e-08 -0.262261816144792 1.4037436975153459e-08 5.034001164615801e-08 -7.294987583533181e-08
-0.4231127934415808 -0.23770941047879116 -0.2456182646482438 3.694500763599903e-08 -0.3772119698440401 -0.39247961199654285 -0.3499370107799977 1.3444331848389594e-07
-0.2649996256011595 -0.3566474509382817 -0.24549486460286338 -5.0520032938716305e-08 -0.39467307427218284 -0.3679382451543526 -0.2129676223034116 -5.043203822670731e-08
-0.2859809923120855 -0.37764917232705364 -0.33186560920418523 -0.25283801754075785 -0.308492573085036 -0.3562539156263244 -0.270412008477044 -0.36347461338269604
-0.36729679291068695 -0.3343233553601457 -0.2630701884558648 -0.4057103504638245 -2.039348621158752e-08 -9.488233203626577e-08 -1.2007336823133267e-07 4.268694075220523e-08
-4.978965176016869e-08 1.2119531660737816e-07 -1.3897952982443128e-07 2.4560482433162886e-08 6.97398155264317e-09 1.0492845135869544e-08 -6.92787228093383e-08 -5.733225971400212e-10
1.1732815362568611e-07 1.6760701994465187e-08 1.7508749224578204e-07 3.8394202634263285e-08 -3.4228217209350996e-08 -1.2636362372559943e-07 -1.1327824838855018e-07 1.0735030888719653e-07
-6.800979548290728e-08 4.6664621262415416e-08 3.824685143597117e-09 1.0118694886879655e-07 -1.28260968996786e-07 8.223118631707441e-08 -1.4597420381606775e-07 1.5982614536556496e-08
-1.3507405192088946e-07 -3.727769048879824e-08 -9.628284785583376e-08 -1.7350980534830652e-07 -5.077915831553819e-08 -3.401466548664311e-08 5.7747077461601916e-08 -7.594478538079707e-08
-0.16229966931272444 1.0478610360887289e-07 -1.3662269555833728e-07 -8.162372328646716e-08 -0.14737627959523603 -0.15323076564744034 -0.14097998890081267 -3.3666200709201724e-08
-0.12901949040645938 -0.13591207878813658 -0.12874326600776712 4.080669183003475e-08 -0.253207343505551 -0.15036077486910937 -0.14821425605332217 -1.4034772811254633e-07
-0.23949360710310164 -0.24145742011250254 -0.12681143904476047 -7.802119589514963e-08 -0.23615559894216784 -0.10714838712495497 -0.11968285352803679 -0.19510967717930636
1.0376449126569951e-07 6.777170272642492e-08 1.225528425169415e-07 -1.4752085878529716e-07 -3.523299601942465e-08 1.2199144902282458e-07 2.9720780388978528e-08 -9.145606911180559e-08
-5.5366694046555204e-08 -1.253255020076991e-08 -1.8743660168888863e-08 -3.1153505962624145e-08 -1.608087082647199e-07 -6.187804589064004e-08 8.333068056528489e-08 3.6084679851814305e-08
00000000: 95f7 5d36 6f30 6ebe 5423 bc31 060e 64be
00000010: 4837 b903 76db 653e 3809 74d1 bbc0 733e
00000020: b058 350a 4dc4 483e d5c1 9516 2d78 723e
00000030: 9e91 378f 4331 6abe 8ab8 9469 77d6 80be
00000040: f7b6 0a21 004e 713e 9ea3 4608 cae3 763e
00000050: 6338 3bb3 705c 7d3e 0317 8029 9908 71be
00000060: ce6a 8619 1da8 7f3e 18a0 179a d61d 64be
00000070: 271d 51aa 3143 733e fead 0eb1 cea4 603e
00000080: 5e6d 4ccb 7726 533e 44f1 ebe7 c065 813e
00000090: dd52 ea70 625a 7d3e 040a ea2c 3c3a 66be
000000a0: 37fc 8625 5b79 7c3e 8ba0 0a13 6e44 643e
000000b0: f591 d225 4c48 80be 9c5f 3a56 0ea6 62be
000000c0: ed24 9581 097e c8bf 9022 7513 f545 cfbf
000000d0: 9ad7 1909 e730 c6bf 124a 8bcd 6b74 85be
000000e0: 701c 8c10 53e7 d0bf 76cd bdd3 a6ca cebf
000000f0: cf50 3ab7 9f44 cdbf e01c 1a0c da12 373e
00000100: 5f79 8f58 1aa1 c7bf 120c eeaa 7ec4 c6bf
00000110: f99d 79bd 37cb cebf 1bdb 31e3 99ba 69be
00000120: f192 d244 d0fe c7bf 2cf0 02f6 26ca c8bf
00000130: 8afb 2c17 63d0 c9bf 1fee 8ac0 65dc 6e3e
00000140: 216b 8b95 7d5e cdbf 4bcb 47a9 3f6f cfbf
00000150: 8c13 c5cc 44d1 d0bf 2e74 0f8d 0872 c6bf
00000160: e832 148e c063 c6bf 27de dc45 577b c9bf
00000170: fa4b fe8f 2c41 cabf 8c98 2c20 3177 d0bf
00000180: 63c7 97a6 66bf c6bf fec8 e281 3abe cebf
00000190: f721 87b3 117c c6bf ef96 8689 5f70 d0bf
000001a0: e6f9 471b 032f c6bf db3c 344c be08 cdbf
000001b0: bd72 74a8 49ff cdbf b5b8 8b89 32d4 cebf
000001c0: e82d 8904 7aec cbbf 8382 b730 c4c1 c6bf
000001d0: f998 d62e 9ea8 ccbf d632 12eb 0853 c9bf
000001e0: 5897 e46e 7493 7abe d008 742b 872e 3f3e
000001f0: 0492 747e 034b 63be 6899 b617 7184 48be
00000200: b8d3 7381 6e4d 80be 1083 e1d3 9a52 81be
00000210: 8adf c204 a550 6fbe d914 82bb 2d49 7b3e
00000220: 7047 8ff0 54ad 3e3e 0853 a859 2ddb 803e
00000230: 447c ba7e c5f5 643e b26d a653 eec9 63be
00000240: 642e 9f53 9152 69be 005e 9326 c32c 273e
00000250: bbd1 6c55 9a55 703e cc18 bd5c 0666 793e
00000260: b099 8b5b 5f21 38be 2c5b 2f3e 165f 7bbe
00000270: 3824 71ca 0f8f 813e 7213 5a8d c976 56be
00000280: 8b15 6881 2314 cdbf 5a1f e60e b402 6cbe
00000290: 1cd3 0617 8d9a 50be 9cc8 4687 f1a3 853e
000002a0: 5db3 b847 e891 cdbf c401 d1f6 a226 d2bf
000002b0: 7a9d 0859 a180 d2bf ac60 7798 9e25 73be
000002c0: b314 c2d6 1dba c6bf 6bb5 6c19 3650 c9bf
000002d0: 71c5 3e5e 5fb4 c6bf be44 2a45 ff09 643e
000002e0: ecc6 73d7 1465 cdbf 8789 3160 7a6a d0bf
000002f0: 80fe 4613 1a36 c9bf c862 b458 e93a 66be
00000300: 6b2e 1351 7867 c7bf 22a0 520e 6a6c c7bf
00000310: f71c 43f3 cb0d cfbf 1da4 c90d 2827 d2bf
00000320: 5beb 1cad 7ed1 c7bf 5034 603b c360 d0bf
00000330: 3075 9fe8 588d cfbf abd2 ebdd 10e3 d0bf
00000340: 3482 73d6 f1d8 c6bf 0e2c 873c b47e cfbf
00000350: 7b2f 2285 8f68 c9bf 5338 12c6 1685 d0bf
00000360: f42b a97a 6ce3 c7bf 3c92 7220 c861 cfbf
00000370: 59a0 27be 910b c9bf 6652 7f4c 1a2d cebf
00000380: c4af 6cf1 cc00 c7bf 6abf c140 5d74 cabf
00000390: 4e35 b66c 5f8b c9bf 11de fa49 0ea4 d0bf
000003a0: 5cb4 5a64 54a4 d0bf ec17 3d00 cb1d cebf
000003b0: a220 a837 c466 cebf de85 2983 9292 cabf
000003c0: 19df ace4 c059 67be 2078 59d4 1dbd 793e
000003d0: f065 eb51 ee2a 30be 82fa 9bed 1b8b 623e
000003e0: 4008 ca24 f16a 433e 5a4b 7bc1 2fb3 7b3e
000003f0: d097 e7b7 0c83 5f3e e40a 61d0 702f 843e
00000400: 6ca6 0cc4 745b 6abe 01e8 542c fbb3 763e
00000410: 9252 9f48 36d4 693e f8af f352 564d 673e
00000420: fdde b96e 3cdb 66be e30b 3b12 8fa7 7a3e
00000430: fda5 3dc5 3453 6ebe 4f3d b212 597b 6c3e
00000440: d003 108f 85fa 33be 16a5 e6b0 4db4 6c3e
00000450: 26a2 1aef 1f22 65be 578f ac62 d05d 87be
00000460: 8ab1 7a2a 98c1 733e b82f 65bc 1581 5b3e
00000470: b7aa 1eb1 ac44 733e 0012 c6b7 f842 85be
00000480: e4e7 afee 3c35 613e 0e0d b330 3a66 7e3e
00000490: e8be a97b 9a97 7c3e c5cc 3c46 514d 7abe
000004a0: 6b36 d5c8 e5c8 d0bf e0bd 719f 2925 4e3e
000004b0: 8607 62b3 ad06 6b3e 13f4 a0c9 1395 73be
000004c0: 6473 96ae 4714 dbbf c19a fa0f 436d cebf
000004d0: 1574 fb56 6b70 cfbf 9ed0 3ee5 aed5 633e
000004e0: f7f3 88ac 3d24 d8bf 8dcd 77ce 621e d9bf
000004f0: 1c72 3d34 5e65 d6bf 3a65 83ef 6f0b 823e
00000500: bc30 5afd c0f5 d0bf ebd3 7ed4 4fd3 d6bf
00000510: 4f12 672f 606c cfbf 0bfc 08a3 6b1f 6bbe
00000520: 6b17 a7da 5242 d9bf 42ad 78da 4c8c d7bf
00000530: 4834 73e6 8542 cbbf 6a73 2199 5313 6bbe
00000540: a483 5038 834d d2bf fc64 206f 672b d8bf
00000550: edbd 8c40 493d d5bf 5079 2182 7f2e d0bf
00000560: 3762 1da2 57be d3bf ebf7 2b39 ddcc d6bf
00000570: 6bb1 362b 6e4e d1bf 44ea 5906 2b43 d7bf
00000580: 9088 5e68 ca81 d7bf 58e4 63c9 8d65 d5bf
00000590: 9b1c fe57 24d6 d0bf 4503 b98b 28f7 d9bf
000005a0: 4af8 9c03 b8e5 55be a4db 33a3 4378 79be
000005b0: 723d 3684 b01d 80be 0b31 ee34 d9ea 663e
000005c0: 885e 3aa2 09bb 6abe 0c24 5b47 3d44 803e
000005d0: 245e 5ddf 4ca7 82be 48d9 224e 225f 5a3e
000005e0: 5061 8c4b f9f3 3d3e 103a 8dab 8088 463e
000005f0: 4095 3a2e cc98 72be 80ee a8b7 ffb2 03be
00000600: 8cde f2b4 ba7e 7f3e 34e7 068d 25ff 513e
00000610: 60ec 6ade f57f 873e cc8c 5ae9 db9c 643e
00000620: a407 8a54 4a60 62be 52a5 5c30 d2f5 80be
00000630: fc5a 3b05 6c68 7ebe 853c 1a9b 0ed1 7c3e
00000640: 4c28 98f9 9841 72be 988b db65 890d 693e
00000650: 8074 6629 496d 303e 9663 38a1 8329 7b3e
00000660: a70d 176a 0337 81be 9349 0e54 e212 763e
00000670: 25b4 f4ac a297 83be e426 7c83 4429 513e
00000680: d5fc f2ec 1b21 82be 2c3a fd21 6803 64be
00000690: adc7 b9c5 81d8 79be f81a 5b63 c049 87be
000006a0: 9fa3 efcc 0843 6bbe 4b1e 9fa5 f042 62be
000006b0: 405b 13a9 b200 6f3e cb45 24cb e262 74be
000006c0: 24c5 ec4d 3cc6 c4bf 75a1 2aa1 d820 7c3e
000006d0: dc47 67f0 5156 82be f10b c7b9 23e9 75be
000006e0: 18aa 88d6 39dd c2bf a130 99d3 109d c3bf
000006f0: 6516 dcdc a10b c2bf 1019 f021 0c13 62be
00000700: 6ed1 ebed b583 c0bf cb61 c326 9165 c1bf
00000710: 05b3 8aca a87a c0bf 566c 3dd4 6de8 653e
00000720: 03a8 dd92 8c34 d0bf 60ff 5499 053f c3bf
00000730: 0866 464b aff8 c2bf b5d5 03ac 4fd6 82be
00000740: 44f0 0dfd b9a7 cebf de3e 61a5 13e8 cebf
00000750: 5d5c ba73 5b3b c0bf 56a9 c264 93f1 74be
00000760: dba8 1cbf 583a cebf 0e55 85a2 136e bbbf
00000770: 027d cb15 89a3 bebf 6f22 4f99 5af9 c8bf
00000780: 77d0 323c a4da 7b3e 261e 2567 3c31 723e
00000790: 343d f233 e272 803e cbd1 5332 c7cc 83be
000007a0: 530b 7dd7 62ea 62be 3e48 2e22 985f 803e
000007b0: 6a9a f0fd 95e9 5f3e 89cf c52e d08c 78be
000007c0: d485 5a5d 8ab9 6dbe 8842 50a3 d7e9 4abe
000007d0: e404 cfd3 3720 54be fd69 b08b b4b9 60be
000007e0: e138 4f5b 5895 85be 455e 6a18 3a9c 70be
000007f0: a53d f1d5 705e 763e 2f05 78cd 705f 633e

bias f8 [120]
-0.2145219409617064 -0.20606652034750075 -0.36240528715579484 -0.19081711702373294 -0.22126526158571297 -0.2848259218009246 -0.14236104903290314 -0.27892084485472945
-0.2090533183553171 -0.23786850507378252 -0.3489372752608984 -0.25792551582889 -0.23179310731040642 -0.2434099296382688 -0.38292479579377875 -0.11838586455393518
-0.3538612888287417 -0.22132618895891548 -0.2718189338830688 -0.2582509415359913 -0.25904243139090694 -0.1637582840518844 -0.21637213289134186 -0.37063644186276135
-0.2514617368971473 -0.17034016287312356 -0.18774541898938818 -0.2722607938777887 -0.41808581795344996 -0.2472168012260599 -0.11803118057164717 -0.3178786307059914
-0.1882692851504539 -0.07610145779345409 -0.12298393140181202 -0.23895828088596172 -0.24446742864477244 -0.2112821117272073 -0.1238940209383989 -0.0999051521336656
-0.22599715410918422 -0.24304786442780038 -0.12968062322654053 -0.2287230905237256 -0.20184926330488387 -0.2596799689978027 -0.36258224451827514 -0.28084739758257005
-0.31499962625460354 -0.22238073457791988 -0.16329173027250687 -0.26648281223903736 -0.29342824947996965 -0.12151764180710412 -0.3470334305836867 -0.24207738100553666
-0.13952172582282188 -0.2304672133884174 -0.3108643046296011 -0.3102921442833041 -0.20075226993547093 -0.2221011183801423 -0.17850314628900305 -0.10451086696834677
-0.12710201645219724 -0.29368264516988424 -0.2711824130302658 -0.23312863296905795 -0.28979289353926796 -0.3563217843993342 -0.17793484166905327 -0.11814552172764434
-0.3504906448287232 -0.19631849236104948 -0.18747089966773958 -0.16521384520281046 -0.16958033008205145 -0.23696899133072455 -0.1698464231923038 -0.2035412980591824
-0.18363543017535727 -0.2992721410408501 -0.11576802979247545 -0.19102295336124483 -0.3723624219692206 -0.24264804513032467 -0.26718014308595617 -0.24089008017298122
-0.14291783418964696 -0.2620277661547545 -0.1918105180461394 -0.2703441591600461 -0.1954892680795429 -0.05145111744071348 -0.3736765574283245 -0.3181443591859185
-0.40680954728547986 -0.26835879062002443 -0.22730084088743738 -0.34057527504453294 -0.22513068819479612 -0.008276908490761459 -0.4413615180688379 -0.28585145828139846
-0.17846856781631917 -0.24212857841138707 -0.31520777952406875 -0.23328668413198989 -0.23994930024084538 -0.1872361458989116 -0.17170648883841896 -0.21049214588430923
-0.22858238111563864 -0.2539576344574478 -0.17955118821658264 -0.21524373823027682 -0.1965940916765875 -0.2795904879661346 -0.22193396272716143 -0.33470336577852455
00000000: 843c 5a78 7475 cbbf 59b5 d842 6360 cabf
00000010: fdd2 0ef2 a531 d7bf e024 91fe b16c c8bf
00000020: e231 208b 6b52 ccbf 9808 cc80 963a d2bf
00000030: 7c08 e908 e338 c2bf 5eb8 b4d0 d6d9 d1bf
00000040: 1e6a ba56 42c2 cabf bf28 05a5 7972 cebf
00000050: 4975 6602 fd54 d6bf 307f d205 da81 d0bf
00000060: 9e0f ab83 65ab cdbf 10b5 a87b 0e28 cfbf
00000070: a5c0 b000 d781 d8bf c85d 9138 894e bebf
00000080: 32c0 b5d1 a9a5 d6bf 7ed6 a9a3 6a54 ccbf
00000090: 0987 dd3d 7b65 d1bf 09bb 03f5 2e87 d0bf
000000a0: cf6a c6b4 2694 d0bf 93d8 390d 08f6 c4bf
000000b0: b55c 4401 15b2 cbbf 4a68 20e9 81b8 d7bf
000000c0: 69ca 0af8 f217 d0bf e720 5eda b4cd c5bf
000000d0: 3241 44b9 0a08 c8bf d209 6c89 b86c d1bf
000000e0: b903 c204 ebc1 dabf 0bd2 24d6 cca4 cfbf
000000f0: 9fa7 769c 4a37 bebf 0ab0 be9c 1f58 d4bf
00000100: efff 473b 3519 c8bf 769b 6698 627b b3bf
00000110: f4e5 4dfb df7b bfbf 3cbd c158 2f96 cebf
00000120: a4b6 7b6d b54a cfbf f290 0cd0 4a0b cbbf
00000130: 5bb1 19c0 84b7 bfbf 12b2 1d51 6293 b9bf
00000140: 95aa f188 79ed ccbf e53e 8a42 311c cfbf
00000150: ed68 d7e9 5f99 c0bf 77d9 d158 cc46 cdbf
00000160: a1de 4e58 32d6 c9bf 1966 91bb 989e d0bf
00000170: b83d 9428 8c34 d7bf 902a f25c 67f9 d1bf
00000180: f801 4131 f428 d4bf 49e5 22cf f876 ccbf
00000190: 4c24 9d50 bee6 c4bf 4ad1 e0ec 0d0e d1bf
000001a0: c14b cf47 87c7 d2bf 78d4 72b9 c71b bfbf
000001b0: 9170 beb4 cb35 d6bf 0493 4241 64fc cebf
000001c0: a9c8 be10 d9db c1bf 4ad9 261c f37f cdbf
000001d0: cf2f 7865 33e5 d3bf a2c2 f994 d3db d3bf
000001e0: 013d fc18 40b2 c9bf 9a82 ec37 cf6d ccbf
000001f0: faad c5eb 30d9 c6bf e0a5 b463 39c1 babf
00000200: d17b f5fd e044 c0bf 4113 1a4b b2cb d2bf
00000210: 64c8 cd7a 0d5b d1bf 5480 2eb7 28d7 cdbf
00000220: c451 177e f78b d2bf 7f3d b6e2 f9cd d6bf
00000230: 84cd e4a2 91c6 c6bf fe34 fdef c83e bebf
00000240: ebf8 4550 706e d6bf c036 25e0 f620 c9bf
00000250: 5d27 83e3 0bff c7bf 8009 ff2e ba25 c5bf
00000260: 65a7 dfe9 ceb4 c5bf ab3d f7f9 ff54 cebf
00000270: f80c 7a10 87bd c5bf 8758 4629 a40d cabf
00000280: feb9 7ea3 5d81 c7bf 5cf5 9756 4627 d3bf
00000290: 8f8b e13d f9a2 bdbf 8f66 bcac 7073 c8bf
000002a0: 757f 2732 c9d4 d7bf 2cf4 2255 170f cfbf
000002b0: 5077 2cbe 7a19 d1bf f90a 2374 7cd5 cebf
000002c0: 230a eeaf 214b c2bf afd4 911b 10c5 d0bf
000002d0: fabb 043f 3f8d c8bf f772 9096 514d d1bf
000002e0: 4370 8fd6 ca05 c9bf 1b44 8005 cd57 aabf
000002f0: f0ef 5b14 51ea d7bf bf10 8728 7a5c d4bf
00000300: 3dab 52e9 2a09 dabf cca7 5359 ca2c d1bf
00000310: fb7f fba6 3118 cdbf 4b1e 093d fccb d5bf
00000320: 19b2 8f17 15d1 ccbf 800a 3dda 7bf3 80bf
00000330: 7b63 7461 443f dcbf ec47 35ea 634b d2bf
00000340: 4949 11db 0ed8 c6bf b618 daba 11fe cebf
00000350: b60a 2040 5d2c d4bf 0237 788b 56dc cdbf
00000360: 14c3 9d9e a8b6 cebf 91e8 a1a1 5af7 c7bf
00000370: 3f37 096d 7afa c5bf f9a8 5119 68f1 cabf
00000380: 57af aafd 2f42 cdbf da1c a485 d740 d0bf
00000390: 9b90 ac88 88fb c6bf da14 2f58 1b8d cbbf
000003a0: 053c 2bc5 fe29 c9bf 2c95 8580 cfe4 d1bf
000003b0: ae75 e403 5568 ccbf 1850 78aa c76b d5bf

weight f8 [120, 120]
4.940052345195555e-08 -5.509529873024195e-08 -0.011805872703939577 -0.24834488191848117 3.8045538956171766e-08 -1.0529925443996025e-08 -8.666218465563361e-08 -3.808871500120621e-08
5.587045740136953e-09 5.4077619245865816e-08 -6.788144025615145e-08 -3.4071843177590566e-06 -1.0276931416297798e-07 -7.550437283645235e-08 -0.17970458256684135 9.566004215949465e-08
-1.5669071834516173e-06 -6.37072204664003e-08 -0.015476915736809885 7.928781548572398e-08 -0.10197635862555139 -0.09104439231235555 -1.594997916442263e-08 1.2446719100692794e-08
-5.468406941952639e-08 -0.16638421060762174 -2.198915649075808e-08 -8.631871231283463e-08 -1.2117127168530876e-08 -3.366759373625773e-08 6.725648627609773e-08 3.586963544106263e-08
1.8100288778171148e-05 -7.110447433167482e-08 -0.18270054134411418 7.875686817046283e-09 -5.436519315304187e-08 -1.0909263256931162e-08 -0.22614546709778377 -0.06883313812538012
1.976452155308183e-08 6.683535514973856e-08 8.253226677596753e-08 -0.12637998038382184 3.6853660322688455e-09 6.412253543825813e-08 -0.11550661992605717 -0.06352100175714975
-0.16819256731647805 -3.252659155721007e-08 2.732474087609825e-06 6.117868874447982e-08 1.303451836381165e-06 4.4225983001170235e-08 -0.21412126508792773 -1.1322574857153789e-07
-7.684099725513472e-08 -5.1993918816055916e-08 5.406601693518655e-08 -4.065107326597081e-08 -0.14885757049941234 3.835489155164546e-09 3.613712592450426e-08 -0.038037763678655044
-5.707624883606775e-08 -0.11616662461876984 5.9512976451552395e-08 -9.420382859814581e-08 6.651685054740253e-08 -0.23289369793393128 8.252450025689098e-08 -1.1223091241729317e-07
-8.088519857760195e-08 1.4255066987118769e-08 -4.72431191281555e-08 -0.002074435784581133 -0.1290747191681326 4.0853949920923314e-08 -0.20513109290957013 -0.11961241208473278
-5.59872600877195e-08 -6.714528977105802e-08 -0.03757057286517343 -3.867428170821521e-08 -0.159844608049302 -4.795287371268699e-08 1.1601780535619355e-08 7.23661211884227e-08
-0.07628699409207848 3.546667749391452e-08 -4.5965517731596813e-08 -1.149447780482752e-07 2.8132055900832077e-08 -0.1661018110952901 1.4801049746175299e-08 -4.102835006429502e-08
3.670218212483637e-08 -6.425694531382199e-08 8.460391808963308e-08 -0.04988249411579267 1.0887601445277095e-07 -0.07451157772620588 -0.207269901519862 -0.001136418029483147
1.1459842373612015e-07 1.2932314513264393e-08 6.315792756752376e-08 5.6848914026398365e-08 3.8439999215315817e-08 -0.1093467246273508 -6.626560371102069e-08 -0.12906918653260693
-0.10028058564894267 5.0550739781164866e-08 8.060249140111175e-08 -8.65402749671293e-09 -0.1288680378681752 9.573580622907671e-08 -8.420890104323581e-08 8.967897453125968e-09
4.2405747562031174e-08 -3.162445791115612e-08 -0.12791954031366573 -0.20637809389894848 -8.904687165513721e-08 -9.431698379930823e-08 2.081621899727655e-08 -2.5350627676594867e-08
-3.0187634990399336e-08 6.469824270408057e-08 -3.625918102171071e-08 -0.007907983391439019 2.935609765018199e-08 -1.0924160070373969e-07 -0.24993687177430254 -1.1934209235703627e-07
-0.0002797038033741807 -9.479742957333193e-08 -0.08268161431284325 -5.417035429734372e-08 -0.26127439919996787 -0.20101202188518222 -5.993846761363105e-08 -5.439824181010872e-08
6.028186691167826e-08 -0.28250352521598654 -7.422878336519606e-08 4.189436552107559e-08 1.5316594575485818e-08 -8.497839106801222e-08 -5.606403526995512e-08 -5.5092388410456734e-08
-0.0337916693168576 1.1487726081741621e-07 -0.27739418387776776 5.862034250077684e-08 -3.6016500608906956e-08 -2.3434802350629984e-08 -0.3019190626473847 -0.18866578185423083
1.8942430060915747e-08 5.1594526601219547e-08 4.0656635089257656e-08 -0.3127339646835318 -5.3049861188648446e-08 9.235432599130266e-08 -0.2523838298941659 -0.2242589112128674
-0.22542592155912142 4.9701980439318784e-08 -0.004508154816617615 4.1849793977878684e-08 -0.005126933293997658 -6.283752580283753e-08 -0.1872006215673842 -4.6883588692091867e-08
3.0519972245149575e-08 1.2493605666835915e-08 8.182884325480106e-08 2.8607889948331015e-08 -0.3029735433539021 -2.1337512484196556e-08 6.202180546588393e-08 -0.11619329652585614
1.0698862572508468e-08 -0.22452134088479103 4.3370319934389404e-08 3.051942417560741e-08 -5.914776027053925e-08 -0.21517417817401893 2.9101654093305947e-08 -1.0515246261473511e-07
-1.0578613341058403e-07 3.595380371003741e-08 -6.072493536647382e-08 -0.06350270303353192 -0.29645807943010644 9.458711233090987e-08 -0.24595981912876994 -0.23572332579893013
5.201192263418366e-08 8.662325285371661e-08 -0.12082299637110026 -1.651121395561492e-08 -0.28408576174457256 -6.604772315639064e-08 4.563223093153553e-08 8.023406209948177e-08
-0.15191485778666491 6.150142104125237e-08 -8.809672175357866e-08 -1.299034646867488e-08 2.0806617071095826e-08 -0.27226888349930495 1.5246523116339136e-08 -7.10467438798508e-08
4.5072813860217445e-08 -5.9026311884740345e-08 -8.738953677543206e-08 -0.14526540909854083 2.7671543813966655e-09 -0.14000584777700456 -0.31868998135324156 -0.06936689096092714
5.275426548060507e-08 6.39747778523432e-08 -6.616361901044569e-09 -4.753865902098758e-08 -8.306072941729418e-08 -0.17870842847760482 1.6390914478881244e-08 -0.18251916415022076
-0.14123619905879986 -4.049012468134133e-08 -6.744423592506738e-08 7.220641654763232e-08 -0.18861448409158393 4.607819820782577e-08 -7.674316785313799e-08 -5.093891766755728e-08
2.996907797215976e-08 7.245968366544477e-08 -9.883182974339867e-08 1.3187387334232754e-08 5.0001052595935684e-08 3.182799526060355e-08 0.2741026018925911 5.1566678918212604e-08
2.4523909232357975e-08 -5.1179940619615804e-08 0.20203693634260078 7.955820257966387e-08 0.21482491410550117 -6.303767537888452e-08 0.22284051502239435 -4.963629815794702e-08
00000000: 5830 0566 8e85 6a3e 23ab a97d 3d94 6dbe
00000010: e532 5069 ad2d 88bf 8d03 fcdc c3c9 cfbf
00000020: 1edb 2166 f06c 643e 8c51 7242 e39c 46be
00000030: 84b0 8546 6143 77be cf76 5f85 df72 64be
00000040: 606a d091 05ff 373e e6ff c413 5f08 6d3e
00000050: 7e00 0bed c638 72be 00bd 3e63 df94 ccbe
00000060: bf31 f8e4 4096 7bbe beff 5ef9 9e44 74be
00000070: ea6f 884c 8f00 c7bf 6c47 3942 b5ad 793e
00000080: 0c45 f8aa d049 babe 3e71 5a46 ed19 71be
00000090: c8da 7577 5cb2 8fbf 7cca 4600 9e48 753e
000000a0: 950c 4365 1f1b babf 1b3c 776f af4e b7bf
000000b0: a8c6 e200 4c20 51be 88ea 07fc a7ba 4a3e
000000c0: 0c5f 52a5 b85b 6dbe 9bb4 90eb 134c c5bf
000000d0: de70 e953 559c 57be 5a70 9bd8 c62b 77be
000000e0: b03d 350b 7605 4abe f0cb 3525 3d13 62be
000000f0: 2302 889e d40d 723e 6ad1 9c99 e241 633e
00000100: 82ab a45f c2fa f23e e3c0 1a24 4316 73be
00000110: 6469 0439 bb62 c7bf d85e b761 b4e9 403e
00000120: 687e 402f e52f 6dbe 88aa 824f 6e6d 47be
00000130: 8e6c a9ac 55f2 ccbf bd2a 216d 0c9f b1bf
00000140: 1641 9b8f d438 553e 682b 8c00 e4f0 713e
00000150: 51f6 e5fd 9227 763e b50e 4f1d 382d c0bf
00000160: 6069 dea2 34a8 2f3e b4ae b492 7736 713e
00000170: 89cd 0d83 d791 bdbf 44f7 2791 e942 b0bf
00000180: 8dfb 0684 5587 c5bf f4bd 3bb3 6b76 61be
00000190: ba12 1684 f1eb c63e df28 d5df 2a6c 703e
000001a0: 16f2 4973 48de b53e 20da 2071 5fbe 673e
000001b0: 5424 775b 5368 cbbf 8255 136f d064 7ebe
000001c0: 6ae1 9a1e 79a0 74be 7ba0 cf62 fde9 6bbe
000001d0: 7307 72db c606 6d3e 5b5f d37c 0ad3 65be
000001e0: 764b 87ce c30d c3bf 10cf 7a38 2a79 303e
000001f0: d517 b215 a666 633e bb8d 068e af79 a3bf
00000200: bec9 faf9 7fa4 6ebe c2d3 9f8d 18bd bdbf
00000210: b04f 24b5 66f3 6f3e 8c19 5f47 a349 79be
00000220: f2d1 56cf 00db 713e ee0d 09f0 75cf cdbf
00000230: 561a 9b5c 0a27 763e 7f8b 5717 7320 7ebe
00000240: 2f83 2c76 63b6 75be a07b f852 ce9c 4e3e
00000250: 6b1b 677b 0b5d 69be 3a17 473b 68fe 60bf
00000260: 4ba4 c838 8585 c0bf 68ed 4793 ecee 653e
00000270: 553c b853 bc41 cabf 8c7f 1946 eb9e bebf
00000280: 004c 5697 d40e 6ebe 671c fe6d 3006 72be
00000290: 64ed 7e3b 733c a3bf c43f 6151 5ac3 64be
000002a0: 9cc0 01c2 c975 c4bf 3e1b 5ec0 97be 69be
000002b0: 24f5 f973 25ea 483e 231e 6b44 f66c 733e
000002c0: be51 bc60 8b87 b3bf 2461 17c7 800a 633e
000002d0: 654a 0ee1 73ad 68be 161e 96eb f1da 7ebe
000002e0: 287c e371 e134 5e3e 48f6 3afb d242 c5bf
000002f0: 40f8 f890 f6c8 4f3e af53 1fbc e406 66be
00000300: 1671 7b3b 4fb4 633e cba6 f822 b43f 71be
00000310: c288 fbdd efb5 763e 5a90 bdc1 328a a9bf
00000320: 4a7c 1e1a e739 7d3e 09e6 81d5 3013 b3bf
00000330: 8f89 3cf4 d187 cabf a895 5b91 7b9e 52bf
00000340: b06b 6fca 24c3 7e3e 3874 9576 9dc5 4b3e
00000350: f0ff 0e03 2ef4 703e 3629 0d58 4185 6e3e
00000360: dcd0 483c 27a3 643e 15fe 329e 25fe bbbf
00000370: e830 2ed4 bcc9 71be 6d18 8acf 5685 c0bf
00000380: 1533 c90b fdab b9bf c6fa ae09 a423 6b3e
00000390: ef3a 3d06 f6a2 753e b85a 1318 9a95 42be
000003a0: 465e 1274 bf7e c0bf 6e60 421d eab2 793e
000003b0: 780e 5ca7 ca9a 76be 108b 065d 2742 433e
000003c0: e663 d699 33c4 663e af9c bab1 6efa 60be
000003d0: 7151 15e1 aa5f c0bf 0d12 f4ed 986a cabf
000003e0: 702c 0122 41e7 77be c8e0 17ed 6951 79be
000003f0: 4a43 7a30 eb59 563e cc82 6ed5 5338 5bbe
00000400: 984e 63fb f434 60be bace bb85 075e 713e
00000410: b9b9 4684 6c77 63be 6b2c 5990 0f32 80bf
00000420: f2ee c0b9 5785 5f3e 1604 3990 0653 7dbe
00000430: 03e7 2a71 eefd cfbf 0e9a 5525 9004 80be
00000440: 22a1 24b0 a654 32bf 268c 8004 6e72 79be
00000450: ff42 744d 9f2a b5bf b428 dbe6 1d15 6dbe
00000460: 6623 f641 b8b8 d0bf c5c2 0c0e c3ba c9bf
00000470: b0ef 68ac f016 70be f35a 17fb 6f34 6dbe
00000480: 6252 5cd1 892e 703e 02ac 73aa 8914 d2bf
00000490: 9c89 1a91 f6ec 73be 2237 e6f1 ea7d 663e
000004a0: 50b0 7d86 3172 503e a233 59aa abcf 76be
000004b0: 3689 b3e0 6119 6ebe 1f23 d517 d793 6dbe
000004c0: 5db1 2f45 244d a1bf 8bba 0225 4ed6 7e3e
000004d0: 87c2 f688 d3c0 d1bf f020 49f1 b778 6f3e
000004e0: 8c63 71f5 1156 63be 7402 899c b529 59be
000004f0: ed01 0755 a452 d3bf aa16 7849 3326 c8bf
00000500: bcf6 da03 db56 543e b01c 8d05 19b3 6b3e
00000510: 89b7 462d ced3 653e 0f82 aa51 d503 d4bf
00000520: 159a 290e 1e7b 6cbe 0ad8 1e7c 8aca 783e
00000530: a1d1 db81 0e27 d0bf 7677 bf18 84b4 ccbf
00000540: ef2f 62b0 c1da ccbf 3814 2cf9 fcae 6a3e
00000550: 99f7 0a98 2477 72bf c7ec 20b9 ca77 663e
00000560: 3e51 39ad faff 74bf 0761 ca71 29de 70be
00000570: e61d b6a1 30f6 c7bf 9e82 20a1 a12b 69be
00000580: c6df 420f a262 603e 18fc 9aae 6ed4 4a3e
00000590: 2690 fd3b 3cf7 753e 746d 0b4a adb7 5e3e
000005a0: 2187 1025 eb63 d3bf 9c63 17f5 35e9 56be
000005b0: fa28 fc23 1ba6 703e b4cd 9708 d8be bdbf
000005c0: 406d f50b c3f9 463e e857 2d84 1dbd ccbf
000005d0: b812 6479 c548 673e 408d b0c6 8e62 603e
000005e0: 6c78 3ace 34c1 6fbe 43bd 19d5 d38a cbbf
000005f0: 8e35 1fda 663f 5f3e 48e5 72af 053a 7cbe
00000600: 6c45 0257 9165 7cbe 5f6e fb01 744d 633e
00000610: 58de 495c fc4c 70be 1a93 bc90 b641 b0bf
00000620: c162 f24e 2bf9 d2bf 2ef8 d813 fa63 793e
00000630: d7e1 a481 9c7b cfbf 1efa 9a93 2e2c cebf
00000640: bfcb c9d6 76ec 6b3e db0b 4661 b440 773e
00000650: 1fc3 0482 41ee bebf 5c5f 1264 91ba 51be
00000660: a2f0 fc0b 762e d2bf 8852 65d5 c3ba 71be
00000670: 5c4e 7064 a57f 683e 2774 2c8c a489 753e
00000680: 1030 fc30 f271 c3bf 0257 e270 5882 703e
00000690: 1011 43eb f5a5 77be 283b 20bc 84e5 4bbe
000006a0: 948b 8d83 4757 563e cb44 9677 da6c d1bf
000006b0: 4c40 4daf ee5e 503e f85f 4389 4b12 73be
000006c0: 282c 69a7 c232 683e 8018 6bb8 83b0 6fbe
000006d0: ca06 42fd 5c75 77be d9bd a892 0e98 c2bf
000006e0: 0023 1c6e 09c5 273e 01ba b92c b6eb c1bf
000006f0: c466 dea9 6a65 d4bf 9535 1a50 07c2 b1bf
00000700: 10a8 b8b4 7d52 6c3e 8d69 b231 502c 713e
00000710: 909c df4f c46a 3cbe 0ef0 1ade a985 69be
00000720: 6d87 0dce e34b 76be e059 eaf3 eadf c6bf
00000730: e47e 5b11 8099 513e e58f 75b8 c95c c7bf
00000740: a204 fc1b 0714 c2bf 69a9 da9c ebbc 65be
00000750: b0c9 c78b bb1a 72be 705d a8b6 fc61 733e
00000760: 7ed5 5cf8 8424 c8bf 92ad 8e78 f0bc 683e
00000770: 2189 2516 c099 74be 1da6 40d5 fd58 6bbe
00000780: 48af c630 eb16 603e 98e6 5a3c 6473 733e
00000790: 93ce 9aef ab87 7abe 38bc 79c5 d751 4c3e
000007a0: 1eaa ada3 17d8 6a3e 04f3 3007 6816 613e
000007b0: d323 b8a3 e58a d13f 7eed eb37 45af 6b3e
000007c0: 300c ecb1 1455 5a3e 8cb6 0113 1e7a 6bbe
000007d0: ec76 16a9 58dc c93f 60f6 7db3 325b 753e
000007e0: 4f7d 39fe 617f cb3f d5bd 5883 eaeb 70be
000007f0: 855b 1fba 0986 cc3f aabf c6fb f5a5 6abe

bias f8 [120]
-0.24204991570262016 -0.23691591666181316 -0.2796775738225461 -0.36337591765671406 -0.2419774815973452 -0.28691138731695853 -0.19260150025243586 -0.204123420639496
-0.24759103787307815 -0.20049998675945882 -0.3092180204557281 -0.31064339713289746 -0.4652243966091241 -0.36270197323823755 -0.0050786496403131594 -0.10489369153556452
-0.2771949649736466 -0.004120268946514823 -0.2947019336575077 -0.062003051258481476 -0.39615371249539644 -0.4781408647219561 -0.29178355321512495 -0.6352332573601157
-0.24780176286584335 -0.44601185508346036 -0.23256192438745668 -0.09464220763748994 -0.35035089736108327 -0.5889096100256314 -0.13377663674988846 -0.28893742140558076
-0.4660338163615569 -0.2439449865275319 -0.39967967692135975 -0.1469670763708191 -0.3451893541654598 -0.23002885847235674 -0.19259681156388395 -0.24143393695854334
-0.2696668083427821 -0.2670204052795772 -0.5487263593090502 -0.6149415923818159 -0.32218863373813605 -0.12446953132380469 -0.3138603775842585 -0.14991961822386615
-0.5514333506993718 -0.06801864080880757 -0.28514580855173977 -0.3703090604405072 -0.14393100944193585 -0.2665730466002462 -0.3502393554204793 -0.29637212159627363
-0.288506915615082 -0.32717376345076055 -0.01375040875001465 -0.0021420781191701394 -0.47450959163712186 -0.5773734335796518 -0.19178005355654704 -0.25475200013982824
-0.46213090031809284 -0.23406217246505673 -0.221686535626871 -0.2783337112925053 -0.22801723452060702 -0.026077101212945347 -0.4917405939586112 -0.24375585216525858
-0.2697728458892259 -0.16422682503017821 -0.29031673278074543 -0.38387032005486 -0.2766389246350664 -0.188597612798081 -0.5305680212841238 -0.27792557654788735
-0.359905478901318 -0.2530773158412403 -0.3861750022022849 -0.2733923360354319 -0.25471719287717187 -0.24813613197124343 -0.2410590162662386 -0.2640509707189098
-0.08171085083648343 -0.26450743000023813 -0.4244790462940134 -0.2414168628544221 -0.42480890646679736 -0.2314273779591128 -0.2164714313937993 -0.25051573862757753
-0.43490730355052104 -0.24212838988180416 -0.24454738793010614 -0.18453721444792925 -0.22341538105379252 -0.6105045590219262 -0.32650309067611255 -0.2631585365547429
-0.25342182215145254 -0.22303318824003765 -0.3288851072325653 -0.3805237309435768 -0.06562411877045346 -0.2756154008955956 -0.2923812438676369 -0.26585389598988046
-0.4740890471940931 -0.2890124273417217 -0.4160807727801367 0.04083010482559692 -0.2628812342546222 -0.3827549542724872 -0.23572971006165716 -0.2276603917976821
00000000: a19d f8db 7dfb cebf ca6f fbc0 4253 cebf
00000010: 7c84 3fc4 3ce6 d1bf 3655 9f10 8d41 d7bf
00000020: f71d ea3c 1ef9 cebf ba15 5894 c15c d2bf
00000030: e553 5f7c 2aa7 c8bf ca44 ff5b b720 cabf
00000040: e949 3929 10b1 cfbf c17a fdca fba9 c9bf
00000050: ce3c 4c61 3aca d3bf 58dd d9d7 94e1 d3bf
00000060: 8d33 2f8c 3cc6 ddbf 792f 5056 8236 d7bf
00000070: a6cb cea1 59cd 74bf c2b3 b31e 50da babf
00000080: 125f 4bf3 8fbd d1bf 621e 0446 6ae0 70bf
00000090: 1120 c87f 65dc d2bf 5e95 d02a ddbe afbf
000000a0: 68d4 d619 955a d9bf 612a 3724 dc99 debf
000000b0: f074 a4ec 94ac d2bf 172f 36b2 d453 e4bf
000000c0: 6131 b3d9 f7b7 cfbf 5f8d cd4e 758b dcbf
000000d0: 5bfc c4d1 96c4 cdbf 8dcf 9fc2 783a b8bf
000000e0: 1691 922b 266c d6bf c386 6bf7 58d8 e2bf
000000f0: 5fa2 e7c3 971f c1bf 36c3 e161 f37d d2bf
00000100: d796 0680 7fd3 ddbf 2b57 94dd 9639 cfbf
00000110: 9032 5011 5a94 d9bf c1fa 4c31 d1cf c2bf
00000120: 4c5a c416 9517 d6bf b332 23ec 9571 cdbf
00000130: 6b89 7d27 03a7 c8bf fdd3 b0a7 4ee7 cebf
00000140: 6288 a992 3842 d1bf bb96 02c1 dc16 d1bf
00000150: bfef f594 2a8f e1bf ab5c 87fd 99ad e3bf
00000160: fb15 4313 bd9e d4bf 315a 6236 3cdd bfbf
00000170: b703 4fd6 4916 d4bf 9570 a6e8 9030 c3bf
00000180: 16ae e58d 57a5 e1bf 96cd ca6d ab69 b1bf
00000190: 888e 9434 d43f d2bf 2b49 00c6 24b3 d7bf
000001a0: 0d79 37d1 546c c2bf 3b29 4965 880f d1bf
000001b0: a565 5354 526a d6bf b5ef 6cc6 c2f7 d2bf
000001c0: 9a24 cfb5 e576 d2bf 2056 8839 6af0 d4bf
000001d0: fe82 1a9f 2c29 8cbf 443a f46e 438c 61bf
000001e0: 7110 6e7a 5d5e debf ffb8 d9d9 d779 e2bf
000001f0: b876 06b1 3f8c c8bf cc3b 4c55 db4d d0bf
00000200: 6b95 d57b 8d93 ddbf b2eb fbcf bff5 cdbf
00000210: c38f 3d72 3960 ccbf 180a d832 38d0 d1bf
00000220: 065e 9832 ab2f cdbf d84c 89a3 f4b3 9abf
00000230: 0fbe 4a8a ad78 dfbf 2213 a14a 6433 cfbf
00000240: 505b 9c53 f543 d1bf 32b5 5075 6205 c5bf
00000250: 8497 31a2 8c94 d2bf 729a a2d1 5491 d8bf
00000260: 0fed 86bf 73b4 d1bf 9524 8971 f723 c8bf
00000270: f3ff 76c9 69fa e0bf 0fb0 7f5b 88c9 d1bf
00000280: 7f12 62fd b008 d7bf 1d72 b932 6b32 d0bf
00000290: 6b75 3f5b 17b7 d8bf 42f3 8f91 427f d1bf
000002a0: 68ba 4857 494d d0bf 01df e2bd ecc2 cfbf
000002b0: 947c a297 05db cebf d0be ed0a 36e6 d0bf
000002c0: 0f2f 1298 00eb b4bf 209a 5992 b0ed d0bf
000002d0: 39e2 6a29 aa2a dbbf 0cd2 546d bfe6 cebf
000002e0: 42c3 14b2 1130 dbbf bbe0 dd8d 699f cdbf
000002f0: 0366 2dfb 55b5 cbbf 8b7a 222a 7308 d0bf
00000300: 47a0 6271 85d5 dbbf bbdc fc25 10fe cebf
00000310: 31b3 bd2c 544d cfbf 1c72 795a ea9e c7bf
00000320: 4b53 860d e098 ccbf c0db 61db 4089 e3bf
00000330: ffcb 1f38 6de5 d4bf 259d 0ae7 96d7 d0bf
00000340: 07ed 8e29 1038 d0bf faef b4fc 598c ccbf
00000350: fb23 ed1e 740c d5bf cd4a f034 805a d8bf
00000360: b6aa f203 becc b0bf 79b6 47c7 aea3 d1bf
00000370: ef04 18d2 5fb6 d2bf 319b 320f c003 d1bf
00000380: 9dc9 4596 7957 debf 527f e4fa 2d7f d2bf
00000390: 2f72 e53f 11a1 dabf 131d d6f9 aee7 a43f
000003a0: 12c4 f6cf 0bd3 d0bf 22de bea2 0e7f d8bf
000003b0: 5287 b421 642c cebf b2cb aec8 f923 cdbf

weight f8 [120, 120]
0.1784781105724089 0.08893903774895824 7.838567449532748e-08 0.19925045163049396 5.2949621129375583e-08 7.587206743396633e-08 -5.939928354403777e-08 -4.360708735551865e-08
-0.24848854206960472 -0.3604879639650121 -0.26470049438540544 3.4306435356893857e-09 0.1808760926177963 3.6020328493945992e-09 -0.22764178793394374 -0.2144223534085522
7.788116620019449e-09 -0.10240994864613635 -0.2583375503527761 -0.29143192456454076 0.26052211871445774 0.11202378932296814 4.7622298643036004e-08 -0.2938572592828871
5.609701402956432e-08 -0.11337567016706575 -2.3236587256386254e-08 1.1099310617908951e-07 7.451070588311593e-08 -5.867486447629562e-08 -0.2392760234059081 0.1950483555550397
-0.1620891018011094 -0.212815035702453 0.09088200167963784 0.2286677969104771 -0.22780348970502862 -0.20132562183550562 -0.05919632010071791 0.12465422158620731
1.1652775333460926e-08 -2.2435852370404235e-08 -0.2803496004608175 -0.3433875402421594 -0.4228442041946976 3.0811382346600495e-08 -1.4592330720072484e-09 -0.2645047741618757
-3.3470504808606354e-08 0.1091699351884884 -0.22656990191422408 -1.5427959528510146e-08 -7.775201000167824e-08 -9.703815577226308e-09 -0.4022500335658797 -0.22474445622801112
8.19994043215484e-08 -0.2678038980428942 0.10021762471568821 -0.24297035021556218 -0.278965230993349 -0.2801473677605154 7.198860181781757e-08 -4.742370195942771e-08
3.31607773179172e-07 5.264859632838189e-08 -0.2635297087023616 5.54355502008853e-08 9.874384967780667e-08 -0.315609484891242 0.09029087105822999 -2.0467171041529945e-08
-1.8717129390327333e-08 -0.257108572528914 -0.30667320412711757 0.12503170257214816 -0.21058151252619306 -0.30790890483479605 0.01886047942492562 -4.078363717883082e-08
-0.17379451761234943 -0.21552877346384383 -3.4015516558757946e-09 -0.25465971062727716 -5.9580868351937174e-08 0.13383838036286977 9.765243941687519e-08 -0.2406702572466055
-0.27715901068752563 -4.7902830418701714e-08 -0.2628045633010941 5.071363957097514e-08 -0.15570686271387368 4.573227591739072e-08 5.098401657176728e-09 -5.6954017080909e-08
-0.13251917883231124 -0.16266889066003812 9.074015895778393e-08 -2.5246054628804232e-05 -0.2302470088011403 -8.056867011457335e-08 -5.712523062114566e-08 -0.23097372726342572
-0.23394919764810848 -0.2479013521891977 -0.1514845094081716 -0.24115586300728237 5.095113240992728e-08 -4.29653466565008e-08 -2.70956366511818e-08 4.6735713794378845e-08
5.974913962017385e-08 -0.1829873222065015 4.962188056588351e-08 -0.38074455491796894 6.687127328866904e-09 -0.2872561671032772 -0.3057493870612816 0.18848877640509293
-0.1408821555547465 -0.06494051186210843 5.390424515772782e-08 -0.22228844105317844 -4.8554105834647204e-08 -4.832763302753261e-08 0.2675059054489185 9.968676497877634e-08
-5.405657787901353e-08 0.28012338367395656 6.27864366336007e-08 -1.0430598029437346e-07 -0.1326601294283589 -0.13728998785884639 0.2504327901986057 -0.6140663713657256
1.1708438398507853e-07 -0.10884706755861495 -0.004675170873534941 -5.9428783923335385e-08 -0.34813278894647587 -0.11057921219188524 -2.476859414137885e-08 5.410297282317533e-08
-5.334285902983725e-08 -6.127702097314042e-08 5.1140637353439666e-08 -3.675600392457041e-08 3.621861259874564e-08 -0.022305496097709925 2.8495096770197975e-09 -0.2273109564251649
-0.26779773222976905 1.0140304957489598e-08 -0.08277568639145043 -0.19412229281645366 -9.164206775035234e-09 2.247267499074597e-08 -0.08219603804069942 -0.07375869505019127
8.97244904418508e-09 6.065632703778596e-08 0.12582384390498952 -0.12407583355868312 0.2570993305298285 3.005635222010709e-08 -1.399434551629059e-08 -1.0137040393538847e-07
1.8827361926055576e-08 -0.13210442620876398 -9.724880119110391e-08 -0.11803357127084467 3.16160817122809e-08 4.036884990052652e-08 -0.2698256468522883 -0.13915144664895085
-6.256540079564932e-08 -0.28227540423493247 -0.10496418072751862 1.3770995717936172e-08 6.826988676012036e-08 -0.6237288940558126 -0.16391571877189406 1.7485952074533288e-08
4.35891613951043e-07 4.034634351666136e-08 6.050408387302072e-09 -5.174980024790522e-08 -1.59054597933083e-08 0.28461886607408043 -0.07860226244936563 -3.6471874058762934e-08
-9.200710398296034e-08 4.26383451008068e-08 -4.556592482650105e-08 -0.11781109279518914 -0.2548585358509164 5.12605703587191e-08 -0.020808768917023653 -5.317134224719728e-08
-0.08899543252277142 3.2610897136783205e-08 1.0197833633469341e-07 1.7583137057194815e-08 5.490218486093531e-08 -0.13131415127201163 -4.7155156305944804e-08 1.1116346420547302e-08
-1.0412393216310687e-07 -3.61026372084936e-08 -0.26524408737252786 -8.457738139688818e-08 -0.21736720213950095 9.395677078663766e-08 4.336170388275968e-08 6.764748194560734e-08
-0.14824402939071354 -0.16498276975576798 -3.6377352200775245e-08 2.965295919015222e-05 0.26115612141174666 -1.1267740291850703e-07 -0.04374063155364064 5.491497903808759e-08
6.845355304898245e-08 -6.103598993142192e-08 8.573407974962018e-08 -0.2164194297923574 6.0304060032485025e-09 8.972095344152921e-08 1.751910535462278e-08 1.3290599594839876e-08
-0.28258075848709185 -0.1894013491962866 0.058277006219442505 -0.2660553452161342 -5.209529727910833e-08 -0.2219468650134174 2.3393076440617613e-08 -0.18461918960644577
-0.14798699211781602 -0.12554302910768567 2.2524016939900656e-08 -0.23655342080348152 -2.2632197567473628e-08 -0.28247650133739466 -0.23216475265070155 -1.0225732780088184e-07
3.471620449391557e-08 -1.0195322454726034e-07 7.882436890028125e-08 -0.28507733743998565 -0.21906476722212848 3.9420787573251326e-08 -1.1252809625111172e-07 -0.3832905404511251
00000000: 57ed fae7 5ed8 c63f 2d30 7872 b5c4 b63f
00000010: 88c6 725e 9f0a 753e 7dac bbee 0981 c93f
00000020: 34af f92b 576d 6c3e c299 9f86 e35d 743e
00000030: 4e52 787e c6e3 6fbe c0e4 bafc 4f69 67be
00000040: 6d51 cff8 78ce cfbf e534 f51b 3c12 d7bf
00000050: c8b3 a757 daf0 d0bf f0f9 5d9e 1078 2d3e
00000060: 56fa 35a3 f226 c73f 00c1 8b39 f4f0 2e3e
00000070: 748b 30b9 5d23 cdbf 24e6 b511 3172 cbbf
00000080: f0d9 dcf8 8fb9 403e b55e 38d4 8937 babf
00000090: e502 8638 9a88 d0bf 71f6 4016 d2a6 d2bf
000000a0: b0d8 f0f6 64ac d03f e421 844f 97ad bc3f
000000b0: 3abb d8ac 2891 693e f6fa 93ad 8ece d2bf
000000c0: 5ad5 f536 ea1d 6e3e d995 871b 3006 bdbf
000000d0: 983e d676 39f3 58be c0fb a05f 63cb 7d3e
000000e0: 8c14 4033 5600 743e 283a 9543 3680 6fbe
000000f0: 2e66 9fc3 98a0 cebf 46ad 1f32 58f7 c83f
00000100: 350b a3ef 55bf c4bf b134 38e9 853d cbbf
00000110: dc51 02f9 0a44 b73f c77e b082 fc44 cd3f
00000120: 8c50 192d aa28 cdbf a4af d0b8 09c5 c9bf
00000130: 3994 c0e5 fa4e aebf a866 05cd 56e9 bf3f
00000140: 0465 3255 2e06 493e 1c18 80c1 1e17 58be
00000150: 9541 5b73 3ff1 d1bf d169 ccbb 0ffa d5bf
00000160: 9870 1423 e10f dbbf 751e 1c24 af8a 603e
00000170: c0d7 3c61 c611 19be d24f aa6e a5ed d0bf
00000180: 3ec7 f7b1 26f8 61be 994b 5795 8ff2 bb3f
00000190: eb60 7d17 3e00 cdbf 6c7e 2223 ce90 50be
000001a0: 6c57 45d3 13df 74be f0c8 bda1 bad6 44be
000001b0: 25be beec 76be d9bf 3d72 ba24 6dc4 ccbf
000001c0: c843 bfc6 f402 763e a279 f5f5 b223 d1bf
000001d0: 9afd a2bc dca7 b93f a668 0906 a719 cfbf
000001e0: ec99 f5fb 90da d1bf aae1 a539 efed d1bf
000001f0: 6857 52e0 0453 733e 1e2e f22c dd75 69be
00000200: a643 ee68 fa40 963e 90b6 9ccd f743 6c3e
00000210: ccaa 19b6 abdd d0bf 4ca0 7406 01c3 6d3e
00000220: 8d35 9d2c a081 7a3e 1f94 fa1f f232 d4bf
00000230: 218c 5272 4d1d b73f 4efc 801f f9f9 55be
00000240: 0a78 cae3 ec18 54be 851b a283 7774 d0bf
00000250: ab45 92a5 88a0 d3bf 895a c1f0 0901 c03f
00000260: 749a b8c2 55f4 cabf 7468 1a8d c7b4 d3bf
00000270: fb8a 4459 2950 933f 601d 67aa 42e5 65be
00000280: e03f af14 e63e c6bf d9e5 af64 7296 cbbf
00000290: 30e3 a258 1738 2dbe cf30 303e 584c d0bf
000002a0: 1d32 0471 bbfc 6fbe 58d7 4db5 9d21 c13f
000002b0: 6008 c5e1 9f36 7a3e f03d ff71 48ce cebf
000002c0: ef74 ac25 f9bc d1bf 2f83 7202 b7b7 69be
000002d0: 6589 273b cad1 d0bf 1884 8c90 073a 6b3e
000002e0: 7436 8fd5 33ee c3bf 138c 8f69 658d 683e
000002f0: 70ea da7c c0e5 353e bea6 3454 b393 6ebe
00000300: 08ba 9671 63f6 c0bf 3d11 bb8e 55d2 c4bf
00000310: 6adf 11c2 9d5b 783e a1db eaa9 ef78 fabe
00000320: 96bf 66e6 bb78 cdbf a7aa b408 a3a0 75be
00000330: 207d ad5e 3bab 6ebe 1573 6a0e 8c90 cdbf
00000340: ff7a 691c 0cf2 cdbf 47b5 2444 3bbb cfbf
00000350: 201d e12a d863 c3bf 7a6e 6d00 32de cebf
00000360: bcf3 de99 ab5a 6b3e d855 62be 1c11 67be
00000370: d0a4 80ec fd17 5dbe 6661 75be 4e17 693e
00000380: fcda edfa ed09 703e 28d2 3aea 206c c7bf
00000390: 1de1 a6b5 faa3 6a3e 192d e068 1e5e d8bf
000003a0: b0ea 5702 93b8 3c3e d11a d2b0 6762 d2bf
000003b0: e5d0 8ce0 6591 d3bf ca55 2975 6620 c83f
000003c0: a54b 592d 6d08 c2bf 0d1d a2fe f09f b0bf
000003d0: 47e3 cf04 8bf0 6c3e b715 4d98 f273 ccbf
000003e0: 6e71 e3b9 3911 6abe 8261 306c 19f2 69be
000003f0: 52f5 d816 d11e d13f 4fb8 9c1d 6cc2 7a3e
00000400: c656 fcbf 7a05 6dbe 455e eea0 8aed d13f
00000410: 6d83 a0ac a6da 703e 2f7b fc35 daff 7bbe
00000420: f75f b0d2 01fb c0bf 8403 f6e3 b792 c1bf
00000430: 49f0 ef40 1707 d03f 95da d284 6ea6 e3bf
00000440: e50a 1644 fa6d 7f3e 5804 6ec3 66dd bbbf
00000450: 5ba9 14a0 4526 73bf aeb1 4372 d4e7 6fbe
00000460: 412f ccbf ce47 d6bf 9649 fb53 eb4e bcbf
00000470: 3ce6 61dd 5698 5abe 4fff 7d20 db0b 6d3e
00000480: fb6b 1900 63a3 6cbe aa2d d2c0 ec72 70be
00000490: 5c29 a836 b774 6b3e 0e1a 28eb b4bb 63be
000004a0: 953c 6824 d971 633e 1efa 0a81 40d7 96bf
000004b0: 0016 0757 237a 283e 1e2d ef81 8618 cdbf
000004c0: 2fab 7719 9923 d1bf e416 060d b1c6 453e
000004d0: 138a f491 c930 b5bf 381d 89d1 ffd8 c8bf
000004e0: a8d0 bc71 13ae 43be 6c7c dbea 3d21 583e
000004f0: 10de 3eaf cc0a b5bf f744 098f d9e1 b2bf
00000500: b43d 60f1 a744 433e 4454 d863 4548 703e
00000510: 1281 50e7 fe1a c03f 90c5 5b0f 6fc3 bfbf
00000520: 2ebe 1cc0 5074 d03f cc32 51e1 e922 603e
00000530: e409 050a 790d 4ebe bbca 6301 1f36 7bbe
00000540: 3c43 9ed0 3937 543e 359b 1c3f cce8 c0bf
00000550: ac75 ce00 e31a 7abe 8f38 70b8 7237 bebf
00000560: e8fd a2fb 47f9 603e 4220 bda2 40ac 653e
00000570: 6391 36ca d244 d1bf c42f 46f0 b6cf c1bf
00000580: 83a6 b52b 76cb 70be a8de 69db cc10 d2bf
00000590: 64e3 79bb eede babf 9875 7859 af92 4d3e
000005a0: 29d1 928c 7853 723e 6247 314c 96f5 e3bf
000005b0: a97a b6b5 30fb c4bf 3c04 fd7c 80c6 523e
000005c0: 607c 8a97 8f40 9d3e 543a 41c3 28a9 653e
000005d0: b0fc 558f 7efc 393e 5cd6 393a 70c8 6bbe
000005e0: 7875 313b 0f14 51be c737 670c 3237 d23f
000005f0: 1094 9c22 471f b4bf 1f52 d7fc a794 63be
00000600: a28d 3617 aeb2 78be e622 3766 2be4 663e
00000610: 4d8b 2374 8876 68be cc4e a926 de28 bebf
00000620: 2583 252d 9a4f d0bf 8af5 21fb 3285 6b3e
00000630: 9fe2 dfd7 e44e 95bf 6635 434a d08b 6cbe
00000640: d8bd 2d98 67c8 b6bf d609 63f0 0182 613e
00000650: 3e4c 84dd e55f 7b3e 00c2 fe45 37e1 523e
00000660: 4525 90e6 b279 6d3e 848e 9bf0 e6ce c0bf
00000670: 1e71 bc90 f450 69be 4444 c7ac 46df 473e
00000680: 0812 1796 57f3 7bbe 1762 f59e e861 63be
00000690: 5f3b 2e56 c2f9 d0bf b6ce 5707 1db4 76be
000006a0: 3ec2 3440 b0d2 cbbf b854 e7fd a838 793e
000006b0: dca7 e552 9647 673e 1998 7b16 b328 723e
000006c0: 73ba 070d a9f9 c2bf 2894 40c8 271e c5bf
000006d0: abdc a14b aa87 63be ba33 d7d6 e717 ff3e
000006e0: 2946 272a c8b6 d03f 3fff cbd5 213f 7ebe
000006f0: c5fc 0e0c 2c65 a6bf 4017 440e 757b 6d3e
00000700: dfea 00a4 1760 723e 40e7 827d 5c62 70be
00000710: f803 9de1 9903 773e a0ac 96c2 a1b3 cbbf
00000720: a07c aa63 80e6 393e 9891 7cb4 9315 783e
00000730: 3045 6371 9dcf 523e 5c14 109b 958a 4c3e
00000740: 6c94 0b9b cd15 d2bf cce3 4eac 4d3e c8bf
00000750: ab80 a4d7 7bd6 ad3f 3b46 a8ff 0c07 d1bf
00000760: edf0 d352 ecf7 6bbe 6357 573f c168 ccbf
00000770: 0a33 5d69 3d1e 593e 416f c902 9aa1 c7bf
00000780: 2691 b0dd 3cf1 c2bf 840f 2142 cb11 c0bf
00000790: be8f 30c9 5a2f 583e fcce 0deb 6147 cebf
000007a0: 5834 2052 174d 58be b07c c851 1814 d2bf
000007b0: b797 f519 93b7 cdbf ac44 61ef 1173 7bbe
000007c0: 6eba 3edb 5ba3 623e 108c 1418 2c5e 7bbe
000007d0: 8a32 68f6 c428 753e f2ab 4804 b53e d2bf
000007e0: f262 7675 500a ccbf c97a 73a8 f329 653e
000007f0: 3660 5834 df34 7ebe cca3 060c d587 d8bf
