pyTorch/test_experiments/2/noisey_paths/models/ow_0.8_64_NP_model_1.pth (torch, 470675 bytes, 10 tensors)

weight f8 [120, 60]
-1.3340424238346272e-07 -6.101104952810525e-08 -6.469910864578701e-10 -1.8794765051292892e-08 -1.7050427163600534e-08 -5.311095654904544e-08 -7.642202992070493e-09 -1.4242346725182925e-07
-1.1284295868891813e-07 -6.815461646504233e-08 6.828329921189722e-08 -1.402159125923988e-07 -2.2264503115310643e-08 -0.2949752798643765 -0.30602314806084935 6.805365908375504e-08
-1.1050230026832635e-07 -0.08174541282475628 -0.07855028382695792 -0.31568353728994714 -0.12106199215001488 -0.0824721594450566 -0.1309046713814519 -0.31714471903173935
-0.30153997286526807 -0.09974757534439337 -0.12393499717413993 -0.11094323666413462 -0.3475656968819888 -0.3140503168532198 -0.3111223785931213 -0.08139006770043415
-0.305510097857297 -0.28824255273178384 -0.28351519958016236 -0.08480943807287712 -0.3166400235231388 -0.2953338719638775 -0.327826864990073 -0.07512052658910913
-0.29472545551121293 -0.30125645135992357 -0.30152822121732614 -0.09464256039090867 -0.3338883236389936 -0.2832668610414276 -0.2932036261437933 -0.33058190715645963
-0.32573147409688075 -0.292988895042204 -0.34056982988067486 -0.2935143743229411 -0.34334578321564463 -0.3310299519685187 -0.32057799426883926 -0.29470029132829056
-0.32426684986087106 -0.34456129242333683 -0.3104755909782878 -0.2913166182287287 -1.5352289434468156e-07 1.466621931805623e-07 -1.4726394141568543e-07 5.47929161654597e-08
6.336727875667044e-08 3.962268531352667e-08 1.4798034011716276e-07 -1.404646761335709e-08 4.195355322545234e-08 -4.7893116840791705e-08 7.126691476380078e-08 -1.7504079776416156e-07
-9.224298360298174e-08 -0.28366135298417366 -0.29135031957280916 1.2816834914621685e-07 -0.3577988798674854 -0.3008513949096592 -0.27298976242597034 -3.4509565630189726e-08
-0.21716630394146572 -0.13533064459354657 -0.14705290788144976 6.305162242445004e-10 -0.14152347401536688 -0.17431978132650044 -0.21432261374524522 -0.31419424745648705
-0.1307146190319906 -0.1673644294828632 -0.1713484538563744 -0.32468919298841364 -0.1686228366258187 -0.11681779059729182 -0.14852413128165992 -0.011713285414016663
-0.10130062386788898 -0.137935488688851 -0.1028373269808142 -0.13253226215542344 -0.09363789428359529 -0.14025387534710443 -0.22092031351083327 -0.20923182423148548
-0.16116125797870348 -0.09037126195956058 -0.17032305054047 -0.170867364544911 -0.09619571272390458 -0.22123825104263262 -0.13503164336748547 -0.17458451153446886
-0.09624654734034245 -0.11828807663558814 -0.15448893017536042 -0.19940454478362943 -0.09457566095579807 -0.1351745570641565 -0.16126310947108613 -0.09715259078692591
-1.2321370255525705e-07 1.320994394478644e-07 -5.692925538792959e-08 2.9511765088063158e-08 5.039996797615464e-08 5.317046643737488e-08 -4.9285253117318866e-08 -4.209049836755195e-08
-9.391401279289535e-08 9.057272898044073e-08 -1.145152940799724e-07 5.082249438477075e-08 -0.3462262285593329 0.05624192545886132 0.049348725615821466 -0.05646726700923334
-0.28342804534198157 -0.2861309658581417 -0.25508103639049245 0.2666013498351649 -0.285751009907749 -0.10115503105315116 -0.05024698301722566 0.09285415186915717
-0.45635053468695924 -0.09952340194240905 -0.09163606844234402 0.2611008557071891 -0.0558242266179272 -0.016580016630536463 0.024408182403829727 0.25671316829149327
-0.08376394451126135 -0.029291863580016668 -0.0456632524377923 0.20692769185995596 -0.024626721736810357 -0.014949644719682645 -0.011373232903345694 -0.044757563902504724
-0.03424930062621522 -0.0012255594110498298 -0.043727524111290425 -0.010619567639785313 -0.017458367679267055 0.022689059026555016 0.024734578143068633 -0.036942148048777455
-0.39461746330860464 0.004875284506955072 -0.0060457049017636315 -0.014973787240647905 -0.3935456879729994 -0.03672811747593138 -0.04622459048937754 0.026702197948890068
-0.38683607783336377 -0.41252005651885587 -0.36375518967654136 0.025668790049680056 1.3259289149680571e-08 2.3891948808524298e-08 -5.000091394942715e-08 -5.049967324968876e-08
-1.1180366862743346e-08 5.974137284313e-08 3.4593713081378674e-08 -9.826360657529612e-08 -6.603010353431812e-08 -0.4108134277151486 -0.40589973417304576 0.3692407463328492
-0.38972893647146717 -0.40139985335414646 -0.40525482475898567 0.39277919060725186 -0.578388169117066 0.10994265211139656 0.16033601624582808 0.07897646586909164
-0.5791607672338809 0.05500071794521094 0.04403567956593789 0.06795999332770698 -0.2902616388281125 0.1252209657952891 0.09492787688540613 0.13679567984702112
-0.32255596676070375 -0.32016513741106317 -0.2721726147124907 0.09319216583918954 -0.3359634685250648 -0.24884929266407776 -0.27705402123163864 0.11615673948830532
-0.3184485443955761 -0.29174326341565315 -0.27291290045414185 0.08751048409956302 -0.2928998498645923 -0.2888419602635508 -0.2841481819542837 0.053647778646674936
-0.2893740661807921 -0.26639719081822416 -0.27647570219227124 -0.3151546044163117 -0.25211485109156045 -0.25700454571602627 -0.24830185012932646 -0.31665811226191737
-0.25122123062809776 -0.30549724247331383 -0.306300348676558 -0.2653855041834953 -0.28527747848421176 -0.2964514143077831 -0.24823261567950955 -0.26563043765201766
2.456009702971495e-08 -1.9586810197850314e-08 -4.438443031509009e-08 -7.561649439594899e-08 2.2057286544449097e-08 6.224416099834434e-08 6.369104999557339e-08 -2.590214314939883e-08
-6.779439978374039e-08 -1.3386098801910337e-07 8.930159682491463e-08 -5.73569608192175e-08 2.8035016258341506e-09 3.957256641903116e-09 5.353856584031338e-08 2.91987291609138e-08
00000000: d4d6 2420 bce7 81be 0296 ebbb a560 70be
00000010: 80e0 6e68 fe3a 06be d6ac 8603 442e 54be
00000020: 5497 ae25 c94e 52be c844 3fa8 8383 6cbe
00000030: e807 6174 5869 40be c8a6 0511 a21d 83be
00000040: 70ea b352 824a 7ebe 79c7 50b1 8c4b 72be
00000050: 6be6 e280 6454 723e dfec d935 c8d1 82be
00000060: 721c bc1f 05e8 57be 2757 09ff dfe0 d2bf
00000070: 4d61 2f1d e295 d3bf 23d8 b0a1 9c44 723e
00000080: 5ce0 4f06 a9a9 7dbe 3c2b ae72 44ed b4bf
00000090: 66d8 2014 df1b b4bf 58f0 22b9 2834 d4bf
000000a0: 0fab 1231 ebfd bebf d1a2 a53b e51c b5bf
000000b0: 200d 3df9 7bc1 c0bf 98c9 155d 194c d4bf
000000c0: cb27 7950 6e4c d3bf 879f f59d 0e89 b9bf
000000d0: 415a b137 34ba bfbf 1752 2fa5 c666 bcbf
000000e0: 2e74 5431 843e d6bf 8cb6 0b80 6619 d4bf
000000f0: ae1d 47d6 6de9 d3bf 6b1a febe fad5 b4bf
00000100: 3a45 b939 7a8d d3bf b91b 53e4 9072 d2bf
00000110: cc67 87ef 1c25 d2bf e946 ea42 12b6 b5bf
00000120: 44bd 6884 d443 d4bf 1219 5f0a c0e6 d2bf
00000130: 0b7c f887 1dfb d4bf b561 f54c 193b b3bf
00000140: 090a 2e28 c8dc d2bf 5731 9323 c947 d3bf
00000150: 1ac4 3c06 3d4c d3bf df4b b0ad 7e3a b8bf
00000160: 6ded a221 6d5e d5bf 1eaa 0d54 0b21 d2bf
00000170: 07cc 5624 d9c3 d2bf 2eb9 f803 4128 d5bf
00000180: ca88 21d3 c8d8 d4bf 4d09 937e 54c0 d2bf
00000190: c2df 5566 e5cb d5bf 27de a783 f0c8 d2bf
000001a0: 615d 8897 60f9 d5bf 18e1 6c40 982f d5bf
000001b0: 96ec 4c90 5984 d4bf 881b 589c 5edc d2bf
000001c0: 9e14 d5be c9c0 d4bf 113f 9bce 4a0d d6bf
000001d0: 2e50 5d03 d5de d3bf 9eb7 0475 eea4 d2bf
000001e0: f0bb e1a8 019b 84be 4456 474b 46af 833e
000001f0: 3fa7 d753 f3c3 83be a88e a659 ae6a 6d3e
00000200: 63fb fef4 9002 713e 3678 a04d b345 653e
00000210: 5e0e 4ed6 90dc 833e c09f 7992 202a 4ebe
00000220: 7a95 586d 0d86 663e 50cb 503e 61b6 69be
00000230: 4b2b c6d2 6c21 733e 84eb ca23 5b7e 87be
00000240: 74f9 94ba e3c2 78be 5d31 8df2 8127 d2bf
00000250: a9a3 8fcf 7ba5 d2bf e650 bab8 d433 813e
00000260: d0e1 e445 2de6 d6bf 2cf3 8535 2641 d3bf
00000270: 61ca 700d aa78 d1bf c85f d365 f586 62be
00000280: a763 9cfe 1acc cbbf 4b83 56ba 8352 c1bf
00000290: a8f6 1033 a1d2 c2bf 00ae f750 14aa 053e
000002a0: 4393 41f2 701d c2bf aeed eb4f 1c50 c6bf
000002b0: e91e 6a64 ec6e cbbf 32af 5a30 c21b d4bf
000002c0: eafd ecb2 41bb c0bf 9340 9297 326c c5bf
000002d0: f342 c402 bfee c5bf dbfd 4f2e b5c7 d4bf
000002e0: 8954 55e0 6e95 c5bf 01d3 344e c5e7 bdbf
000002f0: d2c1 42b7 d602 c3bf db5c 418e 22fd 87bf
00000300: f9b4 9372 d6ee b9bf a52d 70be dea7 c1bf
00000310: cbce 300c 8c53 babf 2fac cf31 d1f6 c0bf
00000320: da45 9d2d a7f8 b7bf bc64 e0c7 d6f3 c1bf
00000330: 4f8a c6e8 1d47 ccbf b9a6 2dc1 1bc8 cabf
00000340: cb4b 339e eea0 c4bf e853 9d2e 9222 b7bf
00000350: 57c3 e94d 25cd c5bf ff48 5657 fbde c5bf
00000360: ff21 2a40 48a0 b8bf a419 6df6 8851 ccbf
00000370: 4a20 1886 b748 c1bf f0de b607 c958 c6bf
00000380: f1ff 2d1d 9da3 b8bf 7716 a89c 2048 bebf
00000390: de3d 5913 4bc6 c3bf 877d 428f 1686 c9bf
000003a0: 2980 cd4a 1c36 b8bf 58c1 eb5e 664d c1bf
000003b0: f862 9d02 45a4 c4bf ddc9 2600 fede b8bf
000003c0: ff17 7530 9789 80be f9f9 22f5 e6ba 813e
000003d0: 9bff b31a 4c90 6ebe 00bc 03d9 21b0 5f3e
000003e0: 0469 fe39 eb0e 6b3e 9140 ab79 b18b 6c3e
000003f0: aae5 25af b675 6abe db23 87c1 df98 66be
00000400: 01da 04c9 b835 79be 587a 7c4c 1c50 783e
00000410: 662d bf5b 6ebd 7ebe 04ed 8b8d fd48 6b3e
00000420: 1f81 2b0e 9228 d6bf e20e 05dd bdcb ac3f
00000430: cd0b 3d75 3c44 a93f b2c4 3212 47e9 acbf
00000440: 41d5 6062 af23 d2bf 7cf3 2e41 f84f d2bf
00000450: f71f 4869 3f53 d0bf a022 a71b ff0f d13f
00000460: 8593 969a be49 d2bf 68fb 32ce 4be5 b9bf
00000470: a434 90f9 f8b9 a9bf bb6a 9329 4ac5 b73f
00000480: d186 7fdf d834 ddbf d880 879c 5d7a b9bf
00000490: dd08 181d 7675 b7bf 5a14 0e5d e0b5 d03f
000004a0: e206 4c37 fe94 acbf 29fa c714 5afa 90bf
000004b0: aa8d b764 75fe 983f b2ed 9011 fd6d d03f
000004c0: f883 42ca 8d71 b5bf 9ed3 75b0 affe 9dbf
000004d0: c9d8 b27f 2c61 a7bf 746f 964a 9b7c ca3f
000004e0: 0182 de51 bf37 99bf 084a 4359 eb9d 8ebf
000004f0: c410 f57a d94a 87bf 6e76 6ba2 76ea a6bf
00000500: 5f70 33d4 1f89 a1bf acb1 be65 5e14 54bf
00000510: 3e70 fc3b 7463 a6bf 752e af3d b6bf 85bf
00000520: 0e5f e538 9be0 91bf 17f9 fbf9 cc3b 973f
00000530: 94c0 d170 0554 993f 7b4e 6dcb 14ea a2bf
00000540: e9d1 d59a 6941 d9bf 04d0 4138 1bf8 733f
00000550: ac76 598d 61c3 78bf 7f7d f7b3 93aa 8ebf
00000560: c6da d440 da2f d9bf 0c38 ce1e 07ce a2bf
00000570: 4f82 d8e0 bfaa a7bf a2ec af2b d257 9b3f
00000580: e542 cd1b ecc1 d8bf dd52 ec85 ba66 dabf
00000590: 2f4e dad8 c347 d7bf a641 2a57 eb48 9a3f
000005a0: 58bc 630d 5f79 4c3e 2041 016f 5ea7 593e
000005b0: 0295 dcc2 12d8 6abe e15e 424b 9f1c 6bbe
000005c0: d09a 4bc0 7802 48be 7f94 7958 6509 703e
000005d0: fb70 af12 8692 623e bbe2 f4a5 9f60 7abe
000005e0: c621 acdd 8db9 71be 8ed4 3267 c44a dabf
000005f0: e19c eee0 42fa d9bf fe69 76f0 a3a1 d73f
00000600: bdc9 1ca3 51f1 d8bf c79d b102 89b0 d9bf
00000610: 1eb5 b8ee b1ef d9bf a247 8d54 4b23 d93f
00000620: 2409 d8e7 2782 e2bf 1a03 419f 3325 bc3f
00000630: e9c8 12fd e385 c43f 7db8 0f3a cd37 b43f
00000640: 49aa 4c29 7c88 e2bf 3893 a9d9 0d29 ac3f
00000650: 8e88 2f37 d88b a63f a964 c77c d365 b13f
00000660: f434 838d a593 d2bf 6da1 6e98 3d07 c03f
00000670: b697 b37e 314d b83f 50a9 9655 8582 c13f
00000680: 0e7b 17c8 c1a4 d4bf bffd 9fea 957d d4bf
00000690: 2ba5 c3af 466b d1bf 78d1 8518 71db b73f
000006a0: f5d0 7deb 6c80 d5bf 41fe cf2a 4bda cfbf
000006b0: 4592 1aca 40bb d1bf 7af0 4fb5 72bc bd3f
000006c0: c6d1 e800 7661 d4bf f0b4 ccef ebab d2bf
000006d0: cad9 86ab 6777 d1bf bcc6 434b 1667 b63f
000006e0: b0fd 0a03 dfbe d2bf ccd8 42fd 627c d2bf
000006f0: 5089 2ddb 7b2f d2bf 83be 94bd b877 ab3f
00000700: 92a6 a3cd 1a85 d2bf f5df 93cd a60c d1bf
00000710: f47b c324 c7b1 d1bf 56b8 c937 7e2b d4bf
00000720: df8b 1154 a622 d0bf ce83 b131 c372 d0bf
00000730: 7bbe ebe2 5ac8 cfbf df64 0b63 2044 d4bf
00000740: 8af2 6636 0214 d0bf 693a 5c4e 448d d3bf
00000750: fe6d 14c7 6c9a d3bf c33c 537b 13fc d0bf
00000760: 8b00 1878 fc41 d2bf 1283 535a 0ff9 d2bf
00000770: 966f 121b 16c6 cfbf c267 a2ce 1600 d1bf
00000780: 0d28 532f 075f 5a3e 6c04 6f3c fb07 55be
00000790: 9bfb a74f 26d4 67be 9e12 fc6f 534c 74be
000007a0: 827b d98d 0faf 573e b533 47dc 62b5 703e
000007b0: eae2 06cd d018 713e 2863 f148 edcf 5bbe
000007c0: 8c96 9ab1 cb32 72be 6792 e1b3 6df7 81be
000007d0: b32c 2f4e c2f8 773e 86bc bea6 14cb 6ebe
000007e0: 80fb 131c f714 283e 902c 9bb8 0cff 303e
000007f0: b436 56d2 48be 6c3e f63b 13e7 155a 5f3e

bias f8 [120]
-0.3389205837519913 -0.148788174867708 -0.46073762161526716 -0.22926129051994926 -0.28779930780914353 -0.3254097505082314 -0.27853931706063567 -0.15911972367588104
-0.26612495583213475 -0.3431417415999403 -0.34858667382769065 -0.22979353422736817 -0.33928378022923933 -0.3301282611168409 -0.029685365502245813 -0.15518812006298532
-0.29263457857843894 -0.3083152760672759 -0.24766559224278173 -0.39525505110038406 -0.29099754939488814 -0.17295009727596136 -0.3398577541368755 -0.16641090020519345
-0.20477636129855423 -0.24115427618724136 -0.32938483037088234 -0.27221368632453213 -0.14732929427152655 -0.27034904875412097 -0.27458319653295005 -0.25912303172781914
-0.3019805155398418 -0.22526000036453522 -0.32839579418403975 -0.26954410616492847 -0.06975151713815235 -0.3871071665360438 -0.2848580198148263 -0.16024323139505964
-0.1739127770258856 -0.27967944900668296 -0.11348198430962547 -0.4891016914319306 -0.3076030715016905 -0.28737156270325015 -0.07706909832265699 -0.41944588904871666
-0.4000733687320146 -0.31758125188865094 -0.43006246482226973 -0.11801821378082455 -0.09826410894985663 -0.3365513207314643 -0.06306598726250441 -0.3304604283870321
-0.2641936699298176 -0.2846043327040549 -0.1900662038592343 -0.2525388770879376 -0.1848151062920804 -0.35532667232408893 -0.28155803331784474 -0.3221164668541779
-0.2292637838232923 -0.3802827616464639 -0.1980926196314675 -0.19045434791402005 -0.27697779840792147 -0.21674937679088382 -0.08909387718815918 -0.2446658926465383
-0.29547239617099 -0.38139844731551475 -0.2747803562937687 -0.3066618328802005 -0.15658816091115665 -0.16509161086279237 -0.24723219658465553 -0.19740841917791768
-0.24140653134347057 -0.18011533692327122 -0.2044998289917213 -0.23158561371173927 -0.2535845150360222 -0.28049520129765804 -0.129207523463409 -0.2975944363431576
-0.20614977276803775 -0.28887918267108076 -0.262478976830537 -0.14389951711527615 -0.27146984911246635 -0.10916919110468262 -0.35637809342209675 -0.34569078133652187
-0.2363649771558134 -0.01423746037996562 -0.17062954107557793 -0.21697692644198957 -0.2668898655350148 -0.2576602656198699 -0.20937762230411608 -0.30842568963755124
-0.33855393706564196 1.852625486414847e-05 -0.28491858376851786 -0.15523739508755294 -0.14493293348579422 -0.22131602313829324 -0.1835685973907977 -0.16527578538491652
-0.2462355553182781 -0.10617224219687539 -0.3091327227547334 -0.578293069151212 -0.12206218160947885 -0.27366648301965174 -0.27314501185072587 -0.30984517909967757
00000000: 6cfc c9f5 dfb0 d5bf 904e 8bac 7d0b c3bf
00000010: 17f6 37a6 b97c ddbf d4ce 8218 6f58 cdbf
00000020: 6682 b6c9 4d6b d2bf 34df 0e6b 83d3 d4bf
00000030: 1d3d 5b92 96d3 d1bf 5111 abfc 085e c4bf
00000040: 9fb3 7cf7 3008 d1bf 491c 84c7 08f6 d5bf
00000050: 9153 fa7a 3e4f d6bf e55d 2be1 df69 cdbf
00000060: 1e76 0951 d3b6 d5bf 0adc 3e49 d220 d5bf
00000070: ceff 0128 d765 9ebf a4f9 324e 34dd c3bf
00000080: af14 2b62 86ba d2bf fd3b e4fe 6fbb d3bf
00000090: e87b 8391 81b3 cfbf 7084 83d7 db4b d9bf
000000a0: 0780 772f b49f d2bf 75f4 d191 3a23 c6bf
000000b0: 39d5 d3bc 3ac0 d5bf 1024 0acf f34c c5bf
000000c0: b7b5 629f 1c36 cabf 6fe3 c1b0 24de cebf
000000d0: df73 8f1c a414 d5bf e065 12f4 f26b d1bf
000000e0: a9c9 51b2 afdb c2bf 8dd5 b918 664d d1bf
000000f0: 66f8 4866 c592 d1bf 9e53 bac4 7895 d0bf
00000100: 3776 9115 a653 d3bf f5d0 54d7 51d5 ccbf
00000110: 7e85 0acb 6f04 d5bf f5b4 33ec 3540 d1bf
00000120: 5b6a f444 3cdb b1bf 3e73 1423 5dc6 d8bf
00000130: 74e9 c621 1d3b d2bf 56a2 1fa7 d982 c4bf
00000140: 5463 d71c c642 c6bf 4c35 b6a1 44e6 d1bf
00000150: dc86 4bc3 270d bdbf 4894 472e 714d dfbf
00000160: 25ee 0fcb c4af d3bf 8a18 e7b1 4b64 d2bf
00000170: 22f9 d3e8 ccba b3bf fbf9 f991 33d8 dabf
00000180: 6017 ad54 cd9a d9bf c0ce ab50 4053 d4bf
00000190: ec85 69b7 2486 dbbf d05e 8510 7136 bebf
000001a0: 426a 4f2e d627 b9bf 5ce7 fd8c 0e8a d5bf
000001b0: f54b c8b0 1725 b0bf 51d8 227f 4326 d5bf
000001c0: 8929 0a91 8ce8 d0bf 69e2 5017 f536 d2bf
000001d0: 633c d3e0 1654 c8bf 9deb 83d2 9829 d0bf
000001e0: 5f66 aa7a 05a8 c7bf 75d2 4115 acbd d6bf
000001f0: 9dad 41fc 0b05 d2bf a112 a962 8e9d d4bf
00000200: 09d1 d602 8458 cdbf 9843 2082 8d56 d8bf
00000210: 13b4 7255 195b c9bf fcfa d5dd ce60 c8bf
00000220: 9e53 7816 01ba d1bf 9d63 5f8e 71be cbbf
00000230: 2707 cc38 dbce b6bf 1d88 ae43 3651 cfbf
00000240: c935 9b0d 05e9 d2bf b8c7 7d08 d568 d8bf
00000250: 935b f758 0096 d1bf 61b8 c9f3 58a0 d3bf
00000260: 23f0 06b3 140b c4bf 95f4 bfce b821 c5bf
00000270: 1fb7 6cfb 4da5 cfbf e67f 29d8 ad44 c9bf
00000280: d09b 94c2 68e6 cebf ddf6 cbf4 040e c7bf
00000290: f24c c7e6 0c2d cabf 65d9 8eee 98a4 cdbf
000002a0: d682 b68b ba3a d0bf 4489 1025 a2f3 d1bf
000002b0: 4b14 d643 df89 c0bf c52f e488 c90b d3bf
000002c0: 3aeb 0ea2 1d63 cabf f351 841c ff7c d2bf
000002d0: 0efb 579f 74cc d0bf 80cc f5a3 4c6b c2bf
000002e0: 3170 f212 c35f d1bf b27f 8619 83f2 bbbf
000002f0: 2b8f 1010 e6ce d6bf 7e9e 173a cc1f d6bf
00000300: a8e9 6623 3541 cebf af2d ae95 8728 8dbf
00000310: 1c57 5355 30d7 c5bf 5e08 8761 e6c5 cbbf
00000320: 9ad4 063b b914 d1bf 9439 947b 817d d0bf
00000330: cdbb 27cc e2cc cabf 7054 8f1a 3fbd d3bf
00000340: 1e41 e821 deaa d5bf f9bf 468a 1a6d f33e
00000350: 2abd d327 1b3c d2bf ef35 82a7 d1de c3bf
00000360: 7ea8 b790 298d c2bf 0cd9 ba5c 1554 ccbf
00000370: 49db 2e01 2d7f c7bf 6143 86c6 c127 c5bf
00000380: e329 9a8c a584 cfbf a183 faa3 1a2e bbbf
00000390: 91b8 969d d4c8 d3bf e640 7077 6081 e2bf
000003a0: ec53 1796 773f bfbf e72a a56c c083 d1bf
000003b0: bbb8 3d37 357b d1bf b29b c3df 80d4 d3bf

weight f8 [120, 120]
0.2911731468349278 -4.095780652602504e-08 -4.3677280986155215e-08 -0.11914453749385415 -5.73551404878564e-08 -0.36582468578285304 3.3290335480527316e-08 -0.13385489687363972
-1.0718738215841071e-07 4.718577558241714e-09 9.348446375235158e-08 5.331142319180374e-08 -9.802881373602308e-09 -8.056052028310447e-08 5.052811326222686e-08 -4.219734692449645e-08
4.377002547516493e-08 -6.542662342596342e-08 -5.473837540649861e-08 -0.06147158531995457 -3.9056027093688304e-08 4.559222797130211e-08 0.6929113670845994 -0.35096771673030064
-0.22138682168655577 -4.438245794351977e-08 -7.658468744303539e-09 -0.36565947020560885 3.286024786936842e-08 -0.22450289149077796 6.577152000423991e-08 7.47418621643602e-09
2.2863170388966422e-08 -0.21763144933768774 0.5595726613815604 6.109955478208801e-08 -4.15798684176263e-08 -0.3847749392642832 7.937625620639525e-08 7.408345540183496e-08
-1.1014460467428472e-07 -7.019068733392682e-08 1.0104577622441775e-08 6.279783935941391e-08 5.195993027549697e-08 -1.8511232323103544e-08 1.7417258155991824e-08 -0.23615767438473692
-5.994977988989678e-09 9.828605816321072e-09 -5.003764685562937e-08 -2.956429258920018e-08 -0.30993105725615544 2.169997932981757e-08 -0.3423744894897676 -0.3488900708816624
-1.444105393979503e-08 7.240991329714497e-08 9.648979241520697e-09 4.212826601563315e-08 -0.24099578038901018 2.2599108974417224e-08 5.181936114700918e-08 -6.277747729388464e-08
-9.29507363380373e-08 -4.0512896721148367e-08 0.3044821068752709 0.2968768785909379 -3.1191772324888234e-08 5.1812181885554546e-08 -2.399726354095216e-08 -1.0579203710201646e-07
6.854640152727773e-08 0.34331908216601814 -6.4814513113723e-08 4.114696574615646e-08 -0.6140234528689574 2.950726853361635e-08 4.841186600015769e-08 9.233749085535509e-08
-1.0230983628616796e-07 0.28316870825110857 7.518463664131841e-08 3.825875342627534e-09 0.2600791464641013 -6.392006735430049e-08 -3.930955562155414e-08 8.081160320158049e-08
-1.08750745213012e-07 0.26360267711605323 9.246567787826965e-08 9.932469643368498e-08 -5.64028529893498e-08 2.4997027564676348e-08 -0.012914623470709978 9.715349374594852e-08
-8.22119746824481e-08 -1.1803633495479092e-08 -6.599571720511523e-08 1.2577749275103633e-07 4.674560591592377e-08 -2.9437803321561727e-08 1.819397500526738e-08 -1.9683363165766067e-08
-0.33567936894973244 -6.717588067456409e-09 9.608373689519103e-09 8.731669243230671e-08 9.23230478358267e-08 -6.93166497054488e-08 0.49616037535795354 -5.283890459149655e-09
6.114121224015189e-08 6.418732175255427e-08 -4.3354046348236024e-08 3.168002767988188e-08 -4.217123965409448e-08 0.3144003943025545 -4.543126956937463e-08 -5.357919446404224e-08
-0.2982338759205354 -4.4190675837591985e-09 4.91148810666507e-08 0.39281404431780187 -2.6350537826330916e-08 0.30605302848674876 3.636627416458715e-08 -0.13836393969753136
2.1781314882608082e-08 -0.30020254275350905 -1.232431233345509e-07 3.401111453920622e-08 -6.367773953974382e-09 -7.360264744989561e-08 3.6483166846605e-08 0.2910430915596526
-3.905052190797724e-08 -7.924157309245686e-08 -6.841676287723409e-08 -0.2702762861498719 -6.790385494364959e-08 -8.751597169270517e-08 -0.3137889968188676 4.849020777935564e-08
-5.604858902957686e-08 -0.2946900567859237 4.956906476326162e-08 -9.512393111436213e-08 8.616667432271271e-08 2.8680547217644952e-08 5.6157402418206054e-08 -9.29027366307675e-08
-9.617065655140061e-08 -1.2532351295737119e-08 3.4555201292045997e-09 1.0989091070816532e-07 7.576647680509559e-08 -4.0475310791853644e-08 4.861413468123596e-08 7.186115982819689e-08
-2.5969222592815652e-08 1.1597597556132962e-07 4.8948272229184553e-08 -0.42424967638881433 4.303643839833714e-08 1.0525475827505743e-07 -0.4232744647541037 6.766522457284383e-08
-9.242529477209297e-08 4.243683135546112e-08 1.3327792552965745e-08 0.2301504188586858 5.5772785977594785e-08 -0.31341597747189276 2.160277552056095e-08 -7.361609273511666e-08
-4.729927168689956e-08 -3.6583748360956577e-08 -6.604601861857235e-09 -4.5369179718801094e-08 2.3173747308198015e-08 4.7566825593848664e-08 -1.7464061709354557e-08 -0.3151715273132043
-1.2156663065024896e-08 -5.590700851932649e-08 6.199335991069417e-09 -5.216272254060156e-08 6.335033466816405e-09 0.25595010512825966 0.31244732005030884 4.611249554336219e-08
-4.621728113859496e-08 -4.957621177604999e-08 3.704764738350657e-08 -0.1655890721609232 -0.3078498958330464 3.378357276408912e-08 0.2660742004475959 0.2145994871158728
3.766457606154873e-08 8.056074859567304e-08 6.556745926931585e-08 5.378635156406955e-08 -4.9608348545579746e-08 -0.30924324941920767 7.461229522286671e-08 1.2166334655121207e-07
0.2541548014373073 -6.615465656928932e-08 1.02599676491723e-07 -8.720441527667447e-08 1.1438074150290057e-07 0.27758441275012136 -0.3083560435731106 6.24436670956766e-08
2.558113697793748e-08 0.2741278338434872 4.938245291643071e-08 -2.0541489265564038e-08 -1.7506925454070684e-08 2.5047196604037507e-08 -7.813448550132507e-08 2.941566128270089e-08
-1.0330090134994869e-07 -2.36183102894453e-08 7.351505667436073e-08 -4.832123408908107e-08 6.768131899444509e-08 1.1858848985812012e-07 -6.58020656915612e-08 0.18400389762733396
-1.1285879230339946e-07 0.1920359562126561 1.1085188249401946e-08 1.1328191268529486e-07 0.021137919116316704 5.823239709662955e-08 1.2618903010386437e-07 4.964091124219377e-09
-1.154394966806278e-07 -7.386202983645851e-08 8.345641125386434e-08 9.384685070639087e-08 -4.650623102797366e-08 2.570416305373295e-08 -3.691304897073706e-08 -0.2817258323105622
5.991696357346472e-08 -6.820573969194132e-08 -7.051101132728464e-08 3.4018975529494745e-08 -8.280443689435244e-08 -2.2591799459071085e-08 2.3424839318795208e-08 -0.26162548915725675
00000000: 6e48 c8b1 94a2 d23f 09c3 6ab4 32fd 65be
00000010: 6163 bfb4 f572 67be 7a7c 08a4 4180 bebf
00000020: 9a64 a89a d4ca 6ebe e76f 60f1 ab69 d7bf
00000030: 0b27 ee8c 63df 613e 80a9 3d42 2822 c1bf
00000040: a9f1 585e dcc5 7cbe 90d5 2082 2144 343e
00000050: b6b9 1e14 3418 793e af0d 3ef3 109f 6c3e
00000060: 58e3 35e7 300d 45be 0cb5 20a9 13a0 75be
00000070: ab76 1ef0 8720 6b3e 1137 c527 8fa7 66be
00000080: ac03 d7dc b47f 673e 7a9b e154 1590 71be
00000090: 24ca 2a5e 2f63 6dbe a23a 2a21 3479 afbf
000000a0: 4da4 21ca d1f7 64be a01a cee9 257a 683e
000000b0: cef5 9475 542c e63f 5fbd 534c 4176 d6bf
000000c0: b85e 7443 6756 ccbf 2dc9 1cea e0d3 67be
000000d0: e855 dda7 4972 40be a45e 80fa f666 d7bf
000000e0: c39c 1e30 47a4 613e d4b8 67c0 82bc ccbf
000000f0: 4f91 fbd0 c8a7 713e e0eb 1232 fa0c 403e
00000100: 32b8 9396 948c 583e fc43 beea 58db cbbf
00000110: d0d2 0bed 04e8 e13f 632c 26bc ba66 703e
00000120: 12cf d28f b152 66be 8c78 1d11 27a0 d8bf
00000130: 2989 dfdd b14e 753e 995b 24ee f9e2 733e
00000140: 1767 9160 1491 7dbe 6f6b 52a1 77d7 72be
00000150: d80e 1fe0 0cb3 453e 8750 f045 6fdb 703e
00000160: 54fc 4085 51e5 6b3e 5851 f82b 54e0 53be
00000170: f053 5d95 9eb3 523e 4147 1728 6a3a cebf
00000180: 206a 324a 8cbf 39be 2486 ef4b 551b 453e
00000190: 7b8e 772f 1fdd 6abe 984f 5a24 92be 5fbe
000001a0: 5683 bb12 e9d5 d3bf a67b 4b4b d84c 573e
000001b0: c5f7 d5b0 76e9 d5bf c37e 1505 3754 d6bf
000001c0: 5804 23a9 0d03 4fbe e7fe 8aaa f86f 733e
000001d0: 286f 881a 95b8 443e 4a71 4296 109e 663e
000001e0: 8155 9f21 f3d8 cebf a03c 06eb fe43 583e
000001f0: 36c0 1aaf ffd1 6b3e 7016 590f 09da 70be
00000200: 0f2a 89a5 86f3 78be d374 27d5 0cc0 65be
00000210: 16c6 cf84 a27c d33f 2025 1fe1 0700 d33f
00000220: 2654 70ec f6be 60be 12ea 1016 03d1 6b3e
00000230: 8e53 904c 51c4 59be 8814 df32 f965 7cbe
00000240: d036 600c 7966 723e f0ba 7f99 f0f8 d53f
00000250: 096f 1bf9 0466 71be 5521 3427 3217 663e
00000260: cc92 2183 14a6 e3bf 0076 4a6e e5ae 5f3e
00000270: 2774 5b1b adfd 693e b493 6851 62c9 783e
00000280: 0321 93ac ad76 7bbe d519 4ca5 6f1f d23f
00000290: f1d3 8f1d a62e 743e b05d 472c 986e 303e
000002a0: 8dd5 1b01 23a5 d03f edb0 84b7 8d28 71be
000002b0: ea41 1908 aa1a 65be 90db 10c2 54b1 753e
000002c0: 061a 9e57 4b31 7dbe ea7e 56c3 ddde d03f
000002d0: 1de8 6f68 31d2 783e 42f1 d889 8aa9 7a3e
000002e0: 2f33 69f7 f247 6ebe 0e43 1a70 21d7 5a3e
000002f0: dc27 936b fb72 8abf 1064 3b56 5614 7a3e
00000300: 8c96 8b5a 9011 76be f87b 4bbb 1d59 49be
00000310: bcba 69ef 30b7 71be ce19 be86 aee1 803e
00000320: edb0 c4ca aa18 693e f442 4740 cd9b 5fbe
00000330: b068 372c 1f89 533e 2831 138c 8522 55be
00000340: 692f e551 c57b d5bf 38f9 e0f1 10da 3cbe
00000350: c88f 5761 42a2 443e 2d59 807f 5b70 773e
00000360: 6fc5 d43b 64c8 783e 38b6 c865 679b 72be
00000370: 94f1 6e72 17c1 df3f 0873 a5f1 b2b1 36be
00000380: 0967 a994 9769 703e 80a3 534e eb3a 713e
00000390: de34 f5e5 8846 67be 1a5a b5e1 1102 613e
000003a0: e244 6296 f8a3 66be 2641 d8d4 221f d43f
000003b0: cd3e 68b1 0664 68be 7d36 7250 dec3 6cbe
000003c0: 58d5 e889 4316 d3bf 3008 faf1 d0fa 32be
000003d0: 06e6 2340 4c5e 6a3e f848 7084 dd23 d93f
000003e0: 78bb 5741 2e4b 5cbe 564f 0c71 5f96 d33f
000003f0: d58f 8d85 2486 633e a02a f9d9 e8b5 c1bf
00000400: 8c16 5bc6 3363 573e eb59 d3b9 8436 d3bf
00000410: a8a8 29fa 998a 80be 7ecb 87b5 7342 623e
00000420: f032 8006 7159 3bbe 20fb a077 efc1 73be
00000430: 9038 3b51 3596 633e a26d fe33 73a0 d23f
00000440: d0a7 d317 10f7 64be 372b 0d7f 7045 75be
00000450: 27c0 cc6b 905d 72be 7379 79e8 344c d1bf
00000460: d13c d23f 513a 72be 7915 8141 0d7e 77be
00000470: b8a0 cb71 1e15 d4bf c058 5f83 7108 6a3e
00000480: 2224 5669 4217 6ebe f185 16af 33dc d2bf
00000490: aea0 316b b89c 6a3e 0b7d b8e4 dd88 79be
000004a0: 301c 5f2a 5421 773e b275 0c17 a6cb 5e3e
000004b0: e19e 35f1 3626 6e3e 2870 123a 3af0 78be
000004c0: e544 0215 ccd0 79be 7824 01a5 bbe9 4abe
000004d0: 60fa 51e5 c4ae 2d3e 4e46 8458 a57f 7d3e
000004e0: fde3 b4f4 a156 743e b625 3365 e2ba 65be
000004f0: 70b3 abcd 7919 6a3e f9ea 9fe4 424a 733e
00000500: 72b7 c494 5de2 5bbe 416a 52f0 ce21 7f3e
00000510: 06c1 2439 6647 6a3e 376d 5b1d e826 dbbf
00000520: f042 de0f e21a 673e 5a82 254a 0d41 7c3e
00000530: 2e73 d6c7 ed16 dbbf 5315 2c38 eb29 723e
00000540: 6e5f 18fb 6acf 78be a72b c243 79c8 663e
00000550: 8c06 9a0c 089f 4c3e 2852 14a5 9175 cd3f
00000560: f8ce 4a74 5af1 6d3e 2048 52e3 010f d4bf
00000570: 7865 232f 2032 573e a872 cfff dbc2 73be
00000580: f522 b02c c364 69be d5f1 f836 08a4 63be
00000590: 106d be27 d65d 3cbe 725b c019 7e5b 68be
000005a0: 3ec9 f77e f3e1 583e 1e10 0ae4 8889 693e
000005b0: c8fb 3917 7cc0 52be 8432 9c32 c52b d4bf
000005c0: 786a ff39 321b 4abe e456 78fd cc03 6ebe
000005d0: b031 26f4 3da0 3a3e b8cc 97a3 3001 6cbe
000005e0: 48bf c465 7135 3b3e b6c0 bb8c 7c61 d03f
000005f0: e4b0 550b 23ff d33f 300f 7e33 a7c1 683e
00000600: 094b 3a04 0ed0 68be 3c1a c3e1 b39d 6abe
00000610: 9812 e735 cae3 633e 7fc9 c0d0 0532 c5bf
00000620: 2784 ab0c d0b3 d3bf 4956 6ccb 2d23 623e
00000630: 5ed5 4e15 5c07 d13f 8255 73f9 fe77 cb3f
00000640: 0485 6e75 9438 643e 632d 5bad 17a0 753e
00000650: 1d07 22f1 c299 713e ac1e b901 57e0 6c3e
00000660: 1d76 0c98 1ea2 6abe c4e9 b032 a4ca d3bf
00000670: 8b84 f660 5107 743e f1a9 181d 5254 803e
00000680: deda 1280 1244 d03f 419d ac06 1dc2 71be
00000690: 5603 d198 988a 7b3e d324 254c a468 77be
000006a0: 2a92 cf48 2fb4 7e3e 6208 a969 f1c3 d13f
000006b0: d5e8 aafc 1abc d3bf d51d dd9b 18c3 703e
000006c0: 50a1 d87b b077 5b3e 89fd 5178 4f8b d13f
000006d0: 182d 1b99 1283 6a3e 8ead 9bcd 660e 56be
000006e0: 3630 ce5b 44cc 52be 48a4 2bc5 ebe4 5a3e
000006f0: 9cde c967 5cf9 74be 403a c424 b795 5f3e
00000700: 56a0 d3ac c8ba 7bbe f0b6 acd5 265c 59be
00000710: f842 d88d eabb 733e d2e2 ac47 38f1 69be
00000720: 03da 005b 062b 723e 1547 bcc6 56d5 7f3e
00000730: 735a 872e e2a9 71be e1ad 5291 708d c73f
00000740: 058c f6de 984b 7ebe f772 cb5b a294 c83f
00000750: 18ce 5a8d 25ce 473e 22df c17b ac68 7e3e
00000760: e683 3dbd 2da5 953f e104 bb53 6643 6f3e
00000770: ee1c 7a72 d2ef 803e 480c ff6e 1352 353e
00000780: 2616 3c1a f1fc 7ebe 965d 0c92 c2d3 73be
00000790: a0e4 9fb6 1467 763e bc06 df41 1b31 793e
000007a0: e4ba 7489 c4f7 68be 3047 9aac 8199 5b3e
000007b0: d2ef 2d73 4ad1 63be 6b95 0dc9 cb07 d2bf
000007c0: b497 d25e 7615 703e b874 dc0f 104f 72be
000007d0: aecd 56d4 7aed 72be 144c 094b 8843 623e
000007e0: 0a5c 240f 473a 76be 7883 808e fc41 58be
000007f0: 6065 8286 f826 593e 35bf eed5 78be d0bf

bias f8 [120]
-0.8158614133534812 -0.2041759951747013 -0.21820304167488253 -0.2630650033625413 -0.45048615520485147 -0.6057655108796142 -0.4844046680119855 -0.2727281542271649
-0.2803824965857615 -0.49959644039046414 -0.517578359120977 -0.4977518528942978 -0.30124366792628515 -0.3446658581310649 -0.21484934556419402 -0.21635795484673914
-0.3578082443202195 -0.3021298574348298 0.08136437755613507 -1.03713917645414 -0.5008560325838495 -1.0095564443129386 -0.6709944065358049 -0.2645494024157342
-0.28141030379595644 -0.6242020348999824 -0.3692236239737859 -0.6961012835600918 -0.4182563418046475 -0.48967332062310787 -0.2547188658995441 -0.27764701510045725
-0.7770610514426092 -0.39991568823717455 -0.16511742919667846 -0.25028765163411976 -0.7344590897817812 -0.35611278836433186 -0.3617510404183859 -0.29447651528678603
-0.19874162427759634 -0.4169246124438253 -0.44994885186894146 -0.13548483485341947 -0.4578537034691704 -0.11835424897244923 -0.3523848705812703 -0.22627627228319844
-0.3844347257034174 -0.2683252559709296 -0.07245482934971277 -0.08801271538938936 -0.43947618487145984 -0.5821363629111099 -0.13522119025597215 -0.26453023276898324
-0.7832083389370261 -0.3324755338064792 -0.25233888177756963 -0.2654822786000874 -0.48481611273409625 -0.8638415188177547 -0.39487118668950266 -0.3580829772245186
-0.4510035923593607 -0.7362001227582841 -0.657554324474993 -0.353947812540056 -0.39492301960336124 -0.3444997765605709 -0.35497589624714304 -0.16438822748697823
-0.31299368233566927 -0.5127936958643218 -0.28710543386596993 -0.44066573147113886 -0.2610683494132311 -0.26926940588367093 -0.3946270327519978 -0.47257159820332945
-0.1295663729681532 -0.31805058583591667 -0.5140045799886052 -0.47984837367835265 -0.435473048934868 -0.6128938686685086 -0.8515457200453815 -0.34650480792965144
-0.23821583806796193 -0.7565311927490889 -0.13995737732544417 -0.3021774049318034 -0.36395227915786693 -0.30805529797929543 -0.23103736039901115 -0.7379742646606918
-0.32971593668488075 -0.1688150683257276 -0.3140059746422573 -0.5905613264334427 -0.2656262303668022 -0.8841072534731976 -0.384465288617726 -0.4076682716462765
-0.6306256871749882 -0.3682033089770471 -0.35828417845269245 -0.22289468541085797 -0.2705553487134147 -0.24753541674904064 -0.7901211448405415 -0.22088941130853476
-0.34736157514661525 -0.48050296762104294 -0.23677656144793133 -0.6139551455733725 -0.526916976666753 -0.3731558925002204 -0.6839317582312944 -0.3682141763637152
00000000: 407d 0d65 891b eabf 08a9 f362 7022 cabf
00000010: eecf f0c7 13ee cbbf fd82 8a98 0ed6 d0bf
00000020: a2f5 f9e1 c3d4 dcbf c1b9 485a 6e62 e3bf
00000030: ab09 c96f 7c00 dfbf dca9 c6c9 6074 d1bf
00000040: 333a 4d6d c9f1 d1bf 2234 2b59 63f9 dfbf
00000050: 9257 b17d 0090 e0bf 1615 6d96 2adb dfbf
00000060: edb5 7785 9347 d3bf f01f 2e63 010f d6bf
00000070: 99f2 61f0 2e80 cbbf 88e9 2512 9eb1 cbbf
00000080: a00c e68c 54e6 d6bf a2f9 3478 1856 d3bf
00000090: 24ba a9bc 4bd4 b43f a055 c43f 1f98 f0bf
000000a0: 5376 fe3a 0307 e0bf 51a4 7ca8 2427 f0bf
000000b0: c4d8 fb42 c978 e5bf b052 e39d 60ee d0bf
000000c0: 5ee8 e35c a002 d2bf 14bf bf8b 76f9 e3bf
000000d0: 5931 781f 5ca1 d7bf d303 f332 7646 e6bf
000000e0: d550 593f b6c4 dabf b832 73c4 ce56 dfbf
000000f0: b99d ad5b 504d d0bf 1710 6cfc f7c4 d1bf
00000100: c91f 5e23 afdd e8bf 2bb4 88f8 3798 d9bf
00000110: 3b1d 3363 9122 c5bf a91d 977f b604 d0bf
00000120: 0f9b 5b59 b080 e7bf 4594 ed4a 8dca d6bf
00000130: 3005 f9d5 ed26 d7bf cf31 a606 b4d8 d2bf
00000140: 3027 5094 5d70 c9bf 40ff d591 e4ae dabf
00000150: 2d97 e944 f6cb dcbf a952 662b 9157 c1bf
00000160: 162a b09e 794d ddbf 54e7 adcc 764c bebf
00000170: a61c b045 798d d6bf ab97 a8f2 9ef6 ccbf
00000180: 36f2 951b 949a d8bf 8e80 c5b1 3d2c d1bf
00000190: f588 7e52 668c b2bf f7c5 3a56 0088 b6bf
000001a0: 8733 59b8 6020 dcbf d57f 1070 dca0 e2bf
000001b0: 7913 f08e ed4e c1bf 7ef2 a236 10ee d0bf
000001c0: 600c 36ef 0a10 e9bf 6ad0 1a76 4747 d5bf
000001d0: 999b 2ffb 5126 d0bf df50 1062 a9fd d0bf
000001e0: 2113 3129 3a07 dfbf a7f9 07f8 96a4 ebbf
000001f0: 37b4 3dcc 9145 d9bf 6fc0 1bdd d4ea d6bf
00000200: 50f7 e32b 3edd dcbf 43db 518f f38e e7bf
00000210: b9d4 de5d af0a e5bf f96a d6b9 14a7 d6bf
00000220: 8393 6833 6b46 d9bf 39a5 73ca 480c d6bf
00000230: 35fc 4fd2 ecb7 d6bf 9cb5 7366 ac0a c5bf
00000240: be1f 5fa7 1608 d4bf a6a1 2a53 ce68 e0bf
00000250: ab53 3d78 ef5f d2bf c0bb 480a de33 dcbf
00000260: a808 b005 58b5 d0bf 9d5b 05bf b53b d1bf
00000270: f763 f2bd 9141 d9bf e94f d3f1 9c3e debf
00000280: 8c9f 4783 a195 c0bf c9e3 28d8 f05a d4bf
00000290: e572 a1bb b972 e0bf 1e30 fff3 d5b5 debf
000002a0: 15bd dd59 cade dbbf 8a34 3b9a d39c e3bf
000002b0: 1299 54cf dc3f ebbf 3ebc 7d80 222d d6bf
000002c0: 7e10 f248 db7d cebf d35b 68e7 8035 e8bf
000002d0: f22d 3993 1fea c1bf 756c f1e5 df56 d3bf
000002e0: b169 1280 fe4a d7bf 188f 8b91 2db7 d3bf
000002f0: 8db1 88d9 a192 cdbf f73b 8034 7c9d e7bf
00000300: 3c05 42df 101a d5bf fdf7 c36e bb9b c5bf
00000310: 0e93 f583 ac18 d4bf 6d0c eadd e0e5 e2bf
00000320: c0a6 1829 0500 d1bf 4b5c 7a4b 9b4a ecbf
00000330: 84dc 434c 149b d8bf 449b 95a9 3c17 dabf
00000340: 28e4 cdeb 152e e4bf 3477 959c a490 d7bf
00000350: 083a 48c3 20ee d6bf 1f5b 2524 d087 ccbf
00000360: f4d8 9e61 c750 d1bf 5ff9 c493 3daf cfbf
00000370: 89fb 9e23 ac48 e9bf 2b2a cdae 1a46 ccbf
00000380: 9412 490b 2c3b d6bf 8a0d e484 8fc0 debf
00000390: d768 f0c1 b14e cebf 8e5a ee42 85a5 e3bf
000003a0: 72b5 cffd 80dc e0bf e647 a640 c9e1 d7bf
000003b0: f392 c9da c4e2 e5bf 87f7 5931 d290 d7bf

weight f8 [120, 120]
0.38543548561475616 -0.22355936450359365 -1.0963556823234751e-07 6.830074637760519e-08 0.22006971955419566 7.778606690449583e-09 1.0234059270872242e-07 0.2336366066880102
0.39090334808284105 -0.9109533005358851 6.571255023154941e-08 7.680808316927957e-08 9.85764873747986e-08 8.710479036873293e-08 0.7049865352768042 0.2762748601807349
-9.447311902768199e-08 0.3604559007668279 -3.985666131716513e-08 0.6395198059135278 0.2320120207983815 2.0550328782478708e-08 0.34547480664556607 -0.2800208642382456
0.30242499989402244 3.515779872309208e-08 0.3617663161360178 0.36594275639890333 3.7932274659681515e-08 0.3363386610530772 -0.5688048509078235 -3.8197752536518374e-08
0.34405417792636855 -5.6111930496109583e-08 0.21747355305865668 2.5493023128790545e-08 -8.449179508080931e-08 -0.255062759224773 0.1572463236386841 6.406064570652915e-08
0.22609814273131426 -0.2808537714105742 -0.2335757845077583 -0.11494130317169464 0.22029045570097056 0.34574954487262205 -5.859474295726614e-08 -1.0935439277066264e-07
-0.42205366441767955 0.6834137794544337 0.29702360613182704 -1.3355330467012094e-08 -0.046233302972110514 0.2805862740050252 0.036617026656928536 -6.797160561168568e-08
-2.7393336610571392e-08 0.366921693011457 -0.27099840637208 -0.03993481633717207 -7.223204680518396e-09 0.34179621384491427 1.1740000110957185e-08 -5.428573205074488e-08
-6.959039908838558e-08 -4.8790920474150896e-08 -1.7494233974985806e-08 0.2605156647145352 -0.3916896997958863 4.691488722133576e-08 0.3623514252695974 0.349055519476771
0.27220087018332034 1.3342372600454557e-08 -3.0086706766565806e-08 -1.0234054134616315e-07 -0.42185244688181284 -4.085264602388926e-08 -0.3919130447778927 0.2696438401022276
-0.2523115970077688 5.505293231008193e-08 0.36269008640124334 8.740236968829856e-08 -0.3843920574930828 -1.6820804037224722e-09 0.3533643893288568 -0.2360052479194693
0.3523424362655133 5.49461027460349e-08 0.2530376027839859 -4.775612239189358e-08 -6.016867693672564e-08 0.3052686754508088 -0.26249101047560924 -6.968460930517662e-08
2.032873388010893e-08 4.378387942900786e-08 -0.38128795029062934 -0.4409401166425494 2.7253614169700275e-08 0.6670115000720187 -0.46641065253705405 -0.14190705936512427
-0.43826645770236516 0.2575917468366244 0.3558378498486329 -4.3471154370949545e-08 -0.42207965226168354 9.141432755673127e-08 -0.4213411912790172 0.29489628169903964
2.284501131860872e-08 -6.892088594785667e-08 -1.7625307267501623e-08 -5.68773033610517e-08 -1.1775301294747684e-08 -5.610648831266216e-08 -1.799683319414628e-08 -1.1930583474583798e-07
4.7050787240597555e-08 -4.9623089331845816e-08 6.156197742915716e-08 1.7400093469631558e-08 -5.052121846724195e-08 -0.28472884711455265 0.29241662860874373 1.4489917212629704e-08
7.280337057791014e-08 7.431419969683473e-08 4.253201704779981e-08 -0.3063718505697951 -1.0578687807419765e-07 -1.2174224548600931e-09 -1.1260454476208185e-07 -4.8523555311367795e-08
0.3043169796372959 -8.000948839121492e-08 -0.3014497036956917 -9.331421772741918e-08 -0.32331339169063283 7.89234246169412e-09 -4.9530174312627556e-08 5.31458047414783e-08
-4.091977908385894e-08 1.0073767877815742e-09 -6.771930107408079e-08 5.202781011916681e-08 5.1250082259389036e-08 -5.996983780720491e-08 -0.33676165081505655 -4.8666067313391495e-08
8.802939419106939e-08 -0.29983926012042034 -6.71720183921568e-08 -3.580131882743474e-08 -0.3184040643152092 2.6823181384902567e-08 -5.064939758545661e-08 -5.042838853688505e-08
-3.0561107392507705e-08 -7.409692286795301e-08 -1.1277932759041272e-07 -3.936575258922442e-08 7.438221809492494e-08 -5.374933193258072e-08 1.0520052514724552e-08 -5.743905750535024e-08
6.499882298491686e-08 -7.171690631385436e-08 4.8961717552574766e-08 -2.2791059399373544e-08 -3.2169488523619435e-08 -1.0221970213580303e-07 -0.3314489665482531 -9.12240488766311e-09
-4.5168261575202054e-08 -0.28015745990033364 -3.588781075842112e-08 9.589138680190226e-09 -0.29850428891347375 -0.49145088959124456 9.83872971156576e-09 -5.421251503985851e-09
-7.885345589414689e-08 -2.8299811468393164e-08 5.256720146594708e-08 -5.897784528928214e-08 -7.251767771189811e-08 7.104474787760204e-08 7.928961154769802e-09 5.333558383814136e-08
-8.134041339389428e-10 -5.335341307493457e-08 -2.352846533000308e-08 -9.600222072482326e-08 5.451733126168648e-08 4.451108795086307e-08 0.11342275011371344 -3.818185512622289e-08
6.358474369707454e-08 -0.3240760568213605 -0.3119936623338671 -2.5726787879081065e-08 -2.851647214279187e-08 6.189429248206989e-08 -0.012548892786660796 -4.4607807566044305e-08
3.7720588957023364e-10 -4.5536152054647754e-08 -0.1230933712086296 2.2779659324908753e-08 5.7686685691869926e-08 -0.07596147785995193 -2.236260224509376e-08 -4.51517207400503e-08
1.253453442666735e-07 -8.916631192115424e-08 3.2747045381448655e-08 -0.3602994177109391 4.510745813059956e-08 1.9411350122749077e-08 1.0771114810191199e-07 5.289118780434975e-09
-0.30405700575321126 -0.32311577355096954 -5.210085839051538e-08 4.552939875236548e-08 7.795186330658812e-08 -9.115008450758247e-08 0.2753401922773834 -7.53028509026528e-09
5.143367969729795e-08 -7.04817857317414e-08 -4.423967160402693e-08 4.633550096462174e-08 2.946440342457779e-08 -6.813679399495099e-08 -3.3372718423827335e-08 2.5115143765608417e-08
3.2964897964429134e-08 -3.5067442978174235e-08 -0.3044379495111235 -4.9042079073501984e-08 -0.2317107547649766 -1.898101905096895e-08 -3.994502188051727e-09 4.615496210911027e-08
2.3522878401098495e-08 -5.6436206043395625e-08 4.0862829251438423e-08 8.22567169939699e-08 -1.1162187872900812e-08 4.85083322417491e-08 2.0201809819868323e-08 -5.027590059500725e-08
00000000: 78ba 5b99 f9aa d83f 0af5 a0df 979d ccbf
00000010: 5fdd 3c50 196e 7dbe 7170 ef6f 9755 723e
00000020: e99e 299c 3e2b cc3f 5862 8a91 55b4 403e
00000030: c618 30bf ca78 7b3e 2fcc 6fe8 cde7 cd3f
00000040: c969 fa79 8f04 d93f 2f84 3f89 8726 edbf
00000050: ce82 bc68 bba3 713e 5f7e bd16 369e 743e
00000060: ba02 cfe7 1f76 7a3e 3162 72ad cb61 773e
00000070: 914b 24ec 3f8f e63f 06ba 4bc0 7cae d13f
00000080: ff4b a6af 245c 79be 5a66 5ca0 b511 d73f
00000090: 78c8 1c9a db65 65be 2f5f 713d f276 e43f
000000a0: 56d0 cde4 91b2 cd3f 343e 30d4 d410 563e
000000b0: c69d 085d 421c d63f 7d75 86a1 dceb d1bf
000000c0: 8768 0263 ee5a d33f e8fb 7412 0de0 623e
000000d0: 5b4f 26e8 2d27 d73f a53f bc2a 9b6b d73f
000000e0: b299 0b44 5f5d 643e 089e 6697 9286 d53f
000000f0: 7991 0e3b a633 e2bf 6b01 2ef0 db81 64be
00000100: 1fbd 8fd0 fb04 d63f 60f0 8b0a f71f 6ebe
00000110: 80e0 1063 2cd6 cb3f 487d da05 785f 5b3e
00000120: 0480 d760 3bae 76be 2911 53c0 f252 d0bf
00000130: 71e1 b8c4 a520 c43f c80e 22cc 3632 713e
00000140: a1d1 5bb0 c8f0 cc3f d2aa ca18 82f9 d1bf
00000150: 3c97 ccb1 cfe5 cdbf 3301 1512 cb6c bdbf
00000160: 3ea5 6d47 7a32 cc3f 4d6d f5b2 c220 d63f
00000170: 7aaf 183d 3375 6fbe 3e85 88d2 c65a 7dbe
00000180: 582d 755f ed02 dbbf c48f 0c93 86de e53f
00000190: c579 9e4c 6f02 d33f dc64 84aa 2bae 4cbe
000001a0: 05a7 8038 e4ab a7bf 8eb7 a321 20f5 d13f
000001b0: dcc0 ef87 77bf a23f 2c5e b421 f93e 72be
000001c0: 140c 35b2 d269 5dbe 9556 eb1f a57b d73f
000001d0: 87b7 28b3 0958 d1bf aba3 4714 5672 a4bf
000001e0: 388b 855e ff05 3fbe e912 173a fddf d53f
000001f0: 1013 0021 2236 493e 0242 4565 f924 6dbe
00000200: 262c 673f 37ae 72be 116c 88e6 c531 6abe
00000210: 188a 7146 c7c8 52be 37db 02e5 49ac d03f
00000220: bc6a b3ac 7111 d9bf ad5d 37d9 ee2f 693e
00000230: 3c48 4c08 c430 d73f 8306 29f6 ec56 d63f
00000240: 9953 d832 bd6b d13f 7454 2c02 0ca7 4c3e
00000250: b7f2 c3e2 1527 60be 0019 dfd7 c978 7bbe
00000260: e113 c667 a1ff dabf 1111 d2b2 beee 65be
00000270: e898 8c73 1a15 d9bf 97a4 b33c d841 d13f
00000280: 8931 638a df25 d0bf c8ea dfda 6a8e 6d3e
00000290: f24f eb7a 5036 d73f af3c 8fbf 3e76 773e
000002a0: a898 f124 e199 d8bf 607b 7b2b dee5 1cbe
000002b0: c942 efab 859d d63f 9cce bf82 6b35 cebf
000002c0: ca36 304a c78c d63f 607b b41f bc7f 6d3e
000002d0: aa63 27a1 c431 d03f 5980 042e 8da3 69be
000002e0: d017 088f c226 70be 4e7c 63a0 8589 d33f
000002f0: ab26 5f18 a7cc d0bf 8410 809c b0b4 72be
00000300: c03a 4f79 ebd3 553e 0fa2 294e 9c81 673e
00000310: 2adb 3693 0567 d8bf e258 1ee5 5c38 dcbf
00000320: 7405 7a9a 6a43 5d3e e6af 5b80 2858 e53f
00000330: 4ac5 c910 acd9 ddbf 04ba 85b1 022a c2bf
00000340: bcfc b0c1 8e0c dcbf 0380 1818 627c d03f
00000350: 77d8 f11d 0cc6 d63f 0db4 4045 a156 67be
00000360: ca57 b15f 5a03 dbbf 6c54 85db f189 783e
00000370: 5b11 400b 41f7 dabf 0f00 67a7 94df d23f
00000380: e0d7 d8c1 9687 583e fed6 450c 3580 72be
00000390: 1c06 f8bc ceec 52be f201 7234 2889 6ebe
000003a0: 0084 2f54 8a49 49be 2848 b78f 371f 6ebe
000003b0: 106a 118d ee52 53be 10c6 7338 5103 80be
000003c0: 95bb c467 9c42 693e 5e6c 3f3d 25a4 6abe
000003d0: 5632 9cc2 8186 703e c43a ddb9 e6ae 523e
000003e0: cba5 5359 951f 6bbe 296d a557 ff38 d2bf
000003f0: ac97 2b3c f4b6 d23f 3c4f 138e ea1d 4f3e
00000400: 4f22 9b70 028b 733e de20 103a d5f2 733e
00000410: 466d 4150 8ed5 663e 6a2f a7ad 989b d3bf
00000420: 0cf7 ac70 9e65 7cbe c090 19d4 47ea 14be
00000430: 20ab d419 203a 7ebe 54e9 3cd3 060d 6abe
00000440: 4338 caec ed79 d33f d5d2 1ace 357a 75be
00000450: bec2 b0b2 f34a d3bf cd81 2f14 810c 79be
00000460: 05e3 eaa6 2ab1 d4bf 9c78 8e74 dcf2 403e
00000470: 6ee8 2715 6097 6abe 792c dcc4 4d88 6c3e
00000480: ba15 abbb f8f7 65be 6002 786e 7d4e 113e
00000490: d840 158b a22d 72be 70fa 87d4 a5ee 6b3e
000004a0: 6070 bbf6 c183 6b3e 15b6 338b 1819 70be
000004b0: 870c 33bd 808d d5bf c081 3c05 9d20 6abe
000004c0: 9f65 e07a 55a1 773e e989 1102 9130 d3bf
000004d0: 0a2a 00a5 0608 72be fade 42ec 7e38 63be
000004e0: 6e6d c970 bb60 d4bf 387f c296 19cd 5c3e
000004f0: 614f 2f40 3331 6bbe 39b0 a52f d312 6bbe
00000500: c4d7 ba5f 4968 60be 6aa8 37da e6e3 73be
00000510: 4e16 b6e9 2246 7ebe 8b4c 6249 6322 65be
00000520: d9fe b1d1 81f7 733e caa5 867e 40db 6cbe
00000530: e08d aec4 7597 463e 0489 f42b 5dd6 6ebe
00000540: c871 f962 af72 713e 041e 8d28 5940 73be
00000550: 2fb3 d949 3f49 6a3e 343d 793a c278 58be
00000560: 042b 0e41 5745 61be afdf 7204 7c70 7bbe
00000570: 2389 e7b9 7536 d5bf 40bd 055a 1897 43be
00000580: e283 ffeb e03f 68be bd26 008e 19ee d1bf
00000590: 124a 5116 6244 63be 9863 184b af97 443e
000005a0: bd57 a6bb b11a d3bf af9b 986e ee73 dfbf
000005b0: f0d3 b31b e620 453e 703d 0da4 ba48 37be
000005c0: f2ed 94aa c42a 75be 78eb 8831 fe62 5ebe
000005d0: 922e def9 c738 6c3e 2cc7 2274 daa9 6fbe
000005e0: 2c32 527a 6077 73be 8475 116c 2812 733e
000005f0: 2836 0414 fe06 413e 5782 ff06 63a2 6c3e
00000600: 0027 fa46 c7f2 0bbe 4387 7c56 d6a4 6cbe
00000610: c26d c58e 7443 59be 70a9 7bed 38c5 79be
00000620: 38bf 8211 ce44 6d3e 56fe 37ae 8ee5 673e
00000630: 0c5c 5cfa 4509 bd3f 719c 0999 ac7f 64be
00000640: 9c45 05a4 8211 713e 6bb8 5d80 a9bd d4bf
00000650: 6120 1244 b4f7 d3bf 5e01 39c1 b99f 5bbe
00000660: 91c9 4355 8c9e 5ebe 1801 8fe8 579d 703e
00000670: ef2e f5e0 3bb3 89bf 5383 10b3 d9f2 67be
00000680: 00f8 bf4d e0eb f93d 89b3 d9ea 7072 68be
00000690: 2709 b213 0c83 bfbf 8438 fd04 a075 583e
000006a0: 4f4e 5fd0 65f8 6e3e fb10 2a1f 3672 b3bf
000006b0: 105a 8d3c fc02 58be f869 66f1 9a3d 68be
000006c0: beb2 dd4e d5d2 803e 6e61 2459 76ef 77be
000006d0: 8b37 c13a b894 613e 6086 f549 250f d7bf
000006e0: a7d7 4197 8537 683e 74e1 b754 c0d7 543e
000006f0: 5996 748e dae9 7c3e 8022 e695 72b7 363e
00000700: 3c1a f583 ab75 d3bf 3048 0ec8 edad d4bf
00000710: 72cd ddfc aff8 6bbe 39d8 824e 8371 683e
00000720: be56 8aae cfec 743e f385 9f3e c977 78be
00000730: 02c4 4678 2c9f d13f e418 0369 d12b 40be
00000740: 9a26 70b9 fd9c 6b3e 7937 f5af 78eb 72be
00000750: 190e 1a11 41c0 67be faaf c181 4de0 683e
00000760: f06d 2211 1da3 5f3e e4be 0b28 534a 72be
00000770: 100a 8424 b6ea 61be 6ea6 6a20 99f7 5a3e
00000780: beb8 603c a9b2 613e 1039 42f6 a1d3 62be
00000790: d7f0 334f e97b d3bf 93f0 14c2 4a54 6abe
000007a0: 286c ecb0 b2a8 cdbf 7edb 4c79 7661 54be
000007b0: f0dc 0c69 0028 31be 9ad0 4f5c 7dc7 683e
000007c0: 7683 9b69 eb41 593e 1ab5 0379 884c 6ebe
000007d0: 441f 2efd 24f0 653e 17b5 0078 a314 763e
000007e0: 6808 2949 7af8 47be 9d40 0436 ef0a 6a3e
000007f0: 4237 b5fc 07b1 553e 89eb 5efe ddfd 6abe
