pyTorch/test_experiments/2/noisey_paths/models/ow_0.2_12_NP_model_3.pth (torch, 470675 bytes, 10 tensors)

weight f8 [120, 60]
-5.6231761288112364e-08 -3.735494244315896e-08 4.0712337026460574e-08 7.35851596219174e-08 1.1532940219726854e-08 6.880401816844215e-08 -4.878721595792009e-08 -1.2545108488956773e-07
6.446499179843064e-08 8.527115553123779e-08 1.0937860111666734e-07 -6.345505665369425e-08 1.179303751375354e-07 -3.7470005108929015e-08 7.175831713653904e-08 3.100145396587788e-08
1.7835074489410897e-08 1.296212878905801e-07 1.0934868675323603e-07 -4.1401909113749116e-08 1.0607409118341371e-07 3.7750796604453484e-08 -1.2131342233991466e-07 -3.473582912727717e-08
-0.214349409214461 7.297940932667788e-08 4.494630220827812e-09 -1.5985049263993422e-07 -0.28174319879348686 -0.29114785797193765 -0.2470085771006087 5.372250368201924e-09
-0.21190231788452585 -0.21189067144190601 -0.2673900999847527 -4.7923830592239095e-08 -0.2322180527675173 -0.21551528118528504 -0.2480494448786971 5.748295712123496e-08
-0.28296337347819805 -0.29403655225269504 -0.2778671911494557 1.0664954845154458e-07 -0.2139741896345991 -0.24339820837898785 -0.22298127323587377 -0.2978125098103469
-0.2355929361286303 -0.26677489979494895 -0.2307221019254904 -0.2977889232057481 -0.21864649543817774 -0.2806993524161701 -0.2868638651898111 -0.267802869941246
-0.23456314233039316 -0.23574833624156358 -0.2780031145099097 -0.24146476612946008 -9.900329775834534e-08 7.260066928933266e-09 -3.593605396094468e-08 -1.1416781068120893e-08
-1.2146284753653506e-07 -1.2906398611219055e-07 -5.832876634595235e-08 1.0164772745915998e-07 7.1425636594080716e-09 1.2558818414443927e-07 3.9041125746537136e-08 -3.685949896971145e-08
-4.7166887686889327e-08 2.697907942714552e-09 6.085033042448345e-08 9.461691446747347e-08 -5.618287551097304e-09 -1.0196653436822188e-07 1.308235131078734e-07 -2.092124236917954e-08
-1.1214606378030717e-08 -5.217373365550458e-08 -1.546341493889096e-08 1.6123357550257225e-07 -0.2648465791585104 5.091354956171634e-08 -9.84348552224352e-09 -7.132795164872948e-08
-0.2096723894086542 -0.2305396442442523 -0.20949205904847767 3.7325641817921465e-08 -0.26345690280088396 -0.291188241332709 -0.22973232516138073 -4.140683093119349e-08
-0.2151442079497211 -0.2153001398856898 -0.2768244608472083 -5.084116788319302e-08 -0.21848780181466207 -0.29057620540541196 -0.2808463133691721 -4.5346416706478895e-08
-0.21064237523424773 -0.28040557791561527 -0.23130648908328644 -0.29285641350951425 -0.21903617470880823 -0.2794726131991352 -0.22839125123302154 -0.2697594825799903
-0.21190586711494222 -0.23973671024924312 -0.2324209317199237 -0.29481131580462855 -0.29482863252753144 -0.26925709143675575 -0.27155793181863114 -0.2407194744301526
-4.349388101624099e-08 9.588426504991459e-08 -3.764335758653706e-09 3.453976456061394e-08 9.042090764721189e-09 1.0319034548658535e-07 2.9347755775824837e-08 1.503923174346655e-07
-4.9094204707046884e-08 8.45754569337809e-08 4.811017457999097e-08 4.3403540645126506e-08 -4.257334559621504e-08 9.929585026006163e-08 -5.648475878592563e-08 5.3051538572851164e-08
-4.651630401177861e-09 5.3465944660597454e-08 -3.936383831160536e-08 -1.740937006440567e-07 7.359768494181108e-08 2.5615317666719505e-08 7.17798623028437e-08 -1.584113212932224e-07
3.205232509263879e-08 1.1324631203888779e-07 1.0651424890163891e-07 -9.798266514537957e-08 -8.066106785612491e-08 1.4037436975153459e-08 5.034001164615801e-08 -7.294987583533181e-08
1.1622478606077181e-07 -3.710106913642214e-08 -1.5722246019613276e-07 3.694500763599903e-08 -0.0015023681985889845 7.300734509387094e-09 -1.0812738233527252e-07 1.3444331848389594e-07
-0.0010631825939393972 -0.0014224589381974476 -0.0009858291743415847 -5.0520032938716305e-08 -0.0015700824087894036 -0.0014663561290071893 -0.0008559395026580622 -5.043203822670731e-08
-0.0011459949783069402 -0.0015040650717110973 -0.001325876849677997 6.431153484373156e-08 -0.0012344387473578818 -0.001420927809830064 -0.001084582696630629 4.842877707812995e-08
-0.0014638638367359157 -0.0013354711807410365 -0.0010555471647849773 -0.0016128326836495255 -2.039348621158752e-08 -9.488233203626577e-08 -1.2007336823133267e-07 4.268694075220523e-08
-4.978965176016869e-08 1.2119531660737816e-07 -1.3897952982443128e-07 2.4560482433162886e-08 6.97398155264317e-09 1.0492845135869544e-08 -6.92787228093383e-08 -5.733225971400212e-10
1.1732815362568611e-07 1.6760701994465187e-08 1.7508749224578204e-07 3.8394202634263285e-08 -3.4228217209350996e-08 -1.2636362372559943e-07 -1.1327824838855018e-07 1.0735030888719653e-07
-6.800979548290728e-08 4.6664621262415416e-08 3.824685143597117e-09 1.0118694886879655e-07 -1.28260968996786e-07 8.223118631707441e-08 -1.4597420381606775e-07 1.5982614536556496e-08
-1.3507405192088946e-07 -3.727769048879824e-08 -9.628284785583376e-08 -1.7350980534830652e-07 -5.077915831553819e-08 -3.401466548664311e-08 5.7747077461601916e-08 -7.594478538079707e-08
-0.15122392510690993 1.0478610360887289e-07 -1.3662269555833728e-07 -8.162372328646716e-08 -0.1373383692736901 -0.14278574329599686 -0.13138681744733896 -3.3666200709201724e-08
-0.12025780055026843 -0.12667124582457825 -0.12000077679397358 4.080669183003475e-08 -0.2358039421336673 -0.14011533266713905 -0.13811807676571644 -1.4034772811254633e-07
-0.22304532452746445 -0.22487237573766772 -0.1182032303167566 -7.802119589514963e-08 -0.219939769369313 -0.09990666662289091 -0.1115701072117494 -0.181751244978032
1.0376449126569951e-07 6.777170272642492e-08 1.225528425169415e-07 -1.4752085878529716e-07 -3.523299601942465e-08 1.2199144902282458e-07 2.9720780388978528e-08 -9.145606911180559e-08
-5.5366694046555204e-08 -1.253255020076991e-08 -1.8743660168888863e-08 -3.1153505962624145e-08 -1.608087082647199e-07 -6.187804589064004e-08 8.333068056528489e-08 3.6084679851814305e-08
00000000: 95f7 5d36 6f30 6ebe 5423 bc31 060e 64be
00000010: 4837 b903 76db 653e 3809 74d1 bbc0 733e
00000020: b058 350a 4dc4 483e d5c1 9516 2d78 723e
00000030: 9e91 378f 4331 6abe 8ab8 9469 77d6 80be
00000040: f7b6 0a21 004e 713e 9ea3 4608 cae3 763e
00000050: 6338 3bb3 705c 7d3e 0317 8029 9908 71be
00000060: ce6a 8619 1da8 7f3e 18a0 179a d61d 64be
00000070: 271d 51aa 3143 733e fead 0eb1 cea4 603e
00000080: 5e6d 4ccb 7726 533e 44f1 ebe7 c065 813e
00000090: dd52 ea70 625a 7d3e 040a ea2c 3c3a 66be
000000a0: 37fc 8625 5b79 7c3e 8ba0 0a13 6e44 643e
000000b0: f591 d225 4c48 80be 9c5f 3a56 0ea6 62be
000000c0: a41b 3f2b cd6f cbbf 803b a658 1b97 733e
000000d0: 4092 cdef e54d 333e 124a 8bcd 6b74 85be
000000e0: 9c0f 2ca0 1408 d2bf 228e 12a0 2aa2 d2bf
000000f0: 0e43 3d20 fa9d cfbf e01c 1a0c da12 373e
00000100: 785c a17a 9d1f cbbf e1d1 15c8 3b1f cbbf
00000110: 105b ad5d eb1c d1bf 1bdb 31e3 99ba 69be
00000120: 69b1 1637 52b9 cdbf 4b51 3d36 0196 cbbf
00000130: 35c1 c58e 15c0 cfbf 1fee 8ac0 65dc 6e3e
00000140: 1d80 c368 121c d2bf 3b40 f0af 7ed1 d2bf
00000150: 1c92 a778 93c8 d1bf 4665 aab2 e6a0 7c3e
00000160: 2398 5599 8163 cbbf 8045 7228 ac27 cfbf
00000170: ff91 157e a68a ccbf 5a68 7e33 5c0f d3bf
00000180: a4a8 ebc9 e827 cebf b6d4 8007 d712 d1bf
00000190: 81ff 1d45 4d88 cdbf 52e7 9145 f90e d3bf
000001a0: d15f a5bd 9bfc cbbf 6db1 a86a faf6 d1bf
000001b0: b63d d941 fa5b d2bf c40b 0ba6 ae23 d1bf
000001c0: daf8 9340 2a06 cebf 0139 1f61 002d cebf
000001d0: ab65 4093 cdca d1bf e3c6 d444 51e8 cebf
000001e0: 5897 e46e 7493 7abe d008 742b 872e 3f3e
000001f0: 0492 747e 034b 63be 6899 b617 7184 48be
00000200: b8d3 7381 6e4d 80be 1083 e1d3 9a52 81be
00000210: 8adf c204 a550 6fbe d914 82bb 2d49 7b3e
00000220: 7047 8ff0 54ad 3e3e 0853 a859 2ddb 803e
00000230: 447c ba7e c5f5 643e b26d a653 eec9 63be
00000240: 642e 9f53 9152 69be 005e 9326 c32c 273e
00000250: bbd1 6c55 9a55 703e cc18 bd5c 0666 793e
00000260: b099 8b5b 5f21 38be 2c5b 2f3e 165f 7bbe
00000270: 3824 71ca 0f8f 813e 7213 5a8d c976 56be
00000280: 3476 d788 4b15 48be 5a1f e60e b402 6cbe
00000290: 1cd3 0617 8d9a 50be 9cc8 4687 f1a3 853e
000002a0: a85e fc10 3ff3 d0bf 7823 ab45 8155 6b3e
000002b0: b40b d76d 8323 45be ac60 7798 9e25 73be
000002c0: 4532 b17b 8bd6 cabf ebf2 3ab4 5282 cdbf
000002d0: d044 31c3 a2d0 cabf be44 2a45 ff09 643e
000002e0: 18db 5b57 7adc d0bf 493d 6001 d4a2 d2bf
000002f0: 3f7a b36b de67 cdbf c862 b458 e93a 66be
00000300: 24b0 886c d889 cbbf c20e d179 f48e cbbf
00000310: f794 84f1 7db7 d1bf 6cb8 7791 8e4b 6bbe
00000320: 3738 af85 68f7 cbbf c891 cdf0 cc98 d2bf
00000330: 54db c7d0 62f9 d1bf 8286 c332 5d58 68be
00000340: 9234 6450 54f6 cabf f6dd b03c 2af2 d1bf
00000350: d48e fb76 739b cdbf 319f 9cd3 28be d2bf
00000360: 7df4 819b 6009 ccbf 3059 7419 e1e2 d1bf
00000370: 2982 5ead ec3b cdbf 58e2 dd46 bd43 d1bf
00000380: dd6a 8b40 bb1f cbbf 7fe7 1549 b1af cebf
00000390: 3f4b 5216 f8bf cdbf 6bc8 f747 30de d2bf
000003a0: 5e54 a8e9 78de d2bf f3f6 7b18 823b d1bf
000003b0: c758 0885 3461 d1bf 470a 184f e5cf cebf
000003c0: 19df ace4 c059 67be 2078 59d4 1dbd 793e
000003d0: f065 eb51 ee2a 30be 82fa 9bed 1b8b 623e
000003e0: 4008 ca24 f16a 433e 5a4b 7bc1 2fb3 7b3e
000003f0: d097 e7b7 0c83 5f3e e40a 61d0 702f 843e
00000400: 6ca6 0cc4 745b 6abe 01e8 542c fbb3 763e
00000410: 9252 9f48 36d4 693e f8af f352 564d 673e
00000420: fdde b96e 3cdb 66be e30b 3b12 8fa7 7a3e
00000430: fda5 3dc5 3453 6ebe 4f3d b212 597b 6c3e
00000440: d003 108f 85fa 33be 16a5 e6b0 4db4 6c3e
00000450: 26a2 1aef 1f22 65be 578f ac62 d05d 87be
00000460: 8ab1 7a2a 98c1 733e b82f 65bc 1581 5b3e
00000470: b7aa 1eb1 ac44 733e 0012 c6b7 f842 85be
00000480: e4e7 afee 3c35 613e 0e0d b330 3a66 7e3e
00000490: e8be a97b 9a97 7c3e c5cc 3c46 514d 7abe
000004a0: e6e0 2383 fca6 75be e0bd 719f 2925 4e3e
000004b0: 8607 62b3 ad06 6b3e 13f4 a0c9 1395 73be
000004c0: 3fcb 310f e832 7f3e ac92 46d2 21eb 63be
000004d0: 62a8 9362 1f1a 85be 9ed0 3ee5 aed5 633e
000004e0: 892a e391 639d 58bf 60c3 7413 3e5b 3f3e
000004f0: a52e cb06 7506 7dbe 3a65 83ef 6f0b 823e
00000500: 1111 1f9e 4f6b 51bf 6d3f a5a7 394e 57bf
00000510: e61e 0c04 de26 50bf 0bfc 08a3 6b1f 6bbe
00000520: b7f3 4126 67b9 59bf e274 93e7 5706 58bf
00000530: 4b34 ec15 240c 4cbf 6a73 2199 5313 6bbe
00000540: 625e 01bd a6c6 52bf 4ecc d192 81a4 58bf
00000550: fa13 4e6d 21b9 55bf 549c 5b7c 7443 713e
00000560: a2d2 1f83 9c39 54bf 34dc 489e cd47 57bf
00000570: c1b8 8ecd 11c5 51bf d45f ce1c 0000 6a3e
00000580: 0f34 7ed3 e3fb 57bf 7935 f242 5fe1 55bf
00000590: 6e36 5623 494b 51bf d71b 55e8 b56c 5abf
000005a0: 4af8 9c03 b8e5 55be a4db 33a3 4378 79be
000005b0: 723d 3684 b01d 80be 0b31 ee34 d9ea 663e
000005c0: 885e 3aa2 09bb 6abe 0c24 5b47 3d44 803e
000005d0: 245e 5ddf 4ca7 82be 48d9 224e 225f 5a3e
000005e0: 5061 8c4b f9f3 3d3e 103a 8dab 8088 463e
000005f0: 4095 3a2e cc98 72be 80ee a8b7 ffb2 03be
00000600: 8cde f2b4 ba7e 7f3e 34e7 068d 25ff 513e
00000610: 60ec 6ade f57f 873e cc8c 5ae9 db9c 643e
00000620: a407 8a54 4a60 62be 52a5 5c30 d2f5 80be
00000630: fc5a 3b05 6c68 7ebe 853c 1a9b 0ed1 7c3e
00000640: 4c28 98f9 9841 72be 988b db65 890d 693e
00000650: 8074 6629 496d 303e 9663 38a1 8329 7b3e
00000660: a70d 176a 0337 81be 9349 0e54 e212 763e
00000670: 25b4 f4ac a297 83be e426 7c83 4429 513e
00000680: d5fc f2ec 1b21 82be 2c3a fd21 6803 64be
00000690: adc7 b9c5 81d8 79be f81a 5b63 c049 87be
000006a0: 9fa3 efcc 0843 6bbe 4b1e 9fa5 f042 62be
000006b0: 405b 13a9 b200 6f3e cb45 24cb e262 74be
000006c0: bb7c 5a3a 4e5b c3bf 75a1 2aa1 d820 7c3e
000006d0: dc47 67f0 5156 82be f10b c7b9 23e9 75be
000006e0: b21b 42be 4d94 c1bf 364b e5a0 cd46 c2bf
000006f0: 79ea 0782 48d1 c0bf 1019 f021 0c13 62be
00000700: 85c9 7318 37c9 bebf 797f 146d c336 c0bf
00000710: 5820 d3f3 5eb8 bebf 566c 3dd4 6de8 653e
00000720: 70b1 ddd5 d22e cebf 649c bc99 4cef c1bf
00000730: 51fb 5867 daad c1bf b5d5 03ac 4fd6 82be
00000740: 6282 2fcb bf8c ccbf f496 c835 9ec8 ccbf
00000750: 5ff5 7d20 9142 bebf 56a9 c264 93f1 74be
00000760: 37f7 4382 fc26 ccbf 7e35 ccb9 7b93 b9bf
00000770: 8e88 afc9 db8f bcbf 250e 98f2 9f43 c7bf
00000780: 77d0 323c a4da 7b3e 261e 2567 3c31 723e
00000790: 343d f233 e272 803e cbd1 5332 c7cc 83be
000007a0: 530b 7dd7 62ea 62be 3e48 2e22 985f 803e
000007b0: 6a9a f0fd 95e9 5f3e 89cf c52e d08c 78be
000007c0: d485 5a5d 8ab9 6dbe 8842 50a3 d7e9 4abe
000007d0: e404 cfd3 3720 54be fd69 b08b b4b9 60be
000007e0: e138 4f5b 5895 85be 455e 6a18 3a9c 70be
000007f0: a53d f1d5 705e 763e 2f05 78cd 705f 633e

bias f8 [120]
-0.2680561060051225 -0.23911465009482308 -0.0014448522366498457 -0.17775740233117135 -0.13980046805025498 -0.32579718527579143 -0.23999471754743726 -0.01138273960371786
-0.2219096161797411 -0.06317442220171454 -0.07503921403074106 -0.13982348518689713 -0.14971851224557178 -0.2511594144754321 -0.23692898931444087 -0.24810242367756297
-0.35363077494308914 -0.19063264043349049 -0.20925802785546171 -0.26857217566929903 -0.10432007556191901 -0.07685529408736526 -0.28283070926766857 -0.2586075047798264
-0.20385969931503942 -0.0758250565526995 -0.19563854969540637 -0.26719141521298356 -0.23295995956378904 -0.2391593145057078 -0.22494218966402738 -0.18568227724862504
-0.23098597652716207 -0.17621643483816368 -0.13040203899131272 -0.2466734171279137 -0.08086545694604928 -0.19416554938357555 -0.12950494087809353 -0.09560899727048984
-0.1915761827969106 -0.24124296190485606 -0.19859091953429295 -0.11983198535867237 -0.12238621219787177 -0.26514680075529495 -0.1612403425042769 -0.16896334732014914
-0.0008807159744999335 -0.14279074760557242 -0.16652509778873556 -0.426773334053276 -0.1428458653815882 -0.0669823680214025 -0.35197083387188877 -0.25428825006388
-0.16757143016348722 -0.24480198395626476 -0.29934445508503416 -0.24638356642000667 -0.3147872914947343 -0.24531130220352498 -0.11726066012547334 -0.07768525353866
-0.25535020288653065 -0.1110205951243837 -0.010899276095502444 -0.3068291366509977 -0.2833848167624854 -0.0728152156457133 -0.32001044062991546 -0.19993176558387243
-0.29356518369979984 -0.28524208312846044 -0.22436347627175038 -0.03465520464707774 -0.3010349879227438 -0.1658455490781995 -0.05992004447200854 -0.14990346994402923
-0.25642742892589304 -0.19655680562428468 -0.10887607385065287 -0.2614138134260272 -0.10645597936991197 -0.24061583169799916 -0.30268714382484757 -0.14525636354601468
-0.15685867047059499 -0.2468821190191995 -0.20448444884288527 -0.211559563168681 -0.0054664903550877934 -0.22439016116507515 -0.18868280431803075 -0.3000006704971011
-0.36760898238347206 -0.2806819222535952 -0.23905782858320682 -0.3528621061428097 -0.19273083665815718 -0.05174964109422617 -0.4203705113929039 -0.335060985222907
-0.3093573068589517 -0.26069748077487725 -0.2529221380963818 -0.20691965791676512 -0.25205124830058273 -0.09662717538959933 -0.2286806267064982 -0.23221615226066716
-0.35175826000959354 -0.2004162855973174 -0.22377739018191134 -0.10276984193133461 -0.138884896487313 -0.042394000029293076 -0.29233109784905087 -0.2866375879049664
00000000: 3f3f 32cc d427 d1bf 7e6c 1311 4f9b cebf
00000010: b156 a746 26ac 57bf 9530 d12a c1c0 c6bf
00000020: 2ae4 1e53 fbe4 c1bf 2bdb f86f dcd9 d4bf
00000030: af1c 8a9b 25b8 cebf 92df b172 d54f 87bf
00000040: 9e77 14c8 8867 ccbf c0d0 4ced 322c b0bf
00000050: c5f8 2d1a c535 b3bf 5094 0b68 bce5 c1bf
00000060: 31aa d9e8 f929 c3bf 9049 d0ef fe12 d0bf
00000070: c138 4a6a b053 cebf ac71 e0f9 d1c1 cfbf
00000080: 5057 4ff9 e2a1 d6bf cc21 1b7e a666 c8bf
00000090: f246 0891 f7c8 cabf 8a5f c759 4930 d1bf
000000a0: 07cd da70 b8b4 babf c133 a1de c9ac b3bf
000000b0: d5fb a6f9 e519 d2bf a0e3 e17d 068d d0bf
000000c0: 07e7 c31a 1318 cabf 4477 1c5a 4569 b3bf
000000d0: 83aa 631a af0a c9bf 7126 8705 aa19 d1bf
000000e0: 714e cdc7 a1d1 cdbf 47fb 2abd c59c cebf
000000f0: 097f 0cda e7ca ccbf 2765 1dd6 6fc4 c7bf
00000100: 8a67 82cf f290 cdbf 7ae5 5298 428e c6bf
00000110: e752 6696 03b1 c0bf b9b0 ad99 fe92 cfbf
00000120: c799 f53c 99b3 b4bf d460 4eae 6ada c8bf
00000130: 21f4 de2e 9e93 c0bf 4de8 7acc d479 b8bf
00000140: 6512 e77f 9185 c8bf 84c1 e2a3 0ce1 cebf
00000150: 6f57 5760 6d6b c9bf fa57 211a 4fad bebf
00000160: 5c05 dfea b354 bfbf 6683 7849 2af8 d0bf
00000170: c504 ed06 86a3 c4bf bb3a 7b49 97a0 c5bf
00000180: 2689 5d27 fbdb 4cbf d493 919b f746 c2bf
00000190: 07a0 7bc4 b150 c5bf b813 241a 4150 dbbf
000001a0: 0564 17f8 c548 c2bf dc80 0fa8 c125 b1bf
000001b0: 040a 28ad b086 d6bf 0603 7239 4246 d0bf
000001c0: 71e7 250a fb72 c5bf 0146 8be1 ab55 cfbf
000001d0: 0011 35a5 7528 d3bf dfdb 0528 7f89 cfbf
000001e0: b4a4 8a98 7925 d4bf f2d2 265a 5c66 cfbf
000001f0: c2a5 586c cb04 bebf bb7b 5447 2ee3 b3bf
00000200: e02c 9b60 a857 d0bf 12df 3d81 d86b bcbf
00000210: 7bc4 0a13 5c52 86bf 910f d8ac 16a3 d3bf
00000220: 8661 0b12 fa22 d2bf 8c7a d999 04a4 b2bf
00000230: 0e94 3812 0d7b d4bf 6aa0 4e35 5d97 c9bf
00000240: 2708 cf9f c5c9 d2bf 9ab2 9e02 6841 d2bf
00000250: 6184 8040 f1b7 ccbf 73d6 30b5 53be a1bf
00000260: bb1d 0541 2844 d3bf 1530 bd4c 6d3a c5bf
00000270: 27a8 c30e d7ad aebf 13b7 7b72 0930 c3bf
00000280: 492e 4297 4e69 d0bf 3c34 fbfd c528 c9bf
00000290: 2e64 8168 4ddf bbbf b2cb d800 01bb d0bf
000002a0: 0c80 dbf5 b240 bbbf b878 05e4 7fcc cebf
000002b0: 7d6e e9e5 395f d3bf 88a6 7bb1 c297 c2bf
000002c0: 98f3 e1e5 f113 c4bf 4acb 9351 d599 cfbf
000002d0: 3b0f 29e2 8b2c cabf 8596 7b3e 6214 cbbf
000002e0: ccb5 c8d4 0764 76bf f0c3 df19 d1b8 ccbf
000002f0: 7c87 ee14 c226 c8bf 2e0a 2403 3633 d3bf
00000300: f061 43d3 e786 d7bf 3716 2a4f b1f6 d1bf
00000310: 110f cf69 7299 cebf 1963 78f1 4a95 d6bf
00000320: 0552 3070 67ab c8bf 3cac 28d0 ed7e aabf
00000330: 0ba9 a8b7 59e7 dabf cdaa 6ca1 a371 d5bf
00000340: ac38 ef96 82cc d3bf d1f8 847c 44af d0bf
00000350: 19bc e355 e02f d0bf 2f75 d3e5 577c cabf
00000360: 937c 178f 9b21 d0bf f203 34fe 8ebc b8bf
00000370: e672 7722 6845 cdbf b800 c845 42b9 cdbf
00000380: 4eb3 b513 3583 d6bf 8cf6 1ca8 3da7 c9bf
00000390: 7030 35ce bca4 ccbf 3534 1cd6 1f4f babf
000003a0: 2622 29f4 fac6 c1bf a349 5897 aab4 a5bf
000003b0: 8663 377e 8db5 d2bf 42cb 762e 4558 d2bf

weight f8 [120, 120]
4.940052345195555e-08 -5.509529873024195e-08 4.934704337014037e-07 -0.005176418499996901 -0.0007550460558051574 -1.0529925443996025e-08 -8.666218465563361e-08 -3.808871500120621e-08
5.587045740136953e-09 5.4077619245865816e-08 -6.788144025615145e-08 -1.6930747797630874e-07 1.2693828008536098e-05 -7.550437283645235e-08 -0.00010071286709141231 9.566004215949465e-08
2.5834530535771715e-07 -6.37072204664003e-08 -5.410817149294526e-09 7.928781548572398e-08 -4.714580702806147e-06 1.8523172295062974e-06 -1.594997916442263e-08 1.2446719100692794e-08
-5.468406941952639e-08 -0.0021820198033583285 -2.198915649075808e-08 -8.631871231283463e-08 -1.2117127168530876e-08 -3.366759373625773e-08 6.725648627609773e-08 3.586963544106263e-08
2.6802349311829133e-07 -7.110447433167482e-08 -0.03289637954552965 7.875686817046283e-09 -5.436519315304187e-08 -1.0909263256931162e-08 -0.002493442157075639 -1.950633723090199e-06
1.976452155308183e-08 6.683535514973856e-08 8.253226677596753e-08 -4.14981392356148e-05 -5.002920705020874e-06 6.412253543825813e-08 1.2167808001164283e-05 -1.581335792473326e-06
-0.0008283720134827083 -3.252659155721007e-08 1.5487747386994367e-07 6.117868874447982e-08 -3.988332148976077e-07 4.4225983001170235e-08 -0.000722642630303616 -1.1322574857153789e-07
-7.684099725513472e-08 -5.1993918816055916e-08 5.406601693518655e-08 -4.065107326597081e-08 -0.00016803556145863552 3.835489155164546e-09 3.613712592450426e-08 1.4156020634887142e-07
-5.707624883606775e-08 -6.489981368351219e-06 -1.829288070175973e-06 -9.420382859814581e-08 6.651685054740253e-08 -0.00980499171515426 -5.872475767584203e-07 -1.1223091241729317e-07
-8.088519857760195e-08 1.4255066987118769e-08 -4.72431191281555e-08 3.4714280181741095e-07 -7.408386107613793e-07 4.0853949920923314e-08 -0.00037319270196490705 1.2171737854873749e-05
-5.59872600877195e-08 -6.714528977105802e-08 1.3945039075821971e-06 -3.867428170821521e-08 -7.822076163776096e-06 -4.795287371268699e-08 1.1601780535619355e-08 7.23661211884227e-08
1.3633215469065162e-06 3.546667749391452e-08 -4.5965517731596813e-08 -1.149447780482752e-07 2.8132055900832077e-08 -0.00636885929833466 1.4801049746175299e-08 -4.102835006429502e-08
3.670218212483637e-08 -6.425694531382199e-08 8.460391808963308e-08 -1.6374136817705621e-06 1.0887601445277095e-07 -2.262195260960814e-06 -0.002451901570823314 7.542461987335962e-07
1.1459842373612015e-07 1.2932314513264393e-08 6.315792756752376e-08 5.6848914026398365e-08 3.8439999215315817e-08 2.3177342649174244e-06 -6.626560371102069e-08 -4.458624191914761e-06
3.3885609678912023e-06 5.0550739781164866e-08 8.060249140111175e-08 -8.65402749671293e-09 1.593318365764706e-06 -0.010751410730674706 -8.420890104323581e-08 8.967897453125968e-09
4.2405747562031174e-08 -3.162445791115612e-08 -0.017513922537954515 -0.16370828410052174 -0.2343904417929358 -0.1720045914723898 -0.26296547813346416 -2.5350627676594867e-08
-0.17692529943230845 6.469824270408057e-08 -3.625918102171071e-08 -5.741216606927859e-06 -0.1220323486877722 -1.0924160070373969e-07 -0.17590073208180965 -0.2587331279268123
-2.09709918613422e-06 0.13781706415569572 -0.012754350357750363 -5.417035429734372e-08 -0.15313583585355214 -0.10140377920269168 0.11115856390832443 -5.439824181010872e-08
6.028186691167826e-08 -0.21884668355292053 0.12135421594901494 0.20009502628634981 1.5316594575485818e-08 -0.2568019113092651 -0.22228846467071886 -5.5092388410456734e-08
2.1510609227681813e-06 1.1487726081741621e-07 -0.24684188434080898 -0.22747942876906116 -3.6016500608906956e-08 -2.3434802350629984e-08 -0.232401286437549 -0.07386127459507999
-8.208999950934303e-07 5.1594526601219547e-08 4.0656635089257656e-08 -0.21767850745132336 -0.13305919863633078 9.235432599130266e-08 -0.15911168755806307 -0.07983213625672979
-0.16821363246345883 0.24907612533884319 2.5382246486965895e-06 -0.2725257512221596 -9.618860450085823e-07 -6.283752580283753e-08 -0.13820851101386944 -0.18027713963381528
0.22774778344951627 0.10010617434485795 8.182884325480106e-08 0.2502975209467712 -0.2159563133825992 -0.3071937845439455 -0.235697927596844 -0.03770444357191863
0.23353858525701018 -0.1289040442336107 -0.054901005308683526 0.22719133441611616 -5.914776027053925e-08 -0.17657633329062092 -0.08236541008134564 0.06917804788839411
-0.1650614603749113 -0.2600946144450373 -0.2595041607555973 -0.0024071825760592354 -0.17882949000388274 9.458711233090987e-08 -0.17791603097870032 -0.14855521595040588
0.057462811505470404 8.662325285371661e-08 -0.032921328876189884 0.2077483877300137 -0.19505556536131877 -6.604772315639064e-08 4.563223093153553e-08 8.023406209948177e-08
-0.06764520553488437 6.150142104125237e-08 0.03145464846598182 -0.20043622965873192 2.0806617071095826e-08 -0.061431181216858345 -0.17621251056417842 -7.10467438798508e-08
-0.2418081418350979 -5.9026311884740345e-08 -0.17007280174532957 -0.05337409939390589 2.7671543813966655e-09 -0.053713007573747126 -0.24590543734342551 0.012243149631417505
-0.17653718061855328 6.39747778523432e-08 0.12212689976974679 -4.753865902098758e-08 -8.306072941729418e-08 -0.09015760638997518 1.6390914478881244e-08 -0.1085203053477061
-0.06772505595871575 -0.2665288903674407 -6.744423592506738e-08 7.220641654763232e-08 -0.09670569996419714 -0.200241860342468 -0.2758692247614729 -0.22741465844287825
2.996907797215976e-08 7.245968366544477e-08 -9.883182974339867e-08 1.3187387334232754e-08 5.0001052595935684e-08 0.1488251989529309 -6.328379987206651e-08 5.1566678918212604e-08
2.4523909232357975e-08 -5.1179940619615804e-08 8.56451134822629e-08 7.955820257966387e-08 -1.61116636565152e-08 -6.303767537888452e-08 -7.403330750692532e-08 -4.963629815794702e-08
00000000: 5830 0566 8e85 6a3e 23ab a97d 3d94 6dbe
00000010: 80c0 aaf5 e08e a03e c9b3 af42 de33 75bf
00000020: 5b9d ee0e c9bd 48bf 8c51 7242 e39c 46be
00000030: 84b0 8546 6143 77be cf76 5f85 df72 64be
00000040: 606a d091 05ff 373e e6ff c413 5f08 6d3e
00000050: 7e00 0bed c638 72be 78d1 5c53 5cb9 86be
00000060: f34b e26f f29e ea3e beff 5ef9 9e44 74be
00000070: 1f13 bce1 b966 1abf 6c47 3942 b5ad 793e
00000080: 9d48 3cab 5656 913e 3e71 5a46 ed19 71be
00000090: c0ac 8ea1 413d 37be 7cca 4600 9e48 753e
000000a0: ad76 6113 3ec6 d3be 6339 0955 a413 bf3e
000000b0: a8c6 e200 4c20 51be 88ea 07fc a7ba 4a3e
000000c0: 0c5f 52a5 b85b 6dbe 398f 3af6 06e0 61bf
000000d0: de70 e953 559c 57be 5a70 9bd8 c62b 77be
000000e0: b03d 350b 7605 4abe f0cb 3525 3d13 62be
000000f0: 2302 889e d40d 723e 6ad1 9c99 e241 633e
00000100: 18fb eec9 9bfc 913e e3c0 1a24 4316 73be
00000110: b815 9c54 cbd7 a0bf d85e b761 b4e9 403e
00000120: 687e 402f e52f 6dbe 88aa 824f 6e6d 47be
00000130: 7887 9c90 206d 64bf 1090 e33a f45c c0be
00000140: 1641 9b8f d438 553e 682b 8c00 e4f0 713e
00000150: 51f6 e5fd 9227 763e b90a f734 c9c1 05bf
00000160: a895 3b5f d8fb d4be b4ae b492 7736 713e
00000170: 1deb 37cc 8a84 e93e 20b0 5b17 c987 babe
00000180: fb66 795a e324 4bbf f4bd 3bb3 6b76 61be
00000190: eaeb cdaa 8cc9 843e df28 d5df 2a6c 703e
000001a0: e4bb 7f07 e7c3 9abe 20da 2071 5fbe 673e
000001b0: 336b 5f3b f7ad 47bf 8255 136f d064 7ebe
000001c0: 6ae1 9a1e 79a0 74be 7ba0 cf62 fde9 6bbe
000001d0: 7307 72db c606 6d3e 5b5f d37c 0ad3 65be
000001e0: 4c43 687b 5606 26bf 10cf 7a38 2a79 303e
000001f0: d517 b215 a666 633e 2919 48be f8ff 823e
00000200: bec9 faf9 7fa4 6ebe 9097 a07e 9038 dbbe
00000210: 362a f380 bbb0 bebe 8c19 5f47 a349 79be
00000220: f2d1 56cf 00db 713e c379 08b6 a314 84bf
00000230: 5fa1 fb13 6bb4 a3be 7f8b 5717 7320 7ebe
00000240: 2f83 2c76 63b6 75be a07b f852 ce9c 4e3e
00000250: 6b1b 677b 0b5d 69be 0531 3a30 de4b 973e
00000260: 62bb 6b55 c1db a8be 68ed 4793 ecee 653e
00000270: b428 3673 2275 38bf 5152 a7e9 a686 e93e
00000280: 004c 5697 d40e 6ebe 671c fe6d 3006 72be
00000290: b5dc e842 5965 b73e c43f 6151 5ac3 64be
000002a0: 2ee4 40f6 7167 e0be 3e1b 5ec0 97be 69be
000002b0: 24f5 f973 25ea 483e 231e 6b44 f66c 733e
000002c0: 5126 aae4 6bdf b63e 2461 17c7 800a 633e
000002d0: 654a 0ee1 73ad 68be 161e 96eb f1da 7ebe
000002e0: 287c e371 e134 5e3e 1803 63a6 3b16 7abf
000002f0: 40f8 f890 f6c8 4f3e af53 1fbc e406 66be
00000300: 1671 7b3b 4fb4 633e cba6 f822 b43f 71be
00000310: c288 fbdd efb5 763e 0e2c f161 a378 bbbe
00000320: 4a7c 1e1a e739 7d3e 5d6b 32ff 06fa c2be
00000330: 050a e9a1 0216 64bf d8fd 71ee ec4e a93e
00000340: b06b 6fca 24c3 7e3e 3874 9576 9dc5 4b3e
00000350: f0ff 0e03 2ef4 703e 3629 0d58 4185 6e3e
00000360: dcd0 483c 27a3 643e 889b 1ee3 4b71 c33e
00000370: e830 2ed4 bcc9 71be 6a2b 2549 69b3 d2be
00000380: 4589 c217 e16c cc3e c6fa ae09 a423 6b3e
00000390: ef3a 3d06 f6a2 753e b85a 1318 9a95 42be
000003a0: ae72 e511 40bb ba3e e1fa caeb d504 86bf
000003b0: 780e 5ca7 ca9a 76be 108b 065d 2742 433e
000003c0: e663 d699 33c4 663e af9c bab1 6efa 60be
000003d0: eccb 1972 2bef 91bf e8e3 259f 64f4 c4bf
000003e0: 7d71 ff88 8100 cebf 6960 9117 3f04 c6bf
000003f0: d6da 2328 6dd4 d0bf cc82 6ed5 5338 5bbe
00000400: 6ec9 72fb 7ca5 c6bf bace bb85 075e 713e
00000410: b9b9 4684 6c77 63be 5674 ae9a 9514 d8be
00000420: 5505 ab12 833d bfbf 1604 3990 0653 7dbe
00000430: 5b21 d149 ea83 c6bf ab98 b564 158f d0bf
00000440: 46dd 4978 7c97 c1be b891 b053 fda3 c13f
00000450: a59a 58ed f31e 8abf b428 dbe6 1d15 6dbe
00000460: b716 6b7f f499 c3bf 25ca 5d1b 99f5 b9bf
00000470: 9615 a83c e374 bc3f f35a 17fb 6f34 6dbe
00000480: 6252 5cd1 892e 703e 4e53 590a 2b03 ccbf
00000490: e694 bbe4 1111 bf3f 35fe febc b69c c93f
000004a0: 50b0 7d86 3172 503e d6e8 a748 716f d0bf
000004b0: 09f7 04cb f273 ccbf 1f23 d517 d793 6dbe
000004c0: 13d7 913f 5e0b c23e 8bba 0225 4ed6 7e3e
000004d0: d36d 43ce 8398 cfbf 69b6 89c1 0b1e cdbf
000004e0: 8c63 71f5 1156 63be 7402 899c b529 59be
000004f0: cd17 664a 53bf cdbf 82a5 d38e 92e8 b2bf
00000500: df5b 002e 7a8b abbe b01c 8d05 19b3 6b3e
00000510: 89b7 462d ced3 653e cdd3 45ab e3dc cbbf
00000520: e199 4975 1508 c1bf 0ad8 1e7c 8aca 783e
00000530: 7d93 3c93 c55d c4bf ef78 64fe e06f b4bf
00000540: 7601 1639 0688 c5bf a9b9 45fa b9e1 cf3f
00000550: a96b f0c1 cb4a c53e da49 34d9 0f71 d1bf
00000560: fcf9 1de4 4423 b0be 0761 ca71 29de 70be
00000570: acad 6a05 d1b0 c1bf ebc9 7841 5213 c7bf
00000580: 0f7a d3e0 d626 cd3f c357 f0e8 8ea0 b93f
00000590: 2690 fd3b 3cf7 753e d71e afe4 df04 d03f
000005a0: 1fe7 abdb 74a4 cbbf 56a5 891e 10a9 d3bf
000005b0: c6b7 6185 592b cebf 144c 1c30 ff4d a3bf
000005c0: 3f38 04a5 97e4 cd3f 791a 277f ed7f c0bf
000005d0: 98fa a20c fc1b acbf 943b a00b 9b14 cd3f
000005e0: 6c78 3ace 34c1 6fbe 478b 5da4 0d9a c6bf
000005f0: 65fa 9e46 e615 b5bf 6122 480d a7b5 b13f
00000600: 83f3 11e3 bb20 c5bf fb0e bae1 63a5 d0bf
00000610: 05c2 e756 b79b d0bf 3fd2 114e 3ab8 63bf
00000620: b142 907d e2e3 c6bf 2ef8 d813 fa63 793e
00000630: 036b 3ed7 f3c5 c6bf 7c1f 1479 db03 c3bf
00000640: 32ee 4d00 c46b ad3f db0b 4661 b440 773e
00000650: ca6a ba7d 10db a0bf f86e 8cc9 7f97 ca3f
00000660: 8598 10ad 94f7 c8bf 8852 65d5 c3ba 71be
00000670: 5c4e 7064 a57f 683e 2774 2c8c a489 753e
00000680: 1ee7 8039 3251 b1bf 0257 e270 5882 703e
00000690: 35e8 efdc d21a a03f a2ad a8f5 e4a7 c9bf
000006a0: 948b 8d83 4757 563e 95e6 8f64 e873 afbf
000006b0: 2c75 02ad 218e c6bf f85f 4389 4b12 73be
000006c0: 984c 8bb6 91f3 cebf 8018 6bb8 83b0 6fbe
000006d0: 54b7 b710 f2c4 c5bf cc57 b396 d953 abbf
000006e0: 0023 1c6e 09c5 273e 864f cc75 4580 abbf
000006f0: 3038 a651 d479 cfbf 8dc2 22ba ef12 893f
00000700: 1472 a434 c598 c6bf 8d69 b231 502c 713e
00000710: 1912 7960 b543 bf3f 0ef0 1ade a985 69be
00000720: 6d87 0dce e34b 76be c13a eea2 9114 b7bf
00000730: e47e 5b11 8099 513e da9a 6b9a fcc7 bbbf
00000740: 6463 76e4 6d56 b1bf 174f e430 cf0e d1bf
00000750: b0c9 c78b bb1a 72be 705d a8b6 fc61 733e
00000760: 14da ae6a b4c1 b8bf 4e05 bb78 86a1 c9bf
00000770: 94b2 9464 d7a7 d1bf 7953 526c ec1b cdbf
00000780: 48af c630 eb16 603e 98e6 5a3c 6473 733e
00000790: 93ce 9aef ab87 7abe 38bc 79c5 d751 4c3e
000007a0: 1eaa ada3 17d8 6a3e 7c69 2941 b40c c33f
000007b0: d4bd 8561 d4fc 70be 7eed eb37 45af 6b3e
000007c0: 300c ecb1 1455 5a3e 8cb6 0113 1e7a 6bbe
000007d0: d831 2ac5 7cfd 763e 60f6 7db3 325b 753e
000007e0: 185b c289 bd4c 51be d5bd 5883 eaeb 70be
000007f0: dde7 19b8 87df 73be aabf c6fb f5a5 6abe

bias f8 [120]
-0.023074191043682423 -0.3258614262281019 -0.1662418342397642 -0.3480526091059807 -0.23164081658259966 -0.19745094118596712 -0.7707210776618768 -0.3110124731746825
-0.2167325335308568 -0.1852178901690698 -0.26415004833232364 0.09643344375383392 -0.28675437984209046 -0.5456137625760707 -0.18731666239644518 -0.27405416161539464
-0.00966924950759895 -0.3928965053817372 -0.8091504646589199 -0.16032737668049787 -0.879964700966206 -0.2433081309171713 -0.17512946392382742 -0.3811714793680577
-0.17766823035152038 -0.23488358555972794 -0.3577757791554476 -0.25161815953685623 -0.08529664810786258 -0.2095323287124117 -0.21242383930239575 -0.15580200274468886
-0.2373866137021981 -0.3039095766344819 -0.3166379224162941 -0.27830466526811326 -0.21872518280374564 -0.08365978714567322 -0.3547392783497025 -0.3240204713963006
-0.15295568033541931 -0.37234279286303457 -0.8406969140165899 -0.38702249679233935 -0.23755812810033233 -0.09885103177752944 -0.10414089159212325 -0.0950075668708889
-0.06464191041317338 0.30670510134447365 -0.4599407820271557 -0.26776601553622337 -0.19665724736477694 -0.06328789024675778 -0.07629005928466484 -0.8363845598668369
-0.21821589502774008 -0.2267678988469812 -0.5655841123009551 -0.2734579604987411 -0.3352640439236547 -0.24555168998217655 -0.24553648067566844 -0.06786961093952641
-0.1984645002208401 -0.21912043372150317 -0.28233167180049656 -0.35236121164620027 -0.19089718232924005 -0.16398848003365735 -0.17457904414340153 -0.21467570028121832
-0.25297241717101937 -0.0922162989176204 -0.092490015662205 -0.4219127311837188 -0.9192395454989072 -0.20638858427545653 -0.8873953753660033 -0.4025651119100879
-0.01432487184048039 -0.41145776909436826 -0.27206771988731754 -0.20153525928869664 -0.18096220986466716 -0.18864870268789424 -0.34657249247547617 -0.8471282459619406
-0.2091742812638087 -0.09666591708531161 -0.05097973007706517 -0.26481098268098247 -0.14083097732898112 -0.11999040939417559 -0.17609068320641874 -0.03181865165914755
-0.89117897245469 -0.1937625231647466 -0.6597322027570026 -0.32075472262606186 -0.2252671552925023 -0.20214086108207346 -0.2444829245491685 0.557284650514959
-0.9234858601461031 -0.1320692007794054 -0.362470488785953 -0.47716338536652286 0.17266954373405724 -0.2843997455193793 -0.2958428132292889 -0.40693819921634045
-0.23826428877326938 -0.1787325627847289 -0.1625761166345241 -0.15208430696843175 -0.2279956057751936 -0.3199677592841459 -0.3820619225433926 -0.23908784901140812
00000000: f336 a8bf c2a0 97bf 085e 2be2 e9da d4bf
00000010: 2fb7 a494 6947 c5bf 3e73 5973 7e46 d6bf
00000020: 4a0c d201 68a6 cdbf 9aa4 7a8b 1246 c9bf
00000030: 0fa9 dc3f bfa9 e8bf d2bb 3bdc a0e7 d3bf
00000040: b243 bf43 e4bd cbbf e283 7446 38b5 c7bf
00000050: ddbe b49a d5e7 d0bf c2d2 29b7 dcaf b83f
00000060: c104 da0a 2f5a d2bf 1d60 50fe aa75 e1bf
00000070: 9c8a 7e0d fef9 c7bf e421 5e77 1a8a d1bf
00000080: 7ec7 4bb3 78cd 83bf a7f1 5462 3725 d9bf
00000090: bf1a e883 8fe4 e9bf db83 bf83 9b85 c4bf
000000a0: c718 89bb ab28 ecbf 04f0 9188 b824 cfbf
000000b0: 7f36 0f6c a46a c6bf 9570 830f 1d65 d8bf
000000c0: d5f0 7223 d5bd c6bf e651 2c53 aa10 cebf
000000d0: 1b82 b161 cce5 d6bf af97 920d 831a d0bf
000000e0: a4e9 144a 00d6 b5bf cd23 a391 f4d1 cabf
000000f0: fde6 5851 b430 cbbf 6e49 38ed 51f1 c3bf
00000100: daf7 2d3f af62 cebf 0886 2527 4173 d3bf
00000110: 39e3 5cb4 cb43 d4bf 46a6 e95e becf d1bf
00000120: 2413 7ad1 2fff cbbf cfee c751 ba6a b5bf
00000130: 5b97 c75f 0cb4 d6bf 5f6c f85b c0bc d4bf
00000140: 5997 633e 0d94 c3bf d1df 8fdd 76d4 d7bf
00000150: 8094 f136 fde6 eabf ea84 a201 fac4 d8bf
00000160: 0a82 8b03 4e68 cebf 6a0c a91c 4d4e b9bf
00000170: d87f 903b faa8 babf 8c3f 9578 6a52 b8bf
00000180: 4af0 2c4b 5f8c b0bf c79d f26e 0ea1 d33f
00000190: a4cf 3976 ab6f ddbf e854 ed11 1423 d1bf
000001a0: 27ff f98e 102c c9bf b3b8 d79a a233 b0bf
000001b0: 9a35 a3cd be87 b3bf c63c 708d a9c3 eabf
000001c0: 0c46 4e9a 7fee cbbf 374b aa02 bb06 cdbf
000001d0: 8c08 2fda 4319 e2bf a911 4bd1 5580 d1bf
000001e0: c450 0b52 f774 d5bf afb9 f9de 3c6e cfbf
000001f0: 1b0c 3d49 bd6d cfbf 7ba4 601f e75f b1bf
00000200: 7ac8 eee4 4867 c9bf 790e 5c6c 230c ccbf
00000210: 5685 40dc b811 d2bf 308f 190a 168d d6bf
00000220: 5956 80a1 516f c8bf ca28 5513 93fd c4bf
00000230: 44d8 942a 9b58 c6bf d913 fa4b 7e7a cbbf
00000240: c288 a238 b330 d0bf 1864 02c4 7c9b b7bf
00000250: 5cc7 79f8 6cad b7bf a1ce 8c41 9e00 dbbf
00000260: 5d72 230d 696a edbf b28b dded f06a cabf
00000270: 3432 7afc 8a65 ecbf a885 8a75 a0c3 d9bf
00000280: cc12 98c0 5b56 8dbf f281 7cf7 5255 dabf
00000290: ffa6 cdb9 8e69 d1bf f462 d149 e8cb c9bf
000002a0: 041f 970a c529 c7bf 4019 3d04 a425 c8bf
000002b0: 2a06 3864 3e2e d6bf 8394 fdb1 ac1b ebbf
000002c0: 619f 980c 39c6 cabf 4aee 84f8 18bf b8bf
000002d0: e53a e1e2 031a aabf de21 8fc3 a9f2 d0bf
000002e0: f122 f2dc bf06 c2bf a77f 2e04 b1b7 bebf
000002f0: 1c3d c0b6 238a c6bf 11c6 8ec8 884a a0bf
00000300: c76c b2c3 8984 ecbf 7f6d 17da 35cd c8bf
00000310: 23b3 5eb5 861c e5bf ecda edd0 3e87 d4bf
00000320: 6810 6cdc 8dd5 ccbf 4a32 c471 c0df c9bf
00000330: 233f af6a 374b cfbf 05c9 909e 46d5 e13f
00000340: 90ab f437 328d edbf 0b05 14c1 a4e7 c0bf
00000350: 8e73 c66b b732 d7bf f3dc bf4b d889 debf
00000360: ae2f ad1d 091a c63f f2c5 7ffd 9a33 d2bf
00000370: 43e4 e4b1 16ef d2bf ee25 4884 460b dabf
00000380: 82fe 0ab8 717f cebf b701 f267 b5e0 c6bf
00000390: c829 0750 4bcf c4bf cb05 55a2 7f77 c3bf
000003a0: 43d4 37c3 f52e cdbf 7096 790d 5a7a d4bf
000003b0: 79ba 97d9 b373 d8bf 78ff 2f3e 6e9a cebf

weight f8 [120, 120]
3.242711762666946e-08 -0.22327223991946543 7.838567449532748e-08 -2.457790131414631e-08 0.00198696739086244 -0.20910761521520843 -0.265656372952445 -4.360708735551865e-08
0.13932119392641673 -0.13280842144648672 0.19073592019133684 -0.3482584906434802 -0.2672408297782477 3.6020328493945992e-09 -0.16297111518333932 -0.2967819927306492
-0.2710466724902143 -4.155441952243157e-08 -0.2183540265679465 -0.18235128332717215 -0.22667275792219121 -1.49541733640812e-08 -0.23367881483679606 -0.05920984026373176
5.609701402956432e-08 -0.168606697109889 0.12723639095415004 0.06953055937139867 -0.41230645268366917 -0.2615102903402726 -0.26094891339767656 1.1570059052448339e-08
0.23632348423140848 -0.4147225640045937 -7.171298589712977e-08 -0.41159392972455855 -0.21585872282291843 -0.03737023624843446 -0.3729573393104284 0.010879940630227873
-0.1649759316910744 -0.09579058387567803 -0.28743434379009414 0.2551020344501831 -4.721881284900488e-08 -0.3144016977087961 -0.12954052508047456 -0.33175067369370864
-0.2575504068269934 -0.3192376940793773 0.058106165298788495 0.08553986900937734 0.1954350970673131 -0.47803530828960367 -0.40543600956182796 -0.288250501262438
-0.18472228005901714 -0.2641131453882785 -0.3012843050505475 0.2771015001821582 -0.2315744140074959 0.3246289369690233 -0.19470731619732137 -0.27575747576711035
0.00015664649565523553 -0.39992750433554614 -0.19536500116005365 0.2951038427775754 -0.23909432237483683 0.09363489512937781 -0.08259695657497021 -0.4710702944038089
-0.11683164284331543 -0.07930795908494122 1.0691831375660439e-07 -2.7713695542904667e-08 -0.35065007290583705 0.21731118753196035 -0.29613622956901736 0.18657480116956512
-4.146569074892473e-08 5.0028368328995076e-08 0.35043593071234647 -0.00039543630728580546 -5.9580868351937174e-08 -0.3445069583612915 -0.444073027577373 -0.27315398334545266
-0.2690350312939235 -0.24953868512219102 -0.27403282806952756 0.15310230571990016 -4.118623798931079e-09 0.10836502740041735 -0.42505466788300683 -0.1124513245712857
0.3972542035256457 -0.22975913653581698 0.14371978714677494 -0.07205067132340223 -0.22341486954347478 -0.17547501355444017 -0.16268048144020028 -0.9991612514354644
-0.2552076165141824 -0.1902318848218739 0.3240837156483683 -0.2619588427387449 5.095113240992728e-08 -0.21045184604628334 -0.21259408495053544 4.140303552932344e-06
-0.21666876822278291 0.2820592087967378 0.2211752800088976 0.08051608449673077 -0.2550954459467175 0.3327135215788235 0.04472162108780909 0.09326571697218028
-3.391954637397187e-08 6.804567931181019e-08 5.390424515772782e-08 3.271462748213233e-08 -2.626468383976226e-07 -4.832763302753261e-08 -0.22836565427177488 9.968676497877634e-08
-0.009846603459163087 -0.006198571030161372 -0.06167587689288231 -1.0430598029437346e-07 -9.42106646785132e-09 4.699365835537861e-08 -0.06460797820035764 -3.4695209650405906e-08
1.1708438398507853e-07 -1.827100348547139e-08 -0.22080684307482054 -5.9428783923335385e-08 -0.2157557859715523 -3.826544887585969e-08 -2.2858601689300895e-07 -0.0017676546238370996
-5.334285902983725e-08 -0.07616913065413225 5.1140637353439666e-08 -0.00045386815553465206 3.621861259874564e-08 -2.0877128589510907e-09 2.8495096770197975e-09 -6.661082535210137e-08
-7.596070875014291e-08 1.0140304957489598e-08 -6.0216843510332615e-09 5.054617352049493e-09 -9.164206775035234e-09 -7.692753796456872e-07 -7.755350343758644e-08 -0.22322586589390403
-0.012486313350969159 6.065632703778596e-08 9.646907196356372e-08 -0.2835794349166713 -7.165747830323166e-08 -0.017056946970109073 -0.09174698502622929 -1.0137040393538847e-07
2.4163061253112736e-05 3.869719931537028e-08 2.396490087028426e-05 -0.0014766044089003939 3.16160817122809e-08 4.036884990052652e-08 1.4642534724345874e-08 -0.25983429271218433
-6.256540079564932e-08 7.056409665484289e-08 -0.22926928961347048 -0.26626566631952525 -0.024553293311912562 -0.2282095160057836 -0.035616363094053735 1.7485952074533288e-08
1.9649974798801573e-10 4.034634351666136e-08 -0.0654313576086103 -0.19938914846171096 -0.03259023650037038 -6.097097427892326e-08 -0.015431536616485587 -3.6471874058762934e-08
-9.200710398296034e-08 -0.06842653102474426 -4.556592482650105e-08 -7.014046486685579e-08 -0.2331802461578801 5.12605703587191e-08 -4.376292592032495e-08 -5.317134224719728e-08
7.822135682193264e-08 3.2610897136783205e-08 -0.24851088302701566 1.7583137057194815e-08 5.490218486093531e-08 -1.3599029604923244e-09 -4.7155156305944804e-08 -0.219545644604863
-1.0412393216310687e-07 -3.61026372084936e-08 -0.13007533094463794 -0.014978539975723229 -4.1472326881313046e-08 -0.08838594187391327 4.336170388275968e-08 -0.1422981360335075
-0.20901406330495553 -4.591175327140676e-08 -0.26222509147838213 7.623583516555686e-08 -0.013089316939909874 7.6103644338985716e-06 -1.2164281407459548e-07 5.491497903808759e-08
-0.20185263669790696 -0.0011260903570084872 -0.2352779511035812 -4.564648410209151e-08 6.0304060032485025e-09 8.972095344152921e-08 1.751910535462278e-08 1.3290599594839876e-08
-7.79854553545465e-10 -0.24798234077049472 -0.06837526569917174 -0.0008147848100559298 -0.013870646200705883 -0.22381236951577863 2.3393076440617613e-08 -6.807282952259934e-08
-0.006447844948921921 -0.042207787514143474 2.2524016939900656e-08 -0.11726861752792189 -2.2632197567473628e-08 -6.189293126732369e-08 -0.012544859461024918 -1.0225732780088184e-07
3.471620449391557e-08 -1.0195322454726034e-07 7.882436890028125e-08 -8.846458507399683e-08 -0.10963108725303858 1.2317206425701204e-07 -1.1252809625111172e-07 8.930076063797951e-08
00000000: eb67 b8c5 bf68 613e c485 474c 2f94 ccbf
00000010: 88c6 725e 9f0a 753e 96bc cc0c ec63 5abe
00000020: d37a c8fe f846 603f ced0 58d0 09c4 cabf
00000030: b380 7396 8300 d1bf c0e4 bafc 4f69 67be
00000040: 78dd c6e1 46d5 c13f 6b7e 5fc9 ddff c0bf
00000050: 0a77 b2dd 086a c83f 738e f7fa dd49 d6bf
00000060: 2a6c 0348 791a d1bf 00c1 8b39 f4f0 2e3e
00000070: 09da f3cc 3cdc c4bf 6478 34e6 79fe d2bf
00000080: f83e 8224 d458 d1bf 5dbb 8d28 324f 66be
00000090: 5a95 8755 06f3 cbbf 020d 236f 4957 c7bf
000000a0: 78c0 15e9 9c03 cdbf c445 5c66 920e 50be
000000b0: 6ffc bef9 2fe9 cdbf 1e77 118f c050 aebf
000000c0: 5ad5 f536 ea1d 6e3e 519d fc7c e794 c5bf
000000d0: a72b 0135 4849 c03f 539f 9236 c1cc b13f
000000e0: 3e31 8d9a 3a63 dabf 480d 25a8 95bc d0bf
000000f0: 8010 3e12 63b3 d0bf 481c 190d b5d8 483e
00000100: 647c 0612 d93f ce3f 2308 5482 d08a dabf
00000110: 535e 9030 1440 73be e08a d910 8e57 dabf
00000120: 7556 8a35 42a1 cbbf 9bc7 0f0d 3122 a3bf
00000130: c40d c975 88de d7bf af95 83e9 3848 863f
00000140: f9c1 9e6b ee1d c5bf 9dc2 0251 bb85 b8bf
00000150: dcd7 9404 5365 d2bf 90d2 c67b 9753 d03f
00000160: 663f e747 b459 69be 86d5 5d4c 281f d4bf
00000170: 5d18 5daf c894 c0bf 4530 7c2d 673b d5bf
00000180: fd2d 99b3 b47b d0bf 102b eeef 636e d4bf
00000190: 0afc 4e5f 17c0 ad3f 0d3f e6db f0e5 b53f
000001a0: 6085 326b 0404 c93f ddf9 db67 2198 debf
000001b0: 3515 6ce0 a9f2 d9bf ea93 fe3a b272 d2bf
000001c0: 9017 d9cb faa4 c7bf f3b9 78d2 3ae7 d0bf
000001d0: 425f 3ff7 3d48 d3bf 341d 3dee 07bc d13f
000001e0: dc53 60fb 3aa4 cdbf 3680 e772 b8c6 d43f
000001f0: af01 ae59 2bec c8bf 2b06 03af 02a6 d1bf
00000200: 02ba d826 2f88 243f a817 f987 6998 d9bf
00000210: b1f9 6169 b801 c9bf c8d4 693a fbe2 d23f
00000220: a32d a18b a49a cebf 5656 58dc 74f8 b73f
00000230: ce16 3dfb 1225 b5bf 7e36 2505 0426 debf
00000240: e465 26b5 ade8 bdbf 7d13 95c2 864d b4bf
00000250: 914a fedd 5eb3 7c3e b82a aef3 e1c1 5dbe
00000260: 141e de00 0d71 d6bf c599 c05d dad0 cb3f
00000270: 2938 4a5f e5f3 d2bf 4ff7 a3de aee1 c73f
00000280: 02a0 cf4a 0043 66be f4c7 edb9 d8db 6a3e
00000290: b22e 70d3 8a6d d63f e5d1 e701 52ea 39bf
000002a0: 1d32 0471 bbfc 6fbe defe d9e9 660c d6bf
000002b0: e4c0 9e46 b16b dcbf 0d6a 4fd8 5a7b d1bf
000002c0: eeaf 38b5 de37 d1bf 38e4 d735 e2f0 cfbf
000002d0: 5eb2 a5fc c089 d1bf 512c 013a db98 c33f
000002e0: 60c5 b289 79b0 31be 1306 b778 cfbd bb3f
000002f0: 3e75 647e 1834 dbbf 10f1 6c29 9cc9 bcbf
00000300: d5d5 15e5 9c6c d93f c273 b054 bf68 cdbf
00000310: 75af caf4 6865 c23f c625 fdac e971 b2bf
00000320: e88d 10c3 db98 ccbf 0ca1 3d1a f775 c6bf
00000330: 57d9 bdc9 b6d2 c4bf 6810 4b04 21f9 efbf
00000340: e195 a753 5255 d0bf 93b2 fbb5 8459 c8bf
00000350: d50e f89f c9bd d43f a87f 9d05 efc3 d0bf
00000360: bcf3 de99 ab5a 6b3e 1568 130a 16f0 cabf
00000370: 98c1 1771 4836 cbbf 54bf 88f9 9d5d d13e
00000380: 2c6d ca5c cdbb cbbf f553 5411 420d d23f
00000390: a332 29b9 784f cc3f 8126 b7bd b39c b43f
000003a0: aec7 6cd9 7b53 d0bf ec8d 87a7 2d4b d53f
000003b0: b113 fe97 c0e5 a63f 14c7 3b14 43e0 b73f
000003c0: 6c1f d2f0 dd35 62be ce2a fe3f 1044 723e
000003d0: 47e3 cf04 8bf0 6c3e 7cb4 46a0 4390 613e
000003e0: 9467 e202 3da0 91be 8261 306c 19f2 69be
000003f0: c73e 50f4 153b cdbf 4fb8 9c1d 6cc2 7a3e
00000400: f597 abbe 742a 84bf 4e20 b43d ac63 79bf
00000410: ab02 6a04 fb93 afbf 2f7b fc35 daff 7bbe
00000420: 18ee 783b 493b 44be 6020 845c c23a 693e
00000430: 3d64 6e01 268a b0bf 8a97 812a 79a0 62be
00000440: e50a 1644 fa6d 7f3e 2496 f491 4b9e 53be
00000450: 4ba3 de0c 6643 ccbf aeb1 4372 d4e7 6fbe
00000460: fbd5 55b6 e29d cbbf 38d3 98ca 298b 64be
00000470: e02f 40de 27ae 8ebe fc41 33b3 14f6 5cbf
00000480: fb6b 1900 63a3 6cbe cace 1ff5 d17f b3bf
00000490: 5c29 a836 b774 6b3e 18d3 7ce2 a4be 3dbf
000004a0: 953c 6824 d971 633e 30ed 50db edee 21be
000004b0: 0016 0757 237a 283e 720c 3c08 76e1 71be
000004c0: 9e37 9feb fa63 74be e416 060d b1c6 453e
000004d0: 202c 6476 e9dc 39be d8c9 2b4d 9cb5 353e
000004e0: a8d0 bc71 13ae 43be 7ec3 2373 06d0 a9be
000004f0: 60cb 2ea9 6fd1 74be 545b d148 aa92 ccbf
00000500: fa8f eb9b 6c92 89bf 4454 d863 4548 703e
00000510: 1242 8cdc 4de5 793e c341 b25b 2a26 d2bf
00000520: c0b1 95b0 433c 73be 62f9 9f55 6077 91bf
00000530: cbba 31fc ba7c b7bf bbca 6301 1f36 7bbe
00000540: 24a6 f7ec 3856 f93e d97e d5a8 80c6 643e
00000550: 1162 a572 0721 f93e c885 4de9 5331 58bf
00000560: e8fd a2fb 47f9 603e 4220 bda2 40ac 653e
00000570: f034 6d8f d171 4f3e f7ff 6403 20a1 d0bf
00000580: 83a6 b52b 76cb 70be 4286 66b7 20f1 723e
00000590: 20fa 6e32 b258 cdbf ebf5 3826 7f0a d1bf
000005a0: fa91 229f 7f24 99bf 02bf f02b f835 cdbf
000005b0: 1602 62d5 4e3c a2bf 3c04 fd7c 80c6 523e
000005c0: 00de 3562 b801 eb3d 543a 41c3 28a9 653e
000005d0: 30d6 0f05 1cc0 b0bf d000 e967 9585 c9bf
000005e0: 0c41 e0df aaaf a0bf 6700 0bb9 e45d 70be
000005f0: 5437 c2c8 919a 8fbf 1f52 d7fc a794 63be
00000600: a28d 3617 aeb2 78be df14 eeb0 6684 b1bf
00000610: 4d8b 2374 8876 68be 7b1e 701b 04d4 72be
00000620: 2b21 a9ad d9d8 cdbf 8af5 21fb 3285 6b3e
00000630: 381e bc11 bb7e 67be 6635 434a d08b 6cbe
00000640: 1988 6fa9 54ff 743e d609 63f0 0182 613e
00000650: e58a a661 34cf cfbf 00c2 fe45 37e1 523e
00000660: 4525 90e6 b279 6d3e a020 d59d ea5c 17be
00000670: 1e71 bc90 f450 69be e34f c759 121a ccbf
00000680: 0812 1796 57f3 7bbe 1762 f59e e861 63be
00000690: 6b38 36f6 4ea6 c0bf 9b52 b39a 11ad 8ebf
000006a0: d119 c7c7 e943 66be 224d c609 76a0 b6bf
000006b0: dca7 e552 9647 673e a4d8 4548 d336 c2bf
000006c0: f840 260b f9c0 cabf 029e d935 10a6 68be
000006d0: d0c6 05c0 4bc8 d0bf 8c08 d8fe e276 743e
000006e0: 379c 7861 92ce 8abf 1ba3 f20b 91eb df3e
000006f0: 2dbf 1182 9d53 80be 4017 440e 757b 6d3e
00000700: ef4b 9da4 4ed6 c9bf ba43 5d50 2a73 52bf
00000710: b1d9 ba80 961d cebf e2fd 95e1 9a81 68be
00000720: a07c aa63 80e6 393e 9891 7cb4 9315 783e
00000730: 3045 6371 9dcf 523e 5c14 109b 958a 4c3e
00000740: 00c3 9f56 accb 0abe 7b22 cca5 e2bd cfbf
00000750: 4883 089a 0a81 b1bf 3558 650e e9b2 4abf
00000760: 808b 739e 3668 8cbf 4359 c13b e2a5 ccbf
00000770: 0a33 5d69 3d1e 593e 660a ace1 ed45 72be
00000780: 80fb f632 0e69 7abf b4ff 0456 429c a5bf
00000790: be8f 30c9 5a2f 583e a42a 21ed 5005 bebf
000007a0: 5834 2052 174d 58be 4140 31f6 3f9d 70be
000007b0: 88b3 f188 1eb1 89bf ac44 61ef 1173 7bbe
000007c0: 6eba 3edb 5ba3 623e 108c 1418 2c5e 7bbe
000007d0: 8a32 68f6 c428 753e cfee 5f70 3dbf 77be
000007e0: ee70 606e c810 bcbf df5c 58ef 2888 803e
000007f0: 3660 5834 df34 7ebe 7646 5598 b3f8 773e
