pyTorch/test_experiments/2/noisey_paths/models/ow_0.0_24_NP_model_1.pth (torch, 470675 bytes, 10 tensors)

weight f8 [120, 60]
9.887818628595481e-08 -8.651694561810729e-08 -2.6638113272693062e-08 -1.1609187534326479e-07 3.80053645836946e-08 1.3779635563767006e-08 -6.495809968749639e-09 -7.302937164493572e-08
-1.206574762714535e-07 1.0409962595325562e-07 -3.327396191964603e-08 -8.774933269281227e-08 -6.434678455836737e-09 6.961307180206145e-08 5.3824517465973076e-08 6.113966718445422e-08
4.603246763236422e-08 -2.5749196971112313e-08 -6.097232434753036e-08 -4.8079400663329194e-08 -0.2447065459193386 -0.03539847343583222 -0.03128413876502843 1.1326436174931016e-07
-0.1529122016897143 -0.3029248028575364 -0.40322302919015296 1.1820163704948363e-07 -0.11993307191140319 -0.09973160905041681 -0.1377751302381343 -8.097143651883874e-08
-0.11288753440492208 -0.11704308537193833 -0.10420441414514792 -0.035615634758595936 -0.14003130800732344 -0.1442383186770661 -0.10142488361507161 -0.2677762964776318
-0.097537706349573 -0.10232883809438023 -0.17921530934045504 -0.3709849231515668 -0.18141866446439883 -0.17416583009769437 -0.10936056378816265 -0.1540397170339495
-0.17977952341183154 -0.10907861993516353 -0.1361772897022516 -0.17604073914010285 -0.12180668840899829 -0.0957880945786989 -0.16579715308613846 -0.11831312962354637
-0.11486635113776886 -0.12446622480538734 -0.13323050792210905 -0.1520239727168011 -8.970433410597828e-09 2.105072607532556e-09 3.722657143870081e-09 -1.1343712536588682e-07
4.242669176726511e-08 -2.5088446299267165e-08 3.500313889934649e-08 6.926411918840527e-08 -1.902517680775091e-08 2.609943813284006e-08 1.1280858435650227e-07 1.4261979012468695e-07
-1.6619694433021238e-07 -9.446238286893956e-08 1.4218184385651031e-08 3.437940800333301e-08 9.748558657495568e-08 -1.0344608083545505e-08 -1.0188421035697766e-07 8.440200709546238e-09
-5.617053963514809e-08 9.802156081700978e-08 1.423980221490421e-07 6.620947658264378e-08 8.91460670836169e-08 4.3608553903604316e-08 8.520669231187626e-08 1.2647236801839357e-07
-0.20536039374808526 -5.8872447481760636e-08 1.4678414427294572e-07 8.307916839198922e-09 -0.20709919083383171 -0.22021380341818797 -0.21686485756735813 -9.574092341082802e-08
-0.19828192475115172 -0.1950704533297225 -0.2153215130350745 -5.2461799318475775e-08 -0.21548850550008758 -0.2318269902013703 -0.19460288804243758 -2.8039372308095546e-08
-0.2124899128598791 -0.1998052727894109 -0.22714793194654762 -6.32080584659479e-08 -0.24376550169283245 -0.1963149257067162 -0.24795194568308015 -0.21225439960816309
-0.24123276082639752 -0.22434758045378475 -0.24018123248664983 -0.2321286753423767 -0.21014801755706575 -0.2265104046402386 -0.20407841870105656 -0.23307283063297027
2.334049225460546e-08 1.55191381832219e-08 6.012602600660467e-08 9.011455470586054e-08 -1.5835233113032835e-08 -1.4577770699094692e-08 1.3008798171732113e-07 -5.5431698837239856e-08
1.6146639291639247e-07 5.716563644656067e-08 -7.098204571290789e-08 -9.758594236378527e-08 -7.935665703678078e-08 -1.1401156112131599e-07 -1.2526558785057586e-08 4.3449616875321775e-08
-1.1100346738867899e-07 4.498298587057759e-08 -4.632908083501862e-08 -1.8892715415790032e-08 -6.268922653272529e-08 9.957357413085222e-08 -1.597162457054735e-07 6.571736330819893e-08
-1.481151910487832e-07 1.0094129522670417e-07 1.1319772885296218e-07 6.454188533619218e-08 -0.2486815420084534 1.8074637636545076e-08 -1.212138717313486e-07 1.637417505575994e-07
-0.30899722414187075 -0.24726675095469097 -0.2936331483881252 -2.3187167294568788e-08 -0.2811260262315251 -0.22057559619691733 -0.33826003687813805 -6.608143604735067e-08
-0.22802387640300792 -0.36359639441924874 -0.16390149696593936 -5.7914236896366986e-08 -0.3700962131035475 -0.36010027522870597 -0.12850114593604478 -1.0539567930526523e-07
-0.2398317508721557 -0.23016403519335502 -0.1453684080042937 -0.2937192876747701 -0.13503329330349545 -0.33852762468321 -0.12135642706384668 -0.2921252148456388
-0.13621468391499378 -0.1461794330179521 -0.24326590581798377 -0.13911709763120964 -5.976239842041395e-08 -7.744315482709037e-08 4.4185265866819634e-08 5.0566486735304855e-08
5.028602695495246e-08 -4.414403351422851e-08 3.224449647967153e-08 5.4460364093776066e-08 6.787831535621102e-09 -3.847695509277659e-08 1.616496120658042e-07 1.7686032601186466e-08
1.0492882167730087e-07 3.905883218583774e-08 -5.045133862222985e-08 -6.51182502025869e-08 -7.354041098566833e-08 1.2530051463246124e-07 -3.744724070453923e-08 -6.94318477348291e-08
8.887950525443385e-08 7.744854365361459e-08 -5.14174055904109e-08 -1.1763113330970789e-08 1.1729726178039319e-07 3.463627162515807e-08 3.576766693855094e-08 -1.3242605081580825e-08
2.453465834608033e-08 -4.815602464391861e-08 -6.915012455598694e-08 1.6671562638852675e-08 1.5048714390849742e-07 -1.2523405008874157e-07 -1.4166118002421975e-07 1.7257402041799902e-07
-0.0031151647568723696 5.183077748737322e-08 3.889128054916901e-08 3.5321489639424486e-08 -0.0015173364348925657 -0.0021133538143957614 -0.002261593619934387 -6.654795079073441e-08
-0.0022569186730909746 -0.0021495257289771324 -0.001486601225860633 7.899801719489568e-08 -0.0026422118594597453 -0.0030451786984420424 -0.0022472936368722963 4.359371060151246e-08
-0.002029214715768345 -0.002584945792895262 -0.002544775211102115 4.5718412021924004e-08 -0.0014185774171215195 -0.0022161894959810227 -0.0020258574571118005 -0.0031579977728914015
6.733065410674461e-08 -4.46766927581632e-08 -1.926948431368242e-09 -5.1675738745264574e-08 -1.746056860923053e-07 -9.592437453317575e-09 -7.866524803578796e-08 2.279095740109287e-08
-1.45975735959075e-08 7.429573423741884e-08 1.704229459527883e-08 -4.8141724273402026e-08 -1.028517538193651e-07 9.893863040252545e-08 -1.5507815649961933e-07 -7.332238918030733e-08
00000000: 6099 e972 db8a 7a3e 5b04 0c34 6639 77be
00000010: b0f6 0894 3a9a 5cbe 2a63 89de c529 7fbe
00000020: 0eee 8de3 6a67 643e f0e5 b84c 6f97 4d3e
00000030: d0f9 acf5 37e6 3bbe 355f ed4a 8a9a 73be
00000040: 7c79 9662 c231 80be 9609 a7fc abf1 7b3e
00000050: 2b42 0175 23dd 61be a471 0496 168e 77be
00000060: d06e eff7 00a3 3bbe 5056 3a1c c6af 723e
00000070: e236 9bd9 95e5 6c3e 7c76 5966 7c69 703e
00000080: 53f1 2678 a7b6 683e 5869 89a7 e2a5 5bbe
00000090: a321 3679 fc5d 70be ccb8 d285 fbcf 69be
000000a0: 749b eb49 8b52 cfbf 4c6f 78ab bf1f a2bf
000000b0: 9e36 c281 7904 a0bf 5059 5eb9 7767 7e3e
000000c0: bc55 b584 a092 c3bf 48e7 5ab6 1e63 d3bf
000000d0: 9e68 d7f6 67ce d9bf 4615 9230 c1ba 7f3e
000000e0: a57b 910d efb3 bebf 52be 3fbf 0288 b9bf
000000f0: 3a97 498f 9da2 c1bf 347a 5593 50bc 75be
00000100: d22c 658c 32e6 bcbf aa39 e51f 89f6 bdbf
00000110: 102d daf6 23ad babf 0b66 0765 363c a2bf
00000120: 085e 27c0 8bec c1bf ae25 c6b6 6676 c2bf
00000130: 4799 202e fbf6 b9bf c8fc 0031 3f23 d1bf
00000140: ddf4 e52a 3bf8 b8bf 2a94 0d05 3932 babf
00000150: cca6 47fa 86f0 c6bf f1ae 0f8c 37be d7bf
00000160: 7d19 610f ba38 c7bf 4cd6 2ce0 104b c6bf
00000170: 4b39 f1cc 0dff bbbf 7d13 79cd 92b7 c3bf
00000180: 0fab c5f2 0303 c7bf a778 5091 93ec bbbf
00000190: c352 dde6 416e c1bf 8f69 afc0 8088 c6bf
000001a0: ed94 261f b92e bfbf 63c9 8f8d 9185 b8bf
000001b0: f22e 2353 d738 c5bf 8aa8 6bee c449 bebf
000001c0: 862d 8c95 e167 bdbf ade7 febc 04dd bfbf
000001d0: 426e 2d81 b20d c1bf 7f69 8383 8575 c3bf
000001e0: 9cc6 8544 8c43 43be 8075 bf86 1a15 223e
000001f0: a046 6eaa 35fa 2f3e 1f1d 8703 5773 7ebe
00000200: c99c 7782 14c7 663e 9065 9e75 42f0 5abe
00000210: 1298 9b76 cbca 623e d5f6 5d45 cb97 723e
00000220: f469 bacc 996d 54be 7407 66af 2806 5c3e
00000230: f5dd 789a 2548 7e3e 27a2 d4f0 6024 833e
00000240: da1f 47c8 7b4e 86be 7f01 4ad0 675b 79be
00000250: 7c75 358f 8788 4e3e 0864 25e2 1175 623e
00000260: 9c7a 5f93 282b 7a3e d8fe e128 0237 46be
00000270: 7b72 ccfb 6d59 7bbe e0de 29a6 0c20 423e
00000280: 8977 bd2a 0528 6ebe f80e c588 fd4f 7a3e
00000290: 6e8e be3f c21c 833e bae4 106e e1c5 713e
000002a0: 96d3 7f32 12ee 773e 688b 3896 8369 673e
000002b0: f2c7 befb 5bdf 763e 857a bdb6 8ef9 803e
000002c0: b956 85d7 3f49 cabf 3c1e 1519 5e9b 6fbe
000002d0: eacb b9fc 76b3 833e a82e 7359 53d7 413e
000002e0: 3e66 d4ed 3982 cabf b889 e745 f72f ccbf
000002f0: eea5 7347 3ac2 cbbf c042 ff22 44b3 79be
00000300: 3dd9 1857 4d61 c9bf 60c8 bb90 11f8 c8bf
00000310: 6731 4ec4 a78f cbbf 7347 b977 4b2a 6cbe
00000320: 9cb5 e499 2095 cbbf 175c 9fbe 81ac cdbf
00000330: c2b9 ec57 bfe8 c8bf 6cb9 b66a 671b 5ebe
00000340: e545 3b95 de32 cbbf da74 191c 3893 c9bf
00000350: 1540 88f5 2e13 cdbf 95d6 8dec 9ff7 70be
00000360: b2f5 d43c b533 cfbf 0d42 d0f4 d820 c9bf
00000370: 6a1d d8ac e3bc cfbf fde4 5ff4 262b cbbf
00000380: bf90 3c11 b7e0 cebf 8b2c 7ee8 6bb7 ccbf
00000390: 3552 5235 42be cebf 7497 8776 64b6 cdbf
000003a0: ce08 5d57 21e6 cabf 3718 11fe 4afe ccbf
000003b0: b3f9 11db 3d1f cabf fdce 939c 54d5 cdbf
000003c0: d8c6 e120 c90f 593e 689b c143 dea9 503e
000003d0: a890 513c d423 703e ee74 fe02 a030 783e
000003e0: 74e9 c977 c100 51be fcb5 81d5 364e 4fbe
000003f0: a466 fefc c975 813e 39b0 7484 79c2 6dbe
00000400: c44d 7c69 f1ab 853e b08d ff05 c9b0 6e3e
00000410: d365 9f5a d90d 73be 4988 aa0d 0e32 7abe
00000420: 326a 0f13 594d 75be 2990 2e98 d09a 7ebe
00000430: 201e d06b 8ce6 4abe 5cf9 bc7c ab53 673e
00000440: 3655 5ea6 19cc 7dbe ce3a cf1c 6a26 683e
00000450: 4cb9 5e9e 6bdf 68be 6020 6da8 3049 54be
00000460: c6bf 4089 f8d3 70be 0806 5ad7 a4ba 7a3e
00000470: a874 52f4 ce6f 85be 6115 e814 10a4 713e
00000480: ff8b 9bff 32e1 83be 58bc 910b a218 7b3e
00000490: 2c3c 7b81 e362 7e3e 1df7 bfda 4853 713e
000004a0: b9c7 05f9 cbd4 cfbf ac98 4c8d 5168 533e
000004b0: 28dd c77d e044 80be cce9 65ab 1ffa 853e
000004c0: 9b9f 0f4b 9cc6 d3bf 9c89 5ed8 6fa6 cfbf
000004d0: 094e 56b0 e2ca d2bf b84c f3d7 a3e5 58be
000004e0: 7301 2e04 f8fd d1bf 2f11 fb35 d23b ccbf
000004f0: e3dc fb6c 0da6 d5bf ec4a c2ea 14bd 71be
00000500: 14d5 ede9 e22f cdbf 2259 becf 2945 d7bf
00000510: b8f8 9d68 b9fa c4bf 006f 690f ac17 6fbe
00000520: c1cd e906 a8af d7bf 35d3 5806 e20b d7bf
00000530: 689c a5bd b972 c0bf e7af 0b66 bc4a 7cbe
00000540: f0e7 448b ceb2 cebf 1b78 efdd 0376 cdbf
00000550: db00 2097 6e9b c2bf 991f b1fb 4bcc d2bf
00000560: 480a 4e5d c548 c1bf 0fa5 33c5 6faa d5bf
00000570: ab0c 66fd 3611 bfbf e455 06f5 2db2 d2bf
00000580: 1f2f 5396 7b6f c1bf 7c78 14f6 01b6 c2bf
00000590: cf2a dc52 5623 cfbf 65fb 51cc 96ce c1bf
000005a0: 0bc7 413b d70a 70be 02c0 3863 dac9 74be
000005b0: 2741 c9d5 c6b8 673e 8519 a315 ce25 6b3e
000005c0: 6135 8348 42ff 6a3e 6147 c519 1cb3 67be
000005d0: 2344 a95c a64f 613e b3dd e0b6 f93c 6d3e
000005e0: b00e 31b9 4c27 3d3e 1582 3c81 3ba8 64be
000005f0: 9302 5506 3db2 853e b457 54e7 7ffd 523e
00000600: 38d1 345a a72a 7c3e c8c3 277c 34f8 643e
00000610: a28a a3ab fa15 6bbe 7eee 585f e47a 71be
00000620: ac00 8397 a8bd 73be e408 81fb 4ad1 803e
00000630: 7ee7 90a6 b51a 64be 9a12 96fb 51a3 72be
00000640: 6fa7 beca c0db 773e 02bc 5630 39ca 743e
00000650: d88d 5021 c19a 6bbe c83a 8306 d742 49be
00000660: 371d 7240 9b7c 7f3e ed18 f877 5f98 623e
00000670: 3624 fee6 de33 633e 4490 7cfa 3270 4cbe
00000680: f082 bd18 0958 5a3e bcb3 487d 83da 69be
00000690: dfd6 2edb f58f 72be ecee 26ed a4e6 513e
000006a0: 697c 9dea b232 843e 1c29 a85a 02cf 80be
000006b0: d2f3 c8ea 7003 83be a32f 0623 9929 873e
000006c0: 36d0 1358 f984 69bf bc5e 5b5c 91d3 6b3e
000006d0: 7dab 2d49 2de1 643e b414 286f 8cf6 623e
000006e0: 5867 5a97 2bdc 58bf 890d 9130 0650 61bf
000006f0: fe7f 4dd4 e786 62bf eb27 62ee 23dd 71be
00000700: 0e44 80fc 197d 62bf 6ad9 a6d6 e19b 61bf
00000710: e1c9 6ce9 415b 58bf f44b cdd0 b334 753e
00000720: a1c1 d0b0 1ea5 65bf 4ff8 72dd 33f2 68bf
00000730: 5294 9895 ea68 62bf b22e a455 7967 673e
00000740: 17ba e75a 929f 60bf 11b0 8e34 062d 65bf
00000750: 52da d5c9 c7d8 64bf d21a b19e 7d8b 683e
00000760: b4a2 41e7 f13d 57bf 15f5 05ad af27 62bf
00000770: e4f4 c9f0 8798 60bf 251d f924 cdde 69bf
00000780: 43e9 be64 ed12 723e dd32 b761 51fc 67be
00000790: 405f 9987 678d 20be b7b8 836b 42be 6bbe
000007a0: c939 69db 676f 87be 3035 ec8d 7f99 44be
000007b0: 04b1 bdad d51d 75be b631 090d bb78 583e
000007c0: 406c 0ed8 1959 4fbe 18e0 0661 90f1 733e
000007d0: d0f7 5ade 8c4c 523e 3851 ff56 8cd8 69be
000007e0: 1ce0 2c30 eb9b 7bbe 9e6b 03cb 028f 7a3e
000007f0: 3e99 e9e3 71d0 84be f420 971c adae 73be

bias f8 [120]
-0.16328761127351088 -0.21135962630383814 -0.20511711895445292 -0.001844629782882874 -0.26299621474959795 -0.09954633697813074 -0.2374051685873783 -0.29425510170827157
-0.17677213551239773 -0.20244605987742773 -0.19077076800306422 -0.026367309883694 -0.022521372628960666 -0.22025640996844761 -0.14948885235277698 -0.2428736173711099
-0.04633530100109136 -0.19301969776959352 -0.33312784541416207 -0.24573073853982716 -0.22422954039867707 -0.30698288797925455 -0.21879230610231462 -0.26998319141526705
-0.37446493563571787 -0.08662148431074139 -5.805248256718941e-07 -0.11954720552128789 1.9726614208351602e-07 -0.3139974708304539 -0.3283755343695744 -0.3077847125421193
-0.24530696393232587 -0.181591893218177 -0.31784986630498663 -0.03573071766903162 -0.006204941676583473 -0.12385262683781723 -0.30301138516941484 -0.0013689616943655177
-0.2800448427348459 -2.2758500780991772e-07 -1.9322228071054893e-08 -0.07391853463912217 -0.0030307910691154153 -0.00020438625116069302 -0.11702130966480011 -0.03408958236512727
-1.1056750061478551e-06 -0.3151120243770394 -0.0017725834799437992 -0.15837883507705444 -0.28104129589979365 -0.26470084475945493 -0.29897409521724305 -0.19169347136673995
-0.2769871848152913 -0.004239885183269555 -0.3035334080464224 9.207064732188122e-07 1.5899189005048314e-06 -0.22168731400344044 9.658905899943421e-06 -0.21748019404377267
-0.41065608198588155 -0.12306245232087937 -0.0013227481988687794 -0.28982755873856886 -0.2182800181579666 -0.2603055697607003 -0.2869493207224983 -0.11080406086149244
-0.25288028785994954 -0.234057570717031 -0.21179670570664436 -0.15648728655989877 -0.23729695588409866 -0.27755721323449317 -0.20589670713219496 -0.13654791417336143
-0.37446294678915987 -0.1918645743576647 -0.026134595626097972 -0.2611464751671449 -0.32994470011933585 5.839024585591573e-06 -0.20622123466237702 -0.0296768614904214
-0.12703578565919352 -0.19640019198566305 -0.2848874516077184 -0.28155453052113244 -5.0844364538169e-05 -0.2098504056246301 -0.2229249153372978 -0.004911934721815607
-0.3161647051854755 -0.24089970572768848 -0.21791781611195465 -0.28040315511776825 3.9962864876284614e-07 -0.32240855277782476 -0.14039987953371535 -0.2709145315553169
-0.24975714554638148 -0.19441192510462824 -0.23709894642937374 -0.2245154739508017 -0.3287856455508933 -0.19945629318867997 -0.3058399420035687 -0.2528199504851576
-1.0459072426817828e-06 -0.1956076093897135 -0.2822390262317224 -0.2063807990153577 -0.23852627620011088 -0.2593894466225331 -0.00781241817955096 -0.2844981455231832
00000000: 107f 21c3 9be6 c4bf e6ba 550d d50d cbbf
00000010: bf2a e11a 4741 cabf 522f ce25 f038 5ebf
00000020: 7190 5413 eed4 d0bf 77f6 c165 de7b b9bf
00000030: d6f8 7de5 4a63 cebf dd29 a159 13d5 d2bf
00000040: 8a56 6f26 78a0 c6bf 8555 30a3 c0e9 c9bf
00000050: 3b90 cd30 2d6b c8bf ac2d 8936 0800 9bbf
00000060: d612 9cbb d70f 97bf bf40 c6ae 5c31 ccbf
00000070: 4c62 fc61 7322 c3bf f8c6 d591 7b16 cfbf
00000080: da66 e6b4 42b9 a7bf 19bd b394 deb4 c8bf
00000090: 9235 5c74 f751 d5bf 1343 d3d6 1a74 cfbf
000000a0: 5d9b 67b7 8db3 ccbf a65c 138e 9ba5 d3bf
000000b0: ddb5 a9e3 6201 ccbf 384a 6694 6747 d1bf
000000c0: 3f77 03c7 3bf7 d7bf 63e0 3e5a d32c b6bf
000000d0: 9168 9297 ab7a a3be 84c8 0a4a a59a bebf
000000e0: 2a75 fd55 037a 8a3e b995 0fd9 8818 d4bf
000000f0: 4b20 3bd1 1a04 d5bf 3ff0 a4a6 beb2 d3bf
00000100: 9402 c9f5 3766 cfbf 279f 4b35 673e c7bf
00000110: 4f58 34f7 a657 d4bf 66c3 b3ef 4b4b a2bf
00000120: fd34 3159 5a6a 79bf 2cc8 ca45 ceb4 bfbf
00000130: 2a92 67dd 8964 d3bf 1dd4 3b6d d76d 56bf
00000140: 856a 3d34 41ec d1bf ef15 2fe6 c28b 8ebe
00000150: 2826 90ec 40bf 54be bbe0 d738 53ec b2bf
00000160: 0644 bb90 07d4 68bf 64de 6a87 10ca 2abf
00000170: 1306 f2c9 1bf5 bdbf 60f8 c892 3074 a1bf
00000180: b8e2 9a86 d68c b2be b5a5 d19f cb2a d4bf
00000190: f7b7 d904 c10a 5dbf 5d6b 84f6 c145 c4bf
000001a0: c0c3 ada1 94fc d1bf a3c9 ddcf dbf0 d0bf
000001b0: bcca 533e 6422 d3bf f73c 3063 6989 c8bf
000001c0: 9256 0c75 28ba d1bf 740a 3783 d75d 71bf
000001d0: 3361 3363 176d d3bf 4b96 36f2 cee4 ae3e
000001e0: 4ece 7d51 a6ac ba3e 249b caf9 3f60 ccbf
000001f0: 7195 27eb 9541 e43e ee0d 7918 64d6 cbbf
00000200: 501a 8272 3048 dabf bc6f 1558 0581 bfbf
00000210: b8a9 5110 02ac 55bf 3dbf 90e3 888c d2bf
00000220: 9ceb ad81 99f0 cbbf caaf 45b1 d8a8 d0bf
00000230: f133 07af 605d d2bf b202 aaa9 a75d bcbf
00000240: d256 8acd 302f d0bf 8330 ce35 99f5 cdbf
00000250: b18d 348a 271c cbbf a1dc 0181 c607 c4bf
00000260: 1e35 7b24 bf5f cebf 631b 6754 7fc3 d1bf
00000270: ab51 bec3 d25a cabf c815 dbec 667a c1bf
00000280: 997c 816f 33f7 d7bf cd45 10b4 048f c8bf
00000290: 5b79 0806 07c3 9abf 81bf 93b4 9fb6 d0bf
000002a0: 9c11 2060 d01d d5bf 6e82 4fdb 9a7d d83e
000002b0: a6cd 4e19 7565 cabf e976 3276 9c63 9ebf
000002c0: b1f8 6968 b542 c0bf 70d6 c038 a423 c9bf
000002d0: 2b8a ec93 983b d2bf dc3f 284b fd04 d2bf
000002e0: 69fe 2110 37a8 0abf 3ce5 9aca 60dc cabf
000002f0: 6e2b 6bba cd88 ccbf f834 d86f 891e 74bf
00000300: 49f3 3ae3 0a3c d4bf 80b4 db32 cdd5 cebf
00000310: ba52 b522 bbe4 cbbf 1244 3b13 20f2 d1bf
00000320: 5aea 6962 91d1 9a3e a269 887b 57a2 d4bf
00000330: b8d5 7a8d 9ff8 c1bf c7a3 42e7 a956 d1bf
00000340: d331 08ca 0af8 cfbf 846d 236e 7de2 c8bf
00000350: 8644 6a1e 4259 cebf e745 084d ecbc ccbf
00000360: ec42 c2f2 d20a d5bf bc06 1da8 c887 c9bf
00000370: b8d0 2db1 e192 d3bf bc0b c7ba 332e d0bf
00000380: 137e c62c 238c b1be 5aba 968e ab09 c9bf
00000390: 137d d446 3410 d2bf 318b 259f af6a cabf
000003a0: db10 c26d 0788 cebf ddf6 8a31 d699 d0bf
000003b0: 3170 5709 eaff 7fbf b4dc b2b5 3735 d2bf

weight f8 [120, 120]
-6.999000842007954e-08 -0.212276600919198 -0.294671768539774 1.761916068017902e-06 -0.13961403561773755 4.8868513775521164e-09 1.8824777461483703e-08 -0.26494781655941424
-0.2441317063863441 -0.23000893513365175 1.9336207959972845e-08 -8.745836033024222e-08 0.009312598307811726 -0.2341195045584688 -0.05260631141944746 -0.3117893170426398
-7.578795985314287e-06 -0.25061120709623663 -0.2539963456536181 -0.12407384555937682 9.01774016263702e-08 -0.16098769738376512 2.1999242902598406e-08 -0.42391871873970455
-0.2003031119371533 -0.19813002583693665 1.0331097791962832e-07 -0.18641654197462115 0.017763822248937654 -0.3271674357175806 -0.042591487453362886 -0.22129847725589538
-0.1999068404779843 -0.31556973939362826 -0.1917214209979051 0.000823863714654549 -1.6601108815782695e-05 -0.22164950321166654 -0.296684899325889 7.499022969591869e-06
2.2461954202848686e-08 0.0016344285260966585 -8.159972061031816e-07 -0.3038319959626212 -7.269742905264537e-07 4.2555622090537023e-07 -0.17679854834745476 -7.211564733168039e-07
-3.712731261605062e-07 -0.1137716324236158 -1.4050223204436527e-07 -0.3264792617181543 -0.19176765629180478 -0.19248268679450353 -7.434668090346369e-06 -0.1634274170803601
-1.8161029164746174e-06 -0.24751165555895857 -0.2717366155727584 -1.7308827720662977e-06 5.044458703618228e-09 -0.3118551668258174 -0.27039897239882854 -0.1873688114003732
-0.2743579045011537 -0.25203513406455685 -1.6311813064601916e-05 -0.2758528346729828 -0.19717595792897208 -0.24693310100253857 3.260049417630061e-08 -0.20514768003831244
-0.40238928844328486 -0.3095115018654984 -0.20848445334799973 -0.23982124172066124 -0.2684090731845008 -0.31484272859989326 1.5171577145601654e-08 -0.1892571215521942
-0.1881829054415356 -0.21748558920060887 0.0003505628072446937 -4.147785385242246e-08 -0.2062758067100276 -7.303116167568956e-07 -0.20391378421078601 -2.3667956887608613e-06
-0.21721892315840136 -1.414617746195649e-08 6.79115202406498e-09 -0.23272138951270535 1.2046869497757995e-05 -0.21917798060186297 3.941051896289025e-08 -6.625134831139388e-06
-0.18499874767144386 -0.15024121165979396 6.514932007249024e-08 1.5491490563829143e-09 0.00040917427656215517 -0.37871443834144414 -0.218166777679667 -4.1576043547029916e-08
-0.2447805911452289 -0.025460459229638292 -0.1362650360606625 -1.1365404410444974e-08 -0.256422199316497 -0.23224642261551823 -0.13225126727055506 8.463462699883397e-08
4.96018965892639e-08 -0.3005803329487703 -0.3804958462591133 -0.21209543580480822 -0.11465133090578486 -6.103657702304666e-08 -8.826201638942404e-07 -4.5773241238133364e-08
-4.921961151894002e-08 7.969261583083597e-08 -0.00046323861410897915 7.54998890072686e-07 -2.990909190512813e-08 5.232133748956202e-08 8.55890381927498e-08 -7.516646535638969e-08
1.065553109529825e-06 1.1985399628790787e-06 4.074131973119999e-08 -1.206359910704488e-07 -0.0011536145478625904 4.626292869799627e-07 9.305871704808616e-08 8.068461866990249e-08
-3.3954718730709275e-07 -1.2443457462505545e-07 1.128137903396997e-05 -1.3055394382984643e-08 -4.056927290574717e-08 -3.037103858151906e-08 9.884636349974178e-08 -7.992003871273118e-08
-2.171658989626354e-07 -6.492040570589906e-08 -1.1222069768569156e-06 4.338614381354361e-08 -0.003312914500431527 -7.1347827223014985e-06 6.731931934521495e-08 3.0090790244564584e-08
3.9632690869558275e-08 1.1679494192121194e-08 -1.0286898369377945e-07 1.9370541316903238e-05 -4.568682754909483e-06 6.034474046964953e-08 -1.0915616031620867e-07 3.131921440720471e-06
-5.587945965069451e-08 -4.535208265496966e-05 1.914581341175932e-06 -5.052412601009013e-08 -9.516344465098526e-07 -5.844495781518136e-07 -0.009144931918288595 2.3051165168650832e-07
-5.699035342041114e-08 6.591422496541801e-08 1.4804043742192346e-06 1.948793260408926e-08 1.2196921491567535e-08 -0.019695253915037878 -3.753296659342242e-06 -2.738026243775451e-08
-2.5350112004516763e-07 -6.071932743352039e-09 -6.323335261701935e-08 -1.6207230322263483e-06 5.657874589453476e-08 -6.184699670309307e-08 5.7440289139115956e-08 3.1650723675136253e-07
-5.35887638160561e-09 -0.0011172814818477177 -6.005405397318494e-06 1.1680342523622855e-07 1.2230302472876082e-08 -8.032722665306295e-08 -3.404423582332733e-08 2.8508485863000595e-06
-5.184823113836208e-09 -6.742714500756678e-08 -2.6357396516694485e-08 -0.00013615316902914858 4.22728084104067e-07 8.48217442297127e-08 -3.315944469392263e-08 3.6924822186315404e-06
-2.7142636837682934e-07 -5.2902316977117324e-08 2.337161298070258e-05 2.5388792343205736e-08 3.087336912023838e-06 -6.216068710172507e-07 -1.815368545758482e-07 -5.332272422324805e-07
-0.004583339401396683 -1.1664388761461154e-07 -6.263703120678008e-08 2.5167225688483585e-08 -2.8208963030200092e-06 -1.3616945163230615e-08 6.216592979725368e-08 4.821663245112861e-07
1.1260432904608245e-06 5.59083751400387e-09 -1.6862359522402827e-08 -5.2707066227640764e-08 2.2765644324972435e-05 -6.160189660194546e-08 -3.508373180454211e-08 9.583284354515718e-08
-4.169628511462997e-08 7.632260522109065e-08 1.0670235929696896e-07 -8.214546056733587e-08 5.873242875682577e-07 -8.363419614711832e-09 -6.903868491708435e-08 5.5915159005563725e-08
-7.524532359870384e-08 -2.2960753260701734e-07 -6.144264085641309e-08 9.613528804675669e-06 1.4431542970151012e-08 -1.0928411708418082e-09 3.5342017765510106e-07 -1.6575169750364616e-08
2.596117973608869e-06 1.0170198718782474e-07 1.829428842921595e-08 -5.4357671436700224e-08 3.4171840111712606e-08 -1.3517722798025115e-06 -6.468639469180693e-08 -2.2630525094735424e-08
6.6966097892285285e-09 1.6094465876873353e-08 3.629808611066632e-08 -3.278297181825773e-08 -1.0869594047503342e-08 5.336112264037491e-08 -2.3491577620522954e-08 -2.8630490793135132e-08
00000000: be1f d73f adc9 72be 3db6 5331 e12b cbbf
00000010: 2db3 3bfa e6db d2bf de22 3634 5f8f bd3e
00000020: b037 856a dfde c1bf 78f5 af60 26fd 343e
00000030: a421 0bf3 8336 543e 123c d1af e7f4 d0bf
00000040: 754a 6c2f b53f cfbf b5e9 17cb ee70 cdbf
00000050: 4069 daab 18c3 543e 0164 febe 177a 77be
00000060: 00f8 61c9 7b12 833f aa98 b7bf a0f7 cdbf
00000070: fb2c 38e6 36ef aabf 182e fc2d 5bf4 d3bf
00000080: 8483 dd93 abc9 dfbe a652 9f96 030a d0bf
00000090: f9b0 78e3 7941 d0bf 1f6b f7b4 4dc3 bfbf
000000a0: 549c 5ca0 f134 783e b62a a9af 3e9b c4bf
000000b0: a9e6 8d18 1b9f 573e 5e8d 49fa 7b21 dbbf
000000c0: 134f 8749 88a3 c9bf b5a2 a91e 535c c9bf
000000d0: ac80 a9f1 79bb 7b3e c271 9b4b 7fdc c7bf
000000e0: d6cf 71ee ad30 923f c348 2eaf 4ff0 d4bf
000000f0: 087f 662b 8dce a5bf 65fd 3b2d 8253 ccbf
00000100: bac0 0c1f 8c96 c9bf 5362 936b 4b32 d4bf
00000110: 9b77 90d8 538a c8bf 6592 fbda 11ff 4a3f
00000120: 2db2 d482 5368 f1be 2800 bccb 025f ccbf
00000130: 7b97 f4a8 e2fc d2bf a7fc edbc 0374 df3e
00000140: 66d5 4f82 4b1e 583e 7b92 4d44 4ac7 5a3f
00000150: d5ee 2ad5 5c61 abbe bcd2 88c1 fb71 d3bf
00000160: 2288 fd5e a964 a8be 7c41 790d 008f 9c3e
00000170: cff8 90b7 55a1 c6bf 112c 10db af32 a8be
00000180: bf43 287a 6cea 98be 93d2 7840 2320 bdbf
00000190: e09a f0b3 9edb 82be 69b5 f945 09e5 d4bf
000001a0: 6b18 1ab2 d78b c8bf b00f 6ace 45a3 c8bf
000001b0: 993a e500 ea2e dfbe 83a0 d089 30eb c4bf
000001c0: c86c 1e46 1a78 bebe e394 0041 76ae cfbf
000001d0: aaaf 40f9 2164 d1bf f0cb f4bb 150a bdbe
000001e0: c80a 68e5 70aa 353e acc0 a65f 6ff5 d3bf
000001f0: 65cc d47d 374e d1bf aca3 a082 b3fb c7bf
00000200: a8d1 ce74 148f d1bf 0d04 90f8 5721 d0bf
00000210: 777a 2742 ab1a f1be 927a dba5 92a7 d1bf
00000220: 5a63 6ed1 0f3d c9bf ce89 8dfc 809b cfbf
00000230: a255 d9ea 9380 613e 8db2 4e78 4742 cabf
00000240: c3f9 8700 bfc0 d9bf d5e1 8f54 09cf d3bf
00000250: 0953 6d5a 9eaf cabf ddc5 0963 76b2 cebf
00000260: 08bc d13f 9d2d d1bf 9613 ae1d 6226 d4bf
00000270: 18dd b7d4 544a 503e d406 cdcd 9339 c8bf
00000280: e8d1 44a0 6016 c8bf 57e4 7b5a 91d6 cbbf
00000290: 85d2 d4ca 77f9 363f adcb 4e3e ac44 66be
000002a0: 6646 e3e1 3e67 cabf 03e7 a23a 5481 a8be
000002b0: 5dc8 31cd d819 cabf 5eb9 afb0 a7da c3be
000002c0: 66d2 8465 d4cd cbbf a8fe 5e7c f160 4ebe
000002d0: d094 995b f32a 3d3e 1fb4 8482 d0c9 cdbf
000002e0: f52a ea22 9d43 e93e ff1a 5829 060e ccbf
000002f0: 7010 085d 8a28 653e cf31 1332 afc9 dbbe
00000300: 1860 86f9 09ae c7bf 9f8c 4ba1 1a3b c3bf
00000310: a816 9af5 067d 713e 407f 3cc7 3a9d 1a3e
00000320: a1ee dd22 ced0 3a3f cac4 cc7b db3c d8bf
00000330: 919b 9a93 e3ec cbbf dcae 73fc 2a52 66be
00000340: f507 d56c f854 cfbf 2e04 ee7e 4e12 9abf
00000350: d701 bcf8 2171 c1bf 18d8 8a78 3268 48be
00000360: 8c18 02a8 3869 d0bf 1592 df32 40ba cdbf
00000370: 1d0b e409 9ced c0bf be55 9d1a 0cb8 763e
00000380: 4018 fe95 3ba1 6a3e 167d f54a b53c d3bf
00000390: 5197 fc3f 0b5a d8bf 6acd 3478 f125 cbbf
000003a0: 82e7 ae24 ca59 bdbf 7176 89d1 6662 70be
000003b0: 4429 2744 a69d adbe 7500 5ec0 0693 68be
000003c0: 6229 3120 b16c 6abe 2bbe f552 6f64 753e
000003d0: 2dcd a5b2 da5b 3ebf 38e3 ff1d 6455 a93e
000003e0: 9d5e 519e ac0e 60be 5704 0b68 fd16 6c3e
000003f0: ba09 8348 a2f9 763e d0aa 5e71 662d 74be
00000400: 165a b008 84e0 b13e b65f 23a0 b01b b43e
00000410: d253 b8c0 71df 653e 0a57 3766 0531 80be
00000420: 952c 5630 9ce6 52bf 6908 1d1f e90b 9f3e
00000430: c2dc 6b43 f2fa 783e 9f88 93d2 9aa8 753e
00000440: 71c7 8e52 60c9 96be 7cea f417 8ab3 80be
00000450: 9739 9bed a4a8 e73e a821 3a6a 4709 4cbe
00000460: 8299 ae64 ccc7 65be 4fc1 13ec 294e 60be
00000470: a109 d39d ab88 7a3e 64eb 9030 1074 75be
00000480: 6aa6 d272 c325 8dbe d021 f2da 4b6d 71be
00000490: d2e2 ac9e d7d3 b2be 1233 393a f24a 673e
000004a0: 7aab e16d af23 6bbf 1e1b 2624 eaec ddbe
000004b0: 1398 84fd 2512 723e 1625 778f a527 603e
000004c0: fae5 a957 1347 653e e837 88ad de14 493e
000004d0: 029c a14c 1a9d 7bbe 2dc5 a076 bd4f f43e
000004e0: 6256 02f4 9529 d3be c660 b1e6 db32 703e
000004f0: 98de ec7a 274d 7dbe 1d0f 4b05 c045 ca3e
00000500: 5031 52b3 0300 6ebe dbb2 c8b1 0dc7 07bf
00000510: 0186 3539 880f c03e 83ff 24a6 fb1f 6bbe
00000520: fc3a 5647 7aee afbe 0834 cc36 629c a3be
00000530: 8906 1bfc 93ba 82bf c8e8 51ee 51f0 8e3e
00000540: a012 dbcc b198 6ebe ba1f fe4e 97b1 713e
00000550: 5d76 c1d2 49d6 b83e 6c55 0e58 cdec 543e
00000560: 7c09 ad18 5431 4a3e f956 ce1d fe2a 94bf
00000570: ae65 e3a8 247c cfbe a810 d9ae 3a66 5dbe
00000580: b87f 71b7 1d03 91be 6864 a520 2914 3abe
00000590: 9c8c 48e7 5cf9 70be f715 c0d1 f330 bbbe
000005a0: b0fd daa5 1f60 6e3e 4358 4edf 179a 70be
000005b0: d0a4 8681 88d6 6e3e 8895 5f8c 8d3d 953e
000005c0: 1820 ce9a 2504 37be 5995 32db 374e 52bf
000005d0: 124a 1644 4130 d9be 0396 5e96 ab5a 7f3e
000005e0: e099 460d ae43 4a3e 9bbe 0584 0b90 75be
000005f0: e23d 890f 0147 62be f09a b795 26ea c73e
00000600: f063 18f7 c544 36be cb77 21e1 8e19 72be
00000610: cb2f 86e4 104d 5cbe 8b1f 03d1 8ad8 21bf
00000620: 2a35 83c6 695e 9c3e 90b2 b4e7 e7c4 763e
00000630: bee3 883d 66cd 61be a235 3f91 8bf9 ce3e
00000640: 21bf deca 1137 92be 95e4 0cce d666 6cbe
00000650: 89f0 b603 c581 f83e 10eb f16e d142 5b3e
00000660: 3e76 b46a 01e6 c93e 37e5 15f7 8fdb a4be
00000670: 3497 4f0f 8f5d 88be ff80 2d1b 63e4 a1be
00000680: 9d12 5ecd fac5 72bf 74d4 cbf8 b44f 7fbe
00000690: e406 674e 62d0 70be b42f ee10 ea05 5b3e
000006a0: c50d 9924 d4a9 c7be 18ed 4da9 fe3d 4dbe
000006b0: 2222 459a 02b0 703e c4c9 ecf5 c62d a03e
000006c0: 9e28 f5b0 51e4 b23e 2086 eadb 3003 383e
000006d0: 3a29 3f10 171b 52be 2c2b a507 014c 6cbe
000006e0: 8ccb 622a 1bdf f73e 4cf3 9406 4089 70be
000006f0: aea1 f612 dfd5 62be ced5 7a36 95b9 793e
00000700: 22c0 359c b162 66be a403 6f78 d97c 743e
00000710: 08c3 91c1 87a4 7c3e 50ea 9939 fe0c 76be
00000720: e26a 54c4 13b5 a33e dcd0 aeab d6f5 41be
00000730: d4ae aa63 4d88 72be 1e0d 86c2 eb04 6e3e
00000740: f60b 52bb d132 74be 8f2c 2537 41d1 8ebe
00000750: a431 775e 4e7e 70be dfe7 8c56 3929 e43e
00000760: 188f 571c d3fd 4e3e 80ed bec5 5dc6 12be
00000770: 7322 1961 b6b7 973e 2cd1 3ee1 25cc 51be
00000780: 2170 14f3 1ec7 c53e da17 9a47 e84c 7b3e
00000790: d817 361a b2a4 533e 3a73 a789 dc2e 6dbe
000007a0: 848f c9bc 8a58 623e d4bb f956 d1ad b6be
000007b0: a0ab 0717 375d 71be be0f 89a1 a14c 58be
000007c0: 9065 9f15 00c3 3c3e fc6e 1a5a 0348 513e
000007d0: db1d 2a5e c57c 633e 0f61 5447 a899 61be
000007e0: 98b4 9d5d 9f57 47be 621a 1498 e5a5 6c3e
000007f0: 105e dfd0 5039 59be 546a abae e3bd 5ebe

bias f8 [120]
-0.2919138459360666 -0.027292579584299093 -0.12575193068867674 -0.28711289583531724 -0.41078668336841034 -0.06028509421816818 -0.22470662897005741 -0.4074988854038039
-0.36024823743226064 -0.32726644403646454 -0.230937394911719 -0.1401206355633379 -0.08207005011326815 -0.2703609612746303 -0.2505992049581045 -0.2833015904781816
-0.08855702299336998 -0.2605314476008015 -0.29377704299624136 -0.15038871274090962 -0.16252990177562304 -0.29028767549561935 -0.21459499892510844 -0.38868056975990173
-0.33239418859769865 -0.35016096629125076 -0.28743794188324817 -0.34434677060850366 -0.28321463578525324 -0.27976528622550145 -0.117065654632866 -0.21568761560139477
-0.08956845557848224 -0.004643498284742636 -0.4037277877528112 -0.2110016926836349 -0.19333625336016355 0.40605926614764254 -0.26752633912196266 -0.28440696464693627
-0.33196044895969523 -0.42637170418852627 -0.00014263145831690173 -0.009104547834722447 -0.31740265181319155 -0.27608958849214416 -0.23676020325297023 -0.2528207579119058
-0.17691468238617256 -0.45359895295783603 -0.21501365581047355 -0.16119874763120373 -0.3088739112669274 -0.2850474573935903 -0.41764742846769404 -0.4274495493543462
0.4902200584230195 -0.3440315274296759 -0.41158427716132157 -0.14840185470886122 -0.2639652740882706 -0.22096221842013514 -0.2268677059391304 -0.3555802143007154
-0.0726229287454454 -0.19333400175274854 -0.17362417273411762 -0.20588321131437426 -0.22590787319851324 -0.38088843199795086 -0.22181733677809112 -0.3399257260692866
-0.22362411493812173 -0.3064470073251975 -0.3390127763337126 -0.38741313656419324 -0.36579482225461674 -0.3273456169442156 2.169444242494494e-06 -0.0049743396345826125
-0.3418145568954034 -0.3314834546447721 -0.1872857600006405 -0.21432785857480383 -0.13064161647956296 -0.4143123350321163 -0.3448133656173149 -7.662009354742429e-05
-0.26832287141207317 -0.0938646417141487 -0.19431980372172125 -0.08499759419263309 -0.2949264892691904 -0.31909194552501596 -0.3046604949502957 -0.26960179896211167
-0.37898345881640744 -0.1735414150112797 -0.20579725615626113 -0.04468074002539897 -0.37249509332637504 -0.31464742885541724 -0.2811953399578824 -0.26421205306020235
-0.21581443988997112 -0.4154408043499979 -0.4530217158821786 -0.38999740130621263 -0.22199229351025912 -0.35241599685349484 -0.38281459962900444 -0.3019957510676221
-0.3008728978573212 -0.25142232818290366 -0.07714695724375185 -0.20096000863475913 -0.29020805336171496 -0.09429170070826629 -0.2383612951853056 -0.41036498777251473
00000000: 18e1 6269 b7ae d2bf 40c1 f302 96f2 9bbf
00000010: a8bd dba6 a318 c0bf bbd7 77c4 0e60 d2bf
00000020: bbc6 ac3a 544a dabf 2fe5 3418 b0dd aebf
00000030: 7776 4fd3 2fc3 ccbf 7fcf 7d34 7614 dabf
00000040: 1ca5 8d9f 4e0e d7bf c4bf 8df4 eef1 d4bf
00000050: d6dd 4847 5b8f cdbf 6da0 9e15 79ef c1bf
00000060: 86b2 37f5 8a02 b5bf c889 b20f 984d d1bf
00000070: d8b6 6c3f d109 d0bf 7e8c 80fe 9c21 d2bf
00000080: d86f 964d acab b6bf 4699 c117 8cac d0bf
00000090: 1b01 ff39 3ecd d2bf 8972 74f5 ef3f c3bf
000000a0: 5acb 5fa2 c7cd c4bf fbdf 2bc2 1294 d2bf
000000b0: 135e 2253 d977 cbbf 3667 ed77 24e0 d8bf
000000c0: a815 5a46 f245 d5bf a7a0 a38a 0969 d6bf
000000d0: 8b28 011c 6265 d2bf 8bca 8f09 c709 d6bf
000000e0: c58e 9c47 3020 d2bf 4241 b9a8 ace7 d1bf
000000f0: a80b 22c6 03f8 bdbf c281 94db a69b cbbf
00000100: b77a 7653 f5ed b6bf 791e 5a94 0f05 73bf
00000110: cd9f 3813 add6 d9bf 9009 bd7c 1a02 cbbf
00000120: c312 a80a 3ebf c8bf 70e1 1501 e0fc d93f
00000130: 603c 56cb 261f d1bf 3072 fa44 b933 d2bf
00000140: 483b f609 d73e d5bf 097d 5b8b ac49 dbbf
00000150: e4e9 cfe5 eab1 22bf 6f5c 8fb9 67a5 82bf
00000160: a3e2 4c36 5350 d4bf 38c0 55aa 73ab d1bf
00000170: fd9f fb88 284e cebf 05d2 be1d 372e d0bf
00000180: 83f2 83eb 23a5 c6bf 360a 1de7 c307 ddbf
00000190: 061f f345 9185 cbbf feb7 9d1a 29a2 c4bf
000001a0: e8a8 de14 97c4 d3bf 220f d4b0 373e d2bf
000001b0: 63be a147 bcba dabf c0ad ca5a 555b dbbf
000001c0: f648 b1f3 c35f df3f dc9d c6cf 9c04 d6bf
000001d0: cb29 7d94 6557 dabf 6ff5 51fc d4fe c2bf
000001e0: 7948 df9a cee4 d0bf 360f e26e 7d48 ccbf
000001f0: 5778 c340 000a cdbf fcad e183 d3c1 d6bf
00000200: e0c3 e68f 6a97 b2bf 69ce 5d27 2bbf c8bf
00000210: 5613 d81f 5139 c6bf 4802 b28d 615a cabf
00000220: acf4 a597 8cea ccbf 60c7 b6df 7960 d8bf
00000230: 78e8 92af 8264 ccbf 5258 22d5 57c1 d5bf
00000240: 70ca 200a b79f ccbf 8ccd 9ae8 d39c d3bf
00000250: a5e2 d1a4 62b2 d5bf 1f60 e577 60cb d8bf
00000260: 334d a8af 2e69 d7bf 1aeb d007 3bf3 d4bf
00000270: 4fcb d095 d832 c23e 8bb0 cb20 f95f 74bf
00000280: 3866 ca29 4ae0 d5bf 4152 3761 0637 d5bf
00000290: e6c8 1ad3 faf8 c7bf d7a9 9963 186f cbbf
000002a0: b85d 234f ddb8 c0bf 9cb5 52e2 1784 dabf
000002b0: 2834 2314 6c11 d6bf 7251 1b2f e315 14bf
000002c0: 69f4 5eb1 332c d1bf 13bc 695e 8307 b8bf
000002d0: 5e97 f9a8 78df c8bf 30c9 4bff 66c2 b5bf
000002e0: 3aa8 885a 13e0 d2bf f29a 9c9f 006c d4bf
000002f0: da75 8cbb 8e7f d3bf d60a 5fe7 2741 d1bf
00000300: 09da 55d6 4341 d8bf 1fcd fce6 9a36 c6bf
00000310: 411a 6682 9057 cabf 1a20 57da 64e0 a6bf
00000320: c376 f0a8 f5d6 d7bf 9716 2df8 2e23 d4bf
00000330: 7c07 3abd 1aff d1bf c490 c6ab d9e8 d0bf
00000340: 727e aabc ce9f cbbf f7db 0607 9596 dabf
00000350: 69df 85cb 4efe dcbf a4a6 08a9 b7f5 d8bf
00000360: a698 4b54 3e6a ccbf 05ac 44d3 fb8d d6bf
00000370: 48a0 75ce 0880 d8bf 0073 97fc e553 d3bf
00000380: 4432 2366 8041 d3bf 6ee7 41ad 4d17 d0bf
00000390: 070b 592a e7bf b3bf 07f1 71bc 0eb9 c9bf
000003a0: 625c 8ecc c492 d2bf 6683 d33a 8023 b8bf
000003b0: d9fe b977 9f82 cebf 4e02 7a82 6b43 dabf

weight f8 [120, 120]
-1.2814360579168458e-06 1.183004044401643e-07 -4.4913723905349564e-07 0.23224745393190294 0.27734577434109425 2.481298216720072e-05 0.0012732207107666535 -4.3642919923407916e-08
3.759739340108173e-08 -2.6088224702928066e-08 -0.27375144677764895 -5.114728776089239e-08 -8.855655888014363e-08 2.7607395051703053e-05 -0.21322673224156602 -9.699022175295028e-08
5.053961670282339e-08 -0.13278899037205047 0.11017343368922644 -7.401416140813509e-08 9.63060053755883e-08 0.2694481572197016 0.174387609093992 -8.722071401123385e-08
0.2595363798280302 -0.23558042525007006 -2.848809266804777e-08 0.00020755053792371908 0.2278451948460892 0.20850412377481128 -5.2072134754674726e-09 -0.19817184078329045
-0.2528586141382662 -8.412389328394424e-08 -1.6335591317385237e-08 -0.17003947338838077 0.045356901511711144 6.565069045041257e-08 -0.1655742303178803 7.023412084622758e-08
-3.7711721989270565e-08 0.29295551585013974 9.810743004924278e-08 4.6093898944969977e-08 -5.2095309095188544e-08 -0.34609447442139174 4.902479782338146e-08 -8.122806965324673e-08
6.193903317641041e-08 -3.783364023694025e-09 -0.1871121679052327 0.22648000890913592 0.24112180826181367 7.213379976927007e-08 3.038250381087519e-08 -1.0221382576166411e-07
-0.2717893691461018 -7.34427773303556e-08 -1.1099895706168605e-08 0.21419052084585172 0.21669484358406924 -0.19423030117991427 0.12540627893221318 1.7325172162195586e-08
-9.243520361509901e-08 0.20839164824938392 -5.411617150857549e-08 0.20329234337191104 5.462703676456778e-08 -9.288743500661242e-08 -0.014593677834602614 5.049649796840502e-08
-1.4870941275790591e-09 -2.7988582455358433e-08 -8.363089790384241e-08 4.5149988904148326e-08 3.544773584847688e-08 -1.9636026991935078e-08 -1.0877988608998089e-07 -5.395699967757364e-08
0.2488807188815014 -5.970327651964265e-09 -4.4520525356809714e-08 0.27132132124214986 -0.279321213764184 0.0558861520744849 0.122154547414129 -8.634082348143084e-08
-7.293608457799498e-08 -0.11042752707763244 0.2018210208925884 -1.4704453188571063e-05 -0.23382084472144773 0.21316197608836013 5.782750440647569e-09 0.25810157447073584
-3.6150896170260025e-08 -0.3752305551188143 0.27063867131767844 -5.540374756529218e-08 -1.0746758567718852e-06 -0.2577361224241658 6.5020133203367716e-09 -0.14986428786495007
-0.14408955081581284 0.010247980065860753 4.948343400847992e-06 -2.460626004574428e-05 0.21189311332981997 0.2089272069615223 3.201597422864061e-08 0.11252115127975282
-5.046636328813787e-08 0.1995233264069537 -9.346166296355412e-08 0.08008839095971106 -5.755261419942042e-09 -3.5975393510958245e-08 0.11603324725447693 -8.05447524498811e-08
-0.2928571916533368 4.0531748441985487e-07 5.4439122881557356e-08 -0.21607324177903198 -0.17575339955625124 7.089447076115118e-08 4.299182275516175e-08 -0.15955033609482905
-0.3026373372374663 0.028829802067800968 -0.09120503601617873 -4.712004626107422e-06 0.021902584440897658 -4.3727900246792e-09 5.635206761042652e-08 -0.23616343837815384
3.559153040930001e-08 -0.2581254441979334 -0.19310495035648584 0.06453941087576977 -4.4591928927280534e-08 -0.05573207639315906 -0.22415920067608905 -0.18708317944552685
-0.0959763901533089 0.00017319401868340942 -0.2862789366979843 -0.1968929268350292 -0.18814343559387414 -0.20493262720646796 -0.28097860869174124 -0.2615207467732827
4.889943091778919e-08 3.523569878091988e-06 -0.26560337590192257 -0.21590391659502967 6.714311364544394e-08 -6.112731386361817e-08 -0.2883456943692955 -0.13789678259684635
-0.14904656195072988 -0.1890790980128014 0.045602128996399316 0.00016691027824795098 -0.19794831568890536 5.648686006176367e-08 -0.24306358617241336 -0.2881394749558776
-0.26023884329652996 -0.1696271449925868 -0.22022466723420334 -0.055364641640692935 -0.19178613394189264 -7.982341443858332e-09 -0.21608967193121348 -0.1461528178760864
2.2205448856156815e-08 -0.17087224568255155 -0.24488597256668374 -0.27838849927080955 -0.23858355986912924 -0.2749475320321568 -2.356832201993782e-08 -0.30597077305593084
0.006930206673063278 -0.28727148475175235 -0.16821922480736096 -0.23030137406743703 -0.30754795632089205 -0.22752868008033958 -4.9440835896051217e-08 -0.2046118449487144
-0.2393206608500925 -0.17394349984328092 -0.1490585848350169 -0.2223383699519093 -0.2547848015617316 -0.30692768263027165 3.86283894020417e-06 0.0047552423350284475
-0.18857009610384606 -0.26286583494635 -0.2337620242550198 -0.2651139234536417 1.1309639296388028e-07 -5.1534080934371086e-08 -0.025212678125407065 0.007460213871702115
-0.20346382496219223 -6.678318911397291e-08 -0.20054443859000343 5.856841168180565e-09 -2.800510117583336e-08 -0.2167834789360856 -0.22382487183531527 -0.21946837280797088
0.0021326406411473395 -5.035434218090816e-08 -0.27426286720829407 1.622386619614934e-07 -0.17133815926622228 -0.2568955959580661 -0.2214039000748049 -0.2814261497780263
-0.21512370175932108 -0.26473759301170985 -0.21825949336567615 -0.19681228549145058 -0.2850384224807505 -0.06882975247541677 -0.3069267375060969 -4.449044932918911e-08
0.030803751222897916 -0.26664190504013807 0.003303642958166094 -1.2385527214374239e-08 -0.290743031977638 0.0005982709132040544 9.223423214992598e-08 0.10013929994848768
-0.14083965834387552 -1.0859742476918132e-06 3.394655939831176e-08 -0.2216869695716834 -0.06452162386851613 -6.412487290769435e-08 -1.9459008071397815e-08 -0.2755504412456819
-0.2736310010984143 0.01019624456131501 -0.10038159863638262 9.05996613570399e-07 0.009582918600994342 -7.859904075332441e-08 5.57541828996935e-08 -0.2561652184009455
00000000: 4eef 8ed8 b97f b5be b4c0 5ab9 8ac1 7f3e
00000010: 5d21 9c77 1e24 9ebe c4bf 9bd9 48ba cd3f
00000020: 97a4 9e7d 08c0 d13f eb27 9a26 af04 fa3e
00000030: 65a4 0d54 46dc 543f 2d10 cfbb 3c6e 67be
00000040: 988a d2ad 582f 643e da15 349c 1303 5cbe
00000050: c821 c9c9 2485 d1bf e2b1 3334 a175 6bbe
00000060: 68e6 9275 8fc5 77be 1b85 f3bd cdf2 fc3e
00000070: 0a24 ce78 034b cbbf 2c90 8b06 1e09 7abe
00000080: 828b e6ad 1c22 6b3e 375a 75c9 3aff c0bf
00000090: 0450 957e 5334 bc3f 92e1 bce5 36de 73be
000000a0: 614c ec29 19da 793e 2c78 ce7b a33e d13f
000000b0: 3173 f14a 5552 c63f 19b7 1e07 c369 77be
000000c0: b1f3 de79 3e9c d03f f46e 03d7 7f27 cebf
000000d0: 52e6 184e bf96 5ebe d5b9 988b 3d34 2b3f
000000e0: eb14 3506 082a cd3f 5fd3 585c 43b0 ca3f
000000f0: c01e af4a 645d 36be 4180 93e3 b15d c9bf
00000100: 4f16 8fe5 d52e d0bf 924f 722e f394 76be
00000110: 1c21 e10b 4b8a 51be 58b7 9d7c dac3 c5bf
00000120: d308 4811 0539 a73f 6a91 0c29 7b9f 713e
00000130: 1349 2350 8931 c5bf 96c5 78b8 73da 723e
00000140: b05e 3242 0f3f 64be 1396 f07d c8bf d23f
00000150: e67b 6929 e455 7a3e 57a9 39e4 18bf 683e
00000160: 92f7 41bd ecf7 6bbe fed5 3d70 6926 d6bf
00000170: ab28 6bba ea51 6a3e 55ee 3850 f3cd 75be
00000180: f8a3 bbfe 6aa0 703e 80c3 ea4c da3f 30be
00000190: dd16 eba0 4af3 c7bf 1934 bb03 4cfd cc3f
000001a0: a21e 6b54 14dd ce3f f2fe c239 ff5c 733e
000001b0: 08b7 ae51 bd4f 603e 88c2 9ca3 1470 7bbe
000001c0: b982 f83c ff64 d1bf 1e38 9e00 f3b6 73be
000001d0: a847 5471 3bd6 47be b2b4 1251 986a cb3f
000001e0: 91e4 3319 a8bc cb3f 09e0 badb 89dc c8bf
000001f0: 5e0b 5d1d 500d c03f aa3e 939b 4e9a 523e
00000200: 6a8f 8e4c 19d0 78be 47cd fed8 93ac ca3f
00000210: 4475 ae83 ab0d 6dbe ac9f 27c7 7b05 ca3f
00000220: 58a3 d5fc e153 6d3e f1e4 ae09 2def 78be
00000230: b34c 3948 4ae3 8dbf 6038 de92 2f1c 6b3e
00000240: 80de c323 4f8c 19be 84fa 1066 710d 5ebe
00000250: 6beb a250 1273 76be ceb4 6802 5e3d 683e
00000260: 00aa ea53 e607 633e 782b 608f 8215 55be
00000270: 7bd2 75fe 4b33 7dbe c0ad 4827 cbf7 6cbe
00000280: f7ba 19ca 52db cf3f e0f9 37d6 71a4 39be
00000290: 4b85 d0ba dae6 67be a352 5c1a 545d d13f
000002a0: 778e 8c15 66e0 d1bf a21b eb16 1c9d ac3f
000002b0: af8c 333a 8545 bf3f 9734 75d4 4b2d 77be
000002c0: 52cb 532b 2194 73be ed67 6079 fa44 bcbf
000002d0: 1283 306e 45d5 c93f 9978 59a8 64d6 eebe
000002e0: b5d1 9968 d7ed cdbf 4a6e 0642 e448 cb3f
000002f0: c0c1 ac8b 33d6 383e 8177 5977 bc84 d03f
00000300: 1201 0b95 8a68 63be b27e ac04 c703 d8bf
00000310: 9be8 95dc 2452 d13f 50ab c711 a2be 6dbe
00000320: 82a1 c199 b207 b2be 37d1 33a6 bf7e d0bf
00000330: 581a 440c 0aed 3b3e eff0 9bc3 c02e c3bf
00000340: e780 39c2 8671 c2bf 610b dd99 e4fc 843f
00000350: 1ea4 e046 3ec1 d43e d7fe 9450 31cd f9be
00000360: bce5 ff43 501f cb3f 737a 9270 20be ca3f
00000370: d846 36f3 3d30 613e a0d4 daa8 2fce bc3f
00000380: 2d64 cc4d 0b18 6bbe f47e daf8 fa89 c93f
00000390: b4ff 7ef6 a216 79be 9512 f63b ac80 b43f
000003a0: 10f7 fa12 fab7 38be 6bf4 9ea1 6b50 63be
000003b0: afe7 34da 5ab4 bd3f f4b3 1e45 fe9e 75be
000003c0: c62a 2317 2cbe d2bf 4933 f325 4d33 9b3e
000003d0: 0e2a 0c5b 0e3a 6d3e 7ca6 7db9 49a8 cbbf
000003e0: 38a1 a05f 167f c6bf a640 1ab8 d407 733e
000003f0: 0c58 e149 c014 673e acea cb39 256c c4bf
00000400: b1f0 7efe 685e d3bf 661c 2044 8f85 9d3f
00000410: 7384 eb96 3659 b7bf c538 19f8 79c3 d3be
00000420: 6173 7c8f a16d 963f c853 69f8 eec7 32be
00000430: 4b3d 621d f840 6e3e a62b 2c82 9a3a cebf
00000440: 4480 2da6 a91b 633e 421e 4695 2085 d0bf
00000450: 1e08 3dbb a9b7 c8bf c1b8 03a3 a785 b03f
00000460: df52 0005 abf0 67be e5c1 e42a ea88 acbf
00000470: b72a 00aa 3fb1 ccbf 93d4 ac74 57f2 c7bf
00000480: 7587 e5a0 e891 b8bf d8ac ce4a 6db3 263f
00000490: 20b2 a9e3 6452 d2bf 5ffb c894 c933 c9bf
000004a0: 4498 6a87 1515 c8bf 0f19 de79 3b3b cabf
000004b0: 1939 cdb3 8dfb d1bf c778 a783 c1bc d0bf
000004c0: ea4f b8c5 af40 6a3e 6fe9 af06 cf8e cd3e
000004d0: 512e 4d4d a5ff d0bf b24e 6d52 bda2 cbbf
000004e0: 0018 9825 0a06 723e b737 f013 a368 70be
000004f0: d98b d07f 4174 d2bf dc10 bd0d 9aa6 c1bf
00000500: 856e 942e f513 c3bf 8f3c 296f be33 c8bf
00000510: a8c3 5589 2959 a73f e438 755f 94e0 253f
00000520: 1c50 17d3 5e56 c9bf 97d9 d9b3 7e53 6e3e
00000530: 4ac0 ba24 b51c cfbf 93d0 678d e070 d2bf
00000540: b5e0 46d2 c0a7 d0bf b8e5 20a0 57b6 c5bf
00000550: ad8d c567 5230 ccbf b82f 671a c158 acbf
00000560: 7ea8 8db2 728c c8bf f0e8 9daf 5624 41be
00000570: ce55 f98c d3a8 cbbf 157e 7fb2 22b5 c2bf
00000580: c3d7 c68c c9d7 573e d814 8049 24df c5bf
00000590: d326 b66d 6c58 cfbf 66d7 fcfe 1dd1 d1bf
000005a0: 4726 80f5 e789 cebf ec6a 8c88 bd98 d1bf
000005b0: 3e24 1139 694e 59be e3a6 f36f 0695 d3bf
000005c0: 4ec8 3e30 d962 7c3f c441 05f0 a762 d2bf
000005d0: 4494 8d22 3588 c5bf f5f7 ebf2 837a cdbf
000005e0: 3c64 969f ddae d3bf f16d ece7 a81f cdbf
000005f0: 5697 3cc4 188b 6abe dfe7 368f b830 cabf
00000600: 4bdb cd35 0fa2 cebf bfde 96d5 c743 c6bf
00000610: ddf7 8609 5a14 c3bf 7271 cb6d 9575 ccbf
00000620: 616e 8ee9 644e d0bf d594 c801 b4a4 d3bf
00000630: 71c8 2e15 b133 d03e 861a 04a5 3b7a 733f
00000640: 1e82 e29d 1023 c8bf c123 1539 cbd2 d0bf
00000650: c06c 9cfc e9eb cdbf 1ca6 bc63 a0f7 d0bf
00000660: 2a86 35c9 ec5b 7e3e b4c5 6247 caaa 6bbe
00000670: e108 f92f 5ad1 99bf da1d 9ae9 998e 7e3f
00000680: 06db 1045 1a0b cabf aab9 9b49 4eed 71be
00000690: 66c2 91ae 70ab c9bf 00cb 3d3b aa27 393e
000006a0: 303c e1cc fb11 5ebe d7fa 2ba0 8fbf cbbf
000006b0: 7733 481c 4ba6 ccbf 96b8 db25 8a17 ccbf
000006c0: abe4 d9b9 7878 613f bc66 5de9 a508 6bbe
000006d0: 14ad 4ad7 858d d1bf f705 c75c 7ac6 853e
000006e0: 4b79 4da7 68ee c5bf b015 c839 fa70 d0bf
000006f0: 0f9a 0387 f656 ccbf e34a 62d3 e202 d2bf
00000700: 814b d367 2c89 cbbf 8a73 00f2 75f1 d0bf
00000710: a307 0655 edef cbbf 8482 d11c 2531 c9bf
00000720: d820 aacb 113e d2bf 27aa df9f d39e b1bf
00000730: 90d3 f60a b0a4 d3bf 9e7c 0a86 b8e2 67be
00000740: 21c8 62c0 048b 9f3f 74fe 7835 a910 d1bf
00000750: f8c3 d0ce 3d10 6b3f 60c3 fafd 0399 4abe
00000760: cb90 78a9 889b d2bf 1663 d000 a99a 433f
00000770: c58c 8ac5 49c2 783e f7b5 52aa baa2 b93f
00000780: 8e8b 48af 0807 c2bf 25d2 1350 3938 b2be
00000790: 6074 8360 9439 623e bf3e 2116 3d60 ccbf
000007a0: 496c 6638 7d84 b0bf 3976 bbb1 a036 71be
000007b0: bc54 fff5 d9e4 54be d31b 6351 9ea2 d1bf
000007c0: 6aec 389a 2b83 d1bf 5d82 76c7 c4e1 843f
000007d0: 3772 43c3 9bb2 b9bf 5cc9 689f 7366 ae3e
000007e0: f597 ee8f 35a0 833f 48fa a5f2 4819 75be
000007f0: 10ae a9ea cbee 6d3e 90e7 d9cc 0265 d0bf
