pyTorch/IRL_model_0.pth (torch, 31507 bytes, 10 tensors)

weight f8 [28, 14]
0.0020740675318008744 -0.019509399685578185 -0.03572722420492925 -0.035670045638373164 -0.07918558758747297 0.055703351068534745 0.2488220900791573 0.14471669488101235
-0.033564429271999076 0.18691546323724467 0.13573869666436852 0.16417797311300558 0.15389644257556095 0.25946555741858646 -0.13413052954290897 -0.40907325401809785
-0.277520222581005 -0.08011637242745695 -0.34497079875451675 -0.1977093836961433 -0.09250131992315827 -0.17017390815217526 -0.3506121693653228 -0.17925233277288155
-0.3066782576606973 -0.14028618159990525 -0.3711336983783234 -0.045903785904201126 -0.004814784090243824 -0.03491198508371448 -0.04600522362291365 0.07725652267710936
0.23881688028811526 0.3153355673857223 0.12464704445514783 -0.024329607605203675 0.007226481992387038 -0.025740886472415226 -0.07725424096866479 -0.03483271536565438
-0.08213835516179802 -0.09565941026816742 0.035543704495552234 -0.036798769205073356 -0.08555585212749642 -0.08313107195693104 -0.044233321897617396 -0.07004186107070548
-0.088864086138835 -2.250660682943955e-05 0.00019047034447149024 0.0005787217154704861 0.00022168975713153567 -0.0004969795846181909 0.06063292840567341 -0.1609580720000994
-0.07742167120875075 0.05390594228391579 0.11783910707310453 0.1592412917039693 0.171433952985573 0.0026817712993896584 -0.07592705856611118 0.00032371429466391784
6.877823732381007e-05 6.84719275565638e-05 0.000443922665524762 0.07171872529473997 -0.005507635453949621 -0.018239007890336376 0.0018216068451152186 0.03926839189149649
0.05255343202659554 0.011105543950465502 -0.03631512470224185 -0.11480229316413784 -0.03790856699600016 -0.12569732455744825 0.008215501114678763 -0.039268186028656754
-0.04434018756006868 -0.13373855221551073 0.02158954453004436 0.03422188930920735 -0.0012221136914979255 -0.004874945816972055 -0.016266818203656462 -0.01552835978570631
-0.014573571974400186 -0.031923359809918825 -0.03602652504991019 0.06127424779316761 -0.023623342756377296 -0.03408399140030186 -0.006238932199118752 -0.021790537280177536
0.0008342607971287715 0.0007647529844150251 -0.056888436398232795 -0.10215678883632047 -0.3983546723492824 -0.15132849042093607 -0.06638378570066113 -0.35137822113390443
-0.3393991829061353 -0.17142315001385333 -0.23262217706776478 -0.10416729439349613 -0.31506390600797535 -0.06306336480806193 -0.4229659267526386 -0.2544689774492345
0.00017512144208705588 6.87716171319902e-05 -0.00019663995309480617 0.00015960143370452153 0.00015975112370696497 0.0014911640457382041 0.0015010386652471145 0.0014324702866249184
0.0013999503842872848 0.001273422908801464 0.0013516365994605984 0.0013984990008334072 0.001611050586058287 0.0013552732110691055 0.33175143175931043 0.43996283657245816
0.42722362759710475 0.011796168036711437 0.31943453390151816 0.11702732823013606 0.18497451489544914 0.06124124810146499 0.166456372995518 0.29834488559127575
0.011546810284227608 0.37265898509744805 0.02775401617123252 0.47554880042125836 0.3073794381963335 0.31945371302605446 0.4029511680114862 0.4300277362780021
0.07274594976789049 0.05837664062922154 0.523527799006121 0.026321898650511103 0.3864960760758575 0.2554182040230979 0.48652297319437315 0.23173082527677608
0.14755559480585667 0.5424248525340418 -0.2509246531665185 -0.03963878274084963 0.015443921355686872 -0.1489129065972552 0.07941023460552045 0.1921972835236667
0.20595090712062455 -0.0034379979541029923 0.14503473267247838 0.14904713113303505 -0.05866637850083294 -0.029214652284678684 0.3090266927711494 0.2215620842172438
0.0013940165635169506 -0.006752138587544353 -0.01895557994641213 -0.018061361431848128 -0.01829267858923795 -0.03891632179259934 -0.05400445862799914 0.10508335221560518
0.010529725150448999 0.0019640239749187625 -0.02075369630741566 0.031846311771447935 -0.008766726541939147 0.035462521393647126 -0.0901656695185231 0.09286791308672711
0.18127331444337125 0.1676541216073292 0.15199168471574634 -0.0026243789938648963 -0.03586425117278081 -0.00019548870680054128 0.00017013521469818466 0.00019670626796980167
0.0035042811069263893 0.11786284865996932 0.03388111364813285 0.07475357813897386 -5.547334251197457e-05 7.675587898222867e-05 -0.05240743089494629 -0.05139059868602657
-0.019298555786798923 -0.05287869297100448 -0.03715106246327957 -0.04611160631060431 -0.02694788146830322 -0.04345570223472774 -0.024380164736199507 -0.058936725617701885
-0.02687197392166365 -0.03708427675040931 0.28558777402180036 0.2586187685277225 0.14271814036768715 -0.024099497191518673 0.09360167548301168 0.16191307065381005
0.21762397335456043 -0.02592203670056236 0.3546975241374121 0.13802011309887052 0.300551092797854 0.2620904975907176 0.28512513587853866 0.1393914311066895
-0.10115544258260346 -0.12251649517275678 -0.10029939782470564 -0.41322398072937855 -0.4861102992545479 -0.16729671882409422 -0.16064395385368904 -0.03169472515036239
-0.4435928559321794 -0.4496812592336636 -0.09431251383440876 -0.37268439881145293 -0.4332441272669139 -0.03337768394432081 -0.0002284301210073697 2.163331813709525e-05
-0.00010279868726904239 3.865064326590762e-05 -7.354998519566162e-05 -0.0057220953213861945 -0.010800779686819485 -0.0005091252031762985 -0.0005679962790323835 -0.00055637703484883
-0.0005571100378066183 -0.0005430182218683574 -0.0005660323357732988 -0.0005686642597259879 0.0009257563477941868 -0.02495520776094115 -0.04187198167199567 -0.07189796207416248
00000000: 533f 0087 a2fd 603f ffe3 74a6 45fa 93bf
00000010: b1f5 12b7 d64a a2bf 3f62 ed1e 5843 a2bf
00000020: 91b3 00b5 8145 b4bf a0e2 3b4e 2685 ac3f
00000030: c6c7 b4f9 66d9 cf3f 087e d99f 1386 c23f
00000040: cd74 105c 5b2f a1bf 763e dc8c d8ec c73f
00000050: f7d0 7cb7 e25f c13f fa38 9fa8 c803 c53f
00000060: 6a98 eaed e0b2 c33f 8047 e36c 159b d03f
00000070: 2117 e46e 302b c1bf 1744 eb95 412e dabf
00000080: 1db3 fd2d e4c2 d1bf b038 73af 8182 b4bf
00000090: 0071 ae66 0014 d6bf 0b2b 8b84 8a4e c9bf
000000a0: ea23 e89f 2aae b7bf 6cb3 1235 42c8 c5bf
000000b0: 343c 4006 6e70 d6bf cce0 7e8d bdf1 c6bf
000000c0: 5501 c3d7 9da0 d3bf 18b2 06c9 e5f4 c1bf
000000d0: 8d9e 3e8e a7c0 d7bf e737 7176 b380 a7bf
000000e0: 7a43 47c3 aab8 73bf 9b92 58d4 fbdf a1bf
000000f0: 48a8 cf25 ff8d a7bf a005 4d5e 15c7 b33f
00000100: 62fc 4831 8d91 ce3f 6cfc 4b3b 752e d43f
00000110: d758 7a63 dee8 bf3f 6a98 f453 dce9 98bf
00000120: ddb1 28fd 8399 7d3f ddba 46a6 d15b 9abf
00000130: 540e 7016 efc6 b3bf f418 a7fa 97d5 a1bf
00000140: b0ca 2aed 0407 b5bf 830b a896 227d b8bf
00000150: 0230 c6d0 c832 a23f a8a5 89cc 49d7 a2bf
00000160: 6277 de02 fde6 b5bf 0821 56f3 1348 b5bf
00000170: 9d2d e3fd bfa5 a6bf d44f a66e 43ee b1bf
00000180: 4f56 c1f7 cbbf b6bf 2f70 923e 9299 f7be
00000190: df5d fccc 1ff7 283f c300 b46b abf6 423f
000001a0: 132e 7383 ac0e 2d3f d409 0788 f748 40bf
000001b0: 974b 2079 470b af3f 0942 a22b 469a c4bf
000001c0: 2fdf d719 e8d1 b3bf 54c6 5646 8f99 ab3f
000001d0: 999e 1127 b42a be3f c54a 05c6 0462 c43f
000001e0: ee9e bf3a 8cf1 c53f 50e0 d600 15f8 653f
000001f0: c244 6ca9 f46f b3bf c66e 0f4f 0637 353f
00000200: 7aad b31e a107 123f 2445 19c2 12f3 113f
00000210: 2bea 9354 c917 3d3f ded6 a68b 285c b23f
00000220: 0cb4 72a2 2c8f 76bf 9c17 9a19 3fad 92bf
00000230: c631 dc74 5fd8 5d3f c687 e195 fc1a a43f
00000240: 0c8e b18f 48e8 aa3f 8d83 92e0 80be 863f
00000250: 3080 e461 e597 a2bf 9a51 a5de ae63 bdbf
00000260: fada f86e c068 a3bf c29f 1595 d916 c0bf
00000270: 96c4 dce4 49d3 803f bc5b 88ad f51a a4bf
00000280: e720 f0ce c1b3 a6bf de70 fd49 581e c1bf
00000290: a1af c4ce 911b 963f 93df c70e 8885 a13f
000002a0: c109 9195 ea05 54bf b59e a84d c0f7 73bf
000002b0: b65a c7b0 3fa8 90bf f762 852b 55cd 8fbf
000002c0: e4aa 20b8 bfd8 8dbf 965d b934 4258 a0bf
000002d0: ac7a c195 1172 a2bf a3a1 b794 565f af3f
000002e0: 934c 3eb2 b730 98bf 554c c3f8 7473 a1bf
000002f0: 0065 1d9c fe8d 79bf 9d2a ec33 4250 96bf
00000300: 9637 856b 4956 4b3f dbcf 5e87 360f 493f
00000310: 6cb4 b32b 7b20 adbf b5ca 1d83 f226 babf
00000320: d1bb 7c98 a47e d9bf dbcd a762 bb5e c3bf
00000330: c5aa 911c 87fe b0bf 5ffe 1214 fb7c d6bf
00000340: 07be b759 b7b8 d5bf 541c 8b9b 31f1 c5bf
00000350: 9849 6a41 90c6 cdbf 5f9d bb32 b5aa babf
00000360: cb12 1dcd 012a d4bf d624 6db1 eb24 b0bf
00000370: ff64 aead df11 dbbf ef6c ff3f 3849 d0bf
00000380: 29fb b1bb 19f4 263f 0a53 ca62 2f07 123f
00000390: 787d d355 24c6 29bf 5def 55e0 55eb 243f
000003a0: 93d6 21b4 5bf0 243f 6e7b cd33 656e 583f
000003b0: 728e 8bfe cf97 583f 299d 2542 3778 573f
000003c0: 9855 7547 d1ef 563f 4e6d d36f 1fdd 543f
000003d0: 4d9c 68bf 2c25 563f 605d 36de bae9 563f
000003e0: 7b9c 1365 3c65 5a3f 2890 9887 6d34 563f
000003f0: acac 735b 6a3b d53f b42e a2e2 5928 dc3f
00000400: 42ea 26c5 a157 db3f b182 7cdf 9628 883f
00000410: 457b 148b 9d71 d43f d897 7cc3 80f5 bd3f
00000420: b8e2 08b2 3ead c73f ba26 864b 035b af3f
00000430: d9fe 1c43 714e c53f ebc6 a225 1518 d33f
00000440: a2da 59a4 daa5 873f 3976 6312 a5d9 d73f
00000450: 6003 277f 8c6b 9c3f 8686 5d3c 646f de3f
00000460: e007 a1ce 1aac d33f 5117 82fc ed71 d43f
00000470: 2ea3 1fb2 f3c9 d93f b1f6 eb0d 9385 db3f
00000480: 8767 2b83 7a9f b23f f0a8 b404 8be3 ad3f
00000490: 9de6 e85e bdc0 e03f 7183 7db7 20f4 9a3f
000004a0: fbcc b109 5abc d83f c443 4598 c558 d03f
000004b0: 53d7 a740 3123 df3f d2f8 040e 5ba9 cd3f
000004c0: c038 040b 1ae3 c23f 8e7b 455d 8b5b e13f
000004d0: cf0f c746 260f d0bf cee6 0cd7 884b a4bf
000004e0: 5249 2809 10a1 8f3f 40cd e4ff 930f c3bf
000004f0: 9930 99a8 3a54 b43f b79d 8eab eb99 c83f
00000500: 2312 556d 995c ca3f 87cd d918 012a 6cbf
00000510: 0963 ce84 7f90 c23f 91b6 e3f4 f913 c33f
00000520: f758 1202 8509 aebf 62bf 8120 72ea 9dbf
00000530: 95c2 c2e4 17c7 d33f 8d92 df78 255c cc3f
00000540: f48c 39e3 edd6 563f b2c2 9566 21a8 7bbf
00000550: 5445 c96f 1769 93bf c520 af72 ad7e 92bf
00000560: 1225 30e1 50bb 92bf 9678 c212 d7ec a3bf
00000570: 4977 4aef 78a6 abbf 21bd 1e19 bee6 ba3f
00000580: eda1 41c9 9b90 853f b8ed b457 db16 603f
00000590: 6757 a5fb 7440 95bf 32f9 1ce7 284e a03f
000005a0: 1728 531e 4af4 81bf ee23 3dc3 2428 a23f
000005b0: ffd2 cde9 1815 b7bf bd25 8e09 31c6 b73f
000005c0: acfd 95c6 f633 c73f 3dea abb4 b075 c53f
000005d0: 091d 8fa9 7674 c33f cf41 6ebe b87f 65bf
000005e0: 31e7 c393 cc5c a2bf dac1 7334 839f 29bf
000005f0: 00ab b55d ca4c 263f ac47 c7f9 5dc8 293f
00000600: 50f6 0198 02b5 6c3f 7070 6878 422c be3f
00000610: 913e 2486 dd58 a13f dfa9 5ded 0c23 b33f
00000620: 58f6 fc88 8115 0dbf 09b7 c3f5 ff1e 143f
00000630: a4b8 8593 25d5 aabf ff4f 5b59 de4f aabf
00000640: 177a db27 00c3 93bf d56e ee81 ea12 abbf
00000650: 7d37 95cc 7605 a3bf 93e0 23c2 f09b a7bf
00000660: ab50 69b6 3998 9bbf 6382 d867 d33f a6bf
00000670: da2e da28 1df7 98bf ec69 1f5a f42c aebf
00000680: 86a6 b0a4 5384 9bbf f779 add7 b5fc a2bf
00000690: 96e8 63f1 1147 d23f ce55 3dbc 358d d03f
000006a0: 706b b688 9644 c23f f484 26e1 89ad 98bf
000006b0: 18e3 0c87 47f6 b73f fe63 a047 91b9 c43f
000006c0: a913 3134 1adb cb3f 3e9e 7f6f 4e8b 9abf
000006d0: 5b1c 893e 5db3 d63f 5895 f99f a4aa c13f
000006e0: 8b01 96a6 3a3c d33f dfa5 ef38 17c6 d03f
000006f0: 936a 777f 7d3f d23f 3812 f912 94d7 c13f
00000700: 6966 b4b5 52e5 b9bf eace fcb3 3d5d bfbf
00000710: d731 77a9 38ad b9bf 99f5 c9fe 4272 dabf
00000720: f902 635f 6e1c dfbf 8bee 0998 fa69 c5bf
00000730: 6905 0d28 fb8f c4bf cbf9 f37f 4a3a a0bf
00000740: e5f2 3d4a d363 dcbf 7b17 82e7 93c7 dcbf
00000750: a1b7 856a dd24 b8bf a3f9 27aa 0fda d7bf
00000760: c5e8 7293 45ba dbbf ac06 ea39 e116 a1bf
00000770: 9a1f 5dcc d7f0 2dbf 7302 6d4d 26af f63e
00000780: 45c2 e3ff b3f2 1abf 5bfc 88fd 9943 043f
00000790: 6112 c81f db47 13bf 53b5 5144 0d70 77bf
000007a0: 87a3 351c b81e 86bf a66d 710c daae 40bf
000007b0: 9130 aab8 b29c 42bf 8a35 9f95 3a3b 42bf
000007c0: fe71 42b2 6041 42bf caed 84c0 2acb 41bf
000007d0: 3da2 702f 398c 42bf 0647 ef32 4da2 42bf
000007e0: 2b8e 719e ce55 4e3f f8e1 caa4 db8d 99bf
000007f0: fec3 cc8f 3e70 a5bf 83f0 c1a3 e767 b2bf

bias f8 [28]
0.5307438212673236 -0.07388114980877002 0.008985719549015513 -0.1518500175015746 -0.24580487268973028 -0.1581813434118375 -0.036365540447827534 -0.40516174157747875
0.0013814007113852958 0.426131906928824 0.5720048145521106 0.19626242099664276 0.06117417250213056 -0.20391633248862281 -0.035095291491138624 0.12835282673918053
-0.5058985150828165 -0.01612102083389884 0.7255798112558707 -0.010825625644290607 -0.08330277025364873 -0.20168316680831413 -0.08929213389827673 0.16364573616917472
-0.011425329500262338 -0.061982842836157515 0.3691667480487329 0.3671554677963548
00000000: 0fb6 5c77 dafb e03f 0734 3802 e0e9 b2bf
00000010: 069d c0dc 1a67 823f 357c 8845 d26f c3bf
00000020: cc2d b3b8 8876 cfbf 9f45 6548 493f c4bf
00000030: 597d d90d 819e a2bf 6a9a 6a83 2bee d9bf
00000040: a050 32b8 03a2 563f 8ba6 02c3 be45 db3f
00000050: cefc 740a dd4d e23f 7ea3 ce83 201f c93f
00000060: b455 839c 3852 af3f bf56 942d ee19 cabf
00000070: db63 6592 02f8 a1bf dad2 988c dd6d c03f
00000080: 6705 2c15 5230 e0bf b4f6 0965 0782 90bf
00000090: 0c6b ff26 f337 e73f d5c7 cee0 be2b 86bf
000000a0: e7d6 e791 5453 b5bf c936 cc06 c1d0 c9bf
000000b0: 3816 e26a d9db b6bf 4efc 7cee 57f2 c43f
000000c0: 4daf 65c4 2966 87bf 60ef c915 37bc afbf
000000d0: 6df5 6891 6da0 d73f 3ee8 aea5 797f d73f

weight f8 [28, 28]
0.24667947360444137 0.08746920736902726 0.165123715929044 -0.1403749967578326 0.0581574144704063 0.13786752491438573 -0.021900954384095356 0.16980891397346293
0.0003101421208551213 0.35477411902538725 0.5519210690917363 0.2875624375319855 0.03595855148157819 0.035943603128641526 0.00048387408363317593 0.27876118594260185
0.10202429804020345 0.009053135303411331 0.34877522111280956 0.016762446712741498 0.4599763058244552 0.3646720973614361 0.1101362547924714 0.40188224145056717
-0.04293854995799924 -0.014760801638050049 0.008404852429281955 0.37929171195435596 -3.322917741936494e-05 -0.00014362555476605857 0.0020757143049944474 2.5155677488416454e-06
-0.00040737554333927404 -0.06262001119329656 8.003060420903027e-05 -1.689871018934486e-06 -0.00011245092394788452 -0.1901542651350368 -0.2118974526819213 -0.1806471379246188
-4.426623463850986e-05 2.0882106333190917e-05 4.697230944287312e-05 -0.2046008056384528 0.00010778220696350577 8.769845173988782e-05 -0.0001538152772341394 -0.00013186625883766627
2.587921710126657e-05 -4.422874698052446e-05 -9.368081647020176e-05 -0.1430142387444316 6.362067579918727e-05 -3.1651145385045e-05 5.7673923268495275e-05 -0.24842397250838222
-4.215150473014166e-05 -3.85599632950118e-05 -7.541554464768719e-05 -2.000802262331879e-06 -6.243562174986403e-05 0.000123125392974938 0.0001444240499934926 -0.00010493699125601106
0.0001584842908614228 -0.04627956468624059 -0.09881809167070449 4.855925780030527e-05 2.8413761888466515e-05 4.275328022276397e-05 6.239458048302356e-05 -0.062446874830776454
-4.400621420280851e-05 1.1703335201887812e-05 -2.7549224534463088e-05 1.0998184544287396e-06 -0.0004210433120552208 3.73367617565791e-05 0.00017802555664649745 -0.08836396541395121
-1.1516129804531486e-05 -1.5221915559219512e-05 -7.56184375192722e-05 -0.1340635948048619 -0.01682643878268583 2.703843229855616e-05 -0.08107897892368032 -0.0002796696171654669
5.139419430747478e-06 -0.008324840413388983 0.002021700582913051 2.0977727989378814e-05 -0.00011619644760680217 -0.02952645989479858 -0.06288586997426408 0.020013574774711856
0.0014322556845415466 -0.0005799803592290207 -1.3191953815345367e-05 -0.0352811659250859 0.00011716188086318679 0.00022809331102499212 -0.009238161516220764 2.8140672453573075e-05
-2.8693743629264426e-05 3.3651491887164606e-05 1.0467603194277052e-05 -0.08361506610993613 0.0012831325238835233 -0.0017917884379680684 -0.0002698869060900117 -0.04861894514316897
-0.0001055813543345065 -0.08023979249124022 6.436554660830311e-06 -6.98523055670655e-05 -3.690448926997059e-05 -3.2529079885990326e-05 2.1477106290266876e-05 -0.07851388156246045
-8.334236050923508e-05 -0.15412988567769165 -0.1656663818974582 -0.3165878220795757 3.591761291727783e-05 -2.836331110757484e-05 -0.00011094812846524832 -0.18211135855313318
-0.05932328169693269 4.261012841736111e-05 -0.00017141043780412763 3.359670820055724e-05 -0.385750941326476 -0.11620416144247253 -0.1671667313849751 -0.2575293658246066
-8.67318972721495e-06 -1.109762118760139e-05 3.5884970472685934e-05 -0.20317185131919113 -0.13633460329942515 -1.8271168388503026e-06 -0.18424017728003897 0.00022631789348476742
9.046027052026649e-05 -0.006434350186305976 -0.015356623425617017 -6.511991712231562e-05 0.00012031378504903671 0.006813971736772675 -0.03680934719783359 0.053527222495148484
-0.058979085046393466 0.0010186417042230176 3.777044564474221e-05 0.011515436214429011 -1.5687915837052382e-05 -0.0004095780604657711 -0.06923785533975958 -5.6956658162711846e-05
9.856743755060518e-07 1.54595561169399e-05 0.00011424075010174182 -0.011053081236361995 -0.02684524142559154 -0.05251592639429736 0.00033757754843603854 -0.0692865693333784
0.29581313840999157 0.10026492974405378 -0.1346525536554428 -0.33386813240595226 -0.3803884937452646 -0.06217311381977661 -0.008339825488909713 0.2328271164785208
-0.0003100486297054664 0.007557843878564512 0.06628881445813992 0.26576310101028994 0.03395998853722193 -0.43897984262602613 0.007060213619560903 0.03246027998375711
0.1802444126128717 0.002665876819120823 0.4136043575196635 0.02920526902400074 0.2748700899676056 0.13070112184263144 0.11563609343985963 0.12440790313715877
-0.019909882481224713 0.029609169680037878 -0.0011321845194733884 0.24281561457877043 -1.6785661500630567e-05 -0.0001385520301860956 5.725259607632927e-06 -0.00015331427445926826
-1.1676981967117257e-05 2.942330737372598e-05 0.0001777728205065179 -1.8570903049567816e-05 -1.8206028709441178e-05 -0.034112986407989876 -0.1329708890901954 -0.00030103601785789693
-7.778163606369242e-05 -6.618383538705985e-05 1.2676871672873e-05 -0.13183465144312528 -1.5522845917368154e-06 -1.7483557106519962e-05 -0.00012699662531001169 -6.927392592374353e-05
0.00012745516813064396 1.1323932317886718e-05 -9.737235850225227e-05 -0.05935856383347146 4.698427774112399e-05 5.033732283036337e-06 -2.766248029590905e-06 -0.1323359855897301
7.895742628427826e-05 -0.18589138400608277 -2.9870703377824162e-06 8.413296017219994e-05 -5.252955527994649e-05 -0.001021770244863903 -9.3914990809687e-05 -0.09348049195731596
2.0432800266592546e-05 -0.2822564437131478 -0.4770290562660684 -0.3389148809434924 0.00015624956960475194 1.5475697623167435e-05 4.0857801563691146e-05 -0.2627839107545204
-0.3048239137490132 0.00015203778690212996 -5.635426316000939e-05 0.00011389895909489287 -0.22509549319102742 -0.3596043927852447 -0.27293883856407153 -0.3176961083827085
-0.00015935317755204923 5.019289379523198e-05 -5.1185056391302725e-05 -0.2254407478250436 -0.0016911073187939143 -5.277329485617237e-05 -0.1269106542800765 -0.00023646482711024114
00000000: 82df dc67 3193 cf3f 7d98 0ec9 6164 b63f
00000010: 52c8 da1f c622 c53f ac20 20d2 cef7 c1bf
00000020: 2a33 5702 cfc6 ad3f 4108 589f a4a5 c13f
00000030: 85d1 522b 346d 96bf 22eb 0a6a 4cbc c53f
00000040: 50b0 2444 5253 343f 9899 ab81 9eb4 d63f
00000050: 9b1d b75f 56a9 e13f c681 3048 6c67 d23f
00000060: 4bf4 3fc5 2869 a23f df36 e02f 3367 a23f
00000070: c889 555d 0fb6 3f3f 2d21 4128 39d7 d13f
00000080: 4be3 7aaf 431e ba3f fa70 6f40 738a 823f
00000090: 7e6b 154e 5552 d63f 1a8a bac1 2c2a 913f
000000a0: 07dc 9c75 4070 dd3f 1397 fba2 c956 d73f
000000b0: c305 70bc e331 bc3f 28e5 f74a 70b8 d93f
000000c0: 5a52 9da7 0afc a5bf 01a6 6242 e93a 8ebf
000000d0: 1ce5 7d32 9036 813f 4c38 9fbe 5046 d83f
000000e0: 0cd7 a1d7 f16b 01bf aba9 051f 46d3 22bf
000000f0: 3409 c9a1 1601 613f c077 c2fe 231a c53e
00000100: bae9 c5a2 a0b2 3abf 2b7e 2674 dd07 b0bf
00000110: 8f81 9f4f c3fa 143f 40d7 b2d5 f059 bcbe
00000120: 494a bd29 747a 1dbf 3296 f996 f956 c8bf
00000130: 91f1 afaa 741f cbbf 5f49 c006 721f c7bf
00000140: 428b 9f3d 5035 07bf a4de 9c6b 7fe5 f53e
00000150: d7d3 5343 84a0 083f 7ae8 79f4 5b30 cabf
00000160: ea80 4b37 2441 1c3f 9b2e b4ed 57fd 163f
00000170: e971 b22b 2f29 24bf c481 ce89 b248 21bf
00000180: 80e7 ed41 e622 fb3e e646 b22c 4830 07bf
00000190: babd 082c d08e 18bf 8a84 2263 4a4e c2bf
000001a0: da91 3be3 82ad 103f 12f8 1013 2598 00bf
000001b0: b57e 06ea dc3c 0e3f c4a2 bb52 5bcc cfbf
000001c0: c6e2 a1ac 7a19 06bf e66a 1340 6e37 04bf
000001d0: 1751 0531 0dc5 13bf a0a3 18ad b0c8 c0be
000001e0: 4ed5 67d0 fb5d 10bf da38 8012 6723 203f
000001f0: ffc0 9824 11ee 223f f47c 47c8 3382 1bbf
00000200: 9872 3eb1 d9c5 243f bcdd 9981 f4b1 a7bf
00000210: 0493 fa77 244c b9bf dc6b b364 8375 093f
00000220: 8017 5dd9 42cb fd3e 980d d885 3f6a 063f
00000230: 2252 01bb 3a5b 103f 1b6c 456a 09f9 afbf
00000240: 98e0 ae01 6a12 07bf 8c6d 6c24 2e8b e83e
00000250: 0cc1 634b 30e3 fcbe c0a5 d82d af73 b23e
00000260: b6eb 6641 ef97 3bbf 4813 8f5d 4193 033f
00000270: eaf2 25e3 8b55 273f 2109 9955 059f b6bf
00000280: 64e0 10d4 ac26 e8be 78bb f024 34ec efbe
00000290: 8a88 4edd aad2 13bf aab2 a2f1 fe28 c1bf
000002a0: 177f 1e31 f33a 91bf bc75 58eb 125a fc3e
000002b0: b0ca de8a 97c1 b4bf f053 02dc 1354 32bf
000002c0: 30dc 24db 688e d53e bc34 8f2a 9d0c 81bf
000002d0: dd6b 593c d08f 603f ca0b 947d 2aff f53e
000002e0: 41f1 ffc4 cf75 1ebf 3292 752e 2f3c 9ebf
000002f0: 5383 ebd2 4919 b0bf f8a3 8844 707e 943f
00000300: 5682 c6d4 5077 573f 3150 6d56 3a01 43bf
00000310: 0828 9e53 60aa ebbe b040 a07b 5f10 a2bf
00000320: 5e5e 5dc9 99b6 1e3f 6e3b 619f 8ae5 2d3f
00000330: 25dc b20c 75eb 82bf ecdd 3749 f481 fd3e
00000340: ac9e 3c0c 6b16 febe 76bf f974 a0a4 013f
00000350: ac6a aa6d c0f3 e53e 3c22 6506 cc67 b5bf
00000360: 3333 7f0e d905 553f 06df 832f 4e5b 5dbf
00000370: 7232 6e6f f3af 31bf 4c3c b616 95e4 a8bf
00000380: f889 11db 71ad 1bbf b673 9654 988a b4bf
00000390: c842 50ac 32ff da3e 99b3 ca78 b54f 12bf
000003a0: de44 8e98 3c59 03bf 25a0 9aac fa0d 01bf
000003b0: aad7 8d81 3785 f63e c2c0 9759 7c19 b4bf
000003c0: 6564 ddd9 02d9 15bf 2a34 2931 87ba c3bf
000003d0: d8ea 2556 8e34 c5bf 7831 8991 f942 d4bf
000003e0: 2425 5bc8 c7d4 023f 4811 d7e5 b7bd fdbe
000003f0: f662 4f55 9a15 1dbf 8ba0 9bcc 6c4f c7bf
00000400: a137 8f05 9f5f aebf 7851 3fdd 0857 063f
00000410: a6c2 f972 9477 26bf d373 921a 469d 013f
00000420: de7f 59b7 24b0 d8bf 44f5 0d51 8ebf bdbf
00000430: 2d8b 232e b865 c5bf ca7b fe72 5c7b d0bf
00000440: 9e32 8f1e 6230 e2be 705c 2a71 fd45 e7be
00000450: ac7e 6032 66d0 023f 181d 7104 8901 cabf
00000460: 1cf9 3d8b 6973 c1bf c0bc a935 68a7 bebe
00000470: 0d75 03a0 2e95 c7bf c6a8 ebe6 f7a9 2d3f
00000480: 03ba 279d afb6 173f e06a f0b9 e75a 7abf
00000490: eabe 1e1b 4b73 8fbf 539d 4da8 1f12 11bf
000004a0: 0b98 9216 1f8a 1f3f 83b2 3e9c f7e8 7b3f
000004b0: 52b9 cdbc acd8 a2bf 0bf0 1f8c eb67 ab3f
000004c0: cd32 d8b2 8132 aebf 512b 9533 7eb0 503f
000004d0: a9a3 61a1 76cd 033f 9b6b 85af 6795 873f
000004e0: 04f8 0d5e 3173 f0be 6fcc f65f 94d7 3abf
000004f0: 9956 5474 92b9 b1bf cced 6edf 97dc 0dbf
00000500: a0cd e36f 7089 b03e 5690 5f9b e435 f03e
00000510: bf2e 6924 91f2 1d3f da0f 7173 ffa2 86bf
00000520: 4491 e7a7 517d 9bbf c0ea c314 5ee3 aabf
00000530: 0513 c887 9c1f 363f f0c1 56bd c3bc b1bf
00000540: 9cac cc3a 9aee d23f 19bb 2f62 f6aa b93f
00000550: 0ff2 227d 4b3c c1bf e80c 7771 185e d5bf
00000560: 7847 1afb 4858 d8bf 2cc5 1785 27d5 afbf
00000570: 606e d56d 7814 81bf 6bd8 7269 47cd cd3f
00000580: 5884 89b9 c051 34bf 855b 9644 f9f4 7e3f
00000590: ee35 30c2 4df8 b03f c5a7 d43c 4302 d13f
000005a0: 60a1 4720 3463 a13f 09a6 ebe8 3e18 dcbf
000005b0: 95a2 94a9 2beb 7c3f d002 e641 a29e a03f
000005c0: f7c0 bab8 3f12 c73f 5df0 1ab8 bfd6 653f
000005d0: 48ec 4169 7e78 da3f 35dc 506d fce7 9d3f
000005e0: edcd c3b7 7897 d13f a6ab ee79 d0ba c03f
000005f0: bbb7 8fb7 539a bd3f 5089 5643 32d9 bf3f
00000600: 7f0a 7f98 4163 94bf 18fa bfbd dd51 9e3f
00000610: fcbb fcde b98c 52bf 8477 c901 9514 cf3f
00000620: 3868 ffdf dd99 f1be d4b0 7be0 0829 22bf
00000630: d823 ae60 7303 d83e d5aa f196 5f18 24bf
00000640: b2d7 672e 087d e8be e451 5c49 42da fe3e
00000650: 32b8 7fe6 104d 273f 9cf7 75bd 1679 f3be
00000660: 60bc 2fc4 2417 f3be c07f fbe1 4177 a1bf
00000670: fc30 fba9 3005 c1bf c39e 03da 8bba 33bf
00000680: 9d2d 1e55 d663 14bf 3bc7 50a2 8559 11bf
00000690: 5059 dcf9 d795 ea3e 92c1 3636 f5df c0bf
000006a0: c0b3 4ef5 020b babe ba08 56e5 3455 f2be
000006b0: 55ef 6eb4 4ca5 20bf 6a2a 38fc e428 12bf
000006c0: 9673 c28e afb4 203f 1c68 2e68 7dbf e73e
000006d0: 80bb 9661 8c86 19bf bcf8 cde4 3e64 aebf
000006e0: 5499 977d 1fa2 083f 40a9 48cb ed1c d53e
000006f0: 603d daef 7834 c7be 7e8d 18b5 62f0 c0bf
00000700: 9300 3241 beb2 143f e107 75f3 49cb c7bf
00000710: b054 e148 af0e c9be 2c46 f43f 110e 163f
00000720: 3a5a a8c6 658a 0bbf 562d 4972 9dbd 50bf
00000730: a3c0 ab41 879e 18bf 2d4a c567 56ee b7bf
00000740: 10c3 b257 e36c f53e b753 b554 7d10 d2bf
00000750: 74e3 f9e0 a487 debf 12ec 710a c8b0 d5bf
00000760: 5c18 3b95 dd7a 243f cefe c0d7 393a f03e
00000770: 64b5 3c5f d76b 053f efc2 a69b 73d1 d0bf
00000780: a0ce 2529 3c82 d3bf 5bd5 1ea5 8aed 233f
00000790: 1e14 f4bc bd8b 0dbf 6769 aa37 a1db 1d3f
000007a0: 09c1 ddda edcf ccbf 16ad a024 c203 d7bf
000007b0: e237 5c76 d477 d1bf 3b7e e40e 2255 d4bf
000007c0: d476 485f 01e3 24bf 446d e0b2 c650 0a3f
000007d0: 8667 5d25 f1d5 0abf 8313 8c0f 3edb ccbf
000007e0: 2a2f 35a8 04b5 5bbf 83af a49a 1cab 0bbf
000007f0: 53cd d2ba 9b3e c0bf 257d ef65 71fe 2ebf

bias f8 [28]
0.3889572120668372 -0.13785943925015415 -0.0639470245030224 -0.053127813139286925 -0.16726813473882501 -0.08210045450059511 0.25233096255455706 -0.042581754160175046
-0.2065645652386494 0.10946088013216905 -0.04894825632711095 -0.19975169105656188 0.35210114421925826 -0.36959029055325693 -0.011753923157689802 -0.26517501333862115
0.35519634629072044 -0.025066739706537937 0.0007047086187617858 0.35542195522150644 -0.29461383667786833 -0.36541255535093037 0.5781901703398443 -0.1569356014156458
-0.01836758794939337 -0.326654186141742 -0.0006884718532485417 -0.2734071608302302
00000000: acb4 57ca ace4 d83f 9e1c 83cb 60a5 c1bf
00000010: fbbf ea0a d55e b0bf bee9 e197 9133 abbf
00000020: d2de 2ed0 0a69 c5bf 4819 110f 8904 b5bf
00000030: 5729 fcc3 3026 d03f 4d6c 0c93 46cd a5bf
00000040: d031 1b2a b570 cabf 31ea 5bd4 a005 bc3f
00000050: 8d09 3ef0 be0f a9bf f44d 34a2 7691 c9bf
00000060: c393 d33c d388 d63f a51a b608 5ea7 d7bf
00000070: 9eec 7edc 7012 88bf 125e 809e a0f8 d0bf
00000080: a98c be74 89bb d63f 5e17 076d 18ab 99bf
00000090: d8e2 423c 8617 473f 563b 7dba 3bbf d63f
000000a0: 00c1 5efe f3da d2bf 1bec b157 eb62 d7bf
000000b0: 3d4e 0fac 8880 e23f d942 d43d 7716 c4bf
000000c0: b339 32f6 f3ce 92bf 4823 a5f5 e6e7 d4bf
000000d0: a889 050c 528f 46bf e883 90bf 807f d1bf

weight f8 [28, 28]
-0.2557854690732268 1.4780723379949105e-05 -0.007196253646812162 2.5921031661427418e-05 -2.0719038136054962e-05 -0.00013291350973718618 -0.20819738219850445 -0.03535091088378145
0.0002150893436275944 -0.00044856461967027075 7.034213622223449e-05 -6.768351714900504e-05 -0.1661458054567633 5.967130195872399e-05 -0.10098876373506219 -4.5696071730720584e-05
-0.16130498842621255 -2.4092840019603937e-06 6.94142079011736e-05 -0.2400285596225446 -2.984807112638941e-05 2.505047956926189e-05 -0.21552721296089622 0.00015566625706157363
2.8588982120835444e-05 -8.816237945177882e-06 7.111795163434014e-05 0.00010579913700983336 -0.3944653953379744 2.0995171842303606e-05 -4.612714168445245e-05 9.638139233305648e-05
-0.13515837030263483 -3.985846967985982e-05 -0.279406917502524 -1.672901378567932e-05 -0.26330066347014397 -0.00014289196228986167 -4.369202977262958e-05 -0.15552144550268435
-0.4129498853465654 -0.10515413972613909 2.7414236618044323e-05 -2.1552211262657318e-05 -0.11885538990600236 3.7617116395918866e-05 -1.3690939519476356e-05 -0.09374164942486497
-0.10411848665744002 -0.14857278001048063 -0.41775306377911126 -0.4196562691460013 -0.00015716267301961416 -0.4001220757926989 -5.352834080921751e-05 -0.030733874703719518
0.09049569096259312 -0.05942180596320144 0.0003442003586855437 0.00045388690683611827 0.1001742828237881 -0.09206882378859722 0.22075084585457475 -0.00046414946536431817
0.11120034636279451 -0.08724172082055551 -0.08987405345402784 0.1003596115522037 0.28054930749360135 -0.0023912441399626077 -0.0017578979158187264 0.10230882021156201
-0.0011108353407502025 -0.030468282979213356 -4.7430010132873434e-05 0.06949569435778874 0.17112538946537578 0.16950766028763722 0.35411407448508136 0.06699972990664664
-0.14400363676510816 0.0598009608016351 0.0015502006771317195 0.00010029972382342895 0.5119736066135079 -0.13318930217094846 0.03309374692790332 0.16635696429922403
0.11799049473006495 0.10628546557613171 0.2936253338325143 0.06487234874832494 0.1643385891982021 -0.04770704944511418 0.11301785698625409 0.3583154096380866
0.5024067096783648 0.04097821852595772 0.17740020604733558 0.23015087388709327 0.16027986303957284 -0.06266077690461866 0.0003298509421409038 0.4125474983068723
0.2164545878261332 0.07594992615232032 0.3945262228810371 0.27019706106552555 -0.1829683369472512 0.1888029972175994 -0.0004016038089363625 0.0006290172719216659
-0.13123727820815462 -0.00038110536479834736 5.4931083379078815e-05 -0.0003522231600789489 4.7481627187487345e-05 0.0015261744692330445 -0.08373971566402966 9.887958378218676e-05
-3.7961388798869684e-05 -0.023602072260738214 0.0015340364924709207 -9.964566019047359e-05 -0.12453786434041554 3.84723874640419e-05 -8.863910227795423e-05 -6.089330830798286e-05
-0.07747618658365123 0.00015232356188522219 0.00013131998243811761 -0.08801174922915758 2.294182537051348e-05 1.0389413928065013e-05 -0.10390383466502945 -4.846843952717688e-05
-0.0008964424337169934 -3.998300456759191e-05 3.52096156717508e-05 -6.45081280649571e-05 -0.15815015072837804 -0.07035578565876775 0.0005683398288242959 0.05432760369622026
-0.0006588792745682063 -0.051055409612325374 0.06592983586604124 -0.001869118346648169 -0.03126723232102834 -0.08995312372334341 -0.03976557346103362 -0.06322391054629296
0.06970814287267102 0.0005700590181778042 0.04903485058661867 -0.02867687164576925 -0.03508982788988409 2.6970036748281692e-05 -0.0005210382335634142 0.04546251830965273
-0.035199682943285515 -0.02322216394574045 -0.1012585272923499 -0.011648637925467763 -0.14401659952439147 -0.016350496762071513 -0.0011131300712224539 -0.0003699809747666027
-0.06909556990760438 0.0005732518011263602 5.0395824209423464e-05 8.699368216736853e-05 4.9538578034188764e-05 3.25394448877928e-05 -0.045816533073821934 -6.373074253671204e-05
4.833926106025568e-05 0.001159656741510341 1.5294667418460918e-05 0.00014240653312262006 -0.08271437614842055 2.9437397142482016e-05 -8.61074363668288e-05 7.780146931385751e-05
-0.035375942514399954 6.943824462760586e-06 6.759702536515801e-05 -0.045283021763177486 -0.00011522318760090903 -6.555180809626319e-06 -0.10545307600066622 -0.00013900500172811303
7.93098890995373e-05 -8.123062354053009e-05 4.36081805248662e-05 -0.0001393556081461041 -0.3678575538149968 4.594244529522058e-05 -0.0011463214789135844 7.415406474073032e-05
-0.08973970253770601 -0.0001101028953486078 -0.23486557000782443 0.0018067863080006472 -0.22389337280462368 -0.00025299326611554645 9.446124460705289e-05 -0.26307939679186126
-0.19306418492992958 -0.007236737198693218 -0.02535410618605369 -3.11292117267609e-05 -0.173192713873799 0.00011098188727604617 3.271140156972893e-05 -0.1260951863730038
-0.1391129449249157 -0.08605198693535077 -0.21108639588818015 -0.1636630793965678 -1.3185813891789234e-05 -0.08634844090424924 -7.966225166581044e-05 0.0001837201655979703
-0.1557959541990876 0.001847403062270823 -6.832947961140166e-05 3.294595336731233e-05 -8.300435266021839e-05 -0.0001388188326475629 -0.1520485878712601 1.6669370347866373e-05
-3.337763181285039e-05 -0.04064425960687177 -0.00017788206114981162 5.736781400237688e-06 -0.16372862721803014 -2.3548609179843328e-05 0.00017902762328080707 2.4236578868133416e-05
-0.13637898075649377 0.00010513157851844189 3.2336890096623506e-05 -0.16615080350196937 3.61440304290904e-05 -8.124946084544581e-05 -0.17244682247333196 -5.0026198896360473e-05
-1.128077072665291e-05 -0.0001247489624828982 -5.650260132884073e-06 -0.00010219203810209446 -0.3075905679502384 -6.600507574265544e-05 -0.00014562777364993598 1.3771251209506065e-05
00000000: af89 1d04 ca5e d0bf 0c69 2427 57ff ee3e
00000010: d386 11a1 d179 7dbf 9e76 73bb 1f2e fb3e
00000020: 2103 8d75 b9b9 f5be b09c e35a d66b 21bf
00000030: cbe3 d339 36a6 cabf b861 42bc 8319 a2bf
00000040: 2993 a864 3331 2c3f eae9 225f aa65 3dbf
00000050: 98b9 cbb2 9470 123f 8ed8 74f8 29be 11bf
00000060: d1f5 6608 4444 c5bf c702 c952 f248 0f3f
00000070: 926c 814d 66da b9bf 6462 b111 39f5 07bf
00000080: 6872 fc50 a4a5 c4bf 10ab 2be3 e535 c4be
00000090: 637c e102 4f32 123f 06a8 d77e 41b9 cebf
000000a0: 1089 52d4 474c ffbe 8094 15d9 6f44 fa3e
000000b0: 6e54 884d 6596 cbbf 3615 62f7 4a67 243f
000000c0: d94b 4ae4 4bfa fd3e ec6c 4984 2e7d e2be
000000d0: 1af1 0f1b a5a4 123f c266 6755 0fbc 1b3f
000000e0: 0457 18c9 eb3e d9bf fb93 1539 d903 f63e
000000f0: 10e2 1a85 142f 08bf 9326 49b6 0b44 193f
00000100: 2e80 1d96 de4c c1bf 30e3 0697 b6e5 04bf
00000110: c8c4 3c8d cde1 d1bf 1676 db12 a98a f1be
00000120: c3a3 a706 ebd9 d0bf 855b 1b9c a8ba 22bf
00000130: a089 35b6 3ee8 06bf d15d 2171 20e8 c3bf
00000140: 24d4 1c5b c56d dabf 11ac 29b7 61eb babf
00000150: c8ab d9fe f3be fc3e 8283 33ae 6099 f6be
00000160: f47f 998c 4e6d bebf d6b4 0b47 e2b8 033f
00000170: 0c88 4c66 44b6 ecbe 598a 8de6 73ff b7bf
00000180: ad4b 1a57 82a7 babf ba43 9ccf 6e04 c3bf
00000190: a20b af58 77bc dabf e0c7 e2f7 a5db dabf
000001a0: eff5 df14 8199 24bf 50fc 7b9f 999b d9bf
000001b0: 9213 15c9 7310 0cbf af66 ed6a b378 9fbf
000001c0: 9ffe 1cc1 b92a b73f 7efa 8ff2 886c aebf
000001d0: 17d0 a848 b98e 363f d4f7 c26b f5be 3d3f
000001e0: 6ce0 a094 05a5 b93f e538 278b d291 b7bf
000001f0: 053f c14f 9041 cc3f 55af 31c6 226b 3ebf
00000200: 779c ee3a a077 bc3f 6a63 c531 7955 b6bf
00000210: bd10 5868 fc01 b7bf 05bb 74e1 2ab1 b93f
00000220: 076e 2615 85f4 d13f f7ae 176c cd96 63bf
00000230: 5ab2 b883 28cd 5cbf 1ca8 e62c e930 ba3f
00000240: 5cc2 6c5d 2e33 52bf 060f d8db 1333 9fbf
00000250: 384b 2cbd f2dd 08bf 74c1 7a46 78ca b13f
00000260: 4b70 a2cf 6fe7 c53f 3dae ad50 6db2 c53f
00000270: f2de 3d14 cea9 d63f 9b35 caf0 e426 b13f
00000280: 4ba2 340f b66e c2bf 2f26 d345 3b9e ae3f
00000290: 9c1f 794d 0366 593f bb23 6d22 004b 1a3f
000002a0: f63e 1a79 1662 e03f 1f2a 80d8 580c c1bf
000002b0: dccf 83e1 a9f1 a03f c241 905c 2f4b c53f
000002c0: d0bf 1a04 a034 be3f e78a b036 8635 bb3f
000002d0: 649d 85e9 c1ca d23f 51ec 4968 799b b03f
000002e0: 00dd 0901 0c09 c53f 4293 4ff2 0e6d a8bf
000002f0: 1fb6 9eff bcee bc3f 6619 83c1 a3ee d63f
00000300: 6181 6b3c b713 e03f 3eac d5d8 18fb a43f
00000310: ae73 a3c9 0cb5 c63f 5ad5 3e76 9575 cd3f
00000320: 732d fbf0 0c84 c43f 261b 8c63 890a b0bf
00000330: 4d19 5102 fb9d 353f 9293 519f 2d67 da3f
00000340: be25 e4af c8b4 cb3f 6834 f550 7471 b33f
00000350: c00f 2cea ea3f d93f a01c 309d e84a d13f
00000360: 7f2b b2a7 816b c7bf ecda 3755 b22a c83f
00000370: fc45 af39 cb51 3abf 2a60 464e 949c 443f
00000380: 1ac5 f514 62cc c0bf bfeb 0014 e3f9 38bf
00000390: db89 36a7 b9cc 0c3f 012d 14f4 5215 37bf
000003a0: a441 9649 e0e4 083f 37f1 bb5b 3d01 593f
000003b0: b441 274c f76f b5bf 6300 7950 b2eb 193f
000003c0: 2c87 2063 17e7 03bf 092a e941 242b 98bf
000003d0: 20e3 3924 3722 593f dab9 2568 1b1f 1abf
000003e0: 4dad 74a6 b6e1 bfbf 658e eb2a ad2b 043f
000003f0: cc5c 852e 783c 17bf 1b98 4e24 f6ec 0fbf
00000400: ab77 98b7 7ad5 b3bf 1141 f46e 21f7 233f
00000410: 69d3 4c0f 5e36 213f 3a5d 9a20 f087 b6bf
00000420: f0d7 1d3c 660e f83e 1810 6e2d c6c9 e53e
00000430: 04b7 d013 7199 babf 5fe9 b8e6 5269 09bf
00000440: 9e77 c077 e75f 4dbf 40e1 7b93 6df6 04bf
00000450: e093 b92e c175 023f 61ed 9233 11e9 10bf
00000460: 7930 9e9e 433e c4bf 8f21 7d36 d602 b2bf
00000470: 4907 297d 949f 423f b166 4ae2 d3d0 ab3f
00000480: 221c d877 1497 45bf 933c 2345 ef23 aabf
00000490: 5513 e018 c7e0 b03f 3510 f58a a69f 5ebf
000004a0: 3fb0 8238 4202 a0bf d896 90fc 2a07 b7bf
000004b0: a32c 0b3b 275c a4bf 691e 1f34 712f b0bf
000004c0: 282c e791 64d8 b13f 00a6 806b 00ae 423f
000004d0: f97d 448f 181b a93f 7c0d 7b47 785d 9dbf
000004e0: 1a2c 6b3e 4bf7 a1bf e2ba 19d0 b647 fc3e
000004f0: cacf 2816 c912 41bf 8ce2 aafa dc46 a73f
00000500: 8857 245e b105 a2bf 50d9 c10a 8dc7 97bf
00000510: 8369 292f 14ec b9bf 396f 76b7 3ddb 87bf
00000520: fbe9 84cc 226f c2bf f13e 7743 2fbe 90bf
00000530: 5951 2250 ce3c 52bf b8d0 cf2f 403f 38bf
00000540: 7238 0d4d 3fb0 b1bf 22b1 7dde c8c8 423f
00000550: 554b ad55 036c 0a3f 1723 5814 0cce 163f
00000560: 4e9e 9394 f4f8 093f d3c0 1fd0 5e0f 013f
00000570: 0f1a 56be 4375 a7bf 6818 ddd1 e5b4 10bf
00000580: 932a e95c fc57 093f 9f3e e1f1 f3ff 523f
00000590: 4889 b68a a109 f03e fd44 14ce 5eaa 223f
000005a0: 1d6d 77f4 c42c b5bf aaa3 3187 0ade fe3e
000005b0: a6de 177e 9292 16bf 02b1 ac10 2b65 143f
000005c0: 773c 54a8 cb1c a2bf 100f 3cef df1f dd3e
000005d0: 4b78 910d 5cb8 113f 06e5 1213 562f a7bf
000005e0: 42f9 394a 7f34 1ebf 3851 6e61 927e dbbe
000005f0: 907a af08 f9fe babf ae2b 70df 3b38 22bf
00000600: 2ede 0c85 65ca 143f 140d 757c 4b4b 15bf
00000610: df0b 6dac fddc 063f 11d9 1a8f ff43 22bf
00000620: c734 ce68 fa8a d7bf bc05 7c66 4a16 083f
00000630: 0f08 cf50 05c8 52bf 1697 b721 6570 133f
00000640: ff5d 8d5f 2ef9 b6bf c819 c056 e1dc 1cbf
00000650: aaeb 1133 1310 cebf 5167 a306 369a 5d3f
00000660: d655 febc 89a8 ccbf 84d3 d7cd 8594 30bf
00000670: b551 47d3 2fc3 183f a53c 5ef7 4ad6 d0bf
00000680: dbc6 26c4 53b6 c8bf fcf4 91d9 44a4 7dbf
00000690: d9bb 8d43 6df6 99bf 247d 0e92 1752 00bf
000006a0: 7129 ffc8 2d2b c6bf a951 214e de17 1d3f
000006b0: 5419 1833 7326 013f 89d9 d316 e323 c0bf
000006c0: b58d 73f6 73ce c1bf 88a5 a4c5 8007 b6bf
000006d0: e930 7c07 e104 cbbf 9513 c96a e9f2 c4bf
000006e0: 0447 4376 14a7 ebbe 038d be71 ee1a b6bf
000006f0: de68 0110 0be2 14bf e0ee a934 a014 283f
00000700: 4e2d 1130 1ff1 c3bf f7f7 09ef 9144 5e3f
00000710: 0515 6985 83e9 11bf 6032 8656 ee45 013f
00000720: 15ac 9feb 53c2 15bf 4af2 4cb1 fc31 22bf
00000730: 89af 2700 5476 c3bf dc26 6768 a67a f13e
00000740: 6b6e 49b2 de7f 01bf 2d34 900b 53cf a4bf
00000750: ffc5 3645 bb50 27bf 70aa c176 d20f d83e
00000760: 5b03 a945 0ff5 c4bf 946f c719 48b1 f8be
00000770: fc0e fb92 2b77 273f e442 8704 f569 f93e
00000780: 8b00 1bcf dd74 c1bf b921 1cc4 428f 1b3f
00000790: b6bc 5615 2ff4 003f ce5e 9ff5 6d44 c5bf
000007a0: 480f da6d 2bf3 023f 9fe6 cc1b 8f4c 15bf
000007b0: df39 69cb bc12 c6bf a734 0a1b 673a 0abf
000007c0: 1803 b252 51a8 e7be c31a 9b6d e159 20bf
000007d0: 2803 d4ad ebb2 d7be bf34 a3d8 fdc9 1abf
000007e0: b4e0 7959 90af d3bf cdcb 1591 864d 11bf
000007f0: b114 e90c 7516 23bf 301d af5a 62e1 ec3e

bias f8 [28]
-0.3457883547485507 -0.14918867045889017 0.6083704121923763 0.6230932384791042 -0.021224448147224743 0.16734616668266758 -0.03127654433599714 -0.39631801307512765
-0.14688218092473443 -0.1402595347336782 0.5205972221443382 0.001849422947081587 0.010449384493254603 -0.2867741398552355 -0.20883356557421828 -0.08574442629196424
-0.20733320137435737 0.049523782979906894 -0.056674656313933355 -0.3209473293516395 0.4999527483174198 -0.05049502637739674 0.46088273792356116 -0.22218087756325328
-0.42064427258030973 0.27086013322186675 -0.18698977766143313 0.447108456906372
00000000: 17e4 be7a 6521 d6bf ecfe 4646 9d18 c3bf
00000010: aa0c 073a c577 e33f 230c 343b 61f0 e33f
00000020: 7102 ac9a dcbb 95bf b5aa 8164 996b c53f
00000030: 3129 1cae 7a03 a0bf c14b 3e3a 465d d9bf
00000040: feeb b709 09cd c2bf c210 5141 06f4 c1bf
00000050: baf2 6f81 bba8 e03f 527c bfc4 0a4d 5e3f
00000060: 3c7c 4ba5 7c66 853f b412 01ec 815a d2bf
00000070: 2c63 39eb 0ebb cabf 32ff bcc2 58f3 b5bf
00000080: 7f90 a3f3 e489 cabf c0b9 8b68 2e5b a93f
00000090: a6c1 c2e6 7504 adbf fe71 d3aa 668a d4bf
000000a0: 8d64 e4cf 39ff df3f 6a9b cded 7bda a9bf
000000b0: 700c ab4f 1a7f dd3f ea22 7749 6c70 ccbf
000000c0: 61db 7ef4 d5eb dabf 8899 7ebd c555 d13f
000000d0: 51ff def1 47ef c7bf 9a62 0bca 6c9d dc3f
