pyTorch/IRL_model_0.pth (torch, 31507 bytes, 10 tensors)

weight f8 [28, 14]
000000 88 89 af 6b a7 50 b1 3f a8 e2 53 09 90 95 d0 3f
       0.06763693217320654 0.259128579243717
000010 c8 33 9e f1 c9 37 ac 3f 9c d1 65 b3 16 c4 b8 3f
       0.0551131350940533 0.09674207572772392
000020 10 de 54 11 b1 df a8 bf e0 57 47 8e 8a 0e b7 3f
       -0.04858163200918508 0.09006563161469172
000030 f0 13 de 11 75 61 96 bf 92 54 2c 12 46 54 d0 bf
       -0.021856145110650205 -0.25514365935061634
000040 82 2c 76 95 50 d0 c4 3f c9 be 79 c7 49 a0 cc bf
       0.16260726259165287 -0.2236416076661867
000050 8b 37 40 2e 8c f5 cb bf a2 67 e9 f2 a7 8c c6 bf
       -0.2184310174783913 -0.1761674820034474
000060 0e 81 fa 92 e7 17 ca bf 10 6a a3 b8 cb 55 ba bf
       -0.20385451008497352 -0.10287163980266478
000070 f8 07 69 b4 fe b8 be 3f 95 d9 a8 17 35 93 d0 bf
       0.12001029877231406 -0.25898482618813407
000080 00 b2 9f ae ad dc b3 bf 26 66 99 04 4d e2 c8 3f
       -0.07758603585507018 0.19440615391322175
000090 0b c9 b7 64 9b d5 c5 bf 68 5e 97 97 80 98 a0 3f
       -0.17058126848093766 0.03241350031356377
0000a0 e4 9d 37 fa 65 b3 c6 3f 48 fc f9 af bf 02 b2 3f
       0.17734980313910775 0.0703544430380002
0000b0 67 ab 34 01 83 d4 c6 bf 30 dd 0a 2a fb 9d ad 3f
       -0.17836034354089778 0.05784592521870946
0000c0 1c c7 c4 6c 0c 27 be bf 28 34 dd 63 43 8d bc 3f
       -0.11778333335385266 0.1115305060204298
0000d0 39 7e 16 39 d3 73 ca bf cc 12 9c cc 07 ea ce 3f
       -0.20665970122807822 0.24151704302507537
0000e0 7c a0 1b 96 e7 c2 cc 3f 00 96 ef be f4 b5 ba 3f
       0.22469801740158235 0.10433892880936213
0000f0 6c a5 9e 9b 19 07 ad bf ac 5e 17 d8 13 7e b7 3f
       -0.056694793936297255 0.09176754022279948
000100 2f 44 6c 23 59 28 c1 bf 82 41 f5 6b 24 16 c4 bf
       -0.1340438292468504 -0.15692572852504943
000110 20 78 2e b4 63 61 9e bf fa 21 1b b5 ef c5 b5 bf
       -0.029668386337668662 -0.08505151912243739
000120 00 d2 97 d5 ab 29 46 3f d0 20 2a 6b 45 e9 bc bf
       0.0006763543162252028 -0.11293443552324622
000130 90 45 cf e0 49 07 a4 3f 82 02 79 4c 89 cb b4 bf
       0.03911810750254141 -0.08123071782120841
000140 98 ba 7c ac 0f f3 b5 3f d0 c7 93 08 50 34 bd 3f
       0.0857400699721701 0.11407947739988278
000150 bc 54 d7 4d 9e 31 ce 3f 54 4f 73 1b 5a d1 c5 bf
       0.23588923264347794 -0.17045141544678677
000160 b4 3c ff ba f4 37 c6 bf c0 40 40 1a 6e 80 a0 3f
       -0.17358264094079845 0.032229843811479864
000170 02 29 0d 64 e7 9f b7 bf ca 25 8e 24 36 60 c2 3f
       -0.0922836894289141 0.1435611418240071
000180 27 2f 06 08 ee aa cf bf 20 af aa 21 44 75 9f bf
       -0.24740386382870236 -0.030720772318701184
000190 04 8c 38 aa da f3 cd bf ba a7 ca d9 31 34 c2 3f
       -0.2340043383747742 0.14221785673481496
0001a0 e8 a2 98 fd 7e fb c8 bf d0 3c ca 54 66 ee b4 3f
       -0.195175050569808 0.08176269121235014
0001b0 c0 9b 0c 8a 56 f3 b7 3f a0 94 9f 54 42 a3 9d bf
       0.09355679388373428 -0.028943096556663606
0001c0 36 38 e8 64 08 92 b2 bf 03 53 93 40 90 b8 cf bf
       -0.07254078353455004 -0.24781993058299898
0001d0 40 ce 11 23 c9 d1 b3 3f 60 61 20 ad e8 a7 9d 3f
       0.07741982561292904 0.02896083409004413
0001e0 0b 71 fa f9 c3 00 c2 bf 84 be 6d ea c7 f8 a7 bf
       -0.1406483622166735 -0.046819922796996344
0001f0 a8 77 e1 4f b3 19 b9 bf 38 30 84 0d 1a b8 af bf
       -0.09804840755665956 -0.06195146002764357
000200 36 e8 c6 28 50 f5 cf bf d9 d8 d1 69 85 fd cf bf
       -0.24967386237205041 -0.24992435137728
000210 e0 f2 6c 4c a3 b5 cc 3f d8 c0 8d ad 1b 60 d0 3f
       0.2242931483432562 0.25586597393613664
000220 30 4e da e6 78 8a d0 bf 7c e7 e8 26 4e ee c8 3f
       -0.25845167679037484 0.19477250003711422
000230 80 a2 b6 c5 39 6c bd bf 61 09 76 dc 25 c3 c3 bf
       -0.11493264271724435 -0.15439294113827898
000240 38 d2 49 a1 be 78 b3 3f be 93 a4 2a c5 64 c6 3f
       0.07606116712288091 0.1749502618996796
000250 a8 49 a7 06 5c f2 98 bf 16 78 d7 68 aa 0b c8 bf
       -0.024362028032393873 -0.1878560077593085
000260 40 fe 2a 36 42 9e 86 bf 2b 0e b7 a7 cc 9b c8 bf
       -0.011044041898798374 -0.19225462140285407
000270 0a 7c 34 a5 04 db c8 3f 60 ec 39 e0 41 52 86 bf
       0.1941839033761144 -0.010899080901472569
000280 3c 3d df eb 3d e2 b3 3f d2 d5 bb 32 65 9a ca bf
       0.07767092712969242 -0.2078367707942293
000290 2a db 8e f5 55 d4 cc 3f 2e 00 a0 0d d0 17 d0 3f
       0.22522997369898096 0.25145341234747576
0002a0 d6 2b 90 e8 b4 e2 d0 3f 58 39 5a a9 39 48 a1 3f
       0.2638370772480675 0.03375415985384461
0002b0 90 70 d7 89 1d b8 a7 3f 40 38 81 28 a1 96 8d bf
       0.046326563907968965 -0.01444745926724178
0002c0 67 ac 12 04 58 97 c1 bf c0 98 70 36 23 87 70 3f
       -0.13743114661096742 0.0040351272100790925
0002d0 c3 9b 2c 2e 09 26 c2 bf 30 15 04 f4 70 55 a5 bf
       -0.14178576235391746 -0.041667489802458824
0002e0 ec 71 0d 86 d4 69 a0 bf 9c 95 ee 8f 2d 22 bd 3f
       -0.03205742012389465 0.1138027645489132
0002f0 3d 79 31 0a f3 61 ce bf f8 9d 97 de 72 47 b2 3f
       -0.23736417768209064 0.0714027207792397
000300 d5 64 b3 55 67 3a c8 bf 02 fc c6 3a 10 50 c8 bf
       -0.1892823379955987 -0.189943340968938
000310 8a 03 12 75 5f 9d cd 3f b0 f2 47 0e 52 42 c6 3f
       0.2313651391632699 0.17389894196812383
000320 70 af 10 53 75 e4 c9 bf ec 75 1e 09 3f 89 bc 3f
       -0.20228449397961468 0.11146921131736293
000330 66 34 85 00 69 12 cc 3f a6 ba ee 5e d7 40 c2 bf
       0.21931183362395074 -0.14260379920366012
000340 b9 cc 09 20 31 4e c0 bf d0 d6 41 4e 15 01 b6 3f
       -0.12738622726792473 0.08595402870727331
000350 e0 51 2f de 1f df 80 3f d2 51 1c c8 ae ee c5 3f
       0.008238076179545695 0.17134651919390237
000360 f2 ad 3e c4 78 b2 b8 bf 8c 24 b6 8d 86 9c cc 3f
       -0.09647326270231085 0.22352678222185707
000370 9d 34 9b 58 1a e5 cd bf c8 eb 70 37 e5 f9 93 bf
       -0.2335541660926638 -0.019507962712150634
000380 dc a9 78 ab d1 2c c6 bf 5a 29 98 bd 1b 10 b0 bf
       -0.1732427680265819 -0.06274579409379069
000390 1d 4d db 5f 31 56 cf bf 12 b6 d3 65 a2 93 c3 3f
       -0.24481789761066688 0.1529429433061727
0003a0 30 f8 36 95 51 88 c3 3f 02 59 19 21 c2 25 d0 3f
       0.15259761606097433 0.252304584811455
0003b0 40 d7 63 f7 cf 80 cf 3f 62 0e d1 02 54 11 d1 bf
       0.24611854152288437 -0.26668262744008164
0003c0 e0 5d 73 e4 47 2f 90 3f 7b 92 ea ef 53 53 c1 bf
       0.015805362051507177 -0.1353554650751397
0003d0 2e 5a 5c e1 7c 9f cb bf 83 c5 5a 16 50 7b cf bf
       -0.21580468181555673 -0.24595070926219983
0003e0 94 89 97 ee 1f 7e bf 3f 10 85 a9 75 7c ef cb bf
       0.1230182607173787 -0.2182460379145046
0003f0 80 1a 54 25 81 93 93 3f a6 98 b7 85 e3 0c d0 3f
       0.01911737242064726 0.25078666742627787
000400 68 4c 66 2f 15 f8 bb 3f 1a 72 7c 85 d9 14 c8 bf
       0.10925419242112044 -0.18813628213764916
000410 e2 30 3e 84 e2 81 c6 3f 02 8d 7e fd 4f 74 b3 bf
       0.17583877045797808 -0.0759935373194374
000420 c6 91 b1 29 d3 5b ba bf 10 1a 3e 37 f3 c6 c2 bf
       -0.10296363609228995 -0.14669647405044417
000430 30 ff 1b 3c d0 10 99 3f 40 2f d8 26 b9 cb b0 3f
       0.024478200596603716 0.06560857008315413
000440 52 88 4a d2 e2 9e cb bf 42 e1 36 91 52 9b ca 3f
       -0.21578631656763264 0.2078650673918308
000450 36 90 9b 50 41 13 ce bf a0 09 35 91 0f f3 d0 3f
       -0.23496262012406682 0.2648352544821595
000460 60 ce 56 73 af fe 83 3f e0 28 b2 43 f2 24 b9 3f
       0.009763117511148056 0.09822000649197404
000470 64 08 d6 a4 d1 e4 bc 3f 70 e6 18 2a 9f ce ce 3f
       0.11286649965589529 0.24068059497385574
000480 ea 66 7c c5 c0 ec c3 bf 8e 6e e3 a8 78 87 ce bf
       -0.15566262858265328 -0.2385092568064135
000490 9e 22 a4 2a 7e 2a c5 3f fd 6d 1a ac c4 61 d0 bf
       0.1653592785080677 -0.2559673004813872
0004a0 8a 46 30 70 4a 3d ca 3f 44 07 a3 af bc 6b b0 bf
       0.20499544599492864 -0.06414393699654136
0004b0 98 d6 2f e4 b9 b8 cf 3f 00 ba ad d5 bd fe 76 bf
       0.24782489435135768 -0.005614034215666752
0004c0 ea a6 7a 3c 8a f1 c7 bf ba 41 46 db 77 95 d0 3f
       -0.18705871537286295 0.2591228143073995
0004d0 ac 64 57 65 42 f7 ce 3f da 79 98 60 26 46 c2 3f
       0.24192075680074276 0.1427658054025887
0004e0 36 ef 9c db 89 9c b8 bf 2a a6 ff 6e ef 8f bf bf
       -0.09613858806272621 -0.1232900281899211
0004f0 a8 60 29 c8 8a 0d c6 3f de 7d 62 51 17 4f d0 3f
       0.17228827260510582 0.2548273367665085
000500 1e 40 79 be f7 97 c1 3f 70 7a f8 2c 15 4e ab bf
       0.13745018768759193 -0.05333009885747664
000510 34 b1 db 8d 6d ca c6 3f 28 6e 30 03 ff e5 a5 3f
       0.17805261065167033 0.04277035631113463
000520 60 f7 63 d6 53 f5 c0 bf 42 13 00 e1 60 ab b3 bf
       -0.13248680084501085 -0.07683377736254918
000530 d0 61 39 b6 2d 75 cf 3f 2a 20 8e 7d 66 87 c4 3f
       0.24576350591338647 0.16038209086059513
000540 40 46 a4 05 92 01 b8 3f c6 7f 0c f9 2e d8 b8 bf
       0.09377396238075963 -0.09704869823735782
000550 00 2c a2 5c c5 8c 5c bf a0 ee a3 79 0b 07 95 bf
       -0.0017425467836200692 -0.02053468637403333
000560 b0 8d fd ea e4 04 a8 3f f4 ae c7 0f b5 e2 aa bf
       0.04691233986411747 -0.05251088922145
000570 d8 7e a2 23 c7 26 c0 3f c0 11 56 f9 d7 1a b0 bf
       0.12618340721109322 -0.06290960156736158
000580 1e bd 12 6d de 53 b3 bf 80 53 7f 82 ed 17 7c bf
       -0.07549848711891058 -0.006858756802064714
000590 88 a4 0a 23 94 1b c2 3f a4 f5 4a fb 33 e6 c3 bf
       0.14146663390173253 -0.1554627396598508
0005a0 70 c9 bc 36 74 07 b6 3f 76 7b c1 24 48 f2 c1 bf
       0.08605123840678686 -0.1402063540908462
0005b0 8a 8f 7c 05 bc f8 c8 bf 72 3d ce e2 20 16 b5 bf
       -0.19509077327631658 -0.08236890351530748
0005c0 b0 40 93 37 08 07 a6 3f be 0a a0 be 0d e8 c7 bf
       0.04302240065010332 -0.18676921661252338
0005d0 7b 11 68 95 3d 4c d0 bf 98 eb 8a 99 5a 1f a5 bf
       -0.254653354553987 -0.041254836314201515
0005e0 94 65 82 0c 91 7c b7 3f 3c 8f f9 6a eb 9a cb 3f
       0.09174448542980534 0.215665271028337
0005f0 a0 07 01 5a b4 01 b8 3f c0 3e fa 9b f8 d2 91 3f
       0.09377600858081658 0.017406353492843918
000600 02 21 9c 7f f7 c5 c6 3f 96 c2 da 97 ba 1d bc bf
       0.1779164670081244 -0.10982862670312907
000610 2a 3e ac dd 26 ec d0 bf 20 b9 f3 14 90 7f af 3f
       -0.2644135632299106 0.06152010207903147
000620 9c 1d 4b e5 4f 72 b4 bf c8 24 2d de 1f c7 cd bf
       -0.07986926410659695 -0.23263929699377273
000630 08 bc 8c 92 85 02 c9 bf aa ec 0f 16 ef fd c7 bf
       -0.19538945823430276 -0.1874369485593424
000640 e4 ca 11 43 45 a1 d0 3f 26 fb 17 f0 3a 7b c9 bf
       0.2598431735015494 -0.19907318805049917
000650 58 08 5a 88 34 b7 99 bf 26 a0 08 2d 8d af c2 bf
       -0.02511293489670438 -0.14598240565214943
000660 8a 46 59 3e a6 c9 c9 3f e4 0f 10 5b a8 f8 bf bf
       0.2014663509785815 -0.12488796447001921
000670 44 dd 17 ca 56 4e cc 3f e6 ba 84 0e c3 88 cf bf
       0.22114071719964035 -0.24636114319715502
000680 0a 9f d7 e7 bf dc c9 3f 12 1b 25 bb 3d 03 b2 bf
       0.20204924412177433 -0.07036195582359664
000690 a4 a6 77 8f a6 96 cc 3f 18 93 f6 f3 d8 f4 d0 3f
       0.2233474922680233 0.2649443037465047
0006a0 30 00 4d dd af 51 9e bf 9a db 13 49 56 7d b8 bf
       -0.02960848606312555 -0.09566249164696075
0006b0 ec a9 d7 52 81 db b1 3f 7c a1 e3 6a 73 b9 b9 3f
       0.06975563309212135 0.1004860053977889
0006c0 b0 d1 77 c0 67 3d b4 3f 2b 4d 91 8c 5b 7f ce bf
       0.07906197022368278 -0.23826164592410612
0006d0 e4 a3 9b 4b e8 c0 d0 3f de ec 9a bc 00 c5 bc bf
       0.2617741335257604 -0.11238102535837721
0006e0 3e ee a8 c9 79 90 c0 3f 14 f9 e3 c7 8e 12 bc 3f
       0.12940904947923743 0.1096581686033214
0006f0 94 ad 67 1f 8c 53 c3 3f 00 50 e4 d3 d9 5c 5c 3f
       0.15098716290900127 0.0017311217521340794
000700 bc d4 e3 ce a6 7d c8 3f 5a f8 7a 65 c2 83 c5 3f
       0.19133458234833778 0.16808347659201922
000710 96 0e c0 30 2f 9c c8 3f 58 88 65 99 83 fd c2 bf
       0.19226636772520028 -0.14836163511341982
000720 9c 96 55 75 72 25 cd bf 54 bf ab d1 19 8d be 3f
       -0.22770529488768865 0.11934052819173974
000730 56 2b 77 44 d7 33 c0 3f f8 55 88 37 8c 15 d1 3f
       0.12658205836336361 0.26694016860105263
000740 91 c3 17 2a cc 38 c7 bf 7d c1 36 29 fa 11 c8 bf
       -0.18142082267106877 -0.18804862034222572
000750 da 8d 76 3b b8 71 c9 3f 78 eb d5 82 e5 ae ba bf
       0.19878294852706696 -0.10423120922307116
000760 3c 11 e6 04 a6 c7 c5 bf fa b4 50 ff 88 f7 d0 3f
       -0.1701552890700756 0.2651083463013745
000770 64 87 18 ed a9 85 cc 3f a0 ce 3c b1 47 33 a0 bf
       0.22282909466690193 -0.03164123571914712
000780 fe a4 78 4f 02 2f c5 3f cc 26 3a c6 d3 4b b6 bf
       0.16549710159714687 -0.08709453191309108
000790 18 1d 0e 5d ab cb cd 3f f8 1e 5b d2 49 3d cc 3f
       0.23277799648006048 0.22062037249838062
0007a0 e6 ac 84 ed 51 05 b2 bf 16 74 75 c1 f8 b8 d0 bf
       -0.07039367722306941 -0.2612897767301673
0007b0 e0 7d 4c bf bb 72 99 bf e8 74 1e f3 c0 19 c9 bf
       -0.024851735640479933 -0.19609844084781192
0007c0 1c 8f 3a fc c0 55 b1 3f 1f 80 76 27 88 99 cb bf
       0.0677147498886907 -0.21562292029284522
0007d0 58 0e bc 10 1d 73 ab 3f b8 fb 85 1c 16 b0 a9 3f
       0.053612621586606124 0.05017155740915008
0007e0 12 9d 6e 03 42 17 d0 bf b0 2b c2 2d 11 9d 94 3f
       -0.2514195474163482 0.020130413453937457
0007f0 24 46 63 63 8b 55 cf bf 28 24 d8 32 c8 e6 ae 3f
       -0.24479811051291833 0.060354477125720785

bias f8 [28]
000000 44 89 22 5a ef 45 b3 3f 72 56 2d af aa fb c9 3f
       0.07528587294158223 0.20299275926179267
000010 14 f8 80 3d d9 68 a5 bf 26 7e b8 17 01 6d c9 3f
       -0.0418155562951911 0.19863904627071455
000020 c0 a0 ff a9 48 04 8b 3f da 87 b8 87 72 ea cf bf
       0.013191764533943107 -0.2493422663401919
000030 70 19 91 e0 d8 50 c7 3f 9d 63 08 3a da ff ca bf
       0.18215476002860553 -0.21093299707061144
000040 95 41 ff e0 e4 1b ce bf f0 84 df 2f 81 8e a4 3f
       -0.23522625909982922 0.04014972409619044
000050 08 db 0c 65 52 59 b6 3f 40 6c 89 00 69 b1 74 bf
       0.08730044333502118 -0.0050520040172968295
000060 c9 96 2f d3 18 93 ce bf a0 60 db 71 48 2b 9c bf
       -0.23886404334841974 -0.02750886149337417
000070 1a 1b 17 df 76 b2 c1 3f 3a db 96 0e 40 23 c0 bf
       0.1382587994869134 -0.12607575142257038
000080 b1 21 8d d9 52 e7 cf bf c0 2e 99 10 8a 6c c0 bf
       -0.2492469370138344 -0.12831235704867616
000090 5f 80 6f 87 b8 74 d0 bf 4c bb 2c 93 e5 93 bf bf
       -0.25712407327774217 -0.12335047572262886
0000a0 26 75 02 f0 6a 0c c3 3f b4 93 a6 f3 c7 9c b1 3f
       0.1488164588853717 0.06879853914740758
0000b0 a8 c9 43 db 2f 3b ca 3f 44 25 60 ad 75 1a c4 bf
       0.20493124204911095 -0.15705748525241792
0000c0 00 12 7c ec c4 f5 97 bf d8 9d 41 56 6f 38 c0 3f
       -0.023398472722890418 0.1267222567723667
0000d0 b7 b0 31 7a e2 ce ce bf 80 9c da 47 4d e4 99 3f
       -0.24068861929425164 0.025284965048424812

weight f8 [28, 28]
000000 94 25 41 0e f1 ff b3 bf cf 5a 68 0e 41 bf c7 bf
       -0.07812410924920804 -0.18552411273477395
000010 80 a5 29 07 cb 49 58 bf 50 be 03 69 4b b1 c3 3f
       -0.0014824373908147448 0.1538481009260857
000020 9c 97 d0 fc c1 44 a9 3f 3c 09 a2 ad 8f b1 c0 3f
       0.04935270510786369 0.13041873911067536
000030 30 ed 7b b6 df 14 8a 3f de 8c f8 17 3c 3d b2 bf
       0.01273512626311532 -0.07124686799265897
000040 ac 1d 4c e2 4c 56 c3 3f 10 80 ac 76 61 b2 89 3f
       0.15107117700266082 0.012547265466821528
000050 44 74 63 29 2a 00 c3 3f dc 14 37 70 64 8a a4 3f
       0.14844252606317998 0.04011834974111547
000060 ff 5b 98 e7 9b 9b b1 bf a8 d7 df f5 36 8f 92 bf
       -0.0687806549470764 -0.018124445683461637
000070 21 23 21 93 ee 3e ba bf bc 6e f5 42 88 6a ad 3f
       -0.10252276508357429 0.05745340173117827
000080 96 44 27 b3 ea 56 c6 bf 8a 90 46 7c 8c df c1 bf
       -0.17452749011730323 -0.139634667092768
000090 b8 44 27 17 8b eb 9e 3f a0 57 e3 98 02 de 8f bf
       0.03019540146653263 -0.015560169497273624
0000a0 78 47 1f c9 e7 69 c7 3f 7c 99 f4 7e 88 60 ba 3f
       0.18291947670382647 0.10303547954081255
0000b0 d4 ec 48 89 c6 f5 c3 bf 78 7c e2 b1 ce ed b7 3f
       -0.15593797400820242 0.09347240298164816
0000c0 1c f7 fa 74 d7 a8 b9 3f d8 5e 30 e3 39 95 bc 3f
       0.10023256879773296 0.1116520099316135
0000d0 cc d3 c9 03 b8 31 c0 bf 70 f2 4f cd 8a a3 90 3f
       -0.12651729760150798 0.01624886396528996
0000e0 e8 bb 2f a5 30 9d a1 bf 5a 06 35 c1 c4 71 c5 3f
       -0.034402389683115875 0.16753444131795697
0000f0 38 e4 97 85 a7 6c be 3f 00 ce 68 bd 9f 42 73 bf
       0.11884543429904759 -0.004702209457309703
000100 bb d6 26 24 8a dc ba bf 04 1e 44 bf 26 d8 c7 3f
       -0.10492766745195585 0.18628391589321336
000110 74 9a 33 47 3b 06 b3 bf 7c b6 6c 22 57 6e c2 3f
       -0.0743138359863254 0.14399232083217217
000120 21 80 c0 30 d5 e3 c7 bf f6 6f 69 0a 1e 52 b7 bf
       -0.18664040451494748 -0.09109676126666941
000130 80 bf 7f c7 18 44 5f 3f 60 c6 b5 98 75 d4 ac 3f
       0.0019083253846438886 0.05630843629013493
000140 dc 4a 2f a1 fe f4 a6 3f cc 29 c9 f0 b4 58 c2 bf
       0.04483791081988439 -0.14333211667174195
000150 00 0a 4f 1c 2d 81 ae 3f 00 6c a6 e5 5e bd 63 bf
       0.05957928629461051 -0.002409634919968706
000160 95 06 0c ce 18 06 c1 bf d0 a2 56 3e 6f e9 b4 3f
       -0.13299856243979905 0.08168692848142745
000170 0e d7 33 fa 83 bd c3 bf b8 8f 4c 35 5d 36 c2 3f
       -0.1542210551921745 0.14228406050199083
000180 e0 b2 cd 48 8a 85 9c bf 00 af ea 6b db f6 a1 bf
       -0.027853165334294938 -0.03508649532645158
000190 b4 ee 51 00 33 89 be bf 46 c8 19 63 9d 1a c8 3f
       -0.11928099401296316 0.18831221903707468
0001a0 e8 d1 63 88 49 41 ba 3f 40 9f 5e 8a 96 ff 63 3f
       0.10255870418388435 0.0024412098163856533
0001b0 54 e1 79 06 0c b4 b8 3f a4 a5 ec 68 b2 fd c0 bf
       0.09649729879482055 -0.13274221537839737
0001c0 ce 79 60 54 2a 40 c2 3f 5f e4 55 00 29 f5 b0 bf
       0.14258317108119772 -0.06624084718886668
0001d0 a9 15 28 7b b7 72 b1 bf ec 21 e4 41 96 01 ac bf
       -0.0681566882777448 -0.054699607413627976
0001e0 fa 2a 9a 43 08 a0 c7 bf 20 f5 e3 f9 94 a2 b2 3f
       -0.1845712976540524 0.07279330349770818
0001f0 e4 a9 2f 00 8c dc c3 3f d4 78 f4 8e 9b c9 c6 3f
       0.15516805657473676 0.17802757721160012
000200 47 4f 05 2d 4f 92 c5 bf 98 05 86 23 cf c0 9e bf
       -0.1685275049045407 -0.0300323834831083
000210 00 d0 12 e0 fb a8 13 3f c0 b8 69 12 b0 27 89 3f
       7.499730419874284e-05 0.012282729684752858
000220 d0 ef 21 90 5b 35 a7 bf 68 a4 f0 85 9e 71 ba 3f
       -0.04532896170073253 0.10329619188327543
000230 12 8a 1f 18 bf 04 c7 bf f4 be 91 f9 4b 1d c2 3f
       -0.17983235052004481 0.14151906667711212
000240 28 c7 b6 b3 5f dc a1 bf 10 2f 97 4e 4e 76 83 bf
       -0.03488444393896223 -0.009502994321244823
000250 50 12 c6 07 57 e9 91 3f 5c 15 53 a4 14 54 c7 3f
       0.01749168381640437 0.18225343726787002
000260 f2 9c 4b b0 c2 55 c6 bf a0 ec 24 a2 dc 8c 9b bf
       -0.1744922028367238 -0.026904532810686832
000270 d4 0a 8a ec d9 19 c6 bf bc c0 79 80 2b 15 ae bf
       -0.1726639180161188 -0.05875526374154691
000280 b0 25 86 e0 15 c1 95 bf bc 8d de 8b 1c 40 c7 3f
       -0.021244375065668286 0.1816440279918491
000290 29 04 3f 04 61 c8 c2 bf 68 21 8f 1b d7 d8 ac 3f
       -0.14674008090335747 0.056341859926365256
0002a0 f0 8f 8e d1 6e d7 af bf e8 36 e1 d0 63 b7 93 bf
       -0.062190497475313467 -0.01925426447296888
0002b0 69 a9 41 89 d3 10 c3 bf 28 b3 c0 81 cc b5 91 bf
       -0.14895099832512962 -0.017295070094564796
0002c0 80 9a 9b de e1 57 88 3f 08 ce e5 4e 68 7f a8 bf
       0.011886372190429428 -0.0478470417318953
0002d0 60 1a fe f7 45 30 a7 3f 00 82 eb f0 e4 86 62 bf
       0.04529017116788192 -0.0022615882402166054
0002e0 30 18 2d 62 64 ab 8f bf 13 e1 f7 c4 a8 96 c4 bf
       -0.015463623281572664 -0.16084775559989647
0002f0 51 19 53 0a e3 f8 c4 bf 08 d4 a1 51 9e b1 c7 bf
       -0.1638454246914969 -0.18510798440880216
000300 00 d6 07 4a 96 99 81 3f 84 e2 6f 10 94 19 c4 3f
       0.008593725332484148 0.15703059008207643
000310 54 ec 37 30 d8 62 c7 bf d0 8b bf 79 5d ec c7 3f
       -0.1827039943162584 0.1869007915948644
000320 80 19 77 bc 74 c8 bf 3f 18 31 ee 2d c6 1a b7 3f
       0.12415246583177542 0.09025229092930365
000330 82 f0 24 b7 5f 90 c3 3f 4c 2c d3 ec 92 4b a9 3f
       0.15284344141571543 0.04940470829895868
000340 1e 7c e8 2b 7f 2f c7 3f dc eb 66 53 6a 39 a2 3f
       0.18113698619797075 0.03559429424372926
000350 31 75 94 4e 9d 56 b2 bf 48 46 66 16 61 d3 b0 3f
       -0.0716341320844165 0.06572539135802302
000360 20 2f 86 12 1c a1 7e 3f c0 75 ba 28 95 06 b5 3f
       0.007477864892631719 0.08213169330925663
000370 54 e6 95 a4 15 53 b0 3f 78 26 ef 1c 91 dc c6 bf
       0.06376776951028634 -0.1786061660080127
000380 75 a7 6a da 89 8d b9 bf cc 06 e9 38 a8 25 ba 3f
       -0.09981595594822841 0.10213710202608722
000390 30 c9 af d6 61 39 b2 3f b8 c2 8b 96 f8 46 b1 bf
       0.07118808261273979 -0.06748918223798739
0003a0 90 41 fc 3a 5e df 9b 3f e8 5a 99 f6 d3 0b 9b 3f
       0.027219269132787327 0.026412307668887275
0003b0 f0 41 47 ad 7a b8 91 bf a0 c2 e0 5e 1e a1 b9 3f
       -0.017305294824668083 0.10011472526890453
0003c0 78 8c 06 9f 92 bc b6 3f 78 1d 2f 28 d6 00 bb bf
       0.08881489164791556 -0.10548151475005862
0003d0 18 4a ff d3 ae b6 b1 3f 91 6f b3 d0 03 42 b2 bf
       0.06919377017701611 -0.07131980748402912
0003e0 c8 0f f6 81 6f 33 93 bf 1a 5a f2 0f e8 2f c7 3f
       -0.01875089865417559 0.18114949015280574
0003f0 e8 86 86 4c 6b 0b c1 3f 28 db c4 2a 8e f9 b2 3f
       0.13316098438831792 0.0741204122940472
000400 c2 0b cf 6b 03 05 c8 3f f4 16 4f b5 22 37 aa bf
       0.18765299572086575 -0.051201901085318996
000410 ee a6 4d b2 b3 3d c6 3f 08 04 f5 98 43 2b 9e 3f
       0.17375799375741202 0.029461914263496453
000420 b9 bf aa 67 88 ef c4 bf 70 d0 76 94 63 94 c2 3f
       -0.16355996190895697 0.14515347241615784
000430 07 c5 3f 7d 36 9e bd bf 68 ac 82 3b 09 af ab bf
       -0.11569538648452148 -0.05406979419179764
000440 70 b1 c6 44 97 da 98 bf 84 a6 79 73 a6 83 a9 bf
       -0.024271358082545047 -0.04983253631219234
000450 a4 9e 89 a8 bb d7 a0 bf 98 e2 8f ef a6 f2 ad 3f
       -0.032895912478861505 0.05849191355077216
000460 30 8f ab a7 f4 97 bb 3f 00 a0 83 8d 69 8f f3 3e
       0.10778740972051248 1.8654064519646463e-05
000470 90 24 63 d3 18 04 c1 3f 50 39 37 c3 2c 3e c7 3f
       0.13293752977032058 0.1815849259568929
000480 28 3e b5 ce fd fd b2 3f 20 cb a1 78 d4 39 b1 3f
       0.07418810173589263 0.06728866524808241
000490 0f 5a 87 65 d0 7e bd bf 69 ea 2b 8e fd 34 b1 bf
       -0.11521627882698503 -0.06721482010827064
0004a0 34 cf d5 7a 5a e3 a0 bf 1c 17 10 2a 38 d1 b3 bf
       -0.03298456906750716 -0.07741118456769097
0004b0 b8 9f e6 11 12 87 bd bf 10 5e 16 d2 ba 62 8d bf
       -0.11534226357491562 -0.014348468338353931
0004c0 ac 8f 52 00 1a 64 bc 3f 6c 23 70 7c 5f e5 a6 3f
       0.11090242870210315 0.04471872705477761
0004d0 52 33 d3 d2 09 c1 b3 bf d9 a3 dd df 2f 33 b4 bf
       -0.07716428181738635 -0.07890605178330591
0004e0 0a 6c 0a 8f 11 e5 b5 bf 0c f7 1a c2 51 e7 b0 3f
       -0.0855265592785345 0.06602965344333372
0004f0 c4 71 1f 13 b2 96 c5 bf 93 c4 c1 ec 0e 6b c4 bf
       -0.16866136487705152 -0.15951716003795421
000500 98 12 a4 eb 43 0a a4 bf 30 52 95 16 b9 2c ac 3f
       -0.0391408181331247 0.05502870941805715
000510 54 65 d7 15 97 d3 be 3f c8 af 1b d7 96 c5 aa bf
       0.12041610987889345 -0.052288736112899026
000520 18 ad e3 25 89 45 a6 3f ae 94 52 33 c8 2c be bf
       0.0434992655517254 -0.11787081959717469
000530 e4 0f 08 54 99 16 b8 3f ec ce d3 5e 97 03 b3 3f
       0.09409483243513211 0.0742735487472676
000540 54 14 f2 18 fe 36 ba bf e3 28 7a b8 3e d8 bf bf
       -0.10240161999725333 -0.12439338687741812
000550 34 8f dd da 9a 7f b4 3f ae 27 2c 73 56 da b1 bf
       0.08007209628482032 -0.06973781883075844
000560 b9 d8 31 7f c5 6f b6 bf d4 b7 d5 92 90 51 b6 bf
       -0.08764299731578519 -0.08718207917055959
000570 d8 ce 51 f9 0e 5b c5 bf 36 62 4f a8 6f 79 c0 3f
       -0.1668413846378971 0.1287059375597594
000580 5e 96 40 30 12 57 c1 bf ec 86 07 95 ae 25 a8 3f
       -0.13546969753331245 0.04716249055105756
000590 c0 95 ee 8a 0a ea 77 bf 70 4d 8c 61 80 66 c5 3f
       -0.0058384334396683335 0.1671905971821661
0005a0 50 77 5e 1e 14 b1 92 3f 00 c3 1c fd c8 de bf 3f
       0.018253626206948426 0.12449318103314155
0005b0 48 0d 9e 39 33 95 bf bf 00 bb 18 4c fa b8 76 3f
       -0.12337036282229008 0.005547502254144687
0005c0 b0 01 96 f9 79 36 95 bf 8f 27 df e3 18 5a c2 bf
       -0.020715623720663323 -0.14337454916522716
0005d0 d6 0a 9a b6 ce 21 c4 bf 94 b4 58 76 67 5a bf bf
       -0.1572817222223281 -0.12247320784872989
0005e0 60 c1 cf c8 b9 8f 89 3f 09 07 77 47 09 4d c2 bf
       0.012481166306287761 -0.14297595967769208
0005f0 c7 32 66 1c 4f 8d b9 bf 68 42 88 4d 0b 46 b1 3f
       -0.09981245463695664 0.06747503893735429
000600 0a ea a1 5d a3 23 b8 bf 96 44 5f 19 1b 6a ba bf
       -0.09429379497479587 -0.10318154687344569
000610 48 88 fb ab c6 86 b2 3f b6 18 af 04 31 a2 c2 3f
       0.07236901949684793 0.14557469109258186
000620 9e 3f d1 5b ff e2 b5 bf de e7 1c 20 40 eb c3 bf
       -0.0854949568904417 -0.15561677520764666
000630 88 82 bf b2 b4 7a ae 3f 16 30 4b 51 9c bf c3 bf
       0.059529921359858184 -0.15428499192637507
000640 e8 55 05 33 b9 c4 95 bf 18 97 77 d7 d6 40 94 3f
       -0.021258252848687237 0.019778592015334245
000650 1c 10 4b a7 ef 1b c6 bf 40 bb ab d6 6b 69 c7 bf
       -0.1727275435315513 -0.1829047010610001
000660 20 d9 5c 84 3b 51 ae bf 1e 77 6d 98 4d 7f c5 3f
       -0.05921350470309705 0.1679474825168023
000670 76 35 c7 80 df 2b c8 bf 24 fd 00 28 87 e4 a7 3f
       -0.18883889949794835 0.04666540492370988
000680 b8 31 be d6 8b ff bc 3f ba 3c 53 63 ea 22 c2 3f
       0.11327432625529965 0.14169053888187993
000690 60 e8 03 3f 58 ca bd 3f 30 68 20 e0 30 a8 c4 bf
       0.11636878527124983 -0.16138277953797475
0006a0 90 00 0a 60 33 a1 a9 bf 7c 71 4b 81 77 e1 a5 3f
       -0.05005798861839239 0.04273580029777954
0006b0 b3 85 dc 04 a2 29 bf bf eb 73 3d ff 46 47 be bf
       -0.12172901743590252 -0.11827510577627691
0006c0 60 51 a4 44 d1 11 78 bf 30 c7 0a 48 53 ef a3 bf
       -0.00587636704792191 -0.0389352822725314
0006d0 70 89 fe 4c 54 c1 bc 3f 84 8b 91 16 db f6 c3 3f
       0.11232497100585248 0.15597094156245472
0006e0 bc 03 53 29 25 b6 c0 bf 00 27 24 4a 30 15 91 3f
       -0.1305586292055788 0.01668239071390243
0006f0 10 24 74 8d 5e 3f 99 bf 60 3f 10 72 c3 4c 9e bf
       -0.024655797370574162 -0.02958970435798791
000700 e0 14 e7 6f 7d ad b6 bf 20 58 51 bd aa c3 95 3f
       -0.08858474714277831 0.02125422268394328
000710 30 f9 0e 64 27 27 95 bf 40 77 40 a7 a5 35 b5 3f
       -0.02065717266281658 0.08284983952804925
000720 ec d2 7e 5e e8 b5 a6 3f 1a df b1 b4 85 9c c3 bf
       0.044356595549663286 -0.15321418116558833
000730 ff c5 be a4 37 1d b9 bf 42 2a e2 3e 2c a1 c4 3f
       -0.09810207149600812 0.1611686045692569
000740 48 63 5f e9 81 da bd 3f ac 8a 86 d8 9c 4b a5 3f
       0.11661540935109571 0.04159250395902822
000750 7c 48 4c 4f b2 6f c3 bf d4 e5 dd 3a e9 f4 ac bf
       -0.15184620735141496 -0.05655602305973742
000760 14 0d aa e4 ce b1 c3 3f c0 f8 aa 71 a9 9f 9f 3f
       0.1538637749218671 0.030882499277816278
000770 a8 51 0d 0a f6 6c ab bf 5c 1c 91 1a aa 2f b6 3f
       -0.05356568215089236 0.08666480206112354
000780 c0 b1 46 e8 37 f2 bd bf 6c 04 39 fd 01 24 c8 3f
       -0.1169772092895931 0.18859886993780905
000790 0c 2b a6 60 1a 36 bd 3f 99 90 e8 1f ec 06 bc bf
       0.11410679683301 -0.10948062685980843
0007a0 f0 e4 c1 89 83 7b af 3f d1 d3 59 f9 26 e5 bc bf
       0.06148921066864854 -0.11287158572834179
0007b0 60 f3 71 62 5c 69 bb bf 44 c9 0d 5d 72 3e a0 3f
       -0.10707642939992246 0.03172643075858386
0007c0 f4 23 ff 4d 73 98 c3 bf 44 3a 77 7a 92 da a4 3f
       -0.15308991726331522 0.0407300734037688
0007d0 10 31 2a 76 c8 15 81 3f d2 2f a7 35 9a 87 c2 3f
       0.008342329126457076 0.14476325626162506
0007e0 8e 93 81 4d 7f 39 c7 3f c0 71 a4 da de 8b 77 bf
       0.18144217762451514 -0.005748625301091825
0007f0 ce 76 d4 2b bd 9a bf bf 38 d4 f2 2e 53 20 c1 bf
       -0.12345487899844018 -0.13379897873315527

bias f8 [28]
000000 1f aa 20 b8 9c c4 bd bf b0 66 dd ee 48 42 b3 bf
       -0.11628131385138162 -0.07523017722760517
000010 14 d6 a4 27 cd 97 a3 3f 96 d7 42 c7 e2 c9 c4 bf
       0.038267527665464623 -0.16241106729074478
000020 e0 56 ae 9c e7 ff b9 3f 97 e9 03 db f2 f7 be bf
       0.10156104636402175 -0.12097089621594247
000030 70 15 df f4 2f 4a b2 bf 76 a1 ec 14 16 c7 c4 3f
       -0.07144450882249997 0.1623256303948996
000040 7e bb 4a 18 f6 71 c0 3f 48 9d e1 c5 40 d9 c4 3f
       0.12847782312516282 0.16288003599332002
000050 e8 a2 af 0e c4 14 a1 3f bc a6 26 a4 4a 62 b6 3f
       0.03336155585549766 0.0874373102912171
000060 b7 1c e6 9f 26 34 c1 bf 6a ff 54 eb 09 f4 b5 bf
       -0.1344040184742192 -0.0857549857655592
000070 ce b3 f9 7e c3 5e c2 3f fc 1b 77 ed c5 f8 a7 3f
       0.14351695728274055 0.046819863545856294
000080 bc 63 cd f0 c0 fc b8 3f ac 3f fd 53 25 da b9 bf
       0.0976067150017021 -0.10098489094275348
000090 a4 9b 2e 67 54 d2 a8 bf 10 b2 2d bd bc e1 90 bf
       -0.048479688258616066 -0.016486119314707948
0000a0 90 aa 1b 0f 74 f1 81 bf 77 3a c4 d0 2e f4 b9 bf
       -0.008761316977559802 -0.10138218495215222
0000b0 e4 b4 e3 ea 18 e2 c6 3f e8 4d 98 1f 52 71 bd 3f
       0.17877494305813635 0.11501038810120401
0000c0 00 29 c4 3f e1 f4 b6 3f db 8f 2d 79 eb a9 b5 bf
       0.08967407042306164 -0.08462402065703094
0000d0 bc 71 7e 42 c2 d7 c3 bf e0 98 b1 9a 5e e9 81 bf
       -0.1550219368626936 -0.008745898338201774

weight f8 [28, 28]
000000 a8 c4 a6 d6 6b eb 97 3f b8 15 84 45 c8 5c ae 3f
       0.023358998276027748 0.059301622854074976
000010 50 39 5b c3 99 56 b8 3f 38 b9 f5 c5 0b ab 9a bf
       0.09507142085496878 -0.026043113667975265
000020 38 a0 ce 49 2d 6a 9a 3f 40 69 e9 53 af f7 c3 bf
       0.0257956577585505 -0.1559962424970056
000030 70 9c f3 7c 1c bc 91 bf a0 c9 c9 60 2c 6c 7c bf
       -0.01731915009159163 -0.006939099647399166
000040 30 47 d9 4b 49 2b 88 bf 25 34 21 61 0e 94 c7 bf
       -0.011801312091083455 -0.18420581572209574
000050 30 eb 83 20 24 94 b6 bf 84 c2 f0 80 10 af b7 3f
       -0.08819795411902187 0.09251502178154608
000060 6c f4 0e 53 9c d7 c1 3f 18 ec 29 51 6b a8 aa bf
       0.13939241462313434 -0.05206618657845058
000070 b2 48 35 9b 36 51 c0 3f 1c b5 21 f2 ab 99 b8 bf
       0.12747843340418324 -0.09609484349649161
000080 40 71 7c ab 4c df 7c bf 40 13 22 22 f3 03 7e 3f
       -0.007048892490072511 0.007327985515193813
000090 26 51 95 57 95 c0 c2 3f 12 43 04 a4 bc 3c b1 bf
       0.14650217796828108 -0.0673330212050696
0000a0 38 dd 0f 6e 12 7d 90 bf c4 25 48 93 be 4c ac 3f
       -0.0161021117855544 0.055273013571489865
0000b0 c0 49 8e 95 c8 b0 7e bf 95 76 24 33 ee 6c c6 bf
       -0.007492812664070703 -0.17519929406346493
0000c0 18 1a 87 a9 73 8d a1 3f e0 52 38 76 7d f7 b3 3f
       0.03428231663160747 0.07799514900427651
0000d0 3e 53 84 ac 37 ab c7 3f a4 ce dd 4d 7f 7c b9 3f
       0.18491264270473978 0.0995559277633285
0000e0 d0 02 e7 48 70 97 c0 bf 20 d7 64 11 d8 33 89 bf
       -0.1296215396851239 -0.01230591586191171
0000f0 67 d9 75 a2 cf 4f c0 bf dc a6 4f e5 00 cd c7 3f
       -0.12743564064630705 0.18594371029694556
000100 8c d7 ac 13 b6 18 c2 3f f0 4b 19 13 92 01 ae bf
       0.14137912712766043 -0.058605732756994544
000110 c0 67 5b 5d 32 7c 7b bf 00 49 5d 09 69 8c 5b bf
       -0.006710240113273203 -0.0016814256427620244
000120 a0 21 7a 6d 90 51 84 3f 94 14 36 c7 c7 36 c3 bf
       0.009921196309066016 -0.15010926463233842
000130 38 4d d4 be fb 3d a6 3f 10 cb 1b eb af 79 c1 3f
       0.043441645664780315 0.13652609805975446
000140 7d 09 52 de dc 25 c3 bf 6c 72 a5 22 3f c4 bf 3f
       -0.1495929799603565 0.12408823581558587
000150 b0 08 e7 16 e0 a0 ab bf 5c cf 8c 55 93 f4 ba 3f
       -0.053961756511413994 0.10529442633270264
000160 f0 35 2e 67 a3 de bd 3f a0 dd 68 b4 55 f3 b0 3f
       0.11667844075255807 0.06621299414188409
000170 34 7f 9b e0 96 30 a4 bf bc ca 1e 69 4f 51 b8 3f
       -0.03943320743360204 0.09499069515622244
000180 20 c3 24 28 63 fa c7 3f 4c 6f 66 cc c5 11 c1 3f
       0.18732871494423708 0.13335487823939685
000190 12 ab 6e ef f9 72 c2 bf 7a 3a ae 78 11 04 c7 bf
       -0.14413379851370017 -0.1798116530666965
0001a0 80 46 7f d5 25 6a c3 bf 42 fe 4a 07 91 db c3 bf
       -0.15167687344233016 -0.1551381383524007
0001b0 fa 23 f8 76 ba ee c4 3f 00 66 01 bf 68 70 88 3f
       0.16353541192100335 0.011933153466247681
0001c0 e8 88 2c d0 68 0f c1 bf 78 04 ea a6 78 fe 99 bf
       -0.13328275837654435 -0.025384793460493132
0001d0 b4 c8 79 00 2f 61 b8 3f 30 47 47 69 9d a4 b8 3f
       0.09523290406812884 0.09626182384752435
0001e0 a8 f8 66 96 82 ad c2 3f 80 87 5a 5b 32 54 ba 3f
       0.14592010825976343 0.10284723978341326
0001f0 5c 86 a5 09 7d 57 be 3f e8 33 e7 24 92 23 c0 3f
       0.11852246747505418 0.12608553697501113
000200 6c 40 df 8e 1a 56 ad bf b8 f5 99 7e 1e 44 a3 bf
       -0.057297544422568375 -0.03762908263614001
000210 84 6b cc 13 dc 20 b8 3f af 47 57 ef b3 16 c3 bf
       0.0942513988815517 -0.14913033663338868
000220 04 e2 8b 6e 0b 85 ad 3f 74 c2 9a 6a 6f 0c b6 3f
       0.05765567516749928 0.08612724640512132
000230 1b 87 af c4 c3 d7 b4 bf cf aa 06 54 6d b4 c3 bf
       -0.08141730834861642 -0.15394369700273677
000240 06 24 7f 5a cf db b8 bf 1a fd 36 44 4e fb c3 bf
       -0.09710403403654774 -0.15610674219895132
000250 e8 7b 0d c2 d6 bf a4 3f 8c 3d 4c 1a 28 a4 a9 bf
       0.04052611464316397 -0.050080540857489
000260 58 07 f5 04 c4 e8 ab 3f 2e bb 80 8f 1c 91 c6 3f
       0.05451023636352542 0.17630345351195714
000270 e0 b6 99 dc 78 0e c7 3f f0 40 c5 69 78 1e ba bf
       0.18012915393358409 -0.10202744085586679
000280 70 f2 94 d7 7f 2e c7 3f b7 d5 55 17 4e 0d c1 bf
       0.18110654856163277 -0.1332185377065522
000290 90 67 bd 97 28 49 c6 bf 30 fd 47 56 c2 6d a4 bf
       -0.17410762223408627 -0.03989989569890395
0002a0 f6 27 72 f8 97 80 c4 3f d4 b8 fb c5 fb 61 b3 3f
       0.16017436629437015 0.07571385940147773
0002b0 6a 65 59 7b 33 8c c1 bf 50 9c 2e 52 b5 72 ba 3f
       -0.13709109805021608 0.10331280952833422
0002c0 4a 4f c3 40 a4 e0 b6 bf 1f 3b a1 96 ae 54 c7 bf
       -0.08936525899053752 -0.1822717891213523
0002d0 08 9e cf f2 24 4d 91 3f 90 9d f0 f6 ac 14 c2 bf
       0.016895844764716755 -0.14125597055065642
0002e0 90 87 72 b2 d4 28 b6 bf 88 f3 4a 70 8f f9 b7 bf
       -0.08656052929521096 -0.09365173808596527
0002f0 a4 9d 11 33 41 1a b3 3f 3e 53 59 1b 77 d8 c0 3f
       0.07461936470791969 0.13160599551579283
000300 98 87 b8 e6 04 2d c7 3f c8 a5 81 e3 d7 76 a0 3f
       0.18106137529053679 0.032156702539235804
000310 4c 43 52 fd 8f ba a5 3f 65 06 d0 10 96 01 be bf
       0.04243898360539919 -0.11721170340026672
000320 70 cc 7d a8 e5 bb a8 bf 84 c5 52 70 73 b9 a3 3f
       -0.04830854112415117 0.03852425333151202
000330 22 6c f1 03 75 eb c7 3f f4 41 6e d4 e7 74 c6 3f
       0.18687308018238108 0.1754426753291366
000340 20 c7 42 29 89 9f 7b bf 9b 11 34 48 a3 1f c8 bf
       -0.006743942056503888 -0.188465509658397
000350 58 59 2d 12 5f 94 aa 3f 40 bc f3 c5 8f be c0 3f
       0.05191323372734996 0.13081547895078138
000360 48 ea da 5d 30 9c 9c bf 20 52 ae ce c5 50 7a bf
       -0.027939563492262814 -0.006424687085104824
000370 ce 1c 30 8b 0f 04 be bf bd f3 57 27 2b 0d b5 bf
       -0.11724946163313918 -0.08223218641792492
000380 64 90 02 e9 fc 07 c1 3f c8 ba b3 b3 36 97 c3 bf
       0.13305627229158568 -0.15305217527880743
000390 40 33 99 be d3 ad b8 3f 38 63 42 0b fe 09 9d 3f
       0.09640239146501717 0.02835843032571292
0003a0 18 45 6a d4 c9 ae a4 3f e0 b9 c3 cb 30 29 87 3f
       0.04039602964361161 0.011309033602143026
0003b0 8b fe f9 03 2b 8c c3 bf 5c 6d ff 45 7c cb b9 3f
       -0.15271508878867154 0.10076119145326373
0003c0 97 3a 61 65 68 82 c4 bf 50 c1 46 a4 63 d8 b0 3f
       -0.16022973013101158 0.06580183754590974
0003d0 5c d4 47 d3 b9 1d a0 bf 51 ed a8 5f b1 e8 c2 bf
       -0.03147679046734517 -0.14772622271434924
0003e0 88 88 6f de 27 20 a3 3f 08 3f 09 13 60 99 a3 bf
       0.03735470381049405 -0.038279535602326276
0003f0 c5 54 53 eb de 06 b5 bf 08 67 95 2a 23 36 b0 3f
       -0.08213608975650562 0.06332607068670992
000400 35 a1 e4 3f fd 40 c4 bf a6 84 f0 21 4c 53 c3 3f
       -0.15823331470279248 0.15097953469470332
000410 90 a6 3a 56 97 2b af 3f c8 02 0d f1 f0 4a c1 bf
       0.06087944915391319 -0.13509952325877905
000420 52 d9 d8 3d 04 8a c2 3f 00 44 11 5c b0 09 74 3f
       0.1448369314181926 0.004892052559697824
000430 2c 20 fa e9 3a e1 b5 bf 50 00 41 64 3c 49 ab 3f
       -0.08546798908548742 0.05329312061121583
000440 68 52 1d de 13 3f 94 bf 10 7b 55 48 74 7f a0 3f
       -0.01977187197856481 0.03222239859564102
000450 09 ad 0c da ef a8 c0 bf 7c e8 42 40 08 25 c2 3f
       -0.13015554568242063 0.141755133988969
000460 1c cc 80 65 22 d4 bc bf c0 69 c8 8a b8 a2 c0 3f
       -0.11261191347220784 0.12996584679133427
000470 cb 9b 0e 9c 8b f5 b2 bf b0 d6 f2 8a 8e df c5 3f
       -0.0740592247008031 0.17088491234396974
000480 ac 1c 45 4a d3 6d b3 3f 11 a9 8b 11 38 34 c3 bf
       0.07589455188018474 -0.15003109795299754
000490 ca 41 5b 68 04 68 c2 3f 38 9a f9 c8 41 e5 ac bf
       0.14379935355692758 -0.056436591895181853
0004a0 60 6e 65 dd 89 74 71 bf 14 8f 6a 6f a9 f5 b5 3f
       -0.004261530432212973 0.08577975244639574
0004b0 bc 53 7f 9c b8 83 bf 3f d8 00 b7 e0 a4 4d be 3f
       0.1231036550592099 0.11837225424006037
0004c0 d2 d7 28 14 3e 50 c0 3f eb ee 72 78 e2 ed b8 bf
       0.12744880661347097 -0.09737983170174018
0004d0 38 da d7 c0 71 d3 90 bf fc 90 59 8e 22 89 a9 3f
       -0.016431596179211833 0.04987438190144819
0004e0 94 44 44 76 b8 a5 b0 3f 1a 68 05 dc 34 83 b0 bf
       0.0650286949860564 -0.06450205203637474
0004f0 b0 e8 35 f1 e1 b5 c3 3f 0c 03 c0 cf 8a 23 be 3f
       0.15398811605320395 0.11772983142874355
000500 a4 54 6d 65 b9 09 b0 3f c2 7e 4f 81 e7 fb c4 bf
       0.06264837957617658 -0.16393750967016812
000510 03 b4 69 1e 14 5c b8 bf 84 31 b7 f6 96 25 a3 bf
       -0.09515500776770129 -0.037396161667490296
000520 c0 65 fa bd 5d 97 c4 3f db 45 60 a8 48 ab ba bf
       0.16086932922625685 -0.10417608366721913
000530 b0 c2 97 2a 63 d5 92 bf 6e 30 ca af c5 26 c7 bf
       -0.018392133211764417 -0.18087073405729676
000540 ce 7a 12 cf 14 3d b3 bf 34 27 4a 28 a4 64 c5 3f
       -0.07515077643845844 0.1671338268973216
000550 d8 10 03 48 ab d1 ad 3f aa 50 50 55 32 c0 c7 3f
       0.05824027303745688 0.18555287519177927
000560 2c 09 ac 1b 25 c5 a4 3f 38 7e 19 cd f3 10 a6 bf
       0.04056659663003112 -0.04309808615357408
000570 38 67 f3 fb df c1 a5 bf 86 64 b5 6b 02 26 c2 3f
       -0.042494773393356444 0.1417849565430382
000580 4c 4c f0 b3 b4 36 a8 3f 10 5f ae 60 78 f7 af 3f
       0.04729237267033479 0.06243492298307107
000590 6c ba 8b e3 6e d5 a9 bf 54 55 8e ff 8b 68 c1 bf
       -0.050456490780437985 -0.1360030172187786
0005a0 80 f8 30 9c 39 9e a0 bf 00 f3 92 49 7e bc 7f bf
       -0.0324571612513731 -0.007748120603704889
0005b0 fc 9d 1c ab 7f 8a bb 3f 5d bc 0d 22 3f f0 c6 bf
       0.10758207252057866 -0.17920674479271073
0005c0 28 7e e9 64 df e2 92 bf 57 f6 ae ff 46 d7 ba bf
       -0.018443575414833685 -0.10484737150451316
0005d0 64 db 83 ca ee 35 c0 3f e8 a8 4b 22 92 0d c3 3f
       0.1266458977549646 0.14885164904200754
0005e0 92 33 86 d8 67 00 c3 bf 40 b2 5d 94 9a 7b 7d bf
       -0.1484498793837728 -0.007197955919633403
0005f0 9d bd 87 01 41 97 ba bf 8a ab 56 9a fa 68 c5 3f
       -0.10387045180663397 0.1672662023168779
000600 42 52 52 fa 59 55 bb bf bc 56 30 91 32 32 b3 3f
       -0.10677111016622923 0.07498470348977099
000610 1c 93 5b 72 41 95 b8 3f d0 cf 76 91 af 52 c1 3f
       0.09602746049820293 0.1353358707689254
000620 c8 bd fd 32 eb 2e b6 bf ab 1b db 73 e4 19 c7 bf
       -0.0866534232607058 -0.1804776731207459
000630 8c 11 fd 9f 6a fb c0 bf 6c 8a 1b 91 c0 dc b8 3f
       -0.13267262279454106 0.09711841147103834
000640 08 34 d5 8b e4 83 b5 3f aa b0 94 00 6a e0 c7 bf
       0.08404377378356298 -0.1865360739551581
000650 34 91 3b 03 7f 3d b9 3f 56 a9 74 a1 09 53 c2 bf
       0.09859460667536696 -0.1431591070516542
000660 1f 14 4a 1b 9a 4e b1 bf 70 1d 48 5b 16 cc 81 bf
       -0.06760562101597188 -0.008690046940513979
000670 1e 3d 2b f4 f9 f5 b6 bf 28 39 41 5e 96 92 a7 bf
       -0.08969080172686403 -0.046040247922621014
000680 80 65 fc 6c 21 fe c5 3f 38 20 5e 9a fd 2a a4 3f
       0.17181794950083074 0.03939049252863963
000690 20 f9 8d 1e df 1a bc 3f 00 53 d7 e9 b7 ac 57 bf
       0.10978502746545304 -0.0014449878720956266
0006a0 a2 e3 27 bc cf 10 b0 bf f4 3f 1c bc 9f 1f c4 3f
       -0.06275652259490852 0.1572150867946217
0006b0 28 50 60 d7 01 40 b6 bf 68 f3 f5 44 03 19 c2 3f
       -0.08691417225082942 0.1413883291933431
0006c0 d8 15 0f f4 0e 38 b5 3f da 4c 24 f0 8a 4f c2 3f
       0.08288663347692393 0.14305245137857164
0006d0 76 e5 3d 45 f8 a7 c5 3f 48 1c 49 cd 7b fe 9b bf
       0.1691885316939012 -0.027337965397489478
0006e0 b4 93 3e ee ae 25 b8 3f 8c 82 5f e7 4a 87 c1 3f
       0.09432500187411003 0.1369413022757907
0006f0 17 88 75 b6 91 4d c4 bf 00 28 a1 9b d5 3d 83 3f
       -0.1586172238267529 0.009395283519683773
000700 20 c9 d6 0d ff 41 ae bf 6c 72 8f ed f7 d4 a3 3f
       -0.0590972618478125 0.03873419546991816
000710 00 2f 9e 2f d8 c1 af 3f 50 69 e0 2e 6e b0 89 bf
       0.06202579098962069 -0.012543545537529482
000720 fc ec 81 3a a4 6a be bf 64 1b e4 12 7a 9b c1 3f
       -0.11881472042471225 0.13755727693952757
000730 c4 c3 2b a6 35 5f bb 3f c1 14 4a 50 7b 5d c2 bf
       0.10692153269680121 -0.1434778348958954
000740 6c 1d 18 73 86 ad a3 3f b0 4d 98 38 69 a8 ab 3f
       0.03843326716383441 0.05401924911361833
000750 00 ab 40 bb ed db c5 3f e0 67 63 e7 93 0f 99 3f
       0.1707741894072896 0.024473486898251795
000760 98 b6 9a c1 a0 c8 a5 bf f6 5c 6b 98 a2 93 c4 bf
       -0.04254629481634459 -0.1607554668650903
000770 d9 2d cd 2d 97 0f c6 bf c6 cc a2 d0 d1 92 c4 3f
       -0.1723507856025737 0.16073057830144516
000780 7c da f5 8f c2 bb bc 3f a8 6a 7e d4 5a 68 b9 3f
       0.11223999037415838 0.09924857795560149
000790 00 dc ee e3 04 54 57 3f 00 5e b5 ff 67 01 78 3f
       0.0014238403089004148 0.005860716100265062
0007a0 10 23 fb 22 10 f8 9b bf f6 f2 e1 6e ef f0 b8 bf
       -0.027313472876616507 -0.0974263807019716
0007b0 78 9c fe ee c3 ff ad bf b4 7b 7d e6 ce cf a4 bf
       -0.05859195988096472 -0.040647950778967795
0007c0 06 90 10 f1 19 31 b7 bf fa 3b d1 26 ae 10 c3 bf
       -0.0905929769074306 -0.1489465417421057
0007d0 60 57 e6 e9 78 12 73 3f b2 93 3c 74 2f fd c0 3f
       0.004656288451220764 0.13272660422913202
0007e0 0c 81 c0 da c1 b0 ac bf c8 07 e5 23 34 a6 af 3f
       -0.05603605075180171 0.06181490839163889
0007f0 ce 09 04 6d 82 18 c8 bf 70 34 fe 07 12 11 88 3f
       -0.18824796984706754 0.011751309269835114

bias f8 [28]
000000 68 13 51 23 25 3d c5 bf e0 8c da 99 2d f8 c2 3f
       -0.16592849945495947 0.1481987954367474
000010 88 0e 7b 23 cd 63 b9 3f 80 12 27 70 90 12 a7 3f
       0.09917909733035846 0.04506350869227038
000020 2e ec 78 49 0e f9 b3 bf 3a af 5f 2a 04 e1 c6 3f
       -0.07801904004820479 0.17874195164710632
000030 a0 ef 71 04 75 35 b9 bf b2 13 08 f0 35 ca b1 bf
       -0.09847194059869802 -0.0694917403234985
000040 8f 91 9f d6 5b 28 be bf 6e a7 92 a1 90 e2 c3 3f
       -0.11780332555605909 0.15535171403217468
000050 98 a7 fb cb ed 0a af 3f 30 32 81 f5 89 05 93 3f
       0.060630255842468006 0.018575816735664386
000060 ac df df 8e b2 8a a9 bf a0 d9 0a 65 0a 3c 7c 3f
       -0.04988630289147919 0.006893196682247554
000070 98 1e 89 30 d4 86 b5 3f 1c c7 d8 ef 0c ee a0 bf
       0.08408857521964774 -0.033066181448147186
000080 9c 69 26 ee b5 c9 a3 bf 38 57 e1 8d c4 b3 91 3f
       -0.03864830524544802 0.0172873221966576
000090 23 53 20 c3 2d 73 b0 bf a0 51 a6 38 3b 2a a8 bf
       -0.0642574883825771 -0.04719719950222445
0000a0 70 5d ea 80 44 0e a2 3f 48 d4 e3 c8 36 c8 98 bf
       0.035265103089097916 -0.02420125580916402
0000b0 44 83 3f 5f 43 89 c5 3f d0 44 7d c9 e3 e4 a2 3f
       0.16825143957887623 0.03690254053675235
0000c0 52 8c c4 a2 85 34 c1 bf 98 cb 0c 37 83 c1 c7 bf
       -0.13441534469265776 -0.18559303462970145
0000d0 50 2b 09 52 aa e1 bb 3f a4 34 e2 cd 6f f2 b9 3f
       0.10891212942912643 0.10135554100470984
