pyTorch/IRL_model_0.pth (torch, 31507 bytes, 10 tensors)

weight f8 [28, 14]
00000000: e0f0 d2b3 cc5b b8be be5b 8466 2f57 d0be
00000010: a0b5 2e9d ce77 c2be cca2 0472 698d cdbe
00000020: 4826 ab89 2e84 813e 589d 4834 1b08 c13e
00000030: d370 e489 4833 2b3f 7838 9e46 3a29 f4be
00000040: 9108 5eec 0144 f2be c266 f6d3 0721 f5be
00000050: 248d 442d fc3f 2c3f f200 35f1 be9c 2c3f
00000060: 36cf ecc2 bb65 2c3f d6d9 3d91 4943 2c3f
00000070: 95c7 c927 59a8 bdbf c0c1 36b9 39b2 d6bf
00000080: e22e 0805 cdc4 cebf 2c29 f27f eda5 b1bf
00000090: 4457 5f20 2322 d3bf 7d20 5568 8be5 c5bf
000000a0: b49b 53f4 de66 b4bf ae8f 1539 edd5 c2bf
000000b0: 0ccf 3c03 6872 d3bf 8101 be25 49d8 c3bf
000000c0: dfd1 7bbb 4801 d1bf 50d7 0f3d b706 bfbf
000000d0: 51f2 8941 6696 d4bf 3fa8 5bac 1715 a4bf
000000e0: 41f0 1929 c651 c7bf b764 b7a4 5aee babf
000000f0: 12be 621a a84e acbf 6cf5 2982 9408 97bf
00000100: 9f28 1131 870f b3bf 93f2 eba3 a9d6 b8bf
00000110: c3c1 f91d c1b4 c0bf e011 337d 1902 d03f
00000120: 83e9 f5cd 5f1c c0bf 2047 1cb0 d894 cbbf
00000130: a139 0160 9a9b c2bf ca21 0397 8e40 bebf
00000140: c4aa f934 a2d2 c7bf 72f7 3a12 0d2f c7bf
00000150: d077 1e72 3963 20bf d66f e4d8 ca6b 54bf
00000160: 8d9b e3e2 3706 70bf 11cd 0725 aa79 7fbf
00000170: 8c41 c6f1 792f 8bbf 4a69 0ac1 40dc 8cbf
00000180: c05b dd2e c159 713f f013 8195 0cf3 b73e
00000190: 7ed9 1581 c8ac 10bf b8a1 3966 eab0 17bf
000001a0: 1248 ed08 12c5 10bf 895a cfb3 9f8b 14bf
000001b0: 7803 aba1 69cc 76bf 509c ea14 9b5a 90bf
000001c0: 6345 0de8 5af4 c7be 717c cb88 ffd8 e2be
000001d0: a838 c5ed c7b9 c8be f2b8 7f9a be1f c4be
000001e0: e6b9 2a5c f31f b7be ae38 3655 0c53 373f
000001f0: ab32 4f2c 125e 373f 345d 396e a9ff cc3e
00000200: ff27 4266 3f06 e6be b843 e898 2f0f e6be
00000210: 1c69 2f7b d470 e63e 8feb 5022 260f 383f
00000220: 77b9 186a 8daf 353f 4ff5 1e74 9860 373f
00000230: e29b d7a0 0df1 c0be e8f6 e365 3c0c 1fbf
00000240: 19b0 22ee b1af 19bf 81a7 1cd1 4369 14bf
00000250: 99c0 d6fa 688d 19bf 80fe ba71 5f38 20bf
00000260: ae54 1870 d5ec 18bf 4cb0 9d68 4f50 20bf
00000270: a1ec 6c02 ca2b 13bf 9059 319a 0eeb 18bf
00000280: 4d7c 4f36 9f9c 19bf dfcb 71b1 66a6 20bf
00000290: a61a 1660 26fa 10bf d290 1828 f0d4 0dbf
000002a0: 83d7 121a edc5 7c3f dc5c 71e0 f8ba 773f
000002b0: 3d60 a683 b055 2bbf b247 f202 c17d 9fbf
000002c0: e4cf 7e6a 2634 b53f f5ee a80f b363 bd3f
000002d0: 34af afd1 7349 c13f 2aa5 0591 ea10 c53e
000002e0: 3d87 0c70 06ff c13f 62a9 2308 0faa a4bf
000002f0: ec99 8fa0 9733 873f fbd5 c4ba 7b6e ad3f
00000300: 3eba 4936 7af3 ba3f 97e1 5a07 debf c23f
00000310: d59c 8c3c eb14 a7bf aa97 2a81 0ab2 b4bf
00000320: 10ed 5f67 6724 d4bf 81b9 700c 59a3 bebf
00000330: 9776 1139 23ec aabf 2838 8f18 d7c4 d1bf
00000340: 3a73 c1fb e629 d1bf d29a 18c6 b559 c1bf
00000350: 63bd e3a8 5489 c7bf 269c 7985 1e1a b5bf
00000360: 4872 6fbb 45de cfbf 26d7 dde8 5194 a9bf
00000370: feaf e0a8 b062 d5bf 4d44 23ba 97be c9bf
00000380: 9f9c c1a2 08ab 2a3f dec5 76ea 510c 273f
00000390: c658 f832 e202 20bf c71f 5c2f 6bfc 133f
000003a0: 2545 3bea d1e4 91bf c365 2b88 2174 93bf
000003b0: 5af8 9c2c 2154 93bf 848c 7005 9668 44bf
000003c0: 9683 5d15 f995 89bf 76c5 4055 eca2 89bf
000003d0: e319 64cd 449e 89bf d240 f8c0 339c 89bf
000003e0: f10c d23a 9289 89bf 2be1 88cd 52a1 85bf
000003f0: d276 82f8 e091 c23f a37c fb08 aed0 d23f
00000400: d929 d9d4 a783 d03f 6d83 d7e4 20a9 b0bf
00000410: 4f51 9ba1 fed8 ca3f e398 573d deda a1bf
00000420: 0b52 34b9 ea75 953f 102e 7fd2 8677 bcbf
00000430: 86ae a28f 9f1e b53f 704a 454f 3517 c73f
00000440: 66d4 d2b6 c53b bfbf 3439 9f57 ee42 d03f
00000450: a412 f762 ef5e b5bf 7fc7 e664 0373 d83f
00000460: 95d1 f9c5 c512 c23f 9467 f095 4e7d c83f
00000470: 047b 5ed7 94a8 cd3f b11d b1d4 354d d23f
00000480: 1784 35d4 2b08 96bf 9e64 ad97 c8ea b3bf
00000490: 773c 494b 29e0 d83f b53b 812a 5181 d1bf
000004a0: 8656 a8e5 83d5 d03f 926c 096d 7289 b83f
000004b0: 390e ab0c 53af d13f fad4 3792 d887 c23f
000004c0: b985 8e71 b4a4 b83f 1cb9 e987 8b7c e13f
000004d0: ab5d ac4f 822b 943f 725b f0c2 b9af ac3f
000004e0: e6ad 8003 d7a4 9b3f 2d92 bdd0 675a b0bf
000004f0: fa1f f34c cae8 cc3f 1750 8ef6 4d8a d53f
00000500: ad0e 19ff 9916 d93f b5ae 952a 5be7 c7bf
00000510: 8ab8 6ebf 45e5 d03f 443b e459 c491 cd3f
00000520: 1390 6cbf d1ad 91bf e2d7 d47b f8ab bf3f
00000530: 392c 1fdd aa87 df3f ad55 2fe3 c3ad df3f
00000540: 82bb 8194 714c 68bf 5e7a 03b2 fdeb 63bf
00000550: 8f74 594c cbaa 62bf 84cd d4f9 7f0e 63bf
00000560: 822a ed6c 4423 62bf 0c50 c702 93de 66bf
00000570: 6b38 d005 60f1 64bf b180 e923 800c fb3e
00000580: 814c ed1b 2575 55bf 2ba8 bd64 b5ff 5abf
00000590: 49c8 eead b68e 63bf 77f7 eee7 9811 46bf
000005a0: 0038 b37d cebd 5fbf 2d75 782a 5fe9 46bf
000005b0: 9331 37e3 e332 56bf ef08 5173 8573 9abf
000005c0: 2976 ead4 2dd9 b1bf 38e9 9615 e175 b2bf
000005d0: 247e 0826 7300 b1bf 6eb7 1b14 5caf b1bf
000005e0: 790e f277 4aa1 a9bf d628 ff75 c573 ba3e
000005f0: 7ede 42bb 4536 553f b8c9 8daf 1086 923f
00000600: 2774 42a0 ebb8 aabf f1f5 7d79 2c61 a2bf
00000610: 9e6e c9ee 4cef 9dbf a091 7bcb d396 a2bf
00000620: 97f0 0cb1 473d b6be d06b a9ef fca2 cf3e
00000630: 0140 c5c0 784f 84bf 75cd 28ca 0deb 83bf
00000640: 9ee5 4882 efce 6dbf 8a38 6ad2 017e 84bf
00000650: 4cdc 4000 d5d2 7cbf 2789 69be 6ee1 81bf
00000660: 6e43 da18 60e2 74bf 8005 390d beda 80bf
00000670: 720e 0381 79e1 72bf 25b1 a73d 16d4 86bf
00000680: 6d8a ddec 39d3 74bf af41 4045 fcc6 7cbf
00000690: 0e59 a428 1979 cf3f 18dc b630 6ebe d03f
000006a0: 1589 75bc 3961 b13f 0215 7f6b 42b8 a1bf
000006b0: 2119 5752 b728 bd3f 5cc3 518b 4338 c43f
000006c0: 827d ba96 336b d23f 67c5 6b1e f667 d4bf
000006d0: 75a8 cb5f 194d cc3f 6d44 568c 4a3f 803f
000006e0: a97f d457 ca11 bb3f ac2b 9066 7d47 c63f
000006f0: da96 b1d4 f4e3 d63f 5395 aa5f 6b04 d43f
00000700: 3b15 79a5 f54a b8bf 0608 ce18 0c6d bdbf
00000710: c486 a41e 4c16 b8bf 843f 8a2c 10d2 d8bf
00000720: 0622 d1fe f232 ddbf 4c50 897c e817 c4bf
00000730: ecc8 7d2d 474b c3bf 955a 023a 5e67 9ebf
00000740: 0cb6 df18 18a5 dabf 81d6 9199 b902 dbbf
00000750: 5398 cadf fea5 b6bf dcc4 5203 9e62 d6bf
00000760: 28b3 5504 f205 dabf 127f 0066 c002 a0bf
00000770: 02b7 28ce a241 6bbf acc7 14c4 241a b43f
00000780: 882a a010 ec2e c13f dfe1 a4d4 3561 c43f
00000790: e39c c878 0eba 953f 2083 7cb3 d103 afbf
000007a0: d492 0d0e 1e47 c0bf 9e61 fa3f be11 86bf
000007b0: 293a 794c 4b91 c3bf 5ef7 8f84 627f c2bf
000007c0: 76f4 e978 8d42 b6bf c2ab 38a4 3b13 c2bf
000007d0: e796 b0d2 9889 c2bf 2633 0d2d 192f cabf
000007e0: 9787 43be 921b dabe 306f 58c5 c737 b53e
000007f0: fc05 334b 720c f9be 56b5 028b 2fe2 fe3e
-1.4518852389641806e-06 -3.895894771475026e-06 -2.2015567337693574e-06 -3.5229194425178113e-06 1.30506866499648e-07 2.030332696873322e-06 0.0002075220153948733 -1.922707125561653e-05
-1.7419485423449613e-05 -2.0150209136460572e-05 0.0002155299504319276 0.00021829443776689262 0.00021665493974298296 0.00021562836684170414 -0.1158500406397976 -0.3546280201653893
-0.24038088556004938 -0.06893810628586 -0.29895857011193905 -0.17106764406549138 -0.07969468560223342 -0.1471535233241616 -0.30385780635991533 -0.1550380167282235
-0.2657033759017206 -0.12119622460144552 -0.32167965317038233 -0.039223422803687395 -0.18218304640675068 -0.10519949456592569 -0.05528760263529987 -0.022493668026517907
-0.07445568988728944 -0.09702549221033001 -0.13051618541386575 0.2501281473780903 -0.12586591297788283 -0.2154799327768666 -0.14537362754567787 -0.11817256151983382
-0.1861155279796859 -0.18112338438180192 -0.00012502742998504604 -0.0012464028291736449 -0.00391218023853569 -0.007684387805500196 -0.013274147692556658 -0.014091974154599857
0.004235987302158628 1.4274961213239496e-06 -6.360982685813495e-05 -9.037428531544808e-05 -6.397173477282216e-05 -7.837450262058501e-05 -0.00556603681860756 -0.015970633651388788
-2.8556003716448686e-06 -8.987259457025731e-06 -2.9475339557222622e-06 -2.3989679966896616e-06 -1.3783459144423883e-06 0.00035590220542126405 0.0003565592162971069 3.45691192808373e-06
-1.0502054643053009e-05 -1.0518703473601457e-05 1.0700579741330716e-05 0.0003671138859463957 0.0003308983087632259 0.00035670969020514404 -2.019597792768638e-06 -0.00011843794479557033
-9.798549175127381e-05 -7.786251469768352e-05 -9.747460599984977e-05 -0.00012375035372790347 -9.508183213598434e-05 -0.00012446374267527577 -7.313175647720656e-05 -9.505535722218448e-05
-9.77012801537263e-05 -0.00012702945307160784 -6.476268028708185e-05 -5.689962291580284e-05 0.007024694613553597 0.0057935449359185175 -0.00020854739871079163 -0.030753150753816967
0.0828269968031346 0.114802542994706 0.13505408991420043 2.5112723351274117e-06 0.14059524985446528 -0.04035994505268793 0.011328873240882019 0.05748354582685163
0.10527767014875963 0.14648032530909624 -0.04508147348524864 -0.08084169057346338 -0.3147219190138495 -0.11967999032706268 -0.052582836834273276 -0.2776391734922776
-0.26818251214517697 -0.1355502335802244 -0.1838785004287998 -0.08242979773204748 -0.24897071506610957 -0.04995971648797441 -0.33414856426202266 -0.20112892712362154
0.000203461460276365 0.00017584323835033352 -0.0001221562501860283 7.624057965582776e-05 -0.017474441453321127 -0.018997692047241232 -0.01887561640545985 -0.0006228191877010324
-0.012493082012669448 -0.012517782546725736 -0.01250890495113039 -0.012504963232487763 -0.012469427509364613 -0.010561606309338408 0.14507686743029652 0.29398680569824814
0.25803561960188187 -0.06508069598159034 0.20974715128853424 -0.0348729562645518 0.020957629732111054 -0.11119883193094204 0.0824985242531345 0.18039575930250207
-0.12200580323663388 0.2540851455386417 -0.08347984472409081 0.3820198521963149 0.14119789282598263 0.1913240654110352 0.23170719638888937 0.2859625413006724
-0.021515545680248573 -0.07780126288470732 0.38868172027736797 -0.2735178866468531 0.2630319350003919 0.09584727441817822 0.2763259528839828 0.14477069034152362
0.09626319668179563 0.5464532522726446 0.019697223770973753 0.05602818016648471 0.026996001805100443 -0.06387947889522456 0.22585419423398873 0.3365664394161753
0.3920044890585171 -0.18674792842226898 0.2639936799486199 0.23101095570788222 -0.017264630611990194 0.12371781371334081 0.49265548318789204 0.4949807852366018
-0.0029661386834542456 -0.0024318652141197957 -0.0022787066143750766 -0.0023262500314104612 -0.002214082377951344 -0.002791678553174753 -0.0025565028613590466 2.57957747130672e-05
-0.0013096678155377908 -0.0016478797360499713 -0.002387387080909274 -0.0006734844790725465 -0.0019373432649447686 -0.0006992067982910848 -0.001354906603285054 -0.025831303752291864
-0.0697201390089154 -0.07211119439208324 -0.06641311338943773 -0.06908202639507774 -0.050058676854885804 1.5766758778451506e-06 0.001294677827031437 0.018089543070752362
-0.052192080796182254 -0.03589762671525055 -0.02923317153395876 -0.03630697115821424 -1.3255700574552027e-06 3.771385192847286e-06 -0.009917205222023997 -0.009725673419871165
-0.0036387136372268555 -0.010005964502195281 -0.007037002596965779 -0.008730759797974287 -0.005098700885029268 -0.008229717997098929 -0.004609560608688322 -0.01114671111732741
-0.005084253569153857 -0.007025704795538364 0.2458831261107623 0.2616229510999246 0.0678897938828736 -0.034608913061257254 0.11390252838382199 0.1579670362730451
0.287793061443118 -0.3188453003959552 0.22110287835613787 0.007933218391175079 0.10574021000183954 0.17405669696776493 0.3576633526885026 0.3127697405091869
-0.09489379205577546 -0.11494517903886967 -0.09409023044693315 -0.3878212389909026 -0.4562346924253976 -0.1569796188438225 -0.15073480340249235 -0.02969119290409113
-0.41632654599274654 -0.4220413207725429 -0.08847039188057808 -0.3497691185430776 -0.40661287711445704 -0.031270992709549486 -0.0033271961013018334 0.07852391993654234
0.1342444497280051 0.15921662219058327 0.021217561838196352 -0.06057601276393698 -0.12717033086950968 -0.010776029899077607 -0.15287152513561011 -0.14451247666141404
-0.08695301248549633 -0.14121194380399343 -0.14482412612522141 -0.204562327382882 -6.224562614872123e-06 1.2646849162416863e-06 -2.3888224586659707e-05 2.945283694149222e-05

bias f8 [28]
00000000: e8a6 389d e609 2b3f e517 cc70 0543 b0bf
00000010: 1c08 635d 1233 c2bf f80f 29b0 0c35 c23f
00000020: d24f c0c3 3915 373f bd33 b368 9298 21bf
00000030: 97c2 c059 e5b6 c93f c71b c41f 707c d4bf
00000040: 7c4f 3c9d 9875 92bf 6d06 ba2e 6101 cb3f
00000050: 32c6 91e5 a357 db3f eaf9 8bdb f9c0 d83f
00000060: e80c 3112 2eaf 50bf 7f3f 4f86 0f0b a4bf
00000070: d713 94ba 2338 7bbf de68 be07 790b ce3f
00000080: 0bc7 a1d1 4263 debf 8a1d e157 8f37 cdbf
00000090: 3f64 3c16 58f5 f6be b2c7 73d7 82fd 66bf
000000a0: a198 5bb6 ede4 acbf 8516 f174 3c54 c6bf
000000b0: 03a2 84d0 1270 b5bf 9543 69df a51a b33f
000000c0: 846b b4ed af08 8dbf 12f1 251a 7cd8 6ebf
000000d0: 3cd8 e43e 13ab 9bbf 56e2 2db9 de2e c23f
0.00020628872026522767 -0.06352266315306528 -0.1421835857382242 0.1422439441831782 0.0003522172953591671 -0.0001342467042832178 0.2008940399405403 -0.3200950918402978
-0.01802671870889537 0.21097960263800833 0.4272241346253366 0.3867783206950707 -0.0010183286583618726 -0.03914688601037052 -0.00664533573695266 0.23472512128939277
-0.47480841132993196 -0.22825805464729526 -2.1894812916565606e-05 -0.002806430387516345 -0.05643408633277259 -0.17444568357511883 -0.08374135580800872 0.07462536529898352
-0.014176725808786157 -0.003765337359423645 -0.027019787515392787 0.14205535928683116

weight f8 [28, 28]
00000000: b638 91a2 2e45 08bf ae8c d9a5 1b29 b23f
00000010: e8a0 b4b4 6c1b 7d3f 156b 4bc2 67cd a53f
00000020: 96be 6ea5 64db 05bf 7d36 97ef f39f 003f
00000030: b7f1 091f 01a1 bf3f a5ce 0bb3 4f8a c13f
00000040: 9c4e 809b 9655 19bf 7870 07ec e023 c53f
00000050: 2f91 ae5d 2e3f d93f 1fce acaf 4e0f d73f
00000060: d33f 98de 031c a73f 5886 6840 7ffc af3f
00000070: 7a75 e49c 9b7e d83e 820e 4aba a7e0 d23f
00000080: 11b4 922a 6048 b63f bb5d e32e 1bd6 a53f
00000090: 5a6d a660 6eab 05bf cacf d178 e65a acbf
000000a0: 3ae9 c651 4c10 dc3f 9f89 68de c9c5 d53f
000000b0: a3a9 e9d7 fe07 b73f cf4a e20f 5af2 c73f
000000c0: 2793 3f0f ca0b a53f 9e3f 7573 2758 5ebf
000000d0: 5ded 05e0 2d75 c1bf 9346 f1f6 3e4b c23f
000000e0: aabb ae69 1146 ac3e 142b 2de3 c584 d7be
000000f0: d527 8d15 1d89 ee3e 6391 a46b 4536 b7be
00000100: 68fb 2ad6 51d6 d7be b021 8acf 550a bcbe
00000110: c2c6 3047 b8dd b3be 0e6d 4fb4 74e1 d6be
00000120: 8fb0 8edc 9b8f c23e a211 d974 ad8b a2bf
00000130: d303 65d0 df47 acbf cc56 9489 b573 b5bf
00000140: 4e06 eafc 2e89 c0be 860d 4c83 f8cc d63e
00000150: 10d7 62f6 b8ff a73e ca06 5cc4 a302 aebf
00000160: e603 23b1 869f d3be 5033 c2b7 c9f3 ca3e
00000170: bd67 41c4 429e d8be a4a7 1ce9 b58e fd3e
00000180: daff 6dee f2e2 b33e 5da6 5129 8f3b b4be
00000190: 3f33 a38e 5a00 cdbe 04ea 768e 2f08 a8bf
000001a0: e842 3813 fb2f cd3e 7885 d596 f195 af3e
000001b0: b591 d3db 00cd cbbe e39c fadf 5f26 b7bf
000001c0: 586d 960a 0383 d5be 6a0e 4df5 f1c4 babe
000001d0: 61dc d18c 4967 c33e 0a9b 505d effa bb3e
000001e0: 8cfd 498f cfd4 b0be 9541 6f95 8978 c83e
000001f0: f19a 2c5c 669f d73e 1e8b 583d 3562 dc3e
00000200: 64c1 47f7 5eb1 d33e aa08 0522 8ae6 f9be
00000210: 3481 a455 2e42 e33e ff83 48b2 556e 243f
00000220: 8be1 ec81 257f bc3e 3760 364f 3396 d03e
00000230: 917d c6dd 3643 db3e 7114 e9e3 9808 01bf
00000240: fedf b329 db74 a6be 88c5 485c 372c bf3e
00000250: a416 63b2 4265 a5be 813a 1125 d3ff c53e
00000260: 78ef 5c44 eb01 d1be 5c39 35d1 1b24 ac3e
00000270: 7a2a 1044 551a b7be 20a1 5102 d1f9 223f
00000280: 64f5 b980 5e5e b4be bce8 0b4e c6ee d43e
00000290: 150a 81e6 84ce ca3e 09cd 1849 7280 1abf
000002a0: a9be 8161 d773 fa3e 38b8 ed08 5f97 81be
000002b0: 7bad 7970 5e68 7fbf f772 01d4 d16b 65bf
000002c0: c29e a089 6235 b4be 478d 5f8a 3963 babe
000002d0: 9fc5 f343 663c 83bf 7af2 cdf2 040c babe
000002e0: a5d4 2b53 84be 3e3f 6f29 441e 3305 923f
000002f0: 869f 538f 9428 a33f d124 a5c3 0793 8c3f
00000300: 7e10 6d69 1046 95bf 57be 1313 d700 62bf
00000310: dc4b f7bc 3e36 cfbe 9e8c f5ae 3adc 853f
00000320: 2203 5074 b571 d1be 6aba 08b1 ac2e 99bf
00000330: fd12 dcb5 aa66 f23e 3589 5f1f eb0b f03e
00000340: 20ba 82dc 280f d73e 68ad 9c2b 41ef ba3e
00000350: 4a2f f391 f012 bebe 0b94 098e 7d15 5bbf
00000360: cbe2 a118 ddfe a0bf aab7 8249 b9f3 f73e
00000370: ff2d e24d 0521 4f3f fef1 77ee 9af0 a53f
00000380: 86fa b1f4 7604 b43e d921 8dda 7fef a9bf
00000390: 98ce bbb9 7641 ae3e 9eb0 3228 9847 b33e
000003a0: ba93 aa54 6009 b5be 00d4 171e 483b 693e
000003b0: 1053 aa9a 8d1b 853e c8da 9eec 70fa a8bf
000003c0: 9801 7ec9 1968 9dbe 5cf2 4835 bec5 b8bf
000003d0: 3c44 92aa 66f6 c1bf d4e8 15da 0ec2 d2bf
000003e0: 6378 e8bc 92c7 ab3e e666 161a ad02 d73e
000003f0: 4141 c3e8 e115 d43e c68c e8ce bdeb c4bf
00000400: 552e b91a dc58 a5bf 80a9 8d0f 5c5f 7fbe
00000410: 5cab 6691 a98b c93e 434d 240a 00d6 b63e
00000420: 17fc b3e8 4a9d d6bf 91f1 f2f0 d696 b9bf
00000430: e4ed 01b8 86a0 bbbf ad6f 9a25 5341 ccbf
00000440: 53f8 af5c cb81 b3be afbe b3c2 1104 c23e
00000450: 02b2 83a6 1c10 a9be 8d7d 4c72 edda c7bf
00000460: e6b2 5aa7 f58b bdbe 6d7e f09d 71ab c23e
00000470: a6c6 cf5f d96e d33e dc32 9738 2532 d53e
00000480: a286 0790 cb0d b83e 4e58 fce4 45dc a7be
00000490: d17e 7368 c1d4 c4be 6247 f4c8 7e41 a23e
000004a0: d427 6898 f343 a0be ac98 48a2 143a b0bf
000004b0: e950 ffae f0fa babf 2ae0 733f b33e bbbf
000004c0: 70b3 05bf 0c2a d1be 2257 d5cb 96e9 bfbe
000004d0: 5de3 45f7 71fe edbe 8bac 075e b58b b6bf
000004e0: 66b9 d7cc 80ba c73e 7ab2 b69e b66d c03e
000004f0: 3449 1c00 fb12 d33e 7e45 6f61 ae78 b4be
00000500: f57c 4e7c 161e babe fc87 ac89 61d2 c1be
00000510: 2eab a678 3a22 be3e ca73 9a50 a15f b9bf
00000520: 56d7 7c27 7c0f ac3e acd5 9ab7 08c8 d2be
00000530: 6c44 a660 e4a0 ab3e b99d 1bee 288d c2bf
00000540: 2a06 2939 321b 083f 0f2d f68b c317 af3f
00000550: 623c 1213 6453 97bf 8543 5112 411b a33f
00000560: bb0e 924e 5ac0 033f c13c d2a8 1847 0e3f
00000570: 8a0c 786e 21ce c23f 04aa 2678 26bd c13f
00000580: 7845 c39d 1fd5 66bf ea31 5f31 2b33 c33f
00000590: 0f33 a8dc 7940 c93f 76c6 546a d4dd dc3f
000005a0: 5128 57d6 3076 a23f a7c4 68ba 3099 b53f
000005b0: 8697 86c9 08e5 25bf 3c41 3e24 0b6b c93f
000005c0: 32d4 fd7b d4ab bf3f 3cc7 659d 32f0 bc3f
000005d0: f7fc 83d7 8744 e83e 0e90 dbea 23e4 b7bf
000005e0: 48ad 975f 3ecc d03f a243 1de9 e068 bc3f
000005f0: 9c03 7400 fb38 b23f 65c6 f074 d477 ba3f
00000600: 5ae0 57f7 9e65 af3f 0d42 b986 0871 62bf
00000610: e79b b76c a8a9 d3bf fcb9 a202 2b54 c83f
00000620: 861f d79b 0b6a c73e 0b9e 50da 678b d6be
00000630: 9770 4f64 eac9 b43e aa1d fc35 799b d8be
00000640: 417d aa8a 6845 b4be a779 5612 0733 ddbe
00000650: ec2d 2b64 d7ca b8be 990c 74a8 51f7 ccbe
00000660: d2b9 b9bc 6196 bebe 317d 3177 7bde 7fbf
00000670: edf7 3310 1d92 a9bf 5cc9 0ac7 916d adbf
00000680: 4296 c043 9b41 b1be 98a2 b4b9 0766 d2be
00000690: daf0 86d3 678a d03e 0325 1ff6 edb4 aabf
000006a0: ea33 2bbd d35d c13e f789 11c7 6d0f c03e
000006b0: 6c88 5c69 8b12 a33e 1161 f512 9527 d2be
000006c0: 545d 7690 1bb6 f3be 709f 049d d683 bdbe
000006d0: 8071 344c 2506 c6be c982 dff8 d91b 97bf
000006e0: d2bb 1fc3 de34 b9be 7b0c e657 1f56 b63e
000006f0: 6541 4ee9 9bdb b5be 895a b29a 5d31 b3bf
00000700: d8c8 6bdd 5964 ae3e 835f b67f 6689 c1bf
00000710: 80cb 0f10 6537 b7be 0c6c 0095 8bf2 c13e
00000720: 4424 eb49 9f3f b7be f874 ab6a 8db3 d7be
00000730: ca2f 2cdf 78cd cd3e 87ae fd70 546e b1bf
00000740: b45f d712 9864 d13e 21ed 621c 6cf1 bfbf
00000750: 599d 0d35 7e21 d6bf 5f7f a459 0321 d4bf
00000760: ace8 c7e7 df86 d83e 51cf 1e05 0d05 b9be
00000770: f21e 1646 8840 afbe fc2d 8ce3 8d04 c7bf
00000780: 773c e610 6dfc cebf 9675 7749 d370 d4be
00000790: e4ad c9fe e8d4 a13e 8a38 f734 a493 d03e
000007a0: af94 669f a581 cabf 11cb 04c9 52cc d4bf
000007b0: 9928 1c4f 4901 cabf c783 3042 99ce cabf
000007c0: b99b 791e a072 d7be cb1a 1c27 d5f3 bebe
000007d0: a9ec 1127 1182 bc3e 67fb a4c3 735f c1bf
000007e0: ac76 9d8b 6090 04bf 6ae0 587e db9f a6be
000007f0: 4a5f 7b17 efa7 babf 0ce7 c6fd 221c 00bf
-4.629181450664778e-05 0.07093975829188778 0.0071062322925074875 0.042582743136980884 -4.168892763034314e-05 3.170931990901808e-05 0.12355048187050142 0.13703342668997212
-9.664279684811833e-05 0.16515742802483024 0.3944812693464596 0.360309287603032 0.04513561336727858 0.0624732748149312 5.839958659129501e-06 0.29496186439812544
0.08704186477071142 0.04264912555089092 -4.133158298033164e-05 -0.05538101410721159 0.4384947584727744 0.3401970550495665 0.08996575137431377 0.18708349013885203
0.04110557018410637 -0.0018520722640751118 -0.13638852537756466 0.14292132432688173 8.426220178182416e-07 -5.607281809381541e-06 1.456050874683652e-05 -1.383542822149918e-06
-5.683228070095917e-06 -1.6713364045258193e-06 -1.184111422924633e-06 -5.4551808874273575e-06 2.2126402865110718e-06 -0.03622190524450565 -0.05523585718993442 -0.0837968312156036
-1.9712296997494058e-06 5.436102630043839e-06 7.15223433165047e-07 -0.05861388942686359 -4.678523298718719e-06 3.2129641436895573e-06 -5.869437760786257e-06 2.8188193545698425e-05
1.1853289209884296e-06 -1.2059601080201246e-06 -3.457234119519375e-06 -0.046937452450453804 3.479412180381096e-06 9.413277390174596e-07 -3.3141129437299957e-06 -0.09042929857479325
-5.1288044828027914e-06 -1.5955756300236643e-06 2.3130734008686386e-06 1.6677507706037378e-06 -1.0032231873290167e-06 2.91715256704062e-06 5.632079992412844e-06 6.767183511810128e-06
4.695142582708835e-06 -2.4700684776897984e-05 9.183177713867863e-06 0.00015587612246384383 1.6985336583463937e-06 3.954582314412471e-06 6.499899850714335e-06 -3.248898109523772e-05
-6.692549336098292e-07 1.8580388864260445e-06 -6.376370478503621e-07 2.622522778973028e-06 -4.054903063817918e-06 8.386686282476079e-07 -1.3770379754275131e-06 0.0001447742116937956
-1.2140649258412872e-06 4.990747783701295e-06 3.1956094979368294e-06 -0.00010109612983271258 2.5227074815280474e-05 -1.3106535276134688e-07 -0.007667893317925385 -0.0026148889738081232
-1.2045225390530677e-06 -1.5728233306804266e-06 -0.00939254660485994 -1.5525192324776112e-06 0.0004691193636710645 0.01759796020727705 0.0374189782103818 0.013952313097109233
-0.020775085863775626 -0.0021976662325114238 -3.7207478056160516e-06 0.010673960174875593 -4.1590154227229136e-06 -0.024592111878684632 1.7548601468869534e-05 1.5303188739220978e-05
5.4977458107523e-06 1.6054265600900698e-06 -1.7925490920942633e-06 -0.001653072940962066 -0.03319445539177009 2.284245110278192e-05 0.0009499812984058996 0.0428512970065391
1.1931324077893242e-06 -0.05065536063063165 9.016906576662029e-07 1.149157612438527e-06 -1.2538806283626394e-06 4.699745993409261e-08 1.572640944870551e-07 -0.04878571403917459
-4.38193134659503e-07 -0.09676731873418859 -0.1403320629947603 -0.29309436128063493 8.278960821927352e-07 5.486119705544576e-06 4.788751209086889e-06 -0.16344425776433108
-0.04169357134068422 -1.1687166424709075e-07 3.0452676000511206e-06 1.3611279788314474e-06 -0.35335037922772145 -0.09995787985366734 -0.10791818611499299 -0.22074355445954322
-1.162708360479964e-06 2.147662163324983e-06 -7.469337335564939e-07 -0.18636863785739557 -1.7611215787180337e-06 2.225601960073427e-06 4.63318928910361e-06 5.053491699280525e-06
1.433723412096548e-06 -7.110965700464832e-07 -2.483257791049836e-06 5.440664540298709e-07 -4.847477591007591e-07 -0.0633862396431108 -0.10539154312511169 -0.10642547892700863
-4.092277763195813e-06 -1.902130676375296e-06 -1.4302218666927062e-05 -0.08806928201345181 2.8286609452455928e-06 1.9584378969288767e-06 4.547629943523532e-06 -1.2201911709818138e-06
-1.556726133978949e-06 -2.124524212902301e-06 1.796108764477287e-06 -0.09911545007567138 8.36267715498559e-07 -4.47783065176314e-06 8.233930100400527e-07 -0.1449328577648268
4.597899455350788e-05 0.06072817882076197 -0.022779048599258174 0.03731730793572922 3.76727637752239e-05 5.7750167891440416e-05 0.1469156064414146 0.13858490816831204
-0.002787172079572183 0.14999904547438742 0.19728015207547187 0.45103941329862296 0.036057974018675616 0.08436874915129754 -0.0001670430399489076 0.19857920903860726
0.12371566798340508 0.11304012625421661 1.1571740046621775e-05 -0.09332489475087888 0.26246604285434616 0.11097531977908529 0.07118195305885283 0.10339095931046811
0.061322181409139545 -0.0022511641052818166 -0.30723009697834275 0.19006860378927104 2.791194872318135e-06 -5.375040392364547e-06 1.2391050330162718e-06 -5.8668418601091e-06
-1.2082532900094155e-06 -6.9616619716980746e-06 -1.47773916185894e-06 -3.4530269804613825e-06 -1.8231528312835069e-06 -0.007780535018439936 -0.04994288275518941 -0.05747657351220667
-1.0285541654024142e-06 -4.38655743132594e-06 3.943597498720132e-06 -0.05216163281836297 2.070249572971938e-06 1.9145332364339497e-06 5.684029982004131e-07 -4.32839833249705e-06
-1.8798215959484513e-05 -1.7592307025113663e-06 -2.62546618191704e-06 -0.022567182364471337 -1.502425913898121e-06 1.3313541270272393e-06 -1.302829251790475e-06 -0.07497200991415744
9.057520696505488e-07 -0.1370056270213774 -1.3838044312624437e-06 2.1395018521392378e-06 -1.3857200326531047e-06 -5.650848531072278e-06 3.5527498253358957e-06 -0.06808974989479043
4.146801342717823e-06 -0.1247775620749292 -0.345794250306843 -0.314514958898135 5.8476576865145666e-06 -1.4912921142252987e-06 -9.313845447536723e-07 -0.17982648478242413
-0.24207843136943882 -4.8734483679401985e-06 5.314254827976044e-07 3.952199065305798e-06 -0.20708151133763894 -0.3249709094117615 -0.20316425669472407 -0.20942989093694406
-5.5903806025274944e-06 -1.8449110509869507e-06 1.699213637600456e-06 -0.13572547009422495 -3.922266610232919e-05 -6.742609428072908e-07 -0.10412496875085 -3.0727212763049806e-05

bias f8 [28]
00000000: 4bf1 8efa 7e49 d93f 5cfe 2b94 a023 73bf
00000010: 5e85 404d fb74 093f dff7 1ddf 63e7 513f
00000020: a1a2 4d84 dc9f c3bf 45f6 8ebe 01d4 a9bf
00000030: 29d9 6c2d dd97 e13f 7353 cf41 e77a 88bf
00000040: 6843 2324 dd2b c3bf 23a7 7b0d 7133 a5bf
00000050: 5e66 2f6d bbb5 c1bf 90f7 cca8 4a13 c8bf
00000060: 1155 6e8c 8c51 c03f 23a7 3a39 26fb d6bf
00000070: 3b2d c892 db40 acbf f016 1ac4 ecf7 00bf
00000080: ec7c 0891 b1ce cd3f 41c2 7fc4 3c86 b4bf
00000090: 02f2 854c 14ed 5ebf 9e36 f9fb fed1 df3f
000000a0: c841 fb8c 0327 d2bf e305 44e8 4360 d6bf
000000b0: c535 47a8 c391 e33f 40ec 3d52 567a bfbf
000000c0: 2ea5 08f1 8497 c23f ae85 4e19 edff cfbf
000000d0: a21e fae6 b729 1ebf e79a ba7a 5071 d0bf
0.3951108404978824 -0.004672648678706173 4.8555297013539873e-05 0.0010927653606524962 -0.15331608257408383 -0.05044560862687012 0.5497880828104701 -0.011953169532640228
-0.14977611794031565 -0.04140809335315356 -0.13835852462107118 -0.1880887340757309 0.1274886785219356 -0.35907893742352054 -0.05518232504626971 -3.236476233063428e-05
0.2328702886743267 -0.08017329976406364 -0.0018875787955884298 0.4971921406439409 -0.28363121764871524 -0.34962556535910333 0.6115434920008559 -0.12296046741350697
0.14524900216319153 -0.24999774680786174 -0.00011506257009774115 -0.2569161604427976

weight f8 [28, 28]
00000000: c891 24af 8552 d0bf 9edf fea1 a01e bc3e
00000010: 585d 1d34 3104 b3be 0dc7 9a1f 4b20 a6be
00000020: e4f6 471a 5654 b03e a889 add6 cc58 d5be
00000030: 84a4 a55d cb4a cbbf f84e e014 bb2b 96bf
00000040: bc8e 0596 d76e af3e 48d6 1429 8846 babe
00000050: f84f c662 2ba1 bb3e 018d 589a 2124 cb3e
00000060: 872a 8e80 bc4b c5bf 2f64 40cc 9719 c0be
00000070: 68e8 e2ad 9bd9 cdbe eaa9 0c83 86e6 c73e
00000080: 2353 d67a 6b05 c8bf d2dd 2282 13dd 84bf
00000090: 17ba 8e4d df7e cdbe 7420 0e77 b348 cfbf
000000a0: fda2 6a12 d1d7 b3be 7cb5 f907 0648 c3be
000000b0: 5d83 9fca 6138 cbbf 3c42 6df9 b497 d4be
000000c0: 1569 1b3e 0894 18bf d73b da9d b6e0 c3be
000000d0: e0b1 32c9 6996 9f3e 6e69 ce8f 2f01 bcbe
000000e0: 3a62 279f 47ab d7bf 810c 1695 d933 bc3e
000000f0: f4f8 67ce ac47 ce3e 9cf4 1737 be38 b3be
00000100: e36c 4cfa a064 bebf fd6a 0f13 f43e c4be
00000110: c5d9 f609 53a5 d0bf 6099 749e 3ade c2be
00000120: f4c1 9640 1947 cfbf a2d4 31f5 210f c3be
00000130: 70cf 480a 3c6c b03e a247 b662 721b c3bf
00000140: 3d2b 74f4 b5c9 d8bf 9b71 b21c f3c1 b1bf
00000150: 80a8 b1c9 508f 593e bdee 6185 94ed c63e
00000160: fd49 2baa db7c b5bf 4407 672e efa0 bb3e
00000170: d0a7 5eb7 c1cb afbe ebf3 c2d5 5081 a9bf
00000180: 4aa3 8880 21e8 b8bf 6742 3835 8c55 c1bf
00000190: d674 b2d7 ec86 d9bf 2838 9173 3149 d8bf
000001a0: acc5 9394 518a d2be 68ec afa2 863d d7bf
000001b0: 962c 7b36 8d61 d6be fb8c ad57 2c12 71bf
000001c0: 6b98 6746 8a41 a23f 65bc 3c05 f5e1 94bf
000001d0: 6c67 7a23 44e0 f43e b8cc b9ea 940d 8fbf
000001e0: b0e9 9434 be56 08bf c680 3a23 a82d cb3e
000001f0: 4ac1 1b62 f204 d03f a988 ee39 6d15 9b3f
00000200: a033 1f53 a9ee 21bf 19ed e8d2 4124 52bf
00000210: f582 825d 0464 96bf 6af4 cd65 53ec 6e3f
00000220: d0a8 50fb d9d6 c63f 641f 5880 3795 e3be
00000230: ed4e 28eb c71b ad3f 271e d2aa 75e6 68bf
00000240: 4df3 3d11 37e0 b03f c271 3ee8 a967 723f
00000250: 0aba c6bb 78c8 a53f 6d03 44d7 08a5 bf3f
00000260: 4fb7 e3bb 6ddf 2fbf fb19 e762 2ad5 173f
00000270: 508b 80d0 3fc4 d53f 8e1c 6261 5b1d 0e3f
00000280: 2a47 d425 7eb2 c83f c60b ca48 f9b1 093f
00000290: 7838 6ef3 b43a 37bf aae4 4df8 c428 e2be
000002a0: 7cc6 7ff1 de1c e03f 2fd9 2607 e005 a6bf
000002b0: e9f4 2774 0dc0 f9be c3cc 067c b25b 8a3f
000002c0: 4b42 87c6 d8da b63f 30a3 b2be fdd9 f63e
000002d0: a8d9 c608 1bf2 d33f b65a 1226 604b a43f
000002e0: 8bfe e316 fdbd c03f c704 a49c ad90 b53f
000002f0: 2f1e 99be ebbd a53f 6f71 1e77 9c10 d53f
00000300: 2c9f f6e5 9b1a d73f b752 b240 1bb5 8f3f
00000310: ac68 6c83 51a6 b83f 3a1f 808b 1f05 6fbf
00000320: 1e56 f35e adc6 c63f 5ce2 ff42 c4cb 9e3f
00000330: 25fb de72 b7d7 b73f 17b5 473f e48e dc3f
00000340: 9d34 705e 720a c83f feac 77d5 99bb af3f
00000350: 8b10 b5f4 4f3b d73f 2daf e462 37f7 cb3f
00000360: fe22 999d e885 c63f 1498 ea73 58aa c33f
00000370: 6495 4c2e c2d2 36bf 999c c2d0 dd7d eebe
00000380: aa0a 2a52 59be 76bf 8723 b4cf 3aac fcbe
00000390: d49b 76f5 d3fd cabe 184c 9bed 38af 88be
000003a0: 3747 ec1c b0bc babe 18bf 71ec 0842 b03e
000003b0: 11b8 a70c a90f 88bf 6c9b 0a1b 2003 a63e
000003c0: bc5f 5794 9133 ad3e 1e4e 4fd3 97a8 b13e
000003d0: 4803 8530 e289 dcbe bef6 ad85 6393 bc3e
000003e0: cc00 480c b9a4 8cbf 33cd fdf6 4919 b0be
000003f0: 6a36 b73c 5d2d c9be 387b 4672 e492 8cbe
00000400: f436 bb70 0094 66bf 78bd 2868 e7d0 cd3e
00000410: 28d3 b99e 8b89 bdbe c742 aeeb 3585 76bf
00000420: ff9e e38c 798d d5be bab4 ca36 1f68 bf3e
00000430: 1b16 54b2 cd5d 8fbf 9152 b19c 0f19 b93e
00000440: 706c 173e a94f d8be 9950 d247 6671 b83e
00000450: 8842 f515 0eba aabe 1a45 a824 6dad d2be
00000460: ed49 ffc5 ddc5 cdbf 348d 55e2 44b9 86bf
00000470: 0e78 a203 7374 bd3e 5023 b6ac ac52 d6bf
00000480: b2e1 ac18 cc13 de3e d209 1bdd 1186 d8be
00000490: 0fa8 53b6 8cf9 ad3f 991b 90af ea62 a73f
000004a0: de1d 6a5a e61f 2a3f 107d 6a33 e800 d5bf
000004b0: 9cb2 9f1d d8a3 e1bf 3330 624a 9126 76bf
000004c0: fe83 c36e 20ea b93f 5ae6 e4d2 5ee2 c7be
000004d0: ad6d 8f77 6e8d c9bf bf06 620e fa1c 093f
000004e0: 7581 b2dd 483d 6a3f 27a0 040f 7d73 963f
000004f0: 6bc9 e830 dbe7 d5bf 471a ee58 445e 82bf
00000500: 7bc1 2d12 a395 223f 17dd cb34 179f 0bbf
00000510: f9be 5c33 cafd bfbf 73b1 7c53 cb7c 15bf
00000520: 2565 7027 8df8 b9bf d4a9 d0ba e5ab 15bf
00000530: 0807 39c9 f9c2 f1be 2503 6edb dd2a ed3e
00000540: 0ce4 04a4 e5ee a2bf 4fcd 2e1e 1df4 ec3e
00000550: fa4a e8c8 b415 cc3e 6448 b3ad cdf1 a1be
00000560: ad93 d379 f8fc bdbe 0c9c 963f d7df bcbe
00000570: ba67 23b9 31e3 a9bf 5443 85a2 b3cd d2be
00000580: 443f 9a33 5553 c13e 5839 756e 6ddd c0be
00000590: cbfc 4957 f786 ba3e 48ab 5ae5 7a7b d1be
000005a0: f9e9 0af2 99a3 acbf 59b9 4cd9 c47a b6be
000005b0: 7268 5af3 c95a b7be b2ca bfdb b20e dcbe
000005c0: 10b2 aff5 6e39 9bbf 9326 77d8 6baa cbbe
000005d0: 5e31 78be f95b d2be d71d 9372 1ea4 9fbf
000005e0: 3039 820a 08be a03e 345c b577 d829 ac3e
000005f0: 81a5 6c66 3576 b4bf d06e 360c d84c d8be
00000600: ac82 0c39 0333 203f 48ca 0ff2 b432 92be
00000610: f69c 782f 0f22 c7be 4dc7 8fd7 5fdc d33e
00000620: e4cd b797 15e4 c6bf ceba 989d 2c59 d9be
00000630: 7e48 8bd9 9881 d2be 26b1 5a8b 1a41 cfbe
00000640: 7f5d 6a4e 9322 a9bf 4698 8fa7 f93d c13e
00000650: dccf 8e69 fb9f b4bf c421 b95d b732 dc3e
00000660: cc5c 259e f53a c4bf 346c 68d4 cd66 a3be
00000670: f62a e542 e596 b6be 212c c36c 6a27 ccbf
00000680: 2a6e 587e a0fb aabf 8c32 1c76 0c5d 29bf
00000690: 25a2 004d 4a4f d1be 5823 8b56 1a8b bfbe
000006a0: 58a8 5575 2f5a 64bf a2c4 a0d1 5bb4 db3e
000006b0: 180d 18f8 2063 cb3e 780f e407 8732 f13e
000006c0: 21e6 6825 6c59 babf ce79 63ef 3de4 acbf
000006d0: 5e0f 733e 3a2c b1bf 403a 2b0b fd76 babf
000006e0: 94bb f33c 2b23 b8be d85b 1f23 3a55 acbf
000006f0: b293 ef3a 40c6 bdbe 639f 1560 9868 f8be
00000700: 3ea0 5792 052c b8bf 237d 9bd9 5431 f2be
00000710: 58d9 31cb 30a8 a23e d673 a877 bf0a b53e
00000720: 57f3 1fa7 3f8b d0be 7ef8 29bf ec49 e03e
00000730: 1078 7fbf 2b0f bfbf 255f e30c 6de7 d63e
00000740: 8517 9d45 d23d b63e 406f b13a 0f5f 86be
00000750: eec6 5cb6 76a2 bbbe 165e 341c 36d8 b43e
00000760: 7e5e c0d4 d544 bdbf 3e50 e29e b0f1 bc3e
00000770: 4ceb 174a 8270 adbe 1609 461a 8046 bcbe
00000780: 6f80 9386 9c16 b6bf ba47 b646 d562 c2be
00000790: ea10 8002 b2b6 be3e fdea d68b e382 bbbf
000007a0: a4b8 3792 6952 b63e 217c f04a 03b8 cf3e
000007b0: 1eb9 6d86 5087 c0bf 24d1 19f2 d2bc be3e
000007c0: c378 3aec 7d59 7ebf 9055 2e02 a449 97be
000007d0: 571c 9e0e 7eaf b43e d703 463b 51b5 d23e
000007e0: d6c0 6983 517e d1bf fb04 5908 dd3c c5be
000007f0: aec8 bc5a 9aa7 d23e f6e0 0204 0686 a9be
-0.25503675559801 1.67606106769682e-06 -1.1334643236960515e-06 -6.594105450201222e-07 9.7331040038679e-07 -5.089491746131809e-06 -0.21322004387483073 -0.021651194714720184
9.367757165920473e-07 -1.566142746445801e-06 1.6468506017540737e-06 3.2354757475580808e-06 -0.166373789569054 -1.9192662836895286e-06 -3.5584010752128758e-06 2.849160431491297e-06
-0.18766540048513844 -0.010187294396344724 -3.5161489048897963e-06 -0.24440615952721922 -1.1827369889394017e-06 -2.2985150847562287e-06 -0.21265814202981917 -4.909659671551366e-06
-9.375858601449003e-05 -2.369616807502521e-06 4.7069119908196436e-07 -1.6692061415081704e-06 -0.36982908766143263 1.6810023065478969e-06 3.6096549707035484e-06 -1.1456997665020772e-06
-0.11872297392658342 -2.413500759674223e-06 -0.2600905988032561 -2.2492506449755845e-06 -0.2443572583556627 -2.2720231896375564e-06 9.78874632140557e-07 -0.149275110434755
-0.3873114478343956 -0.0693656868992946 2.3804443399443173e-08 2.73323625338086e-06 -0.08393643288153636 1.646795846008525e-06 -9.475923963182497e-07 -0.049814725965440086
-0.09729203594237137 -0.13542320822354556 -0.3988601786057421 -0.379467356547027 -4.420353726817936e-06 -0.3631302441351125 -5.336060759207571e-06 -0.004167721951350285
0.035656281561203006 -0.02039320797410617 1.9908942901914804e-05 -0.015162623799574212 -4.6422652824468376e-05 3.2399114163334803e-06 0.2503019292917271 0.02644892374122124
-0.00013681237174836564 -0.0011072771846006356 -0.02186590977419463 0.0037747982846086285 0.17843174716228427 -9.337843958525951e-06 0.056852576690429625 -0.0030395792187538797
0.06592125101992714 0.004493392658244168 0.04254510204497215 0.1236119771529169 -0.00024316992307354477 9.091445165330246e-05 0.34010310517821996 5.743918534145089e-05
0.19294716689233243 4.9009723714930504e-05 -0.00035445134874912505 -8.659007798549691e-06 0.5035242764262899 -0.04301357352544454 -2.455730942506766e-05 0.01287021103858022
0.08927683684238123 2.1792915430171578e-05 0.3116519532881292 0.039637570044921785 0.1307979928751489 0.08423886369930066 0.04246460630070847 0.3291388667364776
0.3609990831123351 0.015482151901133319 0.09628781756001342 -0.003786622630290196 0.17793814789062962 0.030074183072402824 0.09313532404392484 0.4462214105577273
0.18781880961652045 0.06197815638355485 0.3629951371879165 0.21848194435858073 0.1759615678331769 0.1536360326765026 -0.0003482555460315366 -1.4539559309702156e-05
-0.005552624616600591 -2.7344486608380243e-05 -3.217639384895074e-06 -1.839135766375532e-07 -1.5936530989895973e-06 9.69049254863997e-07 -0.011748619745926477 6.560149384452424e-07
8.702707325293072e-07 1.0525325937386246e-06 -6.804134280281194e-06 1.7032466732286843e-06 -0.013986058890623453 -9.595623531005953e-07 -3.0013565941237207e-06 -2.1289138730798637e-07
-0.002756119594642276 3.5543478713800956e-06 -1.7605594803380535e-06 -0.005498133304073511 -5.138548841744421e-06 1.8719867639725158e-06 -0.015315634731915264 1.4959510845808172e-06
-5.796236082623784e-06 1.456914360963219e-06 -7.965200374081264e-07 -4.453050289858203e-06 -0.2326009003432569 -0.011095560223742675 1.7556476579537317e-06 -0.34879605165820227
7.170995000298587e-06 -5.846908111175517e-06 0.05854453778904666 0.04567654984571518 0.0001993149464463014 -0.32818036099520587 -0.5512505129423348 -0.005407874623539799
0.10122873977844901 -2.8472255940964422e-06 -0.19962864721206355 4.7899609669788724e-05 0.003203050915161205 0.021924928704862758 -0.34227638031293023 -0.008968862499171183
0.0001417886315624553 -5.2683730791198094e-05 -0.12496627572977194 -8.196822170409238e-05 -0.10144884312503118 -8.267011317345609e-05 -1.6938804561889557e-05 1.3908122907359242e-05
-0.036978889724601144 1.3806137706718012e-05 3.34796784008087e-06 -5.347891049118007e-07 -1.7874340081877168e-06 -1.7210470545177209e-06 -0.0505614794253257 -4.483109059386814e-06
2.065362789967138e-06 -2.0104588320031258e-06 1.5811450257139852e-06 -4.168115614137606e-06 -0.05593567924139004 -1.3398865565495412e-06 -1.3920452607619758e-06 -6.689409413939794e-06
-0.026586278672697417 -3.298009406658994e-06 -4.377193341575538e-06 -0.030899501555522093 4.989597259962244e-07 8.393364931230674e-07 -0.07992872000308716 -5.7936123910824956e-06
0.00012359060613055994 -2.7117242679047166e-07 -2.7576737655802577e-06 4.735192640646841e-06 -0.17883558185677295 -6.043514497329744e-06 -4.412231100219442e-06 -3.725804243645325e-06
-0.049091914484217895 2.055417379842462e-06 -0.08056613280388042 6.722953425582595e-06 -0.1580492994496353 -5.782120887117178e-07 -1.3464352935528253e-06 -0.2199528723780029
-0.05270101110746979 -0.00019350792995744372 -4.126960632823883e-06 -1.8801314018315482e-06 -0.002484409992281871 6.605273734237477e-06 3.2648112557890115e-06 1.6400692850928694e-05
-0.10292697823833709 -0.05642884776328892 -0.06708110832829337 -0.10337811968495547 -1.4386998719547285e-06 -0.055337731158651315 -1.774693582972899e-06 -2.3277831137674144e-05
-0.09442171881494318 -1.7349911650363662e-05 5.560217658646185e-07 1.254199985318456e-06 -3.944382671147747e-06 7.767090186346989e-06 -0.12132523942224815 5.460740977812443e-06
1.3256960955261836e-06 -1.6667936839325383e-07 -1.647151941463713e-06 1.2424335274536725e-06 -0.1143315929806423 1.7252028743685233e-06 -8.773651140597744e-07 -1.6853447074310287e-06
-0.08628252301741822 -2.1917899652523826e-06 1.8306764193463397e-06 -0.1074659553914152 1.330490314251382e-06 3.781175642383474e-06 -0.12912947238823674 1.832103358271011e-06
-0.007409564863023191 -3.470131579250629e-07 1.2329529064118814e-06 4.4603993284439425e-06 -0.27333486398039264 -2.5317368137772593e-06 4.447626831981738e-06 -7.606604484267001e-07

bias f8 [28]
00000000: 3e14 1dc8 cf94 d5bf a407 b2ac 36ce c2bf
00000010: 15f0 97f8 d816 e53f 292f e96b 5454 e73f
00000020: b8c2 2c8c 7d8b 05bf 47d6 df23 7ae4 d03f
00000030: 8a67 a9d7 2261 81bf d167 cd53 0bc2 d3bf
00000040: bc3d c387 1c7b aebf b192 3e34 cc75 c1bf
00000050: b97e 252b d9e8 e43f e6f5 09fb 5bf0 01bf
00000060: afe6 21b2 51c0 e53f d16e 87fd e40f d2bf
00000070: c8d8 d2cf de3b cabf 2b1b bf53 2614 853f
00000080: de60 422c 228d a53f 36e6 11a6 62a2 9c3f
00000090: 9ce9 f1e4 a7b4 b8bf 4829 371a 53f1 e93f
000000a0: 8db8 42dd 737f e03f 3e24 e7bc 3295 afbf
000000b0: e631 0bbc 4451 da3f 9e58 9904 6f07 c3bf
000000c0: a140 4bab 2538 dabf 466f a9b1 1376 df3f
000000d0: 752d 5789 a96d c7bf 8e1a 67e6 b8a4 c03f
-0.337207742141178 -0.14691813881296156 0.659039006742662 0.7290441615709585 -4.109360590687699e-05 0.26394513610225484 -0.008486053663705712 -0.3087185209639048
-0.05953301579722445 -0.13640739966389995 0.6534238665298836 -3.421574308946542e-05 0.679726455607314 -0.28222012289709847 -0.20495209834706984 0.010292338782063112
0.04209238806032699 0.02796320093736978 -0.09650658931233241 0.8107085716267557 0.5155581780907298 -0.061685166892467155 0.4112102352489998 -0.14866435741959533
-0.40967694976735386 0.49158184385099835 -0.1830341263397305 0.13002692461141802
