pyTorch/NN_IRL.pth (torch, 93435 bytes, 14 tensors)

fc1.weight f8 [84, 64]
0.01751325050053805 -0.04804503385115168 -0.11015426416923445 0.0051869210793901305 -0.06374396987932354 -0.02721302686437177 -0.18034845610801925 -0.13722309380956788
-0.07966476971108656 -0.1529410266288594 -0.11178278744266512 -0.18080011811193672 0.06381668942783157 0.13047631201457632 0.09546210004361289 0.08520012460971546
-0.12317960607182032 -0.17364035129747663 -0.05874045572546657 -0.02878152454925853 0.027591618572610027 0.14418478007411084 0.002433814907568721 0.1059380146991817
-0.1684949489282816 -0.08543923081791718 -0.07811775920387021 -0.05451357824295665 0.1613440399873775 0.03191390899393849 0.17747306645616 0.13264757819751097
-0.17602796346843066 -0.1868184404262494 -0.10462337434105907 0.004376453226728097 -0.08199006853541056 -0.10479263880558883 -0.02598532180402062 -0.13300739394641725
-0.15695407224439356 -0.2146401282282744 -0.03782793281616169 -0.13956103674367745 -0.0904437439450232 -0.10840863988354481 -0.009128358813993306 -0.21473509865882878
0.02431509598554872 -0.005083975086005985 -0.034250707709794756 -0.16102506695405278 -0.17759797669475275 0.021941172810548207 -0.03009950467012243 -0.13453010835435092
-0.08353903499524619 -0.039700077146910026 -0.22388426356626756 -0.07909884162111672 -0.08257167656206586 -0.21292866165672322 -0.18424880763756257 0.024671042791432923
0.12516674385146564 0.012284929962426541 0.07353422794425274 0.19085090423600098 0.002792295562627403 0.17738148822549185 0.17224629848345993 0.17441359863992234
0.07667420957593596 -0.044092934616947035 -0.02204716840421818 0.039146358570388104 0.022162080112404545 0.015639926863851517 0.09870005509913868 0.013588640795085857
0.032383355410009015 0.07764568170683232 0.06851737139036478 0.020723913150165474 0.07493772388149178 -0.09555787149341197 -0.07199322324541232 0.07253553566005298
-0.09038405358950971 0.024651997627941805 0.08229928082955938 -0.010886137996403589 0.005506372210643248 -0.015475466610497382 -0.04907942546024055 0.018976908258940828
0.019620527807850258 0.0200646484693347 -0.05770308934201239 -0.07090971644894778 0.017066985925833833 0.019080871127948776 -0.05565924554855943 -0.08445851471856593
0.08660017532236672 0.017556873783601865 -0.09931962144776249 0.017974489860407783 -0.007203920913670878 0.03249133276881114 -0.04680425896869374 0.08622990034018563
-0.09159799972677488 0.012718195445612673 -0.0605137518616639 -0.014062509411385218 0.09922211235653458 0.08670496778812668 -0.026494434156406926 0.051172877296740374
0.055189936016534644 -0.04691391761705754 -0.01017732419898948 -0.0020183138519412336 -0.011218324143164066 -0.0016718857157719536 0.05191669747241989 -0.0686908113060782
-0.21614831808225393 -0.20526366410018898 -0.05110133279241512 -0.19542621610048166 -0.11227687542192538 -0.004448140367178527 -0.15296524097870734 -0.19814529972388212
-0.1704690175792478 -0.036182383213191116 -0.09812348809785068 -0.08876151764155989 -0.19314165794593408 -0.0333217025975097 -0.062161185050091244 -0.060240571248768526
-0.2036761356854287 -0.08404414061506471 -0.15883406384867074 -0.19990211080679215 -0.0334551726572329 -0.06533443416390056 -0.20746790094311615 0.005543022074249282
-0.02861908554167561 -0.058501438068796 -0.07916891803644063 -0.044787518180570876 -0.12769226871084516 -0.09541888931634493 0.002848414776234154 -0.06150088497018301
-0.14146845638178185 -0.011147663374868763 -0.03253015847860663 -0.13724904450732886 -0.007985804273502956 -0.05368835538632878 0.02260982592922149 -0.16623364140021887
-0.01983314159291885 0.09922993554586765 -0.0042601533282597415 0.046047042695889454 -0.07677465641853484 0.008159533352171136 0.09816745194487224 -0.07555825713385012
0.045057711107332366 -0.047376185747085464 -0.06482462336301348 0.02652778222565387 0.04840624818439307 -0.02805436729408324 0.016034544530952377 0.026119999643905906
0.04256718887370521 0.07556368664427897 0.018993152848248138 0.008907597295601408 0.0474756709712785 -0.009161116021495927 -0.08580642473326397 -0.03499635131639452
0.05581879832821417 -0.0063370026313507855 0.12500789780212518 0.08990666505023824 0.16129022598287263 0.20551918563277605 0.18593118856851634 0.14631405917343498
0.11448904012903936 0.00286481062649048 0.13394074613951723 0.18208293192770977 0.11050923485134241 0.15681106338122966 0.07410124248635781 0.017781910183057983
0.20355491700734163 0.07070070658916301 0.028540404760828336 0.02625432660786718 0.22104033286810904 0.046057574203382565 0.04831445544028069 0.014869890187763218
0.07377442295922579 0.0585099728972175 -0.006634770701690301 0.021811199935258832 0.01370550145273218 0.02213541728156372 0.02851968882507705 0.0749732449965371
0.02060173924160201 0.05432687867078856 0.018996564489972237 0.06492825377648449 0.028743059281952324 -0.02682762807261986 -0.0068784636304919655 -0.009267639767700397
0.04376248778733734 -0.08568364016278211 -0.0003186739539690897 -0.036040181399339344 0.05002709145746584 0.07561237973137437 -0.07909649325936918 -0.041413387530463946
0.019066713119321788 -0.04868695461096538 -0.07689073301792622 0.09385587015877296 0.00715511672357988 0.007567308875672529 0.0207104670740621 0.06427508861622008
-0.06294286215870319 -0.09017208104716427 0.048718471983086084 -0.023841612719901026 0.07152582216145065 0.04077407463649163 -0.02049208067156344 -0.012712173515030706
00000000: 54fb 9558 feee 913f 3277 40d2 5b99 a8bf
00000010: b72e 1fe2 1133 bcbf 9055 7286 e13e 753f
00000020: 5aeb f259 8651 b0bf 006e a151 bbdd 9bbf
00000030: be1b 6f80 a815 c7bf 2482 15be 8690 c1bf
00000040: dd6f 8d0c e964 b4bf 0237 cb51 9293 c3bf
00000050: 606c 52f8 cb9d bcbf 9fac 3351 7524 c7bf
00000060: 0f12 0862 4a56 b03f 94ad 80a2 72b3 c03f
00000070: 40de b145 3470 b83f a658 d0e4 accf b53f
00000080: 68d5 9cdb b288 bfbf ae57 0bd7 d839 c6bf
00000090: 0c06 96a0 3a13 aebf e01e ac6a e778 9dbf
000000a0: d8fa a62d fa40 9c3f b4e7 7f99 a574 c23f
000000b0: 803e d76d 14f0 633f 4d41 89f4 c01e bb3f
000000c0: 9e15 9813 3e91 c5bf 9a89 286e 58df b5bf
000000d0: 0076 0485 86ff b3bf 7e9d 7b27 34e9 abbf
000000e0: 1e3d 93e7 eba6 c43f aa3d d516 0557 a03f
000000f0: 2cce 2cfc 6fb7 c63f a93e 2089 98fa c03f
00000100: 5da2 2395 1588 c6bf d0d1 f5a9 aae9 c7bf
00000110: d927 31f3 98c8 babf 1049 b337 0bed 713f
00000120: c7d5 f416 4dfd b4bf 4d13 88bc b0d3 babf
00000130: 6c16 4c6d e59b 9abf 6c22 90e3 6206 c1bf
00000140: a6c0 a12f 1217 c4bf e128 93e5 5379 cbbf
00000150: be32 a4cc 2e5e a3bf cf12 4ed4 22dd c1bf
00000160: f125 5f3a 5227 b7bf ab56 e72a abc0 bbbf
00000170: 38fa 9394 e3b1 82bf 2081 0591 707c cbbf
00000180: c466 3a78 0ee6 983f 7031 a62b efd2 74bf
00000190: eef3 f40a 4f89 a1bf eab1 332a 789c c4bf
000001a0: 94af dece 87bb c6bf 24f6 a02e bf77 963f
000001b0: f863 bc90 67d2 9ebf 7ac9 da57 4838 c1bf
000001c0: 9975 3e6f d062 b5bf 7e43 fd89 9153 a4bf
000001d0: c496 0d53 3da8 ccbf b207 ea59 d23f b4bf
000001e0: 4ff3 68da 6a23 b5bf a92c 1913 3f41 cbbf
000001f0: 88ae 9005 7795 c7bf b828 caa7 5d43 993f
00000200: f8c5 b1bf 7605 c03f 68d0 6063 d728 893f
00000210: 9c3c 28a0 23d3 b23f 0286 0d6c cd6d c83f
00000220: 207a e943 dedf 663f e911 6cc5 6fb4 c63f
00000230: 4bf8 6bad 2a0c c63f ec6c 114f 2f53 c63f
00000240: 8846 93c6 eba0 b33f 4a33 5460 5993 a6bf
00000250: e4e4 0f6d 8893 96bf f675 a2d3 fd0a a43f
00000260: 0c2b 2d05 a8b1 963f e07b 91b9 e903 903f
00000270: 86a2 c324 6844 b93f 18f2 7e7e 5cd4 8b3f
00000280: 5e6a d718 8d94 a03f a341 9b5f 96e0 b33f
00000290: 4b5a 54bd 5a8a b13f f081 e644 a638 953f
000002a0: 78c4 4e61 1e2f b33f fe87 f00c 7b76 b8bf
000002b0: 7e67 5fdb 256e b2bf 5f30 7559 b091 b23f
000002c0: ee31 3fca 6823 b7bf 4450 5f8e 5f3e 993f
000002d0: f7b3 a5cf 9011 b53f 80f5 64b5 784b 86bf
000002e0: 3070 0789 d98d 763f 4802 dcf7 99b1 8fbf
000002f0: 2c33 843e f020 a9bf 80c6 67c1 ae6e 933f
00000300: b855 0f55 6717 943f f015 edc3 d38b 943f
00000310: ae47 3463 428b adbf ccea 1da1 2327 b2bf
00000320: b02c 9209 027a 913f a419 e595 ef89 933f
00000330: e6c2 b35e 5e7f acbf f1c0 95be 129f b5bf
00000340: e661 d6d8 6d2b b63f 0cdd e1da 6dfa 913f
00000350: 1e20 f8bd 026d b9bf d070 7398 e767 923f
00000360: b08e a2cb db81 7dbf 947e 4a37 b4a2 a03f
00000370: 2a09 2b53 baf6 a7bf f0ff e5a9 2913 b63f
00000380: a29c 346d f772 b7bf 303b 064c ff0b 8a3f
00000390: 8680 6892 a8fb aebf 4838 2c10 cecc 8cbf
000003a0: aa81 9ccf 9e66 b93f 23fd 0cf9 4b32 b63f
000003b0: 9842 e960 5b21 9bbf 820a ddd4 5433 aa3f
000003c0: 5ec9 84f4 da41 ac3f d0f5 c8db 1905 a8bf
000003d0: e07a c354 d9d7 84bf 80be 96ff b588 60bf
000003e0: 908d 7cfa a1f9 86bf 8072 339e 6564 5bbf
000003f0: 204f 854b d394 aa3f 6d66 1894 b895 b1bf
00000400: f2d4 9f82 bfaa cbbf 4e08 2f6a 1446 cabf
00000410: 0e39 4032 f429 aabf 5a5f 77eb b903 c9bf
00000420: acc3 0864 2dbe bcbf e014 7b96 3638 72bf
00000430: c4d2 b671 5d94 c3bf d6c8 153f d35c c9bf
00000440: 97f7 bdc3 edd1 c5bf 001a 2f51 7f86 a2bf
00000450: da86 59f4 9e1e b9bf 8df0 6927 13b9 b6bf
00000460: a4be 2fa8 ddb8 c8bf e682 cecd 8a0f a1bf
00000470: 6cd2 bd41 97d3 afbf 78c7 cf26 dad7 aebf
00000480: 3a4e df42 0f12 cabf 70b4 5cb3 ea83 b5bf
00000490: b943 dcb2 ac54 c4bf 6684 2872 6496 c9bf
000004a0: 36c3 e350 0921 a1bf cc5f 09ea c1b9 b0bf
000004b0: 279e c2e4 4e8e cabf 807f 7aa8 47b4 763f
000004c0: a88d c551 524e 9dbf 7a84 8c86 e6f3 adbf
000004d0: f682 d309 6a44 b4bf 8a88 b5bb 63ee a6bf
000004e0: fc55 0863 3858 c0bf daca 0851 5f6d b8bf
000004f0: 8059 e609 8f55 673f fe75 3e43 0b7d afbf
00000500: 40a5 c96c a31b c2bf 589b f90c 96d4 86bf
00000510: 803f 99fd caa7 a0bf 177a c86e 6091 c1bf
00000520: d0e0 7e81 dc5a 80bf a2e0 1e45 0a7d abbf
00000530: 6cae bcbb 0727 973f 138b a7da 2447 c5bf
00000540: e8f7 129a 234f 94bf fe24 f40f 2267 b93f
00000550: c07b 8833 1873 71bf 22a8 e95c 7a93 a73f
00000560: b6af 7afe 80a7 b3bf 8881 2f07 f2b5 803f
00000570: 5b87 a28b 8021 b93f 3828 5533 c957 b3bf
00000580: b0f7 46e7 cd11 a73f 3031 c900 b141 a8bf
00000590: 44d5 51b5 5898 b0bf 1cdd 6054 192a 9b3f
000005a0: 8c80 bf29 b4c8 a83f 14f9 26b8 48ba 9cbf
000005b0: 307f 7711 5c6b 903f 08eb f780 33bf 9a3f
000005c0: 8ac0 30d8 5dcb a53f bb01 e74a 2458 b33f
000005d0: 4c1a 53e9 f072 933f 787a 9078 253e 823f
000005e0: c4c6 5a2c bb4e a83f 7851 a82d 10c3 82bf
000005f0: 221c 04ec 68f7 b5bf 2a38 c4b0 0aeb a1bf
00000600: c6b5 a412 4894 ac3f 40ad e630 d4f4 79bf
00000610: a0a2 6640 4200 c03f 8f4c 158a 1f04 b73f
00000620: c264 e17a 28a5 c43f 5025 7fe2 734e ca3f
00000630: dda5 1adb 97cc c73f 1426 8c49 6bba c23f
00000640: b7ca 1a5b 274f bd3f 207b 667e f177 673f
00000650: 40b2 226a f824 c13f 0908 e556 7e4e c73f
00000660: 05ae 974d 554a bc3f 69ca 6f8a 6212 c43f
00000670: 3d66 128d 4cf8 b23f e45c c9ca 6b35 923f
00000680: 8046 be67 160e ca3f 95c3 9a06 7119 b23f
00000690: 68db 3f24 b239 9d3f 7c1d a308 6ae2 9a3f
000006a0: 52fb 61b4 0c4b cc3f d68c dfbd db94 a73f
000006b0: 1282 141c acbc a83f 5095 69e0 1a74 8e3f
000006c0: 2a22 e46d e1e2 b23f d2b2 2ae8 04f5 ad3f
000006d0: 202d e2b2 0f2d 7bbf c441 a2d9 ac55 963f
000006e0: 383d 1e44 a111 8c3f 3403 3bb5 aaaa 963f
000006f0: e0e6 2eeb 4334 9d3f 96ca 5553 7231 b33f
00000700: bc33 2251 9f18 953f b09d 5e8e bbd0 ab3f
00000710: a415 e2dc d573 933f 896f 8e56 239f b03f
00000720: 2472 690e d26e 9d3f 44fb cda4 b378 9bbf
00000730: 205d 6f85 972c 7cbf c001 b58d e9fa 82bf
00000740: 4a2a ad6b 0968 a63f 5327 4df0 5cef b5bf
00000750: 00be db35 76e2 34bf b875 e7d0 db73 a2bf
00000760: 1c98 72a3 269d a93f e175 1e3a 555b b33f
00000770: 80fb c6f3 aa3f b4bf 6cad 1eb2 2234 a5bf
00000780: 70a7 2875 3986 933f 7e84 971b 7fed a8bf
00000790: 0d6e ad6f 1caf b3bf f99a de34 f006 b83f
000007a0: c0ba 3a05 af4e 7d3f 4064 3c02 e6fe 7e3f
000007b0: c069 12eb 1f35 953f e6dd 8d0b 5574 b03f
000007c0: 03ff 7cfe 051d b0bf f31d 1c7b 8415 b7bf
000007d0: cec3 c1a7 a0f1 a83f 7cda a98b ef69 98bf
000007e0: d8c0 002b 844f b23f 1042 2dea 56e0 a43f
000007f0: d0d4 3e41 e0fb 94bf b0a8 100c d708 8abf

fc1.bias f8 [84]
-0.21035957871543867 -0.01521043092466981 -0.20127043904522945 0.120001275948966 0.20686775240389726 0.04372418813163925 0.21298838989336522 0.07677371378763279
-0.20587544269343816 0.17891224008970852 0.0363935553320017 0.20044809169539865 -0.11537132791422916 0.20978701260006088 0.013144663612852284 0.07463005182525005
-0.1336218058450348 0.13752587072189548 0.16314549660514793 -0.16087668796095272 -0.025718415873196482 0.013396137714695514 0.11310064251409534 -0.01292485346336468
0.00709669064146376 0.13749015103099715 0.0681829751256433 0.22259334425439972 0.01842117049388689 0.04371051579973753 0.18297388277115328 -0.13514516942228957
-0.003364302276680317 -0.18726002421634877 -0.004235548485723953 -0.14354572100573681 -0.18844249203920818 -0.19679939715450548 -0.10609168005293482 0.15594297721039735
-0.02355794149122621 0.0960511152602173 0.13317440269285744 -0.1914185814706725 0.01014525988285847 -0.07730662869703561 0.02281280067374329 0.08045895086050854
-0.08193314465861072 -0.17668115683893104 0.07689101928284456 0.0602333570614912 -0.049959551390165766 6.487328999450759e-05 -0.01637840925978916 0.18189031305172437
-0.16669498417071385 0.0008777203560540597 0.18806792997250668 0.014828618984754613 0.17268821328108522 -0.14525018507859952 -0.21979831849146683 -0.11645546477072116
-0.07416274882725578 0.007036296837224787 0.12411683346695591 0.1419956467788615 -0.19264132056867342 -0.1367774497710152 0.16434970929435738 0.15740360064389117
0.19518220590325763 0.11998266107337395 0.14078461752045401 0.0738036502135121 0.07882327922305173 0.0006691230277045684 -0.0029045820444799364 -0.0609721612969228
0.06085301241255146 -0.03444063869845845 0.02865789819587991 -0.16441878333182236
00000000: c1d7 7d0b 10ed cabf d043 097b a526 8fbf
00000010: bce7 acd0 3ac3 c9bf 35d8 ad53 67b8 be3f
00000020: 5efc 957b a47a ca3f 009b 234c 0463 a63f
00000030: 8c85 821c 3443 cb3f 820c e92d 71a7 b33f
00000040: c07b b562 205a cabf 000b 05a6 98e6 c63f
00000050: 4c4a df13 2da2 a23f e34c 3077 48a8 c93f
00000060: 1ca7 49b0 f988 bdbf 1e14 1f03 4dda ca3f
00000070: 0848 ace2 96eb 8a3f 4f63 e37f f41a b33f
00000080: 7c85 11f3 841a c1bf 1c5f 8d9e 729a c13f
00000090: 3653 349e f3e1 c43f 5294 bd78 9b97 c4bf
000000a0: c83b 52ac ed55 9abf 48c5 042b 6f6f 8b3f
000000b0: 372f c1e8 29f4 bc3f b829 7277 5878 8abf
000000c0: e04b 7063 6b11 7d3f 40a1 19fb 4699 c13f
000000d0: af01 4f80 7074 b13f 19a1 f04e f07d cc3f
000000e0: 5817 4dd3 ffdc 923f c4cb b387 3961 a63f
000000f0: 561a 432d b06b c73f 4fc8 70d9 6f4c c1bf
00000100: 6006 1208 748f 6bbf d3be edef 22f8 c7bf
00000110: 1000 a163 4b59 71bf 0ca6 99c8 b45f c2bf
00000120: 0d19 3e32 e21e c8bf c957 53ff b830 c9bf
00000130: 327e 3408 d328 bbbf 7a6b 9481 f0f5 c33f
00000140: 9447 10b1 921f 98bf 3376 c94e ce96 b83f
00000150: c975 1ddc db0b c13f 2db2 a171 6780 c8bf
00000160: 2019 40bb 09c7 843f 6e8d 0402 5eca b3bf
00000170: ecaa 4b23 3d5c 973f 75c9 9d32 f598 b43f
00000180: 4365 c410 92f9 b4bf f0a8 38f7 7c9d c6bf
00000190: 4609 2d3d 21af b33f ba2f 6a15 e8d6 ae3f
000001a0: 76eb af5e 4c94 a9bf 0064 b9a2 9201 113f
000001b0: fc72 8670 80c5 90bf 0618 0289 2e48 c73f
000001c0: 6dd1 b5e0 4256 c5bf 8064 b51c dac2 4c3f
000001d0: 4d44 5424 9c12 c83f f8c7 ac8c 775e 8e3f
000001e0: 2135 39ba a51a c63f a344 53dd 8e97 c2bf
000001f0: 7d7d d1ee 5922 ccbf 5c77 a17c 06d0 bdbf
00000200: 0d66 cb74 54fc b2bf c031 d08c 17d2 7c3f
00000210: c9a7 9fec 1ec6 bf3f 4a77 8bd1 e92c c23f
00000220: afb0 d985 78a8 c8bf b663 cc68 ec81 c1bf
00000230: 2a60 4349 6909 c53f 55e2 841a cd25 c43f
00000240: f4cc 8e03 bbfb c83f 77ae 6505 2fb7 be3f
00000250: 34de 03f8 3a05 c23f b811 fec7 cbe4 b23f
00000260: 052e 6d2e c32d b43f 80da afc2 02ed 453f
00000270: c085 779c 59cb 67bf 6a33 793d be37 afbf
00000280: 5e98 5944 2028 af3f 6cf9 b911 34a2 a1bf
00000290: 98f6 17fe 7e58 9d3f 8c0f a1b8 ac0b c5bf

fc2.weight f8 [42, 84]
-0.18498069718044824 0.05708077909998052 -0.15183971720796116 -0.08292853449500849 0.002726033169246758 -0.08356145980951624 -0.04522186664907285 -0.08168860123097435
-0.15337100399749237 -0.19105186417063297 -0.07832323557591671 -0.08585536733565317 -0.04939427319919516 -0.12272701954247747 0.007101994794620967 -0.07962116798520048
-0.014174694772999583 -0.08198038512000788 -0.20305128838377134 -0.05538215504259007 -0.1533590555961682 -0.015213812608822444 -0.16396595399126004 -0.15497143628570068
-0.13009618367708242 -0.14214890938646815 -0.0032825536393050886 -0.020921832292251683 -0.16237212760628644 -0.1590022809513157 -0.17139334200259043 -0.1172745837123322
0.09683230012186946 -0.07912698163666881 -0.18401171363926955 -0.10512566575192792 -0.042600786795188444 -0.04076483180100772 -0.0028172651682042554 -0.13719101711681553
-0.008639504609522022 -0.020377628215503985 -0.04486838216060926 -0.012656093477244584 -0.0847775505853455 -0.032781199783259135 -0.07588463262044211 -0.0781931417075815
-0.07460276461923608 -0.021818168356346507 -0.20790898496921134 -0.07659702399604612 -0.09632403027077047 -0.016601982178791233 -0.19924122334137764 -0.020158238100166176
-0.019054514864605188 0.0006437328674602227 -0.060911702269402776 0.009000168379612802 -0.20671791607932816 -0.06792102865101389 -0.03923060405119169 -0.05802977627233927
-0.18430447441236503 0.0065409109276859945 -0.168653006802241 0.0001461404106445907 -0.13598567172539058 -0.08156159591681923 -0.03609466193923705 -0.046735472723807
-0.08698901037934688 -0.1597293210671816 -0.12838391744605354 -0.09898709911780597 0.07640644417020324 -0.17449434680242698 -0.0029740397824190856 0.09770439048249938
-0.20833046184248055 0.06925937939839444 -0.006160593810111248 -0.1773351708178048 0.08494244323149734 0.12669641726410888 0.14028724062181464 0.18380876850354533
0.049744749139808045 0.055546365143505194 0.14040656486690478 0.1861009494016342 0.0031196092372353657 0.04882865047873757 0.18733717747103823 0.15927342980552717
0.01992577185481241 -0.007551940306707 0.084940934370725 0.014625993191190081 0.1476458860569002 0.08674324180850096 0.04948898088481282 0.06932829234071997
0.09836903570509217 0.04888831515585131 0.00968675546791574 0.1724839797521408 0.1315930471856761 0.02104450415725441 0.15426753215817 0.14454280758607888
4.860603770968919e-05 0.13423925015731358 0.10824578258301674 0.012582222085452802 0.0016950913711819005 0.1744936660875468 0.007616281719268758 0.17321273550061297
0.13157925030554563 0.037186556122278044 0.005475464768249297 0.14416997516412547 0.07918256950056675 0.05986496649634085 0.1212104769253807 0.1967713123170612
0.03137574157684654 0.17523776997211493 0.18525719190648654 0.17678410015091522 -0.0059657399142334505 0.15165821036241484 0.04187559762896936 0.20641438799706735
0.1367018045469312 0.1721926540157156 0.16555791617364624 0.1331034568678114 0.010977904408039335 0.1668941524973363 0.19269786679293366 0.19043771944870252
0.01194513579031331 0.05959453427118237 0.07767105692038766 0.04426991943622862 0.1487055921959779 -0.0461815542380304 0.15011219269099613 0.08441976328653568
0.09724707049197327 0.018297953041078757 0.196440122193539 0.14240221884469018 0.0722392779768329 0.13682655751070544 0.11495403897922331 0.011314434608288751
0.005605739650331759 0.022737295207433866 -0.0586505863917544 0.002491905812069886 0.05966961505942012 0.0914664517209149 0.08316183078575426 0.07147867559409063
-0.08273101533572733 -0.10997423937252533 -0.16075900098166268 -0.12220315490152475 -0.17486463616082165 -0.14330225846669503 -0.09668862320076924 -0.058978013462591045
-0.012552111869780724 -0.10188725761709888 -0.12807437268837912 -0.006812590282042619 -0.0973334199154259 -0.1333133411254867 0.06546000404541284 -0.08249454442325392
-0.03418923678697519 -0.20010907750630458 -0.08527928224684558 -0.18201949593057848 -0.03526607957114053 -0.12896624857902497 -0.09059402667519514 -0.12689924556683096
-0.10119064021756068 -0.18122914993498693 -0.1567532822789185 -0.07360821590982139 -0.1018775116064172 -0.06500261632441534 -0.20478684056784832 -0.09054635457560221
-0.04681806688334601 -0.0013083501952629722 -0.15067041744073922 -0.004495689241063042 -0.08868848302424753 -0.11018808445675 -0.004274957235408647 -0.07914386336626454
-0.006820745079955184 -0.20890710252891856 -0.18856332779252982 -0.007947095969723594 -0.16547925531587385 -0.0838903877466036 -0.028409580536414472 -0.12420050877790743
-0.007230416204453971 -0.01873500831320074 -0.07079761319574837 -0.2017712272634099 -0.10545606214025884 -0.013397552220662384 -0.17325872986055316 -0.1283960344680637
0.008140260867117305 -0.008690630793883589 -0.15967336671178792 -0.15402895550554552 -0.08629009808415763 -0.01708258433517469 -0.161000053192196 -0.03400446589569665
-0.018229976697837144 -0.05683980656140328 -0.007061835683296769 -0.16004683363697658 -0.006678263251605088 -0.03120933700428552 -0.08289519253261222 -0.19889294764758153
0.00861761691729393 -0.030313506972095214 -0.02358928165559282 -0.15337993253448245 0.007648044097502721 -0.09219268820507749 -0.08308172954222236 -0.1254684040555989
-0.09805409327806851 -0.01479371415165033 -0.13938770334911715 -0.11470557384796537 0.004451672175752097 0.08931643972128075 0.03860168369791753 -0.0832816856478175
00000000: ca01 648e 72ad c7bf 3ce2 ed1e b139 ad3f
00000010: bb2f d2dd 7b6f c3bf 59af 8fef cd3a b5bf
00000020: a046 e9e9 e754 663f 0080 16a9 4864 b5bf
00000030: 58c8 a40c 5227 a7bf 9236 be4e 8be9 b4bf
00000040: 0c76 293b a9a1 c3bf 2af2 3932 6374 c8bf
00000050: 61c2 50d7 fd0c b4bf cb87 e40a 9efa b5bf
00000060: 7a1e 00c8 344a a9bf 123f 45b7 096b bfbf
00000070: 3072 1136 fb16 7d3f 89d5 9088 0d62 b4bf
00000080: b8b5 d853 9f07 8dbf d400 01a1 aafc b4bf
00000090: 5e6d 82a9 95fd c9bf f63d 61c1 0c5b acbf
000000a0: d25d 2a00 45a1 c3bf a8a4 d15c 6b28 8fbf
000000b0: 3563 061d d6fc c4bf 41a3 54a1 1ad6 c3bf
000000c0: 001e 1de3 fda6 c0bf a30c 7d7a ef31 c2bf
000000d0: 20dc e690 03e4 6abf 2cd7 de65 886c 95bf
000000e0: 92eb ec20 9cc8 c4bf 6270 56ce 2f5a c4bf
000000f0: 529e 538f 37f0 c5bf 954c b205 b505 bebf
00000100: 754a 386a 00ca b83f dc55 5c76 aa41 b4bf
00000110: a6ae 1422 b28d c7bf 1ef0 5f00 84e9 babf
00000120: 946e 2334 c5cf a5bf ea14 d3c6 20df a4bf
00000130: 2001 5fb8 3b14 67bf 6e2d e9a9 798f c1bf
00000140: 8826 03ae 96b1 81bf 90c5 057b dfdd 94bf
00000150: 9c2c 0214 fdf8 a6bf 709a a31c 70eb 89bf
00000160: 96f4 3247 fbb3 b5bf 7448 fc89 b2c8 a0bf
00000170: a1af 5fdf 2c6d b3bf 87d2 673a 7704 b4bf
00000180: 0716 3bb2 2a19 b3bf 384f 327e 8057 96bf
00000190: 7260 7ef9 c29c cabf a4b0 08d1 dc9b b3bf
000001a0: a4f5 d40f b1a8 b8bf f4d7 062a 1c00 91bf
000001b0: 7114 2285 bc80 c9bf 8870 8a75 5ca4 94bf
000001c0: 600e bdd8 0683 93bf 0020 7ace 0518 453f
000001d0: 1ead 6192 d12f afbf f89b ca26 ae6e 823f
000001e0: 1e6c 8790 bb75 cabf ef4b c4c4 4563 b1bf
000001f0: 4cec cda2 0816 a4bf 8c5a 912e 14b6 adbf
00000200: 12c5 0dfd 4997 c7bf 40ce 5368 a4ca 7a3f
00000210: 7239 4bf6 6b96 c5bf 0058 9591 a827 233f
00000220: 9d7f 647e fa67 c1bf a182 1283 38e1 b4bf
00000230: 80ab 2de1 ff7a a2bf 26de d23d b6ed a7bf
00000240: add1 b06a e944 b6bf eb10 19a9 0272 c4bf
00000250: 5aaf 615b e26e c0bf d5d7 6ff1 3757 b9bf
00000260: ff27 ea6a 5f8f b33f 2239 6dac d455 c6bf
00000270: 409f 4773 035d 68bf 5a46 cca9 2703 b93f
00000280: 36e0 2f94 92aa cabf 9015 7591 fbba b13f
00000290: 008e 03cf d93b 79bf e8e8 8b3b ebb2 c6bf
000002a0: efbb b8b7 c9be b53f 4db9 5594 9637 c03f
000002b0: bc25 42ab eef4 c13f e46a b8b4 0b87 c73f
000002c0: ca09 68cd 2478 a93f 70f3 67bb 9270 ac3f
000002d0: 9e9f 1fa2 d7f8 c13f fb9f b7e9 27d2 c73f
000002e0: 80a5 ce74 4b8e 693f d7f6 d3a1 1100 a93f
000002f0: 4212 4825 aafa c73f 8878 115e 1263 c43f
00000300: ac1c dbe9 6b67 943f e0e9 378a c8ee 7ebf
00000310: 2ec5 3667 b0be b53f 88e3 6b93 3bf4 8d3f
00000320: 146d 0076 0fe6 c23f 9c6e b71a ce34 b63f
00000330: 9445 d3a4 9e56 a93f b479 4abc 7fbf b13f
00000340: 82dc 4a8f b62e b93f eb78 80a5 e307 a93f
00000350: 382b 834f a6d6 833f 8c47 0f7e f413 c63f
00000360: 3890 057d 0ad8 c03f f4b9 76c4 b08c 953f
00000370: a31b bada 09bf c33f 3124 baf3 6080 c23f
00000380: 00a8 22bd ca7b 093f e2f2 a172 c02e c13f
00000390: 5fbd 1fe0 feb5 bb3f 08b9 f142 b5c4 893f
000003a0: 0077 3080 bac5 5b3f 9c42 9af6 ce55 c63f
000003b0: 800f 6c0e 4032 7f3f 07e8 1cbd d52b c63f
000003c0: 847f 72c0 96d7 c03f 6ec7 cac4 1d0a a33f
000003d0: d0af c2e1 706d 763f 0991 3268 2974 c23f
000003e0: ed0d 6b12 4f45 b43f 7c4b 8ef2 9ea6 ae3f
000003f0: 0abb 535a a607 bf3f 02ad 9867 cd2f c93f
00000400: e2ac eb2f 7b10 a03f 2cf0 86f5 306e c63f
00000410: ea27 4bf6 81b6 c73f 92ec 4c84 dca0 c63f
00000420: 10cb 3f1d 886f 78bf 3e96 d646 8969 c33f
00000430: e83d a2e4 b770 a53f 6c85 ef62 c96b ca3f
00000440: 0ea8 ead9 717f c13f ccf1 cdac 680a c63f
00000450: e8a4 c775 0031 c53f 82ab 1db9 8809 c13f
00000460: 7005 4a63 957b 863f 3452 6f9f c95c c53f
00000470: 0c3b f1dd 52aa c83f fe7e 7a60 4360 c83f
00000480: 8080 86fc b076 883f e61e 6ebf 2c83 ae3f
00000490: 279e 5119 40e2 b33f 23ae 5900 8caa a63f
000004a0: 9865 9beb c808 c33f 02f7 42d2 1ba5 a7bf
000004b0: d259 2b57 e036 c33f b9a4 739a 889c b53f
000004c0: b313 651b 2fe5 b83f 48a9 94d7 b2bc 923f
000004d0: 68c4 382e f324 c93f 746b 6864 3c3a c23f
000004e0: a5ab 65f8 457e b23f 86ca dd5a 8883 c13f
000004f0: b978 f5bd a06d bd3f 8832 ecb4 052c 873f
00000500: 2032 7d47 0bf6 763f 08ff 420d 7248 973f
00000510: c63a e31c 7307 aebf a030 f6be e769 643f
00000520: 2c80 7d0a 048d ae3f dd8e d26a 586a b73f
00000530: b213 80ff 174a b53f 32bb 092e 6d4c b23f
00000540: c658 3b1d dc2d b5bf ade9 8191 4527 bcbf
00000550: ea7e e03d c093 c4bf 5e23 c5b9 b448 bfbf
00000560: 4ed2 c4e2 f661 c6bf b258 c778 ba57 c2bf
00000570: eae5 8aea 95c0 b8bf 247f 02be 5d32 aebf
00000580: a0c0 cfef ebb4 89bf 8435 5887 4815 babf
00000590: b27e 13b5 bd64 c0bf 0013 66c7 84e7 7bbf
000005a0: 0237 58cf d7ea b8bf 0e92 205c 6910 c1bf
000005b0: 0732 92a0 fcc1 b03f 9373 65ca 5c1e b5bf
000005c0: e421 c06b 4081 a1bf f8da c29b 2c9d c9bf
000005d0: 52cc 46f0 dcd4 b5bf 76cc 2033 6a4c c7bf
000005e0: d815 d544 650e a2bf dda4 f74d f781 c0bf
000005f0: 1a6d c88d 2b31 b7bf c85d cc06 3c3e c0bf
00000600: 434e 653a a1e7 b9bf 37bd 064c 8432 c7bf
00000610: bcdc 76d6 7d10 c4bf eab1 0cf0 fcd7 b2bf
00000620: de23 8c04 a514 babf 848e 44ef 02a4 b0bf
00000630: f7ed 7187 7436 cabf 6f9a acbf 0b2e b7bf
00000640: 8277 40a4 89f8 a7bf c041 3953 9e6f 55bf
00000650: 72fa b011 2b49 c3bf 10a9 3664 126a 72bf
00000660: 7cf9 1ed6 49b4 b6bf 818f 264b 4935 bcbf
00000670: 303b 4918 9e82 71bf a752 d6b0 c542 b4bf
00000680: 501b d8d0 11f0 7bbf fdc4 a1ca 77bd cabf
00000690: 1003 0cd7 d722 c8bf 601a 4e2a 9146 80bf
000006a0: 25c2 df9a 6c2e c5bf 2607 d227 d779 b5bf
000006b0: 141b 30ad 6617 9dbf 1f01 59c3 9acb bfbf
000006c0: 8050 2712 a49d 7dbf 8060 fb1f 452f 93bf
000006d0: 4e83 4fd9 ca1f b2bf 6460 2fbb a3d3 c9bf
000006e0: d9ae 0e22 2bff babf f0d5 1205 2d70 8bbf
000006f0: 85b0 3f91 572d c6bf 68fb 7c00 486f c0bf
00000700: 1034 a451 d7ab 803f 58aa 54b8 64cc 81bf
00000710: 45e0 0848 2d70 c4bf 0c45 4487 38b7 c3bf
00000720: 7e76 3d9d 1b17 b6bf 74f4 33d4 187e 91bf
00000730: e0af 8e55 a69b c4bf 0643 e189 0869 a1bf
00000740: 0c6e e506 e1aa 92bf 5c9a 956c 1b1a adbf
00000750: 00a7 f314 dfec 7cbf 1c4b 2626 6a7c c4bf
00000760: c0d2 27a4 aa5a 7bbf 2091 0d27 57f5 9fbf
00000770: 5f56 ec8c 9e38 b5bf 5e94 c6f8 5275 c9bf
00000780: 5045 a2f6 1ca6 813f 3cf3 4904 810a 9fbf
00000790: 60d4 fce4 c927 98bf b894 0c21 f4a1 c3bf
000007a0: 602a 6f34 8e53 7f3f f568 c5a4 f099 b7bf
000007b0: 0f6a 471f d844 b5bf 70d0 0c42 590f c0bf
000007c0: d344 deb3 121a b9bf 08df bdb3 2a4c 8ebf
000007d0: 4aac accd 74d7 c1bf 7c8e 5830 585d bdbf
000007e0: c094 84a6 ea3b 723f 361a 9933 71dd b63f
000007f0: e42e 1b92 99c3 a33f 9b8f 36d4 f251 b5bf

fc2.bias f8 [42]
-0.11791956834845757 0.1089905105891006 -0.03422947346385881 -0.1645318914401107 -0.08450938189545325 0.19461757962491058 0.11408504997055322 0.08961598615614072
-0.010382365892637496 -0.0733654595090739 -0.0967209489760729 0.1541834169689624 0.19867477826782523 0.054900276073526225 0.00293944513991011 0.1908330524370962
-0.09688021661152862 0.07793623312336917 0.0015140487283363258 0.10258086421760443 0.17595619734432094 0.17475483746557596 -0.11113974349726426 0.19985811442990098
0.09135278466741206 0.13375981030909428 -0.19499233189492077 -0.14652342630112913 0.005117870605312838 0.03688083758233812 -0.004363435610651292 0.018620588103145
0.2047613913457143 0.13441647524604783 0.10302532460813424 -0.1392331960665884 -0.13417337345778124 0.06782349749444787 0.08458628688877118 -0.11025035286489183
0.1005390849114317 0.07989672168956334
00000000: b474 9d11 fa2f bebf 99f5 8d56 cde6 bb3f
00000010: 5a53 2c8a 8686 a1bf ac30 718a 610f c5bf
00000020: a336 7227 68a2 b5bf f99a db95 3ae9 c83f
00000030: 7e07 9686 ad34 bd3f 2e4a bdc1 12f1 b63f
00000040: 303d b68f 5943 85bf 275b 3f29 14c8 b2bf
00000050: abb8 b040 b4c2 b8bf 07ce bb3e 48bc c33f
00000060: 6da5 99d5 2c6e c93f c2e8 8d94 e31b ac3f
00000070: 604e d197 7614 683f 8649 9bab 376d c83f
00000080: 54d5 f951 24cd b8bf 9834 7004 a1f3 b33f
00000090: 00d1 7471 61ce 583f 2c91 0251 bd42 ba3f
000000a0: 2aaa 8f90 bb85 c63f bcc0 ddd3 5d5e c63f
000000b0: bd48 9b7b a773 bcbf 0088 a860 f394 c93f
000000c0: 6289 8b66 e562 b73f 0afb 659d 0a1f c13f
000000d0: aacf 3a3c 82f5 c8bf ecd5 0796 47c1 c2bf
000000e0: 50e9 ffed 79f6 743f 38cc 878e 0be2 a23f
000000f0: 5068 efd3 64df 71bf d4bd bd83 4611 933f
00000100: 3a1a a80b 9f35 ca3f e4d8 9c1e 8f34 c13f
00000110: 5c0a da1f de5f ba3f 96d0 cfb3 64d2 c1bf
00000120: 9061 7fd5 972c c1bf f394 a377 e15c b13f
00000130: bc99 e067 72a7 b53f 095b edfb 5d39 bcbf
00000140: e713 aaf1 edbc b93f 9bdb b68e 1c74 b43f

fc3.weight f8 [32, 42]
-0.03557788967700215 0.09603788438491188 0.004412878948352378 0.02038275845439093 0.16750847877889868 0.15252218225251185 0.20504476510302855 0.09618714274511743
-0.049660404802401414 -0.02234866809497589 0.20021335580274674 0.09692546121067512 0.1755442346267705 0.24950751847240943 0.052924117949089786 0.0346322455889565
0.03814823535313036 0.2282157875749481 0.20502731314673547 -0.24078179854187004 -0.03459037411449768 0.21056776888990453 0.21510256248670936 0.16553016996274433
0.20659254453251408 0.13317309321993565 -0.021264836419659164 0.1525851892220661 0.06913188776582647 0.05094893999394848 0.24295999472320562 0.021969278239755266
0.07146999318184845 0.21658637678927978 0.13619494559228196 0.15987739008929674 -0.03211895968625984 -0.031178476273885133 -0.016100710480305536 0.1597616860343123
0.05987903723599597 0.23791989403746516 -0.025218707553802733 0.0646817035389036 -0.04321424659397706 0.00875177248132647 0.20535018845991476 0.17536179704085447
0.2119420479483613 0.01306030773746815 0.2495127189895937 -0.022589732097791373 0.09553245060795253 0.07422380055342367 0.062236478650247756 0.1684469761823869
0.03267410945075286 0.1737425007393994 0.18984708040307674 -0.034307617510326016 0.16194960134590652 -0.1800022837128159 0.06319200709418922 -0.04674868423915411
0.007750503333356376 0.22680948507178028 0.22540873763657915 0.12164426746084799 0.19238537954913607 0.1740459698343134 0.012759286736846204 -0.011335125734725282
-0.027831354813685996 -0.08659422735521513 0.09584852852153739 0.2354850505466615 0.14197054843349494 0.18409537673403062 0.1304711309181141 -0.019376176064959935
0.09790859892154584 0.15225864916056098 0.23825883825765087 0.0942501207236551 -0.08899832347127783 0.034289560363616495 -0.01924840148478134 0.0024552739947258373
0.03428375461200417 0.04638616220562594 0.026936740830302577 0.03024317119006187 -0.029964315921804846 0.03907403408730445 -0.005772418476845745 -0.0646579825780769
0.05932221578426379 -0.0167576152750942 0.010671022024216145 -0.03128369717328017 0.09081059975668165 0.07632974997207367 -0.07267940506594128 -0.046003078142114684
0.08174636178858415 0.015630377335579995 0.06175894868515157 -0.0927095913466072 -0.04594653412656077 0.04586643117448709 -0.026088618591477652 0.03284793218494357
-0.01596233228137682 0.06170542077851261 -0.04621384600179859 -0.05588665983504408 -0.044841033775791225 0.01950649822224143 0.05383701525264453 0.0035345323565606074
0.0916631046238268 -0.024450265045356523 0.04577509167623206 0.021459235264318074 0.03245988758704192 0.03941048245098995 -0.02074155983056135 0.038276418791140035
-0.07537890826692409 -0.0159207270579593 -0.02617731473451884 0.03419227603850847 -0.08401920680032512 -0.09772659833269381 -0.07757326085621404 0.030233599731480224
-0.001417654882658173 -0.0977482805643831 -0.04378183365611675 -0.010051834538557472 -0.03981036529734448 0.09921738289309949 0.031979616351954426 -0.07294269269189181
0.0443006720497916 0.003011148215896403 -0.02375029567778622 0.017371125697050918 -0.07621463116820004 0.09615373784121535 -0.06421674032913743 -0.026466412463996447
-0.09323547454574106 -0.030141514243923598 -0.06101770045979951 -0.09063730330659185 0.060603742312046224 -0.06584922389662348 -0.016116506828526625 -0.010648862253305108
0.008558297618649055 0.0963850853171512 -0.021901699926102747 0.05141172728782449 0.02341714869717773 0.02437253130967483 0.06782878948965555 -0.006935129158656475
0.03577346910039508 -0.2099733649162217 0.013816258495156497 -0.16759637738333077 0.02483127993919529 0.024418030101618263 -0.1513451512703371 -0.04430243420407136
-0.07681945248780352 -0.061307502169494 -0.05174383422281062 -0.13957467807765578 -0.01125859559387328 -0.08992681819774803 -0.1920280149027728 -0.10642409340950873
-0.2111689454819865 -0.03231472261354208 -0.19437594219576812 0.07776822719631624 -0.0014237107571320462 -0.04102318418474578 0.0008759736840223686 -0.001869754376707125
-0.22129350600584852 -0.20374690058466677 0.05346044817645379 -0.06755156565022565 0.006175951472410554 -0.04712021549171684 -0.0915788878666817 -0.011305284936059146
-0.11723271674755628 -0.1685713204816689 0.0490298359832613 -0.04039304589033943 -0.21165837239074023 0.03301203291135989 -0.18137065536374775 -0.0534039018884024
-0.09767229840024308 -0.013079598527084221 -0.02101102822272595 0.023234112054182243 -0.028291324551982466 0.08041925911085435 0.05163031994850835 0.03476540813551991
0.032903164361362564 -0.0892240984132678 -0.05880430538349707 -0.083271806840037 0.01544225203301415 -0.07498779354332732 0.0022028897348551624 0.07488481520615728
-0.005483160073635154 0.015589212323575019 -0.005651358762821801 0.09525293731559738 0.019970547696202573 -0.003761441088106665 0.04851653268156432 0.03310100874362418
0.05457157740744878 0.005252195797727635 -0.005096649629396835 -0.01161785121759494 0.04789488916763192 0.09446962609936414 0.007140287567824172 -0.018138335694404678
-0.08558837301623447 0.04485443114817973 0.05567425817923187 0.009516160408873264 -0.03137591774339167 -0.025496571465067508 0.013715963285010083 0.02309839280143107
-0.05867954173889446 -0.07256772724460377 0.024613978365594716 0.02082602402285176 -0.1960960821222578 -0.18457555934513814 -0.03472493725336921 -0.031117136644249782
00000000: f030 3fe1 4337 a2bf bf37 9c54 f095 b83f
00000010: e0e6 3a2c 3d13 723f 7402 dbc3 37df 943f
00000020: f63b 14f7 ea70 c53f 1a34 58cc d885 c33f
00000030: 72b0 2a28 e83e ca3f 79ce 6278 b89f b83f
00000040: 609b 10ad 166d a9bf 14ee 4eba 91e2 96bf
00000050: 3696 b25b 97a0 c93f 5fb0 0c66 1bd0 b83f
00000060: 1496 5cc5 3b78 c63f 82f9 f8c3 dcef cf3f
00000070: 1ea0 85b7 de18 ab3f 801a 6254 51bb a13f
00000080: fccd 7b5e 2a88 a33f 445b 08c8 2c36 cd3f
00000090: df40 60c2 553e ca3f 5ecd 1a1f f0d1 cebf
000000a0: 3a06 285b d4b5 a1bf 56a6 7c78 e2f3 ca3f
000000b0: 7946 9513 7b88 cb3f 32e3 3eb5 1730 c53f
000000c0: 48aa 2edf 9f71 ca3f b41b 0be0 d00b c13f
000000d0: e4ad e803 73c6 95bf 0c08 c856 e987 c33f
000000e0: b1a1 109d a0b2 b13f 846a 14be fa15 aa3f
000000f0: b447 c927 5019 cf3f 24d4 394e 1d7f 963f
00000100: 8983 5c83 db4b b23f f2d7 8836 1ab9 cb3f
00000110: 5084 9902 d66e c13f a2d4 e6c0 dc76 c43f
00000120: fa38 de72 e571 a0bf 3ce6 bd1f 40ed 9fbf
00000130: 1034 d263 b47c 90bf 98e9 5528 1273 c43f
00000140: f004 4a15 77a8 ae3f a0b6 fab9 2874 ce3f
00000150: e08d c3d0 eed2 99bf 7262 59e9 fa8e b03f
00000160: 7a50 af7f 2d20 a6bf a0f2 b604 73ec 813f
00000170: aad5 d43b ea48 ca3f a60e a15f 4172 c63f
00000180: def0 4ac2 ea20 cb3f c86e ddd4 5cbf 8a3f
00000190: 2c88 ff63 08f0 cf3f 2477 5742 c321 97bf
000001a0: 5561 118f d074 b83f 4e37 f6bb 5400 b33f
000001b0: 748f d7b0 75dd af3f e41e e8a6 ab8f c53f
000001c0: 2ca8 082f a9ba a03f caec 4cbb 313d c63f
000001d0: 0841 c9bc e84c c83f 38ca 6b9e c490 a1bf
000001e0: 88c1 b0b8 c3ba c43f e03c e098 500a c7bf
000001f0: 8590 d6f3 592d b03f 6e5b e08b 71ef a7bf
00000200: 9045 82e5 fdbe 7f3f 9e27 67dc 1708 cd3f
00000210: 3edd 308a 31da cc3f ff7e 7d26 1424 bf3f
00000220: e52f b288 15a0 c83f 7330 386a 2347 c63f
00000230: f052 0a7a 8a21 8a3f 4011 9dd2 de36 87bf
00000240: 14a1 e99a d27f 9cbf 6e56 830e 0a2b b6bf
00000250: 62a6 5e77 8789 b83f 99bc 65c7 5f24 ce3f
00000260: 862e 4247 172c c23f 5b6f 35f3 6f90 c73f
00000270: 8fc6 2e2c 47b3 c03f ac08 152a 59d7 93bf
00000280: 137f 5db6 8910 b93f 6cc0 561f 367d c33f
00000290: 1e58 26ff 437f ce3f 56f3 26a2 c620 b83f
000002a0: 5b3d b518 98c8 b6bf 2c3f b6b8 668e a13f
000002b0: bc78 825b dab5 93bf 8077 5230 151d 643f
000002c0: 706f afe9 a38d a13f 8cfa 5153 edbf a73f
000002d0: 9439 b513 4e95 9b3f 302c c1dc 10f8 9e3f
000002e0: 0883 b933 f7ae 9ebf cc36 0e05 8301 a43f
000002f0: 10e5 3ac9 d1a4 77bf 3222 99f0 6c8d b0bf
00000300: 5278 7041 7b5f ae3f 180d 4386 e828 91bf
00000310: 1809 df54 b0da 853f 80b0 83b0 6a04 a0bf
00000320: acc8 150c 5d3f b73f a287 d7b3 588a b33f
00000330: 28d8 d913 1e9b b2bf 707c 4528 b78d a7bf
00000340: 95ee 725e 54ed b43f 94fc ebdd 6801 903f
00000350: 4617 ad71 de9e af3f b2f4 dbd6 d0bb b7bf
00000360: 1c52 e0da 4d86 a7bf 52df c10b ce7b a73f
00000370: 70c5 978e f9b6 9abf 667c f3b4 71d1 a03f
00000380: 2c31 77fc 6d58 90bf 2292 7558 da97 af3f
00000390: 3474 665a 57a9 a7bf c662 8c20 2d9d acbf
000003a0: 26f5 2b6b 67f5 a6bf 702f b2ef 82f9 933f
000003b0: b412 a677 8690 ab3f a03e 199c 73f4 6c3f
000003c0: 13f2 9bb4 3b77 b73f 604c fe82 7d09 99bf
000003d0: 200f 7133 d56f a73f ac31 a1e6 68f9 953f
000003e0: 4682 3c17 959e a03f 3a40 7e5a 9c2d a43f
000003f0: bca7 8f84 463d 95bf eaf6 d47d f798 a33f
00000400: 228b d039 084c b3bf 387f 2be8 854d 90bf
00000410: d038 bada 39ce 9abf fcee b866 a681 a13f
00000420: 4e79 7161 4882 b5bf a0ca c93f 9c04 b9bf
00000430: 7de8 6b5a d7db b3bf c426 5988 8ef5 9e3f
00000440: 40fd e956 133a 57bf 67a6 4304 0806 b9bf
00000450: 8e82 6c8f 926a a6bf a8fe dc64 0e96 84bf
00000460: 7ee1 fc31 0662 a4bf 6b77 b876 4f66 b93f
00000470: 2c94 bddc a15f a03f c906 984f 5fac b2bf
00000480: 0013 4ae3 93ae a63f c0b8 8ae3 d5aa 683f
00000490: 4860 d35c ff51 98bf 24dd 0d83 bcc9 913f
000004a0: 5818 5854 cd82 b3bf 9d8a 6a07 889d b83f
000004b0: 34c2 911f 8270 b0bf 10b8 e6df 021a 9bbf
000004c0: 6d41 00b2 47de b7bf 34e1 b7c7 6add 9ebf
000004d0: b467 e747 b63d afbf 9bdb 7f9d 0134 b7bf
000004e0: 9eab 7d26 7407 af3f de5c 1aa7 7edb b0bf
000004f0: a462 0477 d880 90bf 50c0 f018 12cf 85bf
00000500: d860 0d43 0387 813f ba63 4265 b1ac b83f
00000510: 303e a333 666d 96bf fe05 aa4e a352 aa3f
00000520: 48a0 473f aafa 973f d449 95e3 1cf5 983f
00000530: c9d8 9540 3a5d b13f 9023 e18e 0268 7cbf
00000540: 288a b36f e650 a23f ca51 ac3f 68e0 cabf
00000550: a044 1ed3 b24b 8c3f ac0d e54f cc73 c5bf
00000560: 18d3 06fd 5e6d 993f 6474 e042 0a01 993f
00000570: 6ca0 8e25 475f c3bf b650 1404 cfae a6bf
00000580: d7b9 218c 70aa b3bf a285 a269 b263 afbf
00000590: 5463 83f7 2a7e aabf bcbc d842 95dd c1bf
000005a0: 6821 ff1e bf0e 87bf 8652 31a7 7105 b7bf
000005b0: bd2b f6bd 5f94 c8bf 2646 b300 9c3e bbbf
000005c0: f851 6381 9507 cbbf 22e4 9b29 8e8b a0bf
000005d0: d314 6e95 4fe1 c8bf 1ee0 7958 9ee8 b33f
000005e0: 009d 03c9 7953 57bf 8a0c e7a4 fd00 a5bf
000005f0: 00ac 9a29 33b4 4c3f 4092 9179 51a2 5ebf
00000600: d05f 8e79 5853 ccbf b614 56e1 6014 cabf
00000610: 2041 18f9 2a5f ab3f 9de5 4235 0f4b b1bf
00000620: 70ee 8759 f44b 793f 2ee8 0811 2420 a8bf
00000630: 0236 64c8 b671 b7bf a024 94a8 3927 87bf
00000640: 56b5 739c f602 bebf 2493 41ba be93 c5bf
00000650: 8417 274c 701a a93f 806f 2bb6 65ae a4bf
00000660: 7be1 ab1d 9f17 cbbf de20 7503 f4e6 a03f
00000670: a8e5 9e54 2737 c7bf 72d0 2d98 c157 abbf
00000680: aaac 5a3f 0d01 b9bf 185e 59ff 79c9 8abf
00000690: e4aa 493c ea83 95bf e07e b2dd aeca 973f
000006a0: 805b d8a6 66f8 9cbf f083 d947 5b96 b43f
000006b0: 365c 520f 4a6f aa3f d6c3 f285 c5cc a13f
000006c0: d4e2 bbfd aed8 a03f d537 b3f8 63d7 b6bf
000006d0: 48e4 f810 991b aebf a989 0e17 4d51 b5bf
000006e0: e8c5 aafb 2fa0 8f3f 8a27 de68 6632 b3bf
000006f0: 00d0 c56b cb0b 623f e606 47b8 a62b b33f
00000700: 10b4 1e93 8275 76bf 001e cda8 3ced 8f3f
00000710: 404d 0711 e125 77bf 5951 9e1a 7f62 b83f
00000720: a81e f4c4 2873 943f 802a b24e 50d0 6ebf
00000730: 3282 5db2 28d7 a83f ac75 098c 9df2 a03f
00000740: d022 8348 cef0 ab3f 1053 ef92 5383 753f
00000750: 908d a377 39e0 74bf 3823 3c98 19cb 87bf
00000760: 4ab5 3dcd ad85 a83f e7e6 8f52 292f b83f
00000770: 20cb 6759 223f 7d3f 7802 721a db92 92bf
00000780: 89c7 059f 1ee9 b5bf 3a67 b9f5 28f7 a63f
00000790: aebc 371c 5681 ac3f c0b3 ea6d 357d 833f
000007a0: 4201 2e19 8110 a0bf d00d 69f2 c51b 9abf
000007b0: 6823 f06d 1d17 8c3f 9471 b0e6 1aa7 973f
000007c0: 92f6 6cb1 3e0b aebf 15b8 426f cc93 b2bf
000007d0: 7431 6b20 6834 993f 0cdf 55d0 6a53 953f
000007e0: b35e cb29 ad19 c9bf 889e 8303 2ca0 c7bf
000007f0: 2ebe b78b 77c7 a1bf 08ca edb0 2bdd 9fbf

fc3.bias f8 [32]
0.21218809800903238 0.24454114597666513 -0.04722951229844817 -0.009558878402449233 -0.012358544151054973 -0.028729122431549542 0.012615169017628935 0.03584517154453912
-0.051972123872864595 -0.01344714400802964 -0.10332066306281279 -0.030821018655121046 0.13657037583077536 0.060866756116257914 -0.030208459214729852 0.04295707594918104
-0.03478246215910073 -0.019819434323851665 0.024370799424833584 -0.01394512614394891 0.20695254106509053 0.2484545349405307 0.03156540753803419 -0.13086524819754403
-0.048060247838629236 0.021312917319124977 0.0014783309365370007 0.1553596120530209 0.04387282034659348 -0.13339268370889643 0.23769348100900525 -0.05399476213225293
00000000: 644d c6c6 fa28 cb3f 7981 3fd0 1f4d cf3f
00000010: aeaa 7475 772e a8bf 20eb fff0 9a93 83bf
00000020: 80be a3b7 6f4f 89bf f827 25c5 2a6b 9dbf
00000030: c0f0 e952 fbd5 893f 3cb1 015f 4c5a a23f
00000040: c8db ac18 179c aabf d8a7 e91d 2d8a 8bbf
00000050: c416 db14 3973 babf 90d3 9c8c 8b8f 9fbf
00000060: 84d6 e558 237b c13f c0a9 dd6d ed29 af3f
00000070: 8c2b 8f61 f7ee 9ebf 3ac3 aa48 78fe a53f
00000080: 4e38 e5c2 01cf a1bf 1812 fcb8 8b4b 94bf
00000090: 6834 07aa a8f4 983f 7099 d025 438f 8cbf
000000a0: b86d d9bd 6b7d ca3f 6065 0eb3 5bcd cf3f
000000b0: 141d 1f52 5729 a03f f67e 9844 31c0 c0bf
000000c0: 0abd 6851 5a9b a8bf 5cd3 78ab 0dd3 953f
000000d0: 4019 9bc1 9138 583f 4e88 71e2 d2e2 c33f
000000e0: 64d0 2491 7f76 a63f c316 07ef 0213 c1bf
000000f0: 41fa b36f bd6c ce3f 9cd2 0693 33a5 abbf
