pyTorch/lightning_logs/version_54/checkpoints/epoch=0-step=63.ckpt (torch, 66399 bytes, 24 tensors)

exp_avg f8 [28, 14]
-0.00011089169916895474 -0.0003512888795035183 -0.0003381216640424628 -0.00017662272616737783 -6.967194678348731e-05 -0.0002713198790121704 -0.00023776029427777443 -1.4299488224649357e-06
3.636364268253863e-06 5.856324838802879e-05 -0.0005269338725896351 -0.0004070868447169309 -0.00050005928197762 -0.000472931437104799 2.946488664034549e-08 7.730236773199939e-05
1.5768195014136318e-05 -2.1979461272310185e-05 4.5190104994048635e-06 0.0001095348291063202 -0.00029787352512088545 3.4850953612104626e-05 -2.8652482999041258e-05 -0.00029279307997814917
-0.0003598817827240305 -0.00027137315994440504 -0.0003933917235490634 -0.0003173493872459219 -6.492623489918379e-06 9.975864448487953e-05 0.00023713088198899093 -0.0025866629776002186
-0.012620338061156542 -0.055150008945305015 -0.21767885406346885 -0.0009250852296171561 0.0012856766933697732 0.0011262407967587529 0.003548767918670274 0.0026966386287473405
0.00030679510695175854 -0.03403862620900929 -0.01848959866210691 -0.05529204227903832 -0.07786562066956793 -0.09970344424806712 -0.19613316409576942 -0.46782214429232827
-1.4631252939115809 -0.016648047244588238 -0.04807510215624625 -0.028066231205493366 -0.008855575608374288 -0.0658914551846342 -0.27749780198862095 -1.3073497360109076
-0.012353962284227601 -0.03522213396535813 -0.05002924453560305 -0.06499181592630318 -0.1277224190783772 -0.30723347595833783 -0.9606365545650504 -0.0032463510111033454
-0.021136514770847305 -0.01024674610874455 0.001716972918732702 -0.025956350545916454 -0.13763162049383054 -0.7632912833718921 -0.0074399244821562235 -0.02115004274561392
-0.03382089589761324 -0.051683563543971814 -0.11634776116758036 -0.3128709262520783 -1.1017109817742232 -6.236797840535361e-07 1.0431447233440945e-05 6.293152204205681e-07
-9.095731402187731e-05 -0.00083870527059513 -0.03214392921349257 -0.5735525446804908 -0.01761947843013408 -0.0436870269072595 -0.06507306641535462 -0.08881833015585068
-0.17563107617770465 -0.4303791347600174 -1.3640555417734639 -0.00925145741741298 -0.03619286579489764 -0.01697640038157422 0.001991548138117713 -0.05004169040885683
-0.23958179964317225 -1.1798665374101733 -0.03231527556633202 -0.08007813539470011 -0.11525731829740549 -0.1573233269371589 -0.29324428732124336 -0.6693222901768237
-2.037151822663354 -0.041190333531133085 -0.09921945323819403 -0.0715870595555484 -0.04557784355518794 -0.12342793572573316 -0.4083939471125189 -1.83109401486461
-0.02068129470895746 -0.05133927076434117 -0.07573833117972906 -0.10436982852940807 -0.19924748079422047 -0.47182145853925 -1.4769418020421379 -0.02456247713211265
-0.06027064308824833 -0.03874501803441852 -0.019495416955620105 -0.07633202780419479 -0.2760328967508713 -1.307922666574171 -0.012227445900677819 -0.03550858393952466
-0.050404765407196885 -0.07014800860788056 -0.14971027469642986 -0.3834868962976731 -1.2609551621591428 -0.006085877118608546 -0.02864878441390052 -0.012998844196474095
0.007992468845663934 -0.037850783176164395 -0.20115980401978992 -1.0841756829365448 -0.017083045603936448 -0.051584968848645114 -0.07000867489733104 -0.10011260362208865
-0.2021453202760847 -0.49845985980150037 -1.5732132777402332 -0.01305572875666916 -0.05272905687515086 -0.03422582018605734 -0.00939573871929166 -0.06839441583279678
-0.284766137831135 -1.3894490780812263 -0.004126169733849754 -0.012106390518539517 -0.017368539463985564 -0.025252469593512666 -0.05372411471809036 -0.14676561421029982
-0.4951184654843522 0.00016008745225651138 -0.015414404040971498 -0.002728582356054003 0.008758418521342463 -0.004772836263749303 -0.029765453436320987 -0.15479029752993603
0.0015138398241497876 0.0031425529313783103 0.0030230864205313987 -7.317629724601286e-05 -0.012533794240383672 -0.05808910052613093 -0.2684246948310266 -2.029959806855273e-05
-8.325547905859054e-06 0.0003760935128339959 -0.00044330197315537036 0.02006773835671394 0.053092873365851806 -0.009902905850312373 -1.5837070583158612e-05 -0.00033336969265846696
-0.00025961185188960967 -0.0002799618220288027 -0.00027616766602860343 -0.0001717837173705983 -0.00015162181783654407 -3.135494164678862e-05 -1.8456669623284316e-05 -6.03139387319454e-08
-0.00026430447698569046 -0.00014602712355639256 -0.0002729250139517871 -0.0001417947235709941 -0.007959739853056653 -0.0230535726816059 -0.035855561680236625 -0.054955676566975094
-0.12356291529764785 -0.3335101027740788 -1.1719217846738408 -3.5719137257598084e-05 -2.916462048850556e-08 9.374996679712188e-05 0.0002561910750305356 -0.0010226353401630516
-0.05055857194109209 -0.6449180176873317 -0.009181968166506006 -0.02821210703271174 -0.04312880354005957 -0.05970138055993706 -0.13015313428434647 -0.3444455880973947
-1.1521194839731101 -0.0019593915995892762 -0.025186522157006876 -0.009157252011089075 0.011565967679483872 -0.029344943592653692 -0.177465003993551 -0.9716080222926757
-0.01679907268688024 -0.0384348631549939 -0.057014879018594984 -0.07890594728520664 -0.15787958265920113 -0.3718678370966649 -1.1480554387295514 -0.0049022171537247495
-0.025366796030878606 -0.010167942707732332 0.0006132378588722434 -0.03884922923099826 -0.19741153759502464 -0.9844427154050606 0.0018750848546294384 0.004748004221237705
0.0020190150043611025 -0.005778665256094018 -0.05074937067249273 -0.17907150557779386 -0.68479099641894 0.0015023144423593573 5.711656664154246e-05 0.0006842259877739681
0.0035594929795593915 -0.017100748531014166 -0.08876707553703768 -0.47475030538554297 0.004844493541574657 0.011728652675336626 0.015591512676308665 0.017690635147069433
00000000: 49f2 a3e2 d011 1dbf 1bf7 b83f a605 37bf
00000010: 71b8 377d bd28 36bf 0c12 4daa 7926 27bf
00000020: 9712 79ee 9a43 12bf b316 d201 fec7 31bf
00000030: 4d1c 5d60 e929 2fbf 0131 805b 95fd b7be
00000040: 8fee db65 0881 ce3e 54f7 80e4 39b4 0e3f
00000050: 969c fddf 3d44 41bf 9ee9 47af c8ad 3abf
00000060: 8a4c 8e21 cd62 40bf 74cf 3c0e 79fe 3ebf
00000070: 48d4 f911 3fa3 5f3e 212c b490 ac43 143f
00000080: 3af8 451c be88 f03e c8c7 db13 110c f7be
00000090: facf c425 40f4 d23e 23d4 fe08 c2b6 1c3f
000000a0: 4b1f 7a0c 7d85 33bf 8c7d e2a5 9d45 023f
000000b0: c0b8 8da3 570b febe 0ae4 f7b3 4030 33bf
000000c0: fad5 ba7c d095 37bf a03f d3d8 e2c8 31bf
000000d0: 3023 5096 04c8 39bf d32f 583d 3dcc 34bf
000000e0: d269 67c1 663b dbbe b645 5476 b026 1a3f
000000f0: 0375 1ac4 ca14 2f3f ce4a a01c a030 65bf
00000100: 25a5 e519 b1d8 89bf 66a0 9639 9f3c acbf
00000110: 97de 9d93 e6dc cbbf 31ee 5267 2d50 4ebf
00000120: 2bec 7ad6 8410 553f ae90 edd8 cb73 523f
00000130: a267 db44 4e12 6d3f d1f6 06d7 4217 663f
00000140: 8030 70f3 2a1b 343f 3ba7 bcc4 826d a1bf
00000150: ad97 47f6 efee 92bf d691 a212 3d4f acbf
00000160: 682f 4256 00ef b3bf e210 5838 2a86 b9bf
00000170: fce5 b93a e41a c9bf 1021 854a ccf0 ddbf
00000180: 5fcf 7411 f668 f7bf 80c1 d489 2f0c 91bf
00000190: a49f 06bf 4c9d a8bf 8728 99e4 64bd 9cbf
000001a0: d974 003d df22 82bf 2596 1a2d 43de b0bf
000001b0: 5431 1024 86c2 d1bf 089e 898e e7ea f4bf
000001c0: 4bea e4bf 084d 89bf 92fd f3b2 a208 a2bf
000001d0: 2a7d 3fe2 6e9d a9bf 6e3f e9bb 4da3 b0bf
000001e0: 6f2d 744e 3559 c0bf c28e de98 b6a9 d3bf
000001f0: 4c5e 26df 88bd eebf b89d 916d 1798 6abf
00000200: bad2 c47e cfa4 95bf 0577 6bfb 3efc 84bf
00000210: 5247 2ea2 8121 5c3f d475 df32 4d94 9abf
00000220: 664f 75b6 e99d c1bf c2ee 6cd7 e16c e8bf
00000230: 667f 5e85 5379 7ebf 3a0c 9b57 5ba8 95bf
00000240: 6a74 9af3 f850 a1bf 5afe 529e 4476 aabf
00000250: a675 2d85 f7c8 bdbf 47cd 07c7 1306 d4bf
00000260: 57d4 c5b1 9ba0 f1bf 0afc 6159 5eed a4be
00000270: 55eb e230 57e0 e53e abe8 05ce c61d a53e
00000280: 10e3 97c1 0ad8 17bf 30ef a5da 917b 4bbf
00000290: 9849 7949 2b75 a0bf d416 bedd 8a5a e2bf
000002a0: 951f 852e d70a 92bf 57fd a65f 255e a6bf
000002b0: eab8 1ae4 a0a8 b0bf 6d01 4e4f ccbc b6bf
000002c0: 6f19 2c40 147b c6bf 0b34 2bed 548b dbbf
000002d0: 7083 5de7 2bd3 f5bf 8e8f 6298 6df2 82bf
000002e0: 6c0d e00d df87 a2bf 8049 c5f1 4262 91bf
000002f0: ad5a e443 9450 603f ab35 7c7f 109f a9bf
00000300: 7b95 17cd 9daa cebf ae24 fdbb bbe0 f2bf
00000310: 79ef 6fb7 a08b a0bf f917 a52c 0080 b4bf
00000320: e046 b6ec 8081 bdbf dce7 0bb8 2b23 c4bf
00000330: f925 f2af 83c4 d2bf 8c62 5994 166b e5bf
00000340: 709b 3a41 164c 00c0 ade7 da3e e616 a5bf
00000350: b0f8 c832 7266 b9bf 549e 9b8f 8753 b2bf
00000360: e5c4 fba6 fa55 a7bf 16d5 5a23 f998 bfbf
00000370: 49e3 ae5d 2023 dabf dbea db3c 294c fdbf
00000380: 0fd8 a731 7a2d 95bf fddd dd11 2449 aabf
00000390: 3076 7857 9663 b3bf 4c12 3928 fbb7 babf
000003a0: 0b29 e902 f180 c9bf c988 7ea1 5232 debf
000003b0: 51dc 1dba 8da1 f7bf b7f5 f6ef e726 99bf
000003c0: eb21 f231 cbdb aebf cd77 ae12 63d6 a3bf
000003d0: ca2e fc48 9bf6 93bf e06e 0eeb 7e8a b3bf
000003e0: 9a91 0ae2 85aa d1bf 7e21 6a51 40ed f4bf
000003f0: c360 0e02 b40a 89bf 28bc 7e5d 2e2e a2bf
00000400: a511 f945 a7ce a9bf 14b2 d94a 38f5 b1bf
00000410: c121 d9ce b429 c3bf 52c1 829f 0c8b d8bf
00000420: 6322 f351 df2c f4bf 1304 1233 81ed 78bf
00000430: 04ed 8260 1b56 9dbf ef5f ad55 239f 8abf
00000440: 328f 7302 5b5e 803f ed3d bd87 2d61 a3bf
00000450: 3f73 c4bd 9abf c9bf 784b d599 c858 f1bf
00000460: 586c bdc8 377e 91bf 9918 5754 5869 aabf
00000470: 24ce 1ea9 16ec b1bf 8a6a 79c6 faa0 b9bf
00000480: 8507 d0d9 e5df c9bf 0bd6 0d2f c4e6 dfbf
00000490: af6f 98af e12b f9bf c060 4840 f6bc 8abf
000004a0: e3c7 a78d 4dff aabf 2e7b c1f4 0b86 a1bf
000004b0: 3b40 2bb4 123e 83bf 651b 3be3 4b82 b1bf
000004c0: 8c8c 3fc0 9b39 d2bf 3a0f ddf4 2e3b f6bf
000004d0: 2cb9 0841 9ae6 70bf 2340 cc3a 3ccb 88bf
000004e0: c98d e8f3 0ec9 91bf 1b82 308c c8db 99bf
000004f0: 3106 7127 ba81 abbf a2f4 9a34 37c9 c2bf
00000500: f1a9 395c 05b0 dfbf bc23 6fbe a4fb 243f
00000510: c148 f249 9691 8fbf 096d 7a7f 405a 66bf
00000520: 6228 e908 efef 813f c069 977a ae8c 73bf
00000530: 430a 3dc4 d57a 9ebf 2189 d020 2bd0 c3bf
00000540: 678e 4f22 81cd 583f d676 1e42 69be 693f
00000550: 07ac e429 dfc3 683f c15f cc36 c72e 13bf
00000560: 30a1 db62 51ab 89bf 510f 07c6 dabd adbf
00000570: 0a3c 6fc5 de2d d1bf 0f4e d9c1 2149 f5be
00000580: cff6 5c97 be75 e1be 51fa 7d56 cda5 383f
00000590: 1bb2 197a 5f0d 3dbf 617e c91f a38c 943f
000005a0: e495 8335 fd2e ab3f f483 1986 f947 84bf
000005b0: 10f4 1834 3b9b f0be 9e14 6ded 03d9 35bf
000005c0: 2b70 dc69 9003 31bf 186e a7de fa58 32bf
000005d0: 2ba3 0318 5319 32bf 7151 6ce5 1a84 26bf
000005e0: b5bc 787f 95df 23bf b659 6e97 6370 00bf
000005f0: 71ec c5ad 6c5a f3be 8499 ff07 be30 70be
00000600: c011 b815 4b52 31bf c251 a470 db23 23bf
00000610: b1d5 5902 ece2 31bf cfad a566 d795 22bf
00000620: 0410 d432 324d 80bf bfd1 e412 5b9b 97bf
00000630: 30b8 9701 a95b a2bf 515f 2b83 2623 acbf
00000640: 30aa 33b8 d1a1 bfbf 9437 13c2 3a58 d5bf
00000650: 3c4e aa0e 31c0 f2bf 3ca8 fd35 24ba 02bf
00000660: 0095 dbb7 b550 5fbe ed60 632a 7493 183f
00000670: acb2 ed49 2cca 303f e1f8 de55 3ec1 50bf
00000680: d8f5 092a d0e2 a9bf 042f 521c 2ba3 e4bf
00000690: 1a8a e7e7 fecd 82bf 491c 3a74 a2e3 9cbf
000006a0: 73b9 7081 fa14 a6bf 97dc 0fea 2d91 aebf
000006b0: a790 9c9f dba8 c0bf 984e 0882 650b d6bf
000006c0: 83fb 0bd7 146f f2bf 4aae e35a 240d 60bf
000006d0: ba77 dbe3 7eca 99bf 3e57 458f 09c1 82bf
000006e0: 6297 70e7 e5af 873f d936 22d4 990c 9ebf
000006f0: 9f1c 2b5a 2cb7 c6bf aee7 08b5 6917 efbf
00000700: ee50 2caf c633 91bf 51ca 8d00 bcad a3bf
00000710: c95f 8ae1 0d31 adbf cac3 0c1f 2e33 b4bf
00000720: 5d1b 1dee 6535 c4bf 71ec b0c1 aecc d7bf
00000730: e769 3561 6f5e f2bf 0974 a6e5 5814 74bf
00000740: 117e 6ddd c0f9 99bf f1b1 2d2b eed2 84bf
00000750: 2114 3646 3618 443f 583c 0bd2 0be4 a3bf
00000760: 2d6f e900 c844 c9bf cc67 6e02 8e80 efbf
00000770: ccd4 2e08 adb8 5e3f acaf 9fad a472 733f
00000780: 3460 3e6d 2e8a 603f da9b a1a4 5eab 77bf
00000790: ae70 a94e d2fb a9bf d111 0daa d0eb c6bf
000007a0: 02de c6ce cee9 e5bf aacb 7cd9 299d 583f
000007b0: 30c4 4949 0ef2 0d3f 6bc0 ca1e b46b 463f
000007c0: 2567 003e cc28 6d3f fd17 b6ce db82 91bf
000007d0: b9a4 6466 70b9 b6bf 2267 d91a 4f62 debf
000007e0: 665a 3ad5 d1d7 733f 006e 551d 3105 883f
000007f0: 09bf 5168 71ee 8f3f 53c8 9b6d 7e1d 923f

exp_avg_sq f8 [28, 14]
1.143308243199456e-05 1.137008594193683e-05 1.1371230038872213e-05 1.1409855737548487e-05 1.1438651978955522e-05 1.138531477809119e-05 1.1393210930015102e-05 1.6534339517129496e-10
7.072696065595987e-10 4.0234172478897205e-08 1.1347830443053021e-05 1.1381818299433497e-05 1.1355623255419183e-05 1.1380826234270359e-05 1.501995881226518e-11 4.6394269454600394e-08
4.237104811761444e-09 3.092637643850997e-08 2.701062291442137e-08 6.687785032928202e-08 1.1199628618287075e-06 3.395523842013398e-08 1.8800184833102387e-08 1.1202845039425947e-06
1.1157605510351704e-06 1.1375527625338271e-06 1.1131014614492342e-06 1.137838910382123e-06 1.4680011400284203e-09 5.7334257268627144e-08 6.923163012359917e-05 7.04996914769453e-05
9.056584358721522e-05 0.0003290455179516926 0.040092024337673095 0.0365642885860214 0.03685856528289288 0.03685653181255924 0.0369530011601958 0.0369414231893989
0.03690945545002833 0.037470907548680654 0.2598828864408457 0.5616073635982084 0.7226420234131404 0.928375889725326 1.1769340251116687 1.4160357041197913
1.7528208617585463 1.0808882158982376 1.79066974836955 1.8528726038627215 1.8823776781820325 1.925617828362757 1.9959278755411645 2.260181555652373
0.09125344951552773 0.15375258801066674 0.21923831384986547 0.3391151066906496 0.47121218837335777 0.5109728317501526 0.5830429024209927 0.22709445228995842
0.5206954618213786 0.5461901199777843 0.5562067739869558 0.5710842360264456 0.5911321528104374 0.68854981998799 4.978000635427599e-05 0.00013228289339240268
0.00019654265110582953 0.00028277121188190787 0.0009422348762549566 0.005828742186218884 0.07020910847810012 4.984562582402618e-11 3.3253374055604847e-09 6.601141816627407e-11
2.269949997993571e-05 7.475687143891718e-05 0.001860672938359376 0.08693638753528793 0.08842417101824503 0.17442323442785046 0.2556151381627648 0.331655954439784
0.4939192631224316 0.672811220668439 0.9217682075414405 0.38618205293753594 0.9117993672907828 0.9637383014891789 0.9910560598259807 1.0259714557163293
1.0824069324858905 1.3044566941975617 0.7727685892405822 2.648099322140701 4.016989558820293 4.937124988058351 6.014471751725327 6.935467558730536
7.99887207679383 6.166380225620353 8.495619343513612 8.610088508130843 8.66893327838898 8.75212229142231 8.882679028164164 9.388598348573593
0.2823484710604718 0.9875969118055004 1.7639562658223644 2.067380172896359 2.3875441926422494 2.6626360330364727 3.0286694864930537 2.2401298999760604
3.0934163669220562 3.1542272083561853 3.1872854063370477 3.229603035402848 3.295742148110311 3.562429738689484 0.054877543750068335 0.11421230935540225
0.1743982274063686 0.24616332444398942 0.3169580422097011 0.42459108192861567 0.6110134536601739 0.14664958772775322 0.565324041364016 0.6084070406004931
0.6378358686567585 0.6640255905394837 0.7108051280045791 0.9084339285410915 0.1675825800083272 0.360624729452184 0.5211246612008155 0.8129808801295675
1.1430964273671613 1.421153096629551 1.8251748478601821 0.8779787120494961 1.90195729476259 1.9626531221542 2.005605725625362 2.053985638422549
2.131906564602519 2.4407503447340546 0.003092927831184375 0.02314036760593593 0.04361670098259089 0.06695506247309141 0.12216085714463788 0.16810757717918687
0.20542311397026916 0.04449686734756825 0.18149457328227572 0.2045288317309756 0.21410729713178253 0.2195403734432024 0.2206273476824264 0.22416377284934863
0.00017034154916045806 0.0003331126780137554 0.0004753248840900684 0.0006155214368321777 0.0007736881978246217 0.0013509663529257452 0.008027977185356014 2.1223689562070204e-08
6.017287868492354e-09 3.4309068534182473e-07 0.0009528609825273 0.006461029695298848 0.00817223244147778 0.010306967826183278 4.294358538650052e-09 3.114126471186559e-07
2.8296472621349304e-07 2.8094399186662386e-07 2.812776970845428e-07 3.082011379725978e-07 2.9672235703397285e-07 1.7813623395895125e-08 2.1696935220945717e-08 4.322282883832715e-11
3.2757024039166437e-07 2.979377704771348e-07 2.8391200784593157e-07 2.9975388796316464e-07 0.00010523120599067375 0.0002454053608837482 0.00034458123350829625 0.0004544788923313546
0.0011992468737495364 0.006750917375246461 0.07907571240148407 1.4957118052305675e-08 6.991021299385786e-09 5.3702637114716664e-08 5.467226672873006e-05 0.00016338009398377326
0.004597967884326085 0.10590928721211365 0.03614026562327641 0.07750067148132952 0.12656915220064197 0.18829487067453432 0.24853972553664616 0.3164229471752593
0.44857607733003013 0.0442229015503725 0.3819013948714735 0.4174872050134354 0.4474943689611076 0.46859125206710983 0.5071297913254056 0.6692226043820734
0.2740505603424161 0.39432564196155834 0.44878389389946544 0.5552742041159523 0.6698717533089973 0.7693323519444704 0.9258849096508166 0.6021370624009182
0.9144709825756774 0.9438753262965636 0.9572022396448073 0.9832177302491516 1.0216607981732606 1.1759100178475281 0.2364400368235377 0.346475844368068
0.3463387452304211 0.3463471736818857 0.3471723408779635 0.3599348749636942 0.3857846688410612 0.34786589968770754 0.35558940026053504 0.3563581472683432
0.3574878849742406 0.3614475728189871 0.36958654751509107 0.4133829442965016 0.0002743136182975245 0.0005270347580058895 0.000712500527204942 0.0008645489523621924
00000000: 8eda 68e2 16fa e73e f08d 76b6 44d8 e73e
00000010: 419e cbf4 e1d8 e73e eff2 bfa1 9eed e73e
00000020: fa16 6c5b 14fd e73e ee36 80bf 71e0 e73e
00000030: 5ff0 a5fc aee4 e73e 6919 e0e7 80b9 e63d
00000040: 998b 7a91 354d 083e 8ff6 5d18 be99 653e
00000050: 2598 b5f0 51cc e73e 3941 1832 91de e73e
00000060: c654 ebf9 80d0 e73e 1ea8 e7d8 08de e73e
00000070: a81f 3518 be83 b03d 7c77 413d 61e8 683e
00000080: f10b 6cfa be32 323e a00c cf22 7d9a 603e
00000090: 9373 2b9d 9f00 5d3e e181 d295 cff3 713e
000000a0: 8035 7330 34ca b23e 0b40 31be c53a 623e
000000b0: 3eab a265 c12f 543e b413 a8d6 95cb b23e
000000c0: ef06 1eb3 27b8 b23e ce62 577d c015 b33e
000000d0: 1a22 f0ff bbac b23e 90df cc1c fb16 b33e
000000e0: 9012 c858 5638 193e c552 57d7 f5c7 6e3e
000000f0: 2bb9 5259 0e26 123f 9253 227a 277b 123f
00000100: 22f8 6958 c5bd 173f cb32 0ebd 7790 353f
00000110: 2db3 b81a f186 a43f 2860 5bef 8db8 a23f
00000120: ef5c ef38 20df a23f 54cf 8efd dbde a23f
00000130: eab5 f1f6 80eb a23f 16ad ee78 fce9 a23f
00000140: 705f 24d0 cbe5 a23f 1030 f204 632f a33f
00000150: c66c 83d4 eba1 d03f 541b 7b01 b0f8 e13f
00000160: 61ca 282a e21f e73f 567c 985a 41b5 ed3f
00000170: d977 b6c5 b8d4 f23f fa9a f20d 15a8 f63f
00000180: edfd 4fe3 8d0b fc3f afa2 1e71 514b f13f
00000190: b5f0 7252 95a6 fc3f 81ea 53be 5da5 fd3f
000001a0: 2532 680e 381e fe3f f099 d6a3 54cf fe3f
000001b0: 26fc 6911 52ef ff3f 1065 4411 da14 0240
000001c0: 31fe 50d5 625c b73f c130 9730 2aae c33f
000001d0: 30f7 0146 0010 cc3f 8e37 34d9 0fb4 d53f
000001e0: 0892 a22a 5728 de3f 855d 30b2 e359 e03f
000001f0: c604 c296 49a8 e23f 9d1d d856 6e11 cd3f
00000200: 9a59 7687 89a9 e03f 287e d6b3 637a e13f
00000210: f0cd 0226 72cc e13f d2d4 9f72 5246 e23f
00000220: baea fdf9 8dea e23f bc7b d0a1 9908 e63f
00000230: 24cf 89fe 5b19 0a3f 81b0 e166 ad56 213f
00000240: f253 7d84 e0c2 293f 6ce7 761b 1d88 323f
00000250: 77ea 44fd 09e0 4e3f 0ee6 1011 e1df 773f
00000260: 2775 cb60 39f9 b13f 7d85 62ef 2567 cb3d
00000270: 1337 9e89 7e90 2c3e bac6 36fe 2325 d23d
00000280: 9222 c3c2 59cd f73e 41ec 9c45 d998 133f
00000290: 9bb6 cd5a 3a7c 5e3f bce3 4b8d 7641 b63f
000002a0: 9503 b36a f7a2 b63f 40dc c323 8053 c63f
000002b0: d661 b198 ff5b d03f 26ec 75e5 d939 d53f
000002c0: b46a 7e8a 5f9c df3f 9de3 a465 ab87 e53f
000002d0: c341 3c0a 207f ed3f 90ce eaed 34b7 d83f
000002e0: 7fe0 e0dd 752d ed3f 3a8e d9b4 f1d6 ee3f
000002f0: 0d91 ae32 bbb6 ef3f fae5 8e0b 616a f03f
00000300: 6ad9 7fee 8951 f13f 6007 8afb 0ddf f43f
00000310: 6c42 4531 85ba e83f 8e3b 89b2 4e2f 0540
00000320: c906 feb5 6511 1040 69e6 5fb1 9dbf 1340
00000330: 2381 d1ae d10e 1840 cfdd 2c35 ebbd 1b40
00000340: 50de 5a52 d8fe 1f40 4af6 ee93 5faa 1840
00000350: d94f 8fd1 c1fd 2040 c02c 5c85 5d38 2140
00000360: 02c6 336c 7e56 2140 b880 482c 1681 2140
00000370: 09a9 6d81 eec3 2140 6fce dc5c f6c6 2240
00000380: e8f0 5152 ff11 d23f 20ba bad6 649a ef3f
00000390: 5c80 9434 2a39 fc3f d5e8 b79d fe89 0040
000003a0: b939 09c5 b019 0340 b557 d81e 144d 0540
000003b0: d60b 5711 b73a 0840 ee82 9939 c9eb 0140
000003c0: 1fbb 8614 51bf 0840 7658 8079 db3b 0940
000003d0: b2e2 b97d 8f7f 0940 c5f0 c01d 3ad6 0940
000003e0: e975 310f ae5d 0a40 d7c0 af29 db7f 0c40
000003f0: fbf8 61cf e818 ac3f 166a 7b95 043d bd3f
00000400: a569 985d ae52 c63f ca14 fba1 4782 cf3f
00000410: afab 5f62 0a49 d43f 55a0 c312 802c db3f
00000420: de5d 1c16 6c8d e33f 529c a1e7 69c5 c23f
00000430: cba1 a971 2217 e23f de20 c10a 1278 e33f
00000440: c416 83c4 2669 e43f 995f 6298 b23f e53f
00000450: f87a 5365 eabe e63f 2f25 b507 e411 ed3f
00000460: c6ed 4192 5873 c53f 0710 c8be 7914 d73f
00000470: 01e4 1fa0 0dad e03f d4c0 8d7a f003 ea3f
00000480: 5d76 bb7a 1f4a f23f f820 8a07 0bbd f63f
00000490: fea8 908a ea33 fd3f f5c6 dacf 6618 ec3f
000004a0: a54d b6c5 6a6e fe3f 9cb6 d0f5 0667 ff3f
000004b0: a9d9 c103 7b0b 0040 07d4 bb05 906e 0040
000004c0: a5c3 6807 250e 0140 fdaa e21d a886 0340
000004d0: 934b 48fc 5656 693f 56f3 56c8 1bb2 973f
000004e0: d62c 8fa0 ed54 a63f eca1 9f8b f723 b13f
000004f0: b99c 4916 ef45 bf3f 37e2 1891 8c84 c53f
00000500: f921 2cfa 4d4b ca3f d883 101c 4bc8 a63f
00000510: 810d 53d4 363b c73f 05d3 af31 002e ca3f
00000520: ff0a 822f de67 cb3f 0f8b 0b22 e619 cc3f
00000530: 631a 7355 843d cc3f 98ff aa04 66b1 cc3f
00000540: 1098 fdc3 b653 263f 30f2 d50e b4d4 353f
00000550: 4d3f 07d5 a026 3f3f 959f 7838 5e2b 443f
00000560: 56ff e3c0 2a5a 493f dba9 7113 5d22 563f
00000570: 188e b6db f870 803f abd7 9c61 ecc9 563e
00000580: 6cea 6ff6 13d8 393e 0439 aaca 4006 973e
00000590: aaae f860 2d39 4f3f 9a31 d673 e176 7a3f
000005a0: 3458 9278 9abc 803f 5a03 e0cd d11b 853f
000005b0: 133a 3b78 b271 323e 1469 614e 07e6 943e
000005c0: 652e e206 4cfd 923e cb47 45be 94da 923e
000005d0: d7c3 f164 50e0 923e 3c3a 88f0 daae 943e
000005e0: 4686 24ba a6e9 933e 6c61 c04e 9220 533e
000005f0: fd28 8115 024c 573e bd76 dc86 12c3 c73d
00000600: 3132 2427 9dfb 953e 4b6d 062c 88fe 933e
00000610: ac6b 2f37 920d 933e 9e8f 888a bb1d 943e
00000620: 28d6 5d5a f295 1b3f 546c cfff 3715 303f
00000630: 43ad f420 1d95 363f e973 b2fa e3c8 3d3f
00000640: 94be 9086 01a6 533f f8d0 8395 d9a6 7b3f
00000650: 431a ac4e 4e3e b43f 35c9 259d 610f 503e
00000660: 3b9f b38e b506 3e3e 2d4f ff90 d5d4 6c3e
00000670: 2981 e1c7 fca9 0c3f 7e22 2a52 206a 253f
00000680: 7750 0f9b 51d5 723f de2f ebfc de1c bb3f
00000690: 4c69 d715 fa80 a23f 6e2b 6e81 15d7 b33f
000006a0: 962d b100 6b33 c03f 449d c6db 0b1a c83f
000006b0: 28e6 7754 26d0 cf3f 5096 7408 4640 d43f
000006c0: eaa0 796f 78b5 dc3f 7741 c957 62a4 a63f
000006d0: c343 518c 1271 d83f 66fe 0141 1cb8 da3f
000006e0: 5e41 f56b bfa3 dc3f b879 b429 66fd dd3f
000006f0: cc3c 9241 683a e03f 1514 f285 456a e53f
00000700: f3c0 875c 0b8a d13f 07be 0c9e a13c d93f
00000710: 6343 d114 e0b8 dc3f b7b1 5f68 cec4 e13f
00000720: 0a3e 1fe3 966f e53f 8066 6be1 5e9e e83f
00000730: eeec d963 d9a0 ed3f 2916 d7f1 b444 e33f
00000740: 70b6 69a6 5843 ed3f 023e 3e07 3a34 ee3f
00000750: 3dd6 5d97 66a1 ee3f 008f 8807 8576 ef3f
00000760: 8c26 3cfe b858 f03f 411a db05 87d0 f23f
00000770: f6a1 cfc8 aa43 ce3f b48c 1a05 a92c d63f
00000780: a68c 06fc 692a d63f 94a5 0156 8d2a d63f
00000790: 2d62 8956 1238 d63f ad2b 2a49 2c09 d73f
000007a0: 761d fe2d b2b0 d83f 3859 a355 6f43 d63f
000007b0: 8f16 3b0b fac1 d63f 5b90 0b67 92ce d63f
000007c0: 838e abdd 14e1 d63f e278 1e00 f521 d73f
000007d0: 819b a755 4ea7 d73f 0c92 9ebc dd74 da3f
000007e0: 24b6 f904 38fa 313f fdb4 5586 1645 413f
000007f0: abab 3a3b e358 473f 61af f3bc 5c54 4c3f

exp_avg f8 [28]
-7.031987555359152e-05 -0.00028197023205927684 -0.9719748778499553 -5.87091601738717 -3.9352150032770052 -4.989484796386524 -5.562878287158028 -8.10877094151069
-5.9752867947321775 -5.2185099085415985 -6.379268748976756 -0.5177066444521812 -1.4081062443817278 -0.00022588657614363563 -5.283957859620046 -4.812243327825572
-4.626906609326091 -3.087655863909264 0.1269989214130082 -0.0002734735991815646 -6.559581337353003 -3.6757452723807806 -0.0013557180296692986 0.00029592744444623944
0.4743911517901656 -5.0867501605937075 -6.313966077810286 0.17908188740903477
00000000: 3ef9 5643 166f 12bf b4fb d5ec ac7a 32bf
00000010: dcc5 1c0f 6b1a efbf 3cf6 9068 d17b 17c0
00000020: 196d ee00 527b 0fc0 347a a180 3bf5 13c0
00000030: 8fe3 6b2a 6340 16c0 4b16 29d3 b037 20c0
00000040: a861 de94 b1e6 17c0 0827 bc0f c1df 14c0
00000050: 0000 e506 5f84 19c0 3202 5b86 0d91 e0bf
00000060: 429b ce69 9a87 f6bf 308f 0eea 7e9b 2dbf
00000070: 810a 62d9 c522 15c0 c29e 05b7 bc3f 13c0
00000080: a7ce 62ce f381 12c0 e457 e6ea 84b3 08c0
00000090: 754e 0c2b 8041 c03f 349c 302a 20ec 31bf
000000a0: 4988 dde3 023d 1ac0 a16a 2a23 ed67 0dc0
000000b0: 77d8 6626 4b36 56bf 988c 25b2 d664 333f
000000c0: 89d5 9cb4 6c5c de3f deb0 ba08 d558 14c0
000000d0: 89fe d052 8041 19c0 3127 ddc0 27ec c63f

exp_avg_sq f8 [28]
1.1438644321364481e-05 1.1594527487306089e-06 0.09679073379853594 3.5864002872831175 1.3289907533498315 1.3616107663885777 2.5308877910171343 11.895982491244025
4.954255447457326 2.0032771398779747 4.0239394342418064 0.23348246402029715 0.14158261135648217 3.189334902792279e-07 1.5136801265798816 1.6143799100995353
2.018088735537238 0.8618353720122713 0.0170002218018385 1.1653200591545202e-05 4.9881048877049565 1.4127911335769792 0.033864182109131086 2.7212687011736434e-06
0.05645505876410447 2.3268769993172795 4.591778951063731 0.02612376826559049
00000000: 35a4 fe4d 13fd e73e 9c30 72c7 cf73 b33e
00000010: 3576 380c 47c7 b83f ccf7 41a2 f2b0 0c40
00000020: d02e e5ce 8b43 f53f b653 f85e 28c9 f53f
00000030: 3c1d 2219 423f 0440 075d 9337 beca 2740
00000040: ae6f 0b57 28d1 1340 74cd 442a b606 0040
00000050: fb9c 3c94 8318 1040 dc0d 94dd c0e2 cd3f
00000060: d7ab ba06 611f c23f 678f fe52 3c67 953e
00000070: 7040 04a7 0838 f83f 9a26 5307 80d4 f93f
00000080: aa77 fcb4 0b25 0040 b484 2ac6 2794 eb3f
00000090: ea91 a792 8168 913f 6383 a3b1 4370 e83e
000000a0: 98d7 86c4 d1f3 1340 98ab 2ce0 ca9a f63f
000000b0: 2c3a 5465 a556 a13f 19a5 244a e1d3 c63e
000000c0: 0bd2 2b6e ade7 ac3f 030f 2fb0 719d 0240
000000d0: a01e 254d fb5d 1240 a15e 6569 30c0 9a3f

exp_avg f8 [28, 28]
-3.8234601130987977e-07 -1.5888614590236414e-05 -4.913531688848169e-06 -0.00046823469518623506 -0.0002914048654936186 -2.7180584311793243e-05 -0.0005914305800036818 -0.0003265026969224872
-6.145155392055864e-05 -0.0004005125385894868 -3.327229740555497e-05 -0.0004476769966590869 6.9074097496444276e-06 -3.9167079612781255e-06 -3.538084391860197e-05 -0.00037469537116880595
-0.00033570877343316744 -3.565551150936577e-05 -2.661932197864773e-07 -2.324447143432223e-05 -0.0002892696502523764 -0.0005829274947287761 -3.301997902503157e-05 6.603894434912632e-08
1.370119193555207e-05 -0.00047394176992302645 -0.00022904420481514021 3.612251550506313e-06 -2.6227949954297996e-06 9.062936600846215e-07 1.6523366546537518e-05 -0.0003589501288062396
-0.00047275100867205677 3.2400947419074986e-07 -0.0005326420341429422 -0.00017295596046271595 -0.00014041126856807287 -0.00030458897384879035 -0.0005769758052522611 -0.00038821599688599565
-1.4713188249276702e-06 3.3004975020622276e-05 2.8963862864418913e-05 -0.00033725095940323414 -0.0001829484023463519 -7.43207771939963e-05 1.9796125831921053e-05 2.8324680568922494e-07
-0.00033709786463799327 -0.00015912352842107795 1.559961002996296e-05 1.9909820894316256e-05 1.0658097050364797e-05 -0.0005743872261191456 -0.00034558134969479875 -4.505504113352071e-07
-3.5011319604512466e-05 1.818665974546038e-06 1.588841153591188e-05 0.0007292018028767973 -0.00011093478695355175 -8.925262335295145e-06 -0.0003564683625122228 0.0002278146214886838
0.0005523026771361039 0.0005811842315813244 0.0009028987777365256 7.99871391297146e-05 8.476726298114371e-06 -4.9576007417965e-06 2.5506552571741455e-06 -0.0007950702897604497
-0.0009030240633779742 7.903554019345705e-06 8.32234128840043e-06 -1.5582536969324166e-05 -0.00020418299393478454 -0.0003801911597572533 6.902983427085547e-06 1.354434460989476e-05
-3.157167428207601e-05 0.00010826107293168218 7.191381704780336e-05 7.70285319052176e-06 6.452915879563456e-08 2.015388111972087e-06 -4.169014021716323e-06 0.002245614867500243
-0.000916973689047665 1.6996641679298833e-07 -2.7083086014719987e-07 -0.0003408137548907187 0.0021962255497879344 -1.7429519292285285e-05 0.001909310993806154 -1.4469975799060845e-05
2.368667179964956e-07 -3.525024313251188e-09 4.676353702415424e-06 -2.8200145074414905e-05 0.002140580294670893 -0.0015023109292372253 6.247511629923228e-06 -2.1115590839678673e-05
-0.0010262271648438025 0.00012206329148335376 1.9838331325089777e-06 2.646547205846458e-05 3.748528077417857e-06 -0.0016935006071994983 0.0014746543320062469 2.2004825260434704e-05
-3.0799849089738364e-06 1.0623264549424826e-05 5.8783092794272794e-08 0.014718376264083123 0.003356469721835849 -1.5986014192416406e-05 -8.209623722494685e-06 0.012812201720659671
0.009800383177922574 3.577638264271188e-05 0.03625098510498657 4.89777165204428e-06 -1.29437928842796e-05 3.0352180551487783e-05 1.8431867219049522e-06 7.138067373854109e-06
0.01770131302500684 0.003515552290747025 -3.0022675339811427e-06 2.4082192800524675e-07 0.003757412519009927 -0.0008773398705499133 1.022712437017466e-06 -3.506032728619452e-05
1.3838076485530336e-05 0.003925243405279522 0.007991801218115734 -1.3232296756679918e-05 -0.0003860092257941748 -0.0002899353879677701 -0.18909351346027392 -0.718432104429946
-1.3552263148763148 -0.8670612938053371 -1.2042424735521984 -0.9436236680591805 -2.5245121451810704 -1.2526925674768499 -1.7473908023445497 -0.11699868555905402
-0.2220185249884602 -0.0005292821687174257 -1.0455528167955639 -1.3569612491520155 -1.6217135017601203 -0.6870199826871959 -0.15023182600755516 -0.0003511516499328627
-1.3219011760086916 -0.7994396447525205 -0.0009431470867507878 -0.0002351754776662391 -0.285246126056839 -0.9035613918137615 -1.6807312882732859 -0.18280335532593672
-0.00023444395580606768 -0.00037926789487598524 -0.1408658732076013 -0.46346531967790533 -0.9973731035367097 -0.6467324773852627 -0.8846498099265849 -0.629485477559201
-1.8435371593956962 -0.9392956504170019 -1.2149238582075639 -0.07802687764400636 -0.15341606668788227 -0.00026734356893854544 -0.7729044340464015 -1.0135999466696706
-1.1979023490957696 -0.5065177423861691 -0.10055008554587982 -0.0004568107289391661 -0.9529505006578441 -0.5867597777120122 -0.0002711396305746476 3.80276775642432e-05
-0.19558948792823003 -0.6296524224014407 -1.2030996579269737 -0.12270425475279528 -2.571042424514268e-05 -2.8054944652969684e-05 7.878369279248981e-06 0.0007002900311966848
-0.00015721984713985674 -6.26711521079033e-06 -0.0001821122706234888 0.00032294693549429944 0.000809117687331019 0.00039183723619644193 0.0009481216808325484 -2.4311253043900996e-05
-1.7595187452369826e-06 -3.5129118134695496e-05 -1.4709854725553436e-06 -0.0004219825654444629 -0.001183359625309187 2.769369151091561e-08 1.6550331366712573e-06 2.4085406114905882e-05
0.0008431300390597034 0.00025629499983940426 -2.6439116967499738e-05 -2.5363723589620928e-05 3.049564418108812e-06 0.0004532236937219683 0.0005786652046133624 -3.536897063748431e-05
-3.2300755178476426e-05 2.4386557111900073e-05 -5.068995552198629e-05 0.01619389692945759 0.009918334518867254 0.002687171111812644 0.005031551037690024 0.012941992142660848
0.022248143788563716 0.0035555614675005 0.022055713887406875 0.0053140191479223355 0.010790531683057375 1.2265396019023788e-05 0.004328817613663583 0.0035507087636363266
0.0017620148725561444 -0.0003719651335871053 0.012310283875440505 3.517208286446117e-05 0.009132329240030466 0.0140569374046346 -8.027418476939839e-06 -1.60488597954513e-05
0.01478128871050152 0.01488853484371359 0.012431614275643437 0.012572466336170639 -0.00043068447467727863 -0.0002693514335865093 -0.18037475587723428 -0.609941244783336
00000000: 0af4 838a a7a8 99be ab05 dc47 11a9 f0be
00000010: 03e1 6b4e dd9b d4be a8aa e2b3 acaf 3ebf
00000020: 2a30 005e f618 33bf ed4d 0288 3b80 fcbe
00000030: c840 de7f 4761 43bf 3539 c467 ce65 35bf
00000040: d07d 52a8 f11b 10bf 30cd 3f41 7c3f 3abf
00000050: 77b5 0a6f bb71 01bf 4e83 500f c656 3dbf
00000060: 3b60 9a55 c6f8 dc3e 92b9 8b7c 886d d0be
00000070: 4cef 4f8a bc8c 02bf 8c54 795d 588e 38bf
00000080: e8a9 ef33 4200 36bf 5ea4 fd0b 9ab1 02bf
00000090: 7517 5c29 2add 91be a909 fae9 a35f f8be
000000a0: 23e3 03b0 23f5 32bf 4364 4d43 f319 43bf
000000b0: f674 18d7 dd4f 01bf 7ea4 2965 29ba 713e
000000c0: c8f7 1e7b c5bb ec3e 7c4a eb66 6c0f 3fbf
000000d0: c91a f0bc 7205 2ebf 3ca1 864a 404d ce3e
000000e0: ddb1 20cc 6800 c6be 100d bbd5 0069 ae3e
000000f0: 7ae4 5d1a 7553 f13e f505 6a10 2f86 37bf
00000100: 04e8 131f 72fb 3ebf dab7 cebc 70be 953e
00000110: 24c0 fd0e 2074 41bf 9a6c 3e63 70ab 26bf
00000120: 5539 ec9c 6b67 22bf 2f69 70ae 27f6 33bf
00000130: 00ff 681b 06e8 42bf 9230 aa02 2f71 39bf
00000140: cdff fa27 44af b8be 9e1f 7a4e da4d 013f
00000150: 3c68 1380 ed5e fe3e f6ab 57d7 211a 36bf
00000160: db61 53cf bafa 27bf 1d31 d73a 957b 13bf
00000170: e404 9868 fbc1 f43e 7c93 23a0 2402 933e
00000180: e730 de4d 9017 36bf 72e1 80b3 4cdb 24bf
00000190: f510 de09 7d5b f03e f0a7 4879 80e0 f43e
000001a0: c200 61b4 055a e63e 7564 fb2c 4fd2 42bf
000001b0: 05fb 5498 e4a5 36bf 8874 26aa 653c 9ebe
000001c0: db50 12c8 235b 02bf 556e d462 1c83 be3e
000001d0: 4fa4 b053 03a9 f03e b50e a1f2 fce4 473f
000001e0: 3a9c b820 b514 1dbf 99d6 feb6 b6b7 e2be
000001f0: ae36 84f5 8b5c 37bf 95bf 9bb2 30dc 2d3f
00000200: 140f c8f7 0c19 423f 167a 40a2 530b 433f
00000210: f2bb 695c 1096 4d3f f1c0 2e96 d8f7 143f
00000220: e604 2b64 e8c6 e13e 2aa0 55ea 2ecb d4be
00000230: a414 8e8e 7d65 c53e 1cd4 3e72 880d 4abf
00000240: 163d ec68 1d97 4dbf 16db 7031 3093 e03e
00000250: 9e94 8ae0 0574 e13e 0989 68c9 e756 f0be
00000260: d002 0d90 3ec3 2abf 2a45 ee98 8cea 38bf
00000270: 64de d7a2 05f4 dc3e 0233 748c 9067 ec3e
00000280: 2f1c da77 7a8d 00bf a776 1812 4761 1c3f
00000290: bed1 2af8 0dda 123f 000c cd14 7027 e03e
000002a0: 5aad 81f7 6852 713e e4ac f054 03e8 c03e
000002b0: e7d0 2ad9 717c d1be 7b57 4a4d 6565 623f
000002c0: e87c bc00 220c 4ebf a4cd aa69 00d0 863e
000002d0: 14b8 35b8 d62c 92be 4989 68ee e755 36bf
000002e0: 02bd 269d d1fd 613f 9efb 0d72 b346 f2be
000002f0: 25bf ae11 3b48 5f3f c96b a154 8258 eebe
00000300: 18e7 73af adca 8f3e 004c e045 9c47 2ebe
00000310: 5c9a 5e51 329d d33e cced a036 eb91 fdbe
00000320: ecb8 854b 1f89 613f 91cd ce13 269d 58bf
00000330: 740f a2eb 3634 da3e e448 7d5a 2c24 f6be
00000340: 1e10 1f07 4fd0 50bf 1603 3e61 87ff 1f3f
00000350: 52a9 62cc 3fa4 c03e 74af 3464 45c0 fb3e
00000360: db2c a51a e771 cf3e 7abd 506e 0ebf 5bbf
00000370: 7c6e 3f08 2629 583f 223f db13 e012 f73e
00000380: fce3 429c 37d6 c9be e67e b45c 5247 e63e
00000390: 40a2 9b35 168f 6f3e c1bb a205 ab24 8e3f
000003a0: 90f8 edf5 067f 6b3f 221b c887 36c3 f0be
000003b0: 46f5 c217 8237 e1be 4337 0a9b 483d 8a3f
000003c0: 174a e629 3912 843f d530 b925 d3c1 023f
000003d0: dd88 f236 7d8f a23f 9e5e 6c38 f18a d43e
000003e0: 12ce 1459 2525 ebbe f98f 1df7 99d3 ff3e
000003f0: 5020 9f3b 6dec be3e b223 f404 71f0 dd3e
00000400: 5497 2702 4b20 923f 9763 b7c3 a5cc 6c3f
00000410: 9e6e 1a08 522f c9be 6088 4e0a 4a29 903e
00000420: b014 607c ddc7 6e3f f32e 9706 a9bf 4cbf
00000430: fe24 6437 8428 b13e f0cb 32ac b761 02bf
00000440: 8784 0fc0 4205 ed3e 5a4b df80 ea13 703f
00000450: 8c8a f166 015e 803f 6d47 ad04 09c0 ebbe
00000460: 8283 3000 294c 39bf b7d2 5f02 4f00 33bf
00000470: 5c4b 195c 3734 c8bf d489 1d53 65fd e6bf
00000480: 6e28 d1c9 01af f5bf 11af 9053 f7be ebbf
00000490: fdc5 85c1 9344 f3bf b476 4143 2a32 eebf
000004a0: 9042 6f6c 3332 04c0 e315 945c 070b f4bf
000004b0: aa6a d60e 50f5 fbbf 18b0 2638 a0f3 bdbf
000004c0: 843e f75f 1a6b ccbf 2c8d 70cd f057 41bf
000004d0: c20a 2697 95ba f0bf 64c1 b0ff 1cb6 f5bf
000004e0: 64a9 58db 89f2 f9bf 38e1 aa54 11fc e5bf
000004f0: f5a9 c2e5 cb3a c3bf cec2 36da 5803 37bf
00000500: 3405 f8d8 8126 f5bf 5ad0 2a73 0295 e9bf
00000510: 56f3 4af2 b0e7 4ebf 4a0b 86f8 2dd3 2ebf
00000520: 6763 aef7 7841 d2bf 4e96 7894 f9e9 ecbf
00000530: a0f6 c77d 46e4 fabf e8aa 5cb0 1966 c7bf
00000540: 16ef f03e a2ba 2ebf 4651 7534 0fdb 38bf
00000550: e649 4697 e407 c2bf c931 b671 6aa9 ddbf
00000560: c234 b3ff 7aea efbf 362f f44e 08b2 e4bf
00000570: 7883 411e 0d4f ecbf 098f 6dba be24 e4bf
00000580: 480b 09d2 207f fdbf 431d 7ac0 b50e eebf
00000590: 261b e2ff 5370 f3bf e5a3 b0c7 91f9 b3bf
000005a0: 0e7e 8d3e 23a3 c3bf 82b8 a8e2 4785 31bf
000005b0: b434 6514 a2bb e8bf fbc6 e293 b437 f0bf
000005c0: beaf 52a7 9b2a f3bf 208e 4cb2 6435 e0bf
000005d0: fe90 0781 a6bd b9bf 5f54 2924 03f0 3dbf
000005e0: 5508 610c 927e eebf ca33 fc70 bcc6 e2bf
000005f0: b655 91d8 f7c4 31bf a70b 460d fdef 033f
00000600: d7eb 0b8b 1309 c9bf b5f6 41d6 1c26 e4bf
00000610: 9200 4a6d e53f f3bf 7449 3ec9 8b69 bfbf
00000620: 42f6 99e6 96f5 fabe a003 cd1d f16a fdbe
00000630: 31a0 2cd4 aa85 e03e 4de5 0e64 75f2 463f
00000640: c449 1834 6c9b 24bf 6003 0083 4349 dabe
00000650: 40f1 387e acde 27bf 2109 bb86 262a 353f
00000660: d6d6 ba00 5f83 4a3f e5c2 641d f0ad 393f
00000670: d49a 4fce 6b11 4f3f 206c 8596 007e f9be
00000680: 2d69 d651 1385 bdbe 67a2 e64e f36a 02bf
00000690: 2115 a1a1 d5ad b8be 77c8 6c51 b1a7 3bbf
000006a0: fa8e f7b8 5e63 53bf e087 134b 62bc 5d3e
000006b0: 7293 992d 50c4 bb3e 3e28 5481 6041 f93e
000006c0: 3731 d6f8 afa0 4b3f 99da 76a4 eacb 303f
000006d0: 37d6 8a48 32b9 fbbe f0f1 2ad0 8598 fabe
000006e0: 1f4c c8c4 e394 c93e c81b 3bf1 d4b3 3d3f
000006f0: 16e8 8710 32f6 423f e7b9 d393 248b 02bf
00000700: 39c9 3c7f 55ef 00bf a300 b271 3792 f93e
00000710: 4b1f 109c 7d93 0abf 5bc7 d306 2295 903f
00000720: 3f55 1d53 1050 843f 5f60 6801 6803 663f
00000730: 6d04 7bb2 f69b 743f a487 fbc7 5481 8a3f
00000740: 31d5 dfa7 37c8 963f 4b40 1987 8d20 6d3f
00000750: f86a 58e7 c595 963f b6d6 3527 27c4 753f
00000760: 5d41 7ba5 5819 863f 79a7 5931 efb8 e93e
00000770: 27ea 4b21 18bb 713f 6edb 8e40 6016 6d3f
00000780: 7f24 2c10 6dde 5c3f 449b 8115 8a60 38bf
00000790: 7129 3255 2236 893f a31d a990 b770 023f
000007a0: f2bc 607b f8b3 823f 6385 7a33 e2c9 8c3f
000007b0: 91fc 9afe afd5 e0be 0c84 523f 15d4 f0be
000007c0: 2faf d5fc a645 8e3f 96b0 e951 e17d 8e3f
000007d0: c3c4 0006 bf75 893f 1989 f3dd 97bf 893f
000007e0: 996d cfbb af39 3cbf 98be 2f99 f7a6 31bf
000007f0: 6423 c21e 8516 c7bf 416e 5a80 a384 e3bf

exp_avg_sq f8 [28, 28]
3.184844171498126e-10 4.439466600928986e-09 7.547894729178512e-09 2.9130794709177226e-05 7.614848594492703e-06 1.0705092209008988e-08 1.3033281633875945e-05 3.117578808629448e-05
3.1891611722244504e-05 8.434106766460448e-06 4.3847947823443465e-05 6.343937004085524e-06 3.029444401373413e-09 7.21585203019546e-10 1.3630334513376188e-08 1.2606310444239598e-05
4.080215197704853e-06 1.509471653637363e-08 2.2147854124311418e-11 9.974083802768187e-09 1.4123408965657526e-05 5.1387736858207436e-06 1.7079553062549652e-08 3.120968899604046e-11
3.7093793235640447e-09 2.8656471718443947e-05 3.0686699403081454e-05 7.061147967133869e-10 3.983624910316793e-10 1.124352402364192e-10 8.96611039691308e-09 4.5285509811479225e-06
8.843706164543245e-07 4.0085149655768225e-11 2.4222347688001384e-06 6.919515902490443e-06 5.998015801886144e-06 2.1822339985679906e-06 7.122307045857915e-06 8.869533856283788e-07
1.6088849558069262e-10 1.2278856690125072e-08 1.8694838516243858e-08 2.6184557148336635e-06 1.260719879941678e-06 6.941938551180793e-08 9.429704394767576e-09 4.047152526876761e-11
3.090988117311941e-06 7.493095879776187e-07 4.14611688943056e-09 9.446622559230975e-09 5.957334999792098e-09 4.521016178000648e-06 5.9431950176638275e-06 1.2053359904397785e-10
1.5850942227079675e-08 5.238191425534122e-10 4.44032644534796e-09 0.005864495149541819 0.00024401792428493151 8.011707110193995e-09 0.00036775697762696333 0.005638906473221257
0.005122684144918769 0.00040903314861782714 0.009919595867551778 2.8210284810316857e-05 2.4088486727417475e-08 2.2134419792655433e-09 6.705854807893999e-09 0.00016158665187396157
0.0005472633717659363 1.908334784081398e-09 1.7947977621263403e-09 4.695092681249272e-09 0.002437948409612575 0.00018107631020705043 6.1949142188778326e-09 5.236577947427699e-09
1.7725430785829595e-08 0.0041613741614728505 0.0023104402638557857 2.42661948459723e-08 2.1174917720403313e-11 5.165360470117747e-10 1.327774925648796e-09 0.0558276888556568
0.001299497977995633 6.092628711891515e-11 2.210292352657213e-11 0.09424171909133366 0.07702507417665444 9.090326507077302e-09 0.4710156260162014 5.0411427409076624e-09
8.249174030247458e-11 1.1401187154318689e-09 2.235198927957917e-09 1.0923122851112214e-08 0.16480659411608503 0.006341829613277891 2.4598500592792518e-08 2.100931285685952e-08
0.008021603282632253 6.934231568506542e-05 2.6868422778106945e-09 1.0560500221565335e-08 2.804572372865623e-09 0.0017852784916912515 0.047815510514969246 9.770306952868947e-09
4.3215607711497864e-10 8.214392855037985e-09 3.202715391989019e-11 3.7955853279552594 0.13521332458955795 8.893759255239718e-09 1.8404470702338288e-09 4.248389251747913
2.6081151654996377 1.4302033851543719e-08 19.126244025151646 8.299668837292864e-10 3.602354713386413e-09 1.1443589765210871e-08 7.20136758661583e-09 6.166068550943235e-09
4.533674965819407 0.22067335246608275 4.218456397222556e-10 2.5727465369867834e-09 0.479046944661661 0.0046075718442818315 1.1835297997700158e-09 1.334334893093468e-08
2.2831901959223358e-08 0.5969130871800309 1.589601878984631 2.2976578144577912e-08 1.6913577126911907e-06 4.7679198461724934e-07 0.008244724107620111 8.649304149901887
0.5846089004452006 0.024335089245700475 0.7371845476278341 9.765093723662789 6.048822154516326 0.5976078566927636 21.671746091879335 0.08794710896380428
0.008643605588177082 1.2985625831605253e-06 0.034803351194599624 0.6398450172400982 4.159846887229267 0.41153915226576093 0.008044158695176695 1.2870849724690604e-06
3.9639810425888813 0.46068491937328593 0.0018262945983131432 6.55731816024707e-07 0.018760672428112624 3.754825187968927 7.462268227485401 0.011388650160720847
9.868329554221574e-07 4.104946018824816e-07 0.001758924686963753 1.1259741363984446 0.11299549165007186 0.014122072460886408 0.1949632921568908 1.4458354596553933
0.9768627600319857 0.1763587205865781 1.9937040185296708 0.027782588494592874 0.0033357040178795885 6.665151115193186e-07 0.01931288144626999 0.18679645027102507
0.24555948056614185 0.011604225121040389 0.002838904088281888 7.393729964443271e-07 0.6543187622767153 0.08993415991601325 0.0002987363332369394 4.286183908780348e-08
0.007584203676103351 0.6836369595556007 1.062720527991868 0.004337816719954064 1.9726016313881038e-08 1.899776065211408e-08 3.104598885880704e-09 0.015449307695912202
5.562824833025738e-07 6.272090623857872e-09 0.00018027806720703193 0.008988070923759653 0.013142527868295846 0.00021741935989710753 0.02548298344533658 2.013316064090168e-08
6.795773230520173e-09 1.5746102860866034e-08 1.609894230886198e-10 7.87110351121573e-05 0.000357374421100389 3.264077085685089e-10 5.296025807721471e-10 2.0197341823317287e-08
0.009427308310882468 0.0036148401699150207 1.0555289131612999e-08 1.0349103143173101e-08 4.272371307272436e-10 0.006395547990646353 0.012707676972257019 1.5501650072579805e-08
1.2025274678610641e-08 1.0171538415278772e-08 7.752172876188545e-09 0.0014048094945262452 0.0007852240900001622 3.6342670432752594e-05 0.00039549073404835484 0.001843515569431901
0.002722492482222612 0.0004577967189681856 0.0033609638229954012 0.0001173217453186848 0.00031922654333092245 5.460645428127638e-09 0.00011980844239412439 0.0004049205065641867
0.00020210619296489915 2.4710971414827083e-05 0.0003637949863800386 1.570576376705117e-08 0.0010456594345770213 0.0006617740494459292 1.884812289909373e-09 3.4988115485263495e-09
0.0006484403365736975 0.0015284659271554753 0.0018313109380648 0.0004193666622410934 4.507468914004178e-06 2.1075707005687788e-06 0.008900689714844241 9.52494724254555
00000000: cb08 6a4d d6e2 f53d 461e 13c2 3e11 333e
00000010: 883a 1ebf 7f35 403e c941 25f8 bc8b fe3e
00000020: 728f b2a4 61f0 df3e 8286 44ca 2ffd 463e
00000030: 147a 8b96 3055 eb3e 6c35 0cec 5758 003f
00000040: bf45 566f 6bb8 003f bd44 b5ce 06b0 e13e
00000050: 7b4f e303 2cfd 063f 58a5 1e20 c09b da3e
00000060: ce55 ab95 d105 2a3e 8ad1 fb6c 21cb 083e
00000070: 86a6 7b0b 5b45 4d3e 7463 561d f66f ea3e
00000080: 69e6 6f03 191d d13e 41eb 123f 3435 503e
00000090: 6d22 d014 115a b83d c0b2 c780 4f6b 453e
000000a0: 6adf 358c 729e ed3e 196a e25a b78d d53e
000000b0: 858c 3bb3 ca56 523e f1d7 c38c 5f28 c13d
000000c0: 0b31 dcea 02dd 2f3e f4ef d8bd 690c fe3e
000000d0: 5a79 7ef6 b216 003f e40c ed2a 0d43 083e
000000e0: 6407 8a2a 1160 fb3d 3477 6039 ede7 de3d
000000f0: b13d 8adb 2b41 433e 81e7 7c9d 7efe d23e
00000100: 5913 578d afac ad3e 569b 6db8 7b09 c63d
00000110: 9760 91a5 b551 c43e 2529 600c c605 dd3e
00000120: de58 8907 5228 d93e ca49 f6d3 4f4e c23e
00000130: d2f9 76da 84df dd3e d759 201f dfc2 ad3e
00000140: af32 ccbc c21c e63d 2d3f 5073 5f5e 4a3e
00000150: 9f1e 1a4f cc12 543e 65e3 ac40 17f7 c53e
00000160: f761 d82a c026 b53e 0728 b9be 76a2 723e
00000170: 7f81 96e9 0840 443e 87eb 735e dc3f c63d
00000180: 59a9 2ab0 d8ed c93e c46f a635 8524 a93e
00000190: a102 a727 b4ce 313e 5088 b3ee 5549 443e
000001a0: 7384 f6ba 2896 393e 9d51 da76 67f6 d23e
000001b0: 96c3 cb01 75ed d83e c01d bb24 e690 e03d
000001c0: 0c86 07e6 1205 513e 01be fcd8 8fff 013e
000001d0: eb0e 65c8 3012 333e 9e50 ff6d 5e05 783f
000001e0: dd2a 4602 e2fb 2f3f 46a2 3f89 7b34 413e
000001f0: 12bb 1831 f019 383f 55f8 336e d218 773f
00000200: ea30 ec0d 86fb 743f d516 0dff 6fce 3a3f
00000210: 0db2 b99e b950 843f 31c2 bf02 a494 fd3e
00000220: a6e7 658f 64dd 593e 8008 230f 6903 233e
00000230: e2ac 6c53 2acd 3c3e d2f3 41c5 f22d 253f
00000240: bc34 5b24 c7ee 413f 8dd0 51fa 7864 203e
00000250: 810b 18a2 9ad5 1e3e 235a 651a 4f2a 343e
00000260: 5f2f 0996 bff8 633f 18c3 2ca9 e9bb 273f
00000270: 4439 e255 619b 3a3e e43a e2a7 ad7d 363e
00000280: dc9c ed4d 5408 533e 570e e15e 840b 713f
00000290: 6a85 ec2b 58ed 623f ee9a 43a8 3d0e 5a3e
000002a0: e95a f89f 3548 b73d 1393 40c6 7fbf 013e
000002b0: 70ba 43aa 9dcf 163e 7f4f b163 7295 ac3f
000002c0: 62f7 4454 7d4a 553f ae03 766a 4ebf d03d
000002d0: af50 937d 6b4d b83d 5485 6aad 3920 b83f
000002e0: 5c8a 8f4e eab7 b33f ac41 8fb8 7585 433e
000002f0: 5640 69b9 1e25 de3f f68f 1c89 cba6 353e
00000300: 8e7f 6315 d7ac d63d 69df 348e 4b96 133e
00000310: 43bd e321 4133 233e eb13 04e0 0c75 473e
00000320: c965 f2e9 6118 c53f 7dc5 92ec e3f9 793f
00000330: 1f0f 6a98 9569 5a3e edbe 36f6 fe8e 563e
00000340: 4848 155e a16d 803f 2611 92e9 7b2d 123f
00000350: b664 32bc 6d14 273e cdc8 e646 b2ad 463e
00000360: 9de5 fce2 5117 283e 20b5 1b2f 0040 5d3f
00000370: 3182 ce4b 467b a83f 4994 0476 48fb 443e
00000380: 4703 a7f2 91b2 fd3d a3e5 ce04 e9a3 413e
00000390: 917f e2d3 6b9b c13d 52f6 25d7 5b5d 0e40
000003a0: 193c 8c93 ab4e c13f df4b f156 6519 433e
000003b0: 7a3f 572f 5f9e 1f3e a4bd 83c0 59fe 1040
000003c0: 3a2e e07b 6bdd 0440 8f7a 9852 a0b6 4e3e
000003d0: 7b57 4787 5120 3340 9a77 2e46 7784 0c3e
000003e0: f81e 096b a9f1 2e3e f7ae d114 2e93 483e
000003f0: 7602 13c6 fced 3e3e ef32 7400 aa7b 3a3e
00000400: 978d b3b0 7b22 1240 8362 f83f 063f cc3f
00000410: 5711 a9dd 2ffd fc3d aca2 0c8b 8719 263e
00000420: fc83 2484 b4a8 de3f 729e 29a6 63df 723f
00000430: 61dd 5f17 3855 143e 3994 2f6a 95a7 4c3e
00000440: 8b74 9f44 fc83 583e 9fc3 7f79 e919 e33f
00000450: e062 3e61 026f f93f 7da7 14f3 c0ab 583e
00000460: 2a05 ca78 5360 bc3e d759 1053 39ff 9f3e
00000470: 3d11 4123 9ce2 803f acf8 f197 714c 2140
00000480: e29a 8bb9 1db5 e23f 1b75 d231 4ceb 983f
00000490: 03b3 650c 0497 e73f 5903 535d ba87 2340
000004a0: 1cdf 536f fe31 1840 967f 0a83 9a1f e33f
000004b0: 6ad6 478d f7ab 3540 56fc c6a4 b383 b63f
000004c0: ece1 901a bdb3 813f 6339 daa8 48c9 b53e
000004d0: 6c11 58ae bed1 a13f bec0 f141 9c79 e43f
000004e0: 8311 04e7 aea3 1040 0b52 0050 a856 da3f
000004f0: 732d 28b4 7479 803f 437e a6e4 fc97 b53e
00000500: da10 5fb1 3bb6 0f40 86fe 9d99 dc7b dd3f
00000510: 49bf a5e4 08ec 5d3f 22b9 4983 b100 a63e
00000520: fd6c 1e6a ff35 933f 5230 c4c9 e109 0e40
00000530: 661e 9cd7 5cd9 1d40 ac15 e3bf ee52 873f
00000540: f70e 254f 6a8e b03e b8d5 045a 3e8c 9b3e
00000550: e6ba 6c00 77d1 5c3f 1392 bf74 fd03 f23f
00000560: 1a85 3bc5 45ed bc3f 9651 f87a 08ec 8c3f
00000570: d4fe dda1 8ef4 c83f 67df e95c 2422 f73f
00000580: ca90 e0b0 7542 ef3f 1452 a42c ec92 c63f
00000590: c6d1 572f 36e6 ff3f 1315 eef3 0973 9c3f
000005a0: 9049 4f75 7a53 6b3f b401 fc3a 525d a63e
000005b0: 0622 d088 c1c6 933f ff22 7632 f2e8 c73f
000005c0: c88d 2039 7e6e cf3f 6c50 1fbb f4c3 873f
000005d0: c79d e606 9d41 673f 87c8 e869 2acf a83e
000005e0: f667 a4e6 2df0 e43f 3eec a1d3 ec05 b73f
000005f0: 8a7e 08c8 f693 333f 66a7 16e5 e202 673e
00000600: ffc0 142c 9d10 7f3f 0c1a f49d 5ae0 e53f
00000610: f134 883d e700 f13f a102 2ccf 87c4 713f
00000620: e9fe e1fe 3e2e 553e d4c8 2c8f 1066 543e
00000630: f5ba 56cc 15ab 2a3e 2af5 65fa e2a3 8f3f
00000640: 5f74 101e 6eaa a23e 616b f18f 3cf0 3a3e
00000650: 3115 41ce 20a1 273f c897 5f75 5668 823f
00000660: c47d 0c3b 78ea 8a3f d9f7 9e14 627f 2c3f
00000670: 9648 0212 3618 9a3f 1c66 0a3b 299e 553e
00000680: 3c5f 9e1c 0830 3d3e e62c e87b 41e8 503e
00000690: 0047 c9cf 4f20 e63d b043 5c49 35a2 143f
000006a0: 5737 7873 bf6b 373f 5a63 7aa2 396e f63d
000006b0: 363d 22fe 6e32 023e b6fd 6f94 cdaf 553e
000006c0: 888e 13e7 9f4e 833f 60f2 eb89 de9c 6d3f
000006d0: bc6f 99e1 d4aa 463e c644 79c8 7a39 463e
000006e0: b7fb 94fb 085c fd3d 0a71 5bd7 3732 7a3f
000006f0: ac24 0888 7b06 8a3f 2b45 f6a5 0fa5 503e
00000700: f831 7ef4 f6d2 493e c046 efc4 dcd7 453e
00000710: fb19 0357 cda5 403e bbab 82b5 3204 573f
00000720: 8ab8 aee4 efba 493f f24b cda5 d40d 033f
00000730: 7a8a c3c4 3beb 393f dee4 24c5 4334 5e3f
00000740: 7791 9705 7b4d 663f e7c8 a9ef 8d00 3e3f
00000750: 9d5f 7db6 7388 6b3f d9eb ac3c 54c1 1e3f
00000760: 9f7e 4990 bbeb 343f 52f1 710b 0b74 373e
00000770: 2981 125e 3568 1f3f 4dd2 4a55 7089 3a3f
00000780: a9bf 6bfa 8e7d 2a3f 3ac7 7706 4de9 f93e
00000790: 58c6 a691 77d7 373f bc3b 65df 2add 503e
000007a0: 11b6 c044 d021 513f 35c1 29f3 5caf 453f
000007b0: 9ee1 a5fd be30 203e 269c 5bcc f70d 2e3e
000007c0: 6daa fd04 833f 453f 9847 e4ca d90a 593f
000007d0: 9670 9e25 1301 5e3f 8d89 6f19 ce7b 3b3f
000007e0: 26f9 e59e dbe7 d23e 81e8 ed3e f9ad c13e
000007f0: 7794 e559 863a 823f 90b7 8de2 c50c 2340
