pyTorch/regular/models/32_REG_model.pth (torch, 470675 bytes, 10 tensors)

weight f8 [120, 60]
00000000: 95f7 5d36 6f30 6ebe 5423 bc31 060e 64be
00000010: 4837 b903 76db 653e 3809 74d1 bbc0 733e
00000020: b058 350a 4dc4 483e d5c1 9516 2d78 723e
00000030: 9e91 378f 4331 6abe 8ab8 9469 77d6 80be
00000040: f7b6 0a21 004e 713e 9ea3 4608 cae3 763e
00000050: 6338 3bb3 705c 7d3e 0317 8029 9908 71be
00000060: ce6a 8619 1da8 7f3e 18a0 179a d61d 64be
00000070: 271d 51aa 3143 733e fead 0eb1 cea4 603e
00000080: 5e6d 4ccb 7726 533e 44f1 ebe7 c065 813e
00000090: dd52 ea70 625a 7d3e 040a ea2c 3c3a 66be
000000a0: 9172 2aef 84c9 c83f 8ba0 0a13 6e44 643e
000000b0: f591 d225 4c48 80be 9c5f 3a56 0ea6 62be
000000c0: f28b 3973 0cc7 c6bf 174d 4656 90cf d1bf
000000d0: 471c 67a2 9bed c8bf 124a 8bcd 6b74 85be
000000e0: 9775 4f0f 0d9f cfbf f872 eb02 316d d0bf
000000f0: e8f3 edc7 0b10 cbbf e01c 1a0c da12 373e
00000100: b621 fcb2 cc74 c6bf ad0f b093 4f74 c6bf
00000110: 3aba 675b 96bc cdbf 1bdb 31e3 99ba 69be
00000120: fe96 be61 071f c9bf 1a79 cdd5 38ee c6bf
00000130: 82ed 59ab d032 cbbf 129d 54d6 0d6b cd3f
00000140: 4317 ac82 74c7 cfbf 2639 f96c b79d d0bf
00000150: 5ef9 70e5 ed1c cfbf fd26 c4a7 de39 c9bf
00000160: 669a 2bf9 35ba c6bf de71 b91f 9896 cabf
00000170: 504d 0a38 08e9 c7bf bd86 d0bf 2edd d0bf
00000180: 0b9c 6d00 ed8f c9bf 0bdd 9d8f eca7 cdbf
00000190: 7ab8 2d5b 67ec c8bf a857 10a0 c8dc d0bf
000001a0: 47d4 c0aa 0757 c7bf ed0f 30ce 687b cfbf
000001b0: 576d be82 3c25 d0bf c6a4 c393 73ca cdbf
000001c0: d326 08bb 0c6e c9bf 99b4 c493 2495 c9bf
000001d0: d824 5318 d920 cfbf 983d ca78 a755 cabf
000001e0: 5897 e46e 7493 7abe d008 742b 872e 3f3e
000001f0: 0492 747e 034b 63be 6899 b617 7184 48be
00000200: b8d3 7381 6e4d 80be 1083 e1d3 9a52 81be
00000210: 8adf c204 a550 6fbe d914 82bb 2d49 7b3e
00000220: 7047 8ff0 54ad 3e3e 0853 a859 2ddb 803e
00000230: 447c ba7e c5f5 643e b26d a653 eec9 63be
00000240: 642e 9f53 9152 69be 005e 9326 c32c 273e
00000250: bbd1 6c55 9a55 703e cc18 bd5c 0666 793e
00000260: b099 8b5b 5f21 38be 2c5b 2f3e 165f 7bbe
00000270: 3824 71ca 0f8f 813e 7213 5a8d c976 56be
00000280: c0a2 8c81 5442 cdbf 5a1f e60e b402 6cbe
00000290: 1cd3 0617 8d9a 50be 9cc8 4687 f1a3 853e
000002a0: 1f20 c95f 09c1 cfbf ccf8 9406 3171 cfbf
000002b0: c454 474c cc18 d0bf ac60 7798 9e25 73be
000002c0: 1e04 b765 a073 c8bf 3151 2af2 bf36 cbbf
000002d0: a3c4 6350 856d c8bf be44 2a45 ff09 643e
000002e0: 522f dd04 1c92 cfbf d1b8 bc1c eb9e d1bf
000002f0: ceef 6dd5 801b cbbf c862 b458 e93a 66be
00000300: 60ce 1f75 1b2d c9bf b1e6 cd5a 6432 c9bf
00000310: c33c 3945 7bab d0bf 1385 94dc 1b44 d2bf
00000320: ecb3 24cf 6c9e c9bf 5ff8 68bc 8c94 d1bf
00000330: c395 e1bf a1ef d0bf c884 c12c 66bd ccbf
00000340: ab2e 6c11 7c94 c8bf 8616 23fd 3ce8 d0bf
00000350: b8d7 4b49 bb50 cbbf 90c6 186a 26bb d1bf
00000360: 89be 2586 e3b0 c9bf 8571 4cbb 5ad8 d0bf
00000370: 2726 23f6 0dee cabf 43aa 501d d633 d0bf
00000380: 6c4f 5544 5abf c8bf ed7d 9e02 556e ccbf
00000390: 6353 d38e 9e76 cbbf 0bd5 5d7d 48dc d1bf
000003a0: 160a d3a6 93dc d1bf 5d46 3ce2 402b d0bf
000003b0: 30d7 bca3 3d52 d0bf 7283 1a72 da8f ccbf
000003c0: 19df ace4 c059 67be 2078 59d4 1dbd 793e
000003d0: f065 eb51 ee2a 30be 82fa 9bed 1b8b 623e
000003e0: 4008 ca24 f16a 433e 5a4b 7bc1 2fb3 7b3e
000003f0: d097 e7b7 0c83 5f3e e40a 61d0 702f 843e
00000400: 6ca6 0cc4 745b 6abe 01e8 542c fbb3 763e
00000410: 9252 9f48 36d4 693e f8af f352 564d 673e
00000420: fdde b96e 3cdb 66be e30b 3b12 8fa7 7a3e
00000430: fda5 3dc5 3453 6ebe 4f3d b212 597b 6c3e
00000440: d003 108f 85fa 33be 16a5 e6b0 4db4 6c3e
00000450: 26a2 1aef 1f22 65be 578f ac62 d05d 87be
00000460: 8ab1 7a2a 98c1 733e b82f 65bc 1581 5b3e
00000470: b7aa 1eb1 ac44 733e 0012 c6b7 f842 85be
00000480: e4e7 afee 3c35 613e 0e0d b330 3a66 7e3e
00000490: e8be a97b 9a97 7c3e c5cc 3c46 514d 7abe
000004a0: e0e7 4b49 32b2 d0bf e0bd 719f 2925 4e3e
000004b0: 8607 62b3 ad06 6b3e 13f4 a0c9 1395 73be
000004c0: 6fbb f147 3585 d6bf 3faf 59d1 3444 cebf
000004d0: 6387 dfab f645 cfbf 9ed0 3ee5 aed5 633e
000004e0: 4d61 5220 3db1 d3bf f2a9 8750 9a8d d4bf
000004f0: 10b6 73af 32d2 d1bf 3a65 83ef 6f0b 823e
00000500: c81a 675a f7f8 c8bf e02d 1c2f 295f d2bf
00000510: d035 09af a777 c6bf 0bfc 08a3 6b1f 6bbe
00000520: 75d6 d305 4cd0 d4bf c25a 02ae c718 d3bf
00000530: f0c9 e60e 2b4a c2bf 6a73 2199 5313 6bbe
00000540: 5ac8 bfec d3aa cbbf 3716 9123 6db8 d3bf
00000550: 75c5 2f32 c0c7 d0bf 709d bbc7 9c18 d0bf
00000560: 9ba2 c3a1 008f cebf 793c 02f3 b058 d2bf
00000570: 0408 4884 ecaa c9bf 2cf2 8eba c3b0 d2bf
00000580: 4f21 790f 3c0e d3bf d75c 15e1 27f0 d0bf
00000590: a672 1be0 86b9 c8bf df2f e68f bf85 d5bf
000005a0: 4af8 9c03 b8e5 55be a4db 33a3 4378 79be
000005b0: 723d 3684 b01d 80be 0b31 ee34 d9ea 663e
000005c0: 885e 3aa2 09bb 6abe 0c24 5b47 3d44 803e
000005d0: 245e 5ddf 4ca7 82be 48d9 224e 225f 5a3e
000005e0: 5061 8c4b f9f3 3d3e 103a 8dab 8088 463e
000005f0: 4095 3a2e cc98 72be 80ee a8b7 ffb2 03be
00000600: 8cde f2b4 ba7e 7f3e 34e7 068d 25ff 513e
00000610: 60ec 6ade f57f 873e cc8c 5ae9 db9c 643e
00000620: a407 8a54 4a60 62be 52a5 5c30 d2f5 80be
00000630: fc5a 3b05 6c68 7ebe 853c 1a9b 0ed1 7c3e
00000640: 4c28 98f9 9841 72be 988b db65 890d 693e
00000650: 8074 6629 496d 303e 9663 38a1 8329 7b3e
00000660: a70d 176a 0337 81be 9349 0e54 e212 763e
00000670: 25b4 f4ac a297 83be e426 7c83 4429 513e
00000680: d5fc f2ec 1b21 82be 2c3a fd21 6803 64be
00000690: adc7 b9c5 81d8 79be f81a 5b63 c049 87be
000006a0: 9fa3 efcc 0843 6bbe 4b1e 9fa5 f042 62be
000006b0: 405b 13a9 b200 6f3e cb45 24cb e262 74be
000006c0: 5422 151f 5642 b0bf 75a1 2aa1 d820 7c3e
000006d0: dc47 67f0 5156 82be f10b c7b9 23e9 75be
000006e0: faca bc18 f495 adbf 02ba 6dfc 7fbc aebf
000006f0: 6399 b980 1754 acbf 1019 f021 0c13 62be
00000700: 22ce 3387 13fa a9bf 8603 0618 0855 abbf
00000710: 42e3 8f9b 2bec a9bf 566c 3dd4 6de8 653e
00000720: bddf 192c ee2d b9bf dee7 f0fd 1c2c aebf
00000730: 5b00 feba 1dc0 adbf b5d5 03ac 4fd6 82be
00000740: f6f1 13a8 b9d5 b7bf 1032 e05a 0507 b8bf
00000750: 13d5 7fcc e98a a9bf 56a9 c264 93f1 74be
00000760: 2131 6920 ee81 b7bf 35ed 7072 a6ac a5bf
00000770: d4bf 6d2e fa23 a8bf 3423 dc47 117b b3bf
00000780: 77d0 323c a4da 7b3e 261e 2567 3c31 723e
00000790: 343d f233 e272 803e cbd1 5332 c7cc 83be
000007a0: 530b 7dd7 62ea 62be 3e48 2e22 985f 803e
000007b0: 6a9a f0fd 95e9 5f3e 89cf c52e d08c 78be
000007c0: d485 5a5d 8ab9 6dbe 8842 50a3 d7e9 4abe
000007d0: e404 cfd3 3720 54be fd69 b08b b4b9 60be
000007e0: e138 4f5b 5895 85be 455e 6a18 3a9c 70be
000007f0: a53d f1d5 705e 763e 2f05 78cd 705f 633e
-5.6231761288112364e-08 -3.735494244315896e-08 4.0712337026460574e-08 7.35851596219174e-08 1.1532940219726854e-08 6.880401816844215e-08 -4.878721595792009e-08 -1.2545108488956773e-07
6.446499179843064e-08 8.527115553123779e-08 1.0937860111666734e-07 -6.345505665369425e-08 1.179303751375354e-07 -3.7470005108929015e-08 7.175831713653904e-08 3.100145396587788e-08
1.7835074489410897e-08 1.296212878905801e-07 1.0934868675323603e-07 -4.1401909113749116e-08 0.19364988019960497 3.7750796604453484e-08 -1.2131342233991466e-07 -3.473582912727717e-08
-0.17794948221407442 -0.27829368996863607 -0.19475121908019075 -1.5985049263993422e-07 -0.24704135177209416 -0.25666451726082995 -0.21142718565161478 5.372250368201924e-09
-0.17543944110390236 -0.17542452536883726 -0.2323177286447889 -4.7923830592239095e-08 -0.19625942490272758 -0.17914495887357235 -0.21248825423013434 0.2298295303855658
-0.2482743871734617 -0.2596262516207325 -0.243070351631057 -0.1970785445376392 -0.17755770365257034 -0.20772077130358374 -0.18679907547321273 -0.26349991542711476
-0.19970476647287713 -0.231687135815925 -0.19471446945266618 -0.2634755671618856 -0.18234344327507498 -0.24595365588913812 -0.2522727276607006 -0.2327408286576313
-0.1986709511987131 -0.1998639794850632 -0.24318994224294133 -0.20573895833920797 -9.900329775834534e-08 7.260066928933266e-09 -3.593605396094468e-08 -1.1416781068120893e-08
-1.2146284753653506e-07 -1.2906398611219055e-07 -5.832876634595235e-08 1.0164772745915998e-07 7.1425636594080716e-09 1.2558818414443927e-07 3.9041125746537136e-08 -3.685949896971145e-08
-4.7166887686889327e-08 2.697907942714552e-09 6.085033042448345e-08 9.461691446747347e-08 -5.618287551097304e-09 -1.0196653436822188e-07 1.308235131078734e-07 -2.092124236917954e-08
-0.22858673406269325 -5.217373365550458e-08 -1.546341493889096e-08 1.6123357550257225e-07 -0.24807851006539836 -0.24564183064825895 -0.2515135521801535 -7.132795164872948e-08
-0.19102864233539746 -0.21260833096006018 -0.19084230828551538 3.7325641817921465e-08 -0.24664640653133546 -0.27532460981718737 -0.21177683278426546 -4.140683093119349e-08
-0.19668906420666854 -0.19685034211925292 -0.2604664016734654 -0.2854070333579141 -0.20014724840567 -0.2746917571965976 -0.2646259664382706 -0.22453000245426424
-0.19203139162742863 -0.2641746971170068 -0.21340123251837695 -0.277047732935082 -0.20071071672599697 -0.2632052258575402 -0.21038984793112656 -0.25316384184649027
-0.19333961807808053 -0.22211706760297947 -0.21455747579480108 -0.2790700172693767 -0.2790879372734322 -0.252639981205993 -0.25501957883840287 -0.22314005443061152
-4.349388101624099e-08 9.588426504991459e-08 -3.764335758653706e-09 3.453976456061394e-08 9.042090764721189e-09 1.0319034548658535e-07 2.9347755775824837e-08 1.503923174346655e-07
-4.9094204707046884e-08 8.45754569337809e-08 4.811017457999097e-08 4.3403540645126506e-08 -4.257334559621504e-08 9.929585026006163e-08 -5.648475878592563e-08 5.3051538572851164e-08
-4.651630401177861e-09 5.3465944660597454e-08 -3.936383831160536e-08 -1.740937006440567e-07 7.359768494181108e-08 2.5615317666719505e-08 7.17798623028437e-08 -1.584113212932224e-07
3.205232509263879e-08 1.1324631203888779e-07 1.0651424890163891e-07 -9.798266514537957e-08 -0.2608762470041466 1.4037436975153459e-08 5.034001164615801e-08 -7.294987583533181e-08
-0.35188037896926166 -0.23645649168190094 -0.24432261841053124 3.694500763599903e-08 -0.3076927962915946 -0.3211427484917798 -0.27845446714386046 1.3444331848389594e-07
-0.1950978461665811 -0.2870581588801695 -0.17552658125570852 -5.0520032938716305e-08 -0.32521343773928574 -0.2983874511059349 -0.14288843371976112 -5.043203822670731e-08
-0.21615075168625958 -0.3081314894992348 -0.26219181920085727 -0.25150222306407155 -0.23873908899920057 -0.28666328173944283 -0.2005286832718981 -0.29203885286895814
-0.2977438117127535 -0.26465794544988114 -0.1931618303559805 -0.336288347746402 -2.039348621158752e-08 -9.488233203626577e-08 -1.2007336823133267e-07 4.268694075220523e-08
-4.978965176016869e-08 1.2119531660737816e-07 -1.3897952982443128e-07 2.4560482433162886e-08 6.97398155264317e-09 1.0492845135869544e-08 -6.92787228093383e-08 -5.733225971400212e-10
1.1732815362568611e-07 1.6760701994465187e-08 1.7508749224578204e-07 3.8394202634263285e-08 -3.4228217209350996e-08 -1.2636362372559943e-07 -1.1327824838855018e-07 1.0735030888719653e-07
-6.800979548290728e-08 4.6664621262415416e-08 3.824685143597117e-09 1.0118694886879655e-07 -1.28260968996786e-07 8.223118631707441e-08 -1.4597420381606775e-07 1.5982614536556496e-08
-1.3507405192088946e-07 -3.727769048879824e-08 -9.628284785583376e-08 -1.7350980534830652e-07 -5.077915831553819e-08 -3.401466548664311e-08 5.7747077461601916e-08 -7.594478538079707e-08
-0.06351221331454698 1.0478610360887289e-07 -1.3662269555833728e-07 -8.162372328646716e-08 -0.05778467943163963 -0.060031890453377215 -0.05532906957960184 -3.3666200709201724e-08
-0.05073605561656459 -0.05338311475043782 -0.050629961719045116 4.080669183003475e-08 -0.09835709168134961 -0.05893030738702952 -0.05810635478610556 -1.4034772811254633e-07
-0.0931049380632841 -0.09385713070532398 -0.049887949193285895 -7.802119589514963e-08 -0.09182632724077112 -0.04233284136759111 -0.047149484794203694 -0.07609661106483828
1.0376449126569951e-07 6.777170272642492e-08 1.225528425169415e-07 -1.4752085878529716e-07 -3.523299601942465e-08 1.2199144902282458e-07 2.9720780388978528e-08 -9.145606911180559e-08
-5.5366694046555204e-08 -1.253255020076991e-08 -1.8743660168888863e-08 -3.1153505962624145e-08 -1.608087082647199e-07 -6.187804589064004e-08 8.333068056528489e-08 3.6084679851814305e-08

bias f8 [120]
00000000: 64e5 9f6a c2d2 cdbf 38d7 3d60 4e59 ccbf
00000010: db21 c7a4 d1bd d2bf 1ba7 81a5 340f b3bf
00000020: 3d73 3ac0 343b c5bf 5f41 e4a3 ad9d c5bf
00000030: 35cf 67a5 c113 c7bf 954a e60f f6e8 cdbf
00000040: fe61 e066 0d64 c6bf 09eb cd93 e02b cabf
00000050: 2033 1e40 5833 d0bf cda1 b142 a322 c9bf
00000060: 4d64 46cf 7361 d0bf 472a b994 422e d0bf
00000070: 558d e5d4 491d 73bf 6182 4ef9 7858 c6bf
00000080: fcf9 93a6 fb56 d8bf 2fbe f94b e0bf 9abf
00000090: a23a 4b4e 7ded cdbf 7d74 b44b 0462 d1bf
000000a0: cefb 786d 6268 d7bf 778a 2bcc cd93 cfbf
000000b0: 0f95 745a 3fc7 c5bf 916f a8b2 0d52 cdbf
000000c0: fdb3 54ff 135a cdbf 2b2e fba2 2ef0 d3bf
000000d0: db89 deb9 fb7d c7bf a1a6 6b92 9eff d2bf
000000e0: 7fa2 4614 4180 bfbf 7cd7 3219 0880 cdbf
000000f0: 1456 66a5 2534 98bf 92ca 4055 5f90 d5bf
00000100: be95 0b5d ecc9 d0bf b090 0047 9c7a aabf
00000110: bc0a d2d3 d6e1 c7bf 769d 9be0 1786 cbbf
00000120: 1694 3566 14b1 d0bf eb41 3612 5d95 ccbf
00000130: 6cad c99b 4fff b6bf b7db bd04 8f32 bdbf
00000140: 7c16 a2a8 0fab b7bf 56a4 ca0e 3b47 c4bf
00000150: 3827 e865 1ad4 cdbf a931 3f09 73ad b1bf
00000160: f9e6 321f 159e c3bf 9889 ba8f 5c80 cebf
00000170: 60af d250 8b02 ccbf fa39 fe92 da8a 68bf
00000180: ebe8 0c18 01cb d5bf 1bce 075f 2028 cbbf
00000190: 8bee 34d6 c647 cabf c172 929e f368 c0bf
000001a0: 15c4 b206 2d68 d3bf 5857 3ee6 eb3f b2bf
000001b0: d605 2b67 a462 d8bf b741 5ee7 7fa0 c7bf
000001c0: 15d8 2d8e c872 c6bf 86f1 4961 912e c3bf
000001d0: 2dc9 4fac 15d9 d3bf 0de3 9610 2d11 d4bf
000001e0: d6a6 3787 a491 d5bf 039e b426 0cb5 d2bf
000001f0: e0a6 fa31 37cf c2bf ce63 1c18 d26a bfbf
00000200: 76e5 19b0 33d4 a9bf a3c4 0a66 869b d2bf
00000210: 5d2b 75cf 0901 d6bf 8cb3 22a7 2dfd cfbf
00000220: 7005 4355 10ed d0bf b0c3 2179 4575 d6bf
00000230: aae5 ebed f722 d6bf c5f6 17d8 32fa cabf
00000240: 8931 864b 2f48 d4bf 7205 ec07 d3a2 b8bf
00000250: 4220 d260 2916 cdbf c9bb 3f41 b845 d1bf
00000260: 1138 2a81 ed43 d5bf 28fa eb5d 48c9 d1bf
00000270: 735f 4ca1 6cdd d7bf 73b9 ca6f 8e7b cbbf
00000280: eeae a6d5 a149 cfbf e1c5 797d b521 ccbf
00000290: 51c2 de5e 11b5 c2bf 12b9 64d9 707a d7bf
000002a0: 77fe eb11 511b cebf a159 02bc d6a7 cfbf
000002b0: f33c 46e2 0b2e d4bf bd31 52bb 8d61 d3bf
000002c0: 6547 cad0 4e27 c8bf c378 9be2 78af cabf
000002d0: df6e 84c4 1d65 c5bf 3340 b166 7a85 d0bf
000002e0: ae84 f217 c2c3 d1bf 53b6 c3f1 cb47 c7bf
000002f0: 3b56 7826 245a a5bf 6853 7550 281e c9bf
00000300: 2a61 a7fe 64a6 cebf 94ce 4ddd b149 91bf
00000310: b1c5 fa76 b01d c8bf a76d 4455 f40f d8bf
00000320: e928 2e81 3269 c8bf 882e a4f5 c635 c5bf
00000330: ce42 afe9 e316 d7bf 98dd cf40 3a8b d3bf
00000340: 04bb 8514 e559 d3bf 6a9c fbae 2840 d6bf
00000350: f790 fd8a 7ef6 d5bf 9245 4d66 6976 cdbf
00000360: 6d1b bb37 cd88 c7bf 4e54 f4ed 31cf a9bf
00000370: 6dc8 1462 bbf3 b2bf ed48 6e43 78b1 c7bf
00000380: c247 e067 b2fb dfbf 4eea 7733 4c53 c3bf
00000390: a67b c563 8131 d0bf a111 8d92 e842 cdbf
000003a0: 6d9b 70fb c925 b7bf 7f1b b2ec 18a9 cdbf
000003b0: 2866 50b7 a243 c7bf 7794 d27b acb3 d3bf
-0.23299436765936854 -0.22147540759368112 -0.29283562747562336 -0.07445076981244052 -0.165869325505719 -0.1688744592907012 -0.1802904184001989 -0.2336719110140463
-0.17492835543886537 -0.20446402756700646 -0.2531338335182216 -0.19636955982720253 -0.2559480213327035 -0.2528234913230886 -0.004666603474422122 -0.1745749680822142
-0.38030902163873725 -0.026122574460201328 -0.23381010363524007 -0.2716074694925011 -0.3657461232250484 -0.24669811696283592 -0.17014305035369445 -0.22906657432110625
-0.22931146590545373 -0.3115345565426845 -0.18353220534943557 -0.2968517713439756 -0.1230507540227652 -0.23046971540832917 -0.02363642522830929 -0.33693679166314283
-0.26232441984606314 -0.05171669356084985 -0.18657956450268454 -0.2150297018736002 -0.26080808621765195 -0.2233082140851502 -0.08983323625004908 -0.11405271402132554
-0.09245393626232529 -0.15842378828282005 -0.23303537345810255 -0.06905287719491206 -0.1532617952669211 -0.23829228418351245 -0.21882764288363443 -0.002995898153989926
-0.3405153975360366 -0.2121620620742853 -0.20531545123400394 -0.12820286982323206 -0.30323339132434174 -0.07128786441020674 -0.38102064204221386 -0.18458555981898225
-0.17537791197145283 -0.14985863924438209 -0.31012479617415317 -0.31354834194239417 -0.33701432423422994 -0.2923002603515387 -0.14694871845613644 -0.12272370422978371
-0.0504470970599397 -0.2907424923424264 -0.3438133741334946 -0.24991388951221116 -0.2644692261347563 -0.3509076769760737 -0.345884306283177 -0.21076045562215576
-0.31690580726060397 -0.09623450225264721 -0.22723881938532214 -0.2698803555676333 -0.33227098096620106 -0.2779103200154247 -0.3728896689585703 -0.21470814188564766
-0.24443457538779206 -0.21977871538869834 -0.14615075237590472 -0.36684819440678595 -0.2352086389073411 -0.2473095338834357 -0.31531045052629664 -0.30282920163224586
-0.18869958109695087 -0.20847998680887345 -0.16714832397052867 -0.2581468584876376 -0.2775731309757913 -0.18187856011302247 -0.041703347869923545 -0.1962328331816494
-0.23945295748013368 -0.01688268578750625 -0.18840604600476987 -0.37597378088841044 -0.1907103663218728 -0.16570364946561633 -0.3607721120907116 -0.3053727753571933
-0.3023617458738246 -0.3476659497086475 -0.3431698186234508 -0.23017613883216065 -0.1838623544810746 -0.05040889768330513 -0.07403155464706553 -0.18510344784278435
-0.49973735946798226 -0.15097954285723109 -0.25302157157232796 -0.2286043849545765 -0.0904203642718195 -0.2317229419461135 -0.18175157500154282 -0.3078414162831175

weight f8 [120, 120]
00000000: 5830 0566 8e85 6a3e 23ab a97d 3d94 6dbe
00000010: 65a9 21de fd8a a9bf 9ad1 c3e2 72b4 d2bf
00000020: c37d f4a4 9b4b cdbf 8c51 7242 e39c 46be
00000030: 84b0 8546 6143 77be cf76 5f85 df72 64be
00000040: 606a d091 05ff 373e e6ff c413 5f08 6d3e
00000050: 7e00 0bed c638 72be fe34 d0eb 44b9 1fbf
00000060: 35e4 86a5 062d c2bf beff 5ef9 9e44 74be
00000070: d91e 44de 056a cdbf 6c47 3942 b5ad 793e
00000080: 6dbe 2e3a 4cd0 d9be 3e71 5a46 ed19 71be
00000090: 2aa5 af7b c427 afbf 7cca 4600 9e48 753e
000000a0: 7063 c05d f8f1 c2bf 73ad 8f65 77dc c2bf
000000b0: 7e41 117e 0fdb 50bf 88ea 07fc a7ba 4a3e
000000c0: 0c5f 52a5 b85b 6dbe e548 4df7 5e6e c9bf
000000d0: de70 e953 559c 57be 5a70 9bd8 c62b 77be
000000e0: b03d 350b 7605 4abe f0cb 3525 3d13 62be
000000f0: 2302 889e d40d 723e a014 5f2d 1193 b8bf
00000100: 8f5f 68dc f98b 6cbf 0f4e dde0 c73d b4bf
00000110: d296 2c33 4d5a c9bf d85e b761 b4e9 403e
00000120: f76e 58eb 4829 c8bf 88aa 824f 6e6d 47be
00000130: 0104 d77c bc5f d1bf 10d9 769e 8e1f c1bf
00000140: 1641 9b8f d438 553e 682b 8c00 e4f0 713e
00000150: 51f6 e5fd 9227 763e bcea 83bb 62cb c4bf
00000160: 1a4b 8793 d22c c6bf b4ae b492 7736 713e
00000170: 3f3e b942 fc64 c4bf 9066 4a2c 08e6 c0bf
00000180: 5d75 3fb0 806a cabf f4bd 3bb3 6b76 61be
00000190: ba83 7bc8 ead1 f83e a958 0eb4 63d6 c2bf
000001a0: a999 ce73 62dd d13e ad29 6c2d 080a d0bf
000001b0: a998 e708 88f8 d0bf 8255 136f d064 7ebe
000001c0: 6ae1 9a1e 79a0 74be 7ba0 cf62 fde9 6bbe
000001d0: 7307 72db c606 6d3e 5b5f d37c 0ad3 65be
000001e0: e5bd 9d32 e51b c8bf 10cf 7a38 2a79 303e
000001f0: d517 b215 a666 633e d26e ca69 14bd b5bf
00000200: 7890 cc9b ff8c bdbf 3866 9d47 6df2 c5bf
00000210: a481 a720 33f5 c2bf 8c19 5f47 a349 79be
00000220: f2d1 56cf 00db 713e 20d9 5c88 d51e d1bf
00000230: 05cd dd15 5137 c6bf 7f8b 5717 7320 7ebe
00000240: 2f83 2c76 63b6 75be c48d b79b a81b a1bf
00000250: 334d 2d58 389e aabf da5a 3d8c 280b 9abf
00000260: 0caf 602b 0484 c7bf 68ed 4793 ecee 653e
00000270: fd88 387c 4d79 d0bf 8eb3 fad4 4823 c5bf
00000280: 004c 5697 d40e 6ebe 671c fe6d 3006 72be
00000290: 47b9 b57d f07b b8bf caf6 6aa8 1cd9 c5bf
000002a0: 103f 5b57 0a99 cabf 3e1b 5ec0 97be 69be
000002b0: 24f5 f973 25ea 483e 231e 6b44 f66c 733e
000002c0: 30c8 9532 0155 c1bf 2461 17c7 800a 633e
000002d0: 654a 0ee1 73ad 68be 161e 96eb f1da 7ebe
000002e0: 287c e371 e134 5e3e 3cb9 0032 a580 c8bf
000002f0: 40f8 f890 f6c8 4f3e af53 1fbc e406 66be
00000300: 1671 7b3b 4fb4 633e cba6 f822 b43f 71be
00000310: c288 fbdd efb5 763e 0e75 aa6c c3fd b9bf
00000320: 4a7c 1e1a e739 7d3e 0c2d 4c88 24ea c2bf
00000330: 0584 eaf0 e5c7 cfbf 7af8 33b0 ca00 93bf
00000340: b06b 6fca 24c3 7e3e 3874 9576 9dc5 4b3e
00000350: f0ff 0e03 2ef4 703e 3629 0d58 4185 6e3e
00000360: dcd0 483c 27a3 643e f0c6 b44b 09b7 c6bf
00000370: e830 2ed4 bcc9 71be dd22 de59 60d5 c7bf
00000380: 2870 3666 1ea9 c5bf c6fa ae09 a423 6b3e
00000390: ef3a 3d06 f6a2 753e b85a 1318 9a95 42be
000003a0: 37c6 e6af 507a cabf 8112 3d3f b89b d3bf
000003b0: 3e20 56a2 8c79 bdbf 108b 065d 2742 433e
000003c0: 08df 9e72 1371 d1bf e962 33f4 1618 c9bf
000003d0: ad64 8dce e9e1 b7bf 2bc4 8977 5c64 c9bf
000003e0: 0cc9 7072 3b40 d3bf d655 2404 474d cf3f
000003f0: 44ee 7a7f 8922 963f cc82 6ed5 5338 5bbe
00000400: 3439 1915 5ade cdbf bace bb85 075e 713e
00000410: ae5b 316f 8af8 cabf 9ea3 7bc2 90cb 5dbf
00000420: 0b05 807a 96c7 c6bf 1604 3990 0653 7dbe
00000430: 9ac2 c434 1b23 cebf dd64 309b 65a9 d0bf
00000440: a54b c61b 2693 fb3e a890 76b4 5019 d3bf
00000450: 3174 781f c869 afbf b428 dbe6 1d15 6dbe
00000460: 4fd4 514d d38e cebf 9891 bbba bdef c6bf
00000470: b2eb c8be 5dd9 70bf f35a 17fb 6f34 6dbe
00000480: 3c06 db42 6955 c8bf 2543 db7a 424f d1bf
00000490: 1e32 f008 e265 d1bf 54de 5e43 60f9 c9bf
000004a0: 4ba7 bee7 2f3e cfbf a233 59aa abcf 76be
000004b0: dffa a9a9 b859 cfbf ebf5 9574 bd11 c1bf
000004c0: aba6 fb4f 565b 8fbf 888d 17aa b11f c5bf
000004d0: afdb c107 b627 ac3f ceae 09f6 baf5 cfbf
000004e0: d3fd 2569 4cce c7bf 2ef8 34be b497 bbbf
000004f0: 4c70 44c0 b57a d2bf 288d 5eed 94a9 c4bf
00000500: b35e 0f7d f281 ccbf 6214 9283 ab58 cabf
00000510: 3e68 7f75 8ea0 cabf d0bc 0b09 dad1 d2bf
00000520: efa9 b6de 8df2 cbbf 9e44 02bf dcd4 c23f
00000530: ef59 fe4a 9fe0 cdbf 9238 26a8 fe30 c8bf
00000540: 849b 6963 5973 cbbf 3814 2cf9 fcae 6a3e
00000550: 6f44 bf8a a8ab 42bf 3781 538a 5610 ccbf
00000560: 4188 d850 abb7 4cbf fb80 87bf 9ba0 cfbf
00000570: 3ae5 69a3 3fc1 c6bf 937b ebee 8156 c7bf
00000580: fdbd 90a1 2a21 cbbf 65a2 80dd 2f7c d0bf
00000590: 2690 fd3b 3cf7 753e 4828 42c6 a8d0 c7bf
000005a0: 0c1e a0b7 234e d2bf 2cbc 06dc cc13 d1bf
000005b0: fa28 fc23 1ba6 703e 5374 e3c5 42b4 b8bf
000005c0: 9f6c a1ef bcae c6bf 1f0e 38d9 722b cabf
000005d0: 1f53 09e4 3305 bebf 3fa7 04a3 7dc2 ccbf
000005e0: 1b1f 2e7f 6777 d1bf 65f5 02b8 84a0 cabf
000005f0: 410b 778a c5a7 c5bf 8e78 7027 6c8f cabf
00000600: b4ac 0049 2391 c6bf 845c 32d9 7d77 b2bf
00000610: 4822 8e7f 7004 b8bf 65dd 851a fc08 a4bf
00000620: 43e7 e792 5b6b d1bf 5345 683b 87f0 c6bf
00000630: ff77 8a2f 6bcb cdbf 7554 2263 48e7 cbbf
00000640: bfcb c9d6 76ec 6b3e db0b 4661 b440 773e
00000650: 09d1 7ec1 5aff b8bf 4159 1355 480c cabf
00000660: e21b db1a 7e0e d1bf 8852 65d5 c3ba 71be
00000670: d406 7fe8 e90e cabf c5f4 fd50 f703 d1bf
00000680: 169d a5ba 60fc c0bf e104 da32 aba1 cebf
00000690: 76cf 1cd4 ca9a d3bf 283b 20bc 84e5 4bbe
000006a0: 948b 8d83 4757 563e e410 0626 96d3 d0bf
000006b0: 73c1 85d9 d96b c7bf 976e 3baf 210b d03f
000006c0: 89c5 eee9 37e5 c4bf 8018 6bb8 83b0 6fbe
000006d0: 39a5 21c4 cce8 c6bf 8fd4 c33d 7b7f bfbf
000006e0: 0023 1c6e 09c5 273e 5e62 5eaf 4491 bebf
000006f0: 9317 6181 8983 d3bf 57ad 5e83 e306 a5bf
00000700: 10a8 b8b4 7d52 6c3e 8d69 b231 502c 713e
00000710: 754a 096a 47d5 d0bf 0ef0 1ade a985 69be
00000720: 506b fb6c 70b1 c6bf 007e 958b 4664 c4bf
00000730: e387 e6d4 1a6f d13f b42f a094 c365 c5bf
00000740: 7af2 d433 43f7 bfbf 8d1c 8a7e d36b cfbf
00000750: b0c9 c78b bb1a 72be e421 f81c 1481 d0bf
00000760: 785a c70f 3d94 c5bf 430e 2583 7d40 cebf
00000770: 672f 850d 5435 c6bf 1da6 40d5 fd58 6bbe
00000780: 48af c630 eb16 603e 98e6 5a3c 6473 733e
00000790: 924e a3a8 ac57 d3bf 38bc 79c5 d751 4c3e
000007a0: 60b2 b70f 78b5 d2bf 04f3 3007 6816 613e
000007b0: d4bd 8561 d4fc 70be 7eed eb37 45af 6b3e
000007c0: b328 59a2 1ac9 c6bf 8cb6 0113 1e7a 6bbe
000007d0: d831 2ac5 7cfd 763e d21c 9a0d 85ad d0bf
000007e0: 185b c289 bd4c 51be 8a13 61a5 8c05 a0bf
000007f0: dde7 19b8 87df 73be e009 7840 6a3f c5bf
4.940052345195555e-08 -5.509529873024195e-08 -0.0498885472923856 -0.2922637190343039 -0.2288698726124335 -1.0529925443996025e-08 -8.666218465563361e-08 -3.808871500120621e-08
5.587045740136953e-09 5.4077619245865816e-08 -6.788144025615145e-08 -0.00012101634179391763 -0.1419990833508408 -7.550437283645235e-08 -0.229798062828414 9.566004215949465e-08
-6.1544568862727994e-06 -6.37072204664003e-08 -0.0608502770408655 7.928781548572398e-08 -0.14800934388838582 -0.14735310038609448 -0.0010287905972924112 1.2446719100692794e-08
-5.468406941952639e-08 -0.19868075442588587 -2.198915649075808e-08 -8.631871231283463e-08 -1.2117127168530876e-08 -3.366759373625773e-08 6.725648627609773e-08 -0.09599406583500292
-0.003484714517309535 -0.07906769981246263 -0.19806828497637824 7.875686817046283e-09 -0.1887599133632347 -1.0909263256931162e-08 -0.2714682788028427 -0.13377554643165768
1.976452155308183e-08 6.683535514973856e-08 8.253226677596753e-08 -0.1624568381883672 -0.1732428760866121 6.412253543825813e-08 -0.15933182962406708 -0.13202001726749701
-0.20637520414212931 -3.252659155721007e-08 2.367018581040149e-05 -0.14716764728354306 4.259296301356587e-06 -0.25061230121414263 -0.26516915196988095 -1.1322574857153789e-07
-7.684099725513472e-08 -5.1993918816055916e-08 5.406601693518655e-08 -4.065107326597081e-08 -0.1883512971066771 3.835489155164546e-09 3.613712592450426e-08 -0.08491637785703723
-0.11543271592796767 -0.17146078106707008 -0.14810790152024567 -9.420382859814581e-08 6.651685054740253e-08 -0.26750696484249836 -0.17356313293166906 -1.1223091241729317e-07
-8.088519857760195e-08 -0.03341414357035036 -0.051988373531140296 -0.025433190879392643 -0.18371631734896032 4.0853949920923314e-08 -0.2574037278265136 -0.16513929747943873
-5.59872600877195e-08 -6.714528977105802e-08 -0.09564116543854083 -0.1706882307388951 -0.20779542222452863 -4.795287371268699e-08 1.1601780535619355e-08 7.23661211884227e-08
-0.13540663690543076 3.546667749391452e-08 -4.5965517731596813e-08 -1.149447780482752e-07 2.8132055900832077e-08 -0.1914259428171564 1.4801049746175299e-08 -4.102835006429502e-08
3.670218212483637e-08 -6.425694531382199e-08 8.460391808963308e-08 -0.10152837183928318 1.0887601445277095e-07 -0.14777046828417217 -0.24828790915947266 -0.018557707790926227
1.1459842373612015e-07 1.2932314513264393e-08 6.315792756752376e-08 5.6848914026398365e-08 3.8439999215315817e-08 -0.17746082493390913 -6.626560371102069e-08 -0.1861992300803398
-0.16922359457828517 5.0550739781164866e-08 8.060249140111175e-08 -8.65402749671293e-09 -0.2068577631849153 -0.30637937713280655 -0.11513594592372642 8.967897453125968e-09
-0.27252660935799655 -0.19604765819419548 -0.09329091351300418 -0.19837528073142727 -0.3007954232772512 0.24454581930392177 0.021616123586438954 -2.5350627676594867e-08
-0.2333481410045778 6.469824270408057e-08 -0.2107098620351428 -0.001818553320783268 -0.17796593648385114 -1.0924160070373969e-07 -0.23544635845748446 -0.26033916621379466
2.629737876842408e-05 -0.29842012046197874 -0.061353925553909845 -5.417035429734372e-08 -0.23873368525861102 -0.17919131868178506 -0.004113546554942825 -5.439824181010872e-08
-0.19010654224807577 -0.27046262738899635 -0.27184344170453467 -0.20292285241679286 -0.24408530059491293 -8.497839106801222e-08 -0.24492557796835165 -0.1333538836733362
-0.01531093055332929 -0.16502972417138673 0.05499047131245704 -0.2496865941387711 -0.18598322996329716 -0.1077836002704948 -0.2887396218882301 -0.1614252242116916
-0.22271567446181492 -0.2058309929308591 -0.20802479493323917 -0.29405833133109827 -0.21833966612514596 0.14712104155163258 -0.23341742669863616 -0.18899520121016572
-0.21445767740371136 4.9701980439318784e-08 -0.000569779678239025 -0.21924859766205326 -0.000876387262625629 -0.24708887912766628 -0.17777247885877917 -0.182327500972829
-0.2119496621030378 -0.2575797713384758 8.182884325480106e-08 -0.18605527573191893 -0.2860192578523033 -0.2668335102743551 6.202180546588393e-08 -0.09650056201231054
-0.1772075815268623 -0.20445094686884688 -0.11726688687606356 -0.224685387228698 -0.2729128591531535 -0.20802363381327918 -0.16918248425471386 -0.2075019066405201
-0.17630425514776038 -0.07213579704908751 -0.09381774057522663 -0.03913104842916474 -0.27217759462620367 -0.17921533966777278 -0.2327703458913106 -0.21799568977863584
5.201192263418366e-08 8.662325285371661e-08 -0.09764640068062048 -0.20349983362275206 -0.26650955793996733 -6.604772315639064e-08 -0.20358013012269416 -0.2658670702874811
-0.13270196069354573 -0.2393087385462769 -0.30632277216067594 -1.299034646867488e-08 2.0806617071095826e-08 -0.262914216167941 -0.182978850567007 0.25067941772952324
-0.16324519083495329 -5.9026311884740345e-08 -0.1789794881508813 -0.12303896196302076 2.7671543813966655e-09 -0.11940411836111184 -0.304903389307918 -0.04106818178783083
5.275426548060507e-08 6.39747778523432e-08 -0.263017514754359 -4.753865902098758e-08 -0.17729001351730256 -0.1593101674616122 0.27240629950585865 -0.16716809041133518
-0.1248666764776746 -0.24547809294401582 -6.744423592506738e-08 -0.2578783305075645 -0.16858638067670362 -0.23634308723022643 -0.1735024515168064 -5.093891766755728e-08
2.996907797215976e-08 7.245968366544477e-08 -0.3022262236456551 1.3187387334232754e-08 -0.2923259881488658 3.182799526060355e-08 -6.328379987206651e-08 5.1566678918212604e-08
-0.1780122082439611 -5.1179940619615804e-08 8.56451134822629e-08 -0.2605908043701223 -1.61116636565152e-08 -0.03129233855046383 -7.403330750692532e-08 -0.16599777362723867

bias f8 [120]
00000000: 2b36 69c6 d071 d3bf 4d01 a616 5a0a d3bf
00000010: 7744 43c5 b401 cfbf fafa 7a8d 96bd bf3f
00000020: ac98 be7a f64e c3bf 8ae5 e4d9 fae5 cfbf
00000030: 854b 090a a789 d2bf 8251 6c5f 5865 ccbf
00000040: aca3 7bec 967f d1bf 4f23 53f2 234f d8bf
00000050: 2277 4777 194f aabf 4a8a 2fc2 352b 7bbf
00000060: 1605 3d5e d375 cdbf fdee 0f42 8643 d4bf
00000070: cca2 ad3e a921 d1bf d97b 261b 1044 d4bf
00000080: deb1 f75b 1689 c8bf 9916 b480 98f2 b2bf
00000090: 5174 4d96 4dc6 a4bf 6ffd a924 1f04 d0bf
000000a0: 795d 034f b719 ddbf 48f0 4d09 8885 d0bf
000000b0: 8f24 cf60 c687 c9bf 6667 5676 2417 ccbf
000000c0: ef7a e837 33e7 c8bf 33f7 ea19 17d0 bdbf
000000d0: 9746 4bc7 82bd dcbf 68be 01d8 6408 b9bf
000000e0: 51a1 b62e 7a07 dcbf 4c28 14ec e21d b3bf
000000f0: 1209 d6c1 90c3 c0bf 9539 9d93 90b3 d3bf
00000100: 20af cd35 1f49 70bf 922d b5ec 7f8f d8bf
00000110: 610d a7d5 c3a0 cfbf b8d4 e9bd a3ae cfbf
00000120: 6ecc a98d eff6 ccbf d6fd e89c 265f d0bf
00000130: e032 9fdd 6948 d1bf 398c cb69 a278 afbf
00000140: fc0d 8bd9 d37e c4bf 219d 2f71 d713 d3bf
00000150: 1418 595a f06d e5bf 1193 6c11 6e3f e5bf
00000160: 3a5c 7432 dbd4 c8bf 3d24 3d31 c3b8 d1bf
00000170: 4820 1771 0507 d1bf 13ca 89c5 925d c0bf
00000180: 424b af04 b38b ccbf 2f23 07ef 001c e2bf
00000190: abfe d5fa 0d71 cbbf a0e5 dd1e b962 d3bf
000001a0: 7298 06c1 f177 cbbf 210c 2239 17e0 cdbf
000001b0: d556 ecdb 3e1e cabf bbba 349f 84ef e3bf
000001c0: 1e66 ce9f 1d7a d0bf ea3f 7a34 ac9f d6bf
000001d0: 3e36 37a8 6472 d0bf 8b89 3f8f 6cf1 a0bf
000001e0: c210 8cf4 082a d1bf c257 cccf 0faf c6bf
000001f0: c0ad 161b 3726 cf3f 0bdc 6a09 c27e d3bf
00000200: 3a4c ae7f de88 cbbf 9b83 751a 5f69 cfbf
00000210: 5137 e7e4 39d0 d0bf 0622 fbf8 3432 c9bf
00000220: e34a 9a6f 00a9 d0bf 9671 d8fb 3677 c13f
00000230: ef4b c808 eddb aabf 9f51 8840 195a d5bf
00000240: 7959 c368 c983 e6bf 825e 553a 9f66 d3bf
00000250: 7c95 f7a4 d588 d1bf 5848 867a 76fe e0bf
00000260: 3ae8 0ad4 0258 d7bf 1c55 9525 09b6 d7bf
00000270: 419d 5dca e3b0 c3bf 57e1 8bbe 15e3 cabf
00000280: b791 ade5 0dc6 e5bf 40c4 e1fa bba0 cebf
00000290: da34 834e 3cbc cebf 72e4 67e8 e63e d1bf
000002a0: be2f 7941 31d5 d7bf b59f 0322 b1e1 d5bf
000002b0: caad 6f28 6cf5 c5bf 5d55 a41c 9e89 d9bf
000002c0: 36bd 2bf2 8d4f cabf eaba 5f7b 2692 c8bf
000002d0: acf4 a004 f3a3 cdbf 2efe 9ebf 885f c6bf
000002e0: dc1e 0b6b c1c8 c9bf 3881 e37d b6cc d23f
000002f0: e9be 2c2f c8f2 bfbf 386c 19dc c9ae e4bf
00000300: 9177 75fa 7b35 d7bf af04 7b02 41b0 c13f
00000310: 9fb7 dca8 9eb5 d7bf db28 5545 3339 cdbf
00000320: 1402 4856 770f cabf a19c ef1c 6e1a b7bf
00000330: 8cc8 1eb0 4907 d0bf ebc6 55ce d67b d2bf
00000340: 92ea 6f9d fc3c d0bf 4ac6 03dc 234a 9bbf
00000350: e1fc b9ab b4de cabf ede8 f7b7 6a02 debf
00000360: 80aa d15a 22b8 cebf 29b4 862f 1804 d3bf
00000370: 8918 6606 8cf1 d0bf 241d baa1 60b1 c6bf
00000380: aa03 8f8a 27b8 d0bf 4630 4237 1685 d3bf
00000390: 27ed eb2c bd9e d0bf 537a 1a7e 1f3c d0bf
000003a0: fbbc 298b 298d a0bf 2d30 5750 8ae5 d5bf
000003b0: 6ad5 acbc 2e90 e7bf 3b18 cf03 8c9f b4bf
-0.30382174850533045 -0.29750683032763875 -0.2422395671078765 0.12398663477049957 -0.15084725373634933 -0.2492059291778726 -0.2896516416560007 -0.22184281024295777
-0.27341244787254015 -0.3798303476765356 -0.051384731111950424 -0.0066330051367651886 -0.2301582536838757 -0.31662136508360544 -0.2676795112698016 -0.3166542306079783
-0.19168357363322647 -0.07401421682524258 -0.04057543239353179 -0.25025156574698476 -0.45469458309295124 -0.25815010937344995 -0.1994560215664802 -0.2194562509364985
-0.19455566625489193 -0.11645645506629591 -0.4490668245535771 -0.09778433106998252 -0.4379563766656434 -0.0746747804988967 -0.13096818413402694 -0.30783476272054006
-0.003975984492040202 -0.38375852695454526 -0.2470936578011829 -0.24751707814326607 -0.22628588120605592 -0.2558075458836958 -0.27004477160225626 -0.061467242636148396
-0.16012046930528345 -0.2980860333759257 -0.6696702732667767 -0.6639929142298532 -0.19399585689163407 -0.27690200623016265 -0.2660535435102287 -0.12785563130781039
-0.22301328400370762 -0.5659184139741223 -0.21438765285346525 -0.3029005814965675 -0.21459791112028231 -0.23340120591828487 -0.20404802072942255 -0.6229880437366185
-0.2574533520324581 -0.35349564671287104 -0.25698200633346235 -0.03309191940913355 -0.2681906116633962 -0.17721746107480213 0.24335373709378239 -0.3046116916625016
-0.21511441454330954 -0.24540318290658267 -0.262709115541715 -0.19684469373011398 -0.2603150453443687 0.13645064637320264 -0.052459151575156564 -0.33362418462754734
-0.703587250342749 -0.3031385488188577 -0.27397671804495594 -0.5310623543794106 -0.36474676806722395 -0.3704855792069155 -0.15383574849259143 -0.21005508235954082
-0.680426548566678 -0.23928022146313488 -0.2401194938051166 -0.2694642324054889 -0.3723872317684672 -0.341900141922902 -0.17155220007349065 -0.39902451321662175
-0.20555280995129416 -0.19196015380972337 -0.2315658352471578 -0.17479047161576616 -0.2014390728638692 0.2937446812993758 -0.12479830886581635 -0.6463364886107064
-0.3626394220244658 0.13819134350891235 -0.37046019068190533 -0.2283081139124253 -0.20359698975518425 -0.090247041763734 -0.25044481467478685 -0.2888085379591831
-0.2537223374817269 -0.026650009444841673 -0.20992143998225912 -0.46889751401580676 -0.23999432978174084 -0.29712490693310883 -0.26474285721668217 -0.17728813072992822
-0.2612398961173833 -0.30499797245352445 -0.25968865763543864 -0.25366961779392233 -0.03232698272483422 -0.34213502736816076 -0.7363504109440957 -0.08055949299804947

weight f8 [120, 120]
00000000: 2978 7f27 9c76 69bf b774 d538 eeba 22bf
00000010: 88c6 725e 9f0a 753e 1899 50f1 147f 95bf
00000020: 34af f92b 576d 6c3e c299 9f86 e35d 743e
00000030: 4e52 787e c6e3 6fbe c0e4 bafc 4f69 67be
00000040: c4f4 3650 f145 413e 42fe 94c4 5bd7 723e
00000050: ff44 afd4 93ea 63be f0f9 5d9e 1078 2d3e
00000060: 3fa1 e5ab b363 6bbf b113 a95d 9fa3 e73e
00000070: b2f7 4e70 5b3d 533e bbdd b940 e2bd 7d3e
00000080: f0d9 dcf8 8fb9 403e 5760 2381 9d9a babf
00000090: a310 dfc3 e080 88bf bc01 ef7b 7bd4 a6bf
000000a0: 0f32 0ee3 c952 a3bf 784c b8a3 2b77 a3bf
000000b0: 3abb d8ac 2891 693e 2071 d920 5138 803e
000000c0: 1111 30f8 73f6 9dbf 90c9 0493 272e 523e
000000d0: 8fe0 9b3b b070 b8be c0fb a05f 63cb 7d3e
000000e0: 38fa 4e35 4b7a c4be 283a 9543 3680 6fbe
000000f0: 483a 6278 ee86 47be a21d 6edc aa5a 92bf
00000100: 5620 d2e4 b783 693e ab5f f08e 7776 9ebf
00000110: 976d 845e a8a9 98bf 06ac 838f 558f bbbf
00000120: a7ac 2ad7 82bc 60be 2eb2 55b2 c18d 563e
00000130: 7416 33a7 c9f1 f43e ac0d 3383 038e 9cbf
00000140: 0465 3255 2e06 493e 1c18 80c1 1e17 58be
00000150: 2e6e 8099 9c59 98be 7c6c c76e cfa0 b4bf
00000160: 95c2 6ed7 37fe b1bf 751e 1c24 af8a 603e
00000170: c0d7 3c61 c611 19be 5a93 1802 feab 6bbe
00000180: 3ec7 f7b1 26f8 61be 014a 66e9 3ac3 acbf
00000190: ce15 647d de74 703e 6c7e 2223 ce90 50be
000001a0: 6c57 45d3 13df 74be f0c8 bda1 bad6 44be
000001b0: 0469 c978 45fe 69be 04c3 54f1 8724 3fbf
000001c0: c843 bfc6 f402 763e 284d 8041 3f55 59be
000001d0: bec9 9bc0 b764 96bf 235a d5a7 d2a1 abbf
000001e0: 8395 2e17 1d95 663e 1e9a 01d8 00cb 44bf
000001f0: 6857 52e0 0453 733e 1e2e f22c dd75 69be
00000200: d01e f63d 9a67 60be 90b6 9ccd f743 6c3e
00000210: 309e 2969 fd1c 70be 3a51 ad39 ad5a 40bf
00000220: 8d35 9d2c a081 7a3e aa52 5029 b4f9 14bf
00000230: 3a14 3e25 5ddb 873e 4e6a 853f 6279 a63e
00000240: f35d f706 4114 c33e 7e81 92b7 148e b1bf
00000250: b0fb cf69 48fe cc3e 025b 5001 8a30 88bf
00000260: 1ded 0fff f647 c0bf c0b8 9291 b1a9 91bf
00000270: 06d8 97f0 f483 7d3e 601d 67aa 42e5 65be
00000280: ca9d 5e70 40f1 d7be 71fe 97e6 b082 09bf
00000290: b8a0 e6c1 6300 b1bf 2633 a6df be48 713e
000002a0: 99cf 373a c16b 21bf f71b d0e2 ee70 b2bf
000002b0: 6008 c5e1 9f36 7a3e 2f19 2c34 70aa b8bf
000002c0: 80e9 c81b ef09 fe3d 2f83 7202 b7b7 69be
000002d0: 98dc 10e6 b2b5 76be 1884 8c90 073a 6b3e
000002e0: 70d9 85d0 6f7d afbf 138c 8f69 658d 683e
000002f0: 01b4 96c9 5b64 c1bf e234 b5f1 6ede a3bf
00000300: 570d 6425 070e b8bf fb95 ebe6 2320 b2bf
00000310: bef9 e3d8 1615 cdbe 2edc 7954 bd2c 633e
00000320: 42bc 4ac0 9109 55be a7aa b408 a3a0 75be
00000330: 207d ad5e 3bab 6ebe 6aa7 b03f af7d 7fbe
00000340: c559 87c2 6bca 6b3e ffaf 5581 aa7b b9bf
00000350: d1a0 3fed 76e9 aebf 03b0 ce60 7721 91bf
00000360: 2d03 b92b d283 b0bf d855 62be 1c11 67be
00000370: d0a4 80ec fd17 5dbe 6661 75be 4e17 693e
00000380: fcda edfa ed09 703e 446b f519 8535 a1bf
00000390: 1de1 a6b5 faa3 6a3e 3c32 7f38 f82c 673e
000003a0: b0ea 5702 93b8 3c3e 2479 98a3 d197 b6bf
000003b0: 1f1b 1de6 6eff f63e c9d6 b8e4 c1d9 a3bf
000003c0: 6c1f d2f0 dd35 62be ce2a fe3f 1044 723e
000003d0: 7d8c 1a6a 12c0 bcbf 7cb4 46a0 4390 613e
000003e0: 6e71 e3b9 3911 6abe bdbe 4e64 5d1e b0bf
000003f0: 9251 78a7 5bd8 52be 4fb8 9c1d 6cc2 7a3e
00000400: 712a 4170 24a8 cebf 36ec dd2d d1b1 6dbe
00000410: 51f6 2ee7 b062 cebf 49b6 82de a3d8 cabf
00000420: 18ee 783b 493b 44be 997a fb7e 43c9 d2bf
00000430: e3b2 e4d2 42e8 c2bf f842 d36f c8ce c8bf
00000440: e50a 1644 fa6d 7f3e 2496 f491 4b9e 53be
00000450: eb85 3ea7 a9c5 cfbf 3ea4 35dc 810f d1bf
00000460: a818 260d 41c8 cdbf 38d3 98ca 298b 64be
00000470: 3ce6 61dd 5698 5abe 09d3 108f ff3a d0bf
00000480: fb6b 1900 63a3 6cbe 1139 09e9 8170 c8bf
00000490: 5c29 a836 b774 6b3e 0e1a 28eb b4bb 63be
000004a0: 61d9 d294 4a1c d1bf 6b9c 7a08 c0c2 c8bf
000004b0: 0016 0757 237a 283e 40eb 2242 7fdb d3bf
000004c0: 9e37 9feb fa63 74be e416 060d b1c6 453e
000004d0: 202c 6476 e9dc 39be d8c9 2b4d 9cb5 353e
000004e0: a8d0 bc71 13ae 43be a495 80a3 3206 b1bf
000004f0: 29a0 2774 3b76 d1bf 61eb eb60 45e4 cfbf
00000500: b43d 60f1 a744 433e 4367 add2 4875 b2be
00000510: 0592 8c86 aeaa d2bf 9f7b e947 6f27 d4bf
00000520: c0b1 95b0 433c 73be e593 43ce 7594 c7bf
00000530: 6e77 8088 3bb0 c1bf 2ede 18f8 c31f cabf
00000540: 3c43 9ed0 3937 543e defe 9c22 bcd7 d2bf
00000550: 469f 1284 5038 cebf f873 ee1e 1eda c2bf
00000560: c721 cd3e 17fe cbbf 4220 bda2 40ac 653e
00000570: f034 6d8f d171 4f3e fd16 6d67 f191 d2bf
00000580: 83a6 b52b 76cb 70be 4286 66b7 20f1 723e
00000590: 0617 e708 8573 d0bf 9875 7859 af92 4d3e
000005a0: db95 62c1 83f9 c1bf ae20 bac6 a27a 68be
000005b0: 2df3 c75a 77d6 89bf 41b1 32a7 690f c3bf
000005c0: 2a19 9e3c 42d1 c2bf 543a 41c3 28a9 653e
000005d0: b0fc 558f 7efc 393e 5cd6 393a 70c8 6bbe
000005e0: 0748 35a3 6c7c cbbf 6700 0bb9 e45d 70be
000005f0: 5981 20ff 9058 d2bf 1f52 d7fc a794 63be
00000600: 9683 9d29 4586 d2bf ec01 65a4 83ff cfbf
00000610: 4d8b 2374 8876 68be fa4b 493f a98f cebf
00000620: 2822 5066 f642 d0bf d34e b687 069a d0bf
00000630: cec5 3a9c a04d b1bf 6635 434a d08b 6cbe
00000640: d272 0163 5428 d1bf d609 63f0 0182 613e
00000650: 645c 175b 9993 d2bf 00c2 fe45 37e1 523e
00000660: 4525 90e6 b279 6d3e a020 d59d ea5c 17be
00000670: 1e71 bc90 f450 69be 15b0 b4f9 59db d0bf
00000680: 0812 1796 57f3 7bbe 1762 f59e e861 63be
00000690: c9d6 d317 73bf c9bf b6ce 5707 1db4 76be
000006a0: d119 c7c7 e943 66be 8b41 7268 b477 04bf
000006b0: dca7 e552 9647 673e 69e9 8e34 bfee d1bf
000006c0: c451 df84 5b36 cebf 029e d935 10a6 68be
000006d0: abdc a14b aa87 63be 8c08 d8fe e276 743e
000006e0: 4170 8b62 46e8 6cbf 7b78 bee7 2d2d b9bf
000006f0: 2dbf 1182 9d53 80be 4017 440e 757b 6d3e
00000700: bd89 9da3 2e42 c6bf 2667 cb94 99be cfbf
00000710: 297f 06e2 d8dc d0bf e2fd 95e1 9a81 68be
00000720: f365 0bb1 ca65 d3bf 9891 7cb4 9315 783e
00000730: 3045 6371 9dcf 523e 5c14 109b 958a 4c3e
00000740: 00c3 9f56 accb 0abe 20e9 e7a5 3b5b 63be
00000750: be27 c8b7 cf5c c2bf 0ffa 180b 67f7 cbbf
00000760: 31a8 5e91 3482 bfbf 0038 79bf 4978 463e
00000770: ec4e d259 23cc cfbf 660a ace1 ed45 72be
00000780: ec8b ea30 8c34 afbf 7675 d80b 2754 a3bf
00000790: be8f 30c9 5a2f 583e 62dd a6ac d683 d4bf
000007a0: 5834 2052 174d 58be 4140 31f6 3f9d 70be
000007b0: e654 3506 3b25 ccbf ac44 61ef 1173 7bbe
000007c0: 6eba 3edb 5ba3 623e 108c 1418 2c5e 7bbe
000007d0: 8a32 68f6 c428 753e cfee 5f70 3dbf 77be
000007e0: dcf6 eb7e 9d61 b5bf ba20 cc23 566e 95bf
000007f0: 3660 5834 df34 7ebe dfdb 2c5d 4a3c ca3f
-0.0031083154571964933 -0.00014290006621823167 7.838567449532748e-08 -0.0209925911223304 5.2949621129375583e-08 7.587206743396633e-08 -5.939928354403777e-08 -4.360708735551865e-08
8.043466787473817e-09 7.018910354750322e-08 -3.709703352113253e-08 3.4306435356893857e-09 -0.003343439980359047 1.1272025337247462e-05 1.7918345047078068e-08 1.1079659161828727e-07
7.788116620019449e-09 -0.10392174151218235 -0.011964565255660203 -0.04458986175405097 -0.037741002051095866 -0.03801857350858823 4.7622298643036004e-08 1.2084832727827006e-07
-0.029260456107310043 1.6931715752716048e-08 -1.456748789539458e-06 1.1099310617908951e-07 -2.4411332710521488e-06 -5.867486447629562e-08 -1.0955648621183195e-08 -0.01792399378203203
4.752450575527044e-08 -0.02974879083566832 -0.024084692734601978 -0.1076558566452804 -3.117392112968986e-08 2.1004804247867773e-08 1.9974215729209923e-05 -0.02788548935201411
1.1652775333460926e-08 -2.2435852370404235e-08 -3.6284395710389213e-07 -0.08057877020421417 -0.07028531083666174 3.0811382346600495e-08 -1.4592330720072484e-09 -5.15428271281591e-08
-3.3470504808606354e-08 -0.05617698763957791 6.130531402325395e-08 -1.5427959528510146e-08 -7.775201000167824e-08 -9.703815577226308e-09 -4.841619647275127e-08 -0.0004751998797756648
8.19994043215484e-08 -2.3593191483882576e-08 -0.021868582850353972 -0.05396898554561271 4.2063137770883426e-08 -0.0006345514411919028 7.198860181781757e-08 -4.742370195942771e-08
-3.055612984430663e-08 5.264859632838189e-08 -6.002650313753799e-08 -0.000499090750376164 9.874384967780667e-08 -8.001482122239426e-05 1.7774768201417152e-07 6.69782024546978e-07
2.2744080110206063e-06 -0.06857423288102457 3.4562697934776608e-06 -0.011811330952736569 -0.1271961923047024 -0.017248892316893416 1.0995364276692232e-07 -4.078363717883082e-08
-5.708310487329913e-06 -4.8657439787544515e-05 -0.06641219600590176 6.438852287998075e-08 -0.00013291105015833247 -0.07203572308945626 9.765243941687519e-08 -0.09635068200814055
4.3712214038081354e-10 -4.7902830418701714e-08 -8.460045243593805e-08 5.071363957097514e-08 -0.06150388164944587 4.573227591739072e-08 -0.13587519972989529 -0.038806406979895916
-0.0939640489851191 -0.07080292117787927 -3.466889842872899e-06 3.571578105221639e-08 -1.9592587124469268e-08 -8.056867011457335e-08 -5.712523062114566e-08 -1.1731295039619883e-07
5.1764225187235616e-08 -0.09954324395738466 -0.06037494321918902 -0.016729226382878448 -0.06451142852257581 -4.29653466565008e-08 -2.70956366511818e-08 4.6735713794378845e-08
5.974913962017385e-08 -0.0336114496410205 4.962188056588351e-08 4.316803542368633e-08 6.687127328866904e-09 -0.08825407260926404 2.1932397778169564e-05 -0.0387707320882505
-3.391954637397187e-08 6.804567931181019e-08 -0.11230578508780016 3.271462748213233e-08 -4.8554105834647204e-08 -0.0629633302585217 -1.7550912249641707e-08 9.968676497877634e-08
-0.23950629693202388 -5.5310499054926414e-08 -0.237386811144392 -0.2097363316037664 -9.42106646785132e-09 -0.2935341587125691 -0.14771304414298134 -0.19381051502434565
1.1708438398507853e-07 -1.827100348547139e-08 -0.24821968713972295 -0.2665714884265674 -0.23267377035171433 -3.826544887585969e-08 -2.476859414137885e-08 -0.2536009690405057
-5.334285902983725e-08 -0.19093345526420838 5.1140637353439666e-08 -3.675600392457041e-08 -0.26735176595265925 -0.19344330228816217 2.8495096770197975e-09 -0.3102720399726202
-7.596070875014291e-08 1.0140304957489598e-08 -6.0216843510332615e-09 5.054617352049493e-09 -9.164206775035234e-09 -0.06650082103495564 -0.27284132331124283 -0.24915377838609756
8.97244904418508e-09 -1.1001910233593893e-06 -0.29166758670388077 -0.3149069025293389 -7.165747830323166e-08 -0.18421814509852577 -0.1381906906616978 -0.20409440626257108
1.8827361926055576e-08 -0.2944174135227352 -0.2360935826193275 -0.14728142271351863 -0.2186917359015423 4.036884990052652e-08 1.4642534724345874e-08 -0.29015765285690504
-6.256540079564932e-08 7.056409665484289e-08 -0.2570507609310514 1.3770995717936172e-08 -0.14042708342201035 -4.559577679053696e-08 -0.012616093118589322 -0.14890785850492175
-0.14701106986849172 4.034634351666136e-08 6.050408387302072e-09 -5.174980024790522e-08 -0.21473463029047954 -6.097097427892326e-08 -0.2866556636309006 -3.6471874058762934e-08
-0.2894452005767162 -0.24998517539098886 -4.556592482650105e-08 -0.23875918951179625 -0.2540870665693853 -0.2594009709657545 -0.06759074987601041 -5.317134224719728e-08
-0.2680865256168491 3.2610897136783205e-08 -0.2902587308466933 1.7583137057194815e-08 5.490218486093531e-08 -1.3599029604923244e-09 -4.7155156305944804e-08 -0.2633881510289496
-1.0412393216310687e-07 -3.61026372084936e-08 -0.20115507758571585 -8.457738139688818e-08 -4.1472326881313046e-08 -3.903884231093714e-05 4.336170388275968e-08 -0.2801969540847922
-0.23603385913760466 -4.591175327140676e-08 -3.6377352200775245e-08 7.623583516555686e-08 -0.0035287260728704977 -0.0983456316739381 -1.2164281407459548e-07 5.491497903808759e-08
-0.1738947199729192 -0.24800414815290955 -0.26347944329062273 -4.564648410209151e-08 -0.3030878762197908 8.972095344152921e-08 1.751910535462278e-08 1.3290599594839876e-08
-7.79854553545465e-10 -3.6054065278390385e-08 -0.14345737909053285 -0.2184876255214054 -0.12308052586618669 1.0463351059850377e-08 -0.2484173000890374 -6.807282952259934e-08
-0.060947781535354156 -0.03775140781020074 2.2524016939900656e-08 -0.3205467878392111 -2.2632197567473628e-08 -6.189293126732369e-08 -0.2198861866296859 -1.0225732780088184e-07
3.471620449391557e-08 -1.0195322454726034e-07 7.882436890028125e-08 -8.846458507399683e-08 -0.08352074001956161 -0.02092871278276285 -1.1252809625111172e-07 0.2049649195630243
