pyTorch/noisey_paths/models/dropout/ow_0.5_512_NP_model_2.pth (torch, 470675 bytes, 10 tensors)

weight f8 [120, 60]
0	0x3c06dab277f11a14	1.54866663882665e-19
1	0xbc0ccc5b21db2a0a	-1.9514463807755125e-19
2	0xbbf1bbd63bcf9a33	-6.008424042546846e-20
3	0x3c1785af92564313	3.1878539332548877e-19
4	0xbbf0e609bb2de65f	-5.72546363681228e-20
5	0xbc1339d10aa62858	-2.6055879962914323e-19
6	0x3be6365fca43d230	3.762926781979389e-20
7	0xbbeb190cbe45b450	-4.590554467956326e-20
8	0xbbf150aa4e63c16c	-5.866583622203649e-20
9	0x3c0c6f15600775ba	1.926757358557204e-19
10	0x3c080e92ce2a704c	1.630160821031223e-19
11	0xbc14c4fcb7c76a4b	-2.814789575592983e-19
12	0xbbf95350aa2ba8f2	-8.580596084763144e-20
13	0xbc05c1c7aff40426	-1.47430849786514e-19
14	0xbbee6f27374cd740	-5.155752692946579e-20
15	0x3c04beed3a813fbd	1.4057905854058972e-19
16	0xbc04340c858c12b6	-1.369029948101637e-19
17	0xbc0b007b71954096	-1.82971880384662e-19
18	0xbbe08a4a15046844	-2.8020176685759164e-20
19	0xbc013a6514882683	-1.1674217949145993e-19
20	0xbbebd9493f709b38	-4.7177658106686364e-20
21	0xbbf846d9e25c2720	-8.225286957256227e-20
22	0x3c185d8966b0908e	3.3021244463963057e-19
23	0x3c03207bb03c0a84	1.2960883001238796e-19
24	0xbbf77a720df7f444	-7.954758418589402e-20
25	0x3c05619c49ad8934	1.4488526354028849e-19
26	0x3be44cbecc10f2fc	3.438917569291251e-20
27	0xbc0b5579b0e51beb	-1.8522163042714222e-19
28	0x3c1041cf41c97e38	2.203243655844029e-19
29	0xbc08d131aa0ff3c8	-1.6816764497845364e-19
30	0x3c01c62b471907a6	1.204419719996751e-19
31	0xbc0625866688e4e9	-1.5007107725073276e-19
32	0xbc02b8b0bbe89b68	-1.2686145772049538e-19
33	0x3bfbc52669758e14	9.408881744550206e-20
34	0xbc0c5024d1c470b0	-1.9185676959021123e-19
35	0xbbfaec8ffd199150	-9.122230454728457e-20
36	0xbfcc4d371cec9ec5	-0.22110642349547596
37	0x3bfe602cbc35758e	1.0291681584655153e-19
38	0xbc0f61eb9d1240f7	-2.126561014115192e-19
39	0x3bfa83687a6f4cb2	8.983059847784366e-20
40	0xbfd209976779d90c	-0.2818354139811994
41	0xbfd5073db837f1e0	-0.328566961193955
42	0xbfc7b8e49f2eeebc	-0.18532998821853208
43	0x3c086a5fbbed436b	1.6544602118341368e-19
44	0xbfcd2d9fe47e1399	-0.227954851692769
45	0xbfcf0a8402c7f791	-0.24250841270253123
46	0xbfc4bf08e414d334	-0.1620799173048454
47	0xbc16f39666796cd6	-3.1105101237100316e-19
48	0xbfc1473d6e91e0d1	-0.13498657130163008
49	0xbfc453abeb83e8e9	-0.15880345344323324
50	0xbfc759eea42ebf92	-0.1824320127175239
51	0x3bb6cb0f055603c0	4.826647409210655e-21
52	0xbfd31b97ae71e9bf	-0.29855911288873566
53	0xbfc186423aa67917	-0.13690975059302765
54	0xbfc6ebbc33fffc5d	-0.17906906642017165
55	0x3be37858dc9744e8	3.2983642404387097e-20
56	0xbfcc76556dc637b6	-0.22236125812599788
57	0xbfc7ea9744f71002	-0.18684664599834383
58	0xbfd581ef668099df	-0.3360556126594058
59	0xbfcc00771d109dfb	-0.21876419943986022
60	0x3be425d4fb3f95a4	3.413166879264871e-20
61	0x3c13cb1ef1f0597c	2.6825114577484947e-19
62	0xbc0467e5c412a560	-1.3827541609788492e-19
63	0x3c0b9a228cf556e8	1.8703903511582067e-19
64	0x3bef993e476d6da1	5.3530121674298084e-20
65	0xbbf1de8f2b183d50	-6.054378757870791e-20
66	0xbbfb8cc84860960e	-9.334279724971738e-20
67	0x3c16dc3b599e9bde	3.0981457376640427e-19
68	0x3bfe8079e32a38e8	1.0334432099399951e-19
69	0x3bd496895b295a50	1.743874259859788e-20
70	0x3c0eea1abab59470	2.0948459951610414e-19
71	0xbbfe853b4dba2c4c	-1.0340725993942847e-19
72	0xbc03d0eb25039776	-1.3427903552014795e-19
73	0xbbe4003d4ad6b454	-3.3882902259991143e-20
74	0xbc162ea35d1881fe	-3.00624599968966e-19
75	0x3c0ccaba555aa15b	1.951015420879639e-19
76	0xbc126f957f7ae912	-2.4985269533625274e-19
77	0xbbd8abc3e12399c0	-2.0897113955636364e-20
78	0xbbea21b6d5fbca4c	-4.4268815135488964e-20
79	0x3c1579ac73f6aefb	2.9104441938205147e-19
80	0x3c121494c9977a5f	2.450350485204581e-19
81	0xbbbc172535844120	-5.948376013791423e-21
82	0xbbf5d8b9987bd8b2	-7.401909883603032e-20
83	0xbc144a0a8b9561e4	-2.7497025120863213e-19
84	0x3bf43c291aa21d04	6.855885419725766e-20
85	0xbc0bda6cfca0fa49	-1.8874079753433569e-19
86	0x3c00ee0ed4d47492	1.147215583211398e-19
87	0xbbd52a8c26752300	-1.7928469634450042e-20
88	0x3bd7c16e0c690418	2.0121763562973598e-20
89	0x3c0743a7779a3493	1.576448532304024e-19
90	0x3bf4b9254abab248	7.021301834012601e-20
91	0x3c16a8b2d5ab5fbc	3.070864255177331e-19
92	0x3bf66d00aec428b8	7.598153764043328e-20
93	0x3c1657aa10bcc58b	3.0279650778059786e-19
94	0xbbdcaeff37829618	-2.4295938829754452e-20
95	0xbc060fc87594c4f6	-1.494955724167365e-19
96	0xbfd5c1a0e48203e8	-0.339943144943446
97	0x3c1415f4fb8668c1	2.7221293506231905e-19
98	0x3c048744083d1ae1	1.3910572616970479e-19
99	0xbbe25c75179f2024	-3.1105017796278955e-20
100	0xbfd5e7f10344ebbd	-0.3422815830160138
101	0xbfc4220a3a9eba46	-0.15728881704622405
102	0xbfcce4d76d5ebbae	-0.22573368873915228
103	0xbc043c4584c4b88c	-1.371206463943194e-19
104	0xbfd1d4989b130c7b	-0.27860083717332146
105	0xbfc44fc58724d639	-0.15868443583319605
106	0xbfd104a9c0457512	-0.2659096124314867
107	0xbc12df7351c8f467	-2.5577485801958635e-19
108	0xbfc736c974abf727	-0.18135946461546235
109	0xbfd500841ec5890f	-0.3281564999107482
110	0xbfcbdb1d7a016406	-0.21762436349197872
111	0xbbf8916d26da2792	-8.323986497159137e-20
112	0xbfd08dc78f698945	-0.2586535358915579
113	0xbfd62930a30b37a3	-0.34626403734443495
114	0xbfcd768559a3376f	-0.23017947079500398
115	0xbc0bc818f99d5fc2	-1.8825565488769747e-19
116	0xbfd10e144e0e8146	-0.26648433325501164
117	0xbfd1d305e0c9f289	-0.2785048194125826
118	0xbfc979a77c9eb435	-0.19902509293516038
119	0xbfd3e83765c5f6be	-0.31104836405561886
120	0x3c09e7249b173daa	1.755248934922776e-19
121	0xbbeab6b6d590af94	-4.525481438340695e-20
122	0xbbe06704ce044af8	-2.7786775336835453e-20
123	0xbc03d18fe8bade69	-1.3429607177173842e-19
124	0x3c09cf2861e748b6	1.7489000927436394e-19
125	0x3c0e511037e69ca7	2.0543363642815919e-19
126	0xbc01b2fabb0ed9d2	-1.199340265419582e-19
127	0xbc03d7383f3b5b0a	-1.3444582640045037e-19
128	0x3c0fb9447a6015ee	2.1496816060759114e-19
129	0xbc147b681a576875	-2.775836368777638e-19
130	0x3c0348989d4c742c	1.3067061207803216e-19
131	0x3c1376bbb3de51d9	2.6378369994151044e-19
132	0xbbfb05a93c70b00e	-9.155448205348721e-20
133	0xbc17841cc36bbfca	-3.187020945284604e-19
134	0x3c0a441a9e852728	1.7798555040457076e-19
135	0xbbe3264befe79e18	-3.2440677830630034e-20
136	0xbb9b8ca555e5e300	-1.4584529769158143e-21
137	0xbbe2d050e5593788	-3.1871705750255156e-20
138	0xbc0c0d4b8e25d1a3	-1.9008729955103897e-19
139	0x3c06df8f578c5fba	1.5499538078187583e-19
140	0xbbf76e06d7786f6c	-7.938322273212954e-20
141	0xbbee8defecd5bca8	-5.1761238485632423e-20
142	0xbc00e1e6c54788c9	-1.1439977878207074e-19
143	0x3beea2728f5ac220	5.189696421516681e-20
144	0x3c13f98f77f542d3	2.7070963481519295e-19
145	0xbc05887292d1b2ed	-1.4591327178805907e-19
146	0x3c010fe7d88a22aa	1.1561749982044224e-19
147	0x3c1238ef9592d4cf	2.469596489907879e-19
148	0xbc0c55dab7bc2d43	-1.920079263328016e-19
149	0x3c07509abf6f991f	1.579876452100751e-19
150	0xbc1772d4aef04c4b	-3.1778721622556223e-19
151	0x3be6f42f8b8a5d68	3.8885335246405955e-20
152	0xbc11f55e01f56ebc	-2.433825939846383e-19
153	0xbbfd2db92fc7204e	-9.886096584702694e-20
154	0xbbd20a8826c541b8	-1.528143999129295e-20
155	0x3c0f3c45a0c57b18	2.1165955706300674e-19
156	0xbfcf520d14294478	-0.24469150051530497
157	0x3c05834f44ba1f50	1.4577727243372422e-19
158	0x3c19b4a56b71a8d0	3.483765075511564e-19
159	0xbc057de84209b49d	-1.4563427249919893e-19
160	0xbfd056543bf931ff	-0.25526910645274364
161	0xbfc3ddc3e6dfffb6	-0.15520523808663506
162	0xbfc5f7c22db8a63a	-0.17162348968968094
163	0x3bb80af19a303e80	5.091250148781759e-21
164	0xbfc38e3612ea7f4f	-0.15277744220383702
165	0xbfc80c1b1ef84f40	-0.18786944400982897
166	0xbfc08c6811aaa395	-0.12928486693024568
167	0x3c041137990848e9	1.359810064899072e-19
168	0xbfd43021b8368dca	-0.3154377268749299
169	0xbfcca889b551b55a	-0.22389336923098818
170	0xbfd36c39e09f4a7c	-0.3034805959297626
171	0x3c00840aa433fdb8	1.119153284528401e-19
172	0xbfca51121e291a09	-0.2055990836399391
173	0xbfc1f80231fc06d7	-0.1403811210694161
174	0xbfccc6017a358187	-0.2247926565860434
175	0x3c02d0bd0ed20b73	1.2749800668969088e-19
176	0xbfd0ffce3915c51d	-0.2656131322356304
177	0xbfc76d5670fb6e46	-0.18302422062594043
178	0xbfc9245e6a2ade62	-0.1964223879237919
179	0xbfd1e8ea48328ba7	-0.27984101343661866
180	0xbc0cbe98ca4913a4	-1.947804364433692e-19
181	0x3c0ac25fb02d1dc4	1.8132788419841255e-19
182	0xbc159c671ae52c8e	-2.928829631397261e-19
183	0x3bf8510167ab5ce8	8.23872616449357e-20
184	0x3be6419c2fa07cb8	3.7703620912291223e-20
185	0xbc02818a3b3b15c4	-1.2540163876193464e-19
186	0xbba76ab10c72dd00	-2.4793463333063683e-21
187	0xbc120326794c108f	-2.4411226368570735e-19
188	0xbc094002066d779f	-1.711008647366114e-19
189	0x3c16aeb3d1831baf	3.074042663098758e-19
190	0x3c064c333f65f389	1.51094800849239e-19
191	0xbbf5fe01fab90eae	-7.451253191064745e-20
192	0x3bf9ce1855112c5c	8.743093997448427e-20
193	0x3c16d9758f73d730	3.0966779269357582e-19
194	0xbc00722d5dd848c9	-1.1144246291772685e-19
195	0xbc089bd3cba45e6f	-1.6675504085012018e-19
196	0x3c10d1d3bc95c72f	2.2794858848572917e-19
197	0xbfb5d8e72b46d141	-0.08534092718656884
198	0xbfaf358cb17981e6	-0.060955425896057666
199	0xbfd01882102769d5	-0.25149585320982953
200	0xbfa845df2c8265ec	-0.04740807932212107
201	0xbf6159e1b2bc59e6	-0.0021180542152123725
202	0xbf9515dd006c8f41	-0.020591214323885557
203	0xbfcb98506fe740a0	-0.2155857607272127
204	0xbfd3aff04c3a3d3e	-0.3076134437951231
205	0xbfd0a75fa5b25d65	-0.2602156751758769
206	0xbfd210a1e1da09ab	-0.2822651582320314
207	0xbfc0c31d05791dcd	-0.13095438735238787
208	0xbfba5049eef8b3b4	-0.10278760990395491
209	0xbfd27821e2e9d113	-0.2885822978926324
210	0xbfd1b28d6797e53f	-0.2765229713109711
211	0xbfd1fbbcb9c22543	-0.2809898199125948
212	0x3fb2ae3c82fd6ced	0.07297113607403434
213	0xbfca26d09f56398c	-0.20430953769796323
214	0xbfca06359ef1617d	-0.20331449757464873
215	0xbfd0f13f852e0921	-0.2647246170601126
216	0xbfc1b84b887be545	-0.13843673862701614
217	0xbfc4af4f642cca42	-0.1616000403533509
218	0xbfbf50cc8408c852	-0.12232664321416678
219	0xbfd6405c847c2845	-0.34767830789553883
220	0xbfca9b8a1b7b00aa	-0.20787168828792818
221	0xbfc97e43b29f00bd	-0.1991657850430836
222	0xbfc8a6371c71c55b	-0.19257248772513944
223	0xbfd276326005b763	-0.2884641587942182
224	0xbfc9b22a551c5c0e	-0.20074967532920635
225	0xbfc53cdf4863af13	-0.16592017206800644
226	0xbfb88a08ee6481f4	-0.09585624523288755
227	0xbfd38d161c348807	-0.3054862285081303
228	0xbfc89ea7fe6148d1	-0.19234180375003132
229	0xbfc253bdddba4741	-0.1431805927900829
230	0xbfcd541d9de52621	-0.22912950715753858
231	0xbfce7a3a95d5b8a2	-0.2381051284423324
232	0xbfc6a2625686a1aa	-0.17683057045838996
233	0xbfca1b8fa47dd808	-0.20396609813514055
234	0xbfbda550fe759373	-0.11580377781281274
235	0xbfc38b80bac33aaa	-0.1526947891165567
236	0xbfcfd78dfd45f854	-0.2487657057462821
237	0xbfc26c8679924c97	-0.14393692909343223
238	0xbfc93c9be644d469	-0.197162139354677
239	0xbfc44156697d961c	-0.1582439436999018
240	0xbc109c1a11f77126	-2.251043969200918e-19
241	0xbbe4cdfe3dee9a48	-3.524446609440922e-20
242	0x3c02fe1678546acd	1.2869839177093564e-19
243	0x3bf1c1d69b224bcc	6.016366901460463e-20
244	0xbc164af1dde485ff	-3.0212314168994225e-19
245	0xbc072ddfc722f55b	-1.570683404670571e-19
246	0xbc17100af7471bba	-3.125574252377575e-19
247	0xbbded7192ed9a118	-2.6122689227177704e-20
248	0x3c01b674f1b279a2	1.2002607245368462e-19
249	0xbbf4abb6546938a2	-7.003522816242672e-20
250	0x3bf75207aacd67fa	7.901268849584668e-20
251	0x3c1df8c0d3de3c5a	4.0619217402353456e-19
252	0xbc01de10f4384f0e	-1.2107452489904146e-19
253	0xbfdaa46644b1a42b	-0.41628414829625865
254	0xbfd970247d4661b8	-0.39746963724021667
255	0x3c15f72138ff74b4	2.976860116832531e-19

bias f8 [120]
0	0xbfc7320ae2132546	-0.18121467627342208
1	0xbfcde90591dbfe8b	-0.23367375967062673
2	0xbfc228c1cbef0eef	-0.1418688054819692
3	0xbfd1338f79fdca1a	-0.2687720004388737
4	0xbfd6168e86468062	-0.34512675392944037
5	0xbfd5889ad2a32035	-0.33646269388237054
6	0xbfc9e754102ea1f4	-0.20237208166260212
7	0xbfcd7d1f52eac15a	-0.230380931364844
8	0xbfb0a37ef0ab1883	-0.06499474883739435
9	0xbfd22beea08ee7cd	-0.2839314048720752
10	0xbfdd59d8d54be574	-0.45860882596715347
11	0xbfaa21a8ccdc9084	-0.051038050658719164
12	0xbfcb4ab84943abb1	-0.21321776940689355
13	0xbfc8f59a0870e7ba	-0.19499516880187945
14	0xbfd068410a78b098	-0.25636316320993435
15	0xbfd4ae2109e6d3dc	-0.32312799422225935
16	0xbfc885a0cbf56b4c	-0.19157800635260924
17	0xbfd04c4dcd301cf5	-0.2546572212017531
18	0xbfd26cc7182e2385	-0.2878892646918348
19	0xbfc7b30dd56f49dc	-0.18515179559342598
20	0xbfc93fbf4dc29840	-0.19725791260606407
21	0xbfd1a5697a8d5862	-0.2757209488676208
22	0xbfc7a461182e3170	-0.1847039573734821
23	0xbfd17c8ac4ee1df0	-0.27322644454440503
24	0xbfd25c8e96ad4540	-0.28689923014197305
25	0xbfd0ca680c6444fb	-0.2623539086353756
26	0xbfcca7666b443451	-0.22385864484422993
27	0xbfd0161b6608a023	-0.25134930576541786
28	0xbfd1021fd8d2c725	-0.26575466322093383
29	0xbfcb50a6e4be5dc8	-0.21339880150911328
30	0xbfcf0c218011ab41	-0.2425577044808396
31	0xbfc9f625adb3eddc	-0.20282431584915528
32	0xbfc6190363b74d96	-0.17263834351488744
33	0xbfcc832cf8a47ec9	-0.2227531637263296
34	0xbfd471263cbaed20	-0.31940608912164414
35	0x3fb37ae94ed69dbb	0.07609422850384011
36	0xbfcb723b5f08e887	-0.2144235815083599
37	0xbfd2bdc251b261fa	-0.2928319738216768
38	0xbfc6ebebafd63bf3	-0.1790747269228344
39	0xbfce9e6e8a4c84c7	-0.23920995476604487
40	0xbfd0ae97b9a02f82	-0.2606562912703724
41	0xbfd39d34848a5735	-0.3064700407352235
42	0xbfceaa590b4ab9d5	-0.2395736031662198
43	0xbfdae92cdd4dee05	-0.4204818879295263
44	0xbfd797ab2e2d9299	-0.3686321211774071
45	0xbfcf000a3fb7c334	-0.24218872176381867
46	0xbfc9e8589b16dcae	-0.2024031407615658
47	0xbfca19d7840b82b1	-0.20391363093860584
48	0xbfd41e83cc900e6f	-0.3143624780352416
49	0xbfd405a42300f9d8	-0.31284430902806326
50	0xbfc33474214d0ec7	-0.15003825784707756
51	0xbfc87f2de4b367fc	-0.19138120333701625
52	0xbfc1bca038d4dd24	-0.13856890463805727
53	0xbfd1ca7b11f0c6f1	-0.2779834437561553
54	0xbfd81e57517adff5	-0.3768518729880264
55	0xbfc2e3efd66d73d7	-0.14758108110518606
56	0xbfc422f7bc4edae6	-0.1573171300385276
57	0xbfc3b7f5a3b20498	-0.15405149929941753
58	0xbfd16740c8863c22	-0.2719270666356711
59	0xbfd1c0e2fc737714	-0.2773978677122255
60	0xbfd550a0769d3914	-0.33304606994069386
61	0xbfced6988b2653d3	-0.24092394632739786
62	0xbfcbdc3c257c695d	-0.21765853720064401
63	0xbfcd63f8a57a0097	-0.2296133811942169
64	0xbfc1d006d57c5b2c	-0.139160970917794
65	0xbfcfa1305279bf51	-0.2471065905297061
66	0xbfc9fe8f0a48abfa	-0.20308101656095784
67	0xbfc3a9863e84c4ad	-0.15361097386042868
68	0xbfd1b7b99e38572b	-0.2768386883848161
69	0xbfcf35179430593e	-0.24380774246010078
70	0xbfcd311273618884	-0.22806006082379693
71	0xbfd0a521267ac1c5	-0.26007870443120523
72	0xbfd3433c6d75b036	-0.30097876252580436
73	0xbfcc06bf8baf2a6b	-0.21895593948859768
74	0xbfceae02407c3909	-0.23968532704061143
75	0xbfd157f8e29cf62f	-0.2709943974512922
76	0xbfd1a34a4bad6c94	-0.27559144392370993
77	0xbfc8349574c0e194	-0.1891047306142012
78	0xbfcce632e2097b0f	-0.22577510868992376
79	0xbfc3f4b4cb02c855	-0.1559053412689219
80	0xbfd0007160cca1fa	-0.25002703145085514
81	0xbfc285f1c7aa4caa	-0.14471266030577584
82	0xbfb1bfe62fcc36c9	-0.06933439890800765
83	0xbfa03dfe175da3a9	-0.03172296557642735
84	0xbfcf5d829749261b	-0.24504120242117797
85	0xbfd49bf45d0c8db2	-0.3220187100107196
86	0xbfc7a118b1ad1cdb	-0.18460377383801227
87	0xbfceb59f59bf47e5	-0.23991767770945596
88	0xbfc31835f1d4d781	-0.14917635257887343
89	0xbfc8652d777ba4dd	-0.1905876954472551
90	0xbfcf38527a0fa308	-0.24390631637586346
91	0xbfd168e4f7db5359	-0.2720272465206129
92	0xbfd755431f314771	-0.3645789913763258
93	0xbfd29eae1c9ce33c	-0.29093506616804965
94	0xbfd2a99ff6b7bf90	-0.2916030797341529
95	0xbfd564307252ab1b	-0.3342400661883162
96	0xbfd0f971e3305057	-0.2652249067916776
97	0xbfc40ca8d2aca8bc	-0.15663633620107997
98	0xbfc3e9c3c921e23b	-0.15557143517414027
99	0xbfd31631519e276b	-0.29822953196036533
100	0xbfcdcb81824fc9da	-0.2327730070388288
101	0xbfce7ac0b6603810	-0.23812111764021937
102	0xbfd2f66a9e9801ea	-0.29629006850885153
103	0xbfb64b6e302383fa	-0.08708847689878488
104	0xbfd1cfcef8f0151d	-0.2783086234124584
105	0xbfd1317e1fe1ea9f	-0.268645793090096
106	0xbfc4e1aaaad07621	-0.16313680019895663
107	0xbfdd626848662b1f	-0.45913130827163856
108	0xbfd062b83e2a9834	-0.25602537222801236
109	0xbfd1d9ea2615640f	-0.2789254543218371
110	0xbfc9c5d04cc4f81f	-0.20134929417139433
111	0xbfd2023e8069cc2d	-0.28138697185858313
112	0xbfd03314e003b329	-0.2531177699700487
113	0xbfd305cf6cd67d87	-0.2972296297902734
114	0xbfd0989238102e63	-0.25931220507547986
115	0xbfc9969a3c9b853c	-0.1999085231719081
116	0xbe519f86d16abad2	-1.641283827829649e-08
117	0xbfcbfbed1cb92df9	-0.21862567808635427
118	0xbfd010f14dd8bd21	-0.2510340938778928
119	0xbfced7025a0ffc07	-0.24093655965404556

weight f8 [120, 120]
0	0x3fcbda3dc508bb4d	0.21759769554906896
1	0x3fc364dd7f46a238	0.1515156623329561
2	0x3fc8a6ec47beba15	0.19259408476996556
3	0xbfd274a3a68842cb	-0.28836909544865524
4	0xbc098ab93b47a999	-1.7307857153053323e-19
5	0x3fd9e34812c9ae3c	0.4044971641039614
6	0xbfd02c66c0842b0a	-0.2527100448648275
7	0xbfce332224e9cfe6	-0.2359354667893278
8	0xbfd3fa16864196fb	-0.3121391593070794
9	0xbfca9e1e10239c4f	-0.2079503611377924
10	0x3be56aad59c176e4	3.6281313952323886e-20
11	0xbfcdf331f0a8efc9	-0.23398422480556594
12	0x3fd4148f7d8d9c17	0.31375491391230653
13	0x3fc519bdcabb0278	0.1648480644125987
14	0xbbfd5ba787ed2618	-9.946885800112987e-20
15	0xbfd11494f74ca56d	-0.2668812193902202
16	0xbbfa8aa18e98446f	-8.99261936086675e-20
17	0x3c00b69fe1a3441a	1.1325424848509841e-19
18	0xbbdf95c9ed84ddc8	-2.675363086572169e-20
19	0xbfd1bd6d15625fe2	-0.27718665207203064
20	0x3c00ccd6a8dbc874	1.138422475700985e-19
21	0xbc00bbb67ecb017a	-1.1338893560428469e-19
22	0xbfd401983ba99db8	-0.3125973303453651
23	0xbfd86dcdcbff91f8	-0.3817018978282074
24	0xbc044ee8f4e4f970	-1.3761400151945747e-19
25	0x3bf8913adce45c64	8.323726509604753e-20
26	0xbc046d693715bded	-1.3842135653143853e-19
27	0x3bfef0dadf7a0600	1.0483164268931658e-19
28	0xbfc6db6c3e67637c	-0.17857125327170909
29	0x3c025678b9e7755b	1.2426162824563542e-19
30	0x3be6160575c1facc	3.7415174604461667e-20
31	0x3fc5490efac29c2b	0.16629206890249412
32	0xbfcd851c4c6b755f	-0.2306247113364561
33	0x3fc913344b276bf8	0.19589856786373594
34	0xbbd0d156a2149980	-1.4245169855083677e-20
35	0xbbf78ca384d3948e	-7.978836944609993e-20
36	0xbfc7a963da6c30ba	-0.18485687413374824
37	0xbfd0fe6e968a6ffc	-0.26552929593321983
38	0x3fbfed23f790388c	0.12471222681071675
39	0xbfce1976afc4cb88	-0.23515208799798537
40	0xbc0b6cbe3db6ad45	-1.858375232693773e-19
41	0xbfd8c914900a7f5c	-0.38727296892647245
42	0xbfd28c680104e762	-0.2898197183563892
43	0xbfc430b2f0823c27	-0.15773617499914502
44	0xbfced2af8bcf4c16	-0.24080461813591175
45	0xbfd0f875bfe21bfc	-0.2651647924289475
46	0x3fcb9cf56f9f1f88	0.2157275004412862
47	0x3fadaea1e9b70f38	0.057972965030357704
48	0xbfcf965905e1a829	-0.24677574908429392
49	0x3fca30d9ca831c8c	0.204615806467903
50	0x3fc21ed02d2d7c70	0.1415653439134732
51	0x3c10c3f476a14370	2.2721420238762696e-19
52	0x3fca294b0b9e0474	0.20438516680954744
53	0xbc13493e64933a9a	-2.6137550633057885e-19
54	0x3fcbcac4d68c41a3	0.21712551570864233
55	0x3fd2a2ec315844e6	0.29119400805309537
56	0x3fd1e2a74329b9d1	0.2794588237656202
57	0x3f9e59bd29715ee7	0.029639201788397875
58	0x3fc3ff2c4bfaf4cb	0.1562247630116985
59	0x3bfda5d34b9ab78c	1.0045050241114643e-19
60	0x3c02dd32fbb44320	1.2782783723791898e-19
61	0xbbc14896ad1980f0	-7.319867781798351e-21
62	0xbfc091651d0184b6	-0.12943710247330892
63	0x3fd0bdf304f414c7	0.26159358485922407
64	0xbfd01cf8dcc74315	-0.2517683177984947
65	0xbc0382500c3fa07f	-1.3219835608414679e-19
66	0x3fd5aef49c8ca151	0.3388034371187319
67	0x3fc667530c8c13ba	0.17502821076064184
68	0x3fd0fea71f17969d	0.26554277454702363
69	0x3fcb6520debfbabd	0.21402369381345024
70	0x3fca609b90252090	0.20607323206263972
71	0xbfa54987e2eaa491	-0.04157662053086953
72	0x3ed1f19fee115311	4.278146406984344e-06
73	0x3fd1733df56c17aa	0.272658815069344
74	0x3fd341d8ca57ce1f	0.3008939720159293
75	0x3fcba1d2b18f25f0	0.21587594671136356
76	0x3fd18c28dc5f8d04	0.2741796638567424
77	0xbfd17ee972adf0ed	-0.27337108801999827
78	0xbfd0480adfd6e643	-0.25439712390252484
79	0xbfc1da559d9318e7	-0.1394755381972523
80	0xbbff21eda775ec4a	-1.0548112325419095e-19
81	0xbfc8823fb11cefd4	-0.19147487781617534
82	0xbfd0784ec34587d6	-0.25734299726002285
83	0x3fcd066e90dacdb2	0.2267587859438272
84	0xbfceecd605bd4612	-0.24160266189805718
85	0x3fc5cfe430378358	0.17040684084261204
86	0xbfcfb8bd937cba26	-0.24782533360981168
87	0x3fcb26e32fd409b6	0.21212425074925328
88	0x3fc4f22cff154f9b	0.1636406178973829
89	0xbfcf476c0c390fbd	-0.24436712834187616
90	0xbc000eae2446e031	-1.0880879999340365e-19
91	0xbfcb68df2fdac519	-0.21413793408059048
92	0xbc04bd990e7036e3	-1.4054388556622192e-19
93	0x3c00a86e082f3e0e	1.1287851726076776e-19
94	0xbfcf772ddf356a83	-0.2458245601545351
95	0xbfd0a2c3adbdd6b6	-0.25993434874485943
96	0x3c014689f5c1ff28	1.1706363012747838e-19
97	0x3fd506c3608d7e0a	0.3285377924821381
98	0x3fcb7c1a2b7c1e0a	0.2147247993782318
99	0x3fcdcebee8a07396	0.2328718791840429
100	0xbbfd4ab0ac22b27c	-9.924433747599435e-20
101	0xbfce93d1a959bdbc	-0.23888607758588687
102	0xbfc7a39b7afdab24	-0.18468039994635277
103	0x3fd37b90b115e88a	0.30441682141793847
104	0x3c100f767795e958	2.1765902631369386e-19
105	0xbfce08ebd3e83457	-0.2346472534849535
106	0xbbf115b911a7d15a	-5.788574094045043e-20
107	0xbbe3cae9bd8d8340	-3.353001791432419e-20
108	0xbfd0aecf5312cf2e	-0.26066954720157554
109	0x3fc3c34a1a96dff7	0.154397261603435
110	0xbc0c94ddc3cf3b32	-1.936758375172622e-19
111	0x3be54c34d747e3b0	3.6079675503415736e-20
112	0xbc10dcb712092bc1	-2.285249956040943e-19
113	0x3bfe2e082084d8ac	1.0225317875880719e-19
114	0x3fd425e88b77ba90	0.3148137437810101
115	0x3fd28311530dcbd0	0.2892497359345585
116	0x3fcfd18f80b1e610	0.24858278068477135
117	0xbfd2876cedfa1660	-0.2895157169335558
118	0xbfcdd05d69eac379	-0.23292129203539583
119	0xbc0361681d7e9d41	-1.3132734186475026e-19
120	0x3bfaafc24c692f50	9.041757722557688e-20
121	0xbc0d23b2d0da042b	-1.9745657517218638e-19
122	0x3be46c6a38dcef58	3.459874771689535e-20
123	0x3fcf00903c1a8a07	0.24220469412564702
124	0x3c0e041b11bb9139	2.0339658535618054e-19
125	0xbfa895dcd1826370	-0.0480183606861776
126	0x3c0785f357fc9fab	1.5939970413051333e-19
127	0xbfce9353aa690294	-0.23887105770883876
128	0xbfcb1866a6c88348	-0.21168215888703856
129	0xbbfab919d113c398	-9.054121582011626e-20
130	0xbfce07ae9e53aa2f	-0.23460943918992558
131	0xbfd08cae7ffb63c4	-0.2585865259002811
132	0x3c0a5813156ae8b2	1.7851416683830367e-19
133	0x3c12678570d8a79c	2.494258583190767e-19
134	0x3fcbeae48b8316fb	0.2181058579646374
135	0xbfd1b4e08d7c0cf1	-0.27666486565449505
136	0xbfd3a7c6e1d86a75	-0.30711528830730767
137	0x3c0327853f143a00	1.2979510674221277e-19
138	0x3fcbfb075ed03a30	0.2185982907253261
139	0x3c00002b96e0e2fe	1.0842472428366907e-19
140	0xbfd22b401b11cdc6	-0.28388979571829187
141	0xbfd19817a8496ee2	-0.27490798410666006
142	0x3c04c04007703ada	1.406140896934593e-19
143	0xbfcc6d6f65818506	-0.22208969551414998
144	0xbfd3c61fd625d02b	-0.3089675513540466
145	0x3fc73eef60cc13ca	0.18160812593865067
146	0x3c07f22f8bb1c2cf	1.6226466506661092e-19
147	0x3fd02837de51e7a4	0.25245472632343025
148	0x3c061854a82ca86f	1.4972182674874683e-19
149	0xbfc8bc547a392b64	-0.19324737518249002
150	0xbfca8e4d240f5bdf	-0.20746769200078938
151	0xbfd240c87803506c	-0.28520404548658607
152	0xbfd0745a56f5c264	-0.2571016167849278
153	0xbc12c5a0d91531d0	-2.544078445548915e-19
154	0x3bdaaec8a3f6ab40	2.260116755240678e-20
155	0xbbf729d93e303074	-7.848089282510309e-20
156	0xbfd83785c40d06a1	-0.37838882585138306
157	0xbc001d00f63b1b4a	-1.0918794030886216e-19
158	0xbbf953a8e9c9dff0	-8.581052318855864e-20
159	0xbc138c5957f79e5a	-2.6492803008179847e-19
160	0x3fc630802e115be1	0.17335512399105737
161	0xbbf09572eaf64706	-5.618804831666839e-20
162	0xbfd582d9f700cf0f	-0.33611153718378345
163	0x3fd1830616309ef0	0.27362205664620287
164	0xbfc50bd730c694dd	-0.16442384606958785
165	0xbfc901b81a4d4ad8	-0.1953649643351898
166	0xbfd8cb97b7986666	-0.38742630891065344
167	0x3c0539da912aab5b	1.4383291188006523e-19
168	0xbfd1a13746d2b51e	-0.2754648391372302
169	0xbc0d28536ffc1906	-1.9757906217620387e-19
170	0xbfc72c6731d2bef0	-0.18104257519507128
171	0xbfd172be3a743d7c	-0.2726283617821179
172	0xbbead7ff772ebd78	-4.547506754068614e-20
173	0x3fcdd5a1e44cba2b	0.23308204314658218
174	0x3c0e8dc57ea0324c	2.0704056673119565e-19
175	0xbf94a502c9c40291	-0.020160716595457876
176	0xbfd567d50cbd9edf	-0.3344624161168052
177	0xbfd53e32d65c6254	-0.3319213002555774
178	0x3fd2e99487429ff2	0.29550660332688417
179	0x3fce5ea9f68d1ed9	0.23726391352305745
180	0xbc05f444ae794655	-1.4876726286612132e-19
181	0x3c05e1aa76393369	1.4827486088718844e-19
182	0xbfd36496173da20d	-0.30301430005650404
183	0xbfd03132047431e5	-0.25300264773320996
184	0xbbe29df4f86d3218	-3.153845728736281e-20
185	0xbbe3e82dedeca088	-3.372368645951558e-20
186	0xbfc9d873d3e1269d	-0.20191810460737694
187	0xbbdad4345da5dc10	-2.2724982600314626e-20
188	0xbfccd3c263ffd8df	-0.22521238215239855
189	0xbfce8fbbba941fb4	-0.23876139269145613
190	0xbfd09c6ad36d4073	-0.2595469536509036
191	0xbfd7c9e187450fcd	-0.3716968365663405
192	0x3c035c0e74931366	1.3118572235615327e-19
193	0xbfcb653f4e3d8f53	-0.21402732200942384
194	0xbfd03e9b51e83d9e	-0.253821210849276
195	0xbfd260e8719be545	-0.2871647939169473
196	0xbfcff826b6ac8882	-0.24976047439219334
197	0xbfc0cafebd5bacdf	-0.13119491811753556
198	0xbfc8f8987590a87a	-0.1950865339325139
199	0xbfd443879d18e1d5	-0.3166216882850937
200	0x3fd21b6e2aff62c9	0.2829242153070877
201	0xbfd67cb04ff246d3	-0.3513603955008026
202	0xbfd3a4611a806871	-0.3069079169087053
203	0x3c06b2ad912be29a	1.5380736590087755e-19
204	0xbc00d8b6d314fd70	-1.1415659325679023e-19
205	0x3bdc3a78a5226aa8	2.391038772603989e-20
206	0xbfd39208896a1839	-0.3057881681382955
207	0xbc09bb1f71eae949	-1.743596895722122e-19
208	0xbc070fdebbbcf252	-1.5627413907761869e-19
209	0xbfce8a9ce803d314	-0.23860513047079535
210	0xbc093e1832846304	-1.7105021773171162e-19
211	0x3bd5b4d94ae4f830	1.838607037384444e-20
212	0xbfd1b2e31a95c354	-0.2765434035891776
213	0x3fcca69da86c2c8c	0.22383471225507312
214	0x3c10e4d143909b3d	2.289539287609469e-19
215	0xbc03200afc2beaa7	-1.2959717675695127e-19
216	0xbc0c2b9f0a2d6e94	-1.9089002503315754e-19
217	0xbfd3a9afe1536780	-0.3072318745085951
218	0xbfd48afebaebf6fb	-0.3209835839660255
219	0xbc11207e11d72b18	-2.321130981484159e-19
220	0x3fd29458298225da	0.29030422261766164
221	0xbfc7fd38917b65b4	-0.18741519073118484
222	0x3c145fb257af3f54	2.7611668161398066e-19
223	0xbfc84f5e7cfa57ae	-0.18992215254246275
224	0x3fcf9feee26650d1	0.24706827215835017
225	0xbfd592ec0f61ab8e	-0.33709241392232847
226	0x3fcb76cf03d4dc19	0.21456325232586052
227	0x3c072ee7bdbbc589	1.5709563362940025e-19
228	0xbbe3c7a277315588	-3.3508323168087065e-20
229	0xbfd4ef5251cda771	-0.32710702885253
230	0xbfc22677ba68297c	-0.14179894067667564
231	0xbfcb7e4318713cad	-0.21479071324799773
232	0x3c05c56f8390533a	1.4752761198943942e-19
233	0x3fcb85bdf1530579	0.21501898082173534
234	0xbc0310537533c6f7	-1.2918115379274973e-19
235	0xbfc90b553856ba73	-0.1956583523837768
236	0x3c11501bd3e13e44	2.3463388101376085e-19
237	0xbfa199abeeef0c7a	-0.03437554637596292
238	0x3bf0ebe071062154	5.733191108105448e-20
239	0x3bf23c10df1a3846	6.178133782614823e-20
240	0xbc1267242dccaeb9	-2.4940574502927567e-19
241	0xbbbda27809553800	-6.275379985536981e-21
242	0x3c15f3a28d566ee5	2.9750099815030597e-19
243	0x3c13e602a7ddee3f	2.696746637742095e-19
244	0x3fd64df9249da5f9	0.34850910735858026
245	0x3bf08d88903e57f9	5.608328825115043e-20
246	0xbc042c2880b9de6f	-1.3669412975826315e-19
247	0xbbf72d8c3edd981c	-7.852985171440092e-20
248	0x3c077f64656f9624	1.5922610503149124e-19
249	0x3bb2d556ddf4d600	3.9881184155886805e-21
250	0x3c006dc7c33f09fb	1.1132607820220342e-19
251	0xbc082656b3970df6	-1.6364514222512137e-19
252	0xbc0c42035d6135ab	-1.914827335471756e-19
253	0xbc0bb6bc1938eb3a	-1.877960654260544e-19
254	0x3c041cf63e43ae7e	1.362918863417549e-19
255	0x3fbc25a03da78b1d	0.10994912629352567

bias f8 [120]
0	0xbfc146bb2a726a58	-0.13497104237179047
1	0xbfd2a0844db4f5c1	-0.2910471686226082
2	0xbfc3577932f55d0b	-0.15110697735028852
3	0xbfe196952e5e4024	-0.5496316819790121
4	0xbfd1fc9b18426e84	-0.28104283684817966
5	0xbfdad7820d9e357b	-0.41940356569178733
6	0xbfecec0aac630a2d	-0.9038136832171567
7	0xbfcb309020efda95	-0.2124195252251481
8	0xbfd369df3ee280ba	-0.3033369173154018
9	0xbfd066a97af2c9c3	-0.25626599318198034
10	0xbfe1662d3f45d445	-0.5437227474018377
11	0xbfd1b74b3fda5cb2	-0.2768123744549015
12	0xbfd194c0027a5e35	-0.2747039818000048
13	0xbfd3aaffa9ea1104	-0.30731193154521486
14	0xbfba53c45f3d897a	-0.10284068417744222
15	0xbfd4c5d8cbf7236e	-0.32457561415190284
16	0xbfce4523fa50beeb	-0.2364850017779568
17	0xbfcb18e51b0b5c6c	-0.21169723339582747
18	0xbfd6631d00f042f9	-0.3497993954816106
19	0xbfd39a6c77e54642	-0.3063002749305249
20	0xbfe5b6d4cc3ff5e3	-0.6785682667975234
21	0xbfa373aabc573961	-0.03799184369164511
22	0xbfdb828a9b5c889a	-0.42984261676805036
23	0xbfe12423148cc838	-0.5356612588277647
24	0xbfce376b7b6ae92d	-0.23606627966166496
25	0xbfe674e1a54b122b	-0.7017677524932585
26	0xbfd4996f0ddc6f24	-0.3218648562776585
27	0xbfc03eff2fc4afa2	-0.12692251045643582
28	0xbfd0b24fc36a0a5c	-0.26088327487392404
29	0xbfd82268682df124	-0.3771000878694102
30	0xbfdd607eca0c83d3	-0.45901460391365595
31	0xbfdbde1281b55f19	-0.43542921702236154
32	0xbfd34f1203e21992	-0.30170107249468814
33	0xbfde1e4ac4bcf48e	-0.4705988808889935
34	0xbfe68b0bb9f7f605	-0.7044733650397467
35	0xbfd1abfd70836da6	-0.2761224364055245
36	0xbfc9dd5976bf52cf	-0.2020675496884423
37	0xbfcdfb831701b06c	-0.2342380392395883
38	0xbfd01312a5965dfb	-0.251164113718431
39	0xbf9eb2b0ff6b22fc	-0.029978528584964956
40	0xbfce40cf67ecf503	-0.23635284971707202
41	0xbfcf4af036ae3f31	-0.24447443647340486
42	0xbfd2ed2443515625	-0.2957239777946106
43	0xbfb9ecc8cdd70411	-0.10126929307354283
44	0xbfdba1b41b1e4ea3	-0.43174460075645466
45	0xbfb77e9c61e5e1b4	-0.09177567854010854
46	0xbfdf797c1c24b9a3	-0.491789844020696
47	0xbfd5c3e5104414db	-0.3400814684722044
48	0xbfde3aa9f17023f1	-0.47233055665907303
49	0xbfe1e8a42f7c3d2d	-0.5596486022422248
50	0xbfe440c67eb20677	-0.6329071497459172
51	0xbfd87ff47e428fab	-0.38280975656584343
52	0xbfd2cdcdefb86bc5	-0.29381130609698075
53	0xbfceb8782e973dd8	-0.24000456118527214
54	0xbfd0426e4253bbd5	-0.2540546081281126
55	0xbfd38ecad37cdafa	-0.305590349703763
56	0xbfd12544701af42f	-0.26789961765081477
57	0xbfeedd5908216ca7	-0.964519992713936
58	0xbfdfe284de23742e	-0.49820062344753324
59	0xbfe007897bf0294e	-0.500920049730931
60	0xbfd90cc0cb28bced	-0.3914033874488741
61	0xbfca79851c8b10c9	-0.2068334950801101
62	0xbfcb6a872b732979	-0.21418847676825317
63	0xbfe22f09c61a83f2	-0.5682419652185884
64	0xbfdace66e8973dba	-0.41884777749961766
65	0xbfcc17f4dd043d07	-0.21948109428237947
66	0xbfcb43d91d411f49	-0.21300805977284146
67	0xbfe28e03e916754e	-0.5798358490461994
68	0xbfda92de3475b572	-0.41521411059405644
69	0xbfd7b90b44263c08	-0.3706691899796515
70	0xbfd170bc1758936b	-0.2725057819355274
71	0xbfd274ffe6d8c442	-0.2883910898554555
72	0xbfd010df1075e42a	-0.25102974517318677
73	0xbfcca484ea70f6d6	-0.22377072760894262
74	0xbfd08c336591956c	-0.25855717581574456
75	0xbfce7a85b92d811c	-0.2381140855968703
76	0xbfd6dca847c66108	-0.35721785554189056
77	0xbfdee8f8d48f1013	-0.4829694820184624
78	0xbfb498d6ba8aac89	-0.08045713476410489
79	0xbfd5884de148a90d	-0.33644434929250694
80	0xbfd499854a970d4f	-0.32187015804466496
81	0xbfd1728c5a3c611a	-0.27261647045226456
82	0xbfd047a47f867433	-0.2543727155078301
83	0xbfd46df0a954dd06	-0.31921021019248064
84	0xbfa05d64cba2a562	-0.0319625376299182
85	0xbfe5a470f8340dc9	-0.6763233993264574
86	0xbfd95d03477ce17b	-0.39630205136520374
87	0xbfd2ef56fb8d1b41	-0.2958581406168613
88	0xbfa23448b8a761ff	-0.035555145779373014
89	0xbfd5c367aeb971ab	-0.34005157530716684
90	0xbfcdba2bfff3c2eb	-0.23224401471772835
91	0xbfd1340f8c9464a0	-0.2688025353286978
92	0xbfd8c047f2fad707	-0.3867359040117297
93	0xbfd5f7bc3bf9a2d3	-0.3432455621428236
94	0xbfd137f869f6d730	-0.2690411600882383
95	0xbfcd6173919e8cfd	-0.2295364819557121
96	0xbfcdcb312aa05a8b	-0.2327634294640187
97	0xbfd1a85baa8ac35e	-0.27590076117035334
98	0xbfd34ca0777ee45d	-0.3015519301366732
99	0xbfcce790228fb228	-0.22581674277843544
100	0xbfd1a7072f05030b	-0.27581958381419786
101	0xbfce41a78f74b5f7	-0.23637861733133977
102	0xbfcfa3cbf901ff17	-0.24718618067344586
103	0xbfd3b63e9c5ccaa1	-0.3079983260132995
104	0xbfd3748881b9cd3c	-0.3039876238683126
105	0xbfcd2709ebdba9e7	-0.22775386826044938
106	0xbfd93c1c02bd5189	-0.39429378764659667
107	0xbfd008852bf47bb2	-0.25052003185731586
108	0xbfe877fd4e7cccf6	-0.7646471531828911
109	0xbfd2b1b5934b8583	-0.2920965135982316
110	0x3fbb969e1f9a4191	0.10776699325129459
111	0xbfd1456bb7f1169a	-0.2698621078783191
112	0xbfe2393f4cc5fc3d	-0.5694881915550308
113	0xbfdc353d35da7c0b	-0.4407494569695138
114	0xbfe4b67913a94cc3	-0.647274530793219
115	0xbfd2eaed1d509af1	-0.2955887590673419
116	0xbfd3f89bc681e9b7	-0.31204885850425107
117	0xbfc0f7bb4b365251	-0.13256016895742787
118	0xbfdcb50e5584f2a5	-0.44855078078743765
119	0xbfcfcfed09aec1f8	-0.2485328957823325

weight f8 [120, 120]
0	0x3bd6eb8147c6bc78	1.941394552509439e-20
1	0x3c13fce19f1407fa	2.70885442296403e-19
2	0xbbe069d7d8fe3a18	-2.7805465557123895e-20
3	0x3c075679b513d291	1.581430475838943e-19
4	0xbfd0a9abbb20b426	-0.2603558852595732
5	0xbfce6f561757efb3	-0.23777271404094122
6	0x3be40b9b8c5a2060	3.395813061210478e-20
7	0x3c073b4894e5d6a4	1.5742328405614943e-19
8	0x3c07922f3f22a86c	1.5972353530291564e-19
9	0x3c08d39e957ab12f	1.682318465600764e-19
10	0xbc05736968d2bf84	-1.4535645887622472e-19
11	0xbbfd0df450553c5a	-9.844050617636179e-20
12	0x3be854a6fedeef00	4.121776357464722e-20
13	0xbc0a04c0ca897b43	-1.7630866628606034e-19
14	0xbc0e8d5923357b5a	-2.0702936286995288e-19
15	0x3c0376b4f5cfe9dd	1.3189115282217799e-19
16	0xbc10b0f56495288f	-2.262085429794348e-19
17	0x3bfe385e894b53c7	1.023899949118147e-19
18	0xbbed0c9c423d9688	-4.921135947362982e-20
19	0xbbe9fc538ef0541c	-4.4021403410464443e-20
20	0xbfd02437ee0ff65f	-0.25221060035969417
21	0x3be84bc38a3ece3c	4.115894442680745e-20
22	0xbc127e3b53fa29f6	-2.5062814201914544e-19
23	0x3c1373463a48b843	2.636005880159073e-19
24	0x3c0385477f2695da	1.322768812533842e-19
25	0x3c0abec955170f44	1.8123292843371555e-19
26	0x3bf94d5a928a3a9c	8.572706372454958e-20
27	0x3bf6df2ed953f8fd	7.749270181727244e-20
28	0x3bf3f9dc039ab6de	6.768136601305395e-20
29	0x3c09e62fcbcc84fe	1.7549958075907102e-19
30	0x3c03f49a96ab032f	1.352236182865869e-19
31	0xbc022011d3728265	-1.2282162051356044e-19
32	0xbbf85b35a9768fe4	-8.252231216687631e-20
33	0xbbffd106a8fab1e0	-1.0779852174573343e-19
34	0xbfd1a4fd9a9a12aa	-0.27569522950970315
35	0x3c04ea09ae5b14e1	1.4172020098741593e-19
36	0x3c094a2f45423645	1.7137024080082655e-19
37	0x3bf2d015b9c0a528	6.374035246786277e-20
38	0xbbd3ebc8400bcae8	-1.687376394654573e-20
39	0xbbfdbabb1578f68a	-1.007271833942051e-19
40	0x3beddecbb214f578	5.060224911732816e-20
41	0x3c11b5cc4f773af5	2.4001727227214045e-19
42	0xbfcef89474cab57c	-0.24196105673528823
43	0x3bf80c67a8a59ed1	8.147934064719758e-20
44	0xbc046377cb4a4986	-1.3815816616111935e-19
45	0xbfd08020fc400ce2	-0.2578203643208338
46	0xbbf4e91b26cff940	-7.084776880932655e-20
47	0xbc0c11058aff1ca2	-1.9018593956632661e-19
48	0x3c08f47635dce352	1.6910117476470415e-19
49	0x3c09f6bbe18899c0	1.7593758167198993e-19
50	0xbbf7b612bea07dd6	-8.033675016613911e-20
51	0x3c05048d91fab2af	1.4242205227599077e-19
52	0x3c11f0c2a16766fb	2.431387045027373e-19
53	0xbc0a1d98f8386ec2	-1.769662933244195e-19
54	0xbc022cff872f193c	-1.2316383568949325e-19
55	0xbc11bbeb15ed4630	-2.40341273797562e-19
56	0x3bf783c57b320d68	7.967101125173538e-20
57	0x3bf934ae40f51f0d	8.540051770229934e-20
58	0x3bb2327820326cc0	3.8533954405670554e-21
59	0xbc07c061443333b8	-1.609463170890081e-19
60	0xbc0f8fdf16d0d88c	-2.13872416276914e-19
61	0x3bf4e95e32edb665	7.085123507498213e-20
62	0xbc0f8d78eb9dd160	-2.1380891271683085e-19
63	0xbfd15a38b11819af	-0.27113168043470187
64	0xbbfc3191fc127f7a	-9.55237469226115e-20
65	0x3c0dc977a7e063ac	2.0184444157933728e-19
66	0x3becac926c2c8328	4.857583050342873e-20
67	0xbfcf9e146a2a9819	-0.24701171096711574
68	0x3bf1af8d853cb834	5.99216625646244e-20
69	0x3c107c4fc7d1a281	2.234214380678302e-19
70	0xbc03d42cdd8bd1c3	-1.3436524023336767e-19
71	0x3c0cc09d79310300	1.948338602368481e-19
72	0xbc14a085167d6630	-2.79548394516435e-19
73	0x3beaebefc1d84f00	4.5607010387361814e-20
74	0xbbd3b37390e1f718	-1.6687380971288738e-20
75	0xbc0895b5c1643f76	-1.6659311610508001e-19
76	0xbc00e1bd4eff84ab	-1.143954917079896e-19
77	0xbc1016bdc1895ac2	-2.1804434542109155e-19
78	0xbc01abe7d54f123e	-1.197467841334298e-19
79	0xbc0e60958d322d3d	-2.0584446945031515e-19
80	0xbbdc1f7c4bb3aa14	-2.38210994034787e-20
81	0x3bd8fdb7fb1b69f0	2.1168275411238895e-20
82	0xbbfbdb3bf742e1d4	-9.43810993323725e-20
83	0x3bf4b6fba8acb693	7.018439618353436e-20
84	0x3bc679373de31540	9.517897119453193e-21
85	0xbc07796c73c74a69	-1.5906811932742138e-19
86	0xbfd0aeb9296b42b1	-0.2606642631990708
87	0x3c070d0fc6e7f783	1.5619980073080413e-19
88	0x3bdcae71974449a0	2.4294108357245498e-20
89	0xbc03dc355aea5b56	-1.3457787628704545e-19
90	0xbc135647d89b64be	-2.6206567548641795e-19
91	0xbc0b0e54e363a4e0	-1.8333847075956486e-19
92	0xbc112d4ab8d7a3e4	-2.3279069397311145e-19
93	0x3bf8ad7ce9c6ac4e	8.361125673240759e-20
94	0xbc030860bce346f3	-1.2897076867799327e-19
95	0xbbe0cabb9d8effdc	-2.844662792808e-20
96	0x3c04958172257d1a	1.3948265311209833e-19
97	0x3c0b8f2a05f9e9f9	1.8674864020196605e-19
98	0x3c080b51f8d29c2e	1.6292996915083284e-19
99	0x3c03f1e1f08c72a8	1.3515158647820637e-19
100	0x3bde14e00775e7d0	2.5480058375439637e-20
101	0x3c0758322ad0f78a	1.5818859007192566e-19
102	0x3c1023b034cd726a	2.187297576697137e-19
103	0xbfd0e7fa277cd494	-0.2641587625142361
104	0xbfcf72f26cc6e15c	-0.2456954032075015
105	0xbfd188013bfbb0b2	-0.2739260755322547
106	0x3bf98ab735aa9c22	8.653918123405543e-20
107	0xbc12ab4b62a4e407	-2.5301374275357717e-19
108	0xbc04e32f29e94e0a	-1.4153878814423025e-19
109	0x3c05caada8d1ae32	1.4766638658448873e-19
110	0xbc11a0e5a3f6101c	-2.3891077966257046e-19
111	0x3c0b2bc8efe6308e	1.8411809353962217e-19
112	0xbc00fb5ac6a06806	-1.150735179351073e-19
113	0x3c10abed92a34eab	2.2594222802534273e-19
114	0xbfd114f1d7939df6	-0.26690336277394466
115	0x3c05c6a60e7293dd	1.4755972133289545e-19
116	0xbbe04b0e02a601a0	-2.760172483861377e-20
117	0xbc03602c23fa46f5	-1.3129467084904077e-19
118	0x3c0338a4e0ec1eda	1.30248363688318e-19
119	0xbbf0f14309f0ec3a	-5.740318289268483e-20
120	0xbfd0f23f98cf83e5	-0.2647856704989507
121	0xbc126b1649c1d758	-2.49614630717956e-19
122	0xbbe56b4c0f882870	-3.62854165112986e-20
123	0xbbeef02403c358e0	-5.2411094569522415e-20
124	0xbbfb647f66d4008c	-9.280963379563757e-20
125	0xbfd28a326d6476e6	-0.28968487437110324
126	0xbfd1aa4a0a4ea9a6	-0.27601862913675246
127	0x3bda5e1a77a0c1b0	2.23342186207239e-20
128	0x3bd75bded3e48498	1.9785731510412885e-20
129	0x3c0148a60cd627ee	1.1711947414025745e-19
130	0xbbf99d93c9193951	-8.678881275756595e-20
131	0xbc0885c6d61f0b75	-1.6617136576290369e-19
132	0x3c04a5de8d8acaaa	1.3991579662538748e-19
133	0xbc03394687f27432	-1.3026507815890077e-19
134	0xbc10ae99e9792305	-2.26083746055063e-19
135	0xbc03ead70a6ea712	-1.3496517110195997e-19
136	0xbc0585be41f73ad9	-1.4584168800864717e-19
137	0xbbdc99fc460d1cb0	-2.4226417618347543e-20
138	0x3c0324bf5f7c212e	1.2972170755147586e-19
139	0xbc124199190e4ac6	-2.474182200558263e-19
140	0x3c036930fff4ecc6	1.3153340130461028e-19
141	0x3c11be0bd5fd3f91	2.4045392550763954e-19
142	0xbc0bdbab663544a2	-1.8877372060680796e-19
143	0x3bfc6e42eec59f4c	9.632698831021545e-20
144	0x3c03cbea807a26c4	1.3414662016622455e-19
145	0x3c0233de444e4cd8	1.233456850148213e-19
146	0xbfcd1b6dc0dc553d	-0.22739955822968652
147	0xbc0c176f7c638575	-1.9035571248701958e-19
148	0xbfcf8890515856b6	-0.24635509464194677
149	0xbbfc1dd2df59dddc	-9.526240374762964e-20
150	0xbc099c610a54022a	-1.735459088051618e-19
151	0x3c0a6ff3162a18e7	1.7914613312793615e-19
152	0x3c08b7bb7ba473b4	1.6749368082551844e-19
153	0x3c02cea562207ea2	1.2744261923585503e-19
154	0xbfd1ca9441629ec0	-0.2779894484069523
155	0xbbe74ae5ab6f1bb0	-3.9459143317999724e-20
156	0x3c0c4866be21a0a0	1.916518276625391e-19
157	0x3c051649550c9cc5	1.4289145266417476e-19
158	0xbc0f7b617bfe027e	-2.1333003345506347e-19
159	0xbc1096416cb7bd77	-2.247948978840507e-19
160	0xbc0adbef2728a1b7	-1.8200446259854618e-19
161	0x3c0394f0ab244af0	1.3269141990569118e-19
162	0x3bffb8b13f96c867	1.0747646871011108e-19
163	0xbc078f03bcb95b0d	-1.596396271955986e-19
164	0x3c010ce0505fd9df	1.1553731170192568e-19
165	0xbbdd832a37235c78	-2.499794373239364e-20
166	0x3c13a997889a7216	2.6647613788607437e-19
167	0x3c06d19b79e4fee7	1.5462605851068205e-19
168	0x3c1143f2c88f3466	2.339901185574442e-19
169	0x3bf2ed61f58d2f7a	6.412810545630597e-20
170	0xbc074fb66c634978	-1.5796403701976076e-19
171	0x3c077f8d2f164397	1.5923032238077827e-19
172	0x3c0b926e27d086fa	1.8683509424317177e-19
173	0x3be985d8f998cba0	4.3237376206448105e-20
174	0xbc0433a50bc4d9bc	-1.3689229567394849e-19
175	0xbc08d024f3067f91	-1.68139860499906e-19
176	0x3c11d31bca9735e0	2.415689557656571e-19
177	0xbc0659e02335baf7	-1.514567843796183e-19
178	0x3bf9cf75a4e0b07c	8.744899896921988e-20
179	0xbfd161dec5b18e45	-0.27159852319730177
180	0xbbe235987705f986	-3.0847851807072835e-20
181	0x3c0339a16e4a8622	1.3027447697600226e-19
182	0xbbfefeba92840762	-1.0501526124317006e-19
183	0xbbc9c8463db1bb30	-1.0919238007479592e-20
184	0xbc10f942bea2603f	-2.3003618721199897e-19
185	0x3bfbcb6db6ec6110	9.417191304203725e-20
186	0x3c05fc3e3d2aef50	1.4897835495354034e-19
187	0xbfcb33ead81af97d	-0.2125218920900344
188	0x3c14932a1f2ee6ab	2.78841368910301e-19
189	0xbfd1c7b0c9894541	-0.2778131454588966
190	0x3bf75c445eebf57d	7.914817569596464e-20
191	0xbbf7094f532de1b2	-7.805024615778848e-20
192	0xbbc8081ffe02bf70	-1.0177837001789447e-20
193	0x3bfea5d048704029	1.0383847846445356e-19
194	0x3bee8bef50a3e9b8	5.1747987824204927e-20
195	0xbc00cbaed5584e38	-1.138116598553544e-19
196	0x3c01f0bd14f55d12	1.2156877853801477e-19
197	0x3c03bba971d41473	1.3371637693355074e-19
198	0xbfd0cc6ea9f99e02	-0.26247755622031843
199	0xbb769b3b040edc00	-2.9919280595911826e-22
200	0xbbcb1f0114cade90	-1.1486236973135323e-20
201	0xbc0d89d91653558c	-2.0016044985975302e-19
202	0x3c0ec156b6a995d8	2.0840554077251759e-19
203	0x3c06dac52ba85808	1.5486859762567239e-19
204	0xbfd151dbd1218f38	-0.2706212560935799
205	0xbc042e8c8ba13d41	-1.367574134791294e-19
206	0xbfd03c2b1481f235	-0.2536723804730941
207	0x3bfd1070a7f81970	9.84734043036976e-20
208	0xbc097da74be7e425	-1.7273260995447777e-19
209	0xbc0659c15cba587f	-1.5145360228609146e-19
210	0x3c1108ec65fd7d60	2.3086536416996033e-19
211	0x3c06fb3328b260a1	1.5572700311048915e-19
212	0xbfd197e0e3d788a9	-0.2748949265498007
213	0xbbfae6af2ed51ac4	-9.114450791432805e-20
214	0xbc11b7b198b8c647	-2.40117627097164e-19
215	0xbfd1a7f88d0f86ba	-0.27587713027433447
216	0x3c02305415f9c311	1.2325198809781988e-19
217	0xbc1477cb0b87b87e	-2.773923393966552e-19
218	0x3bf0eb148b8f422a	5.732136988707774e-20
219	0xbc021abeb4a156f9	-1.2268067716978175e-19
220	0x3c0465760a3a03c8	1.382109243449936e-19
221	0xbbfa472834111f04	-8.903318215666144e-20
222	0x3bf03e749bb76f80	5.503670029807469e-20
223	0xbfce1b07537bf2d6	-0.23519984794974985
224	0xbfcfc13ee32399e8	-0.24808488932394757
225	0xbc13ccc4ce01b4d7	-2.68338384303674e-19
226	0x3bffa7f4cc929bf0	1.0725496787374249e-19
227	0xbc11e859a2830ae4	-2.4269347543304155e-19
228	0xbc0bae49b034979c	-1.8757247744952347e-19
229	0x3bfd516c1a405fdc	9.933343672594297e-20
230	0xbfccea088ed49f03	-0.2258921334662248
231	0x3bcdddeef352d000	1.2649135747235601e-20
232	0x3c05d7f99fcf5c85	1.4801834829640018e-19
233	0xbc12ac65d56e949a	-2.530721517116494e-19
234	0x3bf7221b3266a8e6	7.837842344631202e-20
235	0x3bf6328b34931170	7.520784059732506e-20
236	0xbfcef9efd8d6db71	-0.24200246894698865
237	0x3c01cb252c3c7384	1.2057368966289607e-19
238	0x3bd4968093860744	1.7438629121878763e-20
239	0x3c0e5d58ac222014	2.0575876535481497e-19
240	0xbfd14a89dab20409	-0.27017446858377575
241	0xbc0a91a7e1fb42d8	-1.8003832973962398e-19
242	0xbc0693eff624d12a	-1.5299366775570212e-19
243	0x3fd47639c2d8f7e5	0.3197159197624145
244	0x3c0788b7b9fa7c10	1.5947294919323418e-19
245	0xbfd13f1d6daf87f1	-0.2694772311352827
246	0xbc0b9b61d8512d85	-1.8707204937990033e-19
247	0x3fc9637ef9dde52d	0.198348876958144
248	0xbfdb0d99d6d798a5	-0.42270513516121816
249	0xbfcf85cb24bc2be1	-0.24627055448249194
250	0x3fd27c7e27ef9604	0.288848437309156
251	0xbbf5abc385df060a	-7.34240420240925e-20
252	0x3c0a0f4a3baa5935	1.7658757524225875e-19
253	0xbba796ee3b472d80	-2.497643153132471e-21
254	0x3be4a03d81dcbbd0	3.4941699000017906e-20
255	0x3c019231410e6061	1.190661614056575e-19

bias f8 [120]
0	0xbfd11cc5144064bf	-0.26738097169579683
1	0xbfd10933718ba444	-0.2661865815012485
2	0xbfd668696170012b	-0.3501227809465656
3	0xbfe0f0c75d7e5a97	-0.5293919397398267
4	0xbfdfefc3b9f8dee4	-0.4990090671667373
5	0xbfe1a43dc729ee4c	-0.5512989892881222
6	0x3f8272e30ef8e16f	0.009008191961684201
7	0xbfd9d02d01675b35	-0.4033310426433901
8	0xbfc52f640f26bb04	-0.1655087541561998
9	0xbfd49d186e5c5a2c	-0.3220883443586071
10	0xbfd22ec317e0954c	-0.2841041310478729
11	0xbfe20914336831fc	-0.5636082653086869
12	0xbfd95faf7cbd28d2	-0.3964651792672501
13	0xbfe361d0f6d4c660	-0.6056904622002541
14	0xbfd497420dac7390	-0.32173205695453877
15	0xbfe07084bba97c7d	-0.5137351670527007
16	0xbfd239ba72e1da18	-0.2847734567543809
17	0x3f7d2725ff2d68b1	0.00711741297240047
18	0xbfd5964bd4e9b740	-0.33729835312157164
19	0xbfd10c6da3b01e36	-0.2663835619464153
20	0xbfdb8ea29be4baa5	-0.43058076118442506
21	0xbfe612068cbf53be	-0.6897003888103581
22	0xbfd031cb5f8cef81	-0.2530392106161728
23	0xbfd50112244b5f04	-0.3281903604924852
24	0xbfc0cd4b11711414	-0.13126505233427166
25	0xbfd1baaed7523093	-0.27701922442862176
26	0xbfc55eefa17a8feb	-0.1669597185583592
27	0xbfc8e4e601ad1afe	-0.19448542672963492
28	0xbfdcb82aeb0d9268	-0.4487407012405016
29	0xbfe0d4b9104d0998	-0.5259671514871114
30	0xbfb571bb4ba4e7b0	-0.08376665684491402
31	0xbfde4f99cb5c0681	-0.47360844477962166
32	0xbfe04c4af144d475	-0.5093130790979915
33	0xbfce5e848fd00646	-0.23725945493792916
34	0xbfce41744bdc7b40	-0.23637250618136285
35	0xbfd08e87db279dfa	-0.2586993827994487
36	0xbfd08a88844bd080	-0.25845539969964904
37	0xbfe3a773911a4d05	-0.6141908487356039
38	0xbfcc048e03046368	-0.21888899943658235
39	0xbfd900e5530dbc05	-0.3906796752043536
40	0xbfa465717b1a79e8	-0.039836450841210624
41	0xbfd2f1d5fcdf83ac	-0.2960104913200279
42	0xbfd22f528f85db99	-0.28413833633333635
43	0xbfd8147d1619e8ef	-0.376250526030744
44	0xbfc60f0ad7649ade	-0.17233405606494662
45	0xbfcc174d8d5959ac	-0.21946114923293913
46	0xbfd4aadf868af045	-0.32292926920832016
47	0xbfddea031ddf93e6	-0.467407969639963
48	0xbf9c30f0c43a0879	-0.02753044316933326
49	0xbfd6d61a859c1279	-0.35681784675424627
50	0xbfe204e252b7f961	-0.5630962005232442
51	0xbfd17c3877f5e7f8	-0.27320682253741735
52	0xbfcfd094c95e5782	-0.24855289299437905
53	0xbfd1f4d7f8129fb1	-0.2805690691552583
54	0xbfdac03aec8ff86c	-0.41798279859347676
55	0xbfd31d6ea84e28a1	-0.2986714023214834
56	0xbfcbadb0aad693a3	-0.21623810140331753
57	0xbfe38fcf1ba316d4	-0.611304811457297
58	0xbfd2d6e486217eca	-0.29436600779261524
59	0xbfd35b9186b843ca	-0.30246389538029617
60	0xbfd0257ac7ec87c6	-0.2522875740415852
61	0xbfdc092492a21e44	-0.4380580360379762
62	0xbfce4fdce3085ece	-0.23681222043591393
63	0xbfdea348f9283143	-0.4787161286519856
64	0xbfcf079bac7e4d3d	-0.24241968081023826
65	0xbfd13f2f410c02c5	-0.2694814810966302
66	0xbfdb2a183e28609c	-0.4244442564972901
67	0xbfd77ae0c4a60f04	-0.36687487796756124
68	0xbfd9ef37021a6182	-0.40522551732421885
69	0xbfca1996a02566a8	-0.2039058954203956
70	0xbfddfca3f68f5f5d	-0.4685449512303331
71	0xbfce0bc878aaf02f	-0.23473459140757444
72	0xbfc656546aa3045a	-0.1745095749556949
73	0xbfd8a340fda5eeaf	-0.3849642254860823
74	0xbfd2d4dca85888a0	-0.29424206199667857
75	0xbfd5c70e9cf2ad3c	-0.34027448012303174
76	0xbfc19779c43c575b	-0.13743517000028302
77	0xbfce466ebba53901	-0.2365244308697996
78	0xbfd275b98cdc8dde	-0.2884353519059156
79	0xbfaa95ae32590476	-0.05192322125049824
80	0xbfd59a28ef0d4c06	-0.3375341734401335
81	0xbfb68e9d717f8796	-0.088113632401955
82	0xbfd74aa46bfdee20	-0.36393080278478074
83	0xbfa4302a32d0ec37	-0.039429968550813425
84	0xbfd7a2ccbb457120	-0.3693115071125863
85	0xbfe97f758ac0a883	-0.7968089780818136
86	0xbfc6517410a25809	-0.1743607598515953
87	0xbfd85bfaccde9dee	-0.3806139946632062
88	0xbfce6c7adaef3583	-0.23768554392010452
89	0xbfd17b7c30aa2706	-0.27316193344505313
90	0xbfd16ccc3d90ba08	-0.2722654916023264
91	0x3fb2f78362aafe17	0.07408925207982296
92	0xbfe0b6786c3ed06c	-0.5222742189566936
93	0xbfd8c745c978cca5	-0.38716263461101114
94	0xbfd33a5ff62c4f8a	-0.3004379180940694
95	0xbfda1f37a187f491	-0.40815535330313774
96	0xbfda13271c7a754b	-0.4074189928158673
97	0xbfd128dd809ff4c3	-0.2681192165471879
98	0xbfe521c0d4a553a4	-0.6603702691305569
99	0xbfd761cd37c6638e	-0.365344337909442
100	0xbfaa3aadd923e04c	-0.051228935963024996
101	0xbfd71a800eced9c9	-0.3609924454316596
102	0xbfd9cf39a44ead9c	-0.4032730202258905
103	0xbfe165e49aa9188c	-0.5436881085122578
104	0xbfcf7cf41a24c661	-0.24600077892823705
105	0xbfd7f9f31fc741d7	-0.3746307192168649
106	0xbfe5b69218ffa84c	-0.6785364616637337
107	0xbfe17b92264185b0	-0.5463343379198502
108	0xbfe3d13cbcb95dc3	-0.6192916570679973
109	0xbfcf03fb66c6092b	-0.2423090221237286
110	0xbfdfea0e9473257d	-0.49866070267724877
111	0xbfd4b0f2655e0eae	-0.32329997920190123
112	0xbfd03fbbbba48e2d	-0.2538899738740124
113	0xbfd36ca45682505d	-0.30350597808979335
114	0xbfc7f6ccad7d5fd7	-0.18721922370127572
115	0xbfc7ad66eb4d0bdf	-0.18497930993370823
116	0xbfd1ebadfcc59797	-0.2800097435450594
117	0xbfe21b8637c6689a	-0.565859898505795
118	0xbfcef8c4104ed1c0	-0.2419667319897041
119	0xbfd5260a51cd5a30	-0.33044679630748686
