pyTorch/total_uncertainty/models/dropout/ow_0.0_256_total_model_1.pth (torch, 470675 bytes, 10 tensors)

weight f8 [120, 60]
0	0xbfcf73d6fd5b3f98	-0.24572265025062445
1	0x3c14accbac3e51a1	2.801982658575841e-19
2	0xbc1b6a2d9b127c6d	-3.7153925753764324e-19
3	0x3c0f1120232e66ca	2.1051748010434165e-19
4	0x3c023928011017fd	1.234856581742669e-19
5	0xbfe294d2b4d536f8	-0.5806668788806908
6	0x3c197319e167572a	3.449065801685765e-19
7	0xbc14a9de771c01ce	-2.800433333665555e-19
8	0x3be28bf5e7fd2ea0	3.1419367468780625e-20
9	0xbc0977f0cdd68c79	-1.725813917791774e-19
10	0xbbe9f80572ae8ca8	-4.399291452489688e-20
11	0xbc110e0c8879133a	-2.3113670726582563e-19
12	0xbc1047fb80728bb6	-2.2065115254299876e-19
13	0x3fc66c203b9422fc	0.1751747408782406
14	0xbfdd79d11166c02c	-0.46056009959557076
15	0xbfde2734d83044ec	-0.4711429702011418
16	0xbfdeb4f3c80ee71e	-0.4797944501584527
17	0xbfddff631b3bf346	-0.46871259364688844
18	0x3fc6d0e01ffc3875	0.17824937402514576
19	0x3c1780ea6d23809c	3.1853286639497584e-19
20	0xbfde08dcf2102eb7	-0.4692909587763369
21	0xbfe386ca2f32f700	-0.6102038308960971
22	0x3bf79dd67bd324b4	8.001599739303667e-20
23	0xbfd717cf1bd7b29b	-0.3608281871700371
24	0xbc1385edde0802c5	-2.64588167146102e-19
25	0x3c1aeb264edaadf8	3.64814424384335e-19
26	0xbfe587279d7a7b44	-0.6727483821631286
27	0x3bf76df00860e124	7.938204353688796e-20
28	0xbfd36f5074ff48aa	-0.303669084792214
29	0x3c0c8df9c7e4541e	1.9349344584106715e-19
30	0xbfe33b8ececa0644	-0.6010202444887871
31	0xbfdb03c32cb9c002	-0.42210463874562276
32	0xbfe1198c49bdb901	-0.5343686523681584
33	0xbfddd050a56e9e92	-0.465839540056984
34	0x3be0d2a19dbea828	2.849889542183323e-20
35	0xbbfd636ce6a71d84	-9.957170602087839e-20
36	0xbfde82d708e2c574	-0.4767358385825766
37	0xbfd7cd2ed262e294	-0.37189837022337113
38	0xbfe3ce2432bfacec	-0.6189137450395754
39	0xbfe01d7594aa250c	-0.5035961059194576
40	0xbfe1bb9d0fab122a	-0.5541520410557201
41	0xbfe25fee5fa40843	-0.5742103450759334
42	0xbfe2ee9f7e7df1d2	-0.5916287870928107
43	0x3bddf26ab9685700	2.5366045681906105e-20
44	0xbfdc8a7764079903	-0.4459513165333108
45	0xbfe020eba22b4156	-0.504018608795415
46	0xbfd9b2062090434e	-0.4014907186511224
47	0xbc00efc3b2b3ce7c	-1.147667292780992e-19
48	0xbfd77c2975283083	-0.36695324364769294
49	0xbfd96d97bd1f7729	-0.39731400937113165
50	0xbfdb5b17a4ef1ac3	-0.4274348364528288
51	0xbfe09aa06089f401	-0.518875301887988
52	0xbfe26a88c6afa7ee	-0.5755046730603206
53	0xbfe2d758dbfb8386	-0.588787488606713
54	0xbfdb14dacacb2a87	-0.42314786724151826
55	0xbfe0141f8e710bb6	-0.5024564535200315
56	0xbfe4714d6172a4bd	-0.6388308432844024
57	0xbfe4422a4c1235bc	-0.6330768094791703
58	0xbfe3f1d75b2cb1d0	-0.6232716351274181
59	0xbfde51eba6106019	-0.47375003068145954
60	0xbfd651328fea87f2	-0.3487059026175522
61	0x3c00ddbea4eedee8	1.1428975069601764e-19
62	0x3c12fba92fcffebd	2.5726830517278507e-19
63	0x3c1ff25b14cb902c	4.329585503224933e-19
64	0xbc03aedcf36a21b7	-1.333775954145588e-19
65	0xbfe17c5ce53433f0	-0.5464310146941198
66	0x3c15421d6c5f5dbe	2.8810316578693775e-19
67	0xbc15256564a46f5c	-2.865828015766595e-19
68	0x3c1cb10290460617	3.888415924824633e-19
69	0x3c15a5cf084271b2	2.933809108147137e-19
70	0x3c179041e3f1057b	3.193450469294944e-19
71	0x3c09a7a282744ede	1.7384384574183128e-19
72	0xbbff6659fe319c2a	-1.0638669674540401e-19
73	0x3fcdd99c0e75db9a	0.23320341783593507
74	0xbfe29ecc5fe4c45d	-0.5818845627710619
75	0xbfe0991bdfe1976a	-0.5186900494270337
76	0xbfe128cb35bb7930	-0.5362297105273566
77	0xbfddd01e9e9abd05	-0.4658276127692747
78	0x3fcb2ecb3125c8a9	0.21236553096566027
79	0xbba10aa6d2f56180	-1.8043504347778055e-21
80	0xbfde34568622ba5f	-0.4719444570463675
81	0xbfdea6d10ae7e7b5	-0.47893167557742383
82	0xbc1523d3f612f096	-2.8649978740385677e-19
83	0xbfdcb357d9ec4126	-0.44844623834161934
84	0x3c172c617c1b2c2a	3.140576245765299e-19
85	0x3c1bd5db6b5b7cea	3.772397341853146e-19
86	0xbfe541e44e7cc8f3	-0.664293435378822
87	0xbbe0582eb45f28c0	-2.768859674839442e-20
88	0xbfd6d564335949a7	-0.35677437796143824
89	0xbc1764ea3e136f44	-3.170505207202823e-19
90	0xbfe054a001331df0	-0.5103302024298824
91	0xbfd74813884dff9b	-0.3637741881466298
92	0xbfe17ff90e79ac6a	-0.5468716891022158
93	0xbfde6be5f4d97fe7	-0.47533558760733147
94	0x3bf7108568c2d668	7.81456864793835e-20
95	0xbc1866ee8d2543df	-3.3070981804732533e-19
96	0xbfe27030e774d0ba	-0.5761951943045667
97	0xbfdcbe7be6282f34	-0.4491262195231116
98	0xbfe4c8ffa066d314	-0.6495359547467126
99	0xbfe1fbc1c025d1b3	-0.5619820359120723
100	0xbfe285cb4270115d	-0.5788322732555958
101	0xbfd54d09abc8d222	-0.3328270127852041
102	0xbfe3856d2da7e207	-0.6100374118532849
103	0x3c09ce9192f4d801	1.7487441605263789e-19
104	0xbfde0e6f5d60a2b1	-0.46963104361433766
105	0xbfd7cb630a325aad	-0.3717887496544943
106	0xbfdf8882ecfaa9ab	-0.49270699636931664
107	0x3c0609bb88f25764	1.4933541739230038e-19
108	0xbfd96e5639669d14	-0.39735942464399554
109	0xbfe2034dc063872d	-0.562903285750712
110	0xbfdc0c60acb38806	-0.4382554708992078
111	0xbfde159229a834b9	-0.47006658618995406
112	0xbfe5e7c0036e4503	-0.6845398013121272
113	0xbfddce8c92f7215f	-0.4657317576607251
114	0xbfdcf459843aa49d	-0.45241392052646195
115	0xbfde5e8131383747	-0.4745181065235226
116	0xbfdd391a864e18cd	-0.4566103278706464
117	0xbfe0390c225f9e07	-0.5069637938840409
118	0xbfdab4bb63228da4	-0.417281004725931
119	0xbfe165416a1b4d6c	-0.5436102936168203
120	0xbfda6e4e53778c7e	-0.4129825415713596
121	0x3c14affa9a7c28ca	2.8036678956224167e-19
122	0xbc14a0ba12d2c712	-2.7955935169778392e-19
123	0x3c1c587ea22306d7	3.841556287422033e-19
124	0x3c1a82ffded5170e	3.593007615208459e-19
125	0xbfe1bcbb13536c72	-0.5542884232958285
126	0x3c14256e44119dba	2.730321092642961e-19
127	0xbbddcfbdfb4611a0	-2.5251316471395288e-20
128	0xbc1b73afa8189290	-3.7204260746090364e-19
129	0xbc00378c97956570	-1.0989059201148346e-19
130	0x3c126e52c2d2ce83	2.4978595490130975e-19
131	0x3c1556b6896ee047	2.8919362010438984e-19
132	0x3c0a95465dc88734	1.8013412589868562e-19
133	0x3fd1dcb39ea02443	0.2790955590322179
134	0xbfe0566b11ea3506	-0.5105491018199764
135	0xbfe1d4a1949fbbd9	-0.557205953866169
136	0xbfe0ea7ec0b028eb	-0.5286248935165337
137	0xbfe2fd7ac0ddc661	-0.5934423224372943
138	0x3fcecb253f93d9fa	0.24057450870868974
139	0x3c0eeb6db64e88f0	2.0951964951639772e-19
140	0xbfddd90140132f29	-0.46636992699926566
141	0xbfe2c8792d94fab9	-0.586971844699142
142	0xbc148eec97d63f4c	-2.786168868372724e-19
143	0xbfd4d8fae595f4f6	-0.3257434122131849
144	0x3c07edd94f73f4d4	1.621498694253017e-19
145	0xbc05c1d73cfe0e26	-1.4743245771544786e-19
146	0xbfe1cfe6a615bb0e	-0.556628536591093
147	0xbc147bf536ea01b2	-2.7761281807515973e-19
148	0xbfd31443434def68	-0.29811173985193884
149	0xbc113653f375e822	-2.3326905851374836e-19
150	0xbfde276b0cfaa7a8	-0.471155893969462
151	0xbfd632156c2f2ec7	-0.34680686535714894
152	0xbfe2a0b0bb33adc4	-0.5821155220304992
153	0xbfe24cad8fc37ba1	-0.571860104358951
154	0x3c12c71cfb6ca489	2.54486454454003e-19
155	0x3c1404a4fcf2e05a	2.7129642009366593e-19
156	0xbfe0c8099ce7b208	-0.5244186462928733
157	0xbfd72b8d31adaa64	-0.3620331750050012
158	0xbfe2de50cce3efc3	-0.5896381379857235
159	0xbfe2360327d231a0	-0.569093301558997
160	0xbfe13c95441d3b8d	-0.5386453943591377
161	0xbfd74c7ccdc0c33c	-0.36404342740120277
162	0xbfe2c1c6ef4c52f4	-0.5861544297973453
163	0xbc13cdea06a9fc89	-2.683990210509815e-19
164	0xbfd716fd45ae7e67	-0.36077815823407494
165	0xbfdcabf09f0e6f82	-0.44799438031054006
166	0xbfd7a0fc6fcdd1da	-0.3692008106075072
167	0x3c13cc50b62ea103	2.683143768206149e-19
168	0xbfe3d38910088925	-0.6195721924926018
169	0xbfdfc5c37fa44759	-0.4964455362797842
170	0xbfe34fc9bc273480	-0.6034897494188414
171	0xbfe05ec21f536b00	-0.5115671741326366
172	0xbfe57fee4c997100	-0.6718665596086169
173	0xbfe3186baf7af820	-0.5967310359335478
174	0xbfdfd99499fb4105	-0.4976550582623676
175	0xbfe1e9811aafe2f9	-0.5597539445144256
176	0xbfe06720c31fb5bd	-0.5125888644230866
177	0xbfe4873880c917f0	-0.6415064349500863
178	0xbfdd68697a2977a7	-0.45949780397301726
179	0xbfe24b522c4ef50a	-0.5716944566153483
180	0xbfdf1c86bb3fe683	-0.4861161068543895
181	0xbbf0eb1ec5880978	-5.732189858227058e-20
182	0x3c1559832d337d54	2.89341817724791e-19
183	0x3c0dd2193058a77a	2.0207290194568553e-19
184	0x3c136f6ab38558f8	2.633963723389358e-19
185	0x3fe42539a6124b1e	0.6295440906127145
186	0xbc02ca989d51013c	-1.273354198553986e-19
187	0x3c1a0dd929555984	3.530988282645164e-19
188	0xbfe02b4dc462151b	-0.5052861056907746
189	0xbc14206ae2fbedef	-2.727667126584126e-19
190	0xbc19a8f94c9604aa	-3.4775857870670684e-19
191	0xbfe1cdeddff6bd77	-0.5563878416341329
192	0x3bd04b599f6f6d60	1.3801839687297766e-20
193	0xbc02e021e3b943f0	-1.2790547913229321e-19
194	0x3fcf843b3d79a69c	0.24622288228720357
195	0x3fe286036eb6e9fe	0.5788590586083158
196	0x3fdcfaee2e73d37c	0.45281557594653754
197	0xbfe3221d5c4f3037	-0.5979143908421126
198	0x3c14f1e0a54bb452	2.838554325285164e-19
199	0xbfde988079d238e3	-0.4780579747829405
200	0xbfe1d6381080cd16	-0.5573997804953332
201	0x3fe1bf37d140d764	0.5545920454958204
202	0xbfddc58ca3e6ff4f	-0.46518245702826716
203	0xbfe4914b72141231	-0.6427361705869484
204	0xbfde9b3be2a20d0f	-0.478224726983357
205	0xbfdf8cf65a6c9b3c	-0.4929786570595984
206	0xbfb055626477411e	-0.06380286171702607
207	0xbc1992bfc6904c51	-3.4658201281811584e-19
208	0xbfe781225455f983	-0.7345134398636194
209	0xbfe66c9b70e61330	-0.7007577137997938
210	0xbfe0558b5b246e66	-0.510442426693271
211	0x3fe284c1ef26e394	0.5787057562766784
212	0x3fe076199fc52267	0.5144165153988752
213	0xbfe3d2e93f0224fe	-0.619495986045109
214	0xbfe53bfa224ed081	-0.6635714216304366
215	0xbfdd3768f178b0e1	-0.4565069540137881
216	0xbfc32cd8d412542b	-0.14980612139757574
217	0xbfe2f57cce39f5ec	-0.592466738496737
218	0xbfc1fd80ec4d5a31	-0.14054881609145434
219	0xbfe4251a1599d68e	-0.6295290395634809
220	0xbfcb1bc8cf77d9aa	-0.21178541307717796
221	0x3fd5bf8c6e5afb2a	0.3398161962212948
222	0x3fd62b65fab62d91	0.3463988254886426
223	0xbfe1f1e2fe2af184	-0.5607771839345763
224	0x3fd5a5a3db6c9b60	0.3382348673643971
225	0xbfc5be5f55c91dcb	-0.1698722046732953
226	0xbfc535e98b2e2633	-0.1657077722159542
227	0xbfe1a4cb5cba7a48	-0.5513665019132725
228	0xbfc4c319219cb9b6	-0.16220392361851815
229	0xbfcf9f7f0daebb6a	-0.2470549408730805
230	0xbfcdd3bab2b96221	-0.23302396513715087
231	0x3fd806a912186e57	0.375406520530054
232	0xbfc7238e3c36b33a	-0.18077257099266736
233	0xbfe62e5d32303258	-0.6931596737136472
234	0xbfcc1f3a2302812a	-0.21970297536336975
235	0xbfe75655fe942d9e	-0.7292890522234534
236	0x3fe13546840fd8ea	0.5377533511480383
237	0xbfc2eeb47ba32d7a	-0.14790969883902588
238	0xbfd3435b8cd63d08	-0.30098618272400346
239	0xbfd0c6522adfd33c	-0.26210455119080556
240	0xbfdcd7ee5c6fd799	-0.4506793883041325
241	0xbc14aaae2201632e	-2.800862780119583e-19
242	0x3c1448b343aa2a82	2.7489926237555056e-19
243	0x3bd3ff54c3ddde20	1.6938445785929552e-20
244	0x3bf3eadff39f6e48	6.748304623374073e-20
245	0xbfe1a432f8f964a8	-0.5512938368584814
246	0x3c19447a11c14c2b	3.424383122786639e-19
247	0x3c040b2d7e269d58	1.3582114297917018e-19
248	0x3c10a3fffce7ec97	2.2552251970710687e-19
249	0xbc17ce8be9a488db	-3.226426070468486e-19
250	0x3c1466d678ab522e	2.764947297987157e-19
251	0x3c1f11f123563ac8	4.210781805213645e-19
252	0xbc1236cf80b5d727	-2.468471355742852e-19
253	0x3f8bafb3055679a7	0.013518713570019282
254	0xbfe25bd96807d47b	-0.5737120658728964
255	0xbfe21a087d20ff55	-0.5656778758929969

bias f8 [120]
0	0xbfdb41aad7aff0f2	-0.42588301718912114
1	0xbfdd34e947f77db7	-0.45635444667820074
2	0xbfd8b647d342c957	-0.38612552290864727
3	0xbfd2d42307e1725a	-0.29419780511469684
4	0xbfdc7458d85df4b8	-0.44460126046744675
5	0xbfa5f81ad239dba7	-0.042908514177660444
6	0xbfc1f82539a38687	-0.1403852969588579
7	0xbf66d0bc453aa241	-0.0027850796849018537
8	0xbfb19bee1fd06323	-0.0687855556174211
9	0xbfe1a3aa25681538	-0.5512285929295677
10	0xbfe27765114b1914	-0.5770745599518556
11	0xbfe2a41e8cb4ec8d	-0.5825340984514625
12	0xbfa102ce5df6f0a7	-0.03322453400639463
13	0xbf9a9ffb1062e2c9	-0.02600090301050065
14	0xbfe29cb3ca09dc70	-0.5816286989273873
15	0xbfe07ab73ab29e80	-0.5149799486579951
16	0xbfd8ec1147d87915	-0.3894084169022716
17	0xbfe0bfdeac0f8ead	-0.5234216080247812
18	0xbfca5c7f27933fe5	-0.2059477751959086
19	0xbfdb35563f4d3364	-0.4251304262332296
20	0xbfdc5cc5bdcc65f7	-0.4431623795986463
21	0xbfe02221acdc5831	-0.5041664482294036
22	0xbfd2d2e9fdb6ca13	-0.29412317063102583
23	0xbf5fd3cea4eb9cd9	-0.0019425886163675825
24	0xbfd86b75b96a7c6f	-0.38155882937457525
25	0xbfe17f97e50abe30	-0.5468253587222929
26	0xbec8343d8b15ddb7	-2.885349282773677e-06
27	0xbfde0773b0f5423d	-0.4692048290353659
28	0x3c8325bb25bb2271	3.3215421546025496e-17
29	0xbfe02639e0ee4c78	-0.5046662705593823
30	0xbfdd3037e70712bc	-0.4560680156830974
31	0xbfe037cedacfc9d4	-0.5068125032105919
32	0xbfdde18edd2b6831	-0.46689197157468515
33	0xbfe78d97070cb32b	-0.7360339296043085
34	0xbfe356d6a19684bf	-0.604350391007891
35	0xbfb05d03923257c7	-0.06391928023580738
36	0xbfe1103bdd5e2886	-0.5332316707220037
37	0xbfdb0f04ea0d569b	-0.42279169899607333
38	0xbfaa1f6977c0d164	-0.0510209044154262
39	0xbfc10a95456ad64b	-0.1331354702903574
40	0xbecb547f688dc1cd	-3.2579981205581874e-06
41	0xbfdfd57fe5cbadfd	-0.4974059814546477
42	0xbfaa58d69ef3075f	-0.051459032919878515
43	0xbfc2bcbda05571dd	-0.1463849099044542
44	0xbfdc4378b9b569e9	-0.44161813865289773
45	0xbfcc274d50d0a0d4	-0.21994940229456594
46	0xbfdfef7c02241a7d	-0.4989919682415474
47	0xbfe2b6982e6dddc7	-0.5847893626041064
48	0xbfdf86ca96a33494	-0.49260201178260243
49	0xbfe17351e80f27a1	-0.5453271419912548
50	0xbfe402c93fec1896	-0.625340103958268
51	0xbfdc01bf18ed4019	-0.43760659631971205
52	0xbfdf8a53a368767b	-0.4928177924901786
53	0xbfe0a40faf3538a1	-0.5200270101575094
54	0xbfe32d466127117d	-0.5992767236244131
55	0xbfdd7b7bc6a632ec	-0.4606618347104774
56	0xbfe1d9d07c005bb7	-0.5578386709120114
57	0xbfc2643ad6e52a44	-0.14368377201965832
58	0xbfe32f0159759210	-0.5994879481555149
59	0xbfe48b4a967daf14	-0.6420033396984501
60	0xbfe09c625d37f827	-0.5190898724247334
61	0xbfd57b499ed43dac	-0.3356498766961191
62	0xbfc748489509622d	-0.18189341809444795
63	0xbfdfa16be6756dbe	-0.4942273855756091
64	0xbfe212c67cb82c92	-0.5647919116903657
65	0xbfb7ed00381c1cb0	-0.09346009607189631
66	0xbfcb8dc89d6eac90	-0.21526439368367223
67	0xbfd9e457408b7604	-0.40456181815338277
68	0x3d739f5d4c60840b	1.115410973955457e-12
69	0xbfd7093c40c09eed	-0.35993868182639127
70	0xbfb0a7649df9a162	-0.06505421501936362
71	0xbfde7a87e20f596f	-0.4762286861054212
72	0xbfac6a655eb29198	-0.055499236879117564
73	0xbfe14dd4b7955f5e	-0.5407508454909296
74	0xbfe261a8628b48d3	-0.5744211125077306
75	0xbfa86f181470648c	-0.0477225804281228
76	0xbfdde1ffe09c3eb2	-0.46691891607859326
77	0xbfe3ea078330079a	-0.622318035341084
78	0xbfe10646c807b89e	-0.5320161730612829
79	0xbfd5a5aaa5b793a5	-0.33823648627577035
80	0xbfb73579445355be	-0.09065969389060677
81	0xbfdfc1878fc6bcba	-0.49618710556655865
82	0xbfd97e1042a47458	-0.3983193064503374
83	0xbece59d53104a676	-3.618110334131792e-06
84	0xbfc7918672a7af7d	-0.1841285762633297
85	0xbfe1e0507541946e	-0.5586321153792946
86	0xbfe0c53f7fd7aa33	-0.524078130428569
87	0xbfa8b5c9f0cebd03	-0.04826193871064712
88	0xbfdd1a88247bbf1f	-0.4547443729670579
89	0xbfe25d8a334b7a87	-0.5739184381344139
90	0xbfa6cee381535537	-0.044547185456091425
91	0xbfdbb6fd783b7323	-0.4330438303129986
92	0xbfe3d1fc51dd178e	-0.6193830107592804
93	0xbfddc82f7e3c8652	-0.4653433544900497
94	0xbfcc592c08faa8a5	-0.22147131384310118
95	0xbfe414424479aee8	-0.6274730050476736
96	0xbfdebac64879e254	-0.48014981343979923
97	0xbfb7cbd24b51e5ca	-0.09295381869187405
98	0xbfb637b7ba458b9b	-0.08678768441818223
99	0xbfdeb4404d86a20a	-0.4797516591156926
100	0xbfdfbddc4faf4aa0	-0.4959631708308425
101	0xbfe1a9351fd05fe4	-0.551905214440009
102	0xbfc3d2dfaa1ef98a	-0.15487285429658143
103	0xbfe052db38809f73	-0.5101142982066292
104	0xbfb1ea764090fa8e	-0.06998385502172708
105	0xbfe26f34face6ced	-0.576075067382957
106	0xbfdb412611ccbe69	-0.4258513616395932
107	0xbfe1a1e62caec212	-0.5510130760868057
108	0xbfe26656affc6b67	-0.5749925076701005
109	0xbfdc99267c21868b	-0.4468475544182204
110	0xbfdd15106d2d0e54	-0.4544106546565889
111	0xbfe2012f8aaba787	-0.5626447399529163
112	0xbfd8d42673e4adfe	-0.3879486209650337
113	0xbfe1f05d85ae678e	-0.5605914698564776
114	0xbfd0b2dbf635f3f9	-0.26091670078295653
115	0xbfda67a5dffedf04	-0.41257616877145176
116	0xbfdb073f65e0dd3c	-0.4223173613458646
117	0xbfae2a6b9ee0de88	-0.058917391914687534
118	0xbfdac9a309ae7eed	-0.41855693765135876
119	0xbf8f635c524156a1	-0.015326234112005567

weight f8 [120, 120]
0	0xbfd44adb3b00f1b9	-0.31706887018279023
1	0xbfc2639ff90dc999	-0.1436653104861534
2	0xbfcf76c399707e04	-0.24581189148101157
3	0x3fe0cbc4b886ed94	0.524874077228946
4	0xbf85e490c1ddd3ad	-0.01068986026414528
5	0xbfb70e17c23d5911	-0.09005878917864531
6	0xbfc0804002fe6d82	-0.12891388078865523
7	0xbf6c32925af94315	-0.0034420832160225825
8	0xbf80ac219d4693ed	-0.008140814411328601
9	0xbfdadf9712cb1e1f	-0.4198968585519384
10	0xbbd111ae59f6dcf0	-1.4458061824303956e-20
11	0xbc115668c8946edd	-2.3496743246767348e-19
12	0xbfbdd8bb4ba728c2	-0.11658831212040169
13	0xbfccdc360d18880c	-0.2254703105873549
14	0x3fdd000a36fa39b3	0.4531274353875247
15	0xbcc0c57bc4c6fadd	-4.65500410714961e-16
16	0x3d2c1e7325500999	4.994927935220024e-14
17	0x3fe0414463a1bcbf	0.5079671808179212
18	0xbfda2433d9fb8da4	-0.4084596279846784
19	0xbfdfbd0866d7cf69	-0.49591264765989834
20	0xbfc2ae92465370e6	-0.14595249589809284
21	0x3c1c57cea182e7b1	3.8411923228999606e-19
22	0xbfe0653b51525289	-0.5123573864280654
23	0xbfc35f4b97024095	-0.15134568093754255
24	0xbfccea7bed34b8dd	-0.22590588648149082
25	0x3be444bf882064d8	3.4336255122949823e-20
26	0xbfbd69aa96e595b5	-0.11489359077457702
27	0x3c0106cb084d851e	1.153762925657178e-19
28	0xbfac3380d2374973	-0.055080438290718535
29	0xbfc506aff18f16c6	-0.16426657957906893
30	0xbfc55bc4dbea8232	-0.1668630670365175
31	0xbf39fb368fe0f0cc	-0.0003964431961127723
32	0xbbf9badfcdc1e794	-8.717655461055937e-20
33	0xbfd96130627bde05	-0.39655694596828567
34	0xbf8383ae0f99de2e	-0.009528503275972513
35	0xbfd60c8d5d561992	-0.3445161258208823
36	0x3c11a41371a6dcf6	2.3907907027763616e-19
37	0xbec359e41cdd5ac2	-2.306835290715029e-06
38	0xbf86c20116af273a	-0.011112221245543109
39	0xbfcc06ef422ffafd	-0.21896162730987348
40	0xbf72083c92453eca	-0.004402386290464919
41	0x3c13c1c8b20ecf4e	2.677568537561763e-19
42	0xbfbde5ab26e5f1a0	-0.11678571414626626
43	0xbfdbe3ce068740a2	-0.435779100776026
44	0xbc0aaae229cd883a	-1.8070610029752822e-19
45	0x3fdf60cff9ffebe6	0.490283960476232
46	0x3fbafe0f1b0496ef	0.10543913278214821
47	0xbc13b2f7b7725058	-2.669724840932702e-19
48	0xbe5380e22210e47a	-1.8164003749209583e-08
49	0xbfda05993fd585e8	-0.40659171327396715
50	0xbfa7afa3922fc233	-0.046261893839873024
51	0x3fde57a7dbc296f0	0.47410007916401664
52	0xbf6c9db7a54da92d	-0.00349317425064046
53	0x3fe0039e0563f088	0.500441561248878
54	0xbfd201a8f6443043	-0.2813513188309608
55	0xbfb4a169cc6cab9f	-0.08058797112305037
56	0xbfcb18071a1c75c3	-0.21167076849898878
57	0xbf9f7c8e79ac995b	-0.030748583008198476
58	0xbf6304ed98f7c282	-0.0023216858460204945
59	0xbc06c4f3e5048100	-1.5429109362926507e-19
60	0x3fd851292c0f393d	0.37995366385156953
61	0xbfe0c94a6770daaa	-0.5245716114357795
62	0xbfda9f4e267c7f5f	-0.4159732223360972
63	0xbc0021e7e3d51e78	-1.0931769683640628e-19
64	0xbfb796390bf98818	-0.09213596861221196
65	0x3dd96b3539143148	9.247298609984318e-11
66	0xbf99bc4bcdade86e	-0.02513235514513961
67	0xbfcf3dccafc24c41	-0.2440734728048444
68	0xbfd69b254ef3465d	-0.35321934423436635
69	0x3fdfd2246235d7ff	0.49720105734684233
70	0xbf6313c30524d19d	-0.0023287590967362008
71	0xbc1454e94ab72e66	-2.7554570971988444e-19
72	0xbfa0cd7e97a139a6	-0.03281779862355742
73	0xbbebf1f2195b99e0	-4.734084148660204e-20
74	0xbc1769333efd993e	-3.1727737574216616e-19
75	0xbfdbcddc5fd7acf9	-0.43443974837892047
76	0x3c176bc143dfc891	3.1741262371720643e-19
77	0xbf71b63a562d19f5	-0.004324176671451675
78	0xbfd134c4d8bf2ed3	-0.2688457600276994
79	0xbfdade8d024ca751	-0.41983342384866257
80	0xbfc6f11c2321daf8	-0.17923309054796
81	0x3fe0e2be58b20c3f	0.5276786548933002
82	0x3fddeda534a230c9	0.4676297201156215
83	0xbfba14e1b2eb090c	-0.10188112848394243
84	0xbfd6b79afc2b60c4	-0.35495638490602865
85	0xbfa671c5d0fba3d9	-0.0438367669683612
86	0xbfc62118af3d448a	-0.17288502270324485
87	0xbfbdb5b5ac8e328d	-0.1160539194372154
88	0xbfce815381d5e090	-0.23832172240850413
89	0xbbe2d627ab4fffc0	-3.191034473435869e-20
90	0xbfdf1a898b0d513c	-0.4859947069101229
91	0xbfaef833f504bde6	-0.06048738828610194
92	0x3c151d8899fb2b4c	2.861665660201359e-19
93	0xbfc68632db99bde5	-0.17597041819270412
94	0xbfd2758490514cc4	-0.28842271893990934
95	0xbfc25b94697d3820	-0.14341979170643615
96	0xbf4f225a93321e51	-0.0009501402149831394
97	0xbfcc7f474ad297a9	-0.22263423112343375
98	0xbfb0d661a52a10ed	-0.06577120096523333
99	0x3c03d9af4d647fac	1.3451107599073282e-19
100	0xbc02c9f73f08a6dd	-1.273187347651204e-19
101	0x3bd20a6cb5623bc0	1.5281085299901058e-20
102	0xbfc615ffb2556354	-0.17254635055248946
103	0x3fde6b7927893dec	0.47530964718768476
104	0xbfdd986c45a42860	-0.4624281578150029
105	0xbfac1da577a57923	-0.05491368375327201
106	0xbfc6a19c8c56553d	-0.1768069920769139
107	0xbc14e1247a57d678	-2.82969487395635e-19
108	0xbfa1f31b68a89a58	-0.03505788471766341
109	0xbfd143ee20bfd511	-0.26977112959078037
110	0xbfdbf8aa1c42e6c8	-0.43705227622886555
111	0xbc150df1adba42a6	-2.8534126251501645e-19
112	0xbfc69d98afd61140	-0.1766844614577483
113	0x3c15fd0f27467cde	2.979999124095699e-19
114	0xbfd19b5677ab17c4	-0.2751060646663712
115	0x3fdcb745b2938eea	0.4486860507879401
116	0xbfa51c67805cf498	-0.04123233262951337
117	0xbfd9f3c5b73c17b4	-0.40550368207947973
118	0xbf93fd2561f65a4b	-0.019520362953324526
119	0xbfbb791218366841	-0.107316141997587
120	0xbfc53b14ea64d28a	-0.16586553044330216
121	0xbfabc9930157b8fe	-0.054272264398479195
122	0x3fb85572b0fa807c	0.09505383320584032
123	0xbfdc39ecec1996f7	-0.4410354905761404
124	0xbfd006d49b90d047	-0.25041690055809734
125	0x3beba3ea1f5d36a8	4.6824474595696976e-20
126	0x3c14da11c6e0913f	2.825950431970552e-19
127	0xbc115f49ed823a4d	-2.3543750768167284e-19
128	0x3c06d80680c0527c	1.5479594349840202e-19
129	0xbfe1bb64eff666b9	-0.5541252791183161
130	0x3fe21b06402578a6	0.5657988789423782
131	0x3fe2f40c43cf1b03	0.5922910046000144
132	0xbc12de3bb6ca3282	-2.5571041952287842e-19
133	0x3c173ffc0629e6ce	3.1509543417696665e-19
134	0xbfe1e7b80bc0a60c	-0.5595360021154092
135	0x3fb0aca3e42816f4	0.06513428039769648
136	0xbbeb428abcfc90f0	-4.618011681432046e-20
137	0xbfe2005f1668b8e6	-0.5625453412701773
138	0xbfdfbe79d41cd274	-0.49600072588081123
139	0xbc18e1c794813635	-3.3721332476305773e-19
140	0xbfadd350dde284cc	-0.058252837262679685
141	0xbfdf59ca9442dce9	-0.4898554275382155
142	0xbc1bc5c29d337b66	-3.763875716226738e-19
143	0x3c1523eafa9d46cb	2.86504547360067e-19
144	0xbfcba04ed8a1d5dc	-0.21582971170179988
145	0x3fde9e419317aaa1	0.47840918888565837
146	0x3c1368ab8b31bb6e	2.630392045338797e-19
147	0x3fe4373ed4dc1d3a	0.6317438275736216
148	0xbc0551e06e366a18	-1.444687928581084e-19
149	0xbfc90efe1f23ae69	-0.1957700397536997
150	0xbfc37764d09a0df7	-0.15208110986360143
151	0xbfb8fea55f1137f1	-0.09763558932283424
152	0xbfdf51d76a4c993d	-0.4893702066496138
153	0x3c1756649774c4d0	3.162817285416742e-19
154	0x3f9398cee3a17345	0.0191376043734295
155	0x3c0a8608d0f3578c	1.7973071507059132e-19
156	0x3fd8eef786725862	0.38958538178974866
157	0xbfd071cf179aedc9	-0.2569463472861711
158	0xbbf90bc64ea30a00	-8.485913075390941e-20
159	0xbbf47f3d3f3bb0f4	-6.944663318097389e-20
160	0x3c1c9846c166866b	3.875322052572326e-19
161	0x3fe38cb2d5058e39	0.6109251175479989
162	0x3be0c3e6def5c638	2.8401423941585407e-20
163	0xbfd5100c3dbe2abc	-0.32910448102544954
164	0x3bf0e1b945d72ff0	5.719753720949061e-20
165	0xbfe03a19bc124f44	-0.5070923493644632
166	0xbfd6639603730333	-0.349828246467996
167	0xbfe202e08231c22e	-0.5628511946543477
168	0x3f85e82b1231bc85	0.01069673203730149
169	0x3c1e1e7af1a9843b	4.081894256799983e-19
170	0xbfb3a140a39ef43d	-0.07667926783229091
171	0xbfdfe846b6abefb7	-0.4985520156767466
172	0xbfd41fdc9ea08dfb	-0.3144446896642134
173	0xbfdd8d3ba8f89999	-0.461745181094011
174	0xbfcb082b13569a92	-0.21118677562954652
175	0xbfbdf87bb0572dac	-0.11707280211628895
176	0xbfc9ef4a5d373867	-0.20261506606624666
177	0x3bf32a1125c9c150	6.493125587361052e-20
178	0xbf97551b33366579	-0.02278559207988937
179	0x3fe08000a476b1b5	0.5156253063374182
180	0xbc106291a6ed6d95	-2.220586314391615e-19
181	0x3c1413ffd2e60ae4	2.7210929787282617e-19
182	0xbfd881d1598eb089	-0.3829234480460931
183	0xbfe03c71a4c50840	-0.5073784082562796
184	0xbfb064d36067e8f5	-0.06403847793254498
185	0xbc19cdc1d99efda5	-3.4970587579586207e-19
186	0x3c1b91360cf35e6b	3.736056466980787e-19
187	0xbfb4ae026b74b6c6	-0.08078017352519415
188	0x3c010c8fd2dddada	1.1552898920360442e-19
189	0xbfd86e1e46234f33	-0.381721085065908
190	0xbc1303ac96a9f135	-2.576925251145354e-19
191	0x3fe0026b36a58576	0.500295263988092
192	0x3c1abe5e8747cfb4	3.6244377032955693e-19
193	0x3fe1dc9dbb22831f	0.55818068074959
194	0x3fe3f9eb6bce440c	0.62425776534849
195	0xbfe3192b7506a636	-0.5968224797881649
196	0x3fe415f61b229153	0.6276808290463499
197	0xbfb63624d7bb1b7b	-0.08676367060534844
198	0xbfa96c46d7cf5259	-0.04965421089551531
199	0xbbfe8fdd7b36bdf8	-1.0354799322708432e-19
200	0xbbf5f2e47cb260bc	-7.436542340721133e-20
201	0xbfdeee36bb7e8b79	-0.4832894164084603
202	0xbfd67839c63d9919	-0.3510879932349709
203	0x3bff7bf8ebdc1592	1.066728458360201e-19
204	0xbfdf62480f0f3d21	-0.4903736254754723
205	0xbfd52f887a58ae1d	-0.33102619121447835
206	0xbfc8e169bf3e9cbd	-0.19437906110872474
207	0xbbf9d97769db9634	-8.758143934582453e-20
208	0xbfc7e2b2b87c5bd8	-0.18660577781767418
209	0x3fe1b29279e4acfa	0.5530483608939953
210	0xbfddce1daad2c578	-0.4657053154179134
211	0xbfb8e025ea21d973	-0.09717022863501316
212	0x3fdb4c83c49f3756	0.42654508782731193
213	0xbfd30ec4e56729d8	-0.29777643587717995
214	0x3c077474b7fae61a	1.5893662515643006e-19
215	0xbfb8fa67fc22ba36	-0.09757089524894344
216	0xbfd1eed37ab2dab3	-0.28020178777971266
217	0x3c1788ec6cb161ff	3.1895679609881135e-19
218	0xbc1789b513ef5f80	-3.189982902265714e-19
219	0x3fe0821208ea3100	0.5158777402989756
220	0x3fe32af90e74b108	0.5989957125034673
221	0x3fe082b9a4676c6f	0.5159576617255776
222	0xbc16a3c7ecd7318c	-3.068260891374543e-19
223	0xbfdf41d5f006c4cf	-0.48839329185564123
224	0xbfdce08fb9a0f6c0	-0.45120614173707096
225	0xbfc06664febb9791	-0.12812483251690002
226	0xbfcc8b0155893421	-0.22299210239944592
227	0x3fdd7a92f0003820	0.4606063216932643
228	0xbf7fc03de8c37967	-0.007751695473613963
229	0xbf95f53ebe017466	-0.021443348261858473
230	0xbfd7a8d85fb7d1aa	-0.36968049380746015
231	0xbc0bac9acb04e83a	-1.8752792392400152e-19
232	0xbfbc60bc640d2c3a	-0.1108510727182627
233	0xbfe20d24798b7b1c	-0.5641043065951155
234	0x3c0e799883e571a0	2.065065203769531e-19
235	0xbfda0f71749f8c22	-0.40719257725703717
236	0xbfbe014865b6965b	-0.11720707400544354
237	0xbfde4b5513b1ef03	-0.47334792064042136
238	0x3fc1b16ccba357b7	0.13822708075775633
239	0x3c0e52233429c495	2.05462069252082e-19
240	0xbfe2add42d76e422	-0.5837193382241177
241	0xbfde9b0bc48f1140	-0.47821325488282085
242	0xbfe1782ef627c18f	-0.5459208305092477
243	0xbfe229ef0a3eb74b	-0.5676188659760809
244	0xbfe2dce893beafe9	-0.5894663701669717
245	0xbbf0d1622c3e54e0	-5.698127600880459e-20
246	0x3c0f4e9543a42134	2.1214424728694314e-19
247	0x3c0a89102f186f61	1.7981088621725262e-19
248	0x3c066517c9c3d158	1.5175370609298875e-19
249	0xbbfc7f574c41ebbc	-9.655303429185029e-20
250	0xbfe20fe65920ede5	-0.564440893248897
251	0xbfdca333fdda625e	-0.4474611262353728
252	0x3c07ee74ba57c01e	1.6216593922212468e-19
253	0xbc14f35764eee9ac	-2.8393292871935633e-19
254	0xbc09958fab2117e6	-1.7336544158352437e-19
255	0xbfde9a609ed371fa	-0.47817245016429377

bias f8 [120]
0	0xbfe48cfb6a41ea82	-0.6422097277966972
1	0xbfd45d3fe55e87f7	-0.31819150351850517
2	0xbfde8e7968977926	-0.47744593824417547
3	0xbfd3b8f6609c219e	-0.30816420969542857
4	0xbfa85c0f86a29bb4	-0.047577367005309595
5	0xbfde64ff734af2c4	-0.4749144197374273
6	0xbfe7b03edfc87339	-0.7402643557321432
7	0xbfccc15bd1abfebf	-0.22465083825954044
8	0xbfd9c1cd08ae3b25	-0.4024536690493952
9	0xbfd8b06af5f32cd2	-0.38576768892808133
10	0xbfdc4f90d8b13f96	-0.4423563114296426
11	0x3feeb4c23ee52bd6	0.9595652798101308
12	0xbfda5fcb03f7ad6f	-0.41209674251032075
13	0xbfe13e1a75a22064	-0.5388309762502215
14	0xbfe03f19879db8c0	-0.5077026032211265
15	0xbfe1218920a6bbc4	-0.5353437078209642
16	0xbfe5e1467121cb6f	-0.6837494096383646
17	0xbfe9ee404cc6882b	-0.8103333949586661
18	0x3fe800aa68a8040c	0.750081257254466
19	0xbfde84e349cb9891	-0.4768608303696818
20	0xbfc7ed2efe836c57	-0.18692576815996872
21	0xbfe0f153b9cd4601	-0.5294588688795444
22	0xbfd95acbcaf91f66	-0.3961667520675206
23	0xbfbc1c6ee212f683	-0.10980885524164745
24	0xbfe2949a7c6ea5fc	-0.5806400709454347
25	0xbfda43af9c705ac6	-0.410381224415158
26	0xbfdbb58de6564cef	-0.43295619481905495
27	0xbfd7782cb0ba1b54	-0.366709873757306
28	0xbfdf8257740b3aad	-0.4923304208031521
29	0xbfddb247ecbc79d8	-0.46400640600941534
30	0x3d54e62cf556e2bb	2.969944078768999e-13
31	0xbfdde309a28939e3	-0.4669822776094447
32	0xbfe24a842bfd7a24	-0.571596227567913
33	0xbfdc7dedfd88f458	-0.4451861358573459
34	0x3fee64dbbec3cdeb	0.9498118139148891
35	0xbfe14a33ef1721ea	-0.54030796716057
36	0xbfe01fc424c7c432	-0.503877708279225
37	0xbfddcea92c9ab3c4	-0.4657385764683648
38	0xbfdeed6fc0bebf70	-0.48324197600140106
39	0x3fe5f9f99d9caebd	0.6867645338401968
40	0xbfdbeb2c7ad04290	-0.4362288665152301
41	0xbfc98c5bc233a613	-0.19959589941508735
42	0xbfcb17bc37727404	-0.21166184146287048
43	0xbfbddaab5f015cf7	-0.11661788053003251
44	0xbfe6373484aae3d6	-0.6942389098322745
45	0xbfc7581ab8a51c7e	-0.18237623229854089
46	0xbfd9ada3f31d6830	-0.40122317067801117
47	0xbfe62e228197487a	-0.6931316882203327
48	0xbfd9c7eeb2e09064	-0.4028279063079536
49	0xbfd200d52cae8d12	-0.28130082477055496
50	0xbfc38a0f84459643	-0.15265077551446113
51	0xbfe7262e6965983c	-0.7234108027012165
52	0xbfde5a555e645219	-0.4742635175510102
53	0xbfe892732fdfc496	-0.7678771910706412
54	0xbfd5aa6233e192ce	-0.3385243899013347
55	0xbfd57af074190267	-0.33562861764588664
56	0xbfd758850388f9c9	-0.364777806713303
57	0xbfea3e548d9fbb62	-0.8201086774914581
58	0xbfcdfd5c96656d1a	-0.2342944845539499
59	0xbfd1bfaf3b4585cd	-0.27732449329604664
60	0xbfe0f3e8ffb04d20	-0.5297741884154767
61	0xbfe28f091b568ac0	-0.5799603971430187
62	0xbfd8739b68c4b0c2	-0.38205609542161423
63	0xbfde40dea423df2f	-0.47270933179196367
64	0xbfd87ab2a7e29873	-0.3824888839247997
65	0xbfe99f5398afff38	-0.8006990415742399
66	0xbfd4982cac0961e7	-0.3217879943890964
67	0xbfdac0b09675a164	-0.4180108517962451
68	0xbfdfbca72f651eb9	-0.4958894694177434
69	0xbfe0b7153deb4ce1	-0.5223489961012114
70	0xbfd7e1d3e307fb49	-0.3731584279157017
71	0xbfd96f4544e413e5	-0.39741641738538497
72	0xbfe21ab2280e0523	-0.5657587797469755
73	0xbfe003fc930a4a6a	-0.5004866477850787
74	0xbfd67e555004d99d	-0.351460769790174
75	0xbfd9a701ec551826	-0.4008183296140281
76	0xbfdc1aa3543a4af6	-0.43912585473405785
77	0xbfe1464ec784dd00	-0.5398324868064321
78	0xbfdd385f63362f3f	-0.4565657109130718
79	0xbfb27d7125d21ac8	-0.07222659276349497
80	0xbfce612479bc2718	-0.23733955329981238
81	0xbfe01aaa88a4568d	-0.5032551449573518
82	0xbfdd6cc4ba87c854	-0.45976370063647676
83	0xbfe01e0a36b219d8	-0.5036669796252751
84	0xbfcfafb62911cc88	-0.24754979138706212
85	0xbfd3fa609cc1ab16	-0.3121568232369766
86	0xbfdbf0807fe75d4f	-0.4365540741977911
87	0xbf168525cd087a5c	-8.590739458511895e-05
88	0xbfc3c0edc6bfe2ae	-0.15432522015159605
89	0xbfdddbcfd4f838cb	-0.46654125020803566
90	0xbfcf8cae1352ba1a	-0.24648071235192576
91	0xbfe572111abe7e83	-0.670174171671491
92	0xbfe196401a249058	-0.5495911131479359
93	0xbfdc72952a59dbea	-0.44449357162323955
94	0xbfddc233243c76a0	-0.46497801340761136
95	0xbfdd155d8223fb9b	-0.45442903241194593
96	0xbfdd2c1dde444a37	-0.4558176680158427
97	0xbfde95aa60c96c5f	-0.4778848595794382
98	0xbfdab82492acdac6	-0.41748918842078486
99	0xbfde1a4848212425	-0.47035414737598763
100	0xbfd7e7f7f6707e83	-0.3735332399973929
101	0xbfdb76309ed55322	-0.42908874045433454
102	0xbfb32c0c3091b831	-0.07489086328288931
103	0xbfdc6fcd01a85cc5	-0.44432377969628717
104	0xbfdf88616ee4766a	-0.492699011128798
105	0xbfd8e3b542b1d6f3	-0.38889819634583417
106	0xbfdfa9b14b38e8fa	-0.4947322115509817
107	0xbfde21dd7f0d98b2	-0.4708169689896621
108	0xbfdf296dea07cf26	-0.48690364698926414
109	0xbfe09e3b7d2dc17d	-0.519315475930895
110	0xbfe3cab8cc52981b	-0.6184963217426714
111	0xbfd9854e23b3d124	-0.3987613056808803
112	0xbfe48d979623f5a0	-0.6422841961318007
113	0xbfdfcfa543f6051b	-0.4970486797029296
114	0xbfe04b8eec546509	-0.5092234245122721
115	0xbfe0cc0deb5c22fd	-0.5249089810250492
116	0xbfd5fc168dc2b464	-0.34351123660855465
117	0xbfe09761315424fe	-0.5184789622736898
118	0xbfe93b4ed4c5e5d0	-0.7884897380565068
119	0xbfda9279029082d8	-0.4151899838489448

weight f8 [120, 120]
0	0xbfe642d728044d05	-0.6956592351511125
1	0x3f94910525630cfe	0.02008445778552658
2	0x3c18d03b5fbd0157	3.362843583107766e-19
3	0x3c0e26173c99303a	2.0429616158565332e-19
4	0xbfe178c431605912	-0.5459919895536436
5	0x3c14edbc7314db08	2.8363618910343926e-19
6	0x3fde2c3685483a75	0.4714485456069391
7	0xbc04d642e33f05ed	-1.411967204195076e-19
8	0x3bee25635c81fe28	5.106939072749294e-20
9	0x3c067745ed9c15c4	1.5223493289193849e-19
10	0x3bf8eb58ef475444	8.442995985491567e-20
11	0xbfe634a753c21f79	-0.6939274440673976
12	0x3f76fb699eb3adbe	0.005610859468315464
13	0xbfdc99d96f2dc442	-0.44689021928121886
14	0x3c0021a50acaced9	1.0931078493448278e-19
15	0x3c11469ca8fc1e44	2.341311273461609e-19
16	0xbfe45b3bb0ccbaa6	-0.6361368611449805
17	0x3fe0b45e6da5aff1	0.5220176831767259
18	0x3c14ebf775182db4	2.835425125251401e-19
19	0xbc11bfb58190b368	-2.405419520457013e-19
20	0x3f924c2adc8f49b7	0.01786868067922295
21	0x3c02d7291a4f6350	1.2766799694619187e-19
22	0xbc18c814b202114c	-3.3585284328317185e-19
23	0xbfe134c44c868cec	-0.5376912588730227
24	0x3fe1a9df10f2ba07	0.5519862490671706
25	0x3c10a3a1ee83f420	2.2550306933815045e-19
26	0x3c17137430e94664	3.1273800396238825e-19
27	0xbfe036c916f13845	-0.5066876838770972
28	0xbfdaf124cc277005	-0.42096824585837594
29	0xbfde05602ce16884	-0.4690781057630675
30	0x3c104a4a0d2a6bfe	2.2077327535466037e-19
31	0x3c5ecc9872b521bb	6.678512164525619e-18
32	0xbc005f639020c53a	-1.109451408836314e-19
33	0xbc0841eff2e00160	-1.6437567166417574e-19
34	0xbfe04094c7458f68	-0.5078834430719157
35	0xbbfc3b165e705308	-9.564970503583106e-20
36	0xbc103814bb5630c1	-2.198093370449198e-19
37	0x3c1a9eb680bd2d17	3.607678971243075e-19
38	0xbc1284910b8fb7c6	-2.509635052605144e-19
39	0xbfe1e5220d944451	-0.5592203393190492
40	0x3f912e7a57cebc0e	0.016778861626956902
41	0xbfda25b84af79c35	-0.4085522396184758
42	0x3f89fc03fd3837ec	0.012687712826870944
43	0x3f958aafd5df4989	0.02103686087486659
44	0x3fdefbf61e85f97b	0.48412850361628273
45	0x3c187974b43aa1b5	3.31690472234877e-19
46	0xbc19f98b39b3bb47	-3.520239202810175e-19
47	0x3fdf91ea988df0aa	0.49328102968116616
48	0xbfe145d9ee8cc8ec	-0.5397767695597202
49	0x3f8bf181daebd144	0.013644232266849195
50	0x3f8b458925f0138c	0.01331622263934109
51	0xbfddbdddf8213885	-0.46471356612608644
52	0x3c11dcef54104418	2.420891566255024e-19
53	0x3fdb52d814e54a21	0.426931400686188
54	0xbc1608ffcf0904bb	-2.986320139129168e-19
55	0x3f7fa54ea9867e9a	0.007726008676769114
56	0x3c1437b47b3234c2	2.7399954152215886e-19
57	0xbfe19caed7b2cce4	-0.5503763401851782
58	0xbc113754c7a7fb39	-2.3332216948319543e-19
59	0x3f9059ea8bf4316e	0.01596800307474793
60	0xbfdef12e323254b8	-0.48347048666012027
61	0xbbe62f710c48db48	-3.758339181147443e-20
62	0xbc0b28888670ac84	-1.8403202416134719e-19
63	0xbc105e651d95a996	-2.218376632709517e-19
64	0x3bf894e045fd274c	8.328552128965608e-20
65	0x3fdd6d04f40319d6	0.4597790129595557
66	0x3f92432593a23b53	0.017834269653174428
67	0xbc14adec6acd2060	-2.8025797679308695e-19
68	0xbc01805b168a0bcd	-1.1859403089859741e-19
69	0xbbdd44b993336a20	-2.4791347097690423e-20
70	0x3f80e98dbd330b90	0.008257968269736599
71	0x3f9133583f6fd02b	0.01679742705523794
72	0xbfe0ce4b51e3c579	-0.5251823996933772
73	0x3c14a5b8c2e1da8a	2.7982377812273402e-19
74	0x3f8ecd581e8bbdce	0.015040100509820766
75	0x3bfde6ec8ee182cc	1.0131207630429752e-19
76	0xbfdd4eef6b404904	-0.457942824113289
77	0x3c15d1dd8a38e5a0	2.957132515348452e-19
78	0xbc12347cbf6100eb	-2.4672414308146475e-19
79	0x3f9c0ddb43b13ead	0.027396608358968667
80	0xbfda66614898db71	-0.41249878015098945
81	0xbc110ceefc1d7141	-2.3107765726694e-19
82	0x3c0a2e3a9b6e234a	1.7740652272778186e-19
83	0xbc1b2a1bb80735b4	-3.681474268263014e-19
84	0x3f911c2122adce57	0.01670886778033628
85	0x3f96ad91d42012b2	0.02214649064264291
86	0xbbfef151aceb79c8	-1.0483778463525252e-19
87	0x3c02ce4123f45c0e	1.2743225436696467e-19
88	0x3f8bb07233a2b7c6	0.013520137978357282
89	0x3c17142dca272174	3.127763848533168e-19
90	0x3f8c536107a9e1ce	0.013830907865881505
91	0x3fe08ce7bf470173	0.5172003494154026
92	0xbfe042771e4991bb	-0.5081134406614675
93	0x3f90ca5e6ba60f0c	0.016396975822785584
94	0x3fdf801cfb7046fb	0.4921944098906434
95	0xbc5b24bc81e9d8c5	-5.885808636435685e-18
96	0xbc1247dd3c6a65d1	-2.4774994804486903e-19
97	0x3c086aee098bc42e	1.6546073498941242e-19
98	0xbfdd521f1604e880	-0.45813729429540473
99	0xbc0599430e148afc	-1.4635834474237817e-19
100	0x3f933ecb635299f5	0.018794229447530914
101	0x3c0e2a866d90b238	2.044135376126033e-19
102	0xbc175292c2498e57	-3.1607951748067285e-19
103	0x3c06ccc5335cd61a	1.54498023823293e-19
104	0xbc1660c626210164	-3.032787713576632e-19
105	0x3c16568428d2153d	3.0273572945986745e-19
106	0x3bd0590dbfaa9400	1.3847181151875917e-20
107	0x3c0e9c61b005a0ce	2.0742729361853754e-19
108	0x3c11d09b2ec40654	2.4143648099326106e-19
109	0xbc1a0f3babf95847	-3.531721392793685e-19
110	0x3c04196e804f4c88	1.3619844160805305e-19
111	0xbc0de28450dc358a	-2.0250749509225974e-19
112	0x3be8d999cfbea848	4.209754294576185e-20
113	0x3c87e9546447b092	4.147974319134803e-17
114	0x3c0dcd7ca71373f4	2.0195083736229428e-19
115	0x3bbfb1cab8840280	6.711571335759895e-21
116	0x3c118da4462df424	2.378914105965168e-19
117	0xbbfd40d2a6abc9ac	-9.911374523324259e-20
118	0x3fe2126035fd3dec	0.5647431425549576
119	0xbc05d0ae7bce4c4f	-1.4782529047898379e-19
120	0x3cace9912c83f0cf	2.0061987784743455e-16
121	0x3c18662af70ed4f3	3.3066937175264135e-19
122	0x3c0b2afc8c66d7b0	1.8409696024730215e-19
123	0x3d88ae0eddf47313	2.8057814179861346e-12
124	0x3c0a82f37cb16e1e	1.7964910035135792e-19
125	0xbc0b7c9c2c26633f	-1.8625751713150762e-19
126	0x3c665a656b0e93a0	9.694116177670196e-18
127	0x3c6c952e742fd70e	1.2395787555945183e-17
128	0x3dc0ac9642aa95fd	3.0330134526563694e-11
129	0xbc421bd7fd93c960	-1.963356181630077e-18
130	0x3c537e5f532baabb	4.2270098103862016e-18
131	0xbc009cfb3be12172	-1.1257547984323776e-19
132	0xbc09b1e0815b249e	-1.7411495374399532e-19
133	0x3d0b951b521fa260	1.2249067596781677e-14
134	0x3bfae648799ce264	9.113919804091419e-20
135	0x3c5f946989732276	6.8477635379573474e-18
136	0xbc3fa9df8d131980	-1.7164854264872681e-18
137	0xbc9c2b2a263fb7ed	-9.772950469358588e-17
138	0xbc1328c4ae2f42f4	-2.596562708886699e-19
139	0xbbece40f54ab6de0	-4.8943018773899025e-20
140	0x3c0a4644683bf39f	1.7804281073607245e-19
141	0xbc198a1cf7a34b10	-3.461248283763499e-19
142	0xbc5ff2cbfe02b16e	-6.927710396312083e-18
143	0x3c088e854d0c1e98	1.6640281757312385e-19
144	0x3c00a6fd72153f6c	1.1284040632706046e-19
145	0xbc624f4b3293d4de	-7.940584463326218e-18
146	0x3c6f88ad57126289	1.367564696919489e-17
147	0xbc756fb5567c3991	-1.8593079112574142e-17
148	0x3c5ea8c0cd4c5a58	6.648152498179926e-18
149	0x3bfbab1c1d29e120	9.374417791502187e-20
150	0x3dd2d180a00cf049	6.84608272959146e-11
151	0x3c15eff4da88d740	2.9730625947521285e-19
152	0xbbbbc7670ada7f80	-5.882414283804692e-21
153	0xbd23f9373c5a2472	-3.548006169869394e-14
154	0xbc1458cce58d06aa	-2.757515959722415e-19
155	0xbc3134a4452a6b5d	-9.327191560338758e-19
156	0x3c2276670ef33309	5.00427337545048e-19
157	0x3c155ed3f02cb1e0	2.8962321663136417e-19
158	0x3c6539f95e131c28	9.205510180418098e-18
159	0xbc180d5c96f5a68e	-3.2596801311355584e-19
160	0xbc017573f659777e	-1.1830543526105123e-19
161	0x3c0902696865d148	1.694704279215084e-19
162	0x3c18a743f496e3f6	3.3411561098563507e-19
163	0xbbe4eb08ff1cd9d8	-3.5436649996724484e-20
164	0xbc48f91c32bfa9b8	-2.7075874659683542e-18
165	0x3c7a57aac65b2020	2.284843283937186e-17
166	0xbcb464ac07b10c28	-2.8301319579778416e-16
167	0xbdf3db5077eb9880	-2.8895296565215725e-10
168	0x3d06d28bdb7c3250	1.0135202257017207e-14
169	0x3c1e8ca9276121c6	4.140223331618631e-19
170	0xbbc0eb506b336260	-7.165558159943792e-21
171	0x3daeb546c3e03bcf	1.3964432146325892e-11
172	0x3be6817fd6119fc0	3.8126404559829377e-20
173	0x3c340d3584cb5442	1.086999299217924e-18
174	0x3c3e613eb33e8d87	1.6468956720668735e-18
175	0x3bde1ba8e3563420	2.5502506750464585e-20
176	0xbc00d96a4746bf3a	-1.1417514835352567e-19
177	0xbc205c65fe737bb5	-4.434639315964938e-19
178	0x3ce71e2c832ab77c	2.566598789596528e-15
179	0xbc1d0148e9669036	-3.930913048757586e-19
180	0xbc168b5bd5417d76	-3.0553318678840106e-19
181	0x3c077cbf7f609f25	1.5915611534985998e-19
182	0x3c8284f8f544b0bc	3.212607922537437e-17
183	0xbc175abc0e5154b2	-3.165115739724228e-19
184	0x3c8153b2f5829b32	3.0057465974509374e-17
185	0xbc88f5be5c07d983	-4.3298586773933616e-17
186	0x3c14283c40549e58	2.7318058516449744e-19
187	0x3c7145d17e9a5cae	1.4981703276433912e-17
188	0xbc19a1ab887ac2f3	-3.4737192015194534e-19
189	0xbc143015cb0f1977	-2.7359614869109454e-19
190	0xbc0410b48143f622	-1.3596745180800699e-19
191	0xbc14b9a2a8e4d360	-2.8087799882017814e-19
192	0x3c075c8bac5dbfa2	1.583037238994464e-19
193	0xbc12e75c435dda52	-2.5619360655762743e-19
194	0xbc040bd52609f2b4	-1.3583847818388899e-19
195	0xbc8ee12b892f00be	-5.3567515969337136e-17
196	0x3bfaa28b51afa7b4	9.02426812901434e-20
197	0x3c1160b871afab38	2.3551330147985907e-19
198	0xbc0928040859a718	-1.7046579759785552e-19
199	0x3bf683816d67a122	7.627936116010219e-20
200	0xbc0a6535f3133fc5	-1.7886187901751213e-19
201	0xbcfef0e68e55270c	-6.870286118936264e-15
202	0x3c16df9f89592cc4	3.0999411051432445e-19
203	0x3d097b6f91d9324e	1.1316357259629509e-14
204	0x3c16f84ff7ee7822	3.1130114521054067e-19
205	0x3bf64879b0d6c558	7.549810268976324e-20
206	0x3c447c983edd2354	2.2211722568549088e-18
207	0xbd6462515668f630	-5.793496487840402e-13
208	0x3c0875d23e504364	1.6574902874553736e-19
209	0x3c04a1b21c31860c	1.39805322232435e-19
210	0xbc14081115d2e6a8	-2.7147759274175773e-19
211	0xbc74213a4773a20f	-1.7459814426379963e-17
212	0x3bf689fd010e9e02	7.636515926801e-20
213	0xbc18a3345239f09a	-3.339006196656661e-19
214	0xbc1231faacb4e98b	-2.4659136550984136e-19
215	0x3c131dd4392c8d6d	2.5907714993948708e-19
216	0x3bf7817189ff0900	7.964020176289817e-20
217	0xbc191abd284c0481	-3.402287242765634e-19
218	0x3c191af11e8b6e54	3.4023946974668826e-19
219	0x3c47e3c60f42123c	2.5901308983556946e-18
220	0x3beff8ce9abd8500	5.4162509665043576e-20
221	0xbc49011e05d1e231	-2.71097861613409e-18
222	0x3c55982066d644de	4.682505340677101e-18
223	0xbc4eadec61381acc	-3.3262659249072244e-18
224	0xbbe14cae7b3ba740	-2.930655625701439e-20
225	0xbc1b90b4b55a0072	-3.7357889936134237e-19
226	0x3c531f21e3d07719	4.1463384090816965e-18
227	0xbc43449ae53dd786	-2.0890395009966944e-18
228	0x3c153cf3f8e80b85	2.8782989611687065e-19
229	0xbc63c790a97c40f0	-8.57801291705673e-18
230	0x3c16e7c1117892db	3.1042456118700737e-19
231	0xbc8b7625ee0c4d9b	-4.763813694901954e-17
232	0xbc02ceaa069364ea	-1.274430992465133e-19
233	0xbc16c47364196706	-3.0855561333950245e-19
234	0x3c150c1291945529	2.8524218489876467e-19
235	0x3c0c883de9d3759a	1.933416719045394e-19
236	0x3c6e1073a374886e	1.3038296355519804e-17
237	0x3c1b96436e8edfdd	3.7387311167775176e-19
238	0x3ca3e6c857002c1a	1.3809435847234531e-16
239	0x3c42107ac6fcc0f3	1.958543292046816e-18
240	0x3c06dd519ea20108	1.5493605928372305e-19
241	0xbfdbc619de71fbb6	-0.43396612857025774
242	0x3fdd71e90e152548	0.46007753730062406
243	0x3c0d419c3f137f82	1.9824833493531266e-19
244	0xbfe06222fd767947	-0.5119795751996116
245	0x3fde85edd7d99c4f	0.4769243820105133
246	0xbc1476cd37cb37bd	-2.773398491836582e-19
247	0x3c1797c0562cb705	3.197417723100397e-19
248	0x3fe3db219fae12b4	0.6204994314908476
249	0x3fe10cf5779756db	0.5328318916096707
250	0x3fe10ca731738a3f	0.5327945676656966
251	0x3c0408e45c214202	1.357606416559351e-19
252	0xbfe00bd5290a2684	-0.5014444161945026
253	0x3fe203637285e859	0.5629136311320152
254	0x3fe107e7744b0986	0.5322148581838497
255	0x3fe3468b5ece9594	0.6023613788317328

bias f8 [120]
0	0xbfde9943f478c20c	-0.47810458063307304
1	0xbf639f943c0d76f9	-0.0023954291540765307
2	0xbfdc02b7a9cea41e	-0.4376658590577466
3	0xbfd9052256944822	-0.3909383626461268
4	0xbfdd5d873862a17f	-0.4588335085523098
5	0xbfdc45dc0b59d6e0	-0.44176388844003434
6	0xbfe04ce3f5dbb2d3	-0.5093860437314909
7	0xbfe19343e5694e92	-0.5492267113390474
8	0xbfe3d053227effca	-0.6191802667381066
9	0xbfe0a2fa8ab5e767	-0.5198948582831066
10	0xbfdfef1547a5fae7	-0.49896747586164597
11	0xbfddcf86abdc0818	-0.4657913854899802
12	0xbfe40887ff86b2c7	-0.62604141147093
13	0xbfdc20671b460c62	-0.43947770751419146
14	0xbfe182715ffc3206	-0.5471732020101292
15	0xbfc1bd76a10dcfe0	-0.13859446395838315
16	0xbfe3677af7593c18	-0.6063818770434208
17	0xbfe833512a6c1f08	-0.7562642887650961
18	0xbfe4582bdf1e033f	-0.635763107086042
19	0xbfe30cebfab21fad	-0.5953273674394858
20	0xbfddd657ab24e38a	-0.46620742524424286
21	0xbfe7f03f6135b921	-0.7480770968084337
22	0xbfe91a40e0f3e5e6	-0.7844547647102302
23	0xbfe169efc35b08ea	-0.5441817107714801
24	0xbfcccc7da8ced560	-0.22499056570601805
25	0xbfdcf6d173cf9bb2	-0.4525645857779025
26	0xbfe1a937b96617c0	-0.5519064541883765
27	0xbfe8d46a7aa2ade9	-0.7759296794151257
28	0xbfda8797e8ee4e1c	-0.4145259642329806
29	0xbfe9bfd3dec37195	-0.8046664572571439
30	0xbfe182d547ee06cc	-0.547220840919374
31	0xbfe3bdb4f5faaaf6	-0.6169075779228865
32	0xbfe45411dbb660f8	-0.6352624217279574
33	0xbfe410608000b99f	-0.6269991397910423
34	0xbfdf2a4d6a21e2a1	-0.4869569336365576
35	0xbfdebfd2b5f0a462	-0.48045795219019827
36	0xbfe131308f2beb23	-0.5372546001738993
37	0xbfd9b999090302eb	-0.4019529903417111
38	0xbfe11039634c0a06	-0.533230489673145
39	0xbfe799a1f083ba5e	-0.7375039765882538
40	0xbfe95aa690b8eddf	-0.7923157526597001
41	0xbfdac6cd91abd422	-0.4183839724130981
42	0xbfdaf9b46fc55819	-0.42149077334522783
43	0xbfda968be8e8a8bb	-0.4154386305332413
44	0xbfe601b7120836c2	-0.6877093650998278
45	0xbfde96d70df7e26c	-0.4779565464409987
46	0xbfcd4f7792c72996	-0.22898764292615387
47	0xbfd76e36f78fd15f	-0.3661019723506537
48	0xbfdc47dff40d7c09	-0.4418868907286542
49	0xbfe91f7f860ad5de	-0.7850949876798798
50	0xbfe6af3de78ef1cd	-0.7088918230652382
51	0xbfe0354234c3ecb6	-0.5065012960980286
52	0xbfe921665a28c061	-0.7853271256372062
53	0xbfcea087800f954e	-0.23927396538707985
54	0xbfe68afae111bc93	-0.7044653316387602
55	0xbfd7b6569ca03e3f	-0.37050404830458555
56	0xbfda36ee7a090770	-0.4096027557135278
57	0xbfdc97e66f31e9e3	-0.44677124842533383
58	0xbfe1306b8c11c41e	-0.5371606574755139
59	0xbfe2aa4ea19e2741	-0.5832894474599258
60	0xbfe3fc7fd5797477	-0.6245726746962096
61	0xbfe0b479ee75dba7	-0.522030797713218
62	0xbfe43602c6ab5da1	-0.6315931205999058
63	0xbfe39d744ec3c458	-0.6129704988835654
64	0xbfc2f7e88d8290c5	-0.14819056424778956
65	0xbfded89088ab6302	-0.48196805330876213
66	0xbfe1908777a49b67	-0.548892720868804
67	0xbfc66c0c3e31a000	-0.17517235791024177
68	0xbfe5cc9b1cdf822a	-0.6812263072898237
69	0xbfdc40ba5445ea8b	-0.44145067434116275
70	0xbfde248d2b89ed9c	-0.47098092319330376
71	0xbfbff58025508bc3	-0.12483979140283367
72	0xbfea72c9635c865d	-0.8265120449688755
73	0xbfde92d68bf09f8e	-0.47771228471764793
74	0xbfdc93a9664b7aa6	-0.4465125559781121
75	0xbfe5cbcfc8a9271b	-0.6811293524890262
76	0xbfe3c17524953dbf	-0.6173654284011078
77	0xbfe92afada0ec197	-0.7864965685785589
78	0xbfe2234d6f36f0b2	-0.5668093845520359
79	0xbfe48f26b13b9cf8	-0.642474504621446
80	0xbfe1b998b188adca	-0.5539058177432079
81	0xbfe26f9ec668a503	-0.5761255145236251
82	0xbfe19607d0a1f2a9	-0.5495642733436245
83	0xbfe0f66233dd9c01	-0.530076123523827
84	0xbfe467712f365c5f	-0.637627212726226
85	0xbfd92b2986aee959	-0.39325941231404254
86	0xbfe06dc3339c9d96	-0.5133987434427805
87	0xbfe47a74d9b5c74d	-0.6399482967519617
88	0xbfdb89ea142d7ca3	-0.4302926251456915
89	0xbfe23d304030fda0	-0.5699692968118377
90	0xbfd6f98b85f8237e	-0.35898101885737066
91	0xbfe0cfd4e7f6be00	-0.5253700762313542
92	0xbfdb12f22d9a13d8	-0.42303137257868917
93	0xbfdbe20e6b64bc6a	-0.4356723831905983
94	0xbfd957e2d1c5c4da	-0.3959891365585243
95	0xbfe83fef6f7deb9d	-0.7578046014381133
96	0xbfca8c84b1175f10	-0.20741327902828077
97	0xbf6909776eebb950	-0.0030562718087515997
98	0xbfd5a65b366a9825	-0.33827858270740513
99	0xbfd5e4f3e6bb2c4c	-0.3420991662248454
100	0xbfd8822694b80aad	-0.3829437687237867
101	0xbfe75e65b0717369	-0.7302730985789881
102	0xbfcf14f20894893b	-0.2428267042060471
103	0xbfe4c185f3733575	-0.6486234431155667
104	0xbfdaca8e2d4d8350	-0.4186129991922387
105	0xbfd2654d91a9a53d	-0.28743304467078074
106	0xbfc349b3563a7043	-0.15068666181912435
107	0xbfe5b05ecd8927b4	-0.6777795805330613
108	0xbfe82bec8b0cece0	-0.7553618160085556
109	0xbfe047d321a4d75e	-0.5087676674945489
110	0xbfe98bb45a8593bc	-0.7983037727359412
111	0xbfe093ce4f9b0924	-0.5180427126690899
112	0xbfe7f331fbec3fe9	-0.7484369202011268
113	0xbfe226577c798ff5	-0.5671803885602446
114	0xbfd6c27956ff53f0	-0.3556197499831901
115	0xbfd3768d0b36fed2	-0.3041107759017737
116	0xc0002ba2e0fedee1	-2.0213067605762807
117	0xbfe4369f6ced78d6	-0.6316678168766667
118	0xbfe06c19d221984f	-0.5131959060788719
119	0xbfe40490952e8aca	-0.6255572236735472
