pyTorch/test_experiments/2/regular/models/ow_0.0_24_REG_model.pth (torch, 470675 bytes, 10 tensors)

weight f8 [120, 60]
0	0xbe654626557b1957	-3.9625954682082676e-08
1	0x3e42305a13517ef0	8.469854687563426e-09
2	0x3e7ccb7a0d7d8a8b	1.0726910504086257e-07
3	0xbe4d9f55387f2d20	-1.3794002176514339e-08
4	0x3e7618479c6bf65a	8.230970314698278e-08
5	0xbe43603717b4a7f0	-9.022578898057119e-09
6	0x3e7d0f34b659e1cf	1.0825469373168013e-07
7	0xbe61fc40d5e4f22c	-3.3500351592143956e-08
8	0x3e8039968e7c52c4	1.2088532418880766e-07
9	0x3e6ed7d64cf32744	5.744977615294221e-08
10	0xbe6c37a23a8653fe	-5.255885266172368e-08
11	0xbe7f8091cc96dd19	-1.1735493212523788e-07
12	0xbe4ff408fd420688	-1.4879397193743098e-08
13	0xbe2562695393c520	-2.48947409615415e-09
14	0x3e74f472519a499f	7.806297155414607e-08
15	0x3e77630954519ff8	8.71228467855472e-08
16	0x3e5b0b56d59fbb98	2.5186961273513176e-08
17	0x3e2e9273cb0aad50	3.5590584579588624e-09
18	0x3e849ae4c97e4708	1.5351961190880175e-07
19	0xbe74e1537fc94be7	-7.778473327364797e-08
20	0xbe329cfd911cb670	-4.3337336096427145e-09
21	0xbe79452cef105b24	-9.41388938055822e-08
22	0x3e7811806cbf3130	8.966164982623243e-08
23	0x3e75f321bbebf13b	8.17691292280042e-08
24	0x3e57b4dab8492bd8	2.2078363597678744e-08
25	0x3e40701cde62ddf8	7.654512534543952e-09
26	0x3e21cfeaaacb1d60	2.0736100253092095e-09
27	0x3e6e44258841a71e	5.637518632544761e-08
28	0xbfa18f0a42e95117	-0.034294434230704045
29	0xbe8187c75d3e6ef9	-1.3061155234867208e-07
30	0xbe60454e0ef38534	-3.030658201633188e-08
31	0xbe6b27d777062980	-5.058130525804291e-08
32	0xbfa0a3dc68aba983	-0.03250016000477542
33	0xbfa4b2be38bf3b61	-0.04042620127403641
34	0xbfa1babb690a00a5	-0.03462777764525641
35	0xbe842ea81e64f50f	-1.5036950102603277e-07
36	0xbfa4155d1824c934	-0.03922549171183434
37	0xbfa28f172a32317d	-0.03624794378365246
38	0xbfa2d825d8b73412	-0.03680532713369912
39	0x3e645f9e918828ac	3.7948625745339926e-08
40	0xbfa47295b3ab977f	-0.03993671243897178
41	0xbfa5398833f85858	-0.04145455965424166
42	0xbfa429637abfc896	-0.03937826989557995
43	0xbe591181f45fa4bc	-2.334675677082606e-08
44	0xbfa1139a810ea0fc	-0.0333526880779704
45	0xbfa12e8cb9d4a57b	-0.033558271107106706
46	0xbfa44dbc8609b50e	-0.039655581819582605
47	0x3e6beb23aaf1a68c	5.200228280698966e-08
48	0xbfa3bd6d8e0c3dbb	-0.03855459555608883
49	0xbfa25db817962b38	-0.03587127006456686
50	0xbfa292e34380e4b7	-0.03627691458718501
51	0xbfa3cff696e16bab	-0.03869600860408381
52	0xbfa329d4b2e8e84c	-0.037428519095968754
53	0xbfa4f7c19e12dc36	-0.04095273069963705
54	0xbfa21a6aa9559849	-0.03535779301709902
55	0xbfa1b5beb1c56277	-0.03458972854668201
56	0xbfa0d69e2b8bfca1	-0.032887404266142235
57	0xbfa1896c2575b53a	-0.03425157506249339
58	0xbfa5399f583ce48d	-0.04145524932978004
59	0xbfa2db272dfe391a	-0.03682825504721361
60	0xbe816f4e1492b80a	-1.2989927203804573e-07
61	0xbe7af4a07d0b40f2	-1.0041733778808564e-07
62	0x3e703dce532cf3ad	6.050403981729806e-08
63	0x3e7a7b7e89007e74	9.865462602441466e-08
64	0xbe83501dab0e842a	-1.4389271066082195e-07
65	0x3e7a32fef6efc5f5	9.759963658076172e-08
66	0x3e657ae244990298	4.000964588498588e-08
67	0x3e52d378e9d5e234	1.753313815441764e-08
68	0xbe6f3b4599d85628	-5.817325930358049e-08
69	0xbe7839746d233fb6	-9.024304440112616e-08
70	0xbe858709e6e25618	-1.603923353617481e-07
71	0x3e45646b86e842a8	9.961549998973226e-09
72	0xbe5655b6da1dbae6	-2.080092332357914e-08
73	0x3e6b9740ef8e4e2d	5.139193421442649e-08
74	0x3e6ed9f7192c04a2	5.746526023608319e-08
75	0xbe766ebcdb2494a4	-8.356783246352541e-08
76	0x3e7feaaed0949936	1.1889908448480542e-07
77	0xbe2dbab19e632ca0	-3.460942854439928e-09
78	0x3e47a9d07a98d064	1.1019100148915989e-08
79	0x3e7f74b4d211c3de	1.1718229987898064e-07
80	0xbfa337c4dba354b5	-0.037534858523636506
81	0xbfad47848fdeb7ad	-0.05718626266694513
82	0xbfab8a663d6ebe52	-0.05379027843389096
83	0xbe7aa397ba5c8c4f	-9.923813467905072e-08
84	0xbfa94f7050a551be	-0.049434194416480434
85	0xbfa7c03b1ecbb720	-0.046388480672119536
86	0xbfaee42e1f6398e5	-0.060334626514121394
87	0x3e78b888a5d020be	9.20922870879525e-08
88	0xbfa8ac80f780f461	-0.04819109936986688
89	0xbfa8406512349c4d	-0.04736629340396146
90	0xbfaa259be5d850bf	-0.0510681837151039
91	0xbe74e4842492c761	-7.783115409351166e-08
92	0xbfa9851ac4721e39	-0.04984363220233629
93	0xbfac88bd312350c2	-0.055730736015591656
94	0xbfab3e2d78445c11	-0.05320875256636993
95	0xbfa4d6e88ad79eec	-0.04070212073184884
96	0xbfb02ed53d1e4630	-0.06321461431641562
97	0xbfa487222b88a68b	-0.04009348660868025
98	0xbfaa8e095bf4b52d	-0.05186490294941346
99	0xbfa55f68e6afd2a2	-0.041743543777476036
100	0xbfa814918d742c88	-0.04703192569476139
101	0xbfa896cd9619a7f5	-0.04802553612974229
102	0xbfa328054fe79d50	-0.037414709094998444
103	0xbfafe25c3fa8389c	-0.062273867388385556
104	0xbfab6057a214cd1c	-0.05346940854578916
105	0xbfac24cd6ca1617a	-0.05496828032545671
106	0xbfa91a877c87c595	-0.049030527068576614
107	0xbfa5d0264b315edc	-0.042603680304350994
108	0xbfa3f0cdce5141cd	-0.038946563182097195
109	0xbfac2123e521cef8	-0.05494033977529783
110	0xbfa9cd8d3c23e07f	-0.05039636000759717
111	0xbfae62ac04de72fd	-0.05934655723033264
112	0xbfae104b139b31aa	-0.05871805776914425
113	0xbfad73ae86590233	-0.057523206615318755
114	0xbfaaca0bb8d43fe6	-0.052322737037797926
115	0xbfa90e65f5a061e1	-0.04893797515268595
116	0xbfa53e8fe202697a	-0.04149293550399853
117	0xbfad762b07641b20	-0.05754217591498034
118	0xbfae3032f552c270	-0.058961479613007906
119	0xbfaab9f97f3fe5cb	-0.052200123580358936
120	0xbe8604203aca364b	-1.6403285254091446e-07
121	0xbe776a2693de5036	-8.722637276213062e-08
122	0x3e7642214eb611ef	8.291870628145651e-08
123	0xbe7cee76e50b36a2	-1.0777824256265109e-07
124	0x3e7909229f8a63bd	9.326519279997045e-08
125	0xbe6df124857fcd48	-5.577125311564691e-08
126	0xbe49a6d9f1045a28	-1.194503299098428e-08
127	0xbe67242f9834b058	-4.310412562500596e-08
128	0x3e779d18c241cb56	8.796773493125108e-08
129	0x3e7649720e6e19b2	8.302515973170434e-08
130	0xbe7e175522792376	-1.1209824234930051e-07
131	0xbe6d6d3034b57b12	-5.481115880156086e-08
132	0x3e649095a960498c	3.830489452029376e-08
133	0xbe6993a8a16ed26c	-4.764048726989526e-08
134	0xbe7a9911f230819e	-9.908501090493744e-08
135	0xbe7b1a1545b91533	-1.0096239704781678e-07
136	0x3e7a18072073beda	9.720719883524318e-08
137	0x3e61c0babdfeafa2	3.306725893047118e-08
138	0xbe6c1715ebd0c88e	-5.2322034240277506e-08
139	0x3e6acd69ee8790ee	4.99233559525031e-08
140	0xbfc226437b13d438	-0.14179271230355694
141	0xbe7bdf4c5131ad4d	-1.038322532829318e-07
142	0x3e5cc0c5d21779ae	2.6778335221006057e-08
143	0x3e77a873868f88eb	8.813296549463233e-08
144	0xbfd162c5637bbacc	-0.27165350642364383
145	0xbfcf138f811824b0	-0.24278444102700325
146	0xbfcb1a592bde6d38	-0.21174158708604707
147	0x3e679b424c7af384	4.3970496186349434e-08
148	0xbfcab8203fec3401	-0.20874407883857773
149	0xbfc7b7a496e98715	-0.18529183739433877
150	0xbfc8c1b4591d7df7	-0.19341139174774444
151	0x3e753959e596a03d	7.906566547885741e-08
152	0xbfc8080d28fcb6d0	-0.18774570943189994
153	0xbfc819d8619ca74f	-0.18828873411376398
154	0xbfd0806ddc2eed8a	-0.25783869268681114
155	0x3e8313481e8cc2f2	1.4212220313940521e-07
156	0xbfd093a2f90c290c	-0.2590110237221246
157	0xbfd174b53a0d104f	-0.2727482859520522
158	0xbfd17d8e1d57b25b	-0.2732882772968758
159	0xbfc79c385987ea9f	-0.18445495959880007
160	0xbfd1091a1ffba8e5	-0.26618054507583927
161	0xbfcdd03eb724cd65	-0.23291763250891076
162	0xbfc9be50698a05e9	-0.20112042573241176
163	0xbfd1f5a27045f81d	-0.28061734165373925
164	0xbfc877a77c7c596e	-0.19115155771641973
165	0xbfccae290cc7afaf	-0.22406495212578423
166	0xbfcf9c80a6091487	-0.24696357829285295
167	0xbfd0ac6e5014cc33	-0.26052434750016856
168	0xbfcbadcd3fa804e8	-0.2162415085622691
169	0xbfc7b874254f6a49	-0.18531658002651089
170	0xbfc93cc790989a24	-0.1971673446689276
171	0xbfd166d43a994f9f	-0.2719011852507211
172	0xbfcf19e832a70caa	-0.24297811959522636
173	0xbfc97c3927421a47	-0.1991034928980346
174	0xbfcc357b99e9330f	-0.22038216605360403
175	0xbfd01c5874d8530a	-0.25173007403036307
176	0xbfc93dbda4546962	-0.19719667934334512
177	0xbfcbca08b44b0470	-0.21710308841105386
178	0xbfcc63d8a03c4a2e	-0.22179706405639038
179	0xbfc7c8f7a742d751	-0.18582053820653724
180	0xbe6e6b536e16b1f1	-5.6660253165824756e-08
181	0xbe8357059b5c084f	-1.4409370201895556e-07
182	0xbe7659747a49bad4	-8.325812801146682e-08
183	0xbe406d3265bc5f48	-7.649208537014698e-09
184	0xbe728049f853d5a4	-6.892207523089914e-08
185	0x3e77284cf75d9565	8.626812849978035e-08
186	0x3e54baad2ec8610e	1.930557662525761e-08
187	0xbe65dbcd1a869414	-4.0714812246733455e-08
188	0x3e630ef4db744bda	3.549908050340749e-08
189	0xbe7d3cb5c3d26e5e	-1.0891686570912919e-07
190	0xbe60c25699ab0657	-3.121631949244036e-08
191	0xbe305554bea65820	-3.802898421858855e-09
192	0x3e74b340cef9b39a	7.711428273169324e-08
193	0x3e4c97632af7e2d4	1.3313888074470561e-08
194	0xbe722afc2c9a67f4	-6.768074025734732e-08
195	0xbe49146654d91ae0	-1.1678639079361795e-08
196	0x3e785ba74ae18bd2	9.074070092674796e-08
197	0xbe66c1f325aaf04e	-4.2389363759968075e-08
198	0x3e6fe383be114b94	5.9397386350252766e-08
199	0x3e74f8cb1da4ced9	7.81262267421437e-08
200	0xbe73f0d7acdf8979	-7.428523504619898e-08
201	0x3e62e650ea6d09fa	3.520338270068074e-08
202	0x3e81f272a0bbd180	1.337160287978214e-07
203	0x3e5981368c46639a	2.3753138804480783e-08
204	0xbe612d22202f030f	-3.199335554078702e-08
205	0x3e62ae36c6b17e23	3.479518614272547e-08
206	0xbe22031ca6d41a60	-2.0968909305344414e-09
207	0xbe743060a1cdd2ba	-7.520979079611505e-08
208	0xbe6fac80f7529f34	-5.899712977294655e-08
209	0x3e82e0e3072fa19c	1.4065551887035164e-07
210	0x3e8298ee07013b21	1.3856129355219004e-07
211	0xbe30aa82be9ec150	-3.880368895927372e-09
212	0x3e60ddd8f9d80c5f	3.1416475847916155e-08
213	0xbe7b386be174b2ff	-1.0140387761833486e-07
214	0x3e858496aa35b2c8	1.6032102676966497e-07
215	0x3e4049e3686edd30	7.584982653992616e-09
216	0xbfb6daac214b4c51	-0.08927417576642084
217	0x3e6ab0d259195ca8	4.971532087106546e-08
218	0x3e736da965bfaf09	7.237630356122006e-08
219	0xbe731820e4c5a258	-7.113163142325094e-08
220	0xbfb7d26aece11ccc	-0.09305446894824171
221	0xbfb7892e28f069d2	-0.09193695544710259
222	0xbfbec5bd608c591d	-0.12020476920256269
223	0x3e652ef045c6d5c8	3.9457071141135674e-08
224	0xbfc8e9beb314cf3a	-0.1946333288593623
225	0xbfc1cd28e2ad3d12	-0.13907347744177706
226	0xbfca467dbb0b5352	-0.20527621872920548
227	0xbe790602596335b1	-9.321970248777634e-08
228	0xbfb9dcaaf69d7560	-0.10102337380290782
229	0xbfcb2014dad85ecd	-0.21191654859352696
230	0xbfbba80df653c6a1	-0.10803305877541415
231	0xbe7c105b65bcca95	-1.0454615434195928e-07
232	0xbfc2dbb6815a309a	-0.14733010593443369
233	0xbfc0d82179523423	-0.13159578727609852
234	0xbfc6d3ac98b17f0a	-0.1783347840855572
235	0x3e727db2eade2474	6.88843850555329e-08
236	0xbfc4807a954b5553	-0.16017086305388747
237	0xbfc7231275e489fc	-0.18075781589966755
238	0xbfbfa2a3e046afe7	-0.12357544160357713
239	0xbfbc50d5a839db2a	-0.11060843808250512
240	0x3e72756291218dd6	6.876340233465294e-08
241	0x3e767a3fa0e2fcfe	8.373533708342881e-08
242	0xbde663844bb78e00	-1.6289950452658933e-10
243	0x3e642a91a2b767cb	3.756263241743468e-08
244	0xbe7507b701d1d7bc	-7.834336242400444e-08
245	0x3e6ba01b9a5a1855	5.1456356770166886e-08
246	0xbe5b53b9509be910	-2.5450295238428622e-08
247	0xbe84ae94f1e9e04a	-1.54092611521141e-07
248	0xbe80abbbbd45874e	-1.242073880510101e-07
249	0x3e6512b06611ea5c	3.9251528923809597e-08
250	0x3e7b669e68e23b44	1.0207613796080857e-07
251	0xbe80550301fb1211	-1.21683457079744e-07
252	0x3e5ee7ea4da915ec	2.8783379993929145e-08
253	0x3e71f2ac5cfc3694	6.68612962740251e-08
254	0xbe55661fb0f566cc	-1.992929826492017e-08
255	0x3e52cd1530b6303c	1.7509893130522508e-08

bias f8 [120]
0	0xbfa1ae7b8e5fe813	-0.03453432190868013
1	0xbfa926ca8e92151b	-0.04912407865871612
2	0xbfc90d939df98ef4	-0.19572682584395518
3	0xbfb9940d7520ba29	-0.09991535291258259
4	0xbfc664ee1eab480a	-0.17495514390481076
5	0xbfc10d90cdba59b6	-0.13322649045285367
6	0xbfc9429df2877f9b	-0.19734548895121126
7	0xbfc4994a2c4cf937	-0.16092803156966237
8	0xbfa39cece0d4d4b2	-0.038306620068774846
9	0xbfc2b90335dbaf57	-0.14627113466064642
10	0xbfb3038ddf7bc9ea	-0.07427298265591956
11	0xbfd054919e0ab11e	-0.2551616710068333
12	0xbfd16181edc9c2d6	-0.2715763876104068
13	0xbfcbe2c46288c882	-0.21785788356061536
14	0xbfb64661cae7be6b	-0.08701144412747801
15	0xbfd39ce081fa509f	-0.30645001118797127
16	0xbf98616345680400	-0.023809004889702834
17	0xbfc9d6fdb82f5382	-0.20187350743676907
18	0xbfcff96e53a1c58a	-0.24979952891912333
19	0xbfc0a27e406a9c32	-0.1299588980229785
20	0xbfc943abbb1775b1	-0.19737764964422191
21	0xbfc7c73e288aa902	-0.18576790790150005
22	0xbfc4c06a558cc756	-0.1621220510219767
23	0xbfcb5b9183a2f9d9	-0.21373194625444006
24	0xbfc7da65b784a3df	-0.18635245762678118
25	0xbfbeaa43b6b3b5ed	-0.11978553019044798
26	0xbfcd7cab6b72fd09	-0.23036711451093364
27	0xbfd518b29a96c775	-0.32963242622928784
28	0xbfcaa1cfbd3eb710	-0.2080630945251234
29	0xbfd18ef323ddd39f	-0.2743499613055124
30	0xbfc10ff0bdfe3a09	-0.13329896237378616
31	0xbfc58fad031f2c93	-0.16844713833265654
32	0xbfb94d72498d55c0	-0.09883798881249728
33	0xbfb3fd6658a18e5d	-0.07808532394261065
34	0xbfcd264dbaadf963	-0.22773143401350202
35	0xbfc13f0ea804d3ee	-0.1347368545918068
36	0xbfaede7ac76cabbd	-0.060291134685335625
37	0xbfc8715cf00f734c	-0.1909595653695767
38	0xbfd1401b64e8f031	-0.2695377812813176
39	0xbfd040d04d5e8d5b	-0.25395591312027016
40	0xbfd0f0e13b8f95af	-0.26470213715068786
41	0xbfc7f728cc74ddb6	-0.18723020537593776
42	0xbfa0c8464a55fb3c	-0.03277797372265076
43	0xbfbbc14413ef7dfe	-0.1084177540465063
44	0xbfd06fa5df52b6a1	-0.25681444939514547
45	0xbfc9668a295ba1ee	-0.1984417631094994
46	0xbfd695401ae59420	-0.35285952211990157
47	0xbfd20870185a9840	-0.28176500681218286
48	0xbfc0e455e33fab34	-0.13196824642303684
49	0xbf73b57b86681474	-0.00481174709284914
50	0xbfcb15f2f22d578e	-0.21160733056120445
51	0xbfcd25461cc49a60	-0.22770000843702842
52	0xbfce1298d6ce3497	-0.2349425362448627
53	0xbfd26beae167c4b0	-0.28783676159134597
54	0xbfbc6225a7dadc20	-0.11087260578175107
55	0xbfd07ca0b4f4f2d7	-0.25760667487683747
56	0xbf6a8fcb532473bb	-0.003242394560528853
57	0xbf990eef426d5822	-0.024471033505811708
58	0xbfc951f5b58feb3d	-0.1978137146505449
59	0xbfc0c343b6a63a60	-0.1309589998094962
60	0xbfd2bb662d075d4e	-0.292687934850126
61	0xbfc9dcb8ada55290	-0.20204838255689994
62	0xbfc007d74fe42256	-0.12523929024634367
63	0xbfbbe0f150c76094	-0.10890110227717492
64	0xbfd4a4dda61aed80	-0.32256261082849136
65	0xbfc3ef3081a1a1bd	-0.155736983582086
66	0xbfca30022fe8228c	-0.20459010447691062
67	0xbfd7adb4e8035a77	-0.3699772134545251
68	0xbfc3c4c000a230d2	-0.15444183379111692
69	0xbfc6d1ba9ce65946	-0.17827541981814415
70	0xbfc72eb5f5ce3731	-0.18111299993727806
71	0xbfc5a8d4105911cd	-0.1692147331069819
72	0xbfcdcc02dc8df773	-0.23278842705979805
73	0xbfcc6fb382b8bf83	-0.22215885050672676
74	0xbfd62a06d6e5a434	-0.3463151072124362
75	0xbfcb037e4f44f0e7	-0.2110441100175031
76	0xbfd1a5da89d2e4b4	-0.2757479043899125
77	0xbfc11ffc4e299ff7	-0.1337886220601374
78	0xbfce99b5d4a6ef7c	-0.23906586535838048
79	0xbfcc8c8da609c4f8	-0.2230393467648708
80	0xbfd0475ca7ab7986	-0.25435558675771863
81	0xbfc4e91328351091	-0.1633628794026021
82	0xbfcd825fc4577085	-0.23054120146742121
83	0xbfa92d8a414ca67c	-0.049175568076248205
84	0xbfdf9e65e6491676	-0.49404284943407306
85	0xbfc73e232f644406	-0.18158378423734706
86	0xbfcd68b787ed3fb8	-0.22975820672081482
87	0xbfc13be50187ba3c	-0.13464033674923026
88	0xbfd4ed9cdd9d77a8	-0.3270027317247419
89	0xbfc45c9bdb4a8ac7	-0.15907619674279358
90	0xbfc47b44670d3bfe	-0.16001181632825018
91	0xbfd032077bb63e6b	-0.25305354195822954
92	0xbfd276efc27adaaf	-0.28850931160142584
93	0xbfd129024e11ef90	-0.26812799095181905
94	0xbfd45012e83d6506	-0.3173873203246135
95	0xbfcdc24731eb203d	-0.23249139726090276
96	0xbfdcbbeabcaaeba4	-0.44896953987670885
97	0xbfcc877f8036fe7d	-0.2228850723313264
98	0xbfcb0aee3dd53235	-0.2112710763853031
99	0xbfc0a40bd7c0a2f7	-0.13000629458226573
100	0xbfd3f56bf6964c81	-0.31185435372135123
101	0xbfcf8cd390980a7d	-0.2464851814293815
102	0xbfc8ef0b73720561	-0.1947950662325111
103	0xbfcb5390e77d5f36	-0.21348773291787787
104	0xbfd0f2428b50c4ee	-0.2647863731863954
105	0xbfcb0ec23b50d71e	-0.21138790031698645
106	0xbfc0b7e1d99e757b	-0.13061164022375835
107	0xbfce60474778d344	-0.23731318464128937
108	0xbfb1cd258aa14af6	-0.06953653940699298
109	0xbfcdd61a2199ae37	-0.23309637680664405
110	0xbfbf7407befe76b3	-0.12286423123301908
111	0xbfcb76a4720661c0	-0.21455817763923157
112	0xbfd0c1d210a563a6	-0.2618298685607051
113	0xbf58ae238b902faf	-0.0015063616867818477
114	0xbfc0791aaac972df	-0.12869580592350524
115	0xbfcf5f7c987a5038	-0.24510152287678166
116	0xbfc7b3d80d78b9df	-0.18517590196411413
117	0xbfcfde421054851d	-0.24897027776118189
118	0xbfcf4e98d72d0cfd	-0.2445860911048853
119	0xbfb1dca9c9d256fc	-0.06977330376897933

weight f8 [120, 120]
0	0x3e6c0fb8d0e0cfb2	5.226845632735002e-08
1	0x3e77c693380c45b9	8.857132450755565e-08
2	0xbfd3c91f6e8f9ae0	-0.30915056035011723
3	0xbfc45319c4763036	-0.1587860307012094
4	0xbfc7cf1c8e2015ca	-0.1860080427142477
5	0xbfd116e6516ecf17	-0.2670226855509425
6	0xbfd0b8642ac2b853	-0.2612543504318456
7	0xbfd14b90fedee4b3	-0.2702372063609559
8	0xbfc02246e379a0ae	-0.1260460482328702
9	0xbfca5f68bf892188	-0.20603665687873396
10	0xbe7e54110030a83c	-1.1298203621336423e-07
11	0xbe7818191e4cb21d	-8.975764094189937e-08
12	0xbfc6b517fcba1ddc	-0.17740154113947326
13	0xbfca3b07aa211ce4	-0.20492645079705263
14	0x3e7436a58d57e71e	7.530101994021495e-08
15	0xbfcd2ba8120bc8ab	-0.22789479142335742
16	0xbe70e87f17b217da	-6.298791348406417e-08
17	0x3e6decd5edc44974	5.573991554616529e-08
18	0x3e5123c84dad5da4	1.5962659509605742e-08
19	0xbfb71264a90034ab	-0.09012440801616843
20	0xbfb09dae5daf5c9a	-0.06490602290374384
21	0xbfc4c725f71f9cc8	-0.162327523866429
22	0xbfce19a48dc9a133	-0.2351575558016151
23	0xbfb7c5c723e02b75	-0.09286160112257653
24	0xbfd3ed6ddf58a1e1	-0.3113665276637488
25	0xbfc33bfac1ac0dd8	-0.1502679296173557
26	0xbe2c154226ed44c0	-3.2692962151833364e-09
27	0xbf68c69440d4627c	-0.0030243774005039286
28	0xbfc85e7179a08662	-0.19038217963047815
29	0xbfcf6bb584d10ba4	-0.2454745195883251
30	0x3e592ee7c2b36146	2.3453704906012564e-08
31	0xbfccfdc198ddac40	-0.22649402584224454
32	0xbfc27a7c484548ce	-0.14436296013679456
33	0x3e6b36a559f3f9b7	5.0689020309250165e-08
34	0xbfc6898304ddbea4	-0.17607152688605254
35	0x3e72b2e654f5c199	6.965855913420811e-08
36	0xbe77dcc99ee0756b	-8.889455901979019e-08
37	0xbfd1eca5260e751e	-0.28006867138340563
38	0xbfc0f6e1379345e1	-0.1325341721881577
39	0xbe45bcc7ac2c5080	-1.0122275800136897e-08
40	0xbfd024a1571abc88	-0.252235732138566
41	0xbfd3b14c58f71bcc	-0.30769642532362407
42	0x3e6d2b46b28aa1f1	5.433158484685991e-08
43	0xbfa0534c4f47c423	-0.03188551395204111
44	0xbfa5513469b7e56b	-0.041635167985030495
45	0x3ee34daff70c2c4d	9.20460999644635e-06
46	0xbf97ae9a6cfca8c1	-0.02312699594691803
47	0xbfcd8fe3b1e0b34a	-0.23095365701137843
48	0xbfcd763f2a0abdc7	-0.2301711039813041
49	0xbfa69b51b9d640b9	-0.044153741774722595
50	0xbfb7fff9c88d7cc4	-0.09374962946229731
51	0xbfcf7b2faf093c44	-0.24594684645350828
52	0xbfd1942ed221c56c	-0.2746693660802382
53	0xbfd044d8ae94643e	-0.2542020516280593
54	0xbe75d552ca7293ee	-8.133536032407956e-08
55	0xbfcc2f77b90ee709	-0.22019859825177715
56	0xbf96ef5c45262d92	-0.022397462578323486
57	0xbe629c7fc1fd931c	-3.466629316834235e-08
58	0xbe78d9b48a4c914e	-9.257499529160377e-08
59	0xbf59705737a797c1	-0.0015526630146438377
60	0x3e66b4ca1431ab87	4.2293609080926003e-08
61	0xbfb4045e017c80d3	-0.07819163833892455
62	0xbfbec0b68e77385d	-0.12012806871573063
63	0xbfbe441dbbe677c8	-0.11822686993988818
64	0xbfca74f22102f037	-0.20669390308273858
65	0xbe70228d678cddb4	-6.010744780799058e-08
66	0xbfb2f65b4d869d9c	-0.07407160418244135
67	0xbfb07ef6152b3030	-0.06443727509321273
68	0xbf8cc391f2e552de	-0.014044895386783048
69	0xbfd2b9a224531a29	-0.29258016154600114
70	0xbfbbdfd97e4c7bc1	-0.10888442357507612
71	0xbe41984b2e11d4c4	-8.19326245931209e-09
72	0xbe7042a65d00bb9d	-6.057452783877765e-08
73	0xbe6943a1a351cb63	-4.705821191825051e-08
74	0xbfc4674a7059ac6b	-0.1594021843514811
75	0xbfcde6f54d0a7d8e	-0.23361078511969108
76	0xbfc839a720345a33	-0.18925942490086953
77	0xbf90a2e633bfdcc9	-0.01624641123632101
78	0x3e7944099c96cb48	9.412233405759792e-08
79	0xbe7a2cfcd3ac6ec5	-9.751220357258399e-08
80	0x3e79c1f3156f8436	9.595459481106763e-08
81	0xbe3fc44d66b8e5f8	-7.396285899328434e-09
82	0xbdf8f004d599db00	-3.6288945945515086e-10
83	0xbfd081ffb40223ad	-0.25793449953976727
84	0xbfb18c957be80c9f	-0.06855139041003831
85	0xbfb0373c4f3d965b	-0.06334282812675822
86	0x3e6d1ed1281bff00	5.424093264642768e-08
87	0xbfcc0c2458117ce0	-0.21912054348192722
88	0xbfb5796235d020b0	-0.08388341726106563
89	0xbfc064ece9512bf3	-0.12807999985156435
90	0xbfcc88c13b980300	-0.22292342576840696
91	0xbfceccd51076913e	-0.24062598518242767
92	0xbfc0eee3b9586936	-0.13229033041063482
93	0xbe49e02573cc5cdc	-1.2049251923948232e-08
94	0xbfc810e0046ba872	-0.18801498618933327
95	0xbfc1d658251c50e3	-0.13935376941720454
96	0xbfbaf74daa1df077	-0.10533605006452428
97	0x3e5a202c45738040	2.4331431394751562e-08
98	0xbfcac06104154554	-0.20899594020242296
99	0xbfd3b449297e5cee	-0.3078787713252059
100	0xbfb81436c9147459	-0.09405844124963049
101	0xbfd2b1bcb53c4989	-0.2920982141378308
102	0xbfcdb40d7c63e57c	-0.23205727170697432
103	0xbfcf7557465b099f	-0.24576846061070243
104	0xbfd220f206b988af	-0.2832608285590465
105	0xbfd2dc767eeed2b0	-0.2947059859828114
106	0xbfc6e71e44e3ca3f	-0.1789281689048767
107	0x3e801cbcbd81c72b	1.2004565408705106e-07
108	0xbfd277813c3a1932	-0.2885439956811694
109	0x3e5854dc480e5760	2.2660462398517197e-08
110	0x3e3bcac290f9f820	6.470836546818603e-09
111	0xbfc6a681448b4975	-0.17695632788543106
112	0xbfcbcad646c36229	-0.21712759452090438
113	0xbfc196114eb66225	-0.1373921999300062
114	0xbfcebf5c23f53131	-0.24021484142066066
115	0xbfc2a8492200dcff	-0.14576067123719125
116	0xbfc7d6ec9f5b1e8f	-0.18624646931697383
117	0xbfba272b3bd212ea	-0.1021601697012319
118	0xbe5dad155f434c84	-2.763802871357725e-08
119	0xbfcf5342c8bcfc84	-0.24472842027350705
120	0x3ea9631f3cf98135	7.56597382033824e-07
121	0xbe6f409040461e03	-5.8211760775461246e-08
122	0x3e71586774127963	6.461638425928944e-08
123	0x3e73be14a24466ab	7.354655246309773e-08
124	0x3e5d1dc20fff8e4c	2.7116613843151395e-08
125	0xbe498611b83dce58	-1.1885402668760642e-08
126	0x3e3d164df3796e88	6.772374487239758e-09
127	0xbfa49df4bb0a33a8	-0.04026760848237326
128	0xbe4afd05dc6d4428	-1.2567439434308415e-08
129	0xbfd17b6dc1cae1b5	-0.2731584923272082
130	0xbfcf0ad5dc37ac05	-0.2425181699066742
131	0xbe72d22dc9d868ec	-7.011373034279144e-08
132	0xbfccea1dd765efc5	-0.22589467065324534
133	0x3e8ec6f7a58d93cc	2.293081305073825e-07
134	0xbe619775ec50023d	-3.2766988712632967e-08
135	0xbe43687a4644a788	-9.037608169287262e-09
136	0xbe73dfefeac8ed6b	-7.403923047652421e-08
137	0xbe5144805fc068e2	-1.6081690632030487e-08
138	0xbe79600fcb21bf06	-9.453013907907893e-08
139	0xbfc9d5baf6601748	-0.20183503179594653
140	0xbfc6a1a152b18afa	-0.17680756128091685
141	0xbe31decb1743cd98	-4.160750289650903e-09
142	0xbfb372b3bcca87ab	-0.07596896514090072
143	0x3e715c011a4418be	6.46687739505053e-08
144	0xbfbc5bb0dcda1f5e	-0.11077409164329086
145	0x3e4152272462c500	8.06567713689861e-09
146	0x3e5ad3f76cf24694	2.4985516597152948e-08
147	0x3e6ebcd02fc57a1a	5.7253151527646914e-08
148	0xbfcb7850cdf4ea45	-0.21460924202422596
149	0xbfd02c58413495d9	-0.25270658843723265
150	0xbfceccd20704b94b	-0.24062562315652722
151	0xbfcf1c2bdb597963	-0.24304722032952517
152	0xbe4348799bb4bc30	-8.979395774322177e-09
153	0xbe681887149fe2ec	-4.4881945784842204e-08
154	0x3e38f31b95c34c80	5.809040661870574e-09
155	0xbfcefbf521c6618b	-0.2420641341129904
156	0xbfd11d9f38afd28f	-0.26743298087902984
157	0xbfbd0aa813cc30b6	-0.11344385608043947
158	0xbfd0a2f7bdcf30ef	-0.2599467614752617
159	0xbfbaf89473fd7940	-0.1053555281809837
160	0xbe7c853a0814e28e	-1.0624683179507198e-07
161	0xbe6ee2d0674b4122	-5.752964408122925e-08
162	0xbe7034f0a8f76494	-6.037502430586504e-08
163	0xbe75577b8378db37	-7.950413382575737e-08
164	0xbfd0ae0ef3b5a119	-0.26062368201975655
165	0xbe5e6241f7a735e0	-2.8297136614628172e-08
166	0xbfceb2cc381e7058	-0.23983147373371838
167	0xbfce2ed43fbe50bc	-0.2358041106459775
168	0xbfceb7f98f9520e9	-0.2399894667708005
169	0x3e469a409a3397c8	1.052513171621957e-08
170	0xbfc8e77de99d7808	-0.194564570493583
171	0x3e6338fafcdbfb61	3.580484496216224e-08
172	0xbfd1287a1af563fa	-0.2680955184237629
173	0xbfcf389859c86139	-0.24391464599535498
174	0x3e6ef043f584f850	5.7627515816995206e-08
175	0x3e803d00f1702934	1.209847304287098e-07
176	0x3e74f5754595276b	7.807769133064307e-08
177	0x3e744ffeb4bd0c10	7.566988563267103e-08
178	0xbfd25d2e6011141d	-0.2869373262549873
179	0xbfc5f0e8d28c160b	-0.17141447334886126
180	0xbe69123280a7efb2	-4.669853133698623e-08
181	0xbfcba5717e69f061	-0.21598642990636832
182	0xbfcf181cf4f3ff8a	-0.24292337380029166
183	0x3e48ccd265b12180	1.1548439695971897e-08
184	0xbfcb446d039f87ca	-0.21302569081222905
185	0xbfd19e2fde94cb55	-0.2752799676556397
186	0xbe77fdca5fffd61e	-8.937481510415089e-08
187	0xbfcf4d41421c01b6	-0.24454513290403462
188	0xbe690ffdf9b5caca	-4.668248651086566e-08
189	0xbfa407f5666872eb	-0.03912321925256442
190	0xbfca463237ab97c1	-0.2052672168567238
191	0xbfcc9aae6e65a003	-0.22347050085522832
192	0xbfb3bc8746483eb6	-0.07709546533464615
193	0xbfd247676f838b1c	-0.28560815706275533
194	0xbfce3c9423f5d4d6	-0.23622371440766327
195	0x3e6bd1554a4658d6	5.18145182620603e-08
196	0xbfd14e320f6a4021	-0.2703976774728308
197	0x3e764b3086ea5adb	8.305053864964248e-08
198	0xbfc506ac7806247a	-0.16426616535708033
199	0xbfce80c6a3fef299	-0.23830492980586795
200	0xbfbab17d7e061c57	-0.10427078558687818
201	0xbe67b43d65099990	-4.4152255744556105e-08
202	0xbf8e3dce9e2c665a	-0.014766325189657415
203	0xbfced427c1d54b6a	-0.24084946598540152
204	0xbe1d23dc9cd11860	-1.696176188450895e-09
205	0x3e58f8b04afa17e5	2.3256465807415644e-08
206	0xbe68fdfc527a8973	-4.655147228567855e-08
207	0x3ecc50537bd9b05f	3.3752648665366355e-06
208	0xbfcb5e1e10a28afd	-0.21380973636868097
209	0x3e2f2fb61ea2ec40	3.6305716116542638e-09
210	0xbe572f70520e7dee	-2.1593000390874253e-08
211	0x3e77862994fcaf11	8.763399716716831e-08
212	0xbfce037035719ae1	-0.2344799290614992
213	0x3e772e5d511e59d2	8.635636941502113e-08
214	0xbfce303657174a2a	-0.23584632160653146
215	0xbfcb0bf008dc60bf	-0.21130180771502258
216	0xbe672a70cc40d32c	-4.314963456022694e-08
217	0x3e31f091eabae7c0	4.176918071559215e-09
218	0xbf47360101927966	-0.0007083420670317808
219	0xbfbbec5d2cd69bbd	-0.10907537789044759
220	0xbfcd39dbbb3a3b62	-0.22832819597212067
221	0xbfd1ccce5f6a8628	-0.27812537496547174
222	0xbe5e197db59afe8e	-2.8032413146608465e-08
223	0x3e6733f4c3546a66	4.3218868853694804e-08
224	0xbe6a4d08351175ce	-4.8989255881726624e-08
225	0xbe74125ad052fb07	-7.477290260829836e-08
226	0xbfcd18b129252837	-0.22731604107895162
227	0x3e64d8d69a0698b1	3.88306091753962e-08
228	0xbe5985ffff7fbd9a	-2.3770553497725435e-08
229	0x3e406bc8cf5daf10	7.64663930413613e-09
230	0xbfd17ce35c748398	-0.2732475664980085
231	0xbfcd1d28a1b2494d	-0.22745235343297524
232	0xbe65317dd9a3a57e	-3.947564693343386e-08
233	0x3e5b633b54ae5300	2.550671255768544e-08
234	0x3e5972b75ad870d3	2.370039957874501e-08
235	0xbfd018fe6bb5c4d2	-0.25152550238187843
236	0xbfc91bd724752623	-0.1961621215835275
237	0xbe67188efcf713f2	-4.3019525382564715e-08
238	0xbfc5a22fc8840c0d	-0.16901204386530858
239	0x3e7956037d05312d	9.438392046152302e-08
240	0x3e6cfeff85ae4354	5.40094197899149e-08
241	0x3e639f4d5e1ea3ac	3.654933401705362e-08
242	0x3e54899f5b18defa	1.9127119171688653e-08
243	0x3fc50fd3265bed3d	0.16454543469431285
244	0x3fba98843cf42182	0.10388971794248472
245	0x3fb94b6a08c0b664	0.0988069793099498
246	0x3fcb68ccdb1cd0be	0.21413574885230519
247	0x3e5da7de39b78c38	2.7619055138316157e-08
248	0x3fb2f01f69249a42	0.07397648159949546
249	0x3ef4cc7baf415460	1.9835245396688703e-05
250	0xbfd25afe9379ab7d	-0.2868038597286427
251	0xbe6e6f352c68b98a	-5.668849705310132e-08
252	0xbfcd8139d908ace9	-0.23050616357190926
253	0x3e604987842792c4	3.033731889640992e-08
254	0x3e6ebbaa8082860c	5.724480450884449e-08
255	0xbe4e75d6fd0205e0	-1.4184187963281529e-08

bias f8 [120]
0	0xbfd4da806a6d19d7	-0.3258362807577248
1	0xbfd132dbfcd3b794	-0.2687292069448344
2	0xbfc814763ac20443	-0.18812444561993588
3	0xbfcaefd249fb79da	-0.21044376957338679
4	0xbfba1eea771cc163	-0.10203423889175194
5	0xbfd71226fc1392f7	-0.36048292748300476
6	0xbfcc1c4929cbdd18	-0.2196132139285758
7	0xbfdcd885cfded62c	-0.4507154970154683
8	0xbfccdb43fec9e386	-0.2254414552769754
9	0xbfb915ffc4b1a617	-0.09799192955110701
10	0xbfd08d49d1b86120	-0.25862355690471084
11	0xbfda37c6dc77859d	-0.40965434579819676
12	0xbfcc95643aca07b1	-0.22330906744542525
13	0xbfcd9e01de5ba04f	-0.23138450009651243
14	0xbfd36d5e3c7d1289	-0.3035502997120508
15	0xbfca865af09e540c	-0.20722519635151604
16	0xbfc8867f9e9e9d62	-0.19160456891152494
17	0xbfcd13e9bf7d17d8	-0.2271701989176893
18	0xbfc97959f537be0e	-0.19901585076830525
19	0xbfd09390b1160eb4	-0.2590066651684808
20	0xbf94dc0238908b36	-0.020370516493254352
21	0xbfc4f97f0ccc14e6	-0.16386402249205573
22	0xbfd069cac2e895f6	-0.25645703348195015
23	0x3fa3136424d868c6	0.03725731801769565
24	0xbfd4405fa668b6c9	-0.31642905474550936
25	0xbfc11c8ce0f77c5a	-0.13368378624633942
26	0xbfb5836d7d389afd	-0.0840366774287808
27	0xbfbd1fc922807a92	-0.11376626102763002
28	0xbfcc82c94dce9e28	-0.22274128245520441
29	0xbfc437653ba0ccbf	-0.1579405347016287
30	0xbfc9166f8628f798	-0.19599718142302147
31	0xbfcc84b22899529d	-0.2227995584713839
32	0xbfd1565dca8b47ee	-0.27089638499921775
33	0xbfbd3e2810878bb7	-0.11422968295623447
34	0xbfbf6416801bfa42	-0.1226209700362029
35	0xbfccb8a3f8b62875	-0.22438478130453957
36	0xbfd0481756cc9ef1	-0.2544000957154671
37	0xbfcb881862057e88	-0.21509079729274938
38	0xbfc7800904f18744	-0.18359482518558867
39	0xbfd4a23342bbb243	-0.3223999168101594
40	0xbfcf5eadbcb6b4ef	-0.24507686342750598
41	0xbfd22f524c892d68	-0.28413827394680036
42	0xbfd3e417cc318f8a	-0.31079668942242533
43	0xbfc8784fa9b0a5d8	-0.1911716059269526
44	0xbfcfb20ec874ea6c	-0.2476213911812296
45	0xbfcc9309f83d8955	-0.22323727246391437
46	0xbfca3a8532afa59b	-0.20491089796932446
47	0xbfc9734c026ca723	-0.19883108251934187
48	0xbfc0bef642bf1b03	-0.13082769641024336
49	0xbfd0ec89a959de56	-0.2644371179407917
50	0xbfccf9af23b0d533	-0.22636975519859845
51	0xbfcca3bd31973f04	-0.22374691888261833
52	0xbfc6411ecf470129	-0.1738623153778545
53	0xbfc1bb4feff78c67	-0.13852881638658518
54	0xbfd8fe77317f0aee	-0.39053134759539787
55	0xbfd7f4046bcd4768	-0.3742686321976323
56	0xbfc4cec91ddfa77c	-0.16256059607195172
57	0xbfc514e1f1c6cd1c	-0.16469978623863646
58	0xbfd0275b5e3cdadd	-0.2524021549501592
59	0xbfd18151d1eff96b	-0.2735180425805967
60	0xbfc50a8ff5f0f6f4	-0.16438483723498332
61	0xbfaecaa9156f3772	-0.060139926783093225
62	0xbfa1367d5c7bd3a7	-0.033618848361505464
63	0xbfd2551af1ae39ea	-0.28644441224687844
64	0xbfce300ba103cb5f	-0.23584123003055432
65	0xbfbb7a2c53d60965	-0.10733296438960378
66	0xbfc93623b48210bd	-0.19696470559950355
67	0xbfcc09c3fba64622	-0.21904802119802108
68	0xbfccf35b7a962d3a	-0.22617667661357094
69	0xbfcd4d594039077e	-0.22892299304845304
70	0xbfcb8b0981ee1e92	-0.2151805767464237
71	0xbfbf165dfa0b2860	-0.12143504480914791
72	0xbfcb92ebefd9393a	-0.21542119227746942
73	0xbfc9615521c10d74	-0.19828285358571984
74	0xbfd794bb2479a1b7	-0.3684528213693982
75	0xbfc45503d44edfb0	-0.15884445063215713
76	0xbfc409730d41e057	-0.15653837344484842
77	0xbfc6697e711dce55	-0.17509441874755063
78	0xbfd2f606cf3409ce	-0.2962662719220618
79	0xbfc8cc67a694cf7c	-0.19373794206478212
80	0xbfcfdaae9e60c96b	-0.24886114819816937
81	0xbfd7565957edbcc4	-0.36464532458098753
82	0xbfc6f83a4776c7e8	-0.1794503067918065
83	0xbfb7310ce107eda4	-0.09059219831390536
84	0xbfdc016c5e608203	-0.4375868722582085
85	0xbfc83fd10315f843	-0.18944752360033776
86	0xbfcf9a436438f1be	-0.24689524072335972
87	0xbfd0323414668151	-0.2530641745779763
88	0xbfcc04f8c330a578	-0.21890172510874684
89	0xbfca0ba4883c99ff	-0.20348030712302997
90	0xbfd128c6587c23ec	-0.26811369553666853
91	0xbfcd6a469922f041	-0.22980577924124826
92	0xbfc848114b4664ac	-0.1896993272355635
93	0xbfca82670fc55be3	-0.20710457105698685
94	0xbfcc71d372cd5372	-0.2222236929470927
95	0xbfd00b1321cd3d24	-0.2506759481520524
96	0xbfc308ac0f095acc	-0.1487021516247381
97	0xbfd11b5c075daeff	-0.26729489058810424
98	0xbfc7dff370ed8357	-0.18652194036533373
99	0xbfcee09fa18ba0e3	-0.24122996700248853
100	0xbfb9bc2fe9031fd8	-0.10052775801443603
101	0xbfd74886c9e2c5bb	-0.36380166736043024
102	0xbfded26726ef1a19	-0.4815919761862531
103	0xbfc1c74781eb016f	-0.13889402240421186
104	0xbfc398e128b8cdf9	-0.153103012927758
105	0xbfd09b0ca86a254e	-0.25946346709004764
106	0xbfc9b6dbef970867	-0.2008929176209364
107	0xbfcf4b8cc73172e8	-0.24449310041645522
108	0xbfd1cfd43f5f83a5	-0.2783098811033205
109	0xbfc3a14bf7603374	-0.15335988596816785
110	0xbfd41dcc4f015b35	-0.3143187305008042
111	0xbfc4a300909fc944	-0.16122443258024977
112	0xbfdd143cad00425f	-0.4543601693594947
113	0xbfca4d5cda57202a	-0.20548592244290492
114	0x3fb9b53e2fbd2285	0.10042179742334596
115	0xbfc6c80408809f6b	-0.17797899642141188
116	0xbfcf2c9aaf91dd77	-0.24354871342414317
117	0xbfcb9dd1224678a7	-0.21575369046781143
118	0xbfc1e7032c0ef33f	-0.1398624386910345
119	0xbfd20fb52dd08f2e	-0.28220872377481754

weight f8 [120, 120]
0	0xbfcd686c616fb007	-0.22974924810057493
1	0xbe7b4abdedb37993	-1.0167047597177655e-07
2	0xbfc57360d7986d41	-0.16758356597061133
3	0xbfb03251f03fa033	-0.06326782336657359
4	0xbe7e2a7471d9afce	-1.1237650850989019e-07
5	0xbfc257161c07b255	-0.1432826649537612
6	0xbe72ecd2ee7a8731	-7.050146743706195e-08
7	0x3ea1d323d5152a38	5.312194081644525e-07
8	0xbe63c696786a51f8	-3.683517406819639e-08
9	0xbfc74266bb604a6c	-0.1817139067575967
10	0xbfbf73c854768047	-0.12286045133669275
11	0xbfb11bd22e3fde33	-0.06683076504838752
12	0xbfb5cfd0735e18e2	-0.0852022439631557
13	0xbfc0053e543c2900	-0.12516001809155597
14	0xbfc3b5f00938be08	-0.15398979616428243
15	0x3e76d437ef6a9ca8	8.504457214374492e-08
16	0xbfbff55fa6f6a7e9	-0.12483785463578524
17	0x3e15974c484f8c20	1.2567620566128891e-09
18	0x3e6f56c6d4357aca	5.8373383039367883e-08
19	0xbfa092f6da49dda6	-0.032371248385000315
20	0xbfc348d60ae4ee15	-0.150660281485998
21	0xbfa91f59ed54d17a	-0.04906731626616341
22	0x3e735eb59d7b3c98	7.215871932895042e-08
23	0xbe64eeb8b847b4ec	-3.898983095053148e-08
24	0xbfa5bb7064714e25	-0.04244567133050862
25	0xbfb2349ff9ab5733	-0.07111549230043294
26	0xbfcceb3470b1fa8e	-0.22592788222023724
27	0xbe73cf7dc4f0ceef	-7.379991128001641e-08
28	0xbe6cca50beb6b355	-5.362610252675747e-08
29	0xbe66fff7f2c1ee60	-4.2840609588428565e-08
30	0x3e5bad213ef6e42c	2.577555230167778e-08
31	0xbf51133a67114b18	-0.0010421820009198276
32	0x3e7501d8ade41e82	7.825796497298099e-08
33	0x3e72c49e4e21a3a4	6.991639936591092e-08
34	0x3e60e32b7762ca5f	3.1455200154118006e-08
35	0xbfc3670af479b879	-0.15158211648253309
36	0xbf90a2080ba180c5	-0.016243100843326603
37	0xbfc1cd98222c8c05	-0.13908673924115092
38	0xbfcbd4a3c92ebd4b	-0.21742675135963405
39	0xbfb1d32eff713a26	-0.06962865578064079
40	0x3e3e3b76da0b63a8	7.0390017432099464e-09
41	0xbfa91d8f1f593060	-0.04905364282294111
42	0xbfa45f43e4caf99d	-0.03978931587106447
43	0xbfade0bef6e05338	-0.058355300556434064
44	0x3e6c55fc30043c04	5.277968817735576e-08
45	0xbf9f01cddd889902	-0.030280319830262144
46	0x3e61f368395d1931	3.343598746359984e-08
47	0xbf704460ff947199	-0.00397146120056071
48	0xbe7be7b8b85bef6b	-1.0395483060124322e-07
49	0xbfb11cd403d6937f	-0.06684613317209019
50	0xbe59a12641d64bba	-2.3869322620500732e-08
51	0x3e7c5de030050a9a	1.056742000615103e-07
52	0xbf958e20133d4ede	-0.021049977468762353
53	0xbe73d9eda5e35712	-7.395179000014792e-08
54	0xbfc0e53cd079fe05	-0.13199577502744844
55	0xbfc177bac7779e5c	-0.13646635760891257
56	0xbfcdf5eb48f7b777	-0.2340673548018761
57	0x3e6ac807be924e38	4.988418551249496e-08
58	0x3ec1cfae5a2bbcd7	2.1232669536946262e-06
59	0xbfc84fca653db5d5	-0.18993501609240462
60	0xbe691b840f5ab152	-4.67663329566679e-08
61	0xbfb9b794a5c5c7d9	-0.10045746848280092
62	0x3e4a0cc7661ce3bc	1.2130438157088862e-08
63	0xbf7f943f7216da74	-0.007709739527334326
64	0x3e34ac26431553f8	4.813181895870107e-09
65	0x3e73be542643895c	7.355016290762399e-08
66	0x3e5e772dc645aa7a	2.8373247211284786e-08
67	0x3e50f265388af5ee	1.5782990500246846e-08
68	0x3e54eb66c7660c88	1.9482837088004507e-08
69	0xbfa54978fe36178b	-0.041576176673557695
70	0x3e68009ff99807a0	4.4708030343828125e-08
71	0xbe701b64e89fc38f	-6.000328248136405e-08
72	0x3e4573d105e45300	9.989556012720876e-09
73	0xbe46217468c64e78	-1.0305402108741059e-08
74	0xbfc42950913670a5	-0.15751082506620154
75	0xbfc5446aae9c53fd	-0.1661504128066155
76	0x3e70c9f351fee3df	6.254341089377048e-08
77	0xbe6cc8a85be0e12a	-5.361404074904327e-08
78	0x3e4b23671a4ab1d8	1.263725197519428e-08
79	0x3e7036c8e4956f9b	6.040186763727955e-08
80	0xbf5799b5aac21138	-0.0014404558269528033
81	0xbfc1869d5d591248	-0.13692061479572915
82	0xbfb656c6271e86ea	-0.08726156668719978
83	0xbfad59080bc97a6c	-0.057319880904050574
84	0xbf93072c2c172027	-0.018582048598347136
85	0x3e4c5cbb3bbfb080	1.3207193443020763e-08
86	0x3e80d8e6b37068cb	1.255219445890794e-07
87	0xbe658814dbac3390	-4.010567119213235e-08
88	0xbfa97578c412693e	-0.04972436326461825
89	0xbe7387132134b6da	-7.274611162475855e-08
90	0xbf9b01b0558db4d9	-0.026373629781507233
91	0xbfa4a4ca46359b55	-0.04031974894569738
92	0xbe5688bb58b3f63c	-2.0986524113141058e-08
93	0xbe7a84746fb6c132	-9.87850192122076e-08
94	0x3e63177cd65b774a	3.556115295092354e-08
95	0xbe7053c2e14d9304	-6.082353138992514e-08
96	0xbfc4b6877ff7efc4	-0.16182035206281686
97	0xbfc6f71981904f71	-0.17941588236191877
98	0xbfcb9a1a2ff8dbc7	-0.2156403288115298
99	0xbe78f61d13e1d692	-9.298839118314202e-08
100	0xbfc148988d918802	-0.1350279513599731
101	0xbfbfde3de7a286a1	-0.12448489098690142
102	0xbe7adae0b78422d5	-1.0004263895439103e-07
103	0x3e6f4a1f7e2cda91	5.828131557086392e-08
104	0xbfc4aeede826af1a	-0.16158841929915796
105	0x3e9491cb3f90af8e	3.065095480227409e-07
106	0xbe655977b9a62738	-3.976651115611806e-08
107	0xbfa9854e17f5747f	-0.04984516184297493
108	0xbe66745d91c83c2a	-4.182486377037531e-08
109	0xbf31bfc7beda6d7c	-0.00027083040809269105
110	0x3e674228116c4f70	4.332219043757658e-08
111	0x3e7753ceed201b13	8.690124822528247e-08
112	0x3e6bc9c4b77c30f6	5.175947753567579e-08
113	0xbe6060198d5e7c97	-3.0501540556514394e-08
114	0xbe6be2b5aae63ae1	-5.194094875308596e-08
115	0xbfa55ed5352760d3	-0.04173914216852528
116	0xbf898350f7c0670b	-0.012457497177865947
117	0xbe4360dcdaaf5b0c	-9.023756705333702e-09
118	0xbe5d685930ce0ddb	-2.7387971935072193e-08
119	0xbf999e97c5bdbfa5	-0.02501904625336206
120	0x3e649e6827b1f035	3.840546455247912e-08
121	0xbe7cac88a670f754	-1.0681882543856467e-07
122	0xbfcc0bdf93215f4c	-0.21911234554385783
123	0xbfcad9cfc8157317	-0.209772083947336
124	0x3e74e09f1b3adda0	7.777447913025353e-08
125	0xbe68b339ac4b1afe	-4.600751916032715e-08
126	0xbe794a81922ef370	-9.42164644487158e-08
127	0x3e289a3725c64260	2.864096777622021e-09
128	0xbe7863e097dc8d11	-9.086037341655195e-08
129	0xbe71109a2e3db458	-6.35715298715829e-08
130	0xbfcb425343c20af5	-0.21296158607955076
131	0x3e6d754a990faf26	5.487011656826927e-08
132	0xbfcf703509ea53a4	-0.2456117914595356
133	0xbe25b795955fdee0	-2.5282062372406943e-09
134	0x3e704ac083ac204e	6.069242967584996e-08
135	0x3e4357124aec0bc8	9.005946514152729e-09
136	0xbfcdf1395c7ea849	-0.23392407432885623
137	0xbf7787a294ffa594	-0.005744586072958486
138	0x3e6d32fb7d229de5	5.43876549502744e-08
139	0xbfcb5d91f3200e27	-0.2137930333266109
140	0x3e4a547105e20b84	1.2260791656476206e-08
141	0x3e3dcb5ccc488870	6.937045775081306e-09
142	0x3e5acec790d6dcf4	2.4966646574548444e-08
143	0xbe79a64b378e55a2	-9.555215098178008e-08
144	0xbfcabbdcd1f49628	-0.20885811092118556
145	0xbe41e0fa4f8d2f70	-8.325474075463054e-09
146	0xbfd06aca65fc9564	-0.2565179820979522
147	0xbed07dae49a470cf	-3.931746642285053e-06
148	0xbf8074cec74d1b85	-0.008035293061437585
149	0x3e7048c082f3649e	6.066332568516276e-08
150	0xbe4e5976081fafd8	-1.413256734205606e-08
151	0xbfd0ec4f5fb994e5	-0.2644232210935356
152	0x3e8030750928bc54	1.2061957884018589e-07
153	0xbe7d52375742c354	-1.0922982146794723e-07
154	0x3e769b69d7218adf	8.421794975422287e-08
155	0x3e790feec409e951	9.336410845300155e-08
156	0xbfcbf1ef8718fe4b	-0.21832079025806403
157	0xbfcaf0c2f358bd01	-0.2104724586692797
158	0xbe5db4ce705365b4	-2.7666124520529557e-08
159	0xbe70bac96c9a581f	-6.232275064974749e-08
160	0xbf491e74c4dfe7b4	-0.0007665701066337156
161	0xbfccf852f00fa6a1	-0.22632824632392093
162	0xbfcc87b805f86f1b	-0.2228918103363576
163	0xbfcac2fddedca6ff	-0.20907567388467638
164	0xbfa63b15f2cd0f56	-0.04341953839187222
165	0xbe73e3994ded566c	-7.409251477399347e-08
166	0xbf8beeacfdeeb77a	-0.013638831614880099
167	0xbfcb87fcf804e7d0	-0.21508752928076413
168	0xbe55b4d9b94c7514	-2.0215704293816776e-08
169	0xbfcdf86f6b24300b	-0.23414414149772286
170	0xbfa01d9f3f730238	-0.031475998397131055
171	0xbf92a3cf40cb202d	-0.018203008966139734
172	0x3e79a3c63dcfd62f	9.551548836569655e-08
173	0xbe33c3d3f809d588	-4.601886761079955e-09
174	0xbe74a6f8a516f13a	-7.693555772228374e-08
175	0xbe5f859cdac5e4be	-2.935708003210089e-08
176	0xbfc8c874053abd19	-0.19361734633773933
177	0x3e70c4716b14fb60	6.246326724345345e-08
178	0x3e4b8cbad6c572b8	1.2828840844394443e-08
179	0xbfcdd3250746bf01	-0.2330061231164038
180	0x3e6980dc006c6de2	4.7503704128487776e-08
181	0xbe713861099f36e8	-6.415035827476857e-08
182	0x3e76d4fd83d7929f	8.505580325437046e-08
183	0x3e694c62183aef4c	4.712188952707018e-08
184	0x3e6a25dae386b0be	4.8704205504860806e-08
185	0x3e2eabd16febaac0	3.5705934869940544e-09
186	0xbe747761aac9eb09	-7.624303561576231e-08
187	0x3e5b93319dd703c2	2.5681197493016066e-08
188	0x3ef06b10c40aa15c	1.565763909874958e-05
189	0xbfd064531127d0f8	-0.2561233203444
190	0xbe788848499af311	-9.139013670395522e-08
191	0x3e6c2a480a227876	5.246170188651373e-08
192	0x3e9e6e452b7a269a	4.534534059149844e-07
193	0x3ec9bd4632e8a5f9	3.0683699130575984e-06
194	0xbe6bfad76358a760	-5.211653012996464e-08
195	0xbfc9a7941fcabe92	-0.20042659332601837
196	0xbfb70244c58212b8	-0.08987836667990734
197	0xbf751382aff47e89	-0.005145559785233574
198	0xbfc6b42a05088e03	-0.17737317319652854
199	0xbec41ccbff4a1859	-2.39759537584969e-06
200	0xbe74d5196fdf6038	-7.760680983905076e-08
201	0x3e577d858f88cf08	2.187706457847988e-08
202	0xbfd0c3190b0f0ada	-0.26190782623249975
203	0x3e78f77d7683a806	9.30084219673072e-08
204	0x3e5ac0d024fd81da	2.4915836782116875e-08
205	0xbfbe9c9cdc5bb70d	-0.11957722072449091
206	0x3e6be36c63e5a434	5.1946142043072995e-08
207	0x3e7ddfda3eaa5c9c	1.1129090153116375e-07
208	0xbfc9ac180124261c	-0.2005643849918649
209	0x3e62e0c3185810a7	3.516297212780063e-08
210	0xbfd06f80b962e79b	-0.25680559257636454
211	0xbfd1add6687c752e	-0.2762352009175001
212	0xbf6cd22c0e9f60a9	-0.0035181866160024122
213	0xbe479282f8a8b4b8	-1.0976712668226073e-08
214	0x3e6dd0ba39a3e0eb	5.553540134874421e-08
215	0xbfcdd1bd3730876f	-0.2329632300834947
216	0xbfcd08d87602271a	-0.22683244478349068
217	0xbe5eedcfc6da7848	-2.880483090125218e-08
218	0xbfceb8cfef66843f	-0.24001502217746126
219	0xbe7612d2ec41a294	-8.22303106176896e-08
220	0xbfcabdc09a7601b9	-0.20891578237570999
221	0xbe6bc84c9cc1cd0d	-5.17487880055162e-08
222	0xbe72dca409e1c1aa	-7.026597123746233e-08
223	0xbe6c1623b4d06b16	-5.231515008021037e-08
224	0xbfcef4b6a6852ed4	-0.24184306269523026
225	0xbfcd3200b3712572	-0.2280884624654323
226	0xbfa9cfcbf2222486	-0.05041348772744762
227	0xbfcb1731f573bbcc	-0.21164535984959654
228	0xbe51f468aca36b3a	-1.672163810963772e-08
229	0xbe3f423eb7f295a0	-7.277999424620757e-09
230	0xbe94d3c81001b990	-3.103505292816224e-07
231	0xbedbb376f8203bfc	-6.604441184178928e-06
232	0x3e3b746f53c8d890	6.392324278022755e-09
233	0x3e68304ace159870	4.505485563348147e-08
234	0x3e7224a18b2e4192	6.758827701529314e-08
235	0xbfd0fc9487afc130	-0.26541627169264626
236	0xbfceee28322f8198	-0.24164297533480972
237	0xbf3c443d71c9ceee	-0.0004313135157538579
238	0xbfa301c45de3047d	-0.03712285657957979
239	0xbe3d9af1b9516b88	-6.893009625836375e-09
240	0xbfc3734083d0b3db	-0.15195471226016263
241	0xbfc01f12d671cce9	-0.12594829054760417
242	0xbfc5b43cbcf20330	-0.16956290460441314
243	0xbfb6e071461934d7	-0.08936222039592977
244	0xbe7cda7786938598	-1.0748724012549387e-07
245	0xbfc124b4a8a26bd8	-0.13393266901115797
246	0xbfcf989a30a9284b	-0.24684455276502812
247	0x3ea8201c535d57a9	7.189939086142851e-07
248	0xbfc7c9bbe8b41455	-0.1858439337012522
249	0xbfc527a3caaf5bcc	-0.16527221104362722
250	0xbfbe74e9524dda61	-0.11897142657640238
251	0xbfacdd145be11010	-0.05637420293399498
252	0xbfb304075129c5b3	-0.07428022128603722
253	0xbfb9d04263f00a1f	-0.10083403530010358
254	0xbfc2d0e0aecd98dc	-0.14699944052990233
255	0x3e7012c588fd7032	5.987780782090573e-08

bias f8 [120]
0	0xbfc8366a38340db1	-0.1891606115751592
1	0xbfcc4f198319a172	-0.22116392995236428
2	0xbfd382cbbd70c78c	-0.3048581457143136
3	0xbfbdc60be8561002	-0.11630319998045027
4	0xbfcea798c2ec34b2	-0.23948964612683238
5	0xbfd90ab1ba4603ca	-0.3912777251317122
6	0xbfd37ef3cf332836	-0.304623558372103
7	0xbfcfc66c8efbc1af	-0.24824292165386683
8	0xbfd026214b114a4d	-0.25232727366270497
9	0xbfd2990b11f03c73	-0.29059101821707783
10	0xbfd86f304948ec70	-0.3817864146873893
11	0xbfced9f949e98e64	-0.2410270319843334
12	0xbfcc2d585d7d55dc	-0.22013382496758893
13	0xbfc788366610f383	-0.18384437545492113
14	0xbfd73310b25a0023	-0.36249177376885394
15	0xbf286b56b18f62b2	-0.00018630440970814549
16	0xbfce63a6a258dd4d	-0.23741610457521248
17	0xbfd192332f66a641	-0.27454833630563164
18	0xbfd27bbef87e888c	-0.2888028551771036
19	0xbfcda60d8ab36cc0	-0.23163003227714363
20	0xbfcd44cdfeb236f1	-0.22866225181899538
21	0xbfd2cc7a6ab6283f	-0.2937303583245274
22	0xbfc093dbf397aafb	-0.12951230425036173
23	0xbfd98d761fd3873d	-0.3992591200641192
24	0xbfc77572c1a8eafb	-0.1832717366795221
25	0x3fcb0dc58952bacb	0.21135777669174724
26	0xbfce7a23a428bc39	-0.23810239329893237
27	0xbfd0360029719ff8	-0.25329593703509046
28	0xbfd123da2da6eec3	-0.2678132482358075
29	0xbfcdd923ab654e14	-0.23318906659061212
30	0xbfce45e1c01b5aa1	-0.23650762443749776
31	0xbfd6683593e62f61	-0.35011043017651927
32	0xbfc91d4681202e36	-0.19620591454473563
33	0xbfcdc0a47fdb080e	-0.23244148486088573
34	0xbfd0473bd0fa90ca	-0.2543477574165648
35	0xbfd310e34288f83e	-0.29790574548303883
36	0xbfcb121c34773f1a	-0.21149017869765246
37	0xbfcc547a8916ee65	-0.22132808393313322
38	0xbfc289928a09541b	-0.14482337703762557
39	0xbfcae6e18fcd9192	-0.21017093202239018
40	0xbfb3f3598d51a825	-0.0779319734589597
41	0xbfd50308018892b7	-0.32831001424555545
42	0xbfcffe3c278f7388	-0.24994613582284964
43	0xbfccd2e74c74a68f	-0.2251862643545803
44	0xbfc8fb72c4f53801	-0.19517359368404644
45	0xbfd1bfed9445d0a7	-0.2773393581367238
46	0xbfccca4765ce46d4	-0.2249230620478132
47	0xbfcdbb4901f482de	-0.23227799029793678
48	0xbfcc70a63233cf90	-0.22218778086937307
49	0xbfce574c5a05c91f	-0.23703913112292072
50	0xbfc936bf67db895a	-0.1969832665555014
51	0xbfd11a8b0878e0a7	-0.2672450621353257
52	0xbfd3ba6a2bfe5424	-0.3082528524039978
53	0xbfd75f83251c6173	-0.3652046072397958
54	0xbfd79ae5aa3b4608	-0.3688291704575879
55	0x3fb4c443d5d4c424	0.08111976595388676
56	0xbfccf2652147050d	-0.22614730954050125
57	0xbfbb0182386269f9	-0.10549177052090632
58	0xbfd18acc4e75f007	-0.27409656202485205
59	0xbfd303c770031f15	-0.2971056550854752
60	0xbfcfe96165413eda	-0.24930970615468234
61	0xbfcdbd4fd2360eb6	-0.2323398376866998
62	0xbfd067e8300d3b8e	-0.2563419789557252
63	0xbfc84d2f19e5b0a4	-0.18985546841156975
64	0xbfd4a367b413c3e5	-0.3224734552923663
65	0xbfd1c45093c080c7	-0.27760710171606856
66	0xbfd1612f7be62e96	-0.2715567312195416
67	0xbfd500400b8058c6	-0.32814026950053365
68	0xbfc522b4ea8ac625	-0.1651216645455388
69	0xbfd0fb442f235ad4	-0.2653360805829099
70	0xbfd173963e823923	-0.27267986397136407
71	0xbfcdea4a12a3b97f	-0.23371244344839323
72	0xbfc428120ec195ed	-0.15747285576360018
73	0xbfd1c305f6eeafce	-0.27752827753533615
74	0xbfd02fae7aa98bda	-0.2529102514146736
75	0xbfbd9c15e7b2c37c	-0.11566292673775352
76	0xbfd2f7bc184e6bb5	-0.29637052892365584
77	0xbfb4c5ccb3f4b886	-0.08114318269210416
78	0xbfcffca20df81333	-0.24989724809724975
79	0xbfce8ee0f5fe3cd1	-0.2387353135240802
80	0xbfda2adf3f011195	-0.4088667025828497
81	0xbfd3bc25cfdafefd	-0.3083586244429027
82	0xbfd059f3e0feaf0b	-0.2554902741637625
83	0xbfce0468a3cf2692	-0.23450954435820798
84	0xbfb851daba5abcda	-0.09499899911564871
85	0xbfd26d3bf46ad387	-0.28791712635875694
86	0xbfc6f86e0b1f8000	-0.1794564775764229
87	0xbfd2f7206ef4ea4d	-0.2963334163247609
88	0xbfc08998b455d1ef	-0.1291991119902742
89	0xbfca4bef5280dac8	-0.20544234779818837
90	0x3fca63a6beafe928	0.20616611777206484
91	0xbfd31cb4435eaf89	-0.2986269624623153
92	0xbfc7e6bbff06639e	-0.18672895386114602
93	0xbfc913ea66f1f286	-0.19592027689568087
94	0xbfd68e0996005f3e	-0.3524192776544516
95	0xbfcb3ad8d84e4999	-0.21273336946303514
96	0xbfcd542a8c0a897e	-0.2291310485644082
97	0xbfc909c526388c9c	-0.19561066023115792
98	0xbfc5db2fa6ced79a	-0.17075153012200134
99	0xbfcbcf7c50af36e1	-0.21726945819539537
100	0xbfd0d43d69bbd957	-0.26295409513058615
101	0xbfcc19a921bff967	-0.21953310153908065
102	0xbfd1b1551595c89a	-0.27644850833815726
103	0xbfca7d9f3d8a8684	-0.20695868019997843
104	0xbfd43edd21b80b1f	-0.31633690159667255
105	0xbfd1d28f4aa18407	-0.27847654617477285
106	0xbfb348f37f983e3d	-0.07533189644913647
107	0xbfb67e7e017a4794	-0.08786761795116
108	0xbfd37aded676ac69	-0.3043744177218231
109	0xbfd2939336b62819	-0.2902572664539789
110	0xbfcf7541405133e1	-0.24576583519447495
111	0xbfa22c076cc6d03c	-0.035492164638896345
112	0xbfc966872acc1b9d	-0.19844140615188346
113	0xbfd64b35bae7db21	-0.3483404469729284
114	0xbfcd649b64fa5a87	-0.2296327822738997
115	0xbfd15c73c4d78f00	-0.2712678358350189
116	0xbfd037661832a7b8	-0.2533812748248425
117	0xbfc8e74a398e43d2	-0.19455840883577352
118	0xbfd2c94a6cdca07d	-0.2935358107665776
119	0xbfc7ddf817fa9fde	-0.18646145983552648
