pyTorch/test_experiments/2/regular/models/ow_0.2_24_REG_model.pth (torch, 470675 bytes, 10 tensors)

weight f8 [120, 60]
00000000: 4ada ee7c c41f 73be 580f 0829 67fe 58be
00000010: f05d ecb6 8568 6d3e c5b0 4f18 dc5b 683e
00000020: 6818 5ebd fb71 563e 2048 14bf c9e1 5d3e
00000030: c851 5475 f953 483e 39b3 0e39 1f5b 6f3e
00000040: 24e9 ed96 209a 553e dcf1 8615 3ddc 6ebe
00000050: 9980 ec08 4ad0 64be 202e 9cf7 2fbc 7f3e
00000060: 7c13 9d07 44f3 75be 9a4f 4be9 cd40 643e
00000070: db08 43b9 2d3e 843e 1100 bfb9 df28 6e3e
00000080: 1dbf 832f 0a5f 6d3e b0be bc42 a59d c7bf
00000090: ded9 c3ab 0760 c1bf 4c25 d0ab a8d2 cbbf
000000a0: 1fca 1d85 3989 c1bf 776c 4060 6d57 c9bf
000000b0: 30ca fc60 ab7f c5bf b25f 8d8e fd4c cdbf
000000c0: 077d 4f45 456a c1bf 3edb a7d5 d626 bbbf
000000d0: f433 67ef 2226 bbbf b62f f368 73d4 d0bf
000000e0: 8df4 8f41 313c c0bf a605 a656 5697 c6bf
000000f0: 14cb 8b51 5874 c8bf 4a7a 8cc5 277e cabf
00000100: b9f5 d414 4947 c2bf cad7 65d5 98c0 c7bf
00000110: 1e3f 3787 d2d9 c5bf 7a01 7376 3fdf b8bf
00000120: f340 4d9d 47fa c6bf 8f09 e445 ddf5 c5bf
00000130: 76b3 a89f d580 c3bf ec09 5a07 a5e4 c3bf
00000140: 0c01 9d80 0790 c7bf 66fc de8d dc64 c2bf
00000150: e073 0006 0745 babf ae5a d612 7367 c6bf
00000160: d358 491e 5f9c babf d7b5 010b b503 c3bf
00000170: e4a8 99e7 0277 c7bf 3ce4 5945 1551 c5bf
00000180: 557f 071d 5cda c5bf 34e4 fd89 163e c5bf
00000190: 9b98 4130 1339 c3bf 897e c86f 8360 cbbf
000001a0: dbab 0e25 b11b c6bf 1401 0d5d a529 cdbf
000001b0: 0acf 2004 2bfe c4bf 7904 9ecb 08a3 cdbf
000001c0: efc9 a785 0fc0 b8bf 9d10 dc54 945b ccbf
000001d0: 8de1 2048 0699 b9bf 9541 0e80 532b c4bf
000001e0: 56c7 83ca a6ea 6e3e e27a f2ee 429e 84be
000001f0: 1449 2c03 82aa 7abe 53b1 8858 b20f 753e
00000200: 3ae0 1563 e49a 653e 1caa 5602 096e 77be
00000210: 64ef 1879 d96c 55be 7edb b302 e6ab 673e
00000220: 814d 901f d667 7a3e 006a cef7 c67c 333e
00000230: e041 6a3f ee68 51be 0071 c5b9 1b8a 27be
00000240: e579 f5c2 0c76 773e a70f a94e 8ec6 7bbe
00000250: 76fa 08a2 2cdb 66be f0a2 fd10 c0dc 3e3e
00000260: a8a2 f4d4 9a66 4dbe 9c68 d393 0e6f 6abe
00000270: 1147 8423 25a0 70be 36f8 2b21 83ce 6bbe
00000280: 76d5 f1a1 8701 633e 9651 a0ed fb89 843e
00000290: dc03 1dfa e112 52be c89c db22 e4c0 703e
000002a0: a8fd 0f4f ea52 5bbe 3e38 2950 4cba 6b3e
000002b0: ecd3 a7dd 7ae7 58be 1cf8 495d 4c64 743e
000002c0: bc7e 61a4 46f4 753e 7f5d 38d3 9508 86be
000002d0: f836 b5cd 9177 6dbe 902d 5c34 31cb 3ebe
000002e0: c5ed 77fd 9389 cbbf 56a2 09df c49e 71be
000002f0: 9288 f295 3491 82be 08c4 3378 b2f2 793e
00000300: 7c8f 1409 2acf cabf d475 044d bb17 d2bf
00000310: 7c9d 6ada 8b0b d3bf 302c 956b fa80 533e
00000320: 56a9 7a75 8a48 d2bf 2065 9704 479f d0bf
00000330: 0e40 900e ee83 cdbf f2c8 46c1 d093 5fbe
00000340: ca64 9d4b 831e d4bf 590b 3a95 4b4a bfbf
00000350: 13e2 32d4 42ba bbbf 2072 312a c308 71be
00000360: b789 6b6d 16a6 d1bf 4b07 aa8b ab49 d5bf
00000370: 06bf 7632 44f3 ccbf 0daf 176a 491d 713e
00000380: e609 fc66 aab3 d0bf b0c3 7b4d 3b60 d1bf
00000390: e48f bc7f 5481 ccbf 97bb c7f9 26f7 d1bf
000003a0: b241 1025 19fc c4bf 3ba1 ce26 b0d7 c6bf
000003b0: 6a1a 85d6 9f71 bbbf c0f8 8eb9 4efc c6bf
000003c0: 9c75 7d81 60a8 653e dfc2 976e 6a53 64be
000003d0: fc8b 51cf 5bb4 6bbe fbd2 5a13 9a08 76be
000003e0: 248c 81a6 6897 6dbe 88d8 ecd0 c2b2 7e3e
000003f0: d6c2 f749 20c4 603e a2f4 fdcd b7c4 81be
00000400: 00af aa76 b5fb 05be 4c89 5f1d 0eda 633e
00000410: f2f0 c3fd 9380 6fbe 302f 0414 1af9 44be
00000420: 4432 f7f7 fcd5 833e 180f 78b1 33c6 3ebe
00000430: 0a6a cb59 36c6 623e 431e 4662 bc30 86be
00000440: 2c37 b819 f238 6d3e 9322 44fd 622a 77be
00000450: 9ee0 4ea0 e65b 743e 1055 b1fa 3dda 2a3e
00000460: ef3c fd90 e5d0 763e 62af e2d0 1b2b 783e
00000470: 02a0 d42e 32fb 6f3e 0750 bb68 a47f 7a3e
00000480: 09e7 e139 0d69 713e e8d4 038a 4f16 633e
00000490: 48d7 75c0 e48c 75be 3bfa 2016 4b46 7d3e
000004a0: 63ee e31b eef9 7ebe d416 eccc 8094 81be
000004b0: 51c4 e10a d752 67be b1da c67a 757f 743e
000004c0: b659 1610 8043 793e 8a1d b9c2 c106 80be
000004d0: 70a7 3844 9809 5fbe 11eb 7a4c ecfc 72be
000004e0: da0c 2ab9 0ede cdbf 57c5 68a3 142a 633e
000004f0: 88bc dfc3 834b 513e ac54 4322 57a2 84be
00000500: b8ce c5d3 d2c7 c4bf 674a 94d9 9aa1 cebf
00000510: 4450 52f4 e542 c2bf 78a6 9a83 a87e 62be
00000520: 9a7f 7880 f16e c8bf 3d42 2228 42ca c7bf
00000530: 5bd7 a636 2615 c1bf f451 7e94 c092 823e
00000540: dae2 8260 2bcd cbbf aa30 3b56 c330 c8bf
00000550: d36a 3487 6615 cebf c86b 507c e4f5 7ebe
00000560: 75a4 7e00 abbd d2bf f25e a84d 7293 cdbf
00000570: ced5 3c7f 48de c4bf b0a1 b3a0 9738 6fbe
00000580: bd19 cc86 2c28 c4bf 8db6 f790 ce6c c4bf
00000590: 7a97 bf4c a69d c9bf e93b ffa0 4f7b d2bf
000005a0: e7f0 428c 5142 66be ced3 1029 7403 87be
000005b0: 5c0f 8ed1 41b7 84be 59a2 b8dd 9fbe 73be
000005c0: b9b2 3a1f f695 68be 07ec d481 0876 65be
000005d0: 1e67 e065 2a0b 6d3e 804d f359 d722 213e
000005e0: 1852 a0ed 9270 6a3e 66df 1578 fd67 51be
000005f0: 24ff d72b 6d87 6abe 5a60 7377 eab3 553e
00000600: 8d1f 3da2 82c6 673e 1a49 b9b4 eafb 74be
00000610: c046 4e7e 5a90 73be 84b5 68bf 8d4b 6ebe
00000620: 666a c763 b59e 77be 20a8 d702 d10f cdbf
00000630: c9fd 8239 58f5 cdbf 6222 87d8 47d6 57be
00000640: 9b2d 218e 5777 cabf dd55 b46f 9dc7 d5bf
00000650: 8fdc 822f 46bd d6bf e88d a74a be4c 3c3e
00000660: af17 4905 d1e3 c8bf 00e9 8e96 8abf c9bf
00000670: b0d3 a02b 512a c1bf 30d0 da41 2293 cbbf
00000680: 33db ebe1 b216 c0bf 5429 f31b 2ead bfbf
00000690: ed12 34ae df1e c9bf dd7e 0ed1 0397 c7bf
000006a0: d855 dd4f df96 c1bf 389c 9bd2 5b3f c9bf
000006b0: 4048 882b e33f cbbf 0876 eb84 478f d8bf
000006c0: b64d 8f46 05f4 bcbf 95cb ec55 9a69 c9bf
000006d0: 992a 82de 4ab4 bcbf fff1 718e 41af c5bf
000006e0: 9f73 43e0 6958 ccbf f9f1 d44b 1f4a c2bf
000006f0: 52f2 3df4 350e c3bf e0a7 18ad b9e7 c7bf
00000700: 5180 4d0a c157 cabf 57d8 7d1b 81a5 bcbf
00000710: 215f ba72 335d cebf 24b4 bc49 8f12 cdbf
00000720: 3fc5 22b5 a23d bfbf d016 1b56 1e67 c4bf
00000730: 5bad 9c67 4f5f cabf 5e2c 7e19 7aeb c9bf
00000740: 00c9 355d 6274 cebf 2dd6 40fc a6ff c3bf
00000750: 0e9d 9de4 ae2d c8bf 0754 d6ce 05d1 cabf
00000760: 651f f4ea 5a2b c9bf 8a19 93cb f6aa bebf
00000770: aeb5 ff2b 9c43 c4bf 153f b7d7 c4e5 c8bf
00000780: b821 a87f 0b33 433e f6d0 510e cca9 83be
00000790: eb09 17c0 3e3c 5fbe 96bd 91b0 d426 61be
000007a0: 1009 ddf2 74c7 50be dced 3f8b c960 483e
000007b0: 4e9f ebc9 1383 713e 0c27 94c2 1330 5f3e
000007c0: 30dd ba7e 3b8c 34be a82b 08bd 5c9b 74be
000007d0: c620 9e5a 0ebb 833e 8017 33cb b88e 7f3e
000007e0: fc26 e67b 9cc4 56be 7df5 134a bb51 783e
000007f0: 60c5 12de 8359 2fbe 509f e557 6a5d 7d3e
-7.124279409365515e-08 -2.3277254403513366e-08 5.4777209315493944e-08 4.5371851199603856e-08 2.0903765683286663e-08 2.7829766884270054e-08 1.1328619523836372e-08 5.840499917668909e-08
2.0118485928829405e-08 -5.748180126631563e-08 -3.87684063656121e-08 1.1822248593642089e-07 -8.177107871122992e-08 3.77244166232175e-08 1.5082124760728183e-07 5.617675144465814e-08
5.470821479332365e-08 -0.18449846037537077 -0.13574310194935796 -0.21736629857358947 -0.13700026511976746 -0.19798056793010563 -0.16795866237369372 -0.2289120622688166
-0.13605562099744636 -0.10606138912394855 -0.10605066628268373 -0.2629669690038513 -0.12683692647252479 -0.17649344664463945 -0.19105056745282722 -0.2069749559968435
-0.14280046002560967 -0.18556509418311712 -0.17070991136869734 -0.09715649263217144 -0.1795129316401539 -0.17156568443904205 -0.15236921592568436 -0.15541518076868444
-0.1840829256052604 -0.14370304992005173 -0.10261577507522146 -0.17503202838698456 -0.10394854058663165 -0.1485506347411689 -0.1833194380627169 -0.16653695951734615
-0.17072631280370368 -0.16595727670554228 -0.1501792894006869 -0.213882855970031 -0.17272009190978008 -0.22783343356605512 -0.1640065927655246 -0.23153791372536484
-0.09668061268875026 -0.22154478210007236 -0.09999121914814264 -0.15757220986098433 5.758666904606806e-08 -1.5361762659579783e-07 -9.933876369782937e-08 7.845951278317015e-08
4.0242536756879574e-08 -8.72828996497728e-08 -1.9953766255820394e-08 4.4091564477551685e-08 9.83685665287132e-08 4.537266448755086e-09 -1.6214219268066303e-08 -2.740356787123529e-09
8.739952827216762e-08 -1.034722065052829e-07 -4.2572896545308906e-08 7.1856905008267285e-09 -1.3690814397604638e-08 -4.923681949107361e-08 -6.193506230472088e-08 -5.179399322449775e-08
3.5401388703244874e-08 1.5302747763456854e-07 -1.6832501287996634e-08 6.241158053873731e-08 -2.5447353505651207e-08 5.164691609505106e-08 -2.3193860923841204e-08 7.596533830621468e-08
8.178577912262065e-08 -1.6416263691539996e-07 -5.488669226981435e-08 -7.169721543688199e-09 -0.21513604999914385 -6.564032851433439e-08 -1.383364844664376e-07 9.666396576562207e-08
-0.20944714969038702 -0.2826984645961066 -0.2975797303174301 1.8164348890720466e-08 -0.28567754242489707 -0.2597215218389284 -0.23058868132693572 -2.9408749284504303e-08
-0.3143623579431504 -0.12222740548354007 -0.10831086807855454 -6.345744423111813e-08 -0.27576218305162165 -0.3326214660556743 -0.22617390121512687 6.375611374232255e-08
-0.2609659200390112 -0.2714985138582575 -0.22269684064042317 -0.28070997612570053 -0.16394342717877702 -0.17845727820282228 -0.10720252024939617 -0.17957481441948708
4.0340651873424596e-08 -3.7859832446065194e-08 -5.1603700792328926e-08 -8.208156007211849e-08 -5.511835327110466e-08 1.1436002387847455e-07 3.1229327786854356e-08 -1.323851170873587e-07
-6.397964218604834e-10 3.697681776029124e-08 -5.8677528365679886e-08 -9.766339404314179e-09 1.47788906430795e-07 -7.165182911841599e-09 3.496979703527656e-08 -1.6533117376211737e-07
5.443104386322249e-08 -8.629848419564658e-08 7.584313983690969e-08 3.1260433872908347e-09 8.499623427065362e-08 9.003428067211075e-08 5.956969127202855e-08 9.871498656981223e-08
6.48586379897579e-08 3.555258954068468e-08 -8.028136743394669e-08 1.0905632089138045e-07 -1.1539567077231277e-07 -1.3098187997427827e-07 -4.344357883233638e-08 7.636057714516797e-08
9.41145153115622e-08 -1.1940594056763264e-07 -2.8905905459303543e-08 -7.073574003871859e-08 -0.23333915749763073 3.5696434631444914e-08 1.6107204674152304e-08 -1.5373633844318257e-07
-0.16234813061202202 -0.23930678962695426 -0.14266657285463868 -3.444917280371913e-08 -0.1908857228563619 -0.18585993728312813 -0.13345792454281988 1.3838150380848813e-07
-0.21719877445663976 -0.18898812971599926 -0.23502809144777945 -1.1533691608759269e-07 -0.29282641456899877 -0.23106221000556776 -0.16303354466223968 -5.815376277214911e-08
-0.15747601110360945 -0.15957052305696032 -0.20012358424645155 -0.28877630922664693 -4.146072421623441e-08 -1.7146387113064238e-07 -1.543450956175904e-07 -7.355446689976724e-08
-4.579459647372381e-08 -3.997435292021639e-08 5.40979498838216e-08 1.994904421864794e-09 4.924785708418396e-08 -1.621079759791755e-08 -4.941413099188018e-08 2.0212304244243082e-08
4.4285190874267264e-08 -7.817167818031028e-08 -7.288113541687281e-08 -5.6429080009692235e-08 -8.799119028490116e-08 -0.227045179736991 -0.23404982383907072 -2.219996767126966e-08
-0.2067670291893194 -0.3403085318435311 -0.3553023780800197 6.5890556712815e-09 -0.19445240743715206 -0.20115787841297816 -0.1341039145496814 -0.21542766776622235
-0.1256927111750997 -0.12373626882905359 -0.19625469213510574 -0.18429610927431997 -0.13741675758016814 -0.19724605353914781 -0.2128871882019343 -0.3837450788540484
-0.11309845898295276 -0.19853524394565328 -0.11212604458175192 -0.1694108911068639 -0.22144816828122502 -0.1428870315811677 -0.14887117792013044 -0.18675919486969317
-0.2058030414873451 -0.11190039559537134 -0.2372192678637868 -0.22712889767117972 -0.1220342342592362 -0.15939692692170704 -0.20603363570385622 -0.2024986862637403
-0.23792676497721033 -0.15623938862852196 -0.18889413988947762 -0.20950386619065872 -0.1966355941042323 -0.11979620428164686 -0.15831329487211349 -0.194511990861877
8.940414621315798e-09 -1.4650277716281345e-07 -2.9090170277634447e-08 -3.1947498931794616e-08 -1.562678091723388e-08 1.1351925933981244e-08 6.52373608290623e-08 2.9045903603348622e-08
-4.784153500163834e-09 -7.676662439768748e-08 1.4700507949502732e-07 1.1756087552318769e-07 -2.1204364258843997e-08 9.059631846452301e-08 -3.6495817345530715e-09 1.0939279169107911e-07

bias f8 [120]
00000000: d14d 8cfa 603a c8bf 0a7c 4c8f e795 c2bf
00000010: a68e 0dd9 13f3 c6bf 11c9 d6ef 798f bdbf
00000020: 5d96 2359 9296 d0bf ff3f 1151 3b85 c5bf
00000030: 3ab3 aba2 1fe4 cfbe 1eee 6504 dd94 d2bf
00000040: 600c 0568 114a d4bf 5650 0448 953d b8bf
00000050: c606 a8b5 96bb d3bf c271 df82 1f4b d0bf
00000060: a65e 2da5 1213 d3bf c952 698b 7dd2 cebf
00000070: 4672 fa5c 5a47 c9bf b1f6 ef77 08dc cbbf
00000080: ca2b 2271 e5e2 cdbf f2db 299f 6594 d3bf
00000090: 7a25 db83 1abd c8bf 527e ef28 a834 c2bf
000000a0: 0a24 b8cc f9b1 cfbf a048 b11b 1145 b0bf
000000b0: 794f 370d cc97 d1bf c189 b1bc 239c d4bf
000000c0: 83e6 08c4 a0b6 c9bf 39fd f6d4 8be0 d1bf
000000d0: c742 de38 e131 d4bf f214 ebe6 a409 80bf
000000e0: cc9a 1bd0 a981 d0bf ec8b d8d5 b31c cabf
000000f0: a1ee 22e9 143f d3bf 6a90 7b0c e259 cebf
00000100: 5947 f3ef 8397 bbbf 0127 8c84 25f9 cebf
00000110: e626 33dc 5f95 cbbf 7b27 e478 71e3 d1bf
00000120: a2bb 968a 0044 cfbf c35e 5f4c 0e87 cebf
00000130: 8208 a3ef d413 d6bf ec98 fb2f 150a cdbf
00000140: a4a1 693e 0dc4 cebf 9452 3f8e ca30 d3bf
00000150: 27f7 6e29 3e1e d3bf 8923 97bd 0276 d2bf
00000160: 0e52 2b5f 2332 d8bf 4939 4b5f 7993 cabf
00000170: 48d0 8585 cad7 d2bf 8596 6992 03ba c3bf
00000180: eae0 8c87 84fd c8bf 049a a3ea 333c afbf
00000190: 19a4 334b 06ed b43f 8eb4 1383 dab1 d0bf
000001a0: e3bf 7ece c012 d1bf 6ad4 e5ea 7f92 d1bf
000001b0: f410 fb90 12cb a7bf e5b9 09f4 961a d1bf
000001c0: 52ff ea76 77cc d0bf 6e66 55d9 db20 cfbf
000001d0: 3977 6c3e 2d46 d5bf f87a e603 f8bb cabf
000001e0: 2cef b89d 7951 d1bf 4eea e996 6a18 cdbf
000001f0: c0e6 a92a 7282 bebf abd2 ebf6 1b89 d2bf
00000200: 7f14 bc0b 049d cebf 99f2 b6df 4488 d1bf
00000210: c81a 841f c032 d0bf 6f5c 948a 73b5 d2bf
00000220: 7c00 8a67 06fb acbf 0b9b 96c5 9dff d3bf
00000230: bff6 fdbe d42e c2bf d3d5 6187 240b d1bf
00000240: 7f33 1693 dcb9 d5bf fb0f 4a95 d3a9 c1bf
00000250: cab0 5988 410c d2bf 8f36 002c d269 d1bf
00000260: 4271 be1f 6f8e c8bf b63c 1360 91c7 cfbf
00000270: 3f4d e8b3 e8de c3bf cf0a f8f4 b503 c5bf
00000280: 0a2e be02 16ea c7bf 7fca 384d 152f d7bf
00000290: f05b c9c9 6189 c4bf b09e 81e9 ebd5 c9bf
000002a0: ba2a 20ef f7df cfbf 393c 3a8c fab3 cbbf
000002b0: d1a3 b28d 8bf6 c8bf 6146 365d 1d5e c43f
000002c0: 6f42 b8a8 2ab4 b3bf f485 c648 d76c d3bf
000002d0: e36c d3ca 04ad ccbf 83b1 8b16 2fa4 c7bf
000002e0: a4ee 4350 ec1c cabf 180e 2fd3 e728 98bf
000002f0: 77ab e56a 8ce1 8fbf 7e61 fcb8 2525 bcbf
00000300: a6b4 4bf8 83c9 e33f 2919 c7dc 67b1 d0bf
00000310: 795c 9206 7ee7 cbbf bda3 f71a 041a cebf
00000320: 6fb8 e268 71d7 d0bf 939d d0bf e396 c0bf
00000330: eb30 4463 15b2 c0bf 8ad1 7b2f a053 c7bf
00000340: b8ea b8ba f3c1 c2bf 5bae 232d a6a8 d2bf
00000350: 3f37 e6f7 0d49 c2bf 19a7 f0b6 2be9 c3bf
00000360: c14c d679 092c c9bf 50a4 8d1f 3479 93bf
00000370: 7fde f85b c3c3 bebf db29 eec9 ab3b cfbf
00000380: 370a b560 917d d1bf f935 90a8 949a ccbf
00000390: 25da 4a0b ec2b cfbf 7bbb 8c78 8eb1 cfbf
000003a0: 60da cc46 b87a ccbf 1673 ecd0 cb90 c3bf
000003b0: ae6c bd2f 9b56 ccbf d32f 2b0b 2a42 d7bf
-0.18928158029358014 -0.14519972321519986 -0.17929313753403625 -0.11547052483982535 -0.259190165567224 -0.1681284089886503 -3.8017162940967604e-06 -0.29033589772709145
-0.31702075155425824 -0.09468968399261377 -0.30832450618627794 -0.2545851495795227 -0.2980391133364527 -0.2407986574859449 -0.19749002017933232 -0.2176523767120009
-0.23348682426543937 -0.30593243163406136 -0.19327098310740692 -0.14223196028523205 -0.24761888977107588 -0.06355387617193964 -0.2748899582922984 -0.32203000475979243
-0.20088586399088024 -0.27933021352142223 -0.3155444197991923 -0.007830894753519922 -0.2579140217116389 -0.2040009302300797 -0.3007252003405743 -0.23711801156526074
-0.1077806912246876 -0.24197834941906396 -0.21549604656166038 -0.27950703435691765 -0.24426275984793927 -0.23849657754066386 -0.3449604358867263 -0.22687020152006399
-0.2403580240964064 -0.2998529805311503 -0.29872087522731977 -0.2884528018444646 -0.3780601910960123 -0.20762555268306418 -0.294420843499442 -0.15411419533773
-0.19523674601237612 -0.061006185905899485 0.08174170814494665 -0.26085531998143885 -0.2667696014932501 -0.2745666307376441 -0.04647119540962477 -0.26724790412745697
-0.26247965443689225 -0.24319027053825287 -0.33240824791015516 -0.20886135282940876 -0.27059784319475244 -0.22730762833437484 -0.11917794744104082 -0.2896184836711579
-0.239166742067173 -0.2739422020638727 -0.2530975635312811 -0.2923249104800964 -0.05660266889481222 -0.31247658057911626 -0.1420541699007369 -0.2663050958720678
-0.33946909297883815 -0.1379951933814708 -0.2819980460688042 -0.27208380028682994 -0.19184674310680278 -0.24827782813233562 -0.15524014267485062 -0.16417574368832397
-0.1868312371628778 -0.36224873105235383 -0.1604425654684003 -0.20184086705852655 -0.24902247596795296 -0.2164300141052722 -0.19502396029318317 0.1591221528183722
-0.07696787470946174 -0.3035181246469556 -0.2240301123009437 -0.18469799614775803 -0.2040076629563049 -0.023593542351376312 -0.015566918384782842 -0.10994182363754665
0.6183490609670528 -0.2608279853851792 -0.21800208397755563 -0.2351689464260555 -0.2631495975755404 -0.12960478654825333 -0.13043467852583687 -0.1822395545820082
-0.1465439473848471 -0.2915435257734537 -0.14285444836098724 -0.15555330689067473 -0.19665640305593082 -0.01901704256616582 -0.12017460818685242 -0.2440085159290238
-0.2732890552908062 -0.22346742849951776 -0.24352789451013837 -0.24760609518258633 -0.22249511200944294 -0.1528563280234258 -0.2213930113892721 -0.3634133442944833

weight f8 [120, 120]
00000000: 47ca a0b7 a9d0 cbbf 03ee a8f4 321e 6e3e
00000010: fcd5 a4f9 7ed7 72be cbc8 3b38 02fc d1bf
00000020: 47f0 1718 3953 723e 26b4 a5b7 5f89 d1bf
00000030: caaf 1561 6328 693e 7ac9 5491 bbab 77be
00000040: 1f10 c100 eb03 723e 220c 8621 b569 733e
00000050: 9fc5 2c6c 9e38 723e 5636 ee10 4770 77be
00000060: d4b6 23eb adaf 663e 0889 9940 935d 4b3e
00000070: d089 52da 9584 44be 54cd bd36 7dd7 563e
00000080: c639 1b56 1bac 5b3e 75b1 5eb9 9ad8 69be
00000090: 1d3e 581b d4ea 71be fa14 7a88 7288 6dbe
000000a0: 20b3 01d5 101d 6bbe 3e25 484a 82fa 70be
000000b0: a3ef 170f d24c 70be 40ef 2ea9 b1af 35be
000000c0: 347f 3ec2 b18f 5abe 087e 26bb ca3c 7bbe
000000d0: 2692 8990 0693 50be d89a fcba 5e8d c93f
000000e0: 76cf 93cb 4b88 7dbe 407e 28b1 f700 513e
000000f0: 508f cda0 a142 58be 73fe 0852 1098 69be
00000100: 6640 d0f8 33b2 563e 7ac6 24e8 b084 6dbe
00000110: 1886 4cef b3a7 5dbe 097a 8df6 32e7 733e
00000120: da10 4b5d 6949 6abe 4c90 33a6 c71f d0bf
00000130: e0c8 e676 6883 c7bf 95db 63ff adf1 693e
00000140: 7708 09ad 09a0 c8bf e4b2 5a32 dd3d 6abe
00000150: 4838 9c7b d73a 523e 5068 c139 f6c6 583e
00000160: 5669 76cd 9f49 78be 66b1 d9fc f387 6c3e
00000170: cde4 3b60 3ec1 7cbe ee34 1d19 b3ab 66be
00000180: c759 e01e 56df c6bf 7a1b 6b5c 999c 5a3e
00000190: c5f9 ddc2 b8ea cbbf 62de a181 2bd2 723e
000001a0: 281a cad6 6c39 68be 36e3 457d 9fb7 5a3e
000001b0: 63a8 ae59 51c4 c5bf 7fe6 8df9 5b4c 74be
000001c0: 8b24 2e67 384c 7cbe 8cca f294 e294 40be
000001d0: 55e0 0441 a43b 78be e3a6 532a ffca 6d3e
000001e0: 677b fa98 eb11 64be e28f 190b 772b 763e
000001f0: 54a3 3134 ce6f cbbf 24a4 2872 7be6 513e
00000200: 5630 d61f f04c 7e3e 2ccf f58b 2a90 d0bf
00000210: c415 13d5 281b 7e3e 80c1 74ba a74b 6d3e
00000220: c2ac c4ea 3e2e c7bf d86c 01c3 98e5 52be
00000230: c00c 8783 76d3 113e 0ac0 3f5d 7a5c 633e
00000240: 1e48 79a2 a8ea 72be 6e09 b573 8308 5bbe
00000250: d07f 98e4 c55f 60be a7ff f7c0 5e53 783e
00000260: 5a04 7c92 54ce 71be b057 1427 e751 66be
00000270: b67c cbe9 a595 54be 8ca0 d8d4 8ab0 c6bf
00000280: 4dc6 847d 9174 723e eeb3 baf7 7613 78be
00000290: 2d64 f96f 3e4b 67be 600d df47 41f9 4fbe
000002a0: 1ee0 9692 fd7e 653e 7532 9c49 f589 6abe
000002b0: 40d4 e67c 044e 703e 2722 bb37 2dac cabf
000002c0: 3acc 2368 e952 c6bf 1795 5088 0ee2 6cbe
000002d0: acbe 5b86 cd5c 49be 24b4 f19b d489 733e
000002e0: 307b 2d39 66c6 70be c2bb 90bf d4b7 64be
000002f0: dac3 7c7a 56eb 733e 920a 1f88 b5c9 573e
00000300: 2f8b 7130 ca09 cabf 282c 02e3 c870 393e
00000310: 4102 e8b2 a972 6c3e 18ce 34fe 3b66 63be
00000320: 8807 3020 54ca 71be 2c5d 71bd ea43 68be
00000330: fac0 daef d70f 653e 48c6 af15 1e18 c83f
00000340: 726b f43a cbac c8bf e82b 5ce8 a0d8 51be
00000350: c71b 2c19 d666 63be 88df 1db3 761d 6c3e
00000360: 20cb 0f64 a07c 36be 2e4d c3b7 668e 68be
00000370: c2d1 9cc0 5df8 6c3e 18d5 b639 df0c 6d3e
00000380: 1cd8 00c5 cd29 783e a070 611a e680 6a3e
00000390: 8cc4 72fc d50c 56be 74e4 ce5b c26e d0bf
000003a0: ca19 8b7f af6c 73be 46c5 4323 c42d 6a3e
000003b0: a93c 87d6 ca9d 5b3e e71f c137 699a 693e
000003c0: b2cd 6d71 f208 5f3e 80b9 85b6 513a 723e
000003d0: e6c6 5ae6 4e22 783e a022 ee80 8b27 6e3e
000003e0: b022 a195 0e34 cbbf 63e8 9630 1276 76be
000003f0: 42a8 09f0 d2bb 71be 4c1d ba54 4de1 d0bf
00000400: dff9 8705 48d8 c8bf 0086 7900 7846 353e
00000410: 2597 4556 2384 c63f 224a bb56 479b 533e
00000420: 8aba 4078 1af7 72be 96c1 07b2 25f2 ccbf
00000430: 6ebc d7d3 06e7 763e a96e 633b bf9a 703e
00000440: dd59 5de6 84cd d0bf 277d 9d35 0a34 babf
00000450: 18c7 cb67 4196 ca3f 00c0 d66a 9097 b63d
00000460: d121 ac27 8c17 5ebe 90d6 48e7 64bf 79be
00000470: 0b65 f74d bfce 7bbe 5d71 c754 8476 cc3f
00000480: 5de6 2d25 1cfb 7ebe b08f 901f 827a 42be
00000490: e93c 424a be10 71be 1d8c c29f afd4 d1bf
000004a0: 4284 d95c 587e 793e bc62 e49f e6d9 40be
000004b0: ecfc 01bb c02c 96bf c442 25f0 05a3 6cbe
000004c0: 787d ce10 207b 52be 420a fddf 2226 cfbf
000004d0: b5ce 413e 368f cbbf 9022 c95d 8a3d cebf
000004e0: e07b 25c5 b616 6cbe 4a55 54d4 40bd d2bf
000004f0: f953 5a4d 21c7 d5bf 3011 5b96 ed1c d3bf
00000500: 64bf e57e a5c2 d1bf d707 ff66 403a cbbf
00000510: 4516 3215 6ec2 cbbf 65fa 4370 789f c93f
00000520: 9526 1efb 7d31 c4bf b97e a6c2 f554 a23f
00000530: c0c7 fbad 6dcd 4b3e 7c17 f928 dd97 6d3e
00000540: ee8a 6a26 b377 d0bf f45f 11c0 75e5 cbbf
00000550: eb15 07b2 5b0f d2bf 1b07 26b0 b179 d8bf
00000560: 1116 c553 6ffb c9bf f5f8 04dd 9808 cfbf
00000570: b4d7 3ff3 03c0 d5bf 2016 feb7 ac6a 2e3e
00000580: 2080 f5c1 77c7 4bbe c6db ba3b 6f1f 653e
00000590: e5d6 82ff e3da 62be b6eb 8b64 8517 77be
000005a0: 8c01 2b68 548b c83f 138c d813 4878 62be
000005b0: 11eb b715 8bf1 cbbf 1345 990c 809c cb3f
000005c0: bbe4 0726 740d 8e3f e38a a90b 9cb4 d7bf
000005d0: 1dd6 040a b33f 79be fce5 9bd2 7a02 cdbf
000005e0: 3c9e 0c20 b71d d2bf 329b 2107 7089 753e
000005f0: be62 7673 9369 723e 76d9 18e9 0c6b cd3f
00000600: 1d1f e093 b242 7abe e13d 6906 a62f d13f
00000610: 0b11 a308 8173 673e 2e18 7e69 83d7 683e
00000620: 3d8a 0965 9aae cbbf 184f 1c71 e63e 4cbe
00000630: 120a c569 5f7c 71be 3b52 6918 4af8 d2bf
00000640: c011 e40a 06ff cb3f 2681 d114 3e46 c8bf
00000650: 9a40 b757 8172 5c3e f0cf fff8 cebe 563e
00000660: 08a1 3454 d3b7 cc3f 3825 cee8 9a0a d3bf
00000670: 8c4c 17fa e7c7 403e 464d 7ea7 7153 cbbf
00000680: b192 1493 bc03 d3bf 5c6c 5b7d 649f 663e
00000690: 6446 d083 1459 693e 425c 6147 395c ca3f
000006a0: a591 a905 8f55 d3bf 7a11 14a5 0730 60be
000006b0: 2af1 6169 0ef5 62be e891 b9fd 9cdd c23f
000006c0: 00b4 8f19 02d9 6e3e cd1a 6eb1 a2e6 80be
000006d0: 09df d10f b88d c53f 5c90 40b7 2ef9 c3be
000006e0: 83b2 6f34 9ba7 cc3f d82f ceb0 5618 6c3e
000006f0: b42e cbec 8518 703e 955c 53e1 43b4 c33f
00000700: 9c74 fe84 27fa d3bf 3310 e641 f255 d2bf
00000710: 9322 5428 842b d5bf 4296 6b3c 7cdf 6fbe
00000720: 71ee bf52 cb5a d2bf 6220 cda3 9c96 7abe
00000730: 12ef 13f6 176d 773e a670 d395 8263 6a3e
00000740: 782b c5b9 c01d c9bf 9286 fc34 c6ac c7bf
00000750: 71c6 1042 1a0f 7d3e fd5f 02f0 30cc d3bf
00000760: 2dd9 84a9 b27b ce3f dd51 47f1 9cdb d2bf
00000770: 695a 7402 0e5f c13f b1b0 8eb1 63e2 b73f
00000780: 6324 2ec2 f529 d4bf 7255 ec3f 1077 77be
00000790: 0eb3 5434 b543 6f3e f0cc 0a5c df6d c8bf
000007a0: 883a 1d69 e24c 553e 3ad1 22ec 3b09 d7bf
000007b0: a0f0 a506 613c 5ebe dee7 ad7e a116 75be
000007c0: 3e5b a203 3f7c 72be 9466 b542 fae4 703e
000007d0: 8e3c 04fe 6dca 5b3e 6087 712c 9a0c 713e
000007e0: c3aa 6a0b f7ca 6abe 809e 471e 290e 2abe
000007f0: 7e92 65e6 a2ca 6f3e ee7f d604 f805 6c3e
-0.21730538812842523 5.609908145352913e-08 -7.019110484926875e-08 -0.28100638858371657 6.82662797609779e-08 -0.27400963720612237 4.685999156314331e-08 -8.818071635801046e-08
6.711223948888728e-08 7.231876287230824e-08 6.787913790493382e-08 -8.73155310122701e-08 4.2256428927024246e-08 1.274306706266346e-08 -9.554397115763429e-09 2.1273041480663574e-08
2.577183034237764e-08 -4.814213309888241e-08 -6.674714011383149e-08 -5.50094947900795e-08 -5.05029001958856e-08 -6.325002972081123e-08 -6.072253080213759e-08 -5.04923626775314e-09
-2.4737144013416338e-08 -1.0146747689851145e-07 -1.543603736705514e-08 0.19962677126132777 -1.1001678758612784e-07 1.5836003683832113e-08 -2.259414526600656e-08 -4.7672538143209996e-08
2.113739543471619e-08 -5.498216372675263e-08 -2.7618454151385813e-08 7.414490500515644e-08 -4.896291342295921e-08 -0.2519396899281261 -0.18369775586831505 4.832457982551711e-08
-0.1923839659594397 -4.8878894082703645e-08 1.6977871309400082e-08 2.3075560670909763e-08 -9.047834070020517e-08 5.314325300380264e-08 -1.0712019365620939e-07 -4.2227472309318436e-08
-0.17869068629870652 2.4784091024931288e-08 -0.21810063853258846 7.011360062143524e-08 -4.512130655659048e-08 2.488240354164829e-08 -0.1700536430265088 -7.561697968989608e-08
-1.0541728005636244e-07 -7.721400989380098e-09 -9.027486691938159e-08 5.549370500088249e-08 -3.738329034979565e-08 8.258888575248851e-08 -0.2143495325902004 1.667097316630809e-08
1.1287830400090183e-07 -0.25879920642840903 1.1215393171383223e-07 5.456717327501943e-08 -0.18109880889219282 -1.759907436480285e-08 1.0376113424288094e-09 3.606312373716492e-08
-7.046995930654202e-08 -2.5176681390080843e-08 -3.0499162817021504e-08 9.062016225608198e-08 -6.633243698416034e-08 -4.15741156034003e-08 -1.9170868103816723e-08 -0.17726264374619338
6.875151770527906e-08 -8.969021608280681e-08 -4.338830983099227e-08 -1.4888892115630321e-08 4.003952576041106e-08 -4.9432551564326234e-08 6.073994927062202e-08 -0.20837941380729427
-0.17440526566460496 -5.379884363718445e-08 -1.1810339549622133e-08 7.27862134884194e-08 -6.24917347153222e-08 -3.859044989844184e-08 7.420513148112283e-08 2.2154232677332466e-08
-0.2034237610378908 5.923343191056672e-09 5.2988346477965064e-08 -3.6134110615456654e-08 -6.627420394425319e-08 -4.5197644454078916e-08 3.923082479479002e-08 0.18823600825230558
-0.19277325037623033 -1.6620573826122973e-08 -3.6138490552539576e-08 5.2368440596938467e-08 -5.235621326228529e-09 -4.5739588978898784e-08 5.3961166270052946e-08 5.411036526783309e-08
9.001529233183482e-08 4.936663637662706e-08 -2.0535793312976367e-08 -0.25676020589487014 -7.236209843405611e-08 4.8761766542862895e-08 2.5719754688694993e-08 4.7689616672829454e-08
2.8903548966947574e-08 6.790388130059316e-08 8.990621721651714e-08 5.616708175562211e-08 -0.21252615266918928 -8.367454653368155e-08 -6.606313363859943e-08 -0.2637513472950175
-0.1941003825194931 4.953534478084622e-09 0.1759075328110892 1.8260029418049047e-08 -7.065105306410721e-08 -0.22613974755178096 8.531826708296085e-08 6.185651000043697e-08
-0.26254389282749263 -0.10235656556095717 0.2077104336563529 2.0547347397694218e-11 -2.802534247294769e-08 -9.591740896753275e-08 -1.0359140700053294e-07 0.22236684932330322
-1.1541283954736777e-07 -8.604744460424599e-09 -6.357358245584297e-08 -0.27860632516439116 9.497082161795108e-08 -7.846939983683675e-09 -0.021655093587921323 -5.3340214039637736e-08
-1.7211733416655606e-08 -0.243351325387339 -0.2153079799642136 -0.23625306681994518 -5.2319329884744795e-08 -0.29280110106750057 -0.34027893594731 -0.2986406296079336
-0.27750527756051313 -0.21271519688713056 -0.21687103304809532 0.20017915231433672 -0.15776037942514579 0.035804443369895585 1.2946526905630492e-08 5.512166467414199e-08
-0.2573058962972671 -0.2179400623160742 -0.28218738923564385 -0.3824276180458683 -0.2029856833488997 -0.24244986335720112 -0.3398446917993809 3.5409696840829973e-09
-1.293568457791345e-08 3.9344264260989356e-08 -3.51202515415196e-08 -8.602395341540734e-08 0.19175200544669868 -3.4402776166274336e-08 -0.2183088165328049 0.21571350684329413
0.014674098406418748 -0.3703985322846803 -9.405920531755199e-08 -0.22663817676202302 -0.28306367997945237 8.023107670035986e-08 6.859155809167831e-08 0.22982941991513045
-9.782812512859057e-08 0.26853323579868343 4.36812409173569e-08 4.62715494245543e-08 -0.21626596387348399 -1.3152930775378099e-08 -6.51397961725497e-08 -0.29640438445975165
0.21872020274908088 -0.18964363113901433 2.649359974270679e-08 2.118325387319523e-08 0.22435990916825 -0.2975222848404715 7.814207783369047e-09 -0.21348400762927094
-0.29710306514088375 4.2137926632115595e-08 4.721427202687135e-08 0.2059394453560533 -0.30209708741156255 -3.015178563252526e-08 -3.531063190538154e-08 0.14738809956465038
5.745829696050423e-08 -1.2592166661833224e-07 0.1683874203915752 -2.3810111376022487e-06 0.22386493740431854 5.233115105756276e-08 5.996150349433935e-08 0.1539387560103235
-0.31214321124736855 -0.28649574695032526 -0.33078102053017594 -5.936806917408849e-08 -0.28679164010075114 -9.904923898879656e-08 8.72691976634125e-08 4.915280514005556e-08
-0.19622048445520668 -0.1849601515505595 1.0825318998220545e-07 -0.3093378394928548 0.23814996030132232 -0.29465411722529017 0.13571333999489646 0.09329817852875767
-0.31506103480257347 -8.741427846529843e-08 5.823463892560911e-08 -0.19085304254767932 1.9837477944438484e-08 -0.35993860302120917 -2.815933478884663e-08 -7.856041832162025e-08
-6.886324480297573e-08 6.293670711445742e-08 2.588214431756547e-08 6.351332181153067e-08 -4.9905538747804025e-08 -3.033237871151189e-09 5.921637296033195e-08 5.219749308759009e-08

bias f8 [120]
00000000: e434 2e91 ba6b c9bf e854 1342 3ee9 d2bf
00000010: f952 e274 e8a4 d1bf a51d 4555 75ff c8bf
00000020: 9ddc a240 7ea1 d0bf 1780 c7d5 b4c9 dcbf
00000030: d25b 078c ec15 cfbf f26e 2359 9b77 d6bf
00000040: cc06 119e 0e7c d1bf 00dc 4cbf 0860 ddbf
00000050: ae91 36ea 86cb cdbf f32a daae 598a cebf
00000060: 57e2 deb2 aab4 c9bf 1f5a 19d7 2ec8 d5bf
00000070: d51e a932 e187 cfbf e107 0745 c1a8 e1bf
00000080: de5e 9ccb f273 d9bf 6ca5 140c 060e ccbf
00000090: 74e6 6e45 80fe cdbf 6d7e 2e56 a021 cebf
000000a0: e6d8 ccac 4ae9 d2bf 9dee cfab e376 cabf
000000b0: bada 042b a9bf c4bf bdc1 47af 9a8d c4bf
000000c0: 27a2 362e a912 e2bf 6a5b 614e 2456 b0bf
000000d0: e299 36e1 3f48 dbbf eb78 bb26 7e39 afbf
000000e0: 6d55 b22e f82a cdbf 2036 ce6b a7e4 cdbf
000000f0: 3694 141d f373 cfbf 0d09 e034 cf26 e3bf
00000100: c05e e2e7 4f8c c8bf 9ef9 7557 40ed debf
00000110: 3fc2 6f39 5f5a d1bf 4c93 dc8a ec6e dbbf
00000120: 929f a208 58d6 d7bf 4f14 59bf 5c29 cbbf
00000130: c36a 3bfb e1d2 d2bf 3b7f a3e3 bfeb cebf
00000140: 945d 4471 f4f5 cbbf 9b9c 99d0 f85d d7bf
00000150: 3a06 a549 edc8 d2bf 41d7 5b65 04f1 d0bf
00000160: 4022 67cd f097 ccbf fd22 665e 5fb9 e0bf
00000170: d47c 9b90 543f c9bf 576c db19 cd65 c3bf
00000180: 2a84 5ca9 bbd2 ccbf 566b 166f b1e1 d1bf
00000190: 8925 d734 fe22 c4bf 43f2 8ae8 a654 cbbf
000001a0: 083b 7d96 187e c9bf 8615 eabe 4247 e4bf
000001b0: da53 ed60 5f42 d5bf dda1 1886 83ab d0bf
000001c0: d3cb 6093 5366 e0bf 0e3e 229d ab97 e3bf
000001d0: e476 0599 7393 dbbf 6ec0 952a c9c6 d4bf
000001e0: 37bc a3bf a9c6 dcbf ac7d 85b3 f02c c7bf
000001f0: e9a4 d283 27d8 cbbf cb60 04a9 220f d9bf
00000200: 5bed 195f 533e d2bf 9958 1ea2 fa03 dbbf
00000210: 0573 8379 ae92 e0bf c917 45a0 14da d7bf
00000220: 155b ebee 9875 d6bf f351 4551 8124 c7bf
00000230: 4532 8255 100f dcbf ddd3 e8ff 629b cdbf
00000240: ac30 0bf1 0e86 dcbf dd31 e187 343d d2bf
00000250: ac05 4432 adc4 dbbf 0912 deea 9248 d0bf
00000260: 88eb 75ee 5283 aabf 08c9 6987 73f8 cabf
00000270: 833b f8a8 c550 cbbf e484 e40e 4725 c8bf
00000280: 20fe 7fa1 5459 c7bf dab9 ad7e 3bbc c0bf
00000290: 4542 e821 73d4 c8bf bae8 ece0 2c36 cdbf
000002a0: 8b67 21b5 f3ac d6bf 38d5 7225 d849 cabf
000002b0: 8dad 5433 3206 e2bf 4259 764a 58a8 d2bf
000002c0: c17b 860f cffd debf 6d72 b875 47a8 cdbf
000002d0: 54dd ab26 67da cfbf aaa8 6ee9 a008 863f
000002e0: b28e 30cd fa38 b3bf a3b9 480a a98a d5bf
000002f0: efa6 3d20 5c3e cebf 1bcd db63 a7a6 c7bf
00000300: 8dc8 2590 ba5f d5bf b6f0 e5b0 2b33 cebf
00000310: e7bb 269a 762c ddbf 23bd a138 48e9 d2bf
00000320: abcb d858 ab1f ddbf 6883 fb4d b0e8 d0bf
00000330: e6e6 a940 23b0 cdbf 4311 dc35 7e79 cfbf
00000340: f74c 08f6 807c cdbf 9e3b dffc 803a debf
00000350: cc66 ea84 af9f bcbf 25c4 1895 1846 c9bf
00000360: 084e 7840 7010 d0bf 9e96 cf5f 8c27 d0bf
00000370: 0d9b 3ed0 175e cfbf 3d15 12e3 1f1c ccbf
00000380: 1890 fde1 9079 d7bf 1fcf fcfb d0a5 ccbf
00000390: a080 738f cbe3 c7bf 3746 05d4 46c4 cabf
000003a0: c7c5 8b8a ca67 ccbf 4bc3 fce3 054d cdbf
000003b0: 784a 11aa 6a68 d1bf 35ac e6e4 2023 dcbf
-0.19860012139216743 -0.2954860348957724 -0.27569018759213254 -0.19529596961568277 -0.25985676109434924 -0.4498111808479747 -0.24285656773892456 -0.35105022149012577
-0.27319684444601644 -0.45898646051085734 -0.23277365146817658 -0.23859711682992887 -0.20082601293485666 -0.3403431988312224 -0.24633421872771658 -0.5518499706452041
-0.39770192989224806 -0.21917796697497793 -0.23432925596516763 -0.23540119369589566 -0.29548899531381634 -0.2067532147337844 -0.16209902382407454 -0.16057141836746594
-0.5647779371839236 -0.06381441987592287 -0.42628476136670035 -0.06098551008993688 -0.2278738239298649 -0.23354046596470912 -0.24572600288334606 -0.5984874756543676
-0.19178198645089672 -0.4832306722745673 -0.27114086731947745 -0.4286452632971318 -0.37245751231466173 -0.2121997770611039 -0.294121260970922 -0.24156950583619072
-0.21844344645135705 -0.36511059161279896 -0.29351360504015 -0.26471052072826146 -0.22338686017453036 -0.5226284831743154 -0.19724518834025295 -0.15154422533564357
-0.22518106240843966 -0.27940021370311763 -0.15731790142153226 -0.213520873590726 -0.19916064594368543 -0.6336988190457056 -0.3321760603478744 -0.260468369439449
-0.5124910238722528 -0.6122644490259874 -0.43087472861758 -0.324632922732241 -0.44962543215564515 -0.18105896726318116 -0.21753400742208065 -0.391548790984882
-0.2850540569995325 -0.4221178610981809 -0.5179054616270099 -0.3726855816970525 -0.35092757541626557 -0.18080154865550888 -0.4384194216770861 -0.23130452628689016
-0.44568227328705734 -0.2849856688451647 -0.43387918385277646 -0.2544295590999189 -0.05178317223449996 -0.21070713149999443 -0.21340246916267 -0.18863762118511496
-0.18241365323773184 -0.13074439702491142 -0.19398345142009724 -0.2282157991665537 -0.3543061512806324 -0.2053785498480154 -0.5632563593439258 -0.2915249564333814
-0.48424126163621045 -0.23169797180243581 -0.24885262859582247 0.010758645175730958 -0.0750881911231385 -0.33658815388016644 -0.23627807211169435 -0.18477337242038847
-0.33396781994736885 -0.23593660485847118 -0.4558388238319239 -0.2954884102864119 -0.45505794216586065 -0.2642021905467602 -0.2319377961865065 -0.24589517240395695
-0.23036205304433796 -0.4723207921460303 -0.11181160922060512 -0.19745166092028046 -0.2510033254231705 -0.2524138389256708 -0.24505899112883647 -0.219608293413481
-0.36679479665167625 -0.2238103132636917 -0.1866392565198156 -0.20911488869255532 -0.22191745533886673 -0.22891305572695794 -0.27199808700712635 -0.4396440730440106

weight f8 [120, 120]
00000000: 05c9 4d8d dea4 623e 75a7 8656 6151 70be
00000010: f6d9 3631 b5e4 6ebe 3ea5 6360 e93d 7ebe
00000020: e909 2713 e6c4 733e b7ec b833 bb7e d2bf
00000030: aed0 6a77 0536 ccbf ed7c 7345 2584 75be
00000040: 66b1 3240 5b39 7f3e a641 e600 953b 7dbe
00000050: e347 8cf3 3732 d0bf 9269 fbf8 6a3b 71bf
00000060: 3c57 2b6b 5b71 583e 07c3 4445 5f7d cebf
00000070: cc89 f647 14c0 5dbe b5e7 ed8d 45fe 623e
00000080: cfbd f948 f8e0 d2bf 18be ed5e be66 493e
00000090: 8c57 f198 d2a6 7abe 7f63 1839 bfc1 d0bf
000000a0: 4b6d e293 f719 d4bf dc8d cc86 dd57 63be
000000b0: 8501 c8ab d5bd c7bf b3d1 9962 8452 d1bf
000000c0: 789e 58bc c056 713e 392f c6d9 1122 6b3e
000000d0: 8880 8777 045b 45be a8ad 9d7e b241 3dbe
000000e0: 537b 4241 fa92 cdbf 70af 7bf4 bf7d d3bf
000000f0: 549a 6e55 144d 783e 30e2 6160 3312 723e
00000100: 1870 de7a 5f9e 7e3e 2fb0 9c11 8c84 70be
00000110: 208a 7b1e 8409 5b3e 8e26 533b 85bf 62be
00000120: a37e 0880 b1b2 cdbf d0c0 de9f f4ad 64be
00000130: 3188 087f ecd3 d0bf 5af4 6153 61d6 793e
00000140: 585d 983f 2c3e 723e 942b 3e09 099a 793e
00000150: 7cd9 0634 d1fb 7d3e 1c5f e104 d905 603e
00000160: 1444 2f7e 2d8c c5bf aa29 1c4e d784 50be
00000170: 4485 18ec 26f5 69be a03f d60d 54f1 633e
00000180: 782d e3ff ea0b cfbf 24bc fc44 fd89 d2bf
00000190: aedc f8fc 6dd6 babf 02d9 f0b0 316d 7abe
000001a0: ac1d 1e89 f584 d0bf e40b f4cd e85d 7d3e
000001b0: 4932 d823 20e6 cdbf 40ba fc14 5f66 6d3e
000001c0: 8d67 ab1f 9f68 78be f065 85f4 8241 68be
000001d0: c669 408f e5ce 763e f6e6 ddca 1b23 cfbf
000001e0: 15c8 4f67 da9b 71be 0dab f34a cd7f 69be
000001f0: 3a46 7963 f48b 63be 6b26 66d8 0cab cfbf
00000200: 3bf0 d7c7 5b4d 5a3e 0c7f 02b0 362c 5abe
00000210: 10e1 de99 9880 6b3e 282f 8499 f07a d1bf
00000220: 53e2 cb83 3799 d3bf e6a2 e192 9247 7d3e
00000230: e3cb 5a20 ba60 7bbe 4583 8382 45c8 d0bf
00000240: 1012 3eb5 1160 4bbe 4f79 4837 8f61 75be
00000250: 64f7 cbd2 6d42 d0bf 80f9 c9b7 1166 68be
00000260: 295d 27a9 8679 7c3e 0cfe 5c33 215a 71be
00000270: f178 d479 d6fa 723e e2a0 2267 ef57 7cbe
00000280: aee1 872b cd15 713e c37d 788b 683c ccbf
00000290: 80ce 1b9b 8a4b 6fbe 14d4 b77d 006b 65be
000002a0: c6ed 87ec 91d4 cdbf d081 9b35 d610 323e
000002b0: 60f0 a41f b3a3 6a3e 9f21 b811 1187 6b3e
000002c0: ec61 d13e 8bba 75be db43 8ba0 8e21 d3bf
000002d0: 9ae0 11c0 d515 d0bf 6e60 354d 2af5 573e
000002e0: d039 2b80 f4df 4d3e 28c3 5c82 8ed8 cebf
000002f0: bb27 1531 1dc8 72be 32e1 6cb5 3b83 60be
00000300: 6873 d278 4ba4 693e 168d 4c0a c11c d1bf
00000310: c04a 3a67 bdbb 6d3e 71fd c5ea 1762 ccbf
00000320: 2317 e802 b4fd d0bf 7409 df86 8cb9 443e
00000330: 20f5 d858 6189 75be eb04 8993 a3d9 73be
00000340: feff ca67 e0dd 7dbe f883 930c 0a8b 52be
00000350: 2244 20e8 ff49 663e eb31 a3ec 4a72 703e
00000360: ecb6 7a9b 9b00 613e 2832 bb2f 94b9 cfbf
00000370: 0c00 16f4 b952 d1bf f35b 8af7 c6bf cabf
00000380: cb5c 6e18 217c d0bf 92ad 261a 625b 783e
00000390: e17e ddb1 7d91 ccbf 8ad3 c8b7 8dec 6cbe
000003a0: 457b 1c61 7e48 6c3e c8e2 d84d 51db 57be
000003b0: 74d2 a227 569e 403e ebe8 be68 0f06 7dbf
000003c0: 2a66 d5f4 4ffd 703e c3bb 078b 2b50 7ebe
000003d0: dea1 b307 bacd 6dbe 9cde e4d0 ddd1 63be
000003e0: 2a68 5857 5e54 753e 7317 e424 bb8f b1bf
000003f0: 7630 9996 577c 7d3e 79f5 6156 63d5 c1bf
00000400: 20f7 1e35 e099 49be 7c46 268f 63c6 e53e
00000410: 8c9d f854 0fe1 6b3e c92f d42c 5fbd 693e
00000420: 6754 2eb0 d695 70be 5ffb 3d1a 3e05 c0bf
00000430: 5653 d162 da3b 633e e8c5 8e6e 3fb3 c6bf
00000440: 0226 b74a ad65 c2bf c4fd 2051 209a 71be
00000450: 8510 8dfc ec5d 80be b4c7 b346 c5dc 583e
00000460: 1236 c03e c069 c1bf c952 3d11 b3b6 643e
00000470: 0fb7 3352 bbab 71be a415 f727 9b02 69be
00000480: 81fb be24 f1e9 9cbf d4bd 255d b8cc 6b3e
00000490: c6be 48bc 88ca 66be a627 eee6 077d 72bf
000004a0: d853 354d b9dd 633e 0a7d afe6 feb6 c3bf
000004b0: 68ac 1103 7aa4 4cbe 758b 009e 240e c9bf
000004c0: 0ad1 4e77 3876 563e 6e10 2d2a ee9b d1bf
000004d0: ec9a 9926 6199 49be b87e b8ee 77a8 48be
000004e0: e874 a7d5 e2d1 fe3e bc5b 75a9 4616 c9bf
000004f0: 189a b891 3b3f a0bf 33a5 e2dc 7145 703e
00000500: f683 bbd5 3593 71be 3be3 b226 8fdb ac3e
00000510: 9ce7 87e0 4e28 903e 6443 eac5 c057 583e
00000520: 6006 bab8 05d5 2d3e 0dc7 bbcd 5853 b8bf
00000530: 5acc 9c7b c0e1 69be 3158 682e b745 65be
00000540: b23c e922 efb7 6c3e b35f 443f 0684 94bf
00000550: 4c49 c810 8008 543e b4ae b7db 93b5 6cbe
00000560: a9a0 67ca 4aa1 d3be c2d1 e982 224e ab3e
00000570: aeab b544 3504 c3bf b0f6 eeb8 7107 c9bf
00000580: 065b 0fb9 5809 afbf 93e2 de4b db10 cbbf
00000590: 66ce f54b eaf9 c5bf 3043 b749 f269 47bf
000005a0: 1695 8f4d 4f93 b4bf 9c8f ec6a 95c1 623e
000005b0: 7cf6 6d86 e3da 743e 7280 1008 7b18 cdbf
000005c0: 181d ad6a f82d 5d3e 0b01 921b 202e b8bf
000005d0: 4105 47d6 0dcc b8bf 786a a964 8fb4 54bf
000005e0: 899f f6b6 5e71 bfbf a355 db33 d829 3fbf
000005f0: 53f0 62d2 bec1 c0bf 98ea 4dc4 8e56 48be
00000600: 823a 5233 847d c6bf 27d9 464d 736c c4bf
00000610: 44c5 f21d 627c c4bf e043 ea68 23dd 2a3e
00000620: e41e e90e 745b 73be 9b4f 81a3 3e1a 643e
00000630: 6083 77b1 d5bc 633e 28d9 ba26 5f0e 663e
00000640: 70e0 16e3 70de 2abe 1029 db54 eba5 6abe
00000650: 7050 b9a2 6e26 73be 324a 29fa 25b6 b9bf
00000660: 2c83 e3fd a057 7ebf 5a34 b4ce b44d 6f3e
00000670: 40a8 7e31 6859 96bf 55f1 44fe 5526 a3bf
00000680: 50fb 46b6 e8c8 95bf ec65 1f21 b514 eb3e
00000690: 4224 bb1f ca1f 6e3e 15c7 09c7 e2fe b3bf
000006a0: b8f8 4f45 24de 4abe 7e40 5ad3 3699 a0bf
000006b0: 84d4 40fa e896 7bbe 5330 347a 1d14 91bf
000006c0: 7ea1 a8f2 79e4 b8bf 79d0 8431 cf73 61bf
000006d0: 7689 5518 3b66 7f3e c31b 3949 9745 6fbe
000006e0: 82ba 80fc 8f06 7bbf c473 73c1 cede 723e
000006f0: 67ef 9f5b aae4 693e 3411 6be0 069e b0bf
00000700: b97f 9e5a 19da 66be eb75 5421 891d c2bf
00000710: b2e6 2a34 9533 26bf 58d3 cb4c 06f3 663e
00000720: 40c0 5148 1e4c 493e 181d 4418 5823 4d3e
00000730: 3c6e 64ee d528 75be 76a0 b265 5235 59be
00000740: 2d7b 83ad b059 cbbf 6ff5 a369 1e8c 683e
00000750: 6ace 0a88 cbc8 683e e8cd fc24 6c44 6abe
00000760: d50a e5fa 4358 c4be 00a9 df52 a904 ccbf
00000770: 50e0 1956 abd2 72be a44b a58f 125d 673e
00000780: a262 5f92 9623 6e3e a646 5a23 eff6 733e
00000790: 9a7f d8df d42c 75be 2001 3be0 80b0 3fbe
000007a0: 1076 a423 6504 5f3e 3add cc88 05c0 7dbf
000007b0: 4828 d865 496b 43be 622b c73f d9a3 99bf
000007c0: 38c3 7b99 87c7 3cbe e116 0a1f d563 993e
000007d0: 2dfa bab0 0392 6f3e 04eb 3f37 96bc 653e
000007e0: dcac 611e 8a43 52be 4a5f 54c0 8ba3 91bf
000007f0: 867c 0091 8e9b 6bbe 3e99 cd44 4400 a3bf
3.472719504225547e-08 -6.07888829331477e-08 -5.754342260625026e-08 -1.1265964170209312e-07 7.364576929458243e-08 -0.2889850621319953 -0.22039860087318658 -8.015406770559007e-08
1.1631864542627643e-07 -1.0890045152299504e-07 -0.2530650976560748 -0.004207055913605722 2.2764132532843142e-08 -0.23820105440383818 -2.7707134806655993e-08 3.5377682775430055e-08
-0.2949810707713966 1.182842176785331e-08 -9.928513676599018e-08 -0.26182537627897057 -0.3140849060234429 -3.602956231130601e-08 -0.18548079383618812 -0.2706614458941445
6.459235554116384e-08 5.053930893496684e-08 -9.94444680849929e-09 -6.81183996176131e-09 -0.23104789911755094 -0.3045501601725311 9.05286204737715e-08 6.732008026196947e-08
1.1406333896710706e-07 -6.153345957483921e-08 2.518032884882706e-08 -3.4921107264197176e-08 -0.232015788570597 -3.8518596298123773e-08 -0.26293480306242417 9.625189964671205e-08
6.795995934786843e-08 9.537376604981161e-08 1.1169784120451799e-07 2.9844870228541154e-08 -0.1683403841148282 -1.538443406612415e-08 -4.83498445831047e-08 3.7146152580203966e-08
-0.24255120748999182 -0.28967220055614207 -0.10483443666531642 -9.844653113617847e-08 -0.25811518087763363 1.0939998017562989e-07 -0.2335853743574197 5.47615593967895e-08
-9.092941148248741e-08 -4.518014279598489e-08 8.496713005437284e-08 -0.24325892835241064 -6.559789673935485e-08 -4.749601011953306e-08 -3.6408561884662996e-08 -0.24740753713949756
2.4495815589470858e-08 -2.4375235164173008e-08 5.122707878675544e-08 -0.2731286524947216 -0.3062266146730838 1.0907493638998386e-07 -1.0199040198048372e-07 -0.2622236036823334
-1.2747603562803331e-08 -7.96507729290632e-08 -0.25405450425738807 -4.544613483192387e-08 1.0607656467737431e-07 -6.464149468216084e-08 7.070539572273003e-08 -1.0558775345953894e-07
6.364718786029119e-08 -0.22059351739970454 -5.829163586364091e-08 -3.9894089556078405e-08 -0.23304962205280172 4.206264525678093e-09 4.9619845970327073e-08 5.12741584434443e-08
-8.094566768377396e-08 -0.2989231651127377 -0.2513327003175704 2.231232516572438e-08 1.3911549250590652e-08 -0.24098378529881725 -6.996726777566964e-08 -3.075716985826551e-08
4.776153082165207e-08 -0.2673800087524837 5.5382696565209676e-08 -0.22174357379479262 -0.2654848125824733 9.650737289069677e-09 -8.023024219372184e-08 -7.394757951200843e-08
-1.1126214789335812e-07 -1.7269628203932654e-08 4.151661149598858e-08 6.1267822068496e-08 3.166939016356381e-08 -0.24785091715456642 -0.2706742175723782 -0.2089775761312179
-0.2575762499413485 9.073676791062323e-08 -0.2231900328142649 -5.387521804061966e-08 5.2681525043591464e-08 -2.2218291975529292e-08 7.738593089557482e-09 -0.007085857574504066
6.329082432223524e-08 -1.1292533731004556e-07 -5.551356793161862e-08 -3.6917237366431904e-08 7.945881982281731e-08 -0.06859941149386177 1.0984283496071516e-07 -0.1393245860853474
-1.1921430651566876e-08 1.0383108450171022e-05 5.1928945251761724e-08 4.7943989759253085e-08 -6.178508375608857e-08 -0.12515999108651507 3.5825746238246953e-08 -0.177345208152061
-0.14372793338979767 -6.557276702265295e-08 -1.2194288803214862e-07 2.3154900591474735e-08 -0.13603976310734872 3.8582216670362485e-08 -6.582896054974352e-08 -4.6585090447989637e-08
-0.028236167781638514 5.1780954318506356e-08 -4.245182297736971e-08 -0.00451376997706091 3.700351105621176e-08 -0.15402208579960358 -1.3337697254118734e-08 -0.19574411120364812
2.0919180571559014e-08 -0.27514223212006683 -1.1920527859255463e-08 -1.1482313286866985e-08 2.9392116042238717e-05 -0.19599231027924968 -0.03173242715665853 6.061519927887576e-08
-6.547212677176668e-08 8.600250799495863e-07 2.40764820108266e-07 2.267098541758832e-08 3.472915682302817e-09 -0.09502177260199236 -4.820868988591944e-08 -3.9622795534332644e-08
5.349236108632498e-08 -0.02003488312865871 1.865737524377844e-08 -5.347521489146406e-08 -4.680168024219643e-06 8.137587935290414e-07 -0.14856592040027067 -0.1955396798129434
-0.060618183698968806 -0.21145192341443372 -0.17168930729859538 -0.000714534096397745 -0.08037276881767172 3.493611921135579e-08 7.769105679445827e-08 -0.22730958837292153
2.7175593923857443e-08 -0.09445381806472512 -0.09686361771948261 -0.0012637520145718766 -0.12282363860015101 -0.0004755165899557828 -0.13091264031197855 -1.1333318403315997e-08
-0.1757054567901442 -0.15955964349058968 -0.1600458761436504 3.127360432530328e-09 -7.211133710397002e-08 3.7443858181287585e-08 3.676421139374146e-08 4.108276105195552e-08
-3.1279528071121037e-09 -4.963599540898037e-08 -7.133977735748945e-08 -0.10043561322644548 -0.0074077881565422325 5.8307387218894815e-08 -0.02182543565837869 -0.03740185479043371
-0.021274219632455627 1.2913174064199465e-05 5.611065387112446e-08 -0.07810799941378506 -1.2511266836778526e-08 -0.032418931293364914 -1.0277886858328483e-07 -0.016678295692188105
-0.09723627256665243 -0.002130417513535984 1.1697165377058754e-07 -5.8248340509057235e-08 -0.006598055311811126 7.02975032520448e-08 4.822988892980126e-08 -0.06491129855118488
-4.256507264645397e-08 -0.1415263569587489 -0.00016938396773529468 4.2746430039674443e-08 1.1779990547448598e-08 1.3568467912174724e-08 -7.882533345877786e-08 -2.3477048177609258e-08
-0.21367462608665147 4.572298202725908e-08 4.616445981511365e-08 -4.8926612648827126e-08 -2.4252876393027843e-06 -0.2188922552734951 -7.012086691317676e-08 4.3518030029075553e-08
5.6138292500462624e-08 7.437388024392544e-08 -7.888348104627619e-08 -7.378278879955984e-09 2.8886989003186563e-08 -0.007263204210907143 -9.042717847972521e-09 -0.02503909541864447
-6.7007292143185175e-09 3.7834004643802964e-07 5.880439432397243e-08 4.0487697555677804e-08 -1.7009513707618933e-08 -0.017225440610757738 -5.1423244440618196e-08 -0.03711140956765967
