pyTorch/noisey_paths/models/swag/ow_0.0_512_NP_model_1.pth (torch, 469469 bytes, 10 tensors)

module.model.input.weight f8 [120, 60]
-9.002105404526239e-08 4.925884742322713e-08 -2.5704632763439917e-08 8.096041622465756e-08 5.038069117487538e-08 -4.409426578174054e-10 8.708659557205605e-09 -3.6569282564158207e-08
3.978875069052293e-08 -3.231347549906176e-08 6.208390478647925e-08 4.136916139447835e-08 -4.9084379087643104e-08 -3.0197141858308767e-08 -7.031265282140576e-08 4.4831245110575825e-08
3.594804313377028e-08 -5.7820404956267654e-08 -3.7359238795506014e-08 -5.057947273384018e-08 3.141273081993794e-08 -5.859415444160666e-09 -7.77131391064604e-08 1.4649410460774061e-08
-1.0373819805489109e-08 -2.0540628916287578e-08 -1.4751012908949978e-08 -1.1403715872236741e-08 -0.5919156305216164 2.4909886847030885e-08 -1.2320807909632684e-08 1.8059594927702152e-08
-0.5621683491703695 -0.4662071745011578 -0.5103294980278001 7.42726855930984e-08 -0.4650335271509414 -0.48861681042195143 -0.6072017754084209 1.0293702338472389e-08
-0.5424549000917103 -0.602031945872032 -0.4194237213900058 4.8551988302039687e-08 -0.47376432003281954 -0.49231811952342064 -0.38978338175400973 -3.056096032567512e-08
-0.3552436000642818 -0.3856063935202721 -0.4157292323095223 -0.47748387944420073 -0.563775530310902 -0.3576953475531752 -0.41144197678043115 -0.5193117521043579
-0.46663326589354387 -0.4213572359388865 -0.611579110517801 -0.46204751983390796 6.421153940286515e-08 -8.692692075556322e-08 -6.871182204206959e-08 -2.471657392856691e-08
1.3831042247912458e-08 6.950118197420102e-08 5.2667339714807144e-08 7.214636162313554e-08 -7.637517517084929e-08 -1.9563702781473603e-08 -4.2544069920512684e-08 5.245927881591951e-08
2.198341835988623e-08 -1.2449188814882808e-09 -9.280377253281817e-08 -4.732677445052761e-08 -1.7057320497204023e-08 -6.999028136584747e-08 -1.1692887534680144e-08 3.501768499936731e-08
5.370988528394732e-08 5.5358703375090436e-08 -4.741317182332408e-08 -6.088706659405254e-08 -2.4902587559861917e-08 6.284756918056805e-08 5.82328899761109e-08 -3.5486826896058344e-08
-0.5579211642670227 1.646771307203673e-08 -4.722353537303757e-08 7.962194125599578e-09 -0.5721025387935268 -0.47576274886467007 -0.5818013966608673 5.3800793573890157e-08
-0.5640745318545386 -0.5636259448743406 -0.6373838283041875 -1.59781450766778e-08 -0.5667118075098123 -0.3580788814569695 -0.4352701223070883 -6.675594973971384e-08
-0.4948931509752919 -0.35965284017708393 -0.48058010639132 -8.345402202437936e-08 -0.38522542252707725 -0.5507816318344083 -0.426124519288516 -0.5111890716881564
-0.47239677431804983 -0.5712031948404406 -0.44028402501881403 -0.5988716695795586 -0.4812282710080579 -0.49478486301595914 -0.4051484885938329 -0.5314872006031184
6.8891485785630436e-09 2.5337364034235918e-08 4.881772231010287e-08 6.981920759272394e-08 -1.5739514305440645e-08 5.6216529698850785e-08 4.6957441057297954e-08 3.807464829631644e-08
5.5499358178389104e-08 -7.979970763742596e-08 -4.872489210105511e-08 1.6673348162460243e-08 1.600137812461562e-08 -8.101043468607867e-09 -3.119859170354256e-08 -6.407735620849268e-08
-6.283041225096873e-09 -3.402875492769489e-08 -5.3197499840711865e-08 -7.224175060987158e-08 5.5874710800424446e-08 -3.323362525160298e-08 8.814685158867996e-09 -5.004399337535538e-08
-4.3318848257707706e-08 -3.668451464925972e-08 4.7716524095346545e-08 4.2066283998059254e-08 -2.2817498127428174e-08 -3.240256615930948e-08 3.618807345701611e-08 7.307144058196614e-08
-5.7391831592231683e-08 -3.345286116768541e-08 6.488051451190126e-08 -4.2720034368870274e-08 -0.4438316171813872 7.259622163042307e-08 -9.7364298689231e-09 -2.1373718553954273e-08
-0.45383935054217156 -0.3591654304402427 -0.3746994708678183 -3.5567427439279655e-08 -0.3568683790678513 -0.3900704312054166 -0.33464088189096075 -4.2124934016393835e-09
-0.5107658810400935 -0.42415391856593365 -0.4994531059309161 2.602259249275108e-08 -0.40684509678897923 -0.34513961756567446 -0.42500476174950363 6.138483122905961e-08
-0.46362606332026696 -0.3854861740714829 -0.3981626958062433 -0.47708733838177875 -4.153559486877201e-08 -5.726003279961812e-08 -6.098038821620483e-08 -6.320835395095852e-08
-4.426632176173544e-08 -6.141674292271103e-08 -4.023334674905353e-08 -6.639424307356913e-08 -4.6625153755012884e-08 7.235162828289088e-08 2.2280034348581642e-08 5.3383871170660475e-08
5.862270445233606e-09 -3.598469281340812e-08 2.977291355887973e-08 -3.218521332604689e-08 5.459815191786428e-08 7.379355663214131e-08 -8.912248874939479e-10 -2.1239521109609127e-08
-0.6399688432116488 -0.536575483738825 -0.49778075821536094 -5.879035369896088e-08 -0.764074194153313 -0.6166204505661357 -0.6845482520762496 5.275068880194872e-08
-1.0276660728497677 -0.8302076859829011 -0.7593628754194245 -6.096868789251985e-08 -0.16922064402858056 -0.9125325831300168 -0.9148270299287473 -0.5496844682982888
-0.12132184960613017 -0.13708531916724784 -0.1978011963849351 -0.7387627717613514 -0.18335433601937834 -0.174648874558226 -0.16805592135175124 -0.6853899643325545
-0.1762326835096434 -0.14140515492362477 -0.17133206867213008 -0.8219073102487593 -0.16782524959645267 -0.21865409011608955 -0.2046111164119334 -1.031083129416416
-0.15231487665936988 -0.2794342138080025 -0.1912786493371304 -0.22816777472198285 -0.13329659764699275 -0.11942379941211159 -0.27263161933429236 -0.23371661700684754
4.914731193137413e-08 3.1813268582950456e-08 -4.2459447456833486e-08 6.5274400825185775e-09 3.969802827375842e-08 1.2589798062671902e-08 6.174229347164337e-08 -3.282993734757462e-08
4.248273178742507e-08 5.741406980797508e-08 -3.056915805658571e-08 -2.6690599204381528e-08 -3.9807768734694316e-08 5.358991598235797e-08 5.103321523138401e-08 -7.116213932085263e-08
00000000: 8028 7421 332a 78be b3c5 cc9d 1572 6a3e
00000010: 67f7 23ba a299 5bbe 2b54 57b4 8ebb 753e
00000020: c1f0 00fc 440c 6b3e fd05 7f30 254d febd
00000030: 146b 7edf a2b3 423e 4186 a83e 0ba2 63be
00000040: be16 9135 865c 653e d8e8 6e58 2159 61be
00000050: bf4b 769a 5faa 703e ae7d aef7 bb35 663e
00000060: 31d6 bc0e 1b5a 6abe 2a37 a479 4336 60be
00000070: 06c1 0b45 d9df 72be 1e91 8c35 8f11 683e
00000080: a2ea 5253 a94c 633e 8950 6ea4 c60a 6fbe
00000090: 9e29 d65b 9d0e 64be 3f0a 1dfd 9627 6bbe
000000a0: 2877 a135 55dd 603e 16f9 5fd3 7e2a 39be
000000b0: 6e57 5200 68dc 74be b24f f03b 9975 4f3e
000000c0: 8951 1558 1147 46be e0f2 ee42 2a0e 56be
000000d0: 6cb1 eb81 74ad 4fbe af39 6c54 427d 48be
000000e0: 289c 620c f9f0 e2bf 850f 7d74 2dbf 5a3e
000000f0: 4d2a 498f 6f75 4abe d38b f203 2f64 533e
00000100: b60e 517a 48fd e1bf 8827 e99d 56d6 ddbf
00000110: fad4 0687 9e54 e0bf b12f 29e7 faef 733e
00000120: 5c09 aafb 1bc3 ddbf 7370 4271 7f45 dfbf
00000130: 4879 ee6a 326e e3bf 735f 20d0 051b 463e
00000140: ec5c ee60 ca5b e1bf 245d d57f d843 e3bf
00000150: 2359 a297 d6d7 dabf eaae d938 ef10 6a3e
00000160: 6a5e 2395 2752 debf 3234 a5db 2382 dfbf
00000170: a818 4aff 35f2 d8bf a6d0 1133 4468 60be
00000180: d4eb 18a7 4fbc d6bf a913 5370 c6ad d8bf
00000190: 6cad 30c8 4e9b dabf 851f a58b 188f debf
000001a0: 5c0d 1ffb 720a e2bf 0006 eb06 7be4 d6bf
000001b0: 884e 9eba 1055 dabf 03ef f6ad 339e e0bf
000001c0: a742 0fc6 51dd ddbf 1e97 1257 84f7 dabf
000001d0: 38e7 d25a 0e92 e3bf 679c b8c2 2f92 ddbf
000001e0: 1f79 ed58 953c 713e 1758 ec8f 9255 77be
000001f0: 5205 2528 d771 72be 86cc 8944 0a8a 5abe
00000200: eaf3 b525 b2b3 4d3e 6ea6 3db9 15a8 723e
00000210: 5345 0747 8b46 6c3e 8274 5237 dc5d 733e
00000220: 4a96 704a 7680 74be a6fd 3932 a101 55be
00000230: 78b6 e162 36d7 66be 7d14 0ec9 f229 6c3e
00000240: fb86 ef8a c19a 573e 4d5f 7d0d 3663 15be
00000250: 72ba 653b 6de9 78be e261 8fd7 8a68 69be
00000260: 6bca f038 ae50 52be 602b 140d b2c9 72be
00000270: e574 8d9f 3b1c 49be 6ba3 3a42 cbcc 623e
00000280: cda8 b396 d4d5 6c3e 3996 c837 71b8 6d3e
00000290: a375 e9ad 6a74 69be 5cb6 6c9a 2058 70be
000002a0: a07a 38d0 2bbd 5abe 1e8b 2421 dade 703e
000002b0: bbb9 31ab 7743 6f3e df73 c5b8 450d 63be
000002c0: 49bd 487c 7dda e1bf 25c9 d149 9cae 513e
000002d0: 3746 9e70 5a5a 69be 8410 fa33 4319 413e
000002e0: e474 c2fb a94e e2bf 2cd8 c199 e572 debf
000002f0: 189e 6df6 1d9e e2bf ef80 c823 53e2 6c3e
00000300: ce4b 5a08 e60c e2bf 5032 0d47 3909 e2bf
00000310: be1a 32c5 7265 e4bf f884 da00 0a28 51be
00000320: c65f f0cc 8022 e2bf 8fbd 4faf c3ea d6bf
00000330: 0408 0f37 77db dbbf b45e 5f16 6feb 71be
00000340: 5d02 9d52 54ac dfbf 7f57 9e58 8d04 d7bf
00000350: 58c5 0310 d3c1 debf 24d7 7dae ea66 76be
00000360: 6cdc d587 88a7 d8bf e6eb fecc 00a0 e1bf
00000370: a28b 97c6 9f45 dbbf b624 1f2f a95b e0bf
00000380: 86a4 1bae bf3b debf aabb 26ec 4b47 e2bf
00000390: 240d 1a0c 9d2d dcbf 3e0b 6beb f429 e3bf
000003a0: 96f9 78a9 71cc debf 8e66 4d21 8eaa dfbf
000003b0: a632 22ed f3ed d9bf d0a7 1a72 f101 e1bf
000003c0: 2d83 8aef b296 3d3e a17d e47c ae34 5b3e
000003d0: 707c 02e8 7435 6a3e d642 4c7d f0bd 723e
000003e0: 0d3d 0bdb 71e6 50be 5e59 684c 572e 6e3e
000003f0: da88 1814 c835 693e d354 c297 f070 643e
00000400: 417c 9f11 c6cb 6d3e 1387 944d cb6b 75be
00000410: d2e8 d1bb b228 6abe 9c30 4992 22e7 513e
00000420: 16dc 3ce2 6c2e 513e ecb3 c582 9865 41be
00000430: 0ced f0db e6bf 60be d01f 8bc5 5c33 71be
00000440: b5ed ebe1 46fc 3abe 7445 0660 e044 62be
00000450: 205a eba0 688f 6cbe d590 2051 6a64 73be
00000460: dffe 7a9d 5cff 6d3e 863c 993c 98d7 61be
00000470: 5cfb 5fa6 eced 423e 1ab3 d57b fedd 6abe
00000480: 6039 be79 b241 67be 9364 029d e1b1 63be
00000490: 4b3b 45f0 1b9e 693e d785 e0c9 8b95 663e
000004a0: edc0 41b0 0680 58be 2a07 c3f1 5f65 61be
000004b0: b1c5 45a4 a66d 633e db8c 9360 6e9d 733e
000004c0: c4ea be8e dfcf 6ebe 23b4 2dea b9f5 61be
000004d0: 42ba fa14 8e6a 713e 09d4 ba95 65ef 66be
000004e0: f063 2eba bc67 dcbf 64eb ae3c c67c 733e
000004f0: acd2 6faf a8e8 44be ae12 a9bb 29f3 56be
00000500: 3fdb 0d34 b40b ddbf 030e 6600 91fc d6bf
00000510: 922b 4d7d 13fb d7bf 0c94 ec99 5918 63be
00000520: 40ab 4478 eed6 d6bf 0c7d 4af8 e9f6 d8bf
00000530: e414 e896 c16a d5bf 5d3b 6c7b af17 32be
00000540: c05a 5fb0 3158 e0bf ea7f 2d7a 5625 dbbf
00000550: 5af8 f628 0af7 dfbf bd0d 6a27 09f1 5b3e
00000560: a1c8 4f04 c009 dabf bce7 7f7a c416 d6bf
00000570: dcef 162c 4733 dbbf 10a5 0c5f 557a 703e
00000580: 5129 e2a6 0cac ddbf a29e ac33 ceab d8bf
00000590: 9666 3e63 7f7b d9bf 02de eb54 9988 debf
000005a0: acb0 25d3 9b4c 66be a558 c24c c2bd 6ebe
000005b0: 8cbc a555 8a5e 70be 7adc 4c1f a5f7 70be
000005c0: d4e6 61bc eac3 67be 0181 8ac4 867c 70be
000005d0: 5993 da0a a199 65be af9c 5de0 93d2 71be
000005e0: 9482 27c2 1c08 69be 76aa 2c4e f76b 733e
000005f0: 986f 8f09 4aec 573e c5a1 9ffc 05a9 6c3e
00000600: 7e18 e26f a22d 393e d67f 4ad2 b251 63be
00000610: 3655 a389 eaf7 5f3e a9ea 7b85 8047 61be
00000620: 6acb 43b1 e94f 6d3e 729e 26fa 0dcf 733e
00000630: 85c5 1d09 4c9f 0ebe 1c47 6b6d 46ce 56be
00000640: 0ab2 81f0 9f7a e4bf d8cb 4f59 a02b e1bf
00000650: 5a3c 47d3 a3db dfbf 0af3 05ae 1590 6fbe
00000660: a164 73b9 4b73 e8bf 283e a7cf 5abb e3bf
00000670: 5472 66bc d1e7 e5bf 382e dddc ff51 6c3e
00000680: 7b93 e1fa 5171 f0bf 96e6 85b5 0f91 eabf
00000690: 6922 775f b34c e8bf 01f3 1280 bc5d 70be
000006a0: 7695 f4a5 05a9 c5bf 887d 2288 7733 edbf
000006b0: 184e e155 4346 edbf c5ba cee1 0397 e1bf
000006c0: 333b 59e0 f20e bfbf f7e2 4a01 038c c1bf
000006d0: c09e cab2 8c51 c9bf 42f4 06d3 f1a3 e7bf
000006e0: 283a 64a6 2778 c7bf 7961 41f2 e45a c6bf
000006f0: 026e 0d3f db82 c5bf e413 3aef b6ee e5bf
00000700: a582 14e6 ca8e c6bf fefe f069 9019 c2bf
00000710: 2af6 d98f 35ee c5bf 6e93 3b8f 104d eabf
00000720: c6da 3a3b 4c7b c5bf feb5 1773 dbfc cbbf
00000730: 2493 b172 b230 cabf 40d0 0406 517f f0bf
00000740: 4a1f f9ca 0d7f c3bf fe15 6c0a 40e2 d1bf
00000750: 42bb a99b d17b c8bf 2a4c 3705 9a34 cdbf
00000760: 7cec c7e7 dc0f c1bf 2ace d6e0 8e92 bebf
00000770: 185d 39e4 cb72 d1bf dcbf 4915 6dea cdbf
00000780: 939a 664f c162 6a3e e43b 12e1 6114 613e
00000790: 686a 7dff 94cb 66be 9ab1 920b ff08 3c3e
000007a0: 099d ae32 0e50 653e 7ee5 e88e 5009 4b3e
000007b0: 5f34 dfe9 e592 703e 19d4 35bb 1ca0 61be
000007c0: a055 183e c8ce 663e f239 c9fe edd2 6e3e
000007d0: 9e53 aaa1 6469 60be a34b 86f2 a7a8 5cbe
000007e0: 544a e158 235f 65be f344 4c8b 57c5 6c3e
000007f0: 10fc 32a2 f365 6b3e e8d6 2098 391a 73be

module.model.input.bias f8 [120]
-0.41417730940302583 -0.4442248451011568 -0.34654718995264067 -0.25328852078201414 -0.42471888815334996 -0.44395675870692564 -0.35630913977279743 -0.33915550915241416
-0.3981274690741023 -0.600075985037355 -0.3896909048610753 -0.40251278296175574 -0.48946750690102075 -0.4324592482905878 -0.218729784015966 -0.6429898162175647
-0.47256507821181326 -0.5742034869242929 -0.6205123066521857 -0.5516875779089052 -0.414959714992836 -0.49726882252419424 -0.5066865889582248 -0.38375052963125883
-0.3645133063802191 -0.4928383244219788 -0.5959269040576533 -0.03522744172569237 -0.002597281757007131 -0.4745989711251565 -0.13551038104535748 -0.46751618523796634
-0.5607912568701442 -0.4108831396858569 -0.1977255299809533 -0.4614912176677994 -0.5892345848857523 -0.5855653616867322 -0.3655278340945357 -0.45434467307252846
-0.5148419342093739 -0.5572295175288713 -0.5598843623077672 -0.5855625990246035 -0.4693073520352467 -0.45655736417145587 -0.45914254444738906 -0.4275893429400962
-0.4678126078004323 -0.5480343602761817 -0.5768644105780532 -0.16983456191465918 -0.4784159880516801 -0.6602436916444406 -0.5801872426668655 -0.06751965901556711
-0.41558673199522 -0.3799258650369063 -0.5657203761139418 -0.6426598182058221 -0.40527696424025555 -0.24813388951234858 -0.6191776478678999 -0.522377326854097
-0.32739766210899307 -0.5610261016169232 -0.3353518334798026 -0.3708990630457705 -0.3826714156049571 -0.5547056574586958 -0.5225227365823248 -0.026638497111608046
-0.44795595319560033 -0.40086127157158 -0.4515697860916669 -0.13836654023378786 -0.4672546360053841 -0.5859313948879649 -0.48855202724836444 -0.5715241860143838
-0.45746057351193015 -0.47553435506863084 -0.5100339261694808 -0.11677590929533749 -0.17537343758514629 -0.5200361050568258 -0.1852816385754078 -0.45246062672324794
-0.454223804961577 -0.5740592060239003 -0.47680129845767005 -0.4164576616443882 -0.6611163708661065 -0.6220936703470799 -0.29363559581670706 -0.5978869249127531
-0.5925801133278037 -0.4170661237939145 -0.41988769017448047 -0.5026443966895788 -0.4963055468611137 -0.5017364141791665 -0.6008973030624454 -0.5161728953505788
-0.097868618303568 -0.39995560920301076 -0.20601390502774058 -0.5517260605681299 -0.21607210958372142 -0.41940530519505104 -0.3148118990599439 -0.6202879431931295
-0.3585803101718923 -0.5149378841518188 -0.033197917079698394 -0.4781298961803728 -0.3901991713528083 -0.35381086686568564 -0.583448781096366 -0.553448564799579
00000000: b766 a88b e181 dabf b8ed 710b 2e6e dcbf
00000010: b481 d743 d42d d6bf 7c80 4d0e e135 d0bf
00000020: f92c a721 982e dbbf 8e00 df9b c969 dcbf
00000030: 82c3 a5d9 c4cd d6bf 9d57 044f b9b4 d5bf
00000040: 5700 d4a2 eb7a d9bf af36 5b8d d233 e3bf
00000050: 6953 fb1e b2f0 d8bf 62bb c2f9 c4c2 d9bf
00000060: eb0c a685 6f53 dfbf 40b1 108e 69ad dbbf
00000070: 6c3e 816a 56ff cbbf 8018 0a61 5f93 e4bf
00000080: deb0 0999 813e debf 1ad9 b2fd df5f e2bf
00000090: edc5 fa9f 3cdb e3bf 6a4d 17b5 6ca7 e1bf
000000a0: 3e4f 4331 b38e dabf 3af5 839c 40d3 dfbf
000000b0: 42b7 1ccb c636 e0bf 1fb1 a561 5e8f d8bf
000000c0: 1908 779e 2f54 d7bf cde6 66c1 a98a dfbf
000000d0: 297e 774c d511 e3bf 8166 44cc 5409 a2bf
000000e0: 0113 8e06 e546 65bf aea8 ec5c d45f debf
000000f0: 0fdd 6d77 6758 c1bf d4a7 7c01 c9eb ddbf
00000100: eb7a 8481 00f2 e1bf 726d dbcb e84b dabf
00000110: 791d 6df6 114f c9bf 0790 d175 1289 ddbf
00000120: c634 f87c 02db e2bf 7aad c391 f3bc e2bf
00000130: fead 4ddb ce64 d7bf 2455 fdad fb13 ddbf
00000140: 933c c1ca 9579 e0bf 24e0 44ff d2d4 e1bf
00000150: e8ea 349c 92ea e1bf 2f49 92c6 edbc e2bf
00000160: 2de1 30b4 2109 debf c251 f760 3c38 ddbf
00000170: 0ba4 2669 9762 ddbf 12ef 02b1 9f5d dbbf
00000180: 7c32 ca4a a4f0 ddbf 300e cf5a 7f89 e1bf
00000190: fa16 355a ac75 e2bf 94b4 9390 23bd c5bf
000001a0: 0931 a417 5e9e debf 0f1a e060 b720 e5bf
000001b0: 76f0 19d6 e490 e2bf 3016 4fe7 f748 b1bf
000001c0: 0c8b a417 f998 dabf c23b 4f93 b450 d8bf
000001d0: eae2 429e 611a e2bf c6b6 b452 ab90 e4bf
000001e0: d3fa ceca 0ef0 d9bf 670e 3eee d9c2 cfbf
000001f0: fc37 80a4 4dd0 e3bf f653 e0a7 50b7 e0bf
00000200: 03e1 e252 15f4 d4bf b3b4 d402 edf3 e1bf
00000210: cec2 5c89 6776 d5bf 1983 796c cfbc d7bf
00000220: c4c9 c83f b07d d8bf f11e 3614 26c0 e1bf
00000230: 4433 219a 81b8 e0bf 02c3 a247 1f47 9bbf
00000240: d482 4172 4fab dcbf 9c81 e808 b6a7 d9bf
00000250: f706 c8f5 84e6 dcbf be17 95aa feb5 c1bf
00000260: 620a 23fd 7fe7 ddbf 83ca 5732 f3bf e2bf
00000270: 4a47 dbb8 6f44 dfbf eac0 f916 ed49 e2bf
00000280: 785c 9cb6 0847 ddbf ec3a c9a5 276f debf
00000290: e2f2 17ab 3252 e0bf cc56 62a7 06e5 bdbf
000002a0: 5ef5 8105 a372 c6bf 4aaa fec1 22a4 e0bf
000002b0: 8c86 1d09 4fb7 c7bf c241 a06a 1df5 dcbf
000002c0: 5cfa d7b8 0012 ddbf 60e4 7a69 b15e e2bf
000002d0: ce39 e497 e983 debf 1b9a 3b09 3ea7 dabf
000002e0: 580b f784 dd27 e5bf da0e 26fc 30e8 e3bf
000002f0: ce59 3ef4 ecca d2bf dd99 a6c2 e321 e3bf
00000300: ae17 e091 6af6 e2bf eab7 7d1c 36b1 dabf
00000310: 42b6 529e 70df dabf 9e94 a9b3 a915 e0bf
00000320: 58e1 2557 78c3 dfbf 1e94 4386 390e e0bf
00000330: ba0c 1dfb 8c3a e3bf 8198 1305 7d84 e0bf
00000340: e224 ebf2 ea0d b9bf 6c3c 5869 df98 d9bf
00000350: 4ac5 4ee4 a95e cabf 8bb6 4f69 bda7 e1bf
00000360: 26b2 1e3a 40a8 cbbf a439 6559 89d7 dabf
00000370: c6a9 b6ce e025 d4bf 5bc3 c319 66d9 e3bf
00000380: 4c61 4bd4 faf2 d6bf 76e9 7c03 5f7a e0bf
00000390: ca24 4e40 51ff a0bf b469 d522 ae99 debf
000003a0: 3fbe f8f1 05f9 d8bf f814 8a55 d6a4 d6bf
000003b0: 0866 36c7 9cab e2bf 70a2 bac3 d9b5 e1bf

module.model.hidden1.weight f8 [120, 120]
-0.2565017955799154 -0.10390627744386949 -0.19375318861023538 -0.4981350771186532 -0.20285279267572892 -0.06923697784712163 -0.16048165959954205 -0.09226149956262059
-0.15457908765553036 -0.5485348933065384 6.374687348773975e-09 -0.4943717157754717 -0.18640546196318025 -0.07642132002010782 -0.4753821157583109 -0.5250715470589216
5.4175186828993435e-08 -0.4966949398534931 -0.4906165722450023 -0.5242294034659045 -0.01859912009879556 -0.05803237354987947 -6.942295604559856e-08 -0.06428923616630891
-0.2943254484525868 -0.5238206073523172 -0.5237912566277441 -5.7021987604321094e-08 1.3809777026727566e-06 -0.0741430854156352 -0.24305882079407662 -1.0876464279441816e-08
-5.008372309112061e-08 -0.06728983862643734 3.5209321141052334e-08 -0.33119046740515196 -0.5293498797740556 -3.2749644613365746e-09 -0.0213460041728743 -0.2117649017117641
-0.46672313994695347 -0.030926167242165965 -0.47000754610147466 -0.01324499544266599 5.904291162206786e-08 -2.871140490555105e-08 -1.528753958563355e-08 -0.000982385445107037
-0.07479420905033612 -0.06314222070543878 -0.0763218600252572 -0.46856229821376416 -0.09581756126990804 -0.5557594232167165 -0.21311924077934674 -0.07544147000961833
-0.012421266655412886 -0.25493432682293976 -0.08319893977721336 -6.464777300119743e-08 -0.0011880556663291751 3.791416405718619e-08 -4.9773683806641434e-08 -3.723651082943882e-08
-0.0006995057306904423 -0.1062712824440502 -0.005488531207884201 -0.16084511034494337 -0.075202601255946 3.0135757436504736e-08 1.1122061136618213e-05 5.666498560179265e-08
8.572877054965774e-07 -0.49152077879862555 -6.404186998561029e-08 -0.4770760361189046 1.089065588792121e-08 -0.04010603311770539 6.016644250543742e-08 -0.5484734645090794
4.135158135746824e-08 5.333061923684953e-08 -3.0422758438033364e-08 -0.1956235334138568 -6.227360768504755e-08 -0.07418637469530087 -6.076812897415369e-08 -0.09343142981080385
-0.14575028473692028 -4.7513205486686595e-08 -0.09424917787704751 -0.36990704262158614 -0.48858695243323913 -4.944741191674387e-08 -0.28244244879138314 3.9767234484022356e-07
-0.5317910130426835 -0.01131398320277656 -0.13542813560118055 -0.10260068028464962 -2.1888911973945445e-08 -0.48848126460393465 -0.15478155691858533 2.4335553249554283e-08
-0.5501071106045291 -6.621326174887397e-06 -0.003294743307181703 5.0518938531679276e-08 -0.5561519135877281 -0.2670714044389526 -0.4746573111897038 -0.49392539990483786
-0.08265196030350422 -5.2986882667369046e-08 -0.2517998601901046 4.3958491997038416e-08 -0.22381840029612213 -0.4987712055365573 -4.983134982527598e-08 -0.0003199953750884821
-0.4921588763085551 -0.5175626676690113 3.480421149267011e-08 -0.5812244750412882 -0.6012438059451853 -7.183294313667787e-08 -0.46448448633880596 4.19455466725289e-08
-0.5358386426049443 -2.7316326457215937e-08 -5.3332551158468685e-08 -0.3763793149561756 -0.5033321198421705 -0.5265985376797997 -0.610116577285799 -5.583293623654639e-08
5.3799303996691074e-08 2.100918362484247e-08 4.13222611020136e-08 4.060454837170802e-08 -0.459955833611961 -0.4861554640080782 -0.5457352112385683 -4.1660477140443046e-08
-0.6049912128051402 -2.5443275190533378e-08 -5.050414120630388e-08 -0.45148477819912697 -1.5409487078810075e-08 -0.6352883727465479 5.7116750144326805e-08 -0.5345516127203979
-0.49564545305905294 -0.5285108074979629 -0.5065396037190155 -6.950436104822277e-08 -1.3003180527660442e-08 -5.4001283729030295e-08 -0.5244353984771273 -3.555017276973803e-08
4.774619533877399e-08 4.892799357463081e-08 -3.317452338064269e-08 3.0593470416499076e-08 -3.068613395544867e-08 -2.7713056426343998e-08 -0.4519385812603317 -0.5748392321454435
-0.478696506424668 -0.4571968499296752 -0.5077380732991964 -0.4831896455507422 -0.6287666299872399 6.658612901856179e-08 -0.5973749531500203 -5.40900981556191e-08
4.383273172553813e-08 -0.6251486797700483 -0.5155320399507775 -0.5884779275878794 -0.49659024105994753 -0.5089253592164259 -0.49811517573107666 2.172626142678535e-08
7.020484733963726e-08 -0.5442633928829376 1.1677422351090617e-08 -0.46376519497465873 -5.03183559760874e-08 8.085531184785718e-09 4.2991100734768335e-08 -0.4336375976791763
-1.9144343691677962e-08 1.2650781608688975e-08 -0.4801284552188286 4.2871376495658496e-08 -0.4610050195419356 -0.5226522445519033 -0.5358751793959844 7.948506615384165e-08
-0.4793112232934946 -3.371181715568222e-08 -6.779974056000679e-09 -2.6909154460517903e-08 -0.6248118910024029 6.150634525442567e-08 -0.5453849155867042 -0.6035465394522455
-0.615141533674599 -0.2131085314843949 -0.576089876388157 -0.5318142582844763 3.6234666263413514e-09 -0.6170081407896975 3.811785809416592e-08 -0.477297366305119
6.970323541652271e-08 4.102935814209977e-08 -0.5792954934122078 -0.585514952353497 -0.48836877598431105 -4.7455685214228774e-08 6.109093761506257e-08 -0.5025575302930603
-0.5613050394504555 4.6232581566814884e-08 -8.254537820458671e-09 -0.6408064087821519 -0.4187545753364713 -0.4653987812804464 -0.4977431158828649 4.932083685505782e-08
-0.5090438662545078 -0.6095946084164515 -3.667804274557281e-08 -5.564582444130977e-08 -0.5654385031471287 -0.5755930279237407 -0.6023948422583818 -0.6179372230695764
-0.5846509987464708 -0.4788811981757237 5.484955259887386e-08 -0.5708201104879599 -0.590416390049302 -2.4624734347946083e-09 -0.6280858598169414 -4.9507516407564415e-08
-0.5258067090239185 -4.619627605744861e-08 -1.8971237392622414e-08 -0.4245620391543904 -0.5089974375449844 -0.45909290387438895 -0.5880519331660872 4.900792158628645e-08
00000000: 8962 d881 866a d0bf 2074 780f 9a99 babf
00000010: acd0 498c e7cc c8bf 6fc3 4df2 71e1 dfbf
00000020: 2ae6 388f 14f7 c9bf c4fa 86bb 83b9 b1bf
00000030: 433e cbbb a98a c4bf d426 4d1b 739e b7bf
00000040: 6e21 105f 3fc9 c3bf 02ed 6e0c 998d e1bf
00000050: 61bf 18f9 0a61 3b3e fcac d443 c9a3 dfbf
00000060: 9ebc 7659 22dc c7bf 7019 34fe 5890 b3bf
00000070: 3c41 121c a96c debf c2b3 55d8 62cd e0bf
00000080: f57a 6eee c715 6d3e aa9a b092 d9c9 dfbf
00000090: fabe 2a0d 4366 dfbf d29a efbd 7cc6 e0bf
000000a0: b21c 3cd2 a50b 93bf d310 0355 6bb6 adbf
000000b0: b458 fa8e b5a2 72be aab1 d166 4275 b0bf
000000c0: 5000 df67 3ad6 d2bf e591 316f 23c3 e0bf
000000d0: 70b3 a4e1 e5c2 e0bf cae4 40d4 0a9d 6ebe
000000e0: b49f b20a 412b b73e 19ae 158f 0afb b2bf
000000f0: 1d4e 282b 8d1c cfbf 7dda ce43 665b 47be
00000100: 0f0e 4d59 74e3 6abe 40f0 4028 e839 b1bf
00000110: 6541 24db 21e7 623e 1b22 9080 3932 d5bf
00000120: dbac b828 6ff0 e0bf 2a8a 4917 b921 2cbe
00000130: 7085 4a17 badb 95bf 9476 a5bf 1c1b cbbf
00000140: 3ef3 96bb cade ddbf 123a 95f3 1bab 9fbf
00000150: 4a42 d887 9a14 debf 3c69 1832 3120 8bbf
00000160: fd5d 8fc5 cbb2 6f3e 5956 bc81 21d4 5ebe
00000170: b238 53f6 346a 50be 0199 f656 6c18 50bf
00000180: 4c27 cd99 b625 b3bf 7b3a edac 162a b0bf
00000190: 3843 c754 d489 b3bf aede bdb8 ecfc ddbf
000001a0: 3867 09ec 7f87 b8bf 9c1b 65fc c7c8 e1bf
000001b0: a8d7 a5c4 7d47 cbbf f916 74d6 2150 b3bf
000001c0: 85a9 7a30 5270 89bf 6f44 1511 d850 d0bf
000001d0: 67ae 6795 864c b5bf bf05 66a6 8f5a 71be
000001e0: ebbd e40e 1177 53bf a271 3d0e e25a 643e
000001f0: 645b b0cf d7b8 6abe 4f92 9740 bffd 63be
00000200: 0588 4b1e e1eb 46bf 93e6 9942 9834 bbbf
00000210: a0ae a760 247b 76bf ea96 5394 9296 c4bf
00000220: 26ea f748 7a40 b3bf f452 ecb3 d32d 603e
00000230: 6bee 6c71 1c53 e73e 9516 15f0 f96b 6e3e
00000240: 19c2 e099 0bc4 ac3e a8a6 8f91 1375 dfbf
00000250: 59a5 cd7d ec30 71be 3081 35ed 6988 debf
00000260: 0aa9 638e 3363 473e d9c5 3929 c788 a4bf
00000270: d435 0c40 9b26 703e 3e4a 1939 188d e1bf
00000280: a90c c96c 5133 663e ab53 d859 b4a1 6c3e
00000290: 0e56 21a7 4555 60be ca94 2b23 310a c9bf
000002a0: a28a 5de4 68b7 70be d007 20d5 e0fd b2bf
000002b0: 3206 013b f44f 70be 4eb7 7447 1feb b7bf
000002c0: 0ff4 2901 f2a7 c2bf 5dcf 0c4d 2a82 69be
000002d0: 6c24 a8d0 b620 b8bf a6aa a796 8eac d7bf
000002e0: 18ff 7c35 0245 dfbf 0bef c323 008c 6abe
000002f0: cee9 237e 8913 d2bf 4d6e 0278 f5af 9a3e
00000300: b066 2a96 6e04 e1bf 4952 bf1e c92b 87bf
00000310: eec2 ae8a b555 c1bf 37b3 5ec6 0944 babf
00000320: 01d5 3c3f c780 57be 13b0 0bec 4643 dfbf
00000330: f1a0 7ece e1cf c3bf 28aa 2f52 4e21 5a3e
00000340: 03fe 2a3a 7a9a e1bf 82af b747 98c5 dbbe
00000350: e811 19d8 93fd 6abf 422b 7e21 451f 6b3e
00000360: 91f2 0e19 ffcb e1bf 18c6 f0a8 b217 d1bf
00000370: 1e7e 170f c960 debf ec51 d047 799c dfbf
00000380: ea2e 74ca ad28 b5bf 4494 1232 7672 6cbe
00000390: 08d9 2929 7d1d d0bf 78f2 5af0 9b99 673e
000003a0: a1e7 c1d2 14a6 ccbf 12d3 fd0f deeb dfbf
000003b0: 6e4b 02c1 c4c0 6abe 528c beab a1f8 34bf
000003c0: 4b9b 8bf1 877f dfbf fe9a 6895 df8f e0bf
000003d0: 7b91 d153 74af 623e bbfc fd11 6499 e2bf
000003e0: e7a0 6ea6 633d e3bf 0b7a f17f 5248 73be
000003f0: 1bc5 9423 1dba ddbf 5b7f bab8 f384 663e
00000400: 077b bd14 9725 e1bf 778a 9d96 a754 5dbe
00000410: 6649 0c53 f8a1 6cbe 8c2b 2844 9916 d8bf
00000420: 82f3 37f6 4b1b e0bf e498 2e2d e5d9 e0bf
00000430: 2e14 4633 1386 e3bf 18ea a8cd 9ef9 6dbe
00000440: 1c55 ddba 1ee2 6c3e 7842 2dde f58e 563e
00000450: 24fb 66cf 492f 663e a62e d589 a5cc 653e
00000460: 46f0 bd97 ea6f ddbf feed abce 2b1d dfbf
00000470: 1e73 91b0 a976 e1bf 29cc a6ba c55d 66be
00000480: ccb1 2b88 165c e3bf e72e ab52 cb51 5bbe
00000490: a6e5 087f 3c1d 6bbe bd73 4069 20e5 dcbf
000004a0: 657c 1041 ba8b 50be 2437 0f48 4854 e4bf
000004b0: 1c4d 55fd 10aa 6e3e b30f d5fb 0b1b e1bf
000004c0: de2e d3b4 a7b8 dfbf 6329 397f 8fe9 e0bf
000004d0: 5a43 038b 9235 e0bf 5c74 84a6 4da8 72be
000004e0: 73ff d4f7 92ec 4bbe 5326 8f42 e1fd 6cbe
000004f0: 205e aabe 2cc8 e0bf 8070 ad81 fa15 63be
00000500: a676 12e7 2fa2 693e 3dea 42bb 9c44 6a3e
00000510: 4e40 45c6 78cf 61be 6978 ef0b bc6c 603e
00000520: 5ef7 e45a 7879 60be 8842 61fa b4c1 5dbe
00000530: b214 94cc 8fec dcbf c3b7 d03e 1565 e2bf
00000540: f46a f3ab f6a2 debf 270f 9293 b642 ddbf
00000550: 9521 78ea 633f e0bf 5200 5a43 94ec debf
00000560: 0090 1332 db1e e4bf a106 d691 c3df 713e
00000570: e652 e713 b21d e3bf 1bd1 cb23 160a 6dbe
00000580: 4712 8824 5388 673e 76ff d7cd 3701 e4bf
00000590: c21e 740c 3d7f e0bf af0c ada9 cfd4 e2bf
000005a0: f25f 376f 22c8 dfbf 3711 bed5 1d49 e0bf
000005b0: 4800 5a79 1ee1 dfbf b19a 76bb 1154 573e
000005c0: 3382 51bc 70d8 723e 6ff3 1a10 9b6a e1bf
000005d0: 9797 9717 bb13 493e 3a1c 5c36 54ae ddbf
000005e0: 5596 72c2 b303 6bbe afde d859 115d 413e
000005f0: d2aa 7fe2 a614 673e be46 16e9 b7c0 dbbf
00000600: 3ce1 766c 5b8e 54be 46f0 b53a d72a 4b3e
00000610: c1ce 42b3 6cba debf e6e1 6b76 3204 673e
00000620: 765d 8e32 1b81 ddbf 6201 3133 91b9 e0bf
00000630: eacd 47b4 e325 e1bf a4dc 4f12 2c56 753e
00000640: 1caf 29fb 08ad debf f451 5c1e 5119 62be
00000650: 5f6f 1d0a a91e 3dbe fd45 0168 bbe4 5cbe
00000660: 493b c081 75fe e3bf c499 9111 af82 703e
00000670: d5a6 0511 cb73 e1bf baf6 11d5 4050 e3bf
00000680: df65 314c 3daf e3bf 14ae 9cee 2347 cbbf
00000690: 269a 5409 546f e2bf 381b dc55 9f04 e1bf
000006a0: 4b7e 575e 1620 2f3e 28d7 41db 87be e3bf
000006b0: d2a1 04e7 e076 643e b4d5 af40 0a8c debf
000006c0: f461 0c49 f8b5 723e 577c 1434 0807 663e
000006d0: a59e ddb3 9689 e2bf 2eac 75da 89bc e2bf
000006e0: e25e 4f1c 6f41 dfbf d2ac 7e7c 427a 69be
000006f0: 3f00 e123 2366 703e 7ef3 9e87 f314 e0bf
00000700: 5aa1 70fc 35f6 e1bf f3bd 3b5a 28d2 683e
00000710: f160 9eeb fab9 41be 6a2b 1971 7c81 e4bf
00000720: 7ab6 87fd dfcc dabf 56a8 4cf8 17c9 ddbf
00000730: b0aa 21f1 05db dfbf dfcd f6ac 9a7a 6a3e
00000740: 3c5c b95c 164a e0bf 45ee 5e8d cc81 e3bf
00000750: 2685 48e7 fdb0 63be 38ed 6f64 e7df 6dbe
00000760: c850 dd7c 1218 e2bf 5c9e d711 426b e2bf
00000770: 2aec 588c d146 e3bf 8f13 8248 24c6 e3bf
00000780: 1413 e602 76b5 e2bf b860 3553 fda5 debf
00000790: b29c 4a11 7772 6d3e 933c 4e89 2844 e2bf
000007a0: 9c17 c9e9 b0e4 e2bf e6ed 2f4e 0927 25be
000007b0: 3ecd 5f84 4719 e4bf 27ea e3e0 4294 6abe
000007c0: c4cd 6897 68d3 e0bf 19c6 46f7 2acd 68be
000007d0: dad2 9b26 c65e 54be aaa2 5242 062c dbbf
000007e0: c21c 80fe b449 e0bf c4d5 fd33 c761 ddbf
000007f0: 9488 a949 52d1 e2bf ddd4 c9f2 984f 6a3e

module.model.hidden1.bias f8 [120]
-0.7597647085841164 -0.579013829404101 -0.4786801778703429 -0.5510636298259677 -0.1185752701671711 -0.4764972952654034 -0.5582415653538129 -0.8022466401178088
-0.40230780602927796 -0.5028545792873268 -0.7285935909069532 -0.46868034720455454 -0.5255077808504092 -0.5170171957799412 0.5659187123608749 -0.4140998628114152
-0.7188871359224979 -0.6051378733060354 -0.5307736824897731 -0.7654753180979639 -0.2927852157837957 0.5722504154443631 -0.3962859198007811 -0.5103997799561597
-0.578047704755226 -0.43087124871679344 -0.3732446455781019 -0.44434130814384976 -0.46904637639368496 -0.4679229023489108 0.17382246452970412 0.761869446861378
-0.5741943401088399 -0.3290988603081496 -0.356042755764594 -0.482591378767423 -0.49114190437712635 -0.46603342672938114 -0.48347885562354065 0.22564755212653734
-0.6363862937365085 -0.5168561879945885 0.5146847853284902 -0.5226397571650867 -0.3877480505191143 -0.4734806114539293 -0.525476823325435 -0.7840071750337461
-0.6697441461012568 -0.537568747704604 -0.9124502597859784 -0.6866891689611343 -0.47426256336778033 0.3718353866200662 -0.3733072716510881 -0.3147779155107767
-0.5167310769164688 -0.5107592719256161 -0.5166484283701761 -0.4933120479517291 -0.20405088062576263 -0.6702939722919068 0.21632842438718008 -0.3365256409427954
-0.6714222319273462 -0.5153159885389278 -0.31500269861638064 -0.7050597500567191 -0.5018374933930491 -0.5261684836225295 -0.5019016730997401 0.11850070686110635
-0.4557970140287045 -0.5013399329571745 -0.49564344344359645 -0.6869942441411749 0.6586178205305855 -0.5449405064071353 0.21548855009981166 -0.5999265985956741
-0.4748805515670572 -0.5033617050774455 -0.5121655995995033 -0.5039484455353946 -0.3625532720123633 -0.48246702341853887 -0.2186656175594961 -0.7210352525972654
-0.26974258937874473 -0.26317354689127026 0.31330774238312376 -0.670335437676312 0.20016995600150667 -0.5208745904434897 -0.6440910819815694 -0.6129848705219247
-0.4635470628908097 0.2171805081707692 -0.46245983781589917 -0.470628170623932 -0.47778595417509817 -0.25895706741936736 -0.4972152010457427 -0.6166955414393676
-0.49352284334451346 -0.3888337020866387 -0.4949035087034055 -0.3183722845230837 -0.5050511751955751 -0.5195422020487397 -0.40360031847594136 -0.88004632970312
-0.43510409956741736 0.17924510350045317 -0.5098435153748986 -0.5270577979697324 -0.42077149108824885 -0.5206401889727863 -0.788491297899953 -0.553543565449867
00000000: 90c2 0014 fe4f e8bf 621d a702 4887 e2bf
00000010: dc94 4c2f b2a2 debf 3ac3 8331 50a2 e1bf
00000020: 3b7c 7beb f25a bebf 0008 f382 ee7e debf
00000030: 94cc 4e6a 1ddd e1bf 4838 5425 01ac e9bf
00000040: 888f 743d 69bf d9bf 61da 957c 6217 e0bf
00000050: 7ca8 a081 a350 e7bf 0a60 e1da dbfe ddbf
00000060: 2e79 91b1 f5d0 e0bf f405 6ba5 678b e0bf
00000070: b619 398f 011c e23f 3c66 03b6 9c80 dabf
00000080: e9ab 4998 1f01 e7bf 0774 ed19 4a5d e3bf
00000090: c0df fb16 19fc e0bf cc07 2418 c67e e8bf
000000a0: 12cc a233 febc d2bf 2a97 6e1a e04f e23f
000000b0: 7037 5a9e bf5c d9bf 8083 59eb 3155 e0bf
000000c0: 2d73 6ee6 5d7f e2bf ad9e 8100 6593 dbbf
000000d0: 5290 8a82 3de3 d7bf 2257 af86 1670 dcbf
000000e0: 84c3 ba17 db04 debf 8fd4 a8e6 72f2 ddbf
000000f0: a68b 3b84 d03f c63f 58eb c208 3c61 e83f
00000100: c61a 0acf cc5f e2bf f628 8baa f40f d5bf
00000110: 3825 ff8d 67c9 d6bf f0ce 48f3 c6e2 debf
00000120: b8ac 3f74 de6e dfbf f14f a9dd 7dd3 ddbf
00000130: ae7a 4d4c 51f1 debf d128 67dc 04e2 cc3f
00000140: 0d12 e7c9 465d e4bf e880 05fd 158a e0bf
00000150: 3882 173a 4c78 e03f 36a1 1303 77b9 e0bf
00000160: 7e4f 0433 ddd0 d8bf 7a05 5f9f 814d debf
00000170: 8aa3 5fc5 b4d0 e0bf 5c2d 1337 9616 e9bf
00000180: ae27 8646 8b6e e5bf 3ec6 d75f c333 e1bf
00000190: 493d 20e3 ca32 edbf 6093 6690 5bf9 e5bf
000001a0: 7f6e d85d 515a debf 3ad6 41a6 26cc d73f
000001b0: 246d c62e 44e4 d7bf 2ecc 2745 5225 d4bf
000001c0: e8db 859c 0f89 e0bf cd93 21d4 2358 e0bf
000001d0: 8b26 ec48 6288 e0bf be3a 2bb2 6c92 dfbf
000001e0: b1fa 80d9 561e cabf b263 3658 0c73 e5bf
000001f0: 3615 f859 a6b0 cb3f fb57 87d7 a289 d5bf
00000200: ceed fd79 4a7c e5bf ec2d bcf4 777d e0bf
00000210: e261 2d14 0129 d4bf 7e06 0777 d98f e6bf
00000220: cff3 c080 0d0f e0bf 9607 ab49 5fd6 e0bf
00000230: 94ac f818 940f e0bf 2f76 85f4 0f56 be3f
00000240: 0989 373d c72b ddbf 515b 070b fa0a e0bf
00000250: ea4a 0447 9fb8 dfbf fe0c 645a dbfb e5bf
00000260: b2bb f7ad 6513 e53f 3019 a912 2770 e1bf
00000270: c2aa abf9 2095 cb3f 8e01 1f44 9932 e3bf
00000280: 3a2a 9f65 7164 debf c2b9 ab01 8a1b e0bf
00000290: ab50 8d1c a963 e0bf d039 8e7d 5820 e0bf
000002a0: 0675 96a3 1234 d7bf 30ca be5d bde0 debf
000002b0: 30be 1626 3cfd cbbf 2863 a585 b812 e7bf
000002c0: 8e15 ee6b 7643 d1bf 4280 44dc d5d7 d0bf
000002d0: 7e9f c7ea 3b0d d43f 6a6d c54d 6373 e5bf
000002e0: 9088 554b 2b9f c93f b8b5 6830 01ab e0bf
000002f0: ef31 98e6 649c e4bf e8b3 7a72 929d e3bf
00000300: ea76 d14c c1aa ddbf d907 f625 92cc cb3f
00000310: fe7e c825 f198 ddbf 79fd 599e c51e debf
00000320: 94e4 ea89 0b94 debf 8d97 e8a9 c092 d0bf
00000330: a431 e4b4 5fd2 dfbf 6c46 c249 f8bb e3bf
00000340: 6a97 ffd5 e095 dfbf b2dc 82c0 a6e2 d8bf
00000350: 40a2 23c4 7fac dfbf 55af 7e25 3660 d4bf
00000360: feae 0815 6129 e0bf fe1d d6f7 16a0 e0bf
00000370: 3c99 206e 96d4 d9bf 8045 a1eb 5629 ecbf
00000380: 70d8 7fdd bed8 dbbf 9754 c0e8 80f1 c63f
00000390: 929c 1359 a350 e0bf 8237 ac50 a8dd e0bf
000003a0: 360b 548c ebed dabf 52e2 139d 15a9 e0bf
000003b0: 0626 351a 523b e9bf da96 d0fe a0b6 e1bf

module.model.hidden2.weight f8 [120, 120]
0.5209189600035378 3.147602731398061e-08 1.3173314441962137e-08 4.2808974742300064e-08 -0.09539830376233258 7.572736494205404e-08 -0.5852001461206373 7.229748127704109e-08
-4.831005074232994e-08 6.705767320726725e-08 6.60439567495113e-08 -4.58610649576423e-08 -3.307341642137583e-08 2.0821475536778967e-08 -0.5085144599925793 -0.1607934382730234
4.9059721649980974e-08 -4.874754252536325e-08 -5.327657871424089e-08 5.758562040483389e-08 -0.46553456094332546 0.3856740960944733 -5.108051990516005e-08 -6.975617884263632e-08
3.873315589955544e-08 -2.6481600178649155e-08 -0.5594932513863196 -4.5750814886027284e-08 1.307889031507005e-08 -5.260864145303272e-09 1.798053699387078e-08 -0.09117055035093902
-4.4853621326597555e-08 6.339253055624522e-08 -0.15449707214996067 -4.022423426537973e-08 -0.4269804371191802 3.452778165004773e-08 -3.124048116499311e-08 -0.7080050751732269
-3.990969958079657e-09 -0.4659658690433771 -0.5099430258264236 5.0412690490979905e-08 6.423985306742599e-08 8.934055080606516e-09 -1.4402829578012368e-08 0.3748229544567496
5.7722963974762496e-08 3.510986523590568e-08 5.053630172419613e-08 -2.0827171661843014e-08 6.690196297564707e-08 -0.5097996189381064 -0.35633883091192947 -0.6001033845713487
4.552512009146396e-08 1.697582002220549e-08 2.4904190813216136e-08 -8.237018208518634e-09 -0.4657823204804322 -3.1772484620857075e-08 5.41101683916703e-09 -0.5577691249592343
-6.68190176417898e-08 2.2850455790893803e-08 -0.5990347386507502 -5.200399878969467e-08 1.3212514195622265e-08 5.298739328313351e-08 5.824296849464649e-08 -0.5592077860157483
1.6770300487500784e-08 -3.152801861319021e-08 -5.11966302658836e-08 4.778231206423823e-08 -0.8320778712758967 -1.945563308371551e-08 -0.5578656963658779 -1.6243628912296767e-08
-0.5575560277438814 5.640675222666147e-08 -0.6252932911210197 -1.8296311368599142e-09 -0.4938352254051681 -4.988690868395768e-08 0.6327534354743012 5.129230593740278e-08
-0.4971773005864756 -0.5101592882599957 -0.4658815245167643 -1.99105065996336e-08 -5.132019136171976e-08 -3.361689040771122e-08 0.0590043270490747 6.594544587627648e-08
5.663747464123158e-08 -1.5324970648676248e-08 4.4017859454483034e-08 -8.78852834141974e-09 -0.46529230518688425 -0.5001015069959466 3.421279393714715e-08 -2.4082244812820736e-08
-4.58588984084813e-08 3.9225591668439785e-08 5.861768128992168e-09 0.28729111460797085 -0.5531699470833633 3.4968668593897674e-08 6.308386974798167e-08 0.3314676146274951
-0.5487398767674612 7.393268508732506e-09 3.03119966469572e-08 5.2470258000394984e-08 -5.639678800410089e-08 4.07635311197976e-08 -5.362475573579032e-08 -2.9058077294826334e-08
-0.0937142128545208 -3.016591838834494e-08 6.4618162765901e-08 -0.1716984456892237 -5.4472407955487695e-08 -6.615996124837424e-08 -3.571799121110445e-09 -0.02310791353179615
-0.20680162122457768 5.059691713374929e-08 3.06535105611865e-06 -4.956581085468237e-06 -0.0006258667431945981 -0.08100298514623461 2.8479678201691728e-08 -6.10250009064557e-08
-4.843515081072561e-07 -0.04697116456487488 -0.01222730225544025 -0.0049183231992484975 -1.1190314786346903e-08 3.290089833342498e-08 1.4192271838588625e-06 -7.012415443389505e-08
-3.690723296496089e-08 -0.07808295997365615 5.5878922987518757e-08 -0.00019189257551930185 -0.07732453031774737 5.363001529042515e-07 -0.2035441198103226 -5.5067226368815005e-09
-4.770920178217515e-08 -0.0702820224449054 -1.3933754256776417e-08 -2.3320479341229466e-08 -6.292489592475124e-09 -1.3573853184437817e-08 -9.67856072119866e-07 6.51256862174316e-08
-6.521973384338583e-08 -5.648901940315783e-08 1.906271292246221e-08 -2.0041619673301463e-06 -0.15603543540187192 -3.253747975544695e-08 2.4290663762157557e-08 -0.17181899115382648
-0.04823736738207722 -4.9231347884140747e-08 2.9847962740353636e-05 -0.08734733844321786 -0.07115984922712743 -3.353772760109723e-08 -8.352638159902822e-08 5.942136402209052e-09
1.364682450046614e-08 -0.014836752109140254 -0.18291083535076935 2.778386858552026e-05 -4.372287926778745e-08 -0.031518627484645526 -0.165581589398634 -2.023225882146861e-08
-1.065244585818018e-06 -0.13169458503405948 4.739512495633589e-08 -0.017357788698049617 6.3895190457625e-08 -4.029487828043135e-08 6.670213016760689e-08 5.053580783133863e-08
4.9999311450165804e-08 -3.29344794090307e-08 1.7189645911864004e-05 -0.17597686598540063 4.587501425328062e-08 -0.019386405975833635 -4.910917960459141e-08 3.145110506020689e-08
3.337239786773957e-08 -0.14419798308043116 -0.0003672944593987447 -0.042165477075739165 4.750141933864475e-09 3.9659650218094824e-08 4.580229918422955e-08 -0.07741452196045229
7.23390968429865e-08 4.6249449518528934e-08 1.666307250478106e-08 -0.02036443912193997 -3.66538876684086e-08 1.4487843942456961e-08 4.2073486713395797e-08 -0.03335614214740926
5.343163790749373e-09 -6.853610308345987e-08 -0.005662926971042934 -0.009069348677403853 -6.423476240787546e-08 -5.443108881108958e-08 -0.04114685011130297 -5.344287130230668e-07
-2.8668380806285644e-08 -0.09361799663165964 -0.013632440874724218 -5.425486716628611e-08 5.2974192284477395e-08 1.8498587443667704e-07 -0.021035709611261565 -0.030182621649591193
-5.837428435900314e-08 -0.008317420835316326 7.651418890042288e-08 -4.0082010048490636e-08 2.877302569984519e-06 1.5285597116566175e-08 -0.028580706948601858 -0.017281548031267358
3.489391647606307e-08 0.517443921014602 0.4381591687313463 9.81892490712282e-09 6.833903819777526e-08 0.28681479776519797 -0.49129740984606984 1.919284624143676e-08
0.6136345496960591 -4.206064769112532e-08 -4.89532167732657e-08 0.4752842457706993 0.49558561942412066 0.583169289203335 -5.5095957901647496e-08 9.40827018156213e-09
00000000: de9b 223d 5eab e03f f0c2 c341 08e6 603e
00000010: 52b0 1830 1b4a 4c3e 6123 65e5 9efb 663e
00000020: a6ca c0f2 056c b8bf 9de7 88e4 f153 743e
00000030: 5c7b 26a8 f5b9 e2bf 2936 bdbd 3e68 733e
00000040: d7f5 0acd aeef 69be 8b8e 1110 2b00 723e
00000050: 0ad6 0193 81ba 713e b3ac 1bc6 189f 68be
00000060: f80a be63 93c1 61be d0fd df15 5d5b 563e
00000070: 62c2 e61d c045 e0bf c8a2 651f e194 c4bf
00000080: 0e94 4880 b756 6a3e c474 b4ac cf2b 6abe
00000090: 320e 17f8 469a 6cbe 3db8 31e5 81ea 6e3e
000000a0: 0032 9a78 51cb ddbf cbf7 6867 e2ae d83f
000000b0: 7250 d204 746c 6bbe 67e0 0aad 9bb9 72be
000000c0: 29c6 f3c4 71cb 643e e575 c9f2 346f 5cbe
000000d0: b02e 2164 5ee7 e1bf 9cc6 beb1 f18f 68be
000000e0: 9c1b 652c 3216 4c3e d6f6 de9c 6198 36be
000000f0: 4673 d2ce 734e 533e 4098 1d04 f456 b7bf
00000100: 6dda 9580 a214 68be e4bd fd30 4d04 713e
00000110: 5c1d 1b60 8fc6 c3bf becc e56c 6098 65be
00000120: be5a 5dc1 a553 dbbf 5f6b 2551 7689 623e
00000130: 7dc5 aab6 a8c5 60be 49ac 6842 faa7 e6bf
00000140: 0c8f 0e2d 1e24 31be 4afc 2582 62d2 ddbf
00000150: c1ed 5709 7451 e0bf 9947 38dc aa10 6b3e
00000160: 3438 5672 873e 713e bd2f 0e79 8c2f 433e
00000170: 956c 5d0f 0aee 4ebe 38a3 cb6a 19fd d73f
00000180: cd4c 183e 62fd 6e3e e4a5 fc8f 76d9 623e
00000190: 6840 3a0b a821 6b3e fc4e 24ea ed5c 56be
000001a0: db08 87c7 77f5 713e 1a47 5b4a 4750 e0bf
000001b0: 6ff1 4362 41ce d6bf c77d 5e03 0c34 e3bf
000001c0: 1c84 c2c3 ec70 683e a9be e722 473a 523e
000001d0: 818e dda1 9cbd 5a3e af83 1341 59b0 41be
000001e0: 3e2e 61a6 60cf ddbf 575a cceb c60e 61be
000001f0: a2a5 bad6 793d 373e ee63 cda2 3ed9 e1bf
00000200: 7bec f396 c4ef 71be df8e bde0 1589 583e
00000210: 3a88 75e6 4a2b e3bf f75f 240b 60eb 6bbe
00000220: fd72 1010 a85f 4c3e bb5e 4a29 8872 6c3e
00000230: ea3b 6b46 da44 6f3e 0866 13ba 07e5 e1bf
00000240: 8b08 1bfc c801 523e 7895 c189 2ded 60be
00000250: cce2 f949 697c 6bbe 1064 9da5 26a7 693e
00000260: 685e 9bc5 61a0 eabf fbd2 9f77 ece3 54be
00000270: 6c74 2e29 09da e1bf a45c 77c4 0371 51be
00000280: dc1f 1bbd 7fd7 e1bf db4b 9e28 7c48 6e3e
00000290: 4fbc 7813 6702 e4bf c6c7 cb86 cd6e 1fbe
000002a0: 5097 ae0f ff9a dfbf 8c2f b88e 67c8 6abe
000002b0: 9066 f921 843f e43f d335 d093 8f89 6b3e
000002c0: 4247 95bd c0d1 dfbf 6479 5a92 3953 e0bf
000002d0: 490c e7bd 00d1 ddbf 2556 6958 f560 55be
000002e0: 36ee 62b5 648d 6bbe b21f 3a2e 450c 62be
000002f0: 761c ffad d035 ae3f 65a5 798d bcb3 713e
00000300: 7000 61fb 3168 6e3e 734f 69f0 7e74 50be
00000310: adab dfbe c4a1 673e 445b b567 8bdf 42be
00000320: 6ceb 7660 59c7 ddbf 014b 27e0 d400 e0bf
00000330: b0a3 0dac 2b5e 623e 81a1 0f53 addb 59be
00000340: 0770 918b cc9e 68be 5bf1 0ad0 1f0f 653e
00000350: 20f2 2e0c 152d 393e 400c 6b45 fa62 d23f
00000360: 904c fb75 91b3 e1bf d9bf b2a5 0ec6 623e
00000370: f043 4a2c 17ef 703e b886 20f1 c336 d53f
00000380: 2c46 17ee 468f e1bf 08ce d014 fcc0 3f3e
00000390: f8b1 9b91 0c46 603e 84d9 c114 752b 6c3e
000003a0: dd5c e192 1d47 6ebe 3e73 1f3f 7fe2 653e
000003b0: ff29 e65b 21ca 6cbe d5ee 4e68 6c33 5fbe
000003c0: b46b 6197 a7fd b7bf a846 a0e5 f831 60be
000003d0: 23fe c0bd 8658 713e 0a2f 81f4 36fa c5bf
000003e0: 9d32 5778 a13e 6dbe d134 d358 7ac2 71be
000003f0: 72a6 1b26 78ae 2ebe b268 97d3 99a9 97bf
00000400: f4ac f5bb 7978 cabf d19e 4cc2 fc29 6b3e
00000410: 03c4 9090 cab6 c93e 842f 66a2 16ca d4be
00000420: 3956 ca98 2682 44bf 00da 1494 9cbc b4bf
00000430: 910d 8c30 6f94 5e3e 82b4 572b 9b61 70be
00000440: 9fb3 ed3a 8c40 a0be 1885 52bf 9a0c a8bf
00000450: 9181 71ba a00a 89bf 33bf ab54 3c25 74bf
00000460: 9bfe 03cc f007 48be 7dfa f272 dda9 613e
00000470: f817 86ca 88cf b73e 8d35 c72b e5d2 72be
00000480: 20ad 41d1 7dd0 63be f333 76af 3efd b3bf
00000490: 1729 7dd1 f0ff 6d3e 907c 22ac d826 29bf
000004a0: 5bae e458 8acb b3bf 0ee8 1882 c8fe a13e
000004b0: c470 f0d4 bb0d cabf c074 3fa0 b4a6 37be
000004c0: 1698 bc4e 1a9d 69be 8dc9 e5ab 00fe b1bf
000004d0: 995b d493 29ec 4dbe 01f9 48d8 480a 59be
000004e0: 99de 8a5c aa06 3bbe 46b7 2501 4e26 4dbe
000004f0: f1f4 5b01 e93c b0be c95a 2e30 677b 713e
00000500: 45c6 08b1 dd81 71be b31b 78ad ca53 6ebe
00000510: 67d0 412b eb77 543e ba10 8ab1 e7cf c0be
00000520: 7cb9 081a f8f8 c3bf 8a87 67cb ea77 61be
00000530: 4843 1281 f714 5a3e dc2f eb29 2afe c5bf
00000540: 16cb b376 91b2 a8bf 36d0 f80f 4e6e 6abe
00000550: 9f39 9361 404c ff3e 899a 012a 655c b6bf
00000560: 7c03 3829 8837 b2bf 38e7 0de3 6301 62be
00000570: 6c84 0ba5 e36b 76be a69f 96b4 7285 393e
00000580: cb76 e1cd 6b4e 4d3e 3c70 b328 bb62 8ebf
00000590: 3832 f54b 9f69 c7bf eda8 30e9 2c22 fd3e
000005a0: 7252 8e0d 3a79 67be e2d0 85a4 3523 a0bf
000005b0: f4b6 a40b c731 c5bf c52b 28a5 66b9 55be
000005c0: b6f9 fbce 30df b1be b30a e43f 5edb c0bf
000005d0: 6860 2fb6 ef71 693e 04f0 277b 3dc6 91bf
000005e0: cb8b ef13 d826 713e a20c 9efd 15a2 65be
000005f0: b051 9148 bce7 713e dcdb a2aa 9621 6b3e
00000600: efdc d460 dad7 6a3e e267 63fa 7aae 61be
00000610: 2f4d eb78 4f06 f23e 7043 21f2 6886 c6bf
00000620: 7581 3192 03a1 683e 61dc 9cae 07da 93bf
00000630: 8277 efa5 835d 6abe 9d1f 0f62 9be2 603e
00000640: 7806 34dd aaea 613e f763 bd5a 1475 c2bf
00000650: f336 edb0 2d12 38bf c3fe 1ea2 b696 a5bf
00000660: 32cb 1717 d666 343e 1a41 e3e3 c74a 653e
00000670: aade 1323 0597 683e e03c 0e28 70d1 b3bf
00000680: cd1d 96d9 1a6b 733e 1648 3cd7 79d4 683e
00000690: 3557 7e7c 4fe4 513e 80d6 1e60 6ada 94bf
000006a0: 39b4 b005 acad 63be 632c a5c4 c61c 4f3e
000006b0: 3554 2b36 8996 663e b4a6 4967 0e14 a1bf
000006c0: 8fdd 4fe7 def2 363e 5ddf 4ee0 c365 72be
000006d0: 4a87 3e62 0232 77bf 8c48 b95f f392 82bf
000006e0: e259 0be4 2d3e 71be cdf0 92ae f338 6dbe
000006f0: b777 1f2f 3311 a5bf f674 1a2b b5ee a1be
00000700: b24c 77f4 4dc8 5ebe ab9a d959 59f7 b7bf
00000710: 27d3 c53d 53eb 8bbf cb32 1b6f bb20 6dbe
00000720: 7ae7 43b1 b770 6c3e 0346 97f5 10d4 883e
00000730: e367 5093 628a 95bf e4f4 9173 31e8 9ebf
00000740: 460f 938a e656 6fbe 1a4b cc53 b908 81bf
00000750: 1ad9 9ed8 038a 743e 908b 095b d484 65be
00000760: 981d f0d0 f522 c83e 40c8 e945 ac69 503e
00000770: 2b2f 90c6 4244 9dbf 4064 790e 41b2 91bf
00000780: a46a 7a8a c8bb 623e f4b1 c88d e68e e03f
00000790: 0632 09c1 cc0a dc3f 6055 6cd4 0216 453e
000007a0: 255d f612 3958 723e a743 1a74 2c5b d23f
000007b0: 087f f9b0 6a71 dfbf e775 b97c b09b 543e
000007c0: 047d 54ec e4a2 e33f d894 897a c594 66be
000007d0: 4228 a331 1448 6abe 52e8 f89c 0e6b de3f
000007e0: 19d9 f2be acb7 df3f d11d 25a4 52a9 e23f
000007f0: 2472 f3ae 5494 6dbe 75cb ab50 4034 443e
