pyTorch/lightning_logs/version_85/checkpoints/epoch=0-step=0.ckpt (torch, 81247 bytes, 24 tensors)

exp_avg f8 [32, 14]
0	0x3f11bb09a590ef22	6.763693217320653e-05
1	0x3f30fb74c5f7b0cc	0.000259128579243717
2	0x3f0ce528e708662b	5.5113135094053287e-05
3	0x3f195c4034a19b3e	9.67420757277239e-05
4	0xbf0978842a52cee8	-4.858163200918507e-05
5	0x3f179c33c4e4b417	9.00656316146917e-05
6	0xbef6eaf6db001469	-2.18561451106502e-05
7	0xbf30b899ac359615	-0.00025514365935061625
8	0x3f255031bff5f022	0.00016260726259165285
9	0xbf2d502ac82abf43	-0.00022364160766618667
10	0xbf2ca154272b3aeb	-0.00021843101747839126
11	0xbf27173325cc30c5	-0.00017616748200344735
12	0xbf2ab838e86d0f6a	-0.0002038545100849735
13	0xbf1af79950869178	-0.00010287163980266477
14	0x3fc91556ea7cb1dd	0.19596373033108608
15	0x3fc908ebaca75004	0.19558473520612563
16	0x3fc90edd5b96ee30	0.1957661339964587
17	0x3fc917c6fe5e9671	0.19603812618622699
18	0x3fc90bd141d92167	0.19567313876383283
19	0x3fc9127819cb76cf	0.1958761335326273
20	0x3fc91737ea2295fc	0.19602106983545287
21	0x3fc913b65f594fae	0.19591407447535175
22	0x3fc90b90006963bc	0.19566535968877286
23	0x3fc9134d7182eabf	0.19590156595753247
24	0x3fc90d8c288ced89	0.1957259366989599
25	0x3fc9150fc8455431	0.1959552505383342
26	0x3fc90aa29c00f8c6	0.1956370603310857
27	0x3fc91952303bc63b	0.19608523707533884
28	0xbfc423e33a387aea	-0.15734520285419445
29	0xbfc427d4df65301f	-0.15746556194278669
30	0xbfc42d1bb8ae7fdb	-0.15762659566553236
31	0xbfc4283e543f26ef	-0.15747813333137325
32	0xbfc42fa492785c2b	-0.1577039447008429
33	0xbfc4306484f98562	-0.1577268266001211
34	0xbfc42c3901e9cb28	-0.15759956925793372
35	0xbfc42e0998490888	-0.15765495239071847
36	0xbfc42b3a751432bc	-0.15756922451727984
37	0xbfc42ef37e646ece	-0.1576828353071193
38	0xbfc429f7fc0ae350	-0.1575307827640935
39	0xbfc42de98b2d4de4	-0.15765113158941724
40	0xbfc42870e423f724	-0.15748416080162386
41	0xbfc4278329b9f84a	-0.15745582139419617
42	0x3f2eeb2114513c23	0.0002358892326434779
43	0xbf26576682825d84	-0.00017045141544678674
44	0xbf26c07788305eec	-0.0001735826409407984
45	0x3f00e5d10041cb85	3.222984381147986e-05
46	0xbf18310db6531ba6	-9.228368942891407e-05
47	0x3f22d11cd176ef65	0.00014356114182400705
48	0xbf3036bf81094f6f	-0.0002474038638287023
49	0xbf001b45b30784ab	-3.072077231870118e-05
50	0xbf2eabe1f5fc76cb	-0.00023400433837477414
51	0x3f22a40a16508afb	0.00014221785673481494
52	0xbf2994fceb1b468e	-0.00019517505056980796
53	0x3f156f0056d32fef	8.176269121235013e-05
54	0x3f18867d7aee30e4	9.355679388373426e-05
55	0xbefe595a735389d9	-2.89430965566636e-05
56	0xbf1304212befd740	-7.254078353455002e-05
57	0xbf303dba7f454938	-0.00024781993058299893
58	0x3f144b8e79ed5e76	7.741982561292903e-05
59	0x3efe5e1d5d5042f0	2.8960834090044124e-05
60	0xbf226f603b5ea900	-0.00014064836221667348
61	0xbf088c104c3708b7	-4.6819922796996335e-05
62	0xbf19b3ead0c61c50	-9.804840755665953e-05
63	0xbf103d7dfaa1e370	-6.195146002764356e-05
64	0xbf305cd512d46eb2	-0.00024967386237205035
65	0xbf306108ea67587e	-0.0002499243513772799
66	0x3f2d660779448e33	0.00022429314834325614
67	0x3f30c4b7fd7eb92e	0.0002558659739361366
68	0xbf30f0197fd96697	-0.0002584516767903748
69	0x3f29877b091fa55a	0.00019477250003711416
70	0x3fd2fde2c1861628	0.2967459573631879
71	0x3fd2fd3d3f59d964	0.2967064970647668
72	0x3fd30103d790c650	0.296936951173028
73	0x3fd302a29cec2aa0	0.29703584026780483
74	0x3fd2ff5ea2fb14ee	0.29683652797787274
75	0x3fd2fcb0e4a822f0	0.2966730339981458
76	0x3fd2ff967f0f3c20	0.2968498459640063
77	0x3fd2fc9e71ae6cb8	0.2966686353845023
78	0x3fd302f348e34748	0.2970550739092812
79	0x3fd2ff971ab5cf76	0.29684999092500364
80	0x3fd3010a98083c6c	0.29693856093303483
81	0x3fd2fc5d1679d075	0.2966530532351109
82	0x3fd30375805a1b8e	0.2970861199796041
83	0x3fd303e37d8e0945	0.2971123434182526
84	0x3f314a739e45cead	0.00026383707724806743
85	0x3f01b26819f5fd47	3.375415985384461e-05
86	0x3f0849d89d88a469	4.6326563907968955e-05
87	0xbeee4c6bae98cd0d	-1.4447459267241778e-05
88	0xbf22036c8f6f4817	-0.0001374311466109674
89	0x3ed0ecaf525ed1a9	4.035127210079092e-06
90	0xbf22958a6cb8f16b	-0.00014178576235391745
91	0xbf05d8840c4de8a3	-4.166748980245882e-05
92	0xbf00ceac91763736	-3.205742012389464e-05
93	0x3f1dd52c9b940dee	0.00011380276454891317
94	0xbf2f1c9ec2c2055b	-0.00023736417768209058
95	0x3f12b7c16701a7e6	7.140272077923968e-05
96	0xbf28cf42e71e196c	-0.00018928233799559867
97	0xbf28e570e00726ea	-0.00018994334096893796
98	0xbfd3d08502091b13	-0.3096020240667922
99	0xbfd3d17609e51c5c	-0.3096594902639873
100	0xbfd3d79fddc89c71	-0.31003567369993507
101	0xbfd3d27be34ecd9b	-0.3097219199946381
102	0xbfd3d0b7902c8110	-0.3096140773723315
103	0xbfd3d6a58c202568	-0.3099759930051591
104	0xbfd3d665b861d2dc	-0.3099607754332234
105	0xbfd3d2e6e806cb58	-0.30974743517724823
106	0xbfd3d42cdee5294a	-0.30982515112977593
107	0xbfd3d180be89bd98	-0.30966204268676156
108	0xbfd3d5e40fd6d391	-0.3099298624686578
109	0xbfd3d0a5e2684175	-0.3096098624237336
110	0xbfd3d8230556a1e3	-0.31006694337204815
111	0xbfd3d4a13efa4200	-0.3098528971686676
112	0xbf26b5100bbf24b7	-0.00017324276802658186
113	0xbf1072cc88ccf724	-6.274579409379068e-05
114	0xbf300b5cdd1c5071	-0.0002448178976106669
115	0x3f240be9e11a5409	0.00015294294330617266
116	0x3f2400538a75ba8e	0.0001525976160609743
117	0x3f3088f7f0bdcbc8	0.000252304584811455
118	0x3f30212f163736e9	0.00024611854152288435
119	0xbf317a3129cbd561	-0.00026668262744008157
120	0x3ef092b835b59f9d	1.5805362051507175e-05
121	0xbf21bdc697775eb2	-0.00013535546507513968
122	0xbf2c493419f82b30	-0.0002158046818155567
123	0xbf301e5e40b18c09	-0.0002459507092621998
124	0x3f201fced02cd1b3	0.00012301826071737867
125	0xbf2c9b1f30ce5b31	-0.00021824603791450453
126	0xbffd333c52dc3966	-1.825008701012473
127	0xbffd3249669b7ee1	-1.8247770317174672
128	0xbffd32ddcef11e80	-1.8249185641924726
129	0xbffd3415a516eac6	-1.8252159546670312
130	0xbffd3297fd47c1fd	-1.8248519796144358
131	0xbffd33a00e002c66	-1.825103811922213
132	0xbffd33bc55bb3fa6	-1.8251307820209859
133	0xbffd33ea312cfd43	-1.8251745148589442
134	0xbffd3336b3d2eac8	-1.8250033401842973
135	0xbffd330b92f972b1	-1.8249622098148104
136	0xbffd3432a356d09b	-1.8252436047014615
137	0xbffd327668496403	-1.8248199533175018
138	0xbffd3446bef05c69	-1.8252627810050177
139	0xbffd323aab77f1bd	-1.8247629831304117
140	0x3fb63dbcead9a30f	0.08687954648634054
141	0x3fb64388fa4ba0d6	0.08696800337532137
142	0x3fb6447eb4812b0b	0.08698264986848529
143	0x3fb64cdf11dd29f5	0.08711046396380324
144	0x3fb632e588ae45f7	0.08671412074024674
145	0x3fb62d77991f381f	0.08663127411202297
146	0x3fb647ef6345e3ef	0.08703514264733746
147	0x3fb62c52b365334c	0.086613816068348
148	0x3fb64a885f50ec33	0.08707477881482432
149	0x3fb638e4f677d4c1	0.08680563943183285
150	0x3fb64d56ee6566db	0.08711760826318075
151	0x3fb63cbaee7c82e1	0.08686416933461373
152	0x3fb630d6cb83c7e2	0.08668272465345653
153	0x3fb64e147a97c35c	0.08712890618313679
154	0x3ffc5aae8fb48ab6	1.772139130924797
155	0x3ffc5a4697002a7e	1.772039975973399
156	0x3ffc594c149741d1	1.7718010715799333
157	0x3ffc592f9c2e7fbb	1.7717739201398064
158	0x3ffc5a658be0aa01	1.7720694984406011
159	0x3ffc5abc1849f6ab	1.7721520375047628
160	0x3ffc5a410419b2b5	1.7720346603556838
161	0x3ffc5978f7e83c33	1.7718438800691387
162	0x3ffc5a6b973af559	1.772075262778648
163	0x3ffc59ddbcad3a7b	1.7719399805243075
164	0x3ffc5925f771182d	1.7717647233671514
165	0x3ffc596052afbf36	1.7718203763906337
166	0x3ffc5ab2973c4006	1.7721429736739096
167	0x3ffc5a590fd615ae	1.7720575922588568
168	0x3f1895106814c2cf	9.377396238075961e-05
169	0xbf1970d3f0b0a39a	-9.70486982373578e-05
170	0xbebd3c2e73563125	-1.7425467836200688e-06
171	0xbef5883ce70e4438	-2.0534686374033324e-05
172	0x3f089877b9558f09	4.691233986411746e-05
173	0xbf0b87e46a454ecb	-5.251088922144999e-05
174	0x3f208a0336ec0701	0.0001261834072110932
175	0xbf107dcab9b032f1	-6.290960156736157e-05
176	0xbf13ca9e21ddf0c1	-7.549848711891056e-05
177	0xbedcc488b6c80395	-6.858756802064713e-06
178	0x3f228ad521d5a66d	0.0001414666339017325
179	0xbf246076c3e24336	-0.00015546273965985077
180	0x3f168ecd04d9e4cb	8.605123840678683e-05
181	0xbf22608b6938d057	-0.00014020635409084617
182	0xbf299228fb60d484	-0.00019509077327631655
183	0xbf1597aefcba9d1f	-8.236890351530746e-05
184	0x3f068e5e6e2831da	4.302240065010331e-05
185	0xbf287aef5ac08e11	-0.00018676921661252334
186	0xbf30b05fd4625fb9	-0.000254653354553987
187	0xbf05a12161d5ef32	-4.125483631420151e-05
188	0x3f180cde420ebe06	9.174448542980532e-05
189	0x3f2c44869267ff36	0.00021566527102833696
190	0x3f1895338f5d36e8	9.377600858081656e-05
191	0x3ef2407b81004040	1.7406353492843913e-05
192	0x3f2751e2d07f1ba7	0.0001779164670081244
193	0xbf1cca79707db4d1	-0.00010982862670312904
194	0xbf31541f9b501ee2	-0.00026441356322991054
195	0x3f10208b4e4fbaf1	6.152010207903146e-05
196	0xbf14efef825934d8	-7.986926410659693e-05
197	0xbf2e7e14583e9c71	-0.00023263929699377268
198	0xbf299c2eaa8c0420	-0.00019538945823430274
199	0xbf28915720d4ea26	-0.00018743694855934237
200	0x3f310771eea9c585	0.0002598431735015494
201	0xbf2a17c9aa1475e8	-0.00019907318805049913
202	0xbefa5533bed2fa33	-2.5112934896704373e-05
203	0xbf23225b50ee3565	-0.0001459824056521494
204	0x3f2a6816c7035aa8	0.00020146635097858146
205	0xbf205e8b7235479f	-0.0001248879644700192
206	0x3f2cfc404bdf17d1	0.0002211407171996403
207	0xbf3025410d93d46d	-0.000246361143197155
208	0x3f2a7ba5ca972a05	0.0002020492441217743
209	0xbf1271e932530d61	-7.036195582359662e-05
210	0xbfc15d74a1233eff	-0.1356645380787924
211	0xbfc15c17b0aa4bed	-0.13562294126731392
212	0xbfc165be93f6fdc9	-0.13591749405712353
213	0xbfc167e8addc9777	-0.13598354806270738
214	0xbfc1627d0d24cb3d	-0.1358181299379683
215	0xbfc1617b442bf4b7	-0.13578739956566263
216	0xbfc1622efbefd98d	-0.1358088236008367
217	0xbfc16c94e336b606	-0.13612614721698452
218	0xbfc15c32488dce74	-0.13562611143753467
219	0xbfc16874eca3b2fe	-0.13600026659641878
220	0xbfc16088a4685119	-0.13575847652158116
221	0xbfc1612e5319e862	-0.1357782274024571
222	0xbfc15fd3a1c3018d	-0.13573689840815142
223	0xbfc164b7aeab63d4	-0.1358861544493083
224	0x3fbcc7ec42949605	0.11242558122156517
225	0x3fbcc6662bd772c3	0.11240233011580884
226	0x3fbcc7fbe4917145	0.11242651300694202
227	0x3fbcb1a91a6f9345	0.1120858850041034
228	0x3fbcac75f003102b	0.11200654134432912
229	0x3fbcc3346678e8fb	0.11235358716740855
230	0x3fbcc3ade49b8963	0.11236082869758017
231	0x3fbccce0b619cbb1	0.11250118680781786
232	0x3fbcaf7e764e7368	0.11205282581654574
233	0x3fbcaf0f4421d846	0.11204619801887458
234	0x3fbcc8693911ceb5	0.11243302958774389
235	0x3fbcb48d7d2bfafd	0.11213001542999375
236	0x3fbcb03b7767a361	0.11206409135014674
237	0x3fbcccc1fa7be08e	0.11249935498551819
238	0xbfdbfe09077c600d	-0.43738008242644427
239	0xbfdc02345aec2bcb	-0.43763455275683033
240	0xbfdbfef97f3ea191	-0.43743741441951395
241	0xbfdc031cf1722979	-0.43769000605302427
242	0xbfdbfddf4cef1183	-0.4373701335246311
243	0xbfdbfe124b154d49	-0.43738229114861277
244	0xbfdc02d6e50a2e3e	-0.43767330519833425
245	0xbfdc05f7922a74f8	-0.4378642012978413
246	0xbfdc0217e0c099a9	-0.4376277632567516
247	0xbfdc04e623807fa9	-0.4377990099619589
248	0xbfdc0093a03ece09	-0.4375351967712225
249	0xbfdc053807c08aee	-0.43781853444140395
250	0xbfdc00cec64a50e3	-0.4375492988995246
251	0xbfdc00dd351ad5b0	-0.43755273996370203
252	0xbf307a1ebbd59eca	-0.00025141954741634816
253	0x3ef51bb77aa1f77b	2.013041345393745e-05
254	0xbf300b07e0f76faf	-0.00024479811051291827
255	0x3f0fa4a40b1ac4c3	6.0354477125720774e-05

exp_avg_sq f8 [32, 14]
0	0x3dff6ffe4ef30e5d	4.5747545938029474e-10
1	0x3e3cd6f57e71619d	6.714762058086739e-09
2	0x3df4df8d518ae8e9	3.0374576598953716e-10
3	0x3e10142503232bc2	9.359029216108679e-10
4	0x3df038104f9a249e	2.360174968675879e-10
5	0x3e0bdf3b06938e8d	8.111817998153364e-10
6	0x3dca42e77e1edd2e	4.7769107909779923e-11
7	0x3e3bf5a1e10cb579	6.509828690682341e-09
8	0x3e26b676d4ccb538	2.6441121847550776e-09
9	0x3e357b451a59356a	5.001556867951663e-09
10	0x3e347e007cf5acc6	4.7712109396645325e-09
11	0x3e2aa8aa26af607e	3.1034981715434986e-09
12	0x3e31d93406d2a916	4.155666128198462e-09
13	0x3e122e43f069dd4f	1.0582574275689217e-09
14	0x3f6f75700f04477d	0.0038401783605274673
15	0x3f6f56512a38b9ea	0.0038253388645650326
16	0x3f6f6534713eb6fd	0.003832437921991948
17	0x3f6f7b8dc08b0adb	0.0038430946918607107
18	0x3f6f5d922027e378	0.0038287977233690228
19	0x3f6f6e3d4eaf802c	0.00383674596876917
20	0x3f6f7a26bdc07f68	0.0038424259819435543
21	0x3f6f715b5c2d06de	0.003838232457753373
22	0x3f6f5ceeb047f33d	0.003828493298213691
23	0x3f6f70543ce47035	0.0038377423544613495
24	0x3f6f61e7929e7451	0.003830864229668531
25	0x3f6f74bda2ab2528	0.003839846021354138
26	0x3f6f5a9c2dc8862a	0.003827385937498891
27	0x3f6f7f6d875fc43a	0.003844942019889189
28	0x3f644806d9d25902	0.0024757512861227635
29	0x3f644ff912a4f4a1	0.002479540319795762
30	0x3f645a9d2e427d7d	0.0024846143661105256
31	0x3f6450cda291896b	0.00247993624775338
32	0x3f645fbaa2eb545b	0.0024870534174206544
33	0x3f64613e219dba7f	0.0024877751829344703
34	0x3f6458d3cc181923	0.002483762423028628
35	0x3f645c7d298661d5	0.002485508401331974
36	0x3f6456d259644c7c	0.0024828060514976973
37	0x3f645e55353c547b	0.0024863876550492137
38	0x3f64544809a1f78e	0.002481594751826805
39	0x3f645c3c7bf4097d	0.0024853879291423784
40	0x3f6451338e55b6b7	0.002480126090339176
41	0x3f644f5463260f3f	0.0024792335690921037
42	0x3e37e617c343efea	5.564373007712891e-09
43	0x3e28f4f910353f45	2.9053685027813127e-09
44	0x3e29e1dcbf053d0f	3.0130933235982186e-09
45	0x3ddc8da4c2ee750e	1.0387628321123881e-10
46	0x3e0d42ff9f34a6c0	8.51627933461228e-10
47	0x3e21b424ad196af4	2.0609801441812696e-09
48	0x3e3a49f6f2af90df	6.120867183737115e-09
49	0x3dd9f1296a5e3780	9.437658518574778e-11
50	0x3e3784b58854bc72	5.475803037821587e-09
51	0x3e215fba00d0d31b	2.0225918774244373e-09
52	0x3e305c67155379cc	3.809330036492714e-09
53	0x3e06f84f2d4c0e58	6.685137674286125e-10
54	0x3e0e131beebe30b9	8.752873681803548e-10
55	0x3dd706cf46b17139	8.377028382883535e-11
56	0x3e0214a6475d171c	5.262165275806451e-10
57	0x3e3a609ea1b7bc6c	6.141471799416249e-09
58	0x3e04983a64642ab1	5.99382939793635e-10
59	0x3dd70e097c77b906	8.38729911191063e-11
60	0x3e20fe197272d263	1.9781961794232607e-09
61	0x3dee20c8ce55f8eb	2.1921051707167002e-10
62	0x3e10840ec659d29d	9.613490224396821e-10
63	0x3dfa5fda0f913ad3	3.837983399556723e-10
64	0x3e3ac6079e8b161c	6.233703755177762e-09
65	0x3e3ad3ca1b16163c	6.2462181411354174e-09
66	0x3e359b5be2c277bb	5.0307416393729965e-09
67	0x3e3c1e3764d2f598	6.5467396618287816e-09
68	0x3e3cb06ffaf17799	6.679726923575646e-09
69	0x3e304b24ab5f960b	3.793632677070769e-09
70	0x3f8208c8a8e93874	0.008805816321139505
71	0x3f82078e59ecdef1	0.008803474540044461
72	0x3f820eba8d295dd9	0.008817155297193334
73	0x3f8211cee970a666	0.008823029040360097
74	0x3f820b9a3abfc318	0.008811192434195855
75	0x3f820683d833c1b9	0.00880148891016651
76	0x3f820c0459fcb297	0.008811983104885441
77	0x3f820660d0b85c4f	0.008801227922090286
78	0x3f82126846b42def	0.008824171693524866
79	0x3f820c0581b2cb7c	0.008811991711217486
80	0x3f820ec761f14365	0.008817250896898174
81	0x3f8205e4ba5c8618	0.008800303399371365
82	0x3f82135fd9d0d6c0	0.008826016268453585
83	0x3f821430fce8bb06	0.008827574461148579
84	0x3e3de5b3681956c1	6.961000333080281e-09
85	0x3ddf516a701c4842	1.1393433074388964e-10
86	0x3ded7f188a233fb1	2.1461505235191346e-10
87	0x3db6f333869e8e1f	2.0872907927861058e-11
88	0x3e20395d98409aaf	1.8887320058805243e-09
89	0x3d7ca4dfcd2de007	1.6282251601520697e-12
90	0x3e2144bdaf9221b5	2.010320240628158e-09
91	0x3de7dca3a7e2043f	1.7361797064380118e-10
92	0x3ddc3fa46fb87e8d	1.0276781849998863e-10
93	0x3e163ff0c34155a5	1.2951069218975385e-09
94	0x3e3832d75b66b7db	5.634175284669514e-09
95	0x3e01848e072e390b	5.098348534678074e-10
96	0x3e2ec69e07a4f8b9	3.5827803477080103e-09
97	0x3e2efdbd74fed824	3.607847277844228e-09
98	0x3f83a17abc49cbf1	0.00958534133062547
99	0x3f83a3585eedf8b6	0.00958889999105526
100	0x3f83af913de82bf9	0.009612211896657273
101	0x3f83a55f5c8766b9	0.009592766772516513
102	0x3f83a1dee9068bc7	0.00958608769071202
103	0x3f83ada0998142f0	0.009608511623953458
104	0x3f83ad21fac297c9	0.009607568230716528
105	0x3f83a6338118f42f	0.00959434735988837
106	0x3f83a8b9c58d73f0	0.009599162427258862
107	0x3f83a36d966a4e9e	0.009589058068093789
108	0x3f83ac20c85ef498	0.009605651964984127
109	0x3f83a1bbe124d6a6	0.00958582669100434
110	0x3f83b0957ed53bf6	0.009614150937208504
111	0x3f83a9a08a59d403	0.009600881788381704
112	0x3e29c7f0e2b93422	3.00130566735121e-09
113	0x3dfb0e1aca499346	3.937034676460382e-10
114	0x3e39be02e005d0de	5.9935802990507035e-09
115	0x3e2417dadaf4d8a8	2.339154390715518e-09
116	0x3e2400a71648694c	2.3286032427492547e-09
117	0x3e3b573a3f2a2841	6.365760351688076e-09
118	0x3e3a0437febaa061	6.057433648135181e-09
119	0x3e3e8baf71d5c3c2	7.111962377834545e-09
120	0x3dbb7782ef406fd7	2.4980946957922338e-11
121	0x3e1f79b4b1f4bf9f	1.8321101925707382e-09
122	0x3e34009bb5fe16b1	4.6571660693513726e-09
123	0x3e39fb236e67de81	6.049175138657921e-09
124	0x3e19ffc7c6b5ad19	1.5133492469928973e-09
125	0x3e34751ed626aad8	4.763133306537942e-09
126	0x3fd550f2b253fe15	0.3330656758771238
127	0x3fd54f900ccf144b	0.3329811215483615
128	0x3fd55068b4fdc057	0.33303277659343195
129	0x3fd55230014d600c	0.3331413281171087
130	0x3fd55002c715f80a	0.33300847475027295
131	0x3fd551844ef130e1	0.33310039242929973
132	0x3fd551ad99a0e067	0.33311023714805404
133	0x3fd551f08ea694c7	0.3331262009690587
134	0x3fd550ea7d53fd62	0.3330637191683846
135	0x3fd550ab85d70893	0.3330487067252161
136	0x3fd5525a5726ab2e	0.33315142165035894
137	0x3fd54fd1c09a70e1	0.3329967862025694
138	0x3fd55277b3b07d36	0.33315842197221757
139	0x3fd54f7a8ba3d824	0.33297599446030035
140	0x3f48bbc498d646b6	0.0007548055597672218
141	0x3f48c8ab0010b4d6	0.0007563433611089919
142	0x3f48cace210a4f64	0.0007565981378143513
143	0x3f48dd789d265537	0.0007588232931989074
144	0x3f48a3adb2a84bc2	0.0007519338735754099
145	0x3f4897a1adda8452	0.0007504977654272471
146	0x3f48d277c93f1f77	0.000757511605564239
147	0x3f4895182b16c04d	0.000750195313392163
148	0x3f48d841c67ba3c6	0.0007582017105650588
149	0x3f48b0fff775d8e3	0.0007535219037169385
150	0x3f48de83eb5162d1	0.0007589477669497029
151	0x3f48b986db7c0398	0.0007545383914192459
152	0x3f489f1c9c8f3ba1	0.0007513894753346969
153	0x3f48e02aad8578e7	0.0007591446292669863
154	0x3fd4195b90e39fb7	0.31404770993548986
155	0x3fd418c82b244eff	0.31401256764478086
156	0x3fd417650ff34b8e	0.3139279037251804
157	0x3fd4173cb523f994	0.3139182824087581
158	0x3fd418f40dcb5eeb	0.3140230307303528
159	0x3fd4196ec0afbdc6	0.31405228440322863
160	0x3fd418c044534e62	0.3140106837501887
161	0x3fd417a4b0688ccd	0.3139430735338465
162	0x3fd418fc9f6945bf	0.3140250736952019
163	0x3fd4183387adb6b9	0.31397712945804873
164	0x3fd4172f09e915b1	0.31391502349682826
165	0x3fd41781c14df429	0.3139347446193051
166	0x3fd41961474d79d1	0.31404907191418113
167	0x3fd418e25aec7b75	0.3140188110282261
168	0x3e0e36e4c7e7b193	8.793556020588131e-10
169	0x3e102e472db6d43e	9.418449829565747e-10
170	0x3d555e044c6687a3	3.0364692931046505e-13
171	0x3dc72e86556a92e2	4.216733444799105e-11
172	0x3dee3f4341ce5002	2.2007676315264672e-10
173	0x3df2f2dba0c33ad1	2.7573934868273966e-10
174	0x3e1b5aae3bacf7be	1.592225225540059e-09
175	0x3dfb3250ae63cce6	3.9576179693641867e-10
176	0x3e0395cabf80e3fb	5.700021557244311e-10
177	0x3d94b0850a50f1c2	4.704254486986904e-12
178	0x3e2130dcf632c0dd	2.0012808507486834e-09
179	0x3e24c2becb77de4c	2.416866342254657e-09
180	0x3e0971583ef37dbb	7.404815631341676e-10
181	0x3e20e2ccfb8a9132	1.965782172744776e-09
182	0x3e3058c94bf47ca8	3.80604098175512e-09
183	0x3e074fd4449e529e	6.784636266314039e-10
184	0x3de9705eca98e986	1.8509269576980125e-10
185	0x3e2df6cbb385098e	3.4882740274055707e-09
186	0x3e3bda263ed1dad5	6.484833098559869e-09
187	0x3de7643ea720229d	1.7019615193115615e-10
188	0x3e0cebb74c7efb86	8.417050606779772e-10
189	0x3e33f9fe98481dee	4.65115091277261e-09
190	0x3e0e373b326ff64a	8.793939785349394e-10
191	0x3dc0a8149b34b80c	3.0298114191783995e-11
192	0x3e2b30d8f0630286	3.1654269232653052e-09
193	0x3e14b9114fdda304	1.2062327243495287e-09
194	0x3e3e072f23725dd6	6.991453241993799e-09
195	0x3dfa0227b0ef57f9	3.7847229598144553e-10
196	0x3e05eb1d78f85f9a	6.379099348929342e-10
197	0x3e373eabeafa9af4	5.412104250575685e-09
198	0x3e30659c27caee01	3.8177040389094384e-09
199	0x3e2e2dbe193d0582	3.5132609685237604e-09
200	0x3e3cffbc1cd49bb8	6.751847481535637e-09
201	0x3e3105611c3080f6	3.963013420058944e-09
202	0x3dd155df277369b3	6.306594991261132e-11
203	0x3e224e4eeb78b122	2.1310862759988727e-09
204	0x3e316ec612cf661a	4.058869057662502e-09
205	0x3e1acba27f72ee2b	1.5597003669464796e-09
206	0x3e3500f72e5ba94d	4.890321680357136e-09
207	0x3e3a115af4e4b7ea	6.069381287740917e-09
208	0x3e3188a28c119d4a	4.08238970501804e-09
209	0x3e0102c62386cada	4.950804827321769e-10
210	0x3f5e278f88e3a3f1	0.0018404866892132133
211	0x3f5e22d3d9942bb1	0.00183935821979973
212	0x3f5e445ff557db5c	0.0018473565190768237
213	0x3f5e4be86a44b89a	0.001849152534372267
214	0x3f5e390cc5cdb345	0.0018446564419846861
215	0x3f5e358c91e2a3a8	0.001843821788080494
216	0x3f5e37fd58bc9a97	0.0018444036567843208
217	0x3f5e5c2ed05b6261	0.0018530327956140168
218	0x3f5e23302e7c606a	0.0018394442103666594
219	0x3f5e4dd0a9f10245	0.0018496072514297007
220	0x3f5e3241429c02b5	0.001843036394746073
221	0x3f5e34811e147262	0.0018435727036553375
222	0x3f5e2fcc394a7fcb	0.0018424505589464842
223	0x3f5e40cd524d3c13	0.001846504697102129
224	0x3f54b565317390f8	0.0012639511313006762
225	0x3f54b333e517d56a	0.0012634283815463284
226	0x3f54b57bb08685ca	0.0012639720826900119
227	0x3f54956839f775e6	0.0012563245617153106
228	0x3f548df314701f80	0.0012545465303918923
229	0x3f54ae9b95083955	0.001262332854938449
230	0x3f54af4a4f42a504	0.0012624955825606974
231	0x3f54bc872b20b8af	0.001265651703316755
232	0x3f54924c99bc078a	0.0012555835773473156
233	0x3f5491ad1e962a82	0.0012554350490484871
234	0x3f54b61906ced2a0	0.0012641186142278507
235	0x3f54998eaa9898d4	0.0012573140360330652
236	0x3f54935bb2d11004	0.001255836057013405
237	0x3f54bc5ae9bb7474	0.0012656104872157655
238	0x3f9396d98995d0a2	0.01913013365033634
239	0x3f939cafd1984229	0.019152400176667115
240	0x3f93982a1f459424	0.01913514915340299
241	0x3f939df5900c2fbc	0.01915725413986967
242	0x3f93969f22482246	0.01912926336993539
243	0x3f9396e680eb7b06	0.019130326861041012
244	0x3f939d9374414009	0.01915579220832345
245	0x3f93a1f516e910d5	0.019172505877819674
246	0x3f939c87f04bf837	0.019151805917310773
247	0x3f93a075fe80b1a7	0.01916679731236717
248	0x3f939a6848df2998	0.019143704841363268
249	0x3f93a0e8b92ac861	0.019168506910041908
250	0x3f939abb19c822b4	0.01914493889674658
251	0x3f939acf4f201647	0.019145240024974332
252	0x3e3b2635adbe007d	6.3211788823041425e-09
253	0x3dc64727b77f442c	4.052335458264665e-11
254	0x3e39bcf22e0cee1b	5.992611491069502e-09
255	0x3df9083d88321ac9	3.6426629091191564e-10

exp_avg f8 [32]
0	0xbf09820131d710f9	-4.8652326067906726e-05
1	0x3fc9192bb483d26e	0.1960806495113902
2	0xbfc425be3be5357c	-0.1574018280465842
3	0xbedbe44e65829438	-6.6499283876463855e-06
4	0xbf2373258398e370	-0.00014839013037872993
5	0x3fd30415c9ae9b42	0.2971243352462133
6	0xbf1b8cd941a120be	-0.00010509563472383112
7	0xbfd3d0f9501640b0	-0.30962975331295706
8	0xbf314c5600ef8d02	-0.00026394939135183937
9	0xbffd33d775412870	-1.8251566486601654
10	0x3fb63d4665c00169	0.08687248214846978
11	0x3ffc5a0463b0b23d	1.771976842322274
12	0x3f109f660f84fc8e	6.341038158995586e-05
13	0xbf2a918ed708da26	-0.00020270222332082025
14	0x3f16167293ffa52e	8.425783471434765e-05
15	0xbfc164e2ca49a06c	-0.1358912933094446
16	0x3fbcaf0e9967c728	0.11204615826843833
17	0xbfdbffcb1ac87731	-0.43748738875898413
18	0xbf2c9645afd8cd11	-0.00021810150785626277
19	0x3f2a5fd30d313ed0	0.00020122004807142943
20	0xbfd0e7c3cd053891	-0.26414580365679635
21	0xbfedac647fb15030	-0.9272940153118778
22	0xbf261c41c0fa5997	-0.00016868879946647645
23	0x3f96e05ca2f3126e	0.022340247579239074
24	0x3f2302bb57f1ce38	0.00014503991039625948
25	0x3eccf5f497404ccb	3.45239203093095e-06
26	0x3f21e31960f56be0	0.00013646778868800415
27	0x3fd1e6d1fe4038cd	0.279713152210104
28	0x3f2a6e04a5bf1762	0.0002016430543091931
29	0xbf188eabe36471a0	-9.367870447757895e-05
30	0xbfe64ac8eb47942e	-0.6966290087990552
31	0xbf144755e169114f	-7.735692666083659e-05

exp_avg_sq f8 [32]
0	0x3df044280610d44e	2.3670488318179194e-10
1	0x3f6f7f0cf0ec5974	0.0038447621112808698
2	0x3f644bc3b1ecadc9	0.0024775335472406496
3	0x3d9372e75428bf38	4.422154756082531e-12
4	0x3e22ea2b035238aa	2.201963079381649e-09
5	0x3f821490a19a8f89	0.008828287059550426
6	0x3e12f9aedacdbca0	1.1045092438004953e-09
7	0x3f83a26132cfeece	0.009587058413664275
8	0x3e3dec37ee205bf0	6.966928119500655e-09
9	0x3fd551d533f86ea5	0.33311967921484104
10	0x3f48babd0171470b	0.000754682815463621
11	0x3fd4186a52854334	0.3139901929726421
12	0x3dfba199c9a8b6ae	4.0208764933838184e-10
13	0x3e31a5b1c520970f	4.108819133920374e-09
14	0x3e0864aeddd53950	7.099382710750338e-10
15	0x3f5e416348790fcb	0.0018466443597313527
16	0x3f5491ac29bb5096	0.0012554341582715948
17	0x3f93994f8c2b6665	0.01913952153231548
18	0x3e346e2fb482fad4	4.756826772917553e-09
19	0x3e3163de5331d9fe	4.048950774586842e-09
20	0x3f7c943adb70d8df	0.006977300558949489
21	0x3fb6034580d48fa7	0.08598741908332262
22	0x3e2871856181afbd	2.845591106544114e-09
23	0x3f0a2aa0b66c4db7	4.990866619016979e-05
24	0x3e2211fded04b315	2.1036575607755013e-09
25	0x3d74f7d861081050	1.1919010735235545e-12
26	0x3e1ffeaee3b4c3d3	1.8623457349393782e-09
27	0x3f80060016ae9a8f	0.007823944751931293
28	0x3e31769b0aa22a0e	4.065992135114024e-09
29	0x3e0e272fe38683f5	8.775699672597583e-10
30	0x3fa8d8d1a919c41e	0.048529197590035475
31	0x3e048faa32d01f56	5.984094102410058e-10

exp_avg f8 [32, 32]
0	0xbf26a131b40921eb	-0.0001726506398134342
1	0x3f8088f0b3a09f93	0.008073692781252173
2	0x3f78dad671f24cf6	0.00606807487124005
3	0x3f25d3cdf0d08735	0.00016652954983081286
4	0xbf24a99f7402b0ec	-0.00015764304590016405
5	0x3f894c70ee60aba7	0.01235283114882242
6	0x3e72d4ea610d9168	7.015355431083669e-08
7	0x3f956bbc5e439a4e	0.02091879201261753
8	0xbf063b03ac7709e2	-4.2401361095584724e-05
9	0x3f4eb99ab6c62af3	0.0009376531066192781
10	0x3f8e505d6be896f1	0.01480172143517275
11	0x3fa4c5062df0965b	0.04056567488468651
12	0xbf011bb6aff92f89	-3.2631409336929844e-05
13	0xbee2a45f7618fc48	-8.889237224639132e-06
14	0x3ef12822274bd189	1.6361971989690915e-05
15	0x3fa02b5705fd7343	0.031580657464223914
16	0x3f86456ead8b40eb	0.010874619170323693
17	0x3f8100f36de91301	0.008302594939900045
18	0xbf252b74251a475c	-0.00016151230606858524
19	0xbf0cd0acf8fb1dc8	-5.496051664760252e-05
20	0x3f9b0e0580306c42	0.026420675229115405
21	0x3f90625499b5da6e	0.016000100976692293
22	0xbf21fdc6468d11d5	-0.00013726277691196326
23	0x3fa13e0e1ca4057b	0.03367656802766824
24	0xbf0e7ff76b50324c	-5.8173883566413164e-05
25	0xbef2e2b6ecff2f5b	-1.8010715223045755e-05
26	0xbf22432b530c8da9	-0.00013933090078764351
27	0x3f9b264a79538380	0.026513255744137876
28	0x3ee7514c2a857394	1.1118683077066147e-05
29	0xbf07772841d44876	-4.475680928285677e-05
30	0x3f84bfa351205964	0.01013114539459243
31	0xbec1bf0c90f94353	-2.115522086211879e-06
32	0xbeee55c80a596cbb	-1.4464895069446452e-05
33	0x3fc2e20cc7d57b4b	0.14752349622264158
34	0x3fbbee2d16302b98	0.10910302917197467
35	0xbf26b20a0f906f85	-0.0001731526643035075
36	0x3ee0dbbdafa998f5	8.038693967548914e-06
37	0x3fcd40745b6100b3	0.22852949582921198
38	0xbf266695a4fccddc	-0.00017090393748163304
39	0x3fd8b191295998a6	0.38583783186039466
40	0x3f1e719ee37a2c73	0.00011613399771641542
41	0x3f8ff201bcb8991c	0.01559831006222772
42	0x3fd1aea09cb5a221	0.27628341010725604
43	0x3fe7de592d6e991d	0.7458921325058189
44	0x3f26356680936aef	0.00016943813560640157
45	0x3f0174d5b252e59d	3.3295413496013694e-05
46	0xbf1190cdb6cfe9c8	-6.700759486469928e-05
47	0x3fe28af7f2213d49	0.5794639329050507
48	0x3fca100b9b1cf66d	0.20361466478236726
49	0x3fc3ac3a452a498c	0.1536934697838429
50	0x3f0f45fde06159fe	5.964928645656521e-05
51	0xbf25e5f6fcc13fc1	-0.00016707077009181333
52	0x3fdf3574bc364b54	0.48763769512259114
53	0x3fd2b1d6bef1d310	0.2921044220632192
54	0x3f1174cd912847d2	6.659035378955784e-05
55	0x3fe3d876ae897272	0.6201737793849829
56	0x3efab2b6dbfdc8bb	2.5461294853320405e-05
57	0x3ef9e8166baf8c06	2.4706451522759513e-05
58	0xbef0f954d92d33d6	-1.618762105275506e-05
59	0x3fdf53623be5dc03	0.48946433877375756
60	0x3f15c7519b907d86	8.307872384748756e-05
61	0xbf19dd8f2d126f78	-9.86689222081653e-05
62	0x3fc7d4470b4b585d	0.18616569568138433
63	0xbf117d126cb9a038	-6.671357112397823e-05
64	0xbef26451f9880b64	-1.753985961451143e-05
65	0x3f2635caf92f494e	0.0001694498319851447
66	0x3f20539039825848	0.00012456069521665975
67	0x3f122ce0f929744f	6.933329704268794e-05
68	0x3f2701eb9a7e5aa3	0.00017553330439730894
69	0xbf091c5b6c6f43e6	-4.789499285318809e-05
70	0x3f254dcb349b691b	0.00016253572021336028
71	0x3efce5d6be9ef66d	2.755909728312802e-05
72	0xbf240db4827d9fd9	-0.00015299633491427827
73	0x3f21cbf9a438be98	0.0001357786405704511
74	0xbf1c5ebb1e877f69	-0.00010822312436386889
75	0xbf0a846b34d8cc9a	-5.0577661209771574e-05
76	0xbef7ce7fa53a329f	-2.2703776564147513e-05
77	0xbf08706f3a92c367	-4.661406939854875e-05
78	0xbf00220e1bcecaa3	-3.077130848030032e-05
79	0x3f0caf9cbdd24156	5.4714175100947324e-05
80	0x3f1a6e4f974e0246	0.0001008258894454962
81	0x3e52bc6be3fb6459	1.7449279575809658e-08
82	0x3f204c8cbbd42966	0.00012435167256115014
83	0x3f264375c3b85c27	0.00016985714488335185
84	0x3f123120c33ddceb	6.939661471770982e-05
85	0x3f108004c67b3fed	6.294278284291162e-05
86	0xbf1c40a7b7a2f5a9	-0.00010777496018739861
87	0xbf107b620fe2d8b5	-6.287370703969809e-05
88	0xbf002d2f9579a265	-3.085423912524836e-05
89	0xbf12fb74a87cc1b9	-7.241153263915543e-05
90	0xbf1c4890545c6439	-0.00010789280812807744
91	0xbeec25c1144adb31	-1.3421763136773481e-05
92	0x3f1b31dade52f7b3	0.00010373972289109863
93	0x3f05ee665eeb558c	4.183053885290907e-05
94	0xbf12ebf4db9bcd70	-7.218057626428242e-05
95	0xbf13594b9df0952e	-7.380985287904339e-05
96	0xbf14f8e521feb2b1	-8.000277057247197e-05
97	0x3fbc839b5b6d5208	0.11138316137414261
98	0x3fb50b440e34e0a8	0.0822031531032531
99	0xbf238ecfff8627c0	-0.00014921464004330302
100	0xbf033219131f69d2	-3.661288282304536e-05
101	0x3fc60b18e01ea21b	0.1722136587461741
102	0x3f1d87128ac3e1bb	0.00011263895675373604
103	0x3fd29a70d292ca07	0.29067631305511593
104	0x3f05554c27e7f5eb	4.0689837067713615e-05
105	0x3f87b9ac22e054a8	0.011584610761966666
106	0x3fcaa7fd03178270	0.20825159693687878
107	0x3fe1fe762f6ef97d	0.5623122145114362
108	0xbf191c385afb83f2	-9.578794447008524e-05
109	0xbf1e80be8fa5e928	-0.00011635935871893001
110	0x3f13a27e4c204d69	7.490058763464303e-05
111	0x3fdbf3021ab423f5	0.4367070446756423
112	0x3fc3a2be7929191d	0.15340405384103742
113	0x3fbd9fcd4d0f21fb	0.11571963435483916
114	0xbf2474b33a28da4a	-0.000156065824812495
115	0x3f1f8f76870f34bc	0.00012039338049803482
116	0x3fd785c973a748ea	0.3675407056263241
117	0x3fcc2e867ce4fcee	0.2201698407970762
118	0xbed6e815aac163f7	-5.461354401680745e-06
119	0x3fddeefa21ef8316	0.46771100343726013
120	0x3ef1e774b67c7ad0	1.707470383315973e-05
121	0x3f1e87024862d03e	0.00011645270760390986
122	0xbf1e408642fa5da3	-0.0001154024073407507
123	0x3fd79c32e4403efc	0.3689086178792278
124	0xbef451a8d43fb869	-1.937769162901234e-05
125	0xbf219423bad3a618	-0.00013411461023986391
126	0x3fc1f02a9b01e788	0.14014179772112478
127	0xbf1e0834b72e6a10	-0.00011456319570727507
128	0x3ee87c004e7ef6f8	1.167506202636889e-05
129	0xbf2187a101164f95	-0.00013374176391478242
130	0xbf1879afb38df970	-9.33660020461019e-05
131	0x3f108bb7db0e9c05	6.311711946570271e-05
132	0xbf171f4134dc7a3b	-8.82037686235981e-05
133	0xbf194d2e02e0e515	-9.65174992594474e-05
134	0x3f11beef928b1288	6.769501909349208e-05
135	0x3f21d9323227c383	0.00013617265456347333
136	0xbf14f6e945e724e5	-7.997320924526019e-05
137	0xbf231463d41c7ce2	-0.0001455661641154077
138	0x3f0d31eeed5d02db	5.568514249754626e-05
139	0xbf22ea96c0b222e5	-0.00014432039492741976
140	0xbef4d9e9ac126dfb	-1.9885274700299685e-05
141	0x3ef3665f523bc588	1.850117872854087e-05
142	0xbf252d7362a78734	-0.00016157182228853653
143	0xbf266ce25a5721b8	-0.00017109168145014258
144	0xbf0d0a351bc454cb	-5.538916181727914e-05
145	0x3f24976ae32d044c	0.00015710048463727017
146	0xbf27272484132fff	-0.00017664261580419002
147	0x3f06e2cdc0168634	4.3651489259899026e-05
148	0x3f1bc6bff6e7be90	0.00010595842989124583
149	0x3f215f487535004a	0.00013253936286084157
150	0x3f1c8900d64fef79	0.0001088530312500206
151	0xbf23c95e86ebe320	-0.00015095976728909336
152	0xbf088cbd6641b54e	-4.682496072026342e-05
153	0x3f04f571ee3429eb	3.997568071597068e-05
154	0xbf1dd97d5af21453	-0.0001138670693184446
155	0xbf1d00abf8deef66	-0.0001106362307998189
156	0xbed70e2f5609d167	-5.496838043063e-06
157	0xbf03184b07c9613a	-3.642062163028638e-05
158	0x3f1b8b278b6481ae	0.0001050703893708041
159	0x3f231f819b8f605e	0.00014589745640481133
160	0xbf2001e1ea5badd2	-0.00012212641484353346
161	0x3fe9d8b214b2e39a	0.8077021030686524
162	0x3fe31f10e85deb18	0.5975422418990517
163	0xbefd05ed3e4561e1	-2.7678633970880626e-05
164	0xbf15b8df1e093678	-8.286344337556952e-05
165	0x3ff3fc73675ae76d	1.2491334950741149
166	0xbef442fb869f3e55	-1.932301567092309e-05
167	0x4000e0170e8f49d9	2.1094189774969263
168	0x3f05c0ef3fef2bfb	4.1491795847635426e-05
169	0x3fb5af6f7b4e20d3	0.08470818291073394
170	0x3ff829e4e72998a8	1.5102280645165056
171	0x401051616b0a63ab	4.079473183163752
172	0x3f1c987c28bdebae	0.00010908372695254853
173	0x3f0465e7b585f492	3.8906224918180567e-05
174	0xbf229e0ac1f11bbc	-0.0001420391208475073
175	0x400959f57a4cdb62	3.168925242872704
176	0x3ff1d1ef70b0f85b	1.113753738594389
177	0x3feae31168256cce	0.8402182611565878
178	0xbf0a4520bf34745d	-5.010610757436786e-05
179	0x3f1540590806bcce	8.106749920132607e-05
180	0x40055700de3ff1d0	2.6674821246399247
181	0x3ff98e7cc52ae858	1.5972869588718108
182	0x3f1bfb02035e6bc3	0.00010673713481283626
183	0x400b2341c938c942	3.3922153206305277
184	0x3f0e27eba55a7539	5.7517889826311964e-05
185	0xbf1bad77ce11395b	-0.00010558170062433451
186	0xbf1a41aded3fc858	-0.00010016082825339953
187	0x400569a77b3b5638	2.676588976620021
188	0xbf22c514269f0a3e	-0.00014320250494222366
189	0x3f03f9a0ae26fa5d	3.8099495003764075e-05
190	0x3ff0492e894568e5	1.0178666460183703
191	0x3f21bfba326914e4	0.00013541362678118958
192	0x3f263efac2b32fc0	0.00016972361604527912
193	0xbed68de1c5df0abf	-5.377346580406449e-06
194	0xbf1e45d4762c0a83	-0.00011548146498444917
195	0xbf2067969a89b714	-0.00012515748427992994
196	0xbf220cce468059f8	-0.0001377107430477612
197	0x3efd71fa087ac170	2.808115144031911e-05
198	0x3f199221fa01a517	9.754497887261671e-05
199	0x3f0a16bc8f50ad66	4.976046503942892e-05
200	0xbf24dc9a6deab3a5	-0.0001591623794942296
201	0xbeffc81378c7f674	-3.0309245220286375e-05
202	0xbf2160c2e763363a	-0.00013258341977577683
203	0xbf20f0907b2d4828	-0.00012923968969375085
204	0xbf171638980aacd6	-8.80691568549309e-05
205	0x3f25c9d111018ea7	0.00016623189049190976
206	0xbf1657d5f920fa4f	-8.523219574472464e-05
207	0x3f20e37ab1dcb2db	0.0001288497232335904
208	0xbf06287e149f2d98	-4.226336257281553e-05
209	0xbf1d36b5c631a9d0	-0.00011144146405831575
210	0xbf16acc2f6af8f68	-8.649768794516193e-05
211	0xbf17fa99a316897d	-9.14722702618827e-05
212	0xbf26562fd959a79b	-0.00017041524977240156
213	0xbf1675b6c4b68b7d	-8.567741422508923e-05
214	0xbf023fdd1068c428	-3.48080957802771e-05
215	0x3f12a6dd21760efb	7.11510150406789e-05
216	0xbf16ee0045bd8917	-8.74698320650107e-05
217	0x3f0a59dcb2d53ed0	5.026058929990878e-05
218	0xbef7ed06471e5e97	-2.2817494432196715e-05
219	0xbf1a185cde4f219a	-9.9545162426945e-05
220	0x3f14d66aabd6f5f8	7.948900289186228e-05
221	0x3f09c041c965e27a	4.911614194020183e-05
222	0x3f239282a203c44e	0.00014932484282995307
223	0x3f13b9bc2d612569	7.524691622608704e-05
224	0xbf1a0b47b813d7ca	-9.935021627768752e-05
225	0x3f224781858db9c4	0.00013946014476169503
226	0x3ee4d8da4163be65	9.94066253354117e-06
227	0x3f26314955813056	0.0001693155306860007
228	0x3f20d1e0f0139eb9	0.0001283251840853339
229	0xbf1e2cb73df397e9	-0.00011510723514937506
230	0xbefafd5597e45b12	-2.5739276218929184e-05
231	0x3f215c37372b6fae	0.00013244794862188103
232	0xbec2066447651168	-2.1487435858688062e-06
233	0x3f10f5061ed57649	6.468629699926081e-05
234	0xbf26ed56a124a1cb	-0.0001749199150904559
235	0x3ed9d53e7a25cced	6.159063476440823e-06
236	0xbf0e65ef204923f1	-5.7979927110603134e-05
237	0xbf00bdfd2a54e47a	-3.193310593947118e-05
238	0x3ef378b2cb89bb8c	1.856944865824164e-05
239	0xbf20a0137f76d3ac	-0.0001268409539371384
240	0xbf2241cdaa903a64	-0.00013929019522192492
241	0xbee94e5ef5fff926	-1.2066906208471421e-05
242	0x3f21cdbab4930b7b	0.00013583091848631463
243	0xbf1ee233bdfc4c64	-0.00011781159218697681
244	0x3f1fcdf3512b1e46	0.00012132451619628016
245	0xbf126de39c538cf3	-7.030202603490795e-05
246	0xbf2317210ecca9b4	-0.00014564779794430454
247	0xbf237a5ec860527b	-0.00014860541358587332
248	0x3f0b07354c59ee55	5.155211833326722e-05
249	0x3eefac34e273cb83	1.5102711655922692e-05
250	0x3f23a6de5b6170fe	0.00014993156736665259
251	0xbef3df452523d5b1	-1.895155794158992e-05
252	0x3f209a22ddef2145	0.00012666392919259188
253	0x3f2001c54f372933	0.00012212308466381382
254	0xbf17b06b04804b6f	-9.036687072265318e-05
255	0x3f24a994dab5e3b6	0.00015764181203417404

exp_avg_sq f8 [32, 32]
0	0x3e299ae6ecc89633	2.980824342798823e-09
1	0x3edb57224eecca5b	6.5184515126043536e-06
2	0x3ecee35d2a281717	3.6821532642974995e-06
3	0x3e27d259ee8adff0	2.7732090966853217e-09
4	0x3e2558dd808ba025	2.4851329920681256e-09
5	0x3ef0001f3ec18267	1.5259243739131763e-05
6	0x3cc1bb4d5576397a	4.921521182443519e-16
7	0x3f06f14fec6cb885	4.375958592671515e-05
8	0x3de8b5b637801a74	1.797875422758168e-10
9	0x3e7799c54b9a5289	8.791933483527845e-08
10	0x3ef6f92d9866b552	2.190909574444528e-05
11	0x3f2591a148d27f7c	0.00016455739788500876
12	0x3ddd44ed244227fd	1.0648088753142735e-10
13	0x3da16059271f048c	7.901853843591013e-12
14	0x3dbd6f7b974a6605	2.6771412739143036e-11
15	0x3f1a250582870ffe	9.973379258726431e-05
16	0x3ee8cce488aab0f8	1.1825734209957171e-05
17	0x3edce9a226716fd1	6.893308273605391e-06
18	0x3e26686bea5f9bf3	2.6086225011592395e-09
19	0x3df4c1ff999c2706	3.020658390171398e-10
20	0x3f124c8c574f0f52	6.980520795623932e-05
21	0x3efad808cf3cc6e7	2.5600323126435e-05
22	0x3e202f31f1966baf	1.884106992558342e-09
23	0x3f1dbae443a4bb74	0.00011341112341221681
24	0x3df7418c83a8f0c6	3.3842007291986004e-10
25	0x3dc1d5533da6f3f5	3.243858628456525e-11
26	0x3e20acfc5e874661	1.9413099914296187e-09
27	0x3f126d6f983b85c5	7.029527301540609e-05
28	0x3dab2f79a57a398b	1.2362511336823729e-11
29	0x3deb8808e9fbd9d4	2.0031719771820163e-10
30	0x3ee58672e39d6eb9	1.026401070063715e-05
31	0x3d5f7e3980347af0	4.475433697250267e-13
32	0x3db70164059a86b0	2.0923318937009654e-11
33	0x3f61d411eef97b0a	0.0021763181937751773
34	0x3f5380ad76af16e1	0.0011903470974500773
35	0x3e29c113d557dcbf	2.99818451554032e-09
36	0x3d9c6ba2013ad05d	6.462060070390738e-12
37	0x3f756443c6f6bd77	0.005222573046395388
38	0x3e2916f0ff51ea5d	2.9208155846725977e-09
39	0x3f8e7d1e7d83b82b	0.01488708324947304
40	0x3e172bb113007250	1.34871054255964e-09
41	0x3ef9833adff020b6	2.433072767973949e-05
42	0x3f7f440b8dcaaba0	0.007633252270049434
43	0x3fac7c41d8fc9907	0.05563550733340788
44	0x3e28a93ce294b4e9	2.870928179777337e-09
45	0x3dde78f8677ffc27	1.1085845598705322e-10
46	0x3dfedaec3c421ff3	4.4900177695516783e-10
47	0x3fa1311d83e4ade7	0.03357784495377896
48	0x3f70fb48b9584f36	0.0041458931714435845
49	0x3f6359d36e52f533	0.002362168265419706
50	0x3df8735d945b89ea	3.558037374777379e-10
51	0x3e27fa0e104f3f2b	2.7912642219071583e-09
52	0x3f9859892d9b9891	0.02377905217044735
53	0x3f81797cace8cb2c	0.008532499338888742
54	0x3dfe78dc0598c8d3	4.4342752178184863e-10
55	0x3fa3b13b851903d1	0.03846155166366539
56	0x3dd1d1d8fcb3c7e7	6.48277535607721e-11
57	0x3dd0c75ea455f497	6.104087468464668e-11
58	0x3dbccfbe88065d98	2.620390753475992e-11
59	0x3f988852e2414e6b	0.0239575338931232
60	0x3e07b720f99426fd	6.902074356127107e-10
61	0x3e10b9be2ed65fef	9.735556209720988e-10
62	0x3f6c643d49e5e59c	0.0034657666248533846
63	0x3dfe95c1580400a8	4.4507005721141063e-10
64	0x3dc0e9bdf6376323	3.076466752967695e-11
65	0x3e28aa1c06696b2e	2.87132455597938e-09
66	0x3e1aa7bb00af07d1	1.5515366792857623e-09
67	0x3e0084600ea8c788	4.807106078809607e-10
68	0x3e2a779e1289839a	3.0811940952638362e-09
69	0x3def870cc3e7b196	2.2939303404069413e-10
70	0x3e26b1595338dc47	2.6417860345275765e-09
71	0x3dd4e0887d6609f0	7.595038430609151e-11
72	0x3e241b7269354665	2.3407878497202035e-09
73	0x3e1fac2af7be04a9	1.843583923515977e-09
74	0x3e141f198405532f	1.1712244647077448e-09
75	0x3df19441bc95f57b	2.558099813450435e-10
76	0x3dcc5679ab19ce42	5.1546147027473445e-11
77	0x3deddd1c9ff471fe	2.1728714658927217e-10
78	0x3dda070785cd21a0	9.468734255898037e-11
79	0x3df4927807a3175c	2.993640956977128e-10
80	0x3e1176fe14aa5b1f	1.0165859982475437e-09
81	0x3c818d4aef622f95	3.044773577147685e-17
82	0x3e1a90d922574ff6	1.5463338468755523e-09
83	0x3e28c8803983f0fd	2.885144966792402e-09
84	0x3e008c1a0cfb4e9f	4.815890134278266e-10
85	0x3dfb39a95bcc345d	3.9617939120099345e-10
86	0x3e13f48682ef0216	1.1615442043395373e-09
87	0x3dfb2a5f561e52ff	3.953103036913787e-10
88	0x3dda2afe0b75ba9b	9.519840719980082e-11
89	0x3e02042b7ba7a685	5.24343005915148e-10
90	0x3e13ffb419536c3f	1.164085804576215e-09
91	0x3db3ce9858725472	1.8014372569965177e-11
92	0x3e127d259c3e490d	1.0761930105521947e-09
93	0x3de80c8a4dcd44fa	1.7497939807247377e-10
94	0x3e01e6cbb7909d72	5.210035589843898e-10
95	0x3e02b804c164aae0	5.447894382026037e-10
96	0x3e05fde3b3eff63c	6.400443299271596e-10
97	0x3f54538a8258177f	0.001240620863769831
98	0x3f46247ba999729f	0.0006757358380116879
99	0x3e232020911e7f76	2.2265008803252523e-09
100	0x3de26c79eea122d4	1.3405031886140517e-10
101	0x3f684ba3488c1077	0.0029657544258743745
102	0x3e15cc096666e383	1.2687534578570034e-09
103	0x3f814dda13c918e9	0.008449271897131587
104	0x3de6c15882a91aec	1.655662840597083e-10
105	0x3eec24fad352b761	1.3420320650627407e-05
106	0x3f71c38a6aebf503	0.004336872762676028
107	0x3fa0306e73abdb11	0.031619502658875594
108	0x3e0f86b4b5125613	9.175330305804146e-10
109	0x3e1742bc3835a711	1.353950036148065e-09
110	0x3e0346b1c4f8f854	5.610098028014848e-10
111	0x3f93876d90d1599d	0.019071304286933367
112	0x3f63472fc7c21740	0.002353280373486394
113	0x3f55f09b4d984672	0.001339103377521769
114	0x3e24ec0f666dad04	2.4356541674404407e-09
115	0x3e18e6c70efc76bb	1.4494566067744612e-09
116	0x3f8baa67e2d67cad	0.013508617029229642
117	0x3f73daf265f0d0b9	0.004847475879660995
118	0x3d8a3c4e6e6da880	2.9826391900757688e-12
119	0x3f96667e717e7bcf	0.021875358273628905
120	0x3dc00723675a8ad5	2.9154551099011995e-11
121	0x3e174c4b1bfcf4bd	1.3561233108281744e-09
122	0x3e16e1317a43bba6	1.331771562004057e-09
123	0x3f8bdf38f4312dc6	0.01360935683455623
124	0x3dc4a49f12616b91	3.754949328690954e-11
125	0x3e1ee6a59d4fbd63	1.7986728679790633e-09
126	0x3f6016bf9fffc70e	0.001963972346850868
127	0x3e168c50c1bac470	1.3124725810663426e-09
128	0x3dadf967f3647856	1.3630707331956104e-11
129	0x3e1ebab955bca59e	1.7886859415037416e-09
130	0x3e0df3bd42f27f7d	8.717210338072715e-10
131	0x3dfb6052daf9a0e3	3.9837707696477944e-10
132	0x3e0abb46d159f665	7.779904799405239e-10
133	0x3e10010e6e8c53a5	9.315627663297442e-10
134	0x3dff7dd2986b6290	4.582615610068264e-10
135	0x3e1fdb4b479d8045	1.8542991850863058e-09
136	0x3e05f9bacdc050dc	6.395714196986178e-10
137	0x3e22339f4303d62b	2.1189508135273836e-09
138	0x3df54f0bfa52c2fa	3.100835094972037e-10
139	0x3e21e4355a1ad8eb	2.0828376392006437e-09
140	0x3dc5bd19a4b1c160	3.954241499063792e-11
141	0x3dc2d15ab7184126	3.4229361434541363e-11
142	0x3e266ca665cf0b11	2.6105453757638467e-09
143	0x3e29250f909125ba	2.92723634614371e-09
144	0x3df5153603177a01	3.0679592468207376e-10
145	0x3e253350236208eb	2.468056227326519e-09
146	0x3e2acd86fe71e4f1	3.120261371814673e-09
147	0x3dea30370c05008c	1.9054525146070828e-10
148	0x3e1349c516f81374	1.1227188865018071e-09
149	0x3e1e2de8a47426cd	1.7566682707557855e-09
150	0x3e145b3cd1c590f0	1.184898241231798e-09
151	0x3e23935247b07985	2.2788851339977256e-09
152	0x3dee2271be6a19c9	2.192576946454215e-10
153	0x3de5f6a8063d53dd	1.5980550487052323e-10
154	0x3e1646611be90614	1.2965709475171484e-09
155	0x3e15075fc559d10e	1.2240375565590814e-09
156	0x3d8a93dd55657871	3.021522847166472e-12
157	0x3de23b12772ac9ae	1.326461679936486e-10
158	0x3e12f7597bf78e88	1.1039786722532398e-09
159	0x3e2248db163a8f0b	2.128606778539385e-09
160	0x3e199fa01577395f	1.491486120253485e-09
161	0x3fb0b37486a4c730	0.06523826873015248
162	0x3fa24803945de030	0.035705673085374534
163	0x3dd50eff47e67b31	7.66106778493988e-11
164	0x3e0797b49ef51383	6.866350248056225e-10
165	0x3fc3f8e76ff32aca	0.15603344885160758
166	0x3dc486d76278a7db	3.7337893461873985e-11
167	0x3fdc7a4dd158c2be	0.4449648422624185
168	0x3de7a93b9ca30551	1.7215691226618585e-10
169	0x3f478339cab284aa	0.0007175476252038366
170	0x3fcd31b052b9d381	0.22807888068532736
171	0x3ffaa09ad135eebf	1.6642101452152216
172	0x3e14715983c0ea24	1.189925948585818e-09
173	0x3de4cdd6a698268b	1.5136943373840564e-10
174	0x3e21548dd3e34325	2.0175111851132805e-09
175	0x3ff0113d298930b4	1.0042087194915839
176	0x3fbfc16561588e35	0.124044739023298
177	0x3fb2129fa02fe308	0.0705966726381001
178	0x3df140bba33f74f6	2.5106220162541273e-10
179	0x3e0694bd329aa57d	6.571939426757011e-10
180	0x3fe6c4fc4d7a4b68	0.7115460885273537
181	0x3fd054178772b6ef	0.25513256289819614
182	0x3e13929d0a9d0c6e	1.1392815948053598e-09
183	0x3ff269517ccc31d2	1.1507124781520486
184	0x3df6bc094f5cc03c	3.308307650071766e-10
185	0x3e1326b86a4e2a4c	1.1147495506726616e-09
186	0x3e113c345970a3df	1.0032191516407013e-09
187	0x3fe6ecdaa6d1d777	0.7164128549763821
188	0x3e219d871291d049	2.050695742172762e-09
189	0x3de3f3436412283b	1.4515715195418456e-10
190	0x3fba85dfac57a1bc	0.10360525090766876
191	0x3e1f80a1ce75e30c	1.8336850318035326e-09
192	0x3e28be879822fe26	2.880610584348537e-09
193	0x3d896f459fdef2ba	2.8915856245808974e-12
194	0x3e16e938990f0dbb	1.3335968754954577e-09
195	0x3e1ae9462f6ab77d	1.566439587128093e-09
196	0x3e204a484b8b1c7e	1.8964248750766543e-09
197	0x3dd5acef50b004e3	7.885510662141371e-11
198	0x3e1058c0570cc369	9.515022903259254e-10
199	0x3df104020d3298f5	2.476103880940231e-10
200	0x3e25c2b625effea3	2.533266304626519e-09
201	0x3dd9406d5790d50a	9.186503458234539e-11
202	0x3e1e330bbfb5e9a2	1.7578363199439874e-09
203	0x3e1cb2030fd0df7d	1.6702897392137031e-09
204	0x3e0aa667a7a0c9cb	7.756176389138432e-10
205	0x3e27bc91f015bb31	2.7633041416514318e-09
206	0x3e08f5f218fdff62	7.264527191467066e-10
207	0x3e1c85bf4e2e937d	1.6602251177372865e-09
208	0x3de88c9a8f31e4fa	1.7861918159612674e-10
209	0x3e1556059a32c83e	1.2419199911460897e-09
210	0x3e09b51ad91b5e5c	7.481850019858623e-10
211	0x3e0cbfd8963d40ef	8.367176226862922e-10
212	0x3e28f24313b820f8	2.9041357354990046e-09
213	0x3e0938e084e22806	7.340619308297533e-10
214	0x3de0a6f371629fd4	1.2116035318489458e-10
215	0x3e0164fe36268013	5.062466941318923e-10
216	0x3e0a49dd9fe99a54	7.650971521481183e-10
217	0x3df15c0263591f4f	2.526126836774108e-10
218	0x3dcc9f54452a21cf	5.206380521633287e-11
219	0x3e1106212ae2dae9	9.909239362606875e-10
220	0x3e05b5d011776dcd	6.3185015807425e-10
221	0x3df093ee4d5292eb	2.4123953990900564e-10
222	0x3e23275caa669e85	2.2297908686190215e-09
223	0x3e03746f366aa1d9	5.662098401535769e-10
224	0x3e10f5139da60772	9.870465474423298e-10
225	0x3e20b4e8cb46ee2f	1.9449131976952964e-09
226	0x3da5bae3c333466a	9.881677160574929e-12
227	0x3e28a01acae5ae9c	2.8667748931482077e-09
228	0x3e1c4a6b1b35b06a	1.6467352870534854e-09
229	0x3e16c344d9bd1fd6	1.3249675583733544e-09
230	0x3dd236008754a6e9	6.625103402743343e-11
231	0x3e1e23414e5547d7	1.754245909414446e-09
232	0x3d603eb68b7126f0	4.617098997812342e-13
233	0x3dfcc120db627b90	4.1843170194765827e-10
234	0x3e2a4858a91950ab	3.059697669525235e-09
235	0x3d90aefeec0c1bab	3.793406290682736e-12
236	0x3df719ea73ffe2d3	3.361671947750857e-10
237	0x3ddc07aa1bbf75fb	1.0197232549414908e-10
238	0x3dc2f4f8ea81bb6e	3.4482442347107275e-11
239	0x3e1ba3da6e5dea8f	1.6088627595683286e-09
240	0x3e20aa7de74e673d	1.9401758484961978e-09
241	0x3db0029040540177	1.4561022544404634e-11
242	0x3e1fb269a74a3139	1.8450038416835873e-09
243	0x3e17d84ccc536a62	1.3879571253630555e-09
244	0x3e1949c3ee647d5d	1.4719638230261466e-09
245	0x3e00fb5be1431437	4.942374864612881e-10
246	0x3e2238d98ec3f079	2.1213281046024995e-09
247	0x3e22f83a6937fda6	2.208356894702849e-09
248	0x3df243560d34bf5a	2.65762090464719e-10
249	0x3db914375948177f	2.2809189936194342e-11
250	0x3e234f49ef349685	2.247947489302111e-09
251	0x3dc3bebfda3c28e5	3.591615484134405e-11
252	0x3e1b901dc55d8e81	1.6043750958505954e-09
253	0x3e199f4480f575a5	1.4914047807805057e-09
254	0x3e0c0f0a4e7fbc7e	8.166171324204724e-10
255	0x3e2558c79a2fde0b	2.485094090141789e-09

exp_avg f8 [32]
0	0x3fa1389684974e1d	0.03363485687773624
1	0x3fe3ec328f95eebe	0.6225827030570696
2	0xbf17cfeb785de1da	-9.083628364504136e-05
3	0x3fde0d34c46e7866	0.46955603773847654
4	0xbf0d54cd5f3bceee	-5.5944936233757545e-05
5	0x400b3f5ac824c1dd	3.40593487131285
6	0x3f010f90a3be189b	3.254089503372631e-05
7	0x3f20cc576f76fcb9	0.00012816016508840846
8	0x3f126ca292b892ef	7.028333919174475e-05
9	0xbfa4100738e29c50	-0.039184785551065304
10	0xbf04ef52420ecb05	-3.993005544291297e-05
11	0x3fe935b0ddfd33d8	0.7878040633892125
12	0xc0007c8fd7ea6a9b	-2.0608212345517365
13	0xbfc4526d3d124ae7	-0.15876546365742358
14	0x3f164289feac9c92	8.491484883831255e-05
15	0x3fca85370347e05a	0.20719039592927652
16	0xbf17e717229fda14	-9.118155199403676e-05
17	0x3ff2b8966dec4a18	1.1700653356425672
18	0xbf0659c84887c027	-4.263060060683026e-05
19	0x3fe497de546abbb0	0.6435386322753995
20	0xbfe96343cf73434b	-0.7933672954332932
21	0xbfffe57487dc65d0	-1.9935193354671021
22	0x3f1280fe51e4c73e	7.058670278039817e-05
23	0x3fff90f3285aa2a6	1.9728881431894165
24	0x3fe5fb4a91d33d84	0.6869252060077291
25	0xbf2282c81c5afb29	-0.0001412266994318065
26	0xbfbb0fb2b49a61c5	-0.10570828351263291
27	0xbfe64f70496b68b8	-0.6971970972038184
28	0x3ffa4d40c37dff58	1.6438605915463622
29	0x40015959bfc7918e	2.1686282141474242
30	0xbef6fb632a422fff	-2.1917325867579215e-05
31	0x4002971044f043c1	2.3237614999602276
