pyTorch/noisey_features/models/realswag/ow_0.0_128_NF_model_0.pth (torch, 469469 bytes, 10 tensors)

module.model.input.weight f8 [120, 60]
23.33619405772708 2.2147303255365656 50.153118968042 -44.42018013421739 -1.8517915463806125 57.293767284150114 -3.395345912304684 -2.8337519292228155
-22.565852924098614 -0.008374794349406346 35.1829577398702 33.37164269877259 33.30528854410585 -7.453978263124431 -7.128466780037983 -8.733153655494998
27.330869668099293 -30.62665942302836 -28.787422948475747 22.250509461205002 -29.118125984561388 29.485838324613194 -66.0519813740211 -55.52724926022329
25.705791718029257 -30.071679659388284 -29.82645264344582 -42.34382802829923 22.3514551242596 52.81130278011278 52.71950889775751 -7.681009759343856
49.66741891232413 23.56375816324716 49.192593346086234 -57.45599382999206 -6.623688402502652 22.806698484627 -32.70816295729689 25.0347727785056
-12.575972190761982 -12.903503026971883 -25.1804554491977 -21.072713429514042 -12.457570879024999 15.565269578359905 -12.035986042152237 4.242450600281064
-29.322832728429674 -32.764348763353205 6.177649892579275 5.342619034672698 15.06150381229672 16.033504778233024 -11.260481127839498 19.942261880145104
-2.3107764000525624 -29.319111068596207 -3.1950430774909506 -21.255946483086888 -41.78221948675469 -0.046371027021138385 0.47282380070818425 0.08466282812031806
0.042782049163220405 -0.44002971272017655 -0.3907255539973047 -68.88945710474157 -72.80814033906094 -73.4898658599194 -62.32508623643417 73.56058296441867
-86.6983362224843 -0.5538679104542084 73.2201110807484 74.2579410152562 -0.45241950110969714 -72.77292915675369 -68.74810744638332 80.05257049889315
0.5435293640047264 -0.021306326351416164 -0.38578567574608447 -72.76137061646934 -69.99924754025753 -0.5095712452618872 -0.7327299599753108 -77.22036023310629
-70.15780721414822 73.27982231050761 -48.82065057144036 -59.40124087578868 -48.893276957466995 -72.79790900748188 -0.565191270420808 -56.59175262463298
-47.85411864844959 -48.66681344712596 -77.29277761073253 -72.85659833099014 -49.055028598688786 -77.19983332375563 -77.07264488623298 -0.4143703642266319
-86.61301618142058 -77.28788602975679 -63.341760519416034 72.91188258148895 -63.33526991951687 -70.05825825322995 -77.50691864643055 -48.8165979996872
-77.15507184466202 -77.2267205663162 -62.99630701443625 -86.73056093963216 -48.43564024237229 -76.78290137931454 -48.92626980738364 -48.48516180592627
-73.65662705257083 0.0023165715020469426 0.008709563491420642 0.04157796463417144 -0.06608219226866997 0.09715638382392236 -0.03281112811886604 2.9045828992557672e-05
-0.10075671795120275 0.037103661645447816 -71.80712954432242 -73.56961871290491 -0.03920158577435024 -0.09534985712325532 -73.79974449814421 -76.15355620468375
0.008195711894590061 0.05142635092592603 0.007259413867492475 -69.22808528068339 -0.03849954673436735 -0.04971686143381509 -0.024879075065712325 0.05195049074191715
0.008625445679526555 0.013566709679204283 0.008045138850647499 -73.2329735727169 0.006422385538837388 -73.67529009748317 -73.99896693118527 -77.70331689896994
-74.54529462869009 0.006746579793372776 0.06524936506616372 -76.61951943261973 -73.79538749112623 -67.31279398295632 -73.86939309791016 0.01371373508952203
-73.79776252045242 -73.77529064200932 -73.77897844035137 0.008943151523860654 0.006092701148084918 -72.3404848405201 -73.76946795291937 -73.80203180275943
-72.43800155231254 0.007291532232948248 -73.80858641240668 -70.59793059475565 -73.78660904615239 -73.77196067437468 -73.79091925789571 0.006967405627648566
-73.80008500844605 -73.78153906540895 -73.78454815518936 -73.80327936748883 -69.52542731381442 0.056640269550056015 -0.30396425770312596 -0.05126540675648022
0.04434853190854275 0.027828473052657517 -0.4090625340234335 -0.014774954537460158 -0.3377283722505224 0.008858889690545678 -77.06166799722804 -70.35744937175315
-0.34852952946767574 0.05440856809257648 -74.12246197106465 -69.18632460916152 -0.3696917990425163 -0.04581018216559134 0.0019088503189241095 -72.33398030821235
0.03853724676764395 -0.04256590498551768 -0.3357248383344327 -0.04688103028752064 -0.3185640075293427 -0.36410911894616005 -0.04034340840467722 -74.09365652160172
-0.4040537367523142 -74.17213691555928 -74.10654493433783 -67.64928886474382 -74.23012308647556 -0.33588319832320473 -0.338819230230941 -80.10877312822801
-71.05776115067655 -74.15465916273318 -74.21610041309383 0.09727372558774394 -74.08956622873728 -74.48920684218236 -74.10651899070928 -0.042811666225751846
0.09269142806985184 -73.82715543678817 -74.22958323639322 -74.16445212112895 -74.10681960675595 -0.009012331752577233 -74.074705768207 -74.21394751706143
-74.1298109503736 -74.11324581836962 -75.7069723570196 -0.37287716768133333 -74.14046215292619 -74.17771587084174 -74.1184099311599 -74.17360888717675
99.18480751987249 -0.03084884563192154 -65.12395838726933 0.06226361677438672 -0.05194357148871521 -0.010189634251415844 -0.569348900711176 68.94220576532
-72.80045333911471 -73.5818048984594 -63.89168927838557 -38.78631621080015 -69.64046261423343 -0.4335219478574356 73.50356300627867 73.15261344343043
00000000: 1f0c 53d0 1056 3740 a31c 6d88 c4b7 0140
00000010: 9f11 0067 9913 4940 4072 6f76 c835 46c0
00000020: 896c 2b2c f0a0 fdbf 9d07 972a 9aa5 4c40
00000030: b0a5 1f1e ab29 0bc0 44e9 a721 86ab 06c0
00000040: 7a59 bbbc db90 36c0 7a3d bbde cd26 81bf
00000050: 73a5 c228 6b97 4140 4283 eafc 91af 4040
00000060: 9863 ecb1 13a7 4040 75db 84ad dfd0 1dc0
00000070: d18a abcb 8c83 1cc0 7696 7aea 5f77 21c0
00000080: 8fb9 e3df b354 3b40 15a3 7fc0 6ca0 3ec0
00000090: bfd2 e38c 94c9 3cc0 cd36 5763 2140 3640
000000a0: bc7f 2881 3d1e 3dc0 6b5b 83e6 5f7c 3d40
000000b0: fe5a afa9 5383 50c0 e7bf 5ce7 7cc3 4bc0
000000c0: 2bb9 1ac4 aeb4 3940 71dc 2099 5912 3ec0
000000d0: e44a 8366 92d3 3dc0 267f 8c8e 022c 45c0
000000e0: e4b4 88f6 f859 3640 80de fdc4 d867 4a40
000000f0: 5686 18de 185c 4a40 058e 529f 5ab9 1ec0
00000100: ff94 a0fb 6dd5 4840 e5ff 7974 5290 3740
00000110: 0d6f 15e6 a698 4840 317f 7d01 5eba 4cc0
00000120: d192 2e2c a87e 1ac0 aa34 b9ca 83ce 3640
00000130: 16ea 7215 a55a 40c0 fd78 6ade e608 3940
00000140: d574 b5d3 e526 29c0 cc5c e1f2 97ce 29c0
00000150: 6ab0 0c54 322e 39c0 29be e958 9d12 35c0
00000160: 5807 f2ba 46ea 28c0 81f5 a003 6b21 2f40
00000170: 0b50 34c3 6c12 28c0 3469 5cf8 44f8 1040
00000180: 14af 6a2a a552 3dc0 87ab 262e d661 40c0
00000190: 4810 7bda e9b5 1840 14a0 3386 d75e 1540
000001a0: 98c9 7c6d 7d1f 2e40 44c5 e6c4 9308 3040
000001b0: 7897 4ac8 5d85 26c0 9e7d 1713 38f1 3340
000001c0: 44c1 5456 787c 02c0 8e69 5343 b151 3dc0
000001d0: 2014 b9be 728f 09c0 6862 6eb5 8541 35c0
000001e0: e1f3 a4c4 1fe4 44c0 4150 1379 f1bd a7bf
000001f0: 01f9 33c2 be42 de3f ccb0 f68d 76ac b53f
00000200: 3517 065c 87e7 a53f 16b1 5962 7229 dcbf
00000210: 6050 08c1 a501 d9bf d503 7edd ec38 51c0
00000220: 16b6 4192 b833 52c0 f8f1 55f6 595f 52c0
00000230: a7ee 006d 9c29 4fc0 deb7 5e97 e063 5240
00000240: aa4b 698a b1ac 55c0 c08c 3632 49b9 e1bf
00000250: 4d53 c94c 164e 5240 a234 081b 8290 5240
00000260: a7ae 55ec 70f4 dcbf 7298 daab 7731 52c0
00000270: 1107 0efe e02f 51c0 c05e a750 5d03 5440
00000280: 811c 5ab1 9764 e13f 014a 825b 53d1 95bf
00000290: 740f 2667 b6b0 d8bf c177 d24b ba30 52c0
000002a0: ee80 f4ab f37f 51c0 b637 2c5b 684e e0bf
000002b0: 5096 dc19 8672 e7bf f3a1 ce61 1a4e 53c0
000002c0: baf5 6d83 198a 51c0 9114 d69b e851 5240
000002d0: d9e3 f213 0b69 48c0 57aa 6bdc 5bb3 4dc0
000002e0: aa4b 3be6 5672 48c0 6214 f1f0 1033 52c0
000002f0: 6025 ce00 0c16 e2bf 770f cd8c be4b 4cc0
00000300: 53ff 86c2 53ed 47c0 32f8 9d24 5a55 48c0
00000310: 39c6 4dde bc52 53c0 4b5a ce81 d236 52c0
00000320: 45db 572d 0b87 48c0 9c8b b511 ca4c 53c0
00000330: e8a5 bc36 a644 53c0 513d b246 0b85 dabf
00000340: b1c7 38a8 3ba7 55c0 f7b1 86b9 6c52 53c0
00000350: 59fa 06cf beab 4fc0 6052 c248 5c3a 5240
00000360: 29d4 ed1f eaaa 4fc0 1016 d380 ba83 51c0
00000370: b709 e85a 7160 53c0 5951 8348 8668 48c0
00000380: a456 75b2 ec49 53c0 286a fa96 824e 53c0
00000390: b9e3 fdfc 867f 4fc0 21dd ab82 c1ae 55c0
000003a0: bee7 380f c337 48c0 8d09 630e 1b32 53c0
000003b0: 13fe 5002 9076 48c0 5edc 34c8 193e 48c0
000003c0: 7a1d 792d 066a 52c0 7167 e2da 33fa 623f
000003d0: d75c ddd2 51d6 813f c50f adfc b449 a53f
000003e0: f954 a436 c3ea b0bf 1a12 1fa3 3ddf b83f
000003f0: 5648 6ec4 9ecc a0bf c58c 732b ee74 fe3e
00000400: eee4 7338 31cb b9bf f878 a84a 40ff a23f
00000410: 0320 ad02 a8f3 51c0 70c7 0ba2 7464 52c0
00000420: 0950 b4f1 3a12 a4bf abcc 0526 d968 b8bf
00000430: dc2b 8c03 2f73 52c0 bc4d 67dd d309 53c0
00000440: df07 70d4 e9c8 803f 1b4a c2fe 8d54 aa3f
00000450: 5257 6212 0cbc 7d3f fc4e 01f3 984e 51c0
00000460: b915 456c 36b6 a3bf 0704 d60b 7d74 a9bf
00000470: 2840 0c77 e679 99bf 8fd0 7e35 4199 aa3f
00000480: 201e dbb8 37aa 813f 0e92 17f3 dcc8 8b3f
00000490: fddf 0a42 f879 803f b0e9 fc09 e94e 52c0
000004a0: b931 a0fd 5b4e 7a3f 2f00 f5f3 376b 52c0
000004b0: 7ace fe12 ef7f 52c0 34f3 e124 036d 53c0
000004c0: 233a 711b e6a2 52c0 f482 2839 4da2 7b3f
000004d0: 863f 0bb1 2eb4 b03f a595 d534 a627 53c0
000004e0: 3882 efa0 e772 52c0 b6cb 0dd1 04d4 50c0
000004f0: 1bb9 f222 a477 52c0 8e5a b95d f215 8c3f
00000500: 55d4 878a 0e73 52c0 cb14 a45c 9e71 52c0
00000510: 4966 63c8 da71 52c0 5d94 8b7a c950 823f
00000520: 0823 ce02 a9f4 783f 54b4 ed80 ca15 52c0
00000530: f646 83f6 3e71 52c0 09cd 327d 5473 52c0
00000540: e5b1 a937 081c 52c0 b1e1 a6c7 b9dd 7d3f
00000550: b551 39e1 bf73 52c0 3770 af7e 44a6 51c0
00000560: 96fd 77cd 5772 52c0 318f becd 6771 52c0
00000570: 139c ce6b 9e72 52c0 2e81 f0b4 da89 7c3f
00000580: ec52 c097 3473 52c0 959e 6dbc 0472 52c0
00000590: 3a2b 7709 3672 52c0 a13a dded 6873 52c0
000005a0: 8450 e299 a061 51c0 974e b512 f4ff ac3f
000005b0: ce38 7f80 2674 d3bf 27d5 de9a 753f aabf
000005c0: b679 58cc d9b4 a63f 9297 a236 117f 9c3f
000005d0: f891 699f 142e dabf cb64 4ed4 5442 8ebf
000005e0: e3d3 6f76 579d d5bf ec84 ff0b 9c24 823f
000005f0: 79d3 535e f243 53c0 f469 5473 e096 51c0
00000600: 7b40 b0cc 4e4e d6bf 36dc 2899 70db ab3f
00000610: 7d2e bc6a d687 52c0 7ab2 0dbe ec4b 51c0
00000620: 332b 9fca 07a9 d7bf 7635 73a4 6e74 a7bf
00000630: b0d2 556c 4c46 5f3f ec51 f1ee 5f15 52c0
00000640: c5fe 166d 27bb a33f 2cc5 acc3 32cb a5bf
00000650: 4c7b 4608 847c d5bf dd7e c657 ca00 a8bf
00000660: bf5b 814a 5a63 d4bf f824 8355 904d d7bf
00000670: 021e 6a27 e4a7 a4bf 8955 ec77 fe85 52c0
00000680: cb60 4b34 04dc d9bf bbb0 8d4a 048b 52c0
00000690: 4522 d8a1 d186 52c0 d4ee e1f2 8de9 50c0
000006a0: e59d 2e56 ba8e 52c0 2dbd 043e 1c7f d5bf
000006b0: 2142 46da 36af d5bf 111b 9123 f606 54c0
000006c0: a648 d35b b2c3 51c0 cf7d 8bef e589 52c0
000006d0: f7b8 d396 d48d 52c0 f8d0 284e eee6 b83f
000006e0: 2cd0 fd73 bb85 52c0 c509 372a 4f9f 52c0
000006f0: f45f 0735 d186 52c0 c25b a724 69eb a5bf
00000700: fef6 2d1c a0ba b73f af6d 5b1d f074 52c0
00000710: 3301 e37d b18e 52c0 6d80 3062 868a 52c0
00000720: a865 e721 d686 52c0 0fab 1ab1 0e75 82bf
00000730: 62d1 b3fa c784 52c0 b635 ed50 b18d 52c0
00000740: 1ba1 96d2 4e88 52c0 9a93 636b 3f87 52c0
00000750: d024 fc08 3fed 52c0 ab73 2732 38dd d7bf
00000760: 3349 f854 fd88 52c0 b54f 63b2 5f8b 52c0
00000770: 9e76 3f07 9487 52c0 062e 7368 1c8b 52c0
00000780: 107a ebe2 d3cb 5840 f30e 6ffc d696 9fbf
00000790: bfd8 28ef ee47 50c0 6da7 8d4b 04e1 af3f
000007a0: d11c 9009 5998 aabf 05bb f18e 4dde 84bf
000007b0: 7c2d 922f 1b38 e2bf bb09 6919 4d3c 5140
000007c0: 305e a4a0 3a33 52c0 49e2 9c4a 3c65 52c0
000007d0: 106e d0df 22f2 4fc0 c4d9 7402 a664 43c0
000007e0: 5e9c e756 fd68 51c0 7a56 09d7 d2be dbbf
000007f0: 4fdc 5460 3a60 5240 ac1d 2d6b c449 5240

module.model.input.bias f8 [120]
-22.376585537099036 -77.29960919540943 -73.77229486585921 -74.12521042344902 -77.48385570293648 -69.85439073848431 -0.35988406782349025 -71.15197055764236
-68.28996259661952 -0.39301565776412917 -72.95592117533282 -67.87684059842451 -0.47429329300297834 -0.4007981867058775 -84.38418846958464 -56.32157163937855
-68.15345450373799 -64.90249225050445 -47.90696695711367 -71.24997993390275 -0.4003415756788646 -25.47657299960437 -0.4192464920072588 -0.3762320466688239
-0.4089313223174146 -77.52798554161085 -4.606807494475625 -94.45107248805189 -68.27150700256496 -58.5166047746981 -0.43057275190924726 -44.71401465304523
-78.84559093955745 -0.39520466533329 -62.04095508564071 -77.56924882572983 -68.58628609136547 -70.61853873242552 -6.208182835944655 -15.372151730907596
-21.76407540960262 -44.32840357523638 -68.74450355097902 -72.85692911808718 -74.19694209449997 -47.0809739306509 -49.1384659129122 -68.25235445415402
-43.716801062740906 -73.04362996871828 -56.46555569855464 -65.14616990493371 -43.58786141626159 -69.84580325507848 -65.06230712647846 -43.434991176112426
-21.87742758955662 -68.1998452461822 -43.95139434390612 -0.5181384247073078 -70.83030181456807 -49.15445276794072 -49.04193137444075 -65.16728083554162
-54.31780401561031 -72.70713551958386 -99.46335872004504 -0.35616574967950454 -99.28546574798146 -91.7431643893399 -97.5990591470048 -0.36705930342895915
-68.16528034648388 -86.06876004774655 -0.37354435965221644 -55.20267867078693 -67.27872140770017 -49.29955794185736 -3.918726607811971 -0.43113242245790945
-70.91326675122473 -94.58291529411063 -21.46292338376164 -72.84128934094097 -72.77118802657864 -57.0421917463287 -76.20843281530453 -91.73224356463517
-0.4555152201444553 -72.76052057306185 -21.86590852847902 -3.557208263231344 -0.529719318792037 -73.32434908524343 -4.197482497134254 -97.92713784736264
-79.79473540368072 -1.63622683084226 -0.465813724563261 -0.40852531816198734 -99.43777261942803 -0.570006447477521 -83.7729564593714 -72.78740194315833
-73.26113163915387 -93.53299917371783 -21.781971608482134 -49.04666519857746 -69.87268205152264 -71.22514073299385 -62.20976372405683 -55.42256209407042
-0.3563730842300384 -69.66941514719831 -0.474892319636879 -96.078104802266 -38.89439645183109 -56.15737011988185 -72.45047156213603 -21.750627757753808
00000000: a9fc e5e8 6760 36c0 52f7 0bcc 2c53 53c0
00000010: faee 7147 6d71 52c0 3d75 9472 0388 52c0
00000020: 1906 e97d f75e 53c0 e8f2 7d56 ae76 51c0
00000030: 44d0 692f 5708 d7bf d8c1 b7e2 b9c9 51c0
00000040: d262 47bf 8e12 51c0 5a6c 3a25 2b27 d9bf
00000050: ef66 02d0 2d3d 52c0 7482 0728 1ef8 50c0
00000060: 6b3c 8a41 d25a debf 82a9 0c70 ada6 d9bf
00000070: 7217 3c8b 9618 55c0 da39 6d42 2929 4cc0
00000080: a1be d632 d209 51c0 d833 db6e c239 50c0
00000090: 8cad 457e 17f4 47c0 3031 d6ab ffcf 51c0
000000a0: ef44 b145 329f d9bf 1875 27b0 007a 39c0
000000b0: d991 083d efd4 dabf 6a95 0994 2f14 d8bf
000000c0: 0274 ea47 ee2b dabf af7e de83 ca61 53c0
000000d0: 48f6 9ef1 5e6d 12c0 ba13 245f de9c 57c0
000000e0: b229 e85e 6011 51c0 9524 f21a 2042 4dc0
000000f0: 9cee ff03 818e dbbf d7d8 07d5 645b 46c0
00000100: 5dcc 7529 1eb6 53c0 9a51 3582 084b d9bf
00000110: 43b7 2804 3e05 4fc0 f272 a092 6e64 53c0
00000120: eb20 19b6 8525 51c0 ecc4 7a23 96a7 51c0
00000130: 20e2 9fe1 2dd5 18c0 bccb f2ab 8abe 2ec0
00000140: caeb 2f72 9ac3 35c0 cec3 db20 092a 46c0
00000150: 7dcd 38f2 a52f 51c0 2c4b 3aed d736 52c0
00000160: 52c5 03b3 9a8c 52c0 b2fc 8f5a 5d8a 47c0
00000170: cbc8 4340 b991 48c0 dae5 4b93 2610 51c0
00000180: e91a 2123 c0db 45c0 5031 5ad5 ca42 52c0
00000190: 1ae1 4154 973b 4cc0 6256 04d9 5a49 50c0
000001a0: 3eb6 fa0a 3fcb 45c0 65da f9a3 2176 51c0
000001b0: 18a2 07d7 fc43 50c0 c9b9 75ca adb7 45c0
000001c0: f9c0 3118 9fe0 35c0 4627 b743 ca0c 51c0
000001d0: 8c56 344a c7f9 45c0 2e67 9d08 9794 e0bf
000001e0: 47d8 38aa 23b5 51c0 818a b91b c593 48c0
000001f0: 1ef3 dc01 5e85 48c0 8679 adba b44a 50c0
00000200: b8ca 4ecd ad28 4bc0 f89c 56b5 412d 52c0
00000210: 3b3a 55ab a7dd 58c0 f80a b56d 6bcb d6bf
00000220: 59ed 2012 45d2 58c0 11f1 5e01 90ef 56c0
00000230: 5630 2dfc 5666 58c0 f9df fa4d e67d d7bf
00000240: 78b4 04f4 930a 51c0 f115 8b90 6684 55c0
00000250: 22f0 139a 26e8 d7bf 3550 eb5f f199 4bc0
00000260: 1cb1 5092 d6d1 50c0 68c4 25ea 57a6 48c0
00000270: b423 f455 8d59 0fc0 31ed ac71 ac97 dbbf
00000280: 3342 63f6 72ba 51c0 c722 f37b 4ea5 57c0
00000290: 56cf 9925 8276 35c0 2774 3faf d735 52c0
000002a0: 364e 0625 5b31 52c0 4a52 058a 6685 4cc0
000002b0: 5b49 97f6 560d 53c0 21b4 1c14 ddee 56c0
000002c0: 7971 564f 2927 ddbf 184f 7b5e ac30 52c0
000002d0: 1725 6b2e acdd 35c0 dd1d 1d9b 2975 0cc0
000002e0: a6ad c8ed 75f3 e0bf ea66 aa22 c254 52c0
000002f0: 69e5 0ada 38ca 10c0 9c53 fb39 567b 58c0
00000300: 0df2 e1f1 dcf2 53c0 3ae2 742f fc2d fabf
00000310: f4bc 415e e4cf ddbf aeff 4560 4725 dabf
00000320: c5e1 7277 04dc 58c0 609a 4d29 7e3d e2bf
00000330: db8e 5e1e 78f1 54c0 00ab 1ecb 6432 52c0
00000340: 7987 7a61 b650 52c0 70fa 90a8 1c62 57c0
00000350: cfd4 944a 2fc8 35c0 32e0 0e20 f985 48c0
00000360: 24c6 d105 da77 51c0 304d adb4 68ce 51c0
00000370: 0a5b a789 d91a 4fc0 e747 c383 16b6 4bc0
00000380: ad54 7c0d d1ce d6bf 7b2a a1b2 d76a 51c0
00000390: fb90 7dc1 a264 debf 27d9 48ab ff04 58c0
000003a0: f122 3b95 7b72 43c0 4c21 3fb4 2414 4cc0
000003b0: bfc9 ac86 d41c 52c0 bd05 0724 29c0 35c0

module.model.hidden1.weight f8 [120, 120]
-21.5851490334462 -67.07735223461903 -0.0015328120416576469 0.0883694339948404 -69.57315531184983 -68.22629683835324 0.00047782594803495726 -71.5477661540563
-0.001299080012534916 -0.01054834148937629 -72.20918605334371 -66.7562586719409 -0.008019439427746605 0.0019177926797649902 -72.72125477653927 -73.55877784197895
-0.001121875385252313 -0.00860776850712468 -69.78792164231336 -0.06284053680371736 -0.00782670586663554 0.03807974134573743 0.0059578142665292315 -0.00583166280129353
0.04116775922890899 -71.567202395022 -0.0022078595963344856 -73.53571679507502 -0.00019280726518393007 0.026385658174655578 0.006320516825233283 -69.30832743892304
-68.09470026918501 -0.00760515212619817 -73.20584652703864 -69.54832710241078 -0.023643258091643297 -69.41194095709562 -0.009650909233869033 0.05819697714048325
-0.007897916958251965 -19.948787944222996 0.0371306333652442 -0.019208691130148985 0.024892776026346496 -69.1530266055954 -0.04812175000888418 -4.053611457132693e-08
-69.40415759222229 -75.57324781347488 -69.41381873435729 0.04952796745712525 -69.39726525099024 -64.74586199504425 -0.010317666983038515 -69.48327891252818
-0.008684640841617837 -0.019787764161234803 -69.02121702282277 -0.04917141589835231 -0.0038565422234049943 0.0018711920559441688 -0.03974100415153844 -0.059944410088241154
-71.85008681323623 0.04509306664616424 -72.73255778851335 -0.05836205140790603 -72.74358346726089 -69.87903642055403 -72.75953977452265 -0.043203153259780594
-0.002316908438450163 -62.07151346345176 0.023922477180815728 -71.98056841375178 -72.73141409280038 -0.0027992398675362787 -0.0033147099720203643 -0.04930705549588441
-0.008276276048188628 -70.48946520673829 0.07587730514507475 -0.035349465844411135 -0.05085449685875245 -69.49603944306362 -63.12480326638837 -0.007252704806221853
0.006088418968328976 0.02140206902185712 0.007461066660810487 -0.011120357022850287 0.046608469379423506 -74.33503786129866 0.0062790061879231425 -72.73083729985058
-0.02072072741174273 -0.045124349704384455 -0.0008173381864084905 0.0260386771527798 -72.8005906237167 -0.005505626409153221 -72.75367973720478 -0.019750092162917506
-70.99247098457352 -72.75239045912647 -0.045775938614030065 0.00708076459415189 -67.42303403288403 0.008064021988167112 -0.0003549694344913388 -75.8516248555506
-0.0011456999957001578 -61.96958125166491 -0.007608421250668603 -72.13915680030352 0.00656533801502421 -69.10942141178374 -0.09593193315884616 -0.01848480728687539
-58.34201391046352 -74.11644706100405 -76.0283328516727 -70.90170684217374 -74.25270384260732 0.04867986801716441 -0.38821606513028645 -79.64829237368386
68.14839591413713 -0.5403504325562918 -0.09131803631390994 -74.11213207319175 -0.4088912006035079 -0.43486404857391997 -66.46772459725693 -57.9843318298243
68.14860209369817 -0.02506159198032926 -0.18337654304437184 -70.80297867698273 -0.3621631145791931 -57.15240698838366 0.04971686337718623 -0.4370294639903786
-0.13680868169687257 -74.16466062565078 -0.501383596661388 -73.87020246256603 68.14869009172558 -58.33280518258068 -0.4565700775146653 -53.14606344500316
-73.96349796504873 -0.4426580060685362 -0.35713108260008086 -79.74462923494391 71.11648636739993 -71.73989627503101 0.03325556901478088 -58.193292675338334
-0.35888359205081405 -58.230259302031186 67.67774783934243 -0.18552094865035 0.02774527366320168 -58.26788267152297 -0.09625281220710236 68.1488686586471
-58.32220401760777 -0.029747829366341336 -58.35175900974003 -0.028683517967404898 -58.461043136349424 -0.07396750381768222 0.022728755984044356 -58.378741938319976
-0.5091242319308354 69.03856173322251 -58.12673234948422 0.04585913566222345 -73.9504586689385 -0.4234323445109739 0.005474589825582707 -0.21320483581537217
-58.26503671874314 -0.0030013454849381373 -70.80254191429997 -0.39120545990188105 -70.93100453641371 -73.30003928438764 -70.8024874367762 -0.024590418615053684
68.14825263401175 -76.51519627616298 -0.3331892039504865 -58.246231625930655 -70.8044867212144 -0.3986863083442525 -0.027071588113968773 -0.04484903611400104
-70.7406209239174 -73.84856388596135 0.0874956790201242 0.02253769910308445 -0.4260408573953824 -58.48182033522951 -73.82122731156795 -0.029668748217763493
-0.02611564299759631 0.050395941367052055 -0.47594207495685115 -0.44512192855232297 -0.043383434868568584 -0.008065972381939348 0.023784506511983102 -70.743901248278
-67.68466955486771 -0.020292087939310203 -0.47280587795250895 0.007136092161384103 -74.01291217784781 -0.40206615549136576 -66.40651414288587 -0.03383756110660242
-67.78950855847278 -79.14073865627789 -0.1080176875109221 -0.5530200027153568 0.02869775768167791 -71.23550045755741 0.01098409637601903 -0.07957440081579627
-0.4062396605284281 -0.161945973998638 -0.3908171332933115 -73.82667430294595 -58.405118078021886 -58.34184260674172 -0.22643973289855415 -0.1035145378915795
-63.39548413676674 -0.4080701956817948 -0.009968199202506998 0.037594664650634484 64.13337250126379 -0.045477122163616 -0.5920784136273781 0.0041576202370181324
0.05019054536859559 -0.485621290120038 -0.39795955122761834 -0.39497628017590286 -0.4728180605093544 -0.42502083475195357 -71.204717824625 59.06849759422469
00000000: fcef b953 cc95 35c0 857d c956 f3c4 50c0
00000010: 8dd9 bf65 141d 59bf 8e4f f914 619f b63f
00000020: 1efb 9d93 ae64 51c0 95fa bba5 7b0e 51c0
00000030: 00e3 ead1 9650 3f3f c361 c599 0ee3 51c0
00000040: d462 cc8a bc48 55bf e791 ca6d 5e9a 85bf
00000050: ff78 e64d 630d 52c0 5dd3 c58a 66b0 50c0
00000060: f06b 98f0 7e6c 80bf e62d c435 ce6b 5f3f
00000070: 7a54 cb09 292e 52c0 dc41 2304 c363 52c0
00000080: cb09 c085 7c61 52bf 1a4d d621 f3a0 81bf
00000090: fa62 e54e 6d72 51c0 775f 6f42 5116 b0bf
000000a0: 2563 dcad 7207 80bf 7fae 7017 307f a33f
000000b0: acdb e296 3867 783f eda7 3410 f1e2 77bf
000000c0: 1a56 13c7 f013 a53f 4535 460b 4de4 51c0
000000d0: ba54 5598 3716 62bf f8b0 182f 4962 52c0
000000e0: 8095 facb 8945 29bf 093a c68b d704 9b3f
000000f0: 905d eed0 8ae3 793f 92a8 02a3 bb53 51c0
00000100: 9cc4 b791 0f06 51c0 042a 9c7a 9426 7fbf
00000110: 1368 e996 2c4d 52c0 5817 8fca 1763 51c0
00000120: 4e15 1931 f035 98bf f4a6 9a3d 5d5a 51c0
00000130: 87ff 491c dbc3 83bf 34c0 1683 fecb ad3f
00000140: 5675 5678 c82c 80bf df46 47c4 e3f2 33c0
00000150: 098c f74f c902 a33f 7bd3 cf70 71ab 93bf
00000160: d35d c2eb 7d7d 993f cf9c 1a30 cb49 51c0
00000170: 5f65 07fd 69a3 a8bf c4fa f4bc 3dc3 65be
00000180: 9741 ceb7 dd59 51c0 33d8 9817 b0e4 52c0
00000190: 59a2 9201 7c5a 51c0 eb70 eed0 ba5b a93f
000001a0: c835 3bcb 6c59 51c0 d702 f333 bc2f 50c0
000001b0: 90f8 1ad2 6d21 85bf eb09 ad0a ee5e 51c0
000001c0: 5756 23c3 40c9 81bf 14de bb5f 3e43 94bf
000001d0: 1bc9 a49e 5b41 51c0 65e5 5cee fe2c a9bf
000001e0: a292 3457 c197 6fbf 2a03 d42b 59a8 5e3f
000001f0: bb38 48d2 ee58 a4bf 6263 d0a1 08b1 aebf
00000200: 1267 85d2 67f6 51c0 4712 0b3d 7016 a73f
00000210: 1306 103a e22e 52c0 ebb4 3f7c a1e1 adbf
00000220: d66e 1cdf 962f 52c0 7091 f921 4278 51c0
00000230: 81e5 b64c 9c30 52c0 4a6f ab44 b91e a6bf
00000240: 6c2f 12bf e8fa 62bf df5f 695a 2709 4fc0
00000250: 3a0d 8644 227f 983f 7d23 05a2 c1fe 51c0
00000260: 501a 0e7d cf2e 52c0 0b4a e975 6eee 66bf
00000270: 5c20 9e5d 7327 6bbf 2d3e a23d c63e a9bf
00000280: d556 adf7 26f3 80bf 22de df65 539f 51c0
00000290: 4151 1bf0 b16c b33f 8233 773f 5319 a2bf
000002a0: f3ca b9c1 9909 aabf ff5e 381c bf5f 51c0
000002b0: 38c9 ad8d f98f 4fc0 f148 341f 03b5 7dbf
000002c0: d631 a785 2bf0 783f 57fc 0f8a 6cea 953f
000002d0: 8ac4 d2d4 7e8f 7e3f b727 dd0d 45c6 86bf
000002e0: 1c09 67b7 10dd a73f c54c a442 7195 52c0
000002f0: b4fb a7e3 03b8 793f 8863 cf09 c62e 52c0
00000300: 8cc0 547a d037 95bf 399a 77ec 891a a7bf
00000310: a307 e463 54c8 4abf f08b 350b e2a9 9a3f
00000320: 3d96 74e0 3c33 52c0 9cdf f055 118d 76bf
00000330: f4bc ef49 3c30 52c0 0f1a bb3f 5e39 94bf
00000340: 383e 05a5 84bf 51c0 52f1 4f2a 2730 52c0
00000350: 10f9 949e f16f a7bf a708 cd45 b800 7d3f
00000360: 3e15 56fd 12db 50c0 720c b5b5 de83 803f
00000370: bf71 ba1c 6643 37bf 3cc3 8905 81f6 52c0
00000380: 70c6 cd00 6ac5 52bf 975b 0b3d 1bfc 4ec0
00000390: e20c 2207 022a 7fbf 7594 ecf1 e708 52c0
000003a0: 62c8 fc80 41e4 7a3f f945 aac2 0047 51c0
000003b0: 6e2e 8fc3 fe8e b8bf dc78 146b aeed 92bf
000003c0: e41b a01c c72b 4dc0 93ae 5fde 7387 52c0
000003d0: 8cd5 9734 d001 53c0 cd6d 9d90 b5b9 51c0
000003e0: 9be4 bc4c 2c90 52c0 52f2 3652 91ec a83f
000003f0: 790c e131 88d8 d8bf facd 4b9f 7de9 53c0
00000400: 0e85 9351 7f09 5140 e4ad 86fd 8c4a e1bf
00000410: a4d0 806b 9e60 b7bf 3dcc 002c 2d87 52c0
00000420: 24b6 8dff 452b dabf 6d31 b504 d0d4 dbbf
00000430: 3630 2633 ef9d 50c0 ecc0 dc95 fefd 4cc0
00000440: 4023 5bb2 8209 5140 91cc c3f7 bea9 99bf
00000450: 9653 9def e178 c7bf ad41 ad00 64b3 51c0
00000460: 41d9 3b33 ae2d d7bf 1465 7b12 8293 4cc0
00000470: b888 871c 7d74 a93f 9388 ce6d 4af8 dbbf
00000480: 6135 d966 f282 c1bf fa86 b8cc 898a 52c0
00000490: 242b cd9c 550b e0bf aa67 ab65 b177 52c0
000004a0: d74c 7223 8409 5140 c98f 375c 992a 4dc0
000004b0: b47d d0b3 7138 ddbf ffb6 fb34 b292 4ac0
000004c0: 6669 5ef3 a97d 52c0 aa1f d83e 8254 dcbf
000004d0: 48c1 0954 3cdb d6bf b2ee 6001 a8ef 53c0
000004e0: 679a 3c83 74c7 5140 30ec e775 5aef 51c0
000004f0: 1f1e a8ba df06 a13f 3791 7bd0 bd18 4dc0
00000500: dd78 bbe2 f2f7 d6bf 70e9 0523 791d 4dc0
00000510: 443a 7938 60eb 5040 098c 9683 26bf c7bf
00000520: e111 02cc 4169 9c3f 9aad b8fa 4922 4dc0
00000530: 48d9 9338 06a4 b8bf 7a12 6910 8709 5140
00000540: f121 33fb 3d29 4dc0 fc8d 0509 3776 9ebf
00000550: 1174 7170 062d 4dc0 e8bb 6a4e 365f 9dbf
00000560: 4155 2476 033b 4dc0 761b ddc9 88ef b2bf
00000570: 465c 85fe 3446 973f 9e5a a79d 7a30 4dc0
00000580: 51cf b7e6 be4a e0bf 56c4 a1cb 7742 5140
00000590: a330 00c4 3810 4dc0 52be c83f d97a a73f
000005a0: 98d2 9850 d47c 52c0 3691 eff9 8319 dbbf
000005b0: 9784 2804 866c 763f 8f89 96ca 4b4a cbbf
000005c0: d79e 23b9 ec21 4dc0 0833 7516 4796 68bf
000005d0: 9be5 c2d8 5cb3 51c0 dce4 12a0 8209 d9bf
000005e0: c514 0d94 95bb 51c0 737d f8d7 3353 52c0
000005f0: e619 44f4 5bb3 51c0 1286 fc0e 3b2e 99bf
00000600: 16a8 9df8 7c09 5140 0649 cdf9 f820 53c0
00000610: 4d3f 96cf f852 d5bf 794e 9684 841f 4dc0
00000620: a86b dfb5 7cb3 51c0 f9e5 ec93 1384 d9bf
00000630: 54af 6686 a7b8 9bbf a0c7 bbee 73f6 a6bf
00000640: 59bd 4d55 66af 51c0 53b1 e6de 4e76 52c0
00000650: 7ec8 eee7 1d66 b63f dfa1 4c62 1f14 973f
00000660: 4b78 51df 4044 dbbf e32d eb49 ac3d 4dc0
00000670: 0c71 fffc 8e74 52c0 2ff5 3bfd 7b61 9ebf
00000680: e9d0 5a22 0fbe 9abf 2095 0b30 7fcd a93f
00000690: 3eb9 aebf d575 debf d956 77af e07c dcbf
000006a0: 35b5 e583 5a36 a6bf 6119 ba7c e484 80bf
000006b0: 8f5b 7b36 f75a 983f af33 fb13 9caf 51c0
000006c0: 51ae 40a0 d1eb 50c0 b17f 44f8 72c7 94bf
000006d0: ee67 ca95 7342 debf f72a 4527 bc3a 7d3f
000006e0: e564 998d d380 52c0 cb7c 2aaf 73bb d9bf
000006f0: 9a43 e553 049a 50c0 a294 a824 2853 a1bf
00000700: 5fa3 e74e 87f2 50c0 c77f b5dc 01c9 53c0
00000710: b7bb 3f13 0ca7 bbbf ff47 3601 57b2 e1bf
00000720: 5b69 d8ea f162 9d3f bcd9 8270 12cf 51c0
00000730: 765c b075 d47e 863f a946 1ae9 fc5e b4bf
00000740: 06b2 13a2 d4ff d9bf 9181 054b a5ba c4bf
00000750: 0d85 8ddd 2503 d9bf 2ce6 553b e874 52c0
00000760: aa0f c0e8 da33 4dc0 e42a a07f c12b 4dc0
00000770: d939 a827 fafb ccbf a8a6 e7c2 ed7f babf
00000780: febf 6439 9fb2 4fc0 823d 3b74 d21d dabf
00000790: b226 990c 356a 84bf 876c 5b9e 9b3f a33f
000007a0: 47c7 d02c 8908 5040 f15e d100 c748 a7bf
000007b0: 0d4f e66d 4ef2 e2bf e5a6 27af 9407 713f
000007c0: 2261 da3d 93b2 a93f 1ba4 d351 6b14 dfbf
000007d0: 3fd2 6956 2b78 d9bf 7347 8397 4a47 d9bf
000007e0: 0422 b6ae a642 debf 6d35 5896 8a33 dbbf
000007f0: 0d6b ca18 1acd 51c0 5d86 7787 c488 4d40

module.model.hidden1.bias f8 [120]
-112.25976337623355 -115.89341708072948 -65.6425330436977 7.994622734756525 -88.90815245090829 -23.976196365881094 -96.6560987424394 -74.99640348056654
-62.94110311742399 -77.34678543516719 -113.59657398624223 -115.29740437574196 -98.18627152869156 -69.90176248982921 -100.96151207830972 -39.428846332190275
-96.76317268683712 -29.604120258692856 -25.718072262583064 -2.00743075807138 -113.59784425210306 -111.0516845299512 9.306827161907023 -71.74269135555501
-44.019378645702595 -80.01085313682403 -94.94788681292684 -102.43909840694205 -24.13341169400921 -82.56846219463372 -53.85492831181033 -115.86082041142198
-115.04994432483556 -115.09316721407582 -59.02485978584481 -115.9225233104917 -1.9315562725430993 -48.22994359052397 -71.04543990364922 -59.521638215057365
-75.72505173656891 -117.07638869210793 -58.526089440971546 -115.08787965755695 -111.06130791073014 -2.175202493707626 -81.49491777178952 -59.709780868817056
-102.06018832468024 1.1868211248494314 -97.45912100062344 -38.99031404529696 -76.74892483218306 -45.64174119613495 -57.89108097223387 -96.62205370133724
-27.882470606453232 -108.35853316536358 -80.58229766245044 -55.885078223437105 -98.07400460211598 -99.863799924685 -0.35646073471862927 -63.576459799809506
-59.488438936746434 -39.68036752525453 -115.3374827403824 1.1738376038272464 -112.4496434793364 -102.32717659486092 -104.26515412252893 61.384641908804724
-48.245724841673265 70.37323202985091 -52.003040298125995 -91.98029037398537 -97.44414154552268 -104.68437955817292 -77.3739462026816 -170.72194057572273
19.267201514218083 -93.26216323884601 -93.55981349167972 -65.1739609794297 -114.63713586546909 -98.12761696579943 -66.4413091227841 -81.49543131250375
-64.66539571774179 -68.21930247530598 -73.59750100121808 -0.3583577368793419 -3.462870715868028 -101.60455869236078 -101.00152575568431 -30.56631470936652
14.73728462814318 -69.76188868794253 -118.34588994780499 -98.25809378307805 -72.52086051209848 -92.82776746228166 -118.2998290489493 -50.037190948458644
30.920229152425 -34.050336750036685 -80.97296824640544 -143.58868586030755 -80.01397144119794 -45.50709128861167 -88.9059016617588 32.66466768657851
-74.2904397820657 -92.37568704448157 -55.50942594063941 -95.99218372907639 63.276634695009115 67.69535009131812 -38.725218265624996 -50.88078935128201
00000000: c967 91f6 9f10 5cc0 f0da d5be 2df9 5cc0
00000010: fb51 ea42 1f69 50c0 a78c d661 7efa 1f40
00000020: bc1b 752b 1f3a 56c0 f0ee 4901 e8f9 37c0
00000030: 556e 9485 fd29 58c0 d9a9 1a13 c5bf 52c0
00000040: f6bf 2311 7678 4fc0 6cb1 89bb 3156 53c0
00000050: 8123 a844 2e66 5cc0 f0df 5cac 08d3 5cc0
00000060: fff9 6adf eb8b 58c0 dda4 047a b679 51c0
00000070: 27c3 f469 893d 59c0 26e2 c56f e4b6 43c0
00000080: 9eca 40d2 d730 58c0 d7ef 11a0 a79a 3dc0
00000090: 80f5 7395 d3b7 39c0 6235 77db 370f 00c0
000000a0: 97b8 8914 4366 5cc0 5f76 a1cc 4ec3 5bc0
000000b0: 90d4 2373 189d 2240 5dc8 5241 88ef 51c0
000000c0: 47c4 dcff 7a02 46c0 f7ed 5ad1 b100 54c0
000000d0: 2675 732d aabc 57c0 ad62 3430 1a9c 59c0
000000e0: 6cac ce44 2722 38c0 b6bd 41af 61a4 54c0
000000f0: 2fd3 794a 6eed 4ac0 59b2 7eae 17f7 5cc0
00000100: 8872 ae49 32c3 5cc0 f760 9e73 f6c5 5cc0
00000110: 3298 ff9a 2e83 4dc0 0217 369f 0afb 5cc0
00000120: e64c cf8c a7e7 febf d69c a4ca 6e1d 48c0
00000130: d606 c57c e8c2 51c0 f201 810a c5c2 4dc0
00000140: 2d1e 663f 67ee 52c0 d198 658d e344 5dc0
00000150: 32df 17e6 5643 4dc0 36cc ffd1 9fc5 5cc0
00000160: 9ce4 0378 ecc3 5bc0 1737 a590 d066 01c0
00000170: e402 97bb ac5f 54c0 a772 7919 dada 4dc0
00000180: 9286 2120 da83 59c0 44e2 d625 38fd f23f
00000190: 68a5 0c3d 625d 58c0 f3a8 529c c27e 43c0
000001a0: de58 6b62 ee2f 53c0 a1f2 5493 24d2 46c0
000001b0: 8bea f8f0 0ef2 4cc0 59e6 53ba cf27 58c0
000001c0: de65 fa97 e9e1 3bc0 26f1 1635 f216 5bc0
000001d0: c330 6a5d 4425 54c0 3608 443e 4af1 4bc0
000001e0: dd75 cc7d bc84 58c0 ccb3 7a7f 48f7 58c0
000001f0: 602d 7baf 40d0 d6bf fdd1 496f c9c9 4fc0
00000200: a0b5 c52a 85be 4dc0 451d 7748 16d7 43c0
00000210: 0a3a 3551 99d5 5cc0 670c 74f0 09c8 f23f
00000220: 02a7 71f5 c61c 5cc0 6fbc 1976 f094 59c0
00000230: 532a ff48 f810 5ac0 607e 31f2 3bb1 4e40
00000240: 9666 5fe9 731f 48c0 e181 9808 e397 5140
00000250: b882 de9f 6300 4ac0 7336 d613 bdfe 56c0
00000260: 2634 a9d0 6c5c 58c0 d519 ebdf cc2b 5ac0
00000270: c6be 0dbc ee57 53c0 4e4c 1f23 1a57 65c0
00000280: 2302 8551 6744 3340 a743 5248 c750 57c0
00000290: efa7 f7fb d363 57c0 905b 3b2d 224b 50c0
000002a0: 1953 82d5 c6a8 5cc0 7ea1 59e0 2a88 58c0
000002b0: 3072 9e68 3e9c 50c0 8d27 8925 b55f 54c0
000002c0: 5da6 ebd7 952a 50c0 bfd7 3f0d 090e 51c0
000002d0: c5e3 d674 3d66 52c0 0a95 0a4a 55ef d6bf
000002e0: 2f6f d78f f5b3 0bc0 ef0c f116 b166 59c0
000002f0: 03b1 7bff 1840 59c0 13f9 3300 fa90 3ec0
00000300: dd6f eb5e 7d79 2d40 f479 c5c8 c270 51c0
00000310: 9b75 970f 2396 5dc0 c167 c99b 8490 58c0
00000320: 694f 54c7 5521 52c0 54cc 6024 fa34 57c0
00000330: 32e8 2d66 3093 5dc0 26ab 49ac c204 49c0
00000340: be7d 4223 94eb 3e40 e598 436f 7106 41c0
00000350: e796 9b1c 453e 54c0 6fb4 ba83 d6f2 61c0
00000360: 7bc1 78e8 e400 54c0 3956 0a5e e8c0 46c0
00000370: 5aa9 f64a fa39 56c0 0648 acd4 1355 4040
00000380: 7e5b bd90 9692 52c0 1265 ac41 0b18 57c0
00000390: e163 85de 34c1 4bc0 6900 2ff0 7fff 57c0
000003a0: 6500 04c4 68a3 4f40 d85e ab9d 80ec 5040
000003b0: 1da9 bef3 d35c 43c0 ed35 99b4 bd70 49c0

module.model.hidden2.weight f8 [120, 120]
-0.04205808847116907 -68.1487562470699 0.03949218258027047 0.040510174034613704 -68.4366372556524 -68.14877002205672 -0.10255635370155733 -0.049652128493962853
-0.04254796850357062 0.556974425709948 -68.14866541635399 -68.02753459631644 0.6144187360938869 -0.028763258271349398 -0.03168782329278856 -67.10940649918992
-0.03204917130215481 -67.9530782749838 0.04144996180657634 -0.05053490163983996 -68.13706062145575 0.03287939164002736 -0.02997946757841625 -0.5899450594562717
-0.03075277455226186 -68.93622470958599 -0.02992040863579961 -68.13726775743183 -68.1483700230883 -65.8968516151757 0.04129810547237175 -68.41410204906383
-68.20507047564375 -68.42337866180291 -68.14386417551806 -67.46419737912275 -0.04116787708800184 0.03749581887911271 0.05790542061605597 0.05034351326093913
0.010256446829682934 -0.05074386157996572 0.03928825386951004 -68.51720279632863 0.09393318546141591 0.02001560375068288 -0.04789483277538698 -68.2036758084923
-67.4776332205774 0.0017421928653389772 0.007731408092996926 0.0627710734415839 -0.03561688619516793 0.04401309783528424 0.0883874197851092 -68.14830509781997
-68.77111181866215 -70.4864099003749 -68.31815988212095 -0.028337847754968004 -68.1488243627713 -0.013765729027485534 0.04853978882521657 -0.01157274180758878
-68.148619949131 -68.23233657505347 -67.7785075149092 0.038574757078507875 -65.18047572576289 0.05394462475992125 0.16579119966366399 -68.14776517055402
0.05396017825099481 -69.03325478008203 -68.14873950164638 -68.56397163588927 -68.38164583701848 -0.008448082533879731 -68.14808811618725 -67.93228537535855
0.048446809583551645 -69.69934563411918 -0.19759516309737502 0.03228074162187 -69.79162940733909 -65.90357130373673 -69.51004786097128 -68.50358869417563
-68.14744383871236 -0.09630721814769098 0.02749122413664682 0.08784768681200143 0.12894995488786185 -0.0056420448240816915 -67.1099553959952 -68.1486511601977
0.024002610161953004 -68.31090827808839 -66.94139508704274 -68.05895711448701 -65.9717348279439 -67.67499420599204 -68.14868080423417 0.04243990287557341
0.04772777819894813 0.591189355739188 -0.25414040581066316 -68.15137825646605 -0.26353913560288983 -0.04269663988293146 -68.14842371057615 0.037142391219713876
-0.059484764924384495 -68.3941315662999 0.012492406249112083 -0.09316464385304789 -66.72814566721365 -65.32938471819807 0.03936296051386048 -0.029985838342212856
-21.576470654977093 -95.1299144712462 -41.00151715366265 -21.654584166673477 -71.78509846450677 -85.46393290647326 -91.60614877640815 63.58765908615972
-74.1679728684361 64.22827749668184 -58.30546347897639 -99.37845986837212 -58.29165609995581 -0.47542451373885936 -57.8945981546757 -0.04101136397243811
0.0008815210657381293 -0.4456982448247546 64.54784693564793 48.024558788983626 -58.277538156330436 -21.577890428409624 -33.269040625686024 -27.654690380194122
-20.564790488443034 -83.4370824027494 -15.533363381435978 -19.277812983684985 -85.33138235962093 -21.578823715046475 1.5923033873186112 -95.27200372045886
-94.03762138917325 -94.74833777836969 -72.10953739408245 -94.39762079632307 -78.30948496173208 -74.282197001161 47.634415724654495 1.0794488350104054
62.90996964009147 -95.16945497090563 0.9794905888016787 -94.71036838737787 -21.624442590838935 48.55323259255538 63.31918631692212 -21.58048703678157
-57.89098570806976 48.812858682496795 -0.46169999410627616 -21.57984237902309 64.49153923261703 -20.554760748987405 -0.5446134919045231 -85.53280534652721
-80.6855843470083 -0.37854183148558346 -72.10771998378473 -83.38146484544883 -0.4509647980083237 0.04406882406014163 -0.4700855899353784 64.39057046541156
-21.57686666943243 -21.659449628974272 -94.48969255453625 -40.4321455722941 -0.042653855807616804 -0.46114012309364566 -0.6133682246141273 -34.72597738318607
-0.5782960564129987 -40.846427166036015 -21.94998600831842 -74.20494554151544 0.001716984155187152 -0.5858581052607112 -58.338247661022166 -71.28827620562406
-84.77810527942962 -74.07161455272565 0.011147266579738907 64.30257617529907 -94.10870386735934 -0.44980650296086055 -72.48175185716812 -21.578742167507112
-66.6062491272214 -20.89665655091393 -22.075731010472214 -0.507928986436852 -30.066443406786316 -58.40082465236828 -0.49803443409596154 -84.91620702239526
-20.937319315271328 -62.50008406777385 -21.580475121403083 -0.5769643467767942 -18.735029515778567 -74.1875309501214 -21.580142841745747 64.69636610604933
52.42637882189013 -58.244022662403204 -58.45600050787971 -47.61108651478116 50.050620822861994 -20.601732333390967 -0.5105682439826654 46.87152117622208
44.21920436821392 -74.03499601580641 -21.98901313706849 -0.36371591768719974 -44.72432312691912 -44.67907340567832 64.42854251874265 64.24710888242377
0.005294154106820424 73.1798383281509 -0.5996465387808602 -89.80581561355389 -64.16407649435266 -79.95958180074695 73.18102323338712 -72.31340166130175
-63.639334038265055 -0.3573459564993462 -0.35208764409771665 77.04393323174219 -0.39191219092410995 -0.4942808750697941 -0.00341085124324772 -0.0052180378552812035
00000000: 0c2a 0845 a388 a5bf 6b0f ec38 8509 51c0
00000010: 3685 42c1 5138 a43f 0793 44e1 bfbd a43f
00000020: 814f 63dd f11b 51c0 f7d6 b272 8509 51c0
00000030: a62b 2519 2241 babf 63e1 1df8 006c a9bf
00000040: 88d8 77ea d8c8 a5bf 543e e407 bcd2 e13f
00000050: 5852 f3bb 8309 51c0 03ac 7720 c301 51c0
00000060: 3055 327b 51a9 e33f 9f4a 6896 1d74 9dbf
00000070: 16aa 72e9 6239 a0bf 65ff 1d84 00c7 50c0
00000080: b39b 36bd bf68 a0bf 5865 053c fffc 50c0
00000090: 5067 c2ec ed38 a53f 7d0a b3eb b5df a9bf
000000a0: 33ae e999 c508 51c0 7ad2 9c4f 91d5 a03f
000000b0: 5302 3403 f0b2 9ebf 95a5 1976 d4e0 e2bf
000000c0: d957 dac3 a77d 9fbf 4058 0b1b eb3b 51c0
000000d0: 067c 4ba2 74a3 9ebf c23d b4fe c808 51c0
000000e0: bf37 fbe4 7e09 51c0 d822 5104 6679 50c0
000000f0: 1bfc c778 0625 a53f e37b e1a5 801a 51c0
00000100: f790 eadf 1f0d 51c0 2391 d0a2 181b 51c0
00000110: a13a 1612 3509 51c0 278e ec68 b5dd 50c0
00000120: ef38 7abb f413 a5bf 7422 a5e7 a632 a33f
00000130: 303a 9d7f c7a5 ad3f e3fe 0afe 9fc6 a93f
00000140: af38 a7fd 5401 853f 35db ea73 19fb a9bf
00000150: 5c15 f90a 971d a43f 66e8 c1d9 1921 51c0
00000160: c6dd 9057 010c b83f bb54 136e f87e 943f
00000170: a1d9 d5e8 ab85 a8bf 7e1d 4206 090d 51c0
00000180: 3d77 ed8a 91de 50c0 9e30 5158 498b 5c3f
00000190: 314e 950e f8aa 7f3f b500 91db c311 b03f
000001a0: f585 c962 603c a2bf e9ac 987f e288 a63f
000001b0: 96d8 5ad5 8ea0 b63f e13d aad4 7d09 51c0
000001c0: a2ad 62e5 5931 51c0 e4a3 fd56 219f 51c0
000001d0: f526 44bb 5c14 51c0 f0ee 62c5 9804 9dbf
000001e0: d9bc 9e56 8609 51c0 8945 d4df 3431 8cbf
000001f0: fd3b 1e0b 35da a83f e58b b51c 73b3 87bf
00000200: 4143 3ffd 8209 51c0 3ce1 399a de0e 51c0
00000210: 6a0e 2f11 d3f1 50c0 6fe8 3410 12c0 a33f
00000220: e7f7 0eea 8c4b 50c0 d217 473e a19e ab3f
00000230: c590 4262 a538 c53f 1dc1 0bfc 7409 51c0
00000240: 39ab bf21 aba0 ab3f d538 a8d8 2042 51c0
00000250: 73cc aff2 8409 51c0 0701 7d1c 1824 51c0
00000260: 8829 a9e2 6c18 51c0 fa4b 9371 3a4d 81bf
00000270: d5fc 9346 7a09 51c0 0f6d 4790 aafb 50c0
00000280: 9287 832d 05ce a83f 1bc9 3014 c26c 51c0
00000290: f4ed ac5d cc4a c9bf 20f5 1cf3 1987 a03f
000002a0: b0c4 630e aa72 51c0 d0c9 bb1c d479 50c0
000002b0: 0d91 c89f a460 51c0 a907 13cc 3a20 51c0
000002c0: 0b51 48b8 6f09 51c0 6325 5000 97a7 b8bf
000002d0: 5a28 60d2 a826 9c3f 1b05 e39d 2f7d b63f
000002e0: 8732 889f 6e81 c03f f12d 08e0 1c1c 77bf
000002f0: 5c74 5b82 09c7 50c0 f1e3 2780 8309 51c0
00000300: b52a a8e6 2394 983f 809c d5eb e513 51c0
00000310: acdd 2dd1 3fbc 50c0 a6a5 0ff4 c503 51c0
00000320: cf99 46e7 307e 50c0 6bee e51a 33eb 50c0
00000330: a4ee 7dfc 8309 51c0 0ec1 cad5 aeba a53f
00000340: 8f50 f37c c66f a83f 7594 94f0 05eb e23f
00000350: 4522 e31e d643 d0bf 3836 6d2e b009 51c0
00000360: 755a 2840 d3dd d0bf cc7e e47f 55dc a5bf
00000370: 09b8 29c6 7f09 51c0 13f6 2ad7 5304 a33f
00000380: f2c3 eb7f c974 aebf 14e5 9a73 3919 51c0
00000390: 0467 4e62 9e95 893f 3709 7e5a a3d9 b7bf
000003a0: 08da 48f0 99ae 50c0 a01d a4a3 1455 50c0
000003b0: b35a 29c8 6127 a43f 707f 178c 9bb4 9ebf
000003c0: f63a b294 9393 35c0 e451 c984 50c8 57c0
000003d0: 9aae ceb6 3180 44c0 8d57 f4d3 92a7 35c0
000003e0: 924c a10d 3ff2 51c0 d135 a513 b15d 55c0
000003f0: bdcb 3c24 cbe6 56c0 6a20 b669 38cb 4f40
00000400: 1823 4611 c08a 52c0 52aa 3719 9c0e 5040
00000410: ba29 626d 1927 4dc0 6e60 bdaf 38d8 58c0
00000420: 9b7e b1fc 5425 4dc0 1968 8ef0 5a6d debf
00000430: 71b2 3c31 82f2 4cc0 824c 0d06 71ff a4bf
00000440: da4b f412 bce2 4c3f 040b 5aee 5186 dcbf
00000450: 96f4 97ec 0f23 5040 ccc1 0dbe 2403 4840
00000460: 6a6a cc5e 8623 4dc0 d6b0 8aa0 f093 35c0
00000470: f54e 58ec 6fa2 40c0 87f0 ebc9 99a7 3bc0
00000480: 67f4 041c 9690 34c0 cf5d 7828 f9db 54c0
00000490: 914d 5001 1511 2fc0 c954 6fc0 1e47 33c0
000004a0: c442 5b5e 3555 55c0 1a46 7eca 2d94 35c0
000004b0: cc7e dd1d 137a f93f b6f0 4a82 68d1 57c0
000004c0: 4508 8b63 6882 57c0 621d 23c4 e4af 57c0
000004d0: 7c51 21a9 0207 52c0 b11a 7f9e 7299 57c0
000004e0: 8f4f 039a ce93 53c0 02c1 0284 0f92 52c0
000004f0: c7ba d288 34d1 4740 2a33 4124 6c45 f13f
00000500: db45 9ae2 7974 4f40 cc8b a959 d8ca 57c0
00000510: 6893 b4a5 fc57 ef3f 9df9 f7ac 76ad 57c0
00000520: fbe1 3978 db9f 35c0 a70d 5a53 d046 4840
00000530: 6f41 e418 dba8 4f40 92ba 66cc 9a94 35c0
00000540: 78ae d6d1 0bf2 4cc0 f4cb d8c0 0b68 4840
00000550: 86fd cf21 7e8c ddbf 30bd d68c 7094 35c0
00000560: a132 f860 751f 5040 6001 eacc 048e 34c0
00000570: d616 1646 796d e1bf f99d 987b 1962 55c0
00000580: 3643 2b9d e02b 54c0 6b81 9984 073a d8bf
00000590: cade 5be2 e406 52c0 b1f1 86eb 69d8 54c0
000005a0: a6f3 c574 9bdc dcbf b914 395c 3090 a63f
000005b0: e8f8 c5de e115 debf 79ee 431b ff18 5040
000005c0: 5f5d b788 ad93 35c0 c8cd ddb0 d1a8 35c0
000005d0: fcb4 701f 579f 57c0 a30e ce8b 5037 44c0
000005e0: 3de9 7be7 b9d6 a5bf 3de1 e3dc 5183 ddbf
000005f0: bdf1 2366 b6a0 e3bf bd35 afd3 ec5c 41c0
00000600: 2163 36bb 6681 e2bf 0b49 b2b9 576c 44c0
00000610: 9c62 7548 32f3 35c0 4591 e7d3 1d8d 52c0
00000620: 9d77 d5b2 8d21 5c3f f81e 467f 59bf e2bf
00000630: f404 09b3 4b2b 4dc0 b3d7 0a1e 73d2 51c0
00000640: b1ff 157a cc31 55c0 f577 3455 9584 52c0
00000650: ddbb 32cb 60d4 863f 545d 7668 5d13 5040
00000660: 74d0 1001 f586 57c0 76ae ef36 a1c9 dcbf
00000670: c2d4 bd05 d51e 52c0 5b42 5a72 2894 35c0
00000680: 3fa9 23c9 cca6 50c0 64eb a148 8be5 34c0
00000690: 6d45 851b 6313 36c0 81f9 2d4a f440 e0bf
000006a0: 9b2e 636f 0211 3ec0 19ad e238 4e33 4dc0
000006b0: 6156 aed1 cbdf dfbf 6763 c722 a33a 55c0
000006c0: ddff 9c28 f4ef 34c0 6f2b 36c1 0240 4fc0
000006d0: 6091 7e04 9a94 35c0 a0a8 0bef 7d76 e2bf
000006e0: 19dd f3e4 2abc 32c0 9770 d081 008c 52c0
000006f0: 764e c43d 8494 35c0 95e1 2443 912c 5040
00000700: d1dc cb94 9336 4a40 9740 7522 3c1f 4dc0
00000710: c026 8239 5e3a 4dc0 7f01 3a15 38ce 47c0
00000720: 2d58 3dbe 7a06 4940 27dc 5421 0b9a 34c0
00000730: a903 c936 9356 e0bf 99d2 8201 8e6f 4740
00000740: 404f 84e3 0e1c 4640 3fd8 ed5f 3d82 52c0
00000750: 0606 07f7 2ffd 35c0 db12 e020 1f47 d7bf
00000760: 52ed c69e b65c 46c0 617c 9ae0 eb56 46c0
00000770: 7dbc 993d 6d1b 5040 eb23 c6a1 d00f 5040
00000780: 71fe faab 52af 753f 6d7e 9e78 824b 5240
00000790: 0326 27f0 4d30 e3bf 7db4 a67b 9273 56c0
000007a0: 5e52 b23a 800a 50c0 e002 c9c9 69fd 53c0
000007b0: b0cd 78e2 954b 5240 6673 d7c5 0e14 52c0
000007c0: b5c8 a0b2 d5d1 4fc0 2471 2193 c1de d6bf
000007d0: a26c 2e9d 9a88 d6bf 9462 54cd cf42 5340
000007e0: 810e bbde 1615 d9bf 3ea2 5d40 4ca2 dfbf
000007f0: 4015 52d1 12f1 6bbf 92e9 005f 825f 75bf
