pyTorch/noisey_features/models/realswag/ow_0.0_1024_NF_model_0.pth (torch, 469469 bytes, 10 tensors)

module.model.input.weight f8 [120, 60]
-44.43684174775257 -0.05736065986042824 -47.90859257383439 -0.08925839377047716 -0.09723955603411878 -43.93411450261238 -0.43349305482633965 -0.4695627892578643
-0.45746430672040245 0.10425534088357724 -0.44329502894740613 -0.514565386542891 -0.5059072784597015 -0.5354332424959285 -0.27599573512009345 -0.44640923923255066
-0.5796755256722502 0.08492181469377497 0.493150038493665 0.14234898906798346 -0.5058989919750304 -0.09842616347156566 -0.41691892429813254 -0.5305566543472033
-0.34196394366769395 -0.45262209380279417 -0.3149885967218709 -47.9429569181918 -0.49245883130271084 -47.89957224743871 -48.037247449788765 0.06753849289527601
-47.99578635533205 -0.3608636256175103 -47.98570022300881 0.1088520275905477 -47.86150518463053 -47.9222358908831 -0.5917283202592429 -47.92537282690185
-0.6145260958218999 -48.0175858335663 -0.40386895142279833 0.06695308699528967 -0.44023213595740696 -43.5901412015027 -47.626756101240396 -48.12346675706803
-47.98887108310206 -0.239654443935617 -47.93716579589311 -47.98029219263357 -47.80061180457354 -47.791228734752636 -0.3588280045829909 -47.95282694633542
-47.88110528073442 -47.83582991307885 -48.04510878947054 -0.42743189536315856 -35.572826244485796 -0.10573314636812277 0.2577362082033363 0.1930322351579671
0.09729624875088673 -0.4456935033825414 -0.5180979115072386 -56.3923442670481 -59.92678474299238 -60.27084391080751 -47.786053742609106 60.50357584638341
-82.03295651391414 -0.5592343370325725 59.84116950165558 61.01069261248584 -0.5115825853257521 -59.76417974865563 -56.37332086018676 65.66245340986531
0.5600641941495239 -0.048473709252094474 -0.5115465619894216 -59.75243203491733 -57.63472486976493 -0.6433765192402695 -0.6539468537057167 -72.98552812885174
-57.634958501405976 60.003331132135365 -41.39480306926621 -45.47913614354296 -41.46753743412805 -59.91652721905557 -0.6997266019554834 -43.173108186821835
-40.4558775286377 -41.342381429392944 -72.99677920487137 -59.84785833255701 -41.63019936447941 -72.85031953400924 -72.87798681140832 -0.41970377169602463
-81.8298417110823 -73.0237359500943 -48.93415081549043 59.690911684968164 -48.76851020689413 -57.48142964378127 -73.21191413254806 -41.39074446289563
-72.91613828849258 -72.93062396390168 -48.26674631990745 -82.00095363781712 -41.00406291734334 -72.4809973675882 -41.50057941315625 -41.05369646330496
-60.412728558596804 0.004725266932908084 -0.47144103245213637 0.09478017623922046 -0.15066686554302605 0.22150963917978192 -0.07470997232541865 0.0005036874287861098
-0.22971790935570224 0.08450079437167878 -58.89454952423794 -60.341246644146516 -0.08938066704897953 -0.2173912387410634 -60.98123014093608 -62.462142542918485
-0.4435174060338953 0.1172634248479684 -0.39264119670042225 -56.7777159936997 -0.08776462377252817 -0.11335741411038544 -0.021529244561998343 0.11845679713001236
-0.4668698168490436 0.030902477301590493 -0.4353352782188777 -60.06492831234754 -0.3471635608618385 -60.428227995372545 -60.693655662630746 -63.73418612431328
-61.14208143290926 -0.3647772474860739 0.14876759783179352 -62.84356269131928 -60.959043310972824 -55.205644892111316 -60.587301459885325 0.031965740834165535
-60.97113725906947 -60.85672990445119 -60.87550143644072 0.01991225785512857 -0.3292522783161662 -59.332172159038535 -60.82709441944616 -60.9928782952631
-59.41241527615761 -0.3943863459467155 -61.026260388519795 -57.90299049140883 -60.91434706960372 -60.83978105658512 -60.93629195968527 -0.3767752370921157
-60.98296416772373 -60.88853630936723 -60.90385496480484 -60.99923174825928 -0.5138981566460139 0.12914063759824956 -0.26618598519162406 -0.11688405000729228
0.10111726241343372 -0.7207150924453979 0.3968209822509764 -0.03368734002592545 -59.6276069031598 -57.34556957559709 -55.161275288591874 -0.47819140595772436
-59.64225662628707 -0.4485174170196507 -0.29941512280705807 0.14180027482262872 0.45122296726651084 -59.854580972372766 -0.4682884028635523 -0.05615411683792985
-0.42435893244092937 -0.09705701230328403 0.4981595284606721 -59.775736243238846 -0.5217348083652888 -0.3512226300989908 -0.5318158798508271 -58.76576044147588
-0.6424364048466247 -0.3526635684686068 -0.5169471858122576 -59.8116094709131 -0.6500900460641338 -59.62500195887281 -0.5503297451483963 -57.83338442475565
-0.029010686883709093 -0.33383748168072336 -59.94844104348925 -59.836515552676275 -0.2640617525195703 -59.961020723523 -58.779495143009335 -0.720147156122536
-59.958484276268486 -60.01294812865766 -59.96298186132072 -0.5793359007392216 -59.83057212207134 -0.6797096520717086 -59.561469298031746 -0.6326641603973329
-59.62020886462266 -59.83750646785027 -59.8470538827386 -59.67723139787053 -0.5534892760540538 -59.90703837022573 -0.29506076422892846 -0.5892042086225107
-35.77315170600326 -0.07027497439784491 -0.4259036479223371 0.1419600877337186 -0.11843201430034098 -0.023234785407705686 -0.5784094666428315 -57.38475158265512
-59.792213050618166 -60.34630747381088 -49.51523230548965 59.88391153800819 -83.77463983576065 -0.4513105888408919 60.252744000089955 59.90196459242207
00000000: f80f 2e6e ea37 46c0 cce3 5a5c 605e adbf
00000010: eb00 efc2 4cf4 47c0 9f3f 235a a3d9 b6bf
00000020: 1d4a 0b09 b1e4 b8bf 41b8 6310 91f7 45c0
00000030: c56c 61a7 59be dbbf 02fd d115 510d debf
00000040: 6be4 1c5f 1847 ddbf 683e 875f 7ab0 ba3f
00000050: 2ebe f31c f25e dcbf be5e 5bd4 5177 e0bf
00000060: 7b5e f975 6430 e0bf 90c2 36e5 4422 e1bf
00000070: 2c48 0b04 eaa9 d1bf f7b4 c80e f891 dcbf
00000080: bdb9 21b0 b38c e2bf f4a4 d3a0 6fbd b53f
00000090: de7d d62d c58f df3f 0934 55de 7d38 c23f
000000a0: 8196 3315 5330 e0bf 2a5e 2e01 7532 b9bf
000000b0: 276a 3cb6 ccae dabf d415 e3f2 51fa e0bf
000000c0: 0fb1 9dbc bce2 d5bf 761f 95a8 c2f7 dcbf
000000d0: b522 62ee c528 d4bf da95 f2cf b2f8 47c0
000000e0: da93 c40b 7284 dfbf ba91 f32e 25f3 47c0
000000f0: e059 4186 c404 48c0 9fd2 34e2 334a b13f
00000100: 23fa 62ed 75ff 47c0 e6f6 95bf 6318 d7bf
00000110: cbbd c66c 2bfe 47c0 19cd 9afa b9dd bb3f
00000120: 4aa9 48cd 45ee 47c0 2a45 5fd3 0bf6 47c0
00000130: c02c f43a 70ef e2bf 4413 e69d 72f6 47c0
00000140: f4fe 82a1 32aa e3bf 2405 aa40 4002 48c0
00000150: 4ec4 8e28 fdd8 d9bf afd1 0267 d623 b13f
00000160: 5e75 a568 c32c dcbf f63c 34bf 89cb 45c0
00000170: afb2 3e8b 39d0 47c0 0ce0 39c2 cd0f 48c0
00000180: 15f1 e053 93fe 47c0 81b3 852f ffac cebf
00000190: 3625 7e0c f5f7 47c0 52f1 ed36 7afd 47c0
000001a0: abb7 9672 7ae6 47c0 82b5 b1fb 46e5 47c0
000001b0: 22aa 24bc 09f7 d6bf 0ca1 be3b f6f9 47c0
000001c0: 2a8b ce0e c8f0 47c0 99d8 7e79 fcea 47c0
000001d0: e1c4 f31f c605 48c0 2788 f64e 0b5b dbbf
000001e0: b22d d15e 52c9 41c0 bd17 c1d5 5311 bbbf
000001f0: b89d 4e02 c07e d03f 55e3 89c0 47b5 c83f
00000200: 0996 682e 68e8 b83f e154 440b 3e86 dcbf
00000210: 7095 4112 4294 e0bf 52df 4156 3832 4cc0
00000220: c2ca e8e1 a0f6 4dc0 979e 6503 ab22 4ec0
00000230: c7b3 b668 9de4 47c0 daa2 5f2c 7540 4e40
00000240: e45c a3f5 1b82 54c0 505d 8b68 3fe5 e1bf
00000250: 6d00 3671 abeb 4d40 be77 2260 5e81 4e40
00000260: e8ab 2571 e25e e0bf e75e 5aa4 d0e1 4dc0
00000270: 57b5 5afa c82f 4cc0 b19f fca2 656a 5040
00000280: b20c b1be 0bec e13f ce38 e8c7 8bd1 a8bf
00000290: 9306 44e5 965e e0bf 6137 63b1 4fe0 4dc0
000002a0: 93cc 1eaa 3ed1 4cc0 39d7 a45a 8a96 e4bf
000002b0: ec9e bff3 21ed e4bf 34ad 92e4 123f 52c0
000002c0: 8ced f651 46d1 4cc0 3fca 8f27 6d00 4e40
000002d0: ed6d 2fe8 88b2 44c0 9e6c 4955 54bd 46c0
000002e0: 2c9e 4244 d8bb 44c0 66de 8fc3 50f5 4dc0
000002f0: c547 f10a 2964 e6bf ea88 b868 2896 45c0
00000300: 783d e231 5a3a 44c0 0e00 9927 d3ab 44c0
00000310: 5990 013b cb3f 52c0 9afc 309f 86ec 4dc0
00000320: 1433 6e5f aad0 44c0 0f6e 9fa2 6b36 52c0
00000330: 5b54 98ef 3038 52c0 414e 5c35 6ddc dabf
00000340: 217d 6820 1c75 54c0 4059 cae3 8441 52c0
00000350: 1508 0141 9277 48c0 67ae 49cb 6fd8 4d40
00000360: 51a0 de8a 5e62 48c0 c8ae 8f7c 9fbd 4cc0
00000370: aa36 4b00 904d 52c0 6b9d 20ea 03b2 44c0
00000380: 19ec 7c02 a23a 52c0 3975 d057 8f3b 52c0
00000390: 592a 50be 2422 48c0 27cf d89f 0f80 54c0
000003a0: d98e 3822 8580 44c0 38d0 2ea9 c81e 52c0
000003b0: 4b47 78fc 12c0 44c0 20e7 9486 df86 44c0
000003c0: 35a6 164a d434 4ec0 f93e 112f cd5a 733f
000003d0: 2df6 1702 172c debf 73ae 417d 8343 b83f
000003e0: 668f 0c46 0d49 c3bf 7751 0388 6d5a cc3f
000003f0: f89e d257 3120 b3bf 9e82 5b84 3c81 403f
00000400: 707e fe7d 6567 cdbf 37f8 4f14 d8a1 b53f
00000410: 8da0 4b99 8072 4dc0 513d 54f8 ad2b 4ec0
00000420: 69ba dec1 a6e1 b6bf bd36 6ae2 79d3 cbbf
00000430: c095 02f3 987d 4ec0 6cf6 a17c 273b 4fc0
00000440: 4fd4 87d4 9662 dcbf aa2d bdce f904 be3f
00000450: ddff b88a 0821 d9bf 1842 9b32 8c63 4cc0
00000460: da47 d90c be77 b6bf eefc 5cd2 fd04 bdbf
00000470: 019a 3425 c30b 96bf 228d a945 2f53 be3f
00000480: 32cb b6f0 31e1 ddbf 0abb 8025 e6a4 9f3f
00000490: 63b0 af7f 88dc dbbf ff0e 2992 4f08 4ec0
000004a0: 9aed 1083 ed37 d6bf a9ad c92c d036 4ec0
000004b0: 96d7 70b5 c958 4ec0 208d 98cf f9dd 4fc0
000004c0: 67db 71b9 2f92 4ec0 f6c3 11ab 8258 d7bf
000004d0: 292e b20f d10a c33f c8ab bddc f96b 4fc0
000004e0: b509 64ee c17a 4ec0 911a 6392 529a 4bc0
000004f0: de8c b9b1 2c4b 4ec0 3847 f346 d05d a03f
00000500: b3d0 c739 4e7c 4ec0 c18f 5453 a96d 4ec0
00000510: 958e 5a6e 1070 4ec0 91f3 1b01 e163 943f
00000520: 5417 e025 7812 d5bf 2adb 079e 84aa 4dc0
00000530: d91c dd3a de69 4ec0 1888 cfa2 167f 4ec0
00000540: dfbb 1506 cab4 4dc0 1e20 753a a03d d9bf
00000550: b7ef 1a80 5c83 4ec0 9699 4231 95f3 4cc0
00000560: 1a92 2453 0975 4ec0 adea 16f2 7d6b 4ec0
00000570: 912d 396a d877 4ec0 ca35 50e2 151d d8bf
00000580: b3c1 14c5 d17d 4ec0 3905 cb8e bb71 4ec0
00000590: ff14 fd84 b173 4ec0 02f3 6fd3 e67f 4ec0
000005a0: 3a9e 088c da71 e0bf 48d7 882f ae87 c03f
000005b0: da4c 43f1 3009 d1bf bf91 34f4 1cec bdbf
000005c0: 8c72 2027 d2e2 b93f d52b f918 1910 e7bf
000005d0: 4e9c 48d5 8365 d93f a2b2 668f 773f a1bf
000005e0: 58e8 496c 55d0 4dc0 4fd7 b49f 3bac 4cc0
000005f0: d913 2dab a494 4bc0 9444 7420 b09a debf
00000600: 69c5 1277 35d2 4dc0 714a 7265 82b4 dcbf
00000610: b895 180c 9e29 d3bf 05a8 76eb 8226 c23f
00000620: 8f47 e74b d6e0 dc3f fd0f c8e8 62ed 4dc0
00000630: 2b48 d9eb 6ff8 ddbf 8597 b57e 3bc0 acbf
00000640: 5c5a 265e b228 dbbf baa8 b075 bad8 b8bf
00000650: c37a bb80 d8e1 df3f 3184 4153 4be3 4dc0
00000660: c8a3 6332 0db2 e0bf 32fa 787b 6e7a d6bf
00000670: 137d 6ebc a204 e1bf ce5a 2a70 0462 4dc0
00000680: 286f 92ca d68e e4bf 7c0d 4437 0a92 d6bf
00000690: 0c55 1ad3 d48a e0bf 0a59 b3d1 e2e7 4dc0
000006a0: 6b9e e9a3 89cd e4bf b7a5 6e10 00d0 4dc0
000006b0: 43b5 2d20 4d9c e1bf 20a9 4057 acea 4cc0
000006c0: 9aa0 993d fab4 9dbf 6ada 7fe2 975d d5bf
000006d0: 37fc 1f84 66f9 4dc0 84ab 0ef1 12eb 4dc0
000006e0: 448b cc43 63e6 d0bf 9f27 21ba 02fb 4dc0
000006f0: d74e 317f c663 4dc0 7f51 7b0c 720b e7bf
00000700: d526 de9c affa 4dc0 8590 c648 a801 4ec0
00000710: c181 58fd 42fb 4dc0 6a5b 6271 eb89 e2bf
00000720: 03a2 f22f 50ea 4dc0 898d cd74 2ec0 e5bf
00000730: 9160 d839 dec7 4dc0 4040 c8e8 c83e e4bf
00000740: 2f1f 0b01 63cf 4dc0 7dcd 7469 33eb 4dc0
00000750: f327 fa42 6cec 4dc0 d2d6 b884 afd6 4dc0
00000760: 15d8 6a24 2fb6 e1bf 172b 54d5 19f4 4dc0
00000770: 808b 2c8b 46e2 d2bf 3660 d6c8 c2da e2bf
00000780: b810 96a2 f6e2 41c0 5817 c46c 8afd b1bf
00000790: d1b4 c45f 0142 dbbf 90a9 1387 bf2b c23f
000007a0: 8e28 387c 8f51 bebf 319c d20d dcca 97bf
000007b0: 3fb0 dd91 5482 e2bf 434b 348a 3fb1 4cc0
000007c0: 49ef bb3c 67e5 4dc0 6630 a5cd 532c 4ec0
000007d0: daf5 d621 f3c1 48c0 b026 6603 24f1 4d40
000007e0: 5531 f6b2 93f1 54c0 a03f dace 45e2 dcbf
000007f0: c352 57ea 5920 4e40 274d 6593 73f3 4d40

module.model.input.bias f8 [120]
-47.84770987162236 -73.00362096235042 -60.8414819673566 -59.85041074662182 -74.75431945034842 -20.036431312275667 -0.3694818562516359 -60.895866377317425
-50.37957425921526 -0.3996427625611882 -80.53768853114356 -61.00235164675548 -18.09730970769196 -0.4131748625090092 -56.440298349111366 -46.22922182293513
-79.6596370801935 -56.09117767103382 -70.62129955085418 -59.2141933550577 -0.4085064386502168 -52.212021788186114 -0.38061296213706447 -0.39282207248057116
-24.446884808015273 -60.966745835218475 -2.546611172125629 -59.48740168057979 -59.78397372487064 -48.076482590717596 -0.4585966396505246 -60.49380033365733
-60.85646698451261 -0.4081214775178543 -44.94189438625346 -73.9284621429458 -75.83117095404282 -53.44201583529404 -72.5527508125632 -51.5564858096347
-13.863381501264888 5.566803781629724 -56.50351275425447 -59.85311787643086 -60.94288494879224 -46.74855872862691 -0.42291069666588466 -56.340383679619315
-0.46771724752202615 -60.941128194682406 -43.17277631663092 -53.21152562025243 -44.85711690879364 -12.220669064001582 -74.74438939159215 -45.2139814902752
-14.726620393394267 -60.013401359046526 -0.41928470804662854 -49.72466048550308 -58.44951905707621 -40.35806634297281 -45.61852612288213 -53.51432237647748
-13.352435057564595 -46.70707776511813 -60.886368728016016 -0.37135724289033045 -58.51179722636223 -0.3505494622738627 -62.281538013253915 -0.42316831401967
-59.018833143520396 -0.3407727997477294 -0.3952041374721645 -46.0148620538276 -54.712601311776545 -2.8398481174800017 -58.27898854226536 -0.34988765176742564
-46.360091224267265 -0.37113664004845653 -51.990788931843 -0.5564229158091077 -48.07826087684862 -39.77363969474503 -4.959820069104656 -53.38471129359705
-0.38844029582453654 -0.2870988941462399 -40.33460913369368 1.5017196004496407 -51.077839474826746 -61.919193301598426 -56.01378538932565 -60.95172277719364
-61.030764270991625 -45.13611584687857 -39.6750689448024 -63.886033871709024 -50.99723835261741 -0.5821258933839393 -57.31427914985947 -59.80161322045669
-16.86406845054473 -7.188977785070082 -24.025291548755344 -11.939895153609797 -56.409691826161264 -63.4618940591707 -59.50924887908701 -48.12681643159947
-0.3640172059022274 -24.55881436110472 -0.48102849474314635 -24.64541876799576 -50.992476500398865 -45.51789440818591 -45.11845829282968 -40.39708426213966
00000000: a48e cfc1 81ec 47c0 02b8 6a53 3b40 52c0
00000010: 34fc 5cae b56b 4ec0 2e74 6442 daec 4dc0
00000020: ec7e 16c5 46b0 52c0 3cc6 fe8f 5309 34c0
00000030: ca3b 443a 97a5 d7bf 0915 dcbf ab72 4ec0
00000040: d2dd aae3 9530 49c0 2b23 d23c bf93 d9bf
00000050: 892c 287d 6922 54c0 09f4 0a0f 4d80 4ec0
00000060: cb1e fc49 e918 32c0 f759 80fa 7471 dabf
00000070: 43f5 40b2 5b38 4cc0 9884 0424 571d 47c0
00000080: 3eaa 717e 37ea 53c0 9c9b bdb5 ab0b 4cc0
00000090: 0bfc 305f c3a7 51c0 267f 17b0 6a9b 4dc0
000000a0: b351 8d30 f824 dabf 3f26 ab87 231b 4ac0
000000b0: 01fe 3378 f65b d8bf 19dd 9c30 ff23 d9bf
000000c0: 3d81 f30a 6772 38c0 5ee7 d853 be7b 4ec0
000000d0: 2e43 9fad 755f 04c0 850d a32d 63be 4dc0
000000e0: 119f 4240 59e4 4dc0 37ec 782e ca09 48c0
000000f0: 21b0 56b8 a559 ddbf f4e7 6dd9 343f 4ec0
00000100: ee4a ccb5 a06d 4ec0 2400 af8b a91e dabf
00000110: 4f9f c8fe 8f78 46c0 afe1 7aec 6b7b 52c0
00000120: f03f a8e7 31f5 52c0 7673 92f9 93b8 4ac0
00000130: f8b2 f144 6023 52c0 d988 50ed 3ac7 49c0
00000140: e3ce df23 0dba 2bc0 2965 e535 6844 1640
00000150: 2852 1e1b 7340 4cc0 a673 71f7 32ed 4dc0
00000160: 067a 3974 b078 4ec0 414b bdc5 d05f 47c0
00000170: 4cbf d306 f810 dbbf 4f07 42b1 912b 4cc0
00000180: 9c76 7852 14ef ddbf 92c0 80e3 7678 4ec0
00000190: 01ba ca88 1d96 45c0 0aa0 8245 139b 4ac0
000001a0: 040f c201 b66d 46c0 5f40 1a89 fb70 28c0
000001b0: 2b18 6713 a4af 52c0 3657 d7be 639b 46c0
000001c0: 5678 9496 0774 2dc0 d469 bf22 b701 4ec0
000001d0: be7b 3187 8fd5 dabf 38f8 beac c1dc 48c0
000001e0: 1989 28d7 8939 4dc0 eb6e 301e d52d 44c0
000001f0: 0ec0 2edd 2bcf 46c0 3049 cd50 d5c1 4ac0
00000200: 5a68 2c5e 72b4 2ac0 a074 3286 815a 47c0
00000210: 5183 cd87 7471 4ec0 4c30 562b 51c4 d7bf
00000220: 64b4 4e92 8241 4dc0 1f2f 0603 676f d6bf
00000230: d1c0 0770 0924 4fc0 8bbf 5a8d 3015 dbbf
00000240: 20c0 db1f 6982 4dc0 4b1a 92b7 38cf d5bf
00000250: 19f5 6b4b 064b d9bf 0a92 f1ff e601 47c0
00000260: 5f95 1085 365b 4bc0 5e78 314a 02b8 06c0
00000270: 857e 84e5 b523 4dc0 9061 672d 8f64 d6bf
00000280: fae6 1f78 172e 47c0 9bbf d6e4 b3c0 d7bf
00000290: 92c0 f52b d2fe 49c0 7da4 446e 37ce e1bf
000002a0: 804f d173 040a 48c0 9ee8 21a0 06e3 43c0
000002b0: 5565 7b12 dbd6 13c0 5a33 3c38 3eb1 4ac0
000002c0: f0f4 c0af 34dc d8bf feda 440a d45f d2bf
000002d0: 2114 db78 d42a 44c0 2418 bb21 0b07 f83f
000002e0: fe5b d7a4 f689 49c0 a488 4820 a8f5 4ec0
000002f0: 7c28 3ab8 c301 4cc0 d673 4d0d d279 4ec0
00000300: ace5 6815 f083 4ec0 c867 7b3e 6c91 46c0
00000310: 5b3c c0a8 68d6 43c0 bb11 d38e 69f1 4fc0
00000320: 8367 9f81 a57f 49c0 44a4 477b c6a0 e2bf
00000330: 063b 974c 3aa8 4cc0 8cf3 1243 9be6 4dc0
00000340: 5298 0897 33dd 30c0 a32f 7a64 83c1 1cc0
00000350: f7c4 c681 7906 38c0 90d8 04f0 39e1 27c0
00000360: 8c66 21c8 7034 4cc0 6c2d 3358 1fbb 4fc0
00000370: 089a 3811 2fc1 4dc0 5728 5585 3b10 48c0
00000380: e201 a2d2 0e4c d7bf db7a 3d75 0e8f 38c0
00000390: 426b 57bd 2bc9 debf 33c4 142a 3aa5 38c0
000003a0: 7ea1 4f78 097f 49c0 4af8 2c5d 4ac2 46c0
000003b0: 5dd2 2ea4 298f 46c0 b4d2 37a8 d332 44c0

module.model.hidden1.weight f8 [120, 120]
-0.08942490656407687 -60.91606151558071 -60.61709584881785 -0.43752453299985966 -60.956976382759876 28.32737051849453 -0.3710993183525311 -58.59644536681386
29.612860931000863 -0.28434070918953086 -60.59936340261918 -62.51562523275342 -17.812392746008328 -0.3593966035335657 -0.11145589416351706 -0.054413379116627955
-60.57955277481065 -0.16939562300352 -59.49655317557433 -0.0597808098962876 -0.14812312983867604 0.08682343255664647 -0.4514514485299434 -0.11151372714957017
-0.4425169928955574 -59.72258376210616 -0.03690382670805167 -59.84800177645513 -0.01495107752557378 0.055005836088568925 -0.35788207663568 -60.93221649433375
-59.84332106158631 -0.25988541346157845 0.11381469961921485 -60.90552210307985 -0.053900437477401295 -0.02241804453653773 -60.81891100890466 26.474479421843558
29.834449782266308 -0.933285712645717 0.08466007017755352 -0.04385545477638438 0.05671282650026203 -0.47820295214815356 -0.48292724639845286 -0.0004163659720952233
-0.29223865225808526 0.041816179845032525 -0.05066372932215614 0.1129307421534774 -0.20286596531834952 33.04427118154523 -60.849532618121984 -0.4494707716393456
29.698638142733685 -0.40724987794400136 -0.5017231657874945 -0.5171693231566752 -0.07359154606895366 -0.3563829289658716 -0.4614220330910341 -0.1366723638743427
-0.5384544553419247 -0.4545343856444306 -60.62507621136647 -0.5404933934950791 -0.20422590347127234 -0.4819944800501327 -60.86533608938176 -0.5304867448527278
-60.63874295260182 -0.41905831062491855 -0.4508051879799569 28.15796739120547 -0.17571671574514625 -0.05217328874038559 -0.26630536852328446 -0.4483784565797985
-0.15722949118610594 -0.4361050423829279 -0.037640791518841074 -0.543971609250614 -0.1159471033624566 -0.4266529702203325 -0.01974759735096189 -0.13710413957762713
-0.47001528230940515 -0.42708023284764074 -0.40546454661934217 -0.4483422323935258 -0.4162566949480776 -59.808584202312375 -0.32862042004797787 -60.5097791785242
-0.04722862713591419 -0.5195741731648447 -0.2829329242251948 -56.68339647293366 -0.28640846950317306 -0.10450171384359676 -0.22164186064549327 0.058133299524347266
29.54788368741114 29.72110244873156 -0.45990746927092163 29.569507583708145 -0.1488290579558491 -0.43131962439894467 -0.012069805296005211 -0.02123266603647713
-0.3647326349844298 -0.4234987651911884 -0.394323612334983 -0.08127178677884873 29.62544930128739 -0.43524291062838677 -0.5533203796851892 -0.04214721490244105
-0.466549858239243 -51.51929252786507 58.526098917985635 -58.27723680690289 -52.83228190713218 29.98049072774999 -0.43891819292830864 55.55526230410858
33.79277938772697 -0.6091423525032427 -9.209038990652475 59.97000924123937 -18.097751130231 -0.5006956478787313 55.36305856232732 -0.4063644722578841
8.169807829685663 56.03018587674842 -52.44861695727893 -58.08248217973908 -0.4339091319619338 0.1004055942480776 0.11335611978092902 -0.4883629150284804
-0.558760876031503 59.86075256432606 1.8008146541391115 60.02490749455808 -53.68941640747514 -0.5977780486489199 -0.5145837199670585 65.62205136400749
60.22124163931801 -0.5028115268481469 -59.794979134820004 -57.00167148011551 -52.038168797499516 -0.07668599819130055 -48.46038645896565 29.505871439233765
29.60539133996245 11.056851257174129 55.36313129626345 -59.741578942340205 0.062004861831525884 -0.5825738125278493 -0.21945021257984088 55.90722488650009
-0.4526832505839307 -0.0678305605539158 -0.48181605156959356 -0.07011477493537813 -59.91612971492714 33.71986363686768 -49.47152913158165 -59.82406217829503
29.434876937186438 0.09307692929950048 -0.468495898193478 0.10441599100913881 -60.66485292108253 -0.485116475168683 -0.4133167389054347 -0.44362240548990356
-0.44147161469423685 -59.93368132066573 57.1100778497277 -0.43831894965680834 -58.1875365372329 -0.09841294369031954 42.94944535776197 -0.05601497852083048
-54.29500915556872 0.003103403343967397 -0.45409580715269043 29.500962546772453 -58.39916203131688 -0.495969622022314 -58.08249954510803 -0.1022549327183058
-61.94777712695773 0.10002791469568299 -58.08213974970735 0.05130754315622868 -59.91305943897027 -0.6230035387471871 0.5109614332282354 -0.023541189063081426
-0.05882527693732009 0.1149056030874534 -0.5500442045481733 -1.5480356622927363 -0.09883810095190892 59.91775545932444 58.0225190533353 61.43502419163587
-0.03591445574704787 -0.5577648052339184 -0.5530850237907939 -12.571824388581328 -60.716712205938066 -0.48269431477391894 0.1375818062037697 -59.77648831747698
28.359375672449083 33.3284153746692 -0.5358319802876563 29.424027685655357 55.90709389400858 -78.89257391206449 -57.29364659523494 -57.54787195814151
-0.4828572991883611 -0.575583761456128 -0.451786918510156 -0.44038664872799305 29.503483417314243 -0.5453185276934182 -0.5671877643802183 -0.5655720059146854
-0.5592571141361952 -0.4505943610316846 -0.022729901422829647 0.08571777245586033 -0.5648495703203651 31.693012123711597 -0.6026116090332179 -0.06897607881506479
27.19631216934965 -0.49404855842991735 -61.04337189442678 -0.4289385743440557 17.136487529589115 -0.43372760420173506 -0.4872159567052041 -0.4335339551213064
00000000: 20fc 23f9 8ce4 b6bf 8c45 f580 4175 4ec0
00000010: c395 2cff fc4e 4ec0 09a7 1be6 6600 dcbf
00000020: c07f bd33 7e7a 4ec0 cb9b e68d ce53 3c40
00000030: c116 f95a 17c0 d7bf 7b28 6052 584c 4dc0
00000040: 13a5 3774 e49c 3d40 a7fd b85f a332 d2bf
00000050: 9755 a2f0 b74c 4ec0 8cd5 f301 0042 4fc0
00000060: 089d 93f8 f8cf 31c0 d116 9e9c 5a00 d7bf
00000070: 4ef5 609c 5f88 bcbf e6a1 8a07 12dc abbf
00000080: 140f 0bc9 2e4a 4ec0 6e5d 717a c1ae c5bf
00000090: 89e8 f00d 8fbf 4dc0 69ab dd1e 979b aebf
000000a0: 6819 38df b2f5 c2bf 4775 5b7b 0f3a b63f
000000b0: 6fbf ca9d 94e4 dcbf b697 29e3 298c bcbf
000000c0: a348 1acb 3252 dcbf ed6e ed9f 7ddc 4dc0
000000d0: dbdd 9df1 0ee5 a2bf 8f69 7c52 8bec 4dc0
000000e0: bd30 19a8 ab9e 8ebf 33d8 2d96 b929 ac3f
000000f0: 4f63 be39 8ae7 d6bf 45fa bdde 5277 4ec0
00000100: 46c5 cdf1 f1eb 4dc0 4098 e16d f6a1 d0bf
00000110: cf28 abcc f522 bd3f 3d44 f525 e873 4ec0
00000120: 663b 6990 d698 abbf a0b1 7f80 c1f4 96bf
00000130: 39ca 7013 d268 4ec0 6d71 bf7b 7779 3a40
00000140: f5fc 3c80 9ed5 3d40 a665 b4ff 79dd edbf
00000150: 618d b048 48ac b53f 0b14 08e0 3874 a6bf
00000160: 7529 2aae 7609 ad3f 1eed 148e e09a debf
00000170: 703c 68ae 47e8 debf d59c ba3b 7649 3bbf
00000180: 83d6 84bf 09b4 d2bf 4492 c129 ee68 a53f
00000190: c269 10a9 98f0 a9bf 261f 4374 07e9 bc3f
000001a0: 97c3 410f 83f7 c9bf 2e72 96ad aa85 4040
000001b0: 0edc 1d7c bd6c 4ec0 59ba 2c0e 21c4 dcbf
000001c0: 84c7 06f3 d9b2 3d40 5272 c4ca 6110 dabf
000001d0: f47d 96bd 1d0e e0bf dc79 2eae a68c e0bf
000001e0: e6d3 a043 e5d6 b2bf 05b6 3058 face d6bf
000001f0: 97e8 7147 f087 ddbf 75bc 8de2 7a7e c1bf
00000200: a787 82d6 043b e1bf 9c04 5064 1717 ddbf
00000210: cda9 4e7f 0250 4ec0 5a7e 18cd b84b e1bf
00000220: 88dc 330c 1324 cabf f6bd 2a60 ffd8 debf
00000230: bbf8 3d55 c36e 4ec0 a953 8356 bff9 e0bf
00000240: d6fc 3d54 c251 4ec0 f310 d0f2 d9d1 dabf
00000250: 516d cf00 fed9 dcbf db0f 0b8d 7028 3c40
00000260: 0033 bea5 e27d c6bf bbbc ba11 75b6 aabf
00000270: 8aa1 23ac 250b d1bf ab6f cf8d 3bb2 dcbf
00000280: bb36 4e91 1820 c4bf 92f1 a91f 25e9 dbbf
00000290: e650 2361 a745 a3bf 55e2 f525 3768 e1bf
000002a0: 7ff7 0199 b5ae bdbf 139b 7542 484e dbbf
000002b0: a415 30d3 b638 94bf 90e9 d0e1 a08c c1bf
000002c0: 0ee7 88fa ba14 debf ce50 3654 4855 dbbf
000002d0: 02b9 da91 21f3 d9bf ccee 629e a3b1 dcbf
000002e0: 32c1 e21e f3a3 dabf 387f e8af 7fe7 4dc0
000002f0: a4d8 39f1 1d08 d5bf baf8 b171 4041 4ec0
00000300: 68ab f7c1 592e a8bf 20db 3204 5aa0 e0bf
00000310: 2091 20b2 921b d2bf d5b9 1e89 7957 4cc0
00000320: 1111 7430 8454 d2bf 098e 55d3 9fc0 babf
00000330: 57d0 72af c25e ccbf 7902 88d8 a5c3 ad3f
00000340: 5771 f71a 428c 3d40 195e 8a2b 9ab8 3d40
00000350: 5a1a edbc 1f6f ddbf b8d9 be3f cb91 3d40
00000360: c0b3 4ea0 d40c c3bf 76a7 3aa0 bd9a dbbf
00000370: c199 1fd8 0db8 88bf 262a ef18 04be 95bf
00000380: a5b0 c28c c757 d7bf 551f 9990 9a1a dbbf
00000390: c53c c11a 993c d9bf d979 4d52 3ace b4bf
000003a0: dc55 0672 1da0 3d40 d3be bd14 05db dbbf
000003b0: 7fa9 def0 ccb4 e1bf 3737 3fdb 5194 a5bf
000003c0: b2d2 c5ef f3db ddbf 6b1e 742d 78c2 49c0
000003d0: ca9a 9735 5743 4d40 9c72 e57e 7c23 4dc0
000003e0: b517 aa36 886a 4ac0 abb7 b970 01fb 3d40
000003f0: b9c6 0f55 3c17 dcbf 8a6c ced5 12c7 4b40
00000400: 799d 83cb 79e5 4040 8e84 531a 187e e3bf
00000410: e9e1 9828 076b 22c0 6ef8 4743 29fc 4d40
00000420: 3b7d d337 0619 32c0 1770 1ce1 b205 e0bf
00000430: 43dd f5b3 78ae 4b40 7ca6 a621 e001 dabf
00000440: 9635 460d f156 2040 c0b7 7c21 dd03 4c40
00000450: d6f8 cb47 6c39 4ac0 b73d acc6 8e0a 4dc0
00000460: 9295 cdce 2ac5 dbbf 3885 a157 2eb4 b93f
00000470: 54b3 421b e804 bd3f 6619 2887 5641 dfbf
00000480: 22de 1a7d 5ee1 e1bf 42dd d823 2dee 4d40
00000490: e7f5 da06 23d0 fc3f b046 352b 3003 4e40
000004a0: 3db7 fdcb 3ed8 4ac0 84d7 266e ff20 e3bf
000004b0: 5100 0a47 7877 e0bf 0a36 86b0 cf67 5040
000004c0: 30b1 62a5 511c 4e40 f1aa fb32 0817 e0bf
000004d0: f386 54e0 c1e5 4dc0 4d37 64c5 3680 4cc0
000004e0: 797e 14b7 e204 4ac0 bbf1 4a8e b1a1 b3bf
000004f0: ad63 88f1 ed3a 48c0 4e7d 67ca 8081 3d40
00000500: 9b6b 46ed fa9a 3d40 4799 a49b 1b1d 2640
00000510: 84cd 1816 7bae 4b40 7160 0c0f ecde 4dc0
00000520: 62d0 84eb 19bf af3f 4f05 0ad6 71a4 e2bf
00000530: 9cb9 10cf f116 ccbf 4ed1 f0f1 1ff4 4b40
00000540: fd1d 2d2b c3f8 dcbf 3198 3ff7 575d b1bf
00000550: e578 0bfe 12d6 debf 7258 50b9 0af3 b1bf
00000560: c040 0ebd 43f5 4dc0 91f6 dc7d 24dc 4040
00000570: 92a0 0b11 5bbc 48c0 e7d2 94de 7ae9 4dc0
00000580: 1a00 4f18 546f 3d40 467c 5abf e3d3 b73f
00000590: c545 4338 d6fb ddbf 6a4d 90a2 01bb ba3f
000005a0: 8a59 88e6 1955 4ec0 256b e6f8 250c dfbf
000005b0: e13e 1f0d c873 dabf f386 d63a 4f64 dcbf
000005c0: 0157 ce28 1241 dcbf 9c92 98de 82f7 4dc0
000005d0: 184c ee07 178e 4c40 558e 7fec 6a0d dcbf
000005e0: 361c 7f32 0118 4dc0 cb2b a736 9731 b9bf
000005f0: 9d76 ec6c 8779 4540 508d aac9 fead acbf
00000600: 1898 29dc c225 4bc0 d7df cbfb 4e6c 693f
00000610: 852d 3edc e70f ddbf 97e8 da14 3f80 3d40
00000620: cc27 cfbd 1733 4dc0 ec4c 995e f7bd dfbf
00000630: 4116 5858 8f0a 4dc0 d23a e117 612d babf
00000640: 1417 cac2 50f9 4ec0 db16 4eee 6d9b b93f
00000650: ec58 298e 830a 4dc0 e4c8 c977 fb44 aa3f
00000660: 39d7 b621 dff4 4dc0 18c4 061e a5ef e3bf
00000670: 1f71 a7ca cb59 e03f fa1f 8a74 2e1b 98bf
00000680: 2074 3fc1 581e aebf d444 631f 746a bd3f
00000690: 8c70 bc4d f699 e1bf 8e6c e90a c1c4 f8bf
000006a0: 08ec 2f2b 744d b9bf 10c3 c902 79f5 4d40
000006b0: 56ce 82e7 e102 4d40 bf05 6adf aeb7 4e40
000006c0: 5f40 c629 6163 a2bf 18dd aa93 35d9 e1bf
000006d0: cbd7 225d dfb2 e1bf 2506 902a c624 29c0
000006e0: f292 be39 bd5b 4ec0 b9d2 fab1 76e4 debf
000006f0: 08bc 15d7 479c c13f 15a5 1cf8 63e3 4dc0
00000700: 9625 480b 005c 3c40 99da d683 09aa 4040
00000710: 9890 ef1b 8925 e1bf 037d 1214 8d6c 3d40
00000720: 8695 18a7 1bf4 4b40 1b65 54ee 1fb9 53c0
00000730: d38e 2d36 96a5 4cc0 804e 17ab 20c6 4cc0
00000740: 8d87 294d 22e7 debf ed01 f2a2 2e6b e2bf
00000750: 4dc0 f0ad 13ea dcbf ec6e 787b 4b2f dcbf
00000760: 6871 0b4a e480 3d40 4313 4bd7 3f73 e1bf
00000770: 608a 56f4 6626 e2bf 62f9 9d76 2a19 e2bf
00000780: 47a6 e82c 6fe5 e1bf 9628 19bb 89d6 dcbf
00000790: ed69 02dd 8146 97bf 9946 6295 99f1 b53f
000007a0: 9af0 f567 3f13 e2bf a412 173e 69b1 3f40
000007b0: 7e9a 1f24 9848 e3bf bc8e b792 6aa8 b1bf
000007c0: df29 ab83 4132 3b40 8aea 45d8 7d9e dfbf
000007d0: 7510 d235 8d85 4ec0 c43c 33c7 ba73 dbbf
000007e0: a7e5 c3d8 f022 3140 00cf da6c 31c2 dbbf
000007f0: 54d8 08d6 8b2e dfbf 13e6 bc33 05bf dbbf

module.model.hidden1.bias f8 [120]
-50.95096188866065 -42.3841991769834 -5.411950776159857 -80.41715409805771 -2.8644056721357565 -74.62040682527264 -61.02609122254153 -28.29456654584316
-53.63791759840818 -72.02733909209648 -82.8967522231429 -70.28273977220158 -18.643649723377994 -56.58361071842639 -54.07873108051518 -26.690173834591135
8.232787010909366 -54.9346442022689 -39.49711666994069 -77.20541711778023 -82.92777477198045 -19.506238494667798 -49.20213690468034 -71.1360087363256
-48.84553393373572 -70.96650612344139 -65.48932880523768 -49.11362132813133 -16.53150786216789 -68.83252535486848 -43.499054413021355 -69.70717142484592
-48.72831592518351 -16.49872058971425 -59.93959271132124 -73.49289731349171 -36.51598946740994 -76.88393195752383 -59.76512455891578 -23.03692222764339
-41.18390287241478 -54.91473230022116 -49.25742424803192 -4.589882943377864 -18.96253160779298 -26.042322697321023 -58.59346854044906 -68.1637504114345
-90.46476610637755 -84.46607733479539 -99.93031589499036 -40.56584899973715 -82.19319355806923 -90.15174871658357 -49.65451124682988 -58.081085656377496
-28.292556635216435 -83.16850609169002 -82.65028177087076 -35.30722858765984 -57.90823802957013 -82.87863381348546 -54.727635048406675 -49.28851782228982
-87.74060169113017 -78.92927729127611 -37.2148537743249 -34.475999792393054 -48.8632994683334 -78.20139160375898 -58.55837347057425 -50.82581376728643
-89.91481401799672 -13.88115650839726 -82.9551536875087 -42.17973868511404 -88.51204441681705 -52.02177842418862 -88.28146474984557 -88.21642124327677
-76.43504173461322 -16.295553467879458 -7.303195091024639 -73.43394072357218 -48.205731340955445 -66.93179721933778 -56.475701466688996 6.113063501976993
-80.29851250151204 -59.01360780775555 -31.521518662647463 -73.21024050803604 -19.55874208826071 -49.593951552057746 -85.26329966061438 -64.57363210938554
-49.16924561893198 -91.44168166698405 -87.86756332740867 -46.148957403364136 -70.87695068756433 -83.65551003328825 -90.63298133238834 -51.28027547755198
-76.7154836646052 -18.39426102358381 -56.97495697151739 -63.48861976591446 10.430847181711915 -58.96022331318984 -56.22130201016761 -54.86053844312822
-67.26325301593681 -37.571721483103914 -88.51705739292787 -77.11928776698896 -90.10453009467149 -70.12295486976728 -55.3488787930234 12.614302120806768
00000000: 1bc5 811e b979 49c0 9c25 4a70 2d31 45c0
00000010: 72ac 9c6c d6a5 15c0 3723 1aa7 b21a 54c0
00000020: 5866 6285 4dea 06c0 b730 d4be b4a7 52c0
00000030: a7c3 09f5 5683 4ec0 5ee4 90b6 684b 3cc0
00000040: 5e5a ab48 a7d1 4ac0 3b9d 76ec bf01 52c0
00000050: e6c0 6f63 64b9 54c0 98b8 8e68 1892 51c0
00000060: e9fc 6f3a c6a4 32c0 439e 8ac1 b34a 4cc0
00000070: e8fe 2bdc 130a 4bc0 b41f 803b afb0 3ac0
00000080: 2294 eddb 2f77 2040 0a12 d56b a277 4bc0
00000090: 89d8 df84 a1bf 43c0 e6b9 d68d 254d 53c0
000000a0: 6fed 6fa9 60bb 54c0 1093 92d8 9881 33c0
000000b0: 5775 419f df99 48c0 489f fc5d b4c8 51c0
000000c0: ce86 b874 3a6c 48c0 21e4 7f3c dbbd 51c0
000000d0: 24df c329 515f 50c0 e039 c824 8b8e 48c0
000000e0: f593 35e6 1088 30c0 0f10 6d18 4835 51c0
000000f0: f46c d703 e1bf 45c0 4198 ef4b 426d 51c0
00000100: dae8 cb74 395d 48c0 1faa 0e27 ac7f 30c0
00000110: a457 ef92 44f8 4dc0 ec6e 2ca1 8b5f 52c0
00000120: 96cd 5ff1 0b42 42c0 105d 5857 9238 53c0
00000130: 71f4 fe99 efe1 4dc0 4d39 30bc 7309 37c0
00000140: ba54 1b21 8a97 44c0 ba05 b1f2 1575 4bc0
00000150: 4b3f 1b47 f3a0 48c0 c61a 3946 0a5c 12c0
00000160: 4fd6 b078 68f6 32c0 4fdf 08a9 d50a 3ac0
00000170: 7f37 f2c6 f64b 4dc0 5674 01e3 7a0a 51c0
00000180: 93cb 56ba be9d 56c0 9896 0736 d41d 55c0
00000190: affb ad4b 8afb 58c0 352c 72bd 6d48 44c0
000001a0: 226d 8348 5d8c 54c0 eebb 3f40 b689 56c0
000001b0: cfff 4706 c7d3 48c0 7428 c903 610a 4dc0
000001c0: 7e7b dcfd e44a 3cc0 113f c6cd c8ca 54c0
000001d0: cbc4 6e37 9ea9 54c0 9932 3044 53a7 41c0
000001e0: 5cfe cc24 41f4 4cc0 1c85 5189 3bb8 54c0
000001f0: 3f2a 3025 235d 4bc0 2286 e926 eea4 48c0
00000200: 0cb1 a204 66ef 55c0 91bc 7547 79bb 53c0
00000210: e512 1754 809b 42c0 909d aa8f ed3c 41c0
00000220: b592 d398 806e 48c0 5df5 9b99 e38c 53c0
00000230: 0489 29c8 7847 4dc0 778a f943 b469 49c0
00000240: f84d 1850 8c7a 56c0 9372 24f2 26c3 2bc0
00000250: 3ca0 ee3c 21bd 54c0 0732 5fad 0117 45c0
00000260: 0815 f255 c520 56c0 03d3 a9a2 c902 4ac0
00000270: 11e4 b984 0312 56c0 2382 7cd8 d90d 56c0
00000280: c5a3 49b9 d71b 53c0 fcc2 5e64 a94b 30c0
00000290: c608 21c6 7836 1dc0 4909 50af c55b 52c0
000002a0: 3b95 9267 551a 48c0 cfe3 cd90 a2bb 50c0
000002b0: 530b 21c9 e33c 4cc0 1d73 2deb c673 1840
000002c0: 3fdc 2dd4 1a13 54c0 e2a3 90e6 bd81 4dc0
000002d0: 1353 403f 8285 3fc0 ca93 9a94 744d 52c0
000002e0: 7ffa b3b8 098f 33c0 8cbf bd9a 06cc 48c0
000002f0: bfd8 d1e6 d950 55c0 c56f 7363 b624 50c0
00000300: ee26 27d7 a995 48c0 1dbc 2e83 44dc 56c0
00000310: 789b 5528 86f7 55c0 18f9 4309 1113 47c0
00000320: c9d2 c6f5 1fb8 51c0 11cb 5ae0 f3e9 54c0
00000330: 8865 22c4 82a8 56c0 70fa 1c11 e0a3 49c0
00000340: 4d13 ff7b ca2d 53c0 4461 5a4a ee64 32c0
00000350: 53d6 d963 cb7c 4cc0 1164 ad17 8bbe 4fc0
00000360: 8a0d 7600 98dc 2440 ea80 f798 e87a 4dc0
00000370: bf1a d09f 531c 4cc0 de17 ab1f 266e 4bc0
00000380: 6881 2d23 d9d0 50c0 0c2d 682b 2ec9 42c0
00000390: ef31 e477 1721 56c0 f381 2869 a247 53c0
000003a0: f583 fe9e b086 56c0 3422 1a7e de87 51c0
000003b0: d826 6f0f a8ac 4bc0 ff74 bdce 853a 2940

module.model.hidden2.weight f8 [120, 120]
60.38249698022418 -46.93232567542364 0.19802784463419773 0.09241833437013895 -72.41759686591429 -15.607841060330436 -0.11295106395290323 -0.11320561571448244
-0.09694268544750127 0.18079048977709397 0.11057230095187634 4.298770238628643 -0.04310247170148696 -0.06552861062372889 -59.95415474971613 -50.29367533081949
41.261533706416586 -0.07249921418713563 0.5281189819927118 -0.1152299366418152 -0.17518406046367996 -67.95942915241386 -18.358982610250496 -0.09792621954521938
-20.00952596036804 0.039734701354895784 -0.06864640821098862 -34.5423257558496 0.12564809325406134 -0.09168468658351117 -53.71317018783835 -57.38581990562153
-24.499366013025792 0.08077945010097261 -65.41913548685525 0.10026865161574713 1.2461982850690265 0.08542432220684444 -29.585018882997776 -70.6241202469744
-51.88107329669993 -0.11570718565129098 -32.78284746144797 -59.76957980632662 0.21416133646317434 0.7237889084317134 -19.92663467866631 -0.4702309756909835
-0.05349165938584381 -0.00012306021357106438 -56.6757936685063 37.91827594505345 -0.08120978308327667 0.10034914090512448 -60.623134184726496 -20.131142590217507
36.979126570064736 0.09700136175230246 -22.94035475759286 -0.06468729155747718 -27.394673564743623 -0.06629682192451959 0.11067501503740551 -31.388493461982936
-32.65652424753668 14.415607174329942 -0.42146624471976696 0.19397740087150256 -22.304758939593242 0.12300380757440431 0.12320364977877676 -25.322487857249108
-18.713819395796122 78.23987462408294 -0.1218214544630337 39.426184766789696 -30.223578245917825 0.9919852926143897 -25.952893818297753 -0.018903704819549644
0.11045750316570795 0.09983685373604323 -59.522509376336345 0.07360419113002653 -57.09507416215572 -51.3007537053776 0.04643768604134114 77.99808235189545
-30.71763156889191 58.97050002887626 -0.09975181647901755 -0.04743231281242654 -59.030541343855774 -27.140034894631103 -53.50443232919755 -52.86367390883763
-28.745124047457015 3.953112408278223 -28.554105892762063 39.44230023071464 -0.09274891396732272 -46.59080429605254 -59.73382922120559 0.09651549034412556
-31.27085128081485 0.056765097008681736 -24.699824134294097 -58.980250538438895 15.087262087038486 -22.154237728064654 0.1382038491097363 0.08752408023988953
-55.01774828525801 1.0068671012971744 -29.723329753356087 59.321429414562736 -0.08770632692841455 0.10458849138717072 0.08975597283903526 -54.840177179388846
60.215196069768425 -52.58247921823789 0.5675248128278371 0.14162425160979553 -72.36865936652977 0.9551071889542743 -0.05597378087996609 -0.29961807507320326
-0.4745745014954251 -0.5046286361595059 -0.41448035421292 4.489948483229549 -0.4006653704875137 -0.4762836647677426 -59.06226752218387 -51.77416635710953
37.18746861267621 -0.4605949447296116 0.6219599598442246 -0.1259526964566335 -0.386544865454077 -69.60407271731403 -22.850482411787024 -0.5167801272341723
-24.73670757727177 0.03876976052211051 0.09100162320927438 -26.888689253581575 -0.4108535561915494 0.0254332002754516 -51.73223224260546 -59.87857326570886
-27.647224074572048 -0.40487436489989115 -58.96369942862979 -0.3512154536749134 0.1434394808007553 -0.5962525717191456 -29.27051211623231 -72.58438964961452
-52.63438132438045 0.09263345747436533 -27.366828923365865 -59.82948137867167 -0.22845249288178346 1.4903125301293851 -20.157043636003905 0.01847191462519848
0.021474414998623664 0.13992088064074926 -59.7865752953658 39.619717366117655 -0.352443559097052 -0.5605587268293737 -59.9386359747987 -22.118253999645134
39.398549870932925 -0.3792560461363412 -24.438999209457904 -0.556740145038313 -24.09939577382479 -0.5277650980906405 -0.4709261753094856 -26.641404976895437
-27.81224788006044 16.548231472853512 -0.7314950823977151 0.07890555442601663 -18.691908133388665 -0.4689534052317932 -0.6213179196238175 -28.473599924225873
-22.008419260286594 77.13095959973616 -0.36973907891432234 39.33316939097651 -29.009156273486028 0.31209379453579306 -26.814817970694953 -0.48805534400637046
0.10288406250562578 -0.3781948562278388 -58.91266418797053 -0.3932463696788588 -59.87292844527737 -53.502055979696486 -0.37254903242896603 76.71428660930765
-25.49407427605307 58.784270656294744 -0.05493389664225685 -0.5088280426199782 -61.79567697236626 -26.93929449781091 -53.54003669980624 -51.94716870611942
-29.201383304316373 2.753739744439237 -28.187569510502595 39.29560490426886 -0.2168211107480777 -53.53515192055119 -59.263362756704076 0.013522352252790857
-36.278870362161896 -0.3530072349821622 -24.126408411443993 -59.35075989546928 16.50926483939424 -27.456091604929945 -0.5115640921116972 -0.43645381674371564
-49.38520200115817 0.688950749384145 -24.980082847095225 60.00515018877051 -0.579771683112998 -0.6279796702375108 -0.40780514843605237 -52.792692447992856
60.18195324138972 -52.61776273680041 -0.6417561225973076 0.391648885757297 -73.5225741789289 5.871191914480811 0.09572268646162 -0.29079125964310976
-0.46475232925161797 -0.3529092269051522 -0.3526621833888308 -1.0496772735615674 -0.38440241962855465 -0.4951468041556625 -58.9119355705518 -53.252764283569824
00000000: d970 3aa9 f530 4e40 3495 9e72 5677 47c0
00000010: 1b5c 33f6 f958 c93f 7ba8 ab5b baa8 b73f
00000020: e580 34e8 b91a 52c0 0492 86f1 3637 2fc0
00000030: 41e3 b965 5cea bcbf 6b9d 3711 0bfb bcbf
00000040: df5b 955f 3cd1 b8bf cf9d 828c 2424 c73f
00000050: 0a89 6e60 774e bc3f 6ab6 4fd3 f031 1140
00000060: 8157 abf4 8611 a6bf bccb 94a7 7bc6 b0bf
00000070: 4bad 2abe 21fa 4dc0 7fc1 3a27 9725 49c0
00000080: 32ee bdef 79a1 4440 dd60 ebf9 4e8f b2bf
00000090: bdc6 81c7 59e6 e03f 4d91 6589 b57f bdbf
000000a0: 3c6a 3c69 6e6c c6bf 941c 8849 67fd 50c0
000000b0: cddb ca48 e65b 32c0 361d 5e56 b111 b9bf
000000c0: 653e 184b 7002 34c0 53d4 ab55 1b58 a43f
000000d0: 350a 419e cf92 b1bf 8693 2cee 6a45 41c0
000000e0: a05c aa99 3c15 c03f 9a91 6bca a578 b7bf
000000f0: bb9f 2429 49db 4ac0 2865 f28b 62b1 4cc0
00000100: 00ae 7673 d67f 38c0 dd5e 5f48 f6ad b43f
00000110: ba28 a61d d35a 50c0 4eef 80d3 34ab b93f
00000120: 7b3e eb9c 6df0 f33f 1d4f 294e 5ede b53f
00000130: 9504 2acc c395 3dc0 b261 0c96 f1a7 51c0
00000140: 415a 8102 c7f0 49c0 aed4 4872 fc9e bdbf
00000150: 7c56 7a58 3464 40c0 dcea 5197 81e2 4dc0
00000160: 7ba7 1680 a369 cb3f f57e 5d5b 4729 e73f
00000170: 1636 28ee 37ed 33c0 282c 8aa9 4318 debf
00000180: 7689 573f 4263 abbf efd8 792f 3721 20bf
00000190: 0a8a 2c68 8056 4cc0 a25a f010 8af5 4240
000001a0: ba3a 7512 2aca b4bf 4084 5e36 7bb0 b93f
000001b0: c035 68dc c24f 4ec0 d018 908f 9221 34c0
000001c0: 4e89 fa04 547d 4240 41c3 64cc 14d5 b83f
000001d0: d57f e216 bbf0 36c0 4ec8 b4a9 588f b0bf
000001e0: 6b2b a553 0965 3bc0 a99a fe19 d4f8 b0bf
000001f0: 38e9 11a2 3255 bc3f 31ed b94e 7463 3fc0
00000200: bc19 8efc 0854 40c0 cc75 ab76 cad4 2c40
00000210: 031e 5c8e 4df9 dabf e2fd 7360 40d4 c83f
00000220: 74b7 8eae 044e 36c0 77c7 d072 2d7d bf3f
00000230: 0235 8c3e 468a bf3f f63d 7090 8e52 39c0
00000240: e031 30de bcb6 32c0 e664 181b 5a8f 5340
00000250: a7b0 deda b02f bfbf 23b5 f138 8db6 4340
00000260: 6950 866c 3c39 3ec0 9489 bcf0 57be ef3f
00000270: 4026 6ad9 f0f3 39c0 688f e427 7e5b 93bf
00000280: dbcc b163 f146 bc3f f059 bb75 e88e b93f
00000290: e69b 5596 e1c2 4dc0 e482 c069 b9d7 b23f
000002a0: a393 e063 2b8c 4cc0 b25f f018 7fa6 49c0
000002b0: 81ee b22d aec6 a73f c406 cd94 e07f 5340
000002c0: caf7 d6b3 b6b7 3ec0 3265 4e58 397c 4d40
000002d0: 1975 7ec5 5589 b9bf 9f24 9b50 0c49 a8bf
000002e0: aa84 5cc7 e883 4dc0 49bd ac53 d923 3bc0
000002f0: 6b79 123d 91c0 4ac0 dd6e dcdd 8c6e 4ac0
00000300: 814a 1773 c0be 3cc0 f1bb f765 f99f 0f40
00000310: 17ef 3fe2 d98d 3cc0 61f7 404b 9db8 4340
00000320: cdaa 3a90 64be b7bf e4f0 a479 9f4b 47c0
00000330: adf6 ac1d eedd 4dc0 49de 953a 3db5 b83f
00000340: f32d 7182 5645 3fc0 a4c1 6996 5010 ad3f
00000350: a2be a9ac 27b3 38c0 a03d 82d9 787d 4dc0
00000360: a205 c49d ad2c 2e40 d7d8 ad1f 7c27 36c0
00000370: 05c7 0dea a9b0 c13f 7e28 3e66 fa67 b63f
00000380: 225f 6893 4582 4bc0 bed5 77ad 201c f03f
00000390: 5de3 8223 2cb9 3dc0 7bc2 5b99 24a9 4d40
000003a0: ab50 cffd eb73 b6bf 86be 0bb6 4fc6 ba3f
000003b0: b9dd f657 3ffa b63f 0a29 02ed 8a6b 4bc0
000003c0: 0af1 788b 8b1b 4e40 3877 d4ad 8e4a 4ac0
000003d0: 5b73 d8cb 2929 e23f a405 7e54 be20 c23f
000003e0: 01a7 741d 9817 52c0 8f75 97f3 3c90 ee3f
000003f0: a237 a06c 98a8 acbf 5eb6 6e4a f12c d3bf
00000400: fe0d dcba 6d5f debf e1c3 1df4 ea25 e0bf
00000410: 8774 8b9b d886 dabf 6ac8 200e b5f5 1140
00000420: d28c b85d 80a4 d9bf 8ff9 f27a 6e7b debf
00000430: fcb0 d561 f887 4dc0 75b9 18e2 17e3 49c0
00000440: 443c b4f8 fe97 4240 5443 1438 637a ddbf
00000450: 357a de92 18e7 e33f 9fe7 0fcc 371f c0bf
00000460: 7ff7 e3ac 26bd d8bf 4151 9d20 a966 51c0
00000470: cf72 2037 b9d9 36c0 1031 367a 7689 e0bf
00000480: ff18 27de 98bc 38c0 884d 084b a1d9 a33f
00000490: 6616 91e3 e14b b73f 8470 9023 81e3 3ac0
000004a0: a46e d2b6 6c4b dabf c1a8 a92d 290b 9a3f
000004b0: 9a88 3fc9 b9dd 49c0 03ae b916 75f0 4dc0
000004c0: 8778 197a b0a5 3bc0 a0f6 0e2b 76e9 d9bf
000004d0: c591 bc80 5a7b 4dc0 2f8c d861 507a d6bf
000004e0: 984a 7f93 395c c23f 6811 f645 8014 e3bf
000004f0: b863 3448 4045 3dc0 c74d d8a3 6625 52c0
00000500: 1fb4 4068 3351 4ac0 8628 5e86 d3b6 b73f
00000510: 5215 1580 e85d 3bc0 9604 2172 2cea 4dc0
00000520: a7f7 ce68 ee3d cdbf 7898 9bf3 51d8 f73f
00000530: 84ae 0003 3428 34c0 dfc3 d634 4dea 923f
00000540: 3bb2 7a98 63fd 953f b094 306b ede8 c13f
00000550: 05b8 d07f aee4 4dc0 8a1e 0ee6 52cf 4340
00000560: db7d 006e 6f8e d6bf 9e06 e7da 18f0 e1bf
00000570: 044e 3f39 25f8 4dc0 d818 e5e4 451e 36c0
00000580: b0bd a2ae 03b3 4340 87d0 bd26 bb45 d8bf
00000590: 7097 8f40 6270 38c0 4dea 69b5 d0d0 e1bf
000005a0: 26f0 5d00 7219 38c0 04a0 88a1 73e3 e0bf
000005b0: f136 728a a723 debf ee41 d71d 33a4 3ac0
000005c0: dc1a 217a efcf 3bc0 338b d6e5 588c 3040
000005d0: 08a8 0260 6868 e7bf 6e84 bb87 2733 b43f
000005e0: a0bd 34e4 20b1 32c0 7460 b424 5503 debf
000005f0: 697f 261e d6e1 e3bf 2ef0 39d8 3d79 3cc0
00000600: 6296 bfc3 2702 36c0 b37d 5fa4 6148 5340
00000610: 125f ff18 cea9 d7bf dc22 6b4b a5aa 4340
00000620: fc2c c710 5802 3dc0 a735 3440 58f9 d33f
00000630: f253 18e9 97d0 3ac0 154e 497b 4c3c dfbf
00000640: b1c4 bd23 9c56 ba3f 35e5 c032 5834 d8bf
00000650: 2bc8 1b2e d274 4dc0 b3a6 42d2 f22a d9bf
00000660: 721b 8a1e bcef 4dc0 61c7 ce5e 43c0 4ac0
00000670: 2916 9ce5 d7d7 d7bf 9dbc 2edf b62d 5340
00000680: 5c71 d9a6 7b7e 39c0 cbff 19fb 6264 4d40
00000690: a969 0ab3 4b20 acbf 61e5 4abf 5148 e0bf
000006a0: 273f 37be d8e5 4ec0 1d69 ad9a 75f0 3ac0
000006b0: 5e27 2eec 1fc5 4ac0 ed49 fcd2 3cf9 49c0
000006c0: ceff 31db 8d33 3dc0 d07e 00b4 a807 0640
000006d0: db55 318e 0430 3cc0 9d2f aa61 d6a5 4340
000006e0: de68 df4d cbc0 cbbf 5994 aedb 7fc4 4ac0
000006f0: a383 edde b5a1 4dc0 bf9c 8665 9bb1 8b3f
00000700: 8ea7 2606 b223 42c0 4bfc 5fa8 ab97 d6bf
00000710: 5d17 394d 5c20 38c0 fce4 43b3 e5ac 4dc0
00000720: 7233 362e 5f82 3040 7e27 5f6b c274 3bc0
00000730: 7baf ada8 bb5e e0bf 923b 48fd dbee dbbf
00000740: ffa9 964c 4eb1 48c0 671b 2571 e20b e63f
00000750: 02a5 9fb5 e6fa 38c0 352b eac2 a800 4e40
00000760: 1ec0 4358 7d8d e2bf 9922 47d2 6818 e4bf
00000770: dd16 ebc3 7a19 dabf 2ff5 35f2 7665 4ac0
00000780: c495 6a3e 4a17 4e40 639f 6fd9 124f 4ac0
00000790: c205 d222 4489 e4bf 63ea f57c c610 d93f
000007a0: f50e f8da 7161 52c0 58f0 b4bb 197c 1740
000007b0: ea81 d62f 4881 b83f a94e 88f1 529c d2bf
000007c0: 9308 b88d 80be ddbf d5e9 0095 1096 d6bf
000007d0: 1039 0c68 0492 d6bf 71d2 9465 7acb f0bf
000007e0: cfb4 339b 0c9a d8bf b651 a438 7cb0 dfbf
000007f0: 1fca 054e ba74 4dc0 bfc3 7d94 5aa0 4ac0
