pyTorch/lightning_logs/version_100/checkpoints/epoch=1-step=191.ckpt (torch, 30611 bytes, 10 tensors)

model.input.weight f8 [28, 14]
0	0x3fca6c0ec172286c	0.20642265744783417
1	0xbfcfc6f635ee0e54	-0.248259331067049
2	0xbfc7c2ab2f9e83de	-0.18562831711918099
3	0x3fb07733f41f1ed8	0.06431889257430201
4	0x3fa9ad27faab9b90	0.05014920172634796
5	0xbfce8c3f31a2aabf	-0.23865499423603428
6	0xbfc33882f9c12dde	-0.150162097883693
7	0x3f98359cefef40f0	0.023642017502255308
8	0x3fbcacc55b5acda4	0.11201127510394443
9	0xbfc122b4657eeb69	-0.1338716025910245
10	0x3fb7fad08d955a30	0.09367087799669416
11	0xbfb0a1864b6f854c	-0.06496466962518815
12	0xbfc84712afef02f6	-0.1896689757395717
13	0x3fa7bb605fbd8998	0.04635144394594021
14	0x3fc711c9340138de	0.1802302841119347
15	0x3fa5de98b4051388	0.04271390149600679
16	0xbfcbc63c17207bcc	-0.21698714379541995
17	0xbf856144c95d9c80	-0.010439431567375701
18	0xbfcf72677fd5d8e1	-0.24567884199104298
19	0xbfce384249071478	-0.2360918861942627
20	0xbfca17720427bfd2	-0.2038404960908325
21	0xbfccd0fe945d061a	-0.2251280044966258
22	0x3fcacc9dc7a349c8	0.20936939475957517
23	0x3fc3fe5f3c1fe81e	0.15620031772397253
24	0x3f9bab850fa53fc0	0.027021483497548848
25	0x3fc9da4e07788da4	0.20197463383474912
26	0x3fc2541728bf145e	0.14319123735018285
27	0x3fc3c24922e3de50	0.1543666286813612
28	0x3fc41078fc0fb5e8	0.15675270373996786
29	0x3f846373c2f87d20	0.009955315005810095
30	0x3fd10dee019cbb88	0.2664752021545884
31	0x3f830ba894a98760	0.009299580609141322
32	0xbfb730afa4d7c066	-0.09058664106828615
33	0x3fb06623d1a425a0	0.06405853145783746
34	0x3fce81de23adadfc	0.23833824865447173
35	0xbfaa988a6e5c1c4c	-0.051945043536811925
36	0x3fc7276dc57fb39a	0.18089077132699743
37	0x3fce5b28e80a5970	0.23715697603320107
38	0x3fc5720eecea677a	0.16754328315874628
39	0xbfc3bc07fa8964aa	-0.1541757558177655
40	0x3fafcaa57e59b820	0.062092944787636606
41	0xbfc5e4c65376d2f0	-0.17104415011785745
42	0xbfb505b9b3c6b130	-0.08211861266199061
43	0x3f97eff4757bed20	0.023376292868289572
44	0xbfb19070e3c0b9e6	-0.06861024437305438
45	0x3fd0b29d32615880	0.2609017364496893
46	0xbfb83200d633c2f4	-0.09451298932595958
47	0x3fa08b687128b080	0.03231359845480686
48	0xbfb8b502e51b2e3c	-0.09651201337254006
49	0xbfc31b020a47a90d	-0.1492617178149164
50	0x3fc2de336b54c212	0.1474060319974489
51	0xbfc6a596e5d397a0	-0.17692838880537654
52	0x3f89f7d1927bb360	0.01267970779687183
53	0xbfc347fe7b534d34	-0.15063458463428392
54	0x3fc8b559b4b2dcc2	0.19303437541177543
55	0x3fb9734e4116fb58	0.09941567505937365
56	0xbfcb6895b4bca3d8	-0.21412917447130897
57	0xbfc93efa5947c71c	-0.19723443374055527
58	0xbfa7035448d00490	-0.04494727505517304
59	0xbfb6f2c0a84e38d8	-0.08964161023161255
60	0xbfc2f172a241deda	-0.1479934017440801
61	0xbfb5931903a61baa	-0.08427578295787322
62	0xbfcd66fab3cf2306	-0.2297051790212878
63	0xbfbf58e7f39c31da	-0.1224503488303478
64	0x3fcf745e02a84d30	0.24573874597317902
65	0x3fb8c115f1ac57c0	0.09669625425553274
66	0x3fb3e95dcaf3a04c	0.07777963833689333
67	0x3fba4e93f0771a1c	0.10276150341733409
68	0xbfcd682596f863f3	-0.22974080916972603
69	0xbfc237d4722163fe	-0.14232879231238366
70	0x3f9e9822d43ff180	0.02987722797841874
71	0x3fc882fe9052054e	0.1914976315202161
72	0x3fc2fd68c7aa08a8	0.14835843800762416
73	0xbf9b80c99a38d4d8	-0.026858472860301713
74	0xbfb7ee5c363b0734	-0.09348083805073487
75	0xbfb89d99edef651c	-0.09615480479205413
76	0xbfc0a09103ddd797	-0.12990009964749724
77	0x3f8c9dba1d37d9a0	0.013972715393703095
78	0x3fc398920b63ec5c	0.15309358173530796
79	0x3fc81e180506f3de	0.18841839070765237
80	0xbfc85838e32f2268	-0.19019232838606404
81	0xbfaba39450747d04	-0.05398238641850564
82	0xbfc9a08a7c735269	-0.20021182133372697
83	0x3f8d44f999353080	0.014291715610532885
84	0xbfcebae445913029	-0.24007848164399206
85	0xbfc484d88746e138	-0.1603041325122463
86	0xbfd10a163dba67d4	-0.26624065426005683
87	0x3fc8b5b7c6d4a644	0.19304558952835482
88	0xbfcc31f631cfe696	-0.2202747100089268
89	0xbfc8ca38b9e54978	-0.1936713130658736
90	0x3fc9915d0f3e101a	0.19974864238986428
91	0xbfc78c87c94832f6	-0.18397614792083744
92	0xbf9d045802609288	-0.0283368827296209
93	0xbfb1503a6b8f415a	-0.06763043523756576
94	0xbfb3742232a1a8d4	-0.07599080787773299
95	0xbfc822902d39cee2	-0.18855478485385563
96	0xbfcf89d9f070e790	-0.24639438858303864
97	0x3fb6da1ba42c1acc	0.08926556356537246
98	0xbfc264941700cd16	-0.14369441149902035
99	0x3fb03ba0e45f7be8	0.06340985847008052
100	0xbfc70bb355393b34	-0.18004457150751707
101	0xbf97dc6a48180780	-0.023301754617939263
102	0xbfce94daf3dadb95	-0.2389177027414148
103	0x3fc5afcc049cdac0	0.16942739701490517
104	0xbfb4fad91e9d9118	-0.08195263860176671
105	0xbf9866fa2db39b78	-0.023830327071574925
106	0x3f87bffd7f7abfa0	0.01159666104589957
107	0xbfcc70b26a416afb	-0.22218923748263095
108	0x3fb45c86bc65fd34	0.07953683948106943
109	0x3fc7ad2babc23236	0.18497224699639653
110	0xbfa65a08214e4c08	-0.043655637803702574
111	0x3fca9cd816783ec6	0.20791150185731605
112	0xbfacd5729f62fd94	-0.0563159770549603
113	0xbf90152f69b9a9d0	-0.015705815151173586
114	0xbfaac0eac630263c	-0.05225309056556823
115	0xbfb2364f7062360e	-0.07114120954266687
116	0xbfb653107ec67f86	-0.08720496268369801
117	0x3fc5188c7119190a	0.16481166384091522
118	0x3fc01c16d46c9564	0.12585721370957537
119	0xbfd0599da3d9a404	-0.2554697132205208
120	0xbfa8af9954ddd658	-0.048214713678061016
121	0xbfcf6d740489f874	-0.24552774640682495
122	0x3fa5877d569a0b78	0.042049328633786354
123	0xbfd01e25b49ac034	-0.2518400443759703
124	0x3fcb995920846de4	0.21561731422194363
125	0xbfb78a13df7e5c40	-0.09195064741503334
126	0x3fb263aa727baf3c	0.0718332795619831
127	0x3fd0c81aa975e7fa	0.26221338795551186
128	0xbf5dc88fc30cf900	-0.0018178371357887024
129	0xbf6f426a1607e800	-0.0038158485406230014
130	0x3fce4db2538f5204	0.23674611167975013
131	0x3fa4d189739df818	0.04066113983479641
132	0x3fa58de8eb8bdbb8	0.042098311188901005
133	0x3fc2d2c7549e7d88	0.14705745345871102
134	0x3fc37ceb390b4eb2	0.15224972043380586
135	0xbfca1c0b56d491c8	-0.20398084392321736
136	0x3fa1cac825b74df0	0.03475022755051416
137	0x3fcea21d3b76a768	0.23932233241549317
138	0xbfafe17e3913c080	-0.06226725050680759
139	0xbf77f803af847ac0	-0.005851759335455398
140	0x3fb5910b1ffeb110	0.08424443751454569
141	0xbfb3816bbfd3a762	-0.07619355614920445
142	0x3fc8ce9fc0c66c92	0.19380566513868708
143	0xbfa6b30f49630ef0	-0.04433486719929458
144	0xbfb6530b3f513648	-0.0872046498854725
145	0x3fc343208f682676	0.1504860592106529
146	0xbfc01708f88805a8	-0.1257029737026134
147	0x3fa02685a1b7c8f8	0.031543899527507635
148	0xbfc021f9284247e8	-0.12603678193823886
149	0xbfc0fe81b5d9c5d4	-0.1327669275229214
150	0xbfc08291262c6ae9	-0.12898458827915896
151	0xbfcd00ad0db6a5ec	-0.22658312959292404
152	0xbfa6bb6c9f40dba8	-0.04439868396769181
153	0x3fba7381b18a043c	0.10332499107791276
154	0x3fc51122e96dd5ba	0.16458546064283813
155	0x3fb6ca3c87e34ba0	0.08902338330817239
156	0xbfc57a30a9387631	-0.1677914453766092
157	0xbfb9c1527d41e470	-0.10060611303369327
158	0xbfb472af55a78e10	-0.07987495270895573
159	0x3fc4321e4aa7d814	0.15777948994917834
160	0x3fb7457f6801d8b4	0.0909042004512653
161	0x3fd10104867ba4d2	0.26568711407760504
162	0xbfb240e8a37e8fa6	-0.07130292884408948
163	0xbfb4fa3a9c7c8338	-0.08194319076984591
164	0xbfce051591cfbc32	-0.23453015918446024
165	0xbfc3d1e6c95689c6	-0.15484318572005246
166	0xbfc8de3b8b0c74a1	-0.194282000441409
167	0x3f9ad2fdbb3ab160	0.026195492317741098
168	0x3fb58d375e34a11c	0.08418603944722175
169	0x3fa1bb6a7396c600	0.03463299427984268
170	0x3fd0eded9fb62ed6	0.26452198597756416
171	0xbfc59a62ce0077e7	-0.16877398546870312
172	0x3f94ea1fbc442530	0.02042436205468795
173	0x3fc8868cdef8225a	0.19160614859744635
174	0x3fc6803df7a31320	0.17578863708163173
175	0xbfa405d5a406be8c	-0.03910701396250457
176	0xbfb7d3dd1f1d5caa	-0.09307653436313737
177	0xbfb9a8e352c7d63a	-0.10023327609072732
178	0x3fc8368330be0ee0	0.18916358833313662
179	0xbfb0665d56270618	-0.06406195977526641
180	0x3fd10b20085b7744	0.2663040238966128
181	0xbfc7515c2644ab64	-0.18217040890280167
182	0x3fc7a579fcc786e2	0.18473744242424234
183	0x3fc81f9999ed6586	0.18846435562117508
184	0xbfc3709f70097da4	-0.1518744751983664
185	0x3f82318aad3e8980	0.008883555805202503
186	0x3fc1e491f8634704	0.13978790882406866
187	0x3fb28eb5f0a51668	0.07249009251708005
188	0x3fc06034427f35f4	0.12793591734809662
189	0xbf9eaa43174f8c08	-0.029946373269819332
190	0x3fc7ea71750f0ab2	0.1868421384407007
191	0x3fcf68185dff5b04	0.24536423291893794
192	0x3f96d169c2449a00	0.022283222658325386
193	0xbfc98cad981c0f06	-0.1996056549761464
194	0xbf8cc1d6901ddf80	-0.014041591904728312
195	0xbfa8787b049f91c8	-0.04779419356762876
196	0xbfca8eb1f699e5ae	-0.20747971097061452
197	0x3fa334d6350746f8	0.03751248738593732
198	0xbfc509d6ae9c14f6	-0.16436275030006414
199	0x3fb19b9c5d61a0c4	0.06878068237131446
200	0x3f8968c8f6b639a0	0.012406892804190772
201	0xbfd0a6e32dabf712	-0.26018599949007737
202	0x3fca601a3fbc6e66	0.20605781662094386
203	0xbfcd60574dbb90a7	-0.22950259490528888
204	0xbfb4864fc5ab12c8	-0.08017443252453937
205	0xbf9c6c01712684b0	-0.027755758792072427
206	0xbfb7fb6cbbed5aa8	-0.09368018711152593
207	0x3fa85a86e25aba10	0.04756566537013296
208	0xbfb9aaf66571451a	-0.10026493050215315
209	0x3fc1876b82cec100	0.13694518935290745
210	0x3f8085b178984ce0	0.008067499630703912
211	0xbfc5d3d2b32b5cbe	-0.1705268263674266
212	0x3fb690874c8b7900	0.08814283007402324
213	0xbfcf8fb5afe42e2e	-0.24657317245906668
214	0x3f7be6279e95ac80	0.006811289561805656
215	0xbfc25eb94ded7550	-0.14351574235017006
216	0x3fab1f8e48cba820	0.052975126634763336
217	0x3fce8dddec02f000	0.2387044336700228
218	0x3fcb49c98cdd1a84	0.21318930986509
219	0x3fc95dd6d9e0efe6	0.19817624701124642
220	0x3fa177c2826993d0	0.03411681978176484
221	0xbfb309e4251598aa	-0.07436967759494686
222	0xbfc2d5c348e03e9c	-0.14714852388759858
223	0xbfc9637b9bebe046	-0.19834847558354535
224	0x3fd05f09dfcd17be	0.2558006940420191
225	0xbfca3ddbd668a4f7	-0.20501277894189915
226	0xbf989fcf4ae74960	-0.024047125765556898
227	0x3fc3e8af8dae951a	0.15553850572647648
228	0x3fa4811eda32c110	0.040047611365823355
229	0x3faa385eda9080f8	0.051211322956307315
230	0x3f581f8d5b477a00	0.0014723663745069837
231	0xbfcea18b44c6beac	-0.2393049321958548
232	0xbf9aa28ab28f4f28	-0.026010672710824384
233	0xbfa240a69b1f7584	-0.03564949649419716
234	0xbfb6c8908718af60	-0.08899787233593548
235	0x3fc649953c32b392	0.1741205734191707
236	0x3fc55cb014b35504	0.16689110766188986
237	0x3f84e9d42804c360	0.01021161791922659
238	0xbfcaa3f7ff619539	-0.20812892885002457
239	0x3fba4e27f134e6a0	0.10275506628831943
240	0x3f9acd8d6652b5f0	0.026174744959169105
241	0x3fb0f2792ea514f4	0.0661998499754935
242	0x3fceeb2b405d84a4	0.24155178683125655
243	0xbfa8a7f2e206cf2c	-0.0481563473616958
244	0xbfc96bce26ca46e6	-0.198602456036091
245	0xbfba097897ce6ed8	-0.10170701700411244
246	0xbf964b92c9028fc8	-0.02177266456477847
247	0xbfcc535d771d7e11	-0.22129410091564286
248	0xbfce45a7f164e132	-0.23650073324984927
249	0xbfc9f35dbb6fcee2	-0.20273944523034176
250	0xbfa699115a3548a4	-0.04413656450437145
251	0x3fbd451b7c70816c	0.11433574474404445
252	0x3fb46878c6f44d00	0.07971911294253076
253	0x3fc19c7d24f6f75e	0.13758816056172923
254	0xbfa4bfb99944c874	-0.04052524562793361
255	0x3fcd25951b5bbeb6	0.22770942531450594

model.input.bias f8 [28]
0	0xbfb0884295d87c46	-0.06457916410771344
1	0xbfc95531f07a31fb	-0.19791244737679378
2	0x3f967ae31cd1e330	0.02195315230753464
3	0xbfb3c9a97622736c	-0.07729586729187837
4	0x3fcc9966c69164c2	0.22343144126606346
5	0x3fc334cf9f01cf26	0.15004916442887256
6	0x3fc627fbed0502ce	0.1730952174493922
7	0xbfb4cf50922c1f96	-0.08128837174092349
8	0xbfaf5a07dbc28730	-0.06123375470748582
9	0x3fc410f8c9bc670c	0.15676793909442954
10	0x3fafd7b6cf3c46c0	0.06219264297227545
11	0x3fcce1be7ff38980	0.22563916442511456
12	0x3f875e983938b520	0.011410893675100342
13	0xbfcc8ccdebe84b8c	-0.22304700869480276
14	0x3fcbcd3b4237bf12	0.2172006676987555
15	0xbfc533f2c0ccd18b	-0.16564783491197618
16	0x3fc856dd5b073bb2	0.19015089936007495
17	0x3fc9383909d69cfe	0.1970282838858352
18	0xbf961d126fa38f58	-0.0215952759398442
19	0x3f97a8e2bd2f8b20	0.023105185315112853
20	0xbfd084dc8c75acc3	-0.2581092235256614
21	0xbf7fc8c4528c6880	-0.0077598255964180796
22	0xbfcec570f97b59af	-0.24040043050508816
23	0xbf8e92555e9787e0	-0.01492754645272848
24	0x3fb8dca1e0fe9cec	0.09711658232719217
25	0xbfc3e57d903e6ccc	-0.1554409937205946
26	0xbfc868fa6dcda970	-0.19070368157856477
27	0xbfc81486dc61a2e1	-0.1881264282303823

model.hidden1.weight f8 [28, 28]
0	0xbfc756e4d20c0cce	-0.18233928924755677
1	0xbfb8bdcdea00760f	-0.0966461845677815
2	0xbfb93324071250cd	-0.09843659565587189
3	0xbfb8d05d61310b58	-0.09692939398614209
4	0xbf871cd3e74efd20	-0.01128545331618952
5	0x3fb1417c2e3cb6a0	0.06740547303044275
6	0xbfc419e540efc589	-0.15704026861889656
7	0xbfb38490c0581207	-0.07624153800868082
8	0x3fc1a1cbe7db9874	0.1377501375311031
9	0x3fc2861b171e77a4	0.14471758488519726
10	0xbfbc37a9cc613dd4	-0.11022435416929649
11	0x3fadf7b1bf38d198	0.058530382721446006
12	0xbfc5b6bd1c5a89cc	-0.1696392429776793
13	0x3fc007d1c95488c6	0.1252386315400768
14	0xbfc58f5af46abb57	-0.16843735632343268
15	0xbf9d4da1a6cc1538	-0.028616452985280122
16	0xbfc563ab5c1c41c8	-0.16710416791512572
17	0xbfb7caec4ca0cef4	-0.09294010992817531
18	0x3faeb39774abfab8	0.05996392535415879
19	0xbfb3e1fdaeb98813	-0.07766709819546262
20	0x3fb480c3250f5314	0.08008975653440259
21	0xbfbaff2a39cda212	-0.10545600806438696
22	0xbfc2b760874e30d6	-0.14622122389517384
23	0xbfbb41d635b32aa7	-0.10647333918601963
24	0xbfc1098b24f4733b	-0.13310374550283108
25	0x3faa29855b8813e0	0.051098029540334045
26	0x3fbdb2cb652bf354	0.11600943775188216
27	0x3fc1122d846a201c	0.13336724248461074
28	0xbfbdfa27803db98b	-0.11709830170523199
29	0xbf86e1f62bb8e640	-0.011173175057694995
30	0x3fa71addcd9407b0	0.04512684950351742
31	0xbfb9b3d60d122781	-0.10040033167947905
32	0x3fa3bd4f570eb5e4	0.03855369508469744
33	0x3fbc1b52f6b703c0	0.10979193232834827
34	0xbfb176af82f4020c	-0.06821724841211835
35	0x3fc5391c49d2bde0	0.1658053741898433
36	0xbfade0a850f0ff18	-0.05835462558797938
37	0xbfbb451615d10384	-0.10652292282703796
38	0xbfb77d2bc83f7a4d	-0.09175370825639924
39	0xbfc455959a1668e0	-0.15886182807736926
40	0x3fc2cf78325f2472	0.1469564672427484
41	0xbfc2e6518ffceceb	-0.14765376597083643
42	0x3fc6d46541b1eefe	0.17835679729238757
43	0xbfa4603dc7047398	-0.03979676298533902
44	0x3fb37f38b60ade88	0.0761599964561076
45	0xbfc76cfde465e03a	-0.183013664743841
46	0x3fbf6748f49598d0	0.12266975375459599
47	0xbfbacf49a1616060	-0.10472545804930311
48	0x3f945e31ba66f938	0.019890572549905644
49	0xbfc0ba059ae1fd62	-0.130676937700609
50	0xbfb31b5d451f4d54	-0.07463629663043508
51	0x3fc004c0739eaf60	0.12514501233578823
52	0xbfbeeff0b39c9ba5	-0.12084869751980294
53	0x3fc24a4f901cd862	0.14289278542281908
54	0x3fb3a120e49671f8	0.07667737560991117
55	0xbfc67ef6896c6f98	-0.17574960432181963
56	0xbfb1cc14e2b6ef55	-0.06952028784774929
57	0x3fb3c0be85e74620	0.07715979355932534
58	0xbfa912904eb4d464	-0.048969754798613235
59	0x3fbfda35320594f8	0.124423336708407
60	0x3fba02b3405ff5fc	0.1016037017979769
61	0x3fbbce0885ebcbe8	0.10861256856496448
62	0x3fbc81f5ea576d54	0.11135804148891754
63	0xbfc70c0c25295c6d	-0.18005515875367753
64	0x3fc4ac20ca4df55e	0.16150293234015128
65	0xbf960a35ebfce330	-0.021523325470499788
66	0x3fc0223824261ab0	0.1260442902095824
67	0x3f8f0e03c4772210	0.015163449700495796
68	0x3f9c96b1d5a85a08	0.027918604531885577
69	0xbfa951656896b4b0	-0.049449128167318945
70	0x3fbcd933571cf6dc	0.11268921734605492
71	0xbfa4f05edff84810	-0.04089638217932656
72	0x3f657a7e1b6ce500	0.0026218855886354087
73	0x3fc618e3e51254a4	0.17263458905350604
74	0xbfb5f7a798451cde	-0.08581016032723052
75	0x3fb2bba03285f160	0.07317544206120408
76	0xbfc3b0464d282ab3	-0.15381697432925065
77	0x3fb78e3b42ad4054	0.09201403024531035
78	0x3fbc7804fd92dfd0	0.11120635214581331
79	0x3fa603bdc9bbe50c	0.042997294307449335
80	0x3fc1511a2aadd932	0.13528754314365582
81	0x3fb60c2f7a2426fc	0.08612343532527328
82	0xbfc624aa9542b834	-0.17299396789661758
83	0xbfc5ceafa06bc421	-0.1703700574212528
84	0x3f97cb000758cb40	0.023235321472564907
85	0x3fb2ca6be965e850	0.07340120742984024
86	0x3fc2638fee9aa88a	0.14366339827148905
87	0xbfc3f835a9a963fe	-0.15601225647222344
88	0x3fb061ca1d9fed80	0.06399214957484922
89	0x3fc497fd1b754688	0.16088832703330902
90	0x3fb1fa3e48492bd0	0.07022465958395618
91	0xbfbc77fc4823fa88	-0.11120583306544962
92	0x3fc7dbb09c25e2de	0.18639190315641135
93	0xbfc7a842f22ee21f	-0.18482243371342208
94	0xbfc3be98c91b2c1d	-0.15425405330310663
95	0xbf9f9f7d4e481268	-0.03088184156696841
96	0xbfb3d8eba668f95f	-0.07752869427438246
97	0x3faa0a4d39388a6c	0.050859845385521435
98	0x3f877982b11b46d0	0.011462231664526895
99	0xbfbe71815d720f22	-0.11891945392022454
100	0xbfb35657ea1fac7d	-0.07553624597464821
101	0x3fc2b44c29272e08	0.1461272431318863
102	0xbfb3c80be362c067	-0.07727121640596267
103	0x3fc203bf907fe706	0.14073938899655775
104	0xbf97d0cd60585738	-0.023257454877316536
105	0xbfa81b801d74de94	-0.04708481177879978
106	0x3fb38985c7f9e5b4	0.07631717807989596
107	0x3fae6674e56ec638	0.05937543202106749
108	0x3fc2d929b3ad5a70	0.14725228570269477
109	0x3fc42306d62d90f8	0.15731893022451238
110	0x3fb25a7e5ac770f8	0.07169332233701542
111	0x3f9c91e7ae3f2060	0.0279003334142377
112	0x3f9b1389d38d5020	0.02644172052107774
113	0xbf97962297dc3000	-0.02303365756874598
114	0xbfc06ed4f203c5c8	-0.12838231866002858
115	0xbfc704e411e5d144	-0.17983675836479496
116	0x3fb9f52729085084	0.10139698745507714
117	0x3fbd0d98bebb3974	0.11348871857192028
118	0xbfc1eedfdb5e26b8	-0.14010236941640186
119	0xbfa3155539cf9890	-0.037272132212636255
120	0xbf9639b074e67df0	-0.02170444215300721
121	0xbf9f1e648d782218	-0.030389376768683446
122	0x3fb639c317e070b0	0.08681887944152566
123	0x3fb86684a9af3848	0.09531430380522565
124	0x3f5dd10608ea5180	0.0018198546346513689
125	0xbfbaa9ea2779034d	-0.10415519202889563
126	0xbfba8cf81debcecc	-0.10371351938720891
127	0x3fab8e1908c528b0	0.05381849510247727
128	0xbfc3d120727e5d06	-0.15481954184063101
129	0x3fc75cdbecb0c262	0.18252133423949873
130	0xbfb541eeac364417	-0.08303729729074437
131	0x3fc0c53a85dbabaa	0.13101893936194858
132	0xbfb850dc64ca8892	-0.09498383961411808
133	0xbfad1f17c29ef8c4	-0.05687784434074808
134	0xbfc478c7f07ba75b	-0.1599359440072544
135	0xbfc7bd8683533d12	-0.1854713574634635
136	0xbfa01ae2464c7f34	-0.031455107766531404
137	0x3fbfb672e3e81e44	0.1238776976025458
138	0x3fc5b2afe7c7ac3a	0.1695155984628814
139	0x3f8b88b9938b6210	0.013444375815582027
140	0x3fc02081ff66dbae	0.12599205942907815
141	0xbfa572b3f10cd250	-0.041890738654193016
142	0x3fc28a46419acdce	0.14484480098108893
143	0xbf9febe83a4758a0	-0.031173351819085426
144	0xbfabe557b96377a0	-0.054484120731771
145	0x3fc6d42710a23ec2	0.17834938347049528
146	0xbfa3a06fae792a3c	-0.038333406494150485
147	0xbfb3210e48abb5f4	-0.07472314142406572
148	0xbf982a652a845118	-0.023599224777243938
149	0x3fb8dc815beaa0b0	0.09711464399390723
150	0x3fab3dc101739214	0.05320552008359783
151	0xbf82bcf5b6c048c0	-0.00914947475397232
152	0xbfc731acd9d43b00	-0.18120346676047205
153	0x3fc7287460559556	0.18092207626174667
154	0x3fc53d02bbce8abe	0.16592439813856247
155	0xbfb7abfd04af3ae8	-0.0924680839955091
156	0xbfbcd448c3155b15	-0.11261420023707232
157	0x3fbe7057e49bbccc	0.11890172320612463
158	0xbf9b5330a407bc58	-0.026684532176599468
159	0x3fa701f7a3900d0c	0.04493688460936526
160	0x3fb19fff67de81d8	0.06884762082928064
161	0x3fc5683bf5afd370	0.16724347587992439
162	0xbfb26fee1b2796c4	-0.07202041781382734
163	0x3fa6311bd7fbebd0	0.04334342013859038
164	0x3fabfd9b37ff23d0	0.054669237695243234
165	0x3f9588511c93e180	0.021027819985620422
166	0xbf730932d76d6fe0	-0.004647444343245127
167	0x3fbfe453aa1605bc	0.12457774069300503
168	0x3fc316876a531542	0.14912502948406298
169	0xbfaf8a346eeb3790	-0.06160129407872639
170	0x3f891833bc4b13b0	0.012253193076853325
171	0x3fbc477a6d078c00	0.1104656711755041
172	0xbfc7d833c7281df4	-0.18628546928833567
173	0x3f6beb082aabe1c0	0.0034079703813143236
174	0xbfa30c7d3fcf7610	-0.03720466045318116
175	0xbfa34ffaa5685ae0	-0.037719567004548926
176	0x3fb29c396d55f2d4	0.0726962940152121
177	0x3fc22bd7acf1ee7c	0.14196296639044081
178	0x3f85518b00259790	0.010409437124234505
179	0x3fa89f9281b8f6d4	0.04809243997122584
180	0xbfc43089a86b0a88	-0.15773125384847142
181	0x3fc304f500134be8	0.1485887766235401
182	0xbf9f1f0aaf629a30	-0.03039185233560654
183	0xbf6bcb887a5ceac0	-0.0033929505906632185
184	0xbfa37b876577862c	-0.038051825653166865
185	0x3fc0f57ed2842b0a	0.13249192504039115
186	0x3f93dac90d289ca0	0.019389287403239863
187	0x3fa3e09e39fc223c	0.038823074892267745
188	0x3fc3fe1087d53c44	0.15619093544452956
189	0xbfc3222f22e09bd0	-0.1494807167339034
190	0x3fc6be7beffdeaba	0.17768811434128456
191	0xbfbde73fd4edbce5	-0.11680983494237614
192	0xbfb5747c4eb3273d	-0.08380867883093131
193	0x3f9474977c40c7d0	0.01997601219063211
194	0xbfc344372c0bb765	-0.15051927233383391
195	0x3fc004946a68fad4	0.1251397628384071
196	0x3fa95c87857a246c	0.04953406814917902
197	0xbfb11c472be5a20a	-0.0668377382440967
198	0x3fc40466c435c2c0	0.1563843210274367
199	0x3fb5498e2b65d0d0	0.0831536155654391
200	0xbf882f2ad01c6b80	-0.011808714366954964
201	0xbfb2bbc489704bd1	-0.07317760806499442
202	0xbfaa7d028c1c6a98	-0.051735000232118356
203	0xbfacf6b0fed17f64	-0.056569605928187966
204	0xbfb4b232d62b7bc0	-0.08084409455066943
205	0x3fc0c87a2c3cf57e	0.13111807975830553
206	0x3fbbe6b9fae6f170	0.1089893567613609
207	0x3fc614a466006f0c	0.17250494938422667
208	0xbfc0be36502cb3c3	-0.13080481447960154
209	0x3fbf597427d77e58	0.12245870564174177
210	0x3fc398f4516c68b2	0.15310529685740942
211	0x3fc3d73d6e760398	0.1550061025009455
212	0xbfc663426ebb61f5	-0.174904159611074
213	0x3fc406504fe71bd0	0.15644267941953993
214	0x3f83098a04a37c10	0.00929553820281906
215	0xbfb1d263707d99b7	-0.0696165227542228
216	0xbfb30cfc1a201d09	-0.07441688192203712
217	0x3f92d440003fa158	0.01838779450909675
218	0xbfba77b80ef70b7a	-0.10338926663739115
219	0xbfc810cdaa3bf5a1	-0.18801279842584243
220	0xbfc50bebb178136d	-0.16442629018288404
221	0xbfaffdad1da80c60	-0.06248227107064319
222	0xbf943328a876e098	-0.019726405412911235
223	0xbfc2ffc0e64b9fe0	-0.14842997784512502
224	0x3f9b6f550b828048	0.026791886165142637
225	0x3f9ca93ccd72a268	0.027989339866197588
226	0x3fc192849e6e6b3e	0.13728387580780493
227	0xbfb82879f1f19300	-0.09436762005641341
228	0x3fc65bf05f96a210	0.17468075435068942
229	0xbfa3512a219a76b0	-0.03772861156651908
230	0x3fc2f52bde08c91c	0.14810703603286235
231	0x3fc0ac1cb545c0c8	0.1302524457091805
232	0xbfc292e2a8bf5f21	-0.14510758628488765
233	0x3fa2da1cee9ba430	0.036820320250463445
234	0xbfb3fe834bff70be	-0.07810230832496054
235	0xbf90322741f00530	-0.01581631984664006
236	0xbfc4fb3562e6370e	-0.1639162762552861
237	0xbfbab7b1b99c7ccb	-0.10436545163655635
238	0x3fabea54a0f9de58	0.05452217545547161
239	0x3fba6d4d88c30ba8	0.10323032940782062
240	0xbfa6a397ccfe02d4	-0.044216865323510796
241	0xbfad190fb15e2ccc	-0.056831827546454855
242	0xbfbe81f019e84cd6	-0.11917019493585043
243	0x3fa2548609dd2e00	0.035801113800143725
244	0xbf7c43acc0889ba0	-0.006900477230863539
245	0xbf9a05ce6e8cafe0	-0.02541277456036528
246	0xbfbd10dfd6dda2c2	-0.11353873248811922
247	0x3fbfd064a95d98ec	0.12427357802298261
248	0x3fbe14578ea7b8a8	0.1174978945998385
249	0xbfc18879964d326c	-0.1369773849386492
250	0xbfa823f8c23374f0	-0.04714944239251817
251	0xbfb21e836376ef85	-0.07077809503874562
252	0xbfa826775725c6c8	-0.04716847361386339
253	0xbfa401a169e00144	-0.039074939893910116
254	0xbf93095637bcac18	-0.018590304519573747
255	0x3fa56ec021bfd3c0	0.041860584373274445

model.hidden1.bias f8 [28]
0	0x3fb4a932cffa881c	0.08070676400760174
1	0xbfc6d4553ab56dcd	-0.17835488669048374
2	0x3fba4e0705212da0	0.10275310397371706
3	0x3fba95ada4654d54	0.10384640945021789
4	0xbfbb2d9219f71d72	-0.1061641038314656
5	0xbfc696ecf6a81574	-0.17648088496950332
6	0xbfc06bb981405e49	-0.12828749476533322
7	0xbfba6568c2d605ed	-0.10310988194216693
8	0x3fb2d99bfae2894c	0.07363295436019718
9	0xbfbae2c4ca4d7b4d	-0.10502271594076014
10	0x3fb40c51b1331090	0.0783129747024438
11	0xbfafa9b1c8841174	-0.06184154102996589
12	0x3fc4c30a3de7d558	0.16220214865431148
13	0x3fb8c9b867b13dc8	0.09682800799895752
14	0x3fbca6f009bfc52c	0.11192226636901087
15	0x3fab27110c7966ac	0.053032429478390014
16	0xbfa88828550b11d4	-0.04791379964948175
17	0xbfb06f1b70c8fa0e	-0.06419536117116584
18	0x3fb1cda58d067758	0.06954416935920216
19	0x3faa2bee088a1b38	0.05111640791169808
20	0xbf8363aff589e180	-0.0094674822623666
21	0x3fbef5e13d62a548	0.1209393286577739
22	0xbfaf6fe1f5460744	-0.06140047186910505
23	0xbfc78c18b3b77a0b	-0.18396290564756188
24	0x3fbad2491c9af88c	0.10477120350239683
25	0xbfc7e995bba4d6a9	-0.1868159452657683
26	0x3fb780f74feb75a0	0.09181161595502951
27	0x3fbd0ce596f83f44	0.11347804008277956

model.hidden2.weight f8 [28, 28]
0	0x3fb7359671bdff6c	0.09066143299969348
1	0xbfb4fe64eedf1cc6	-0.08200674850296527
2	0x3fae16e6b38be9ac	0.05876847211580424
3	0xbfc23f6796917203	-0.1425599560924554
4	0xbfbf7d1e115c51bf	-0.12300289081424064
5	0xbfc77e24a4ae2f31	-0.18353708306346442
6	0xbfc4feaf6df711c6	-0.16402237767591837
7	0xbfb1046691b67247	-0.06647339875639445
8	0xbfb4dfd21f463d42	-0.08154023421797255
9	0x3fc7df94a66097b6	0.18651064037220316
10	0xbfac82ed525f2320	-0.055686394028788166
11	0x3fc0e21807f1e6bc	0.13189983737884414
12	0x3fb5af601b398688	0.08470726647058247
13	0x3fb358be3043f854	0.0755728595576966
14	0x3fc3e4a7dabda35a	0.1554155176229653
15	0x3f93698431cba848	0.018957200564649918
16	0xbf96282b31e5cf28	-0.021637606544984284
17	0x3fade65ea0d34cec	0.05839820588303177
18	0xbfc54a8f7705e4aa	-0.16633790313406865
19	0xbf97734d66f88cd0	-0.022900781068653953
20	0x3fc53d64f3920b76	0.16593610661592678
21	0x3f9ad17df954ee08	0.026189773886683226
22	0x3fc7c61847384008	0.185732874655969
23	0xbfab696c2975caf8	-0.0535386849031933
24	0x3f8ccdd744264760	0.014064485327967169
25	0x3fbe3d4c9bad8ebc	0.11812285233241487
26	0xbfb10e752cb0d5ab	-0.06662685719569221
27	0xbfc450641d8afa3f	-0.15870334093593105
28	0xbfaf6d081370c530	-0.061378719685658445
29	0xbf7f722cdc07ea40	-0.007677245361714713
30	0xbfc791527d9ff09a	-0.18412238248845797
31	0xbfc70ca1dbe98f79	-0.18007300603778356
32	0x3fbf9f041398b988	0.12352014044220117
33	0x3f9cee781abd80c8	0.0282534376450492
34	0xbfb8c311f36c232e	-0.0967265338223455
35	0x3fc3f86bbfd76778	0.15601870410210572
36	0x3fc56bb85dfcbdd4	0.1673498591348862
37	0x3fc1ccdebc7ca218	0.13906463817080872
38	0x3fb3b6b18e0391c0	0.07700643269669794
39	0xbfc15e53c61268ad	-0.13569113894920318
40	0xbfc00ca4a6b739fa	-0.12538583889404703
41	0xbfa7ca0a942647fc	-0.04646332796541228
42	0xbfb1176bc07cb5eb	-0.0667636246623357
43	0x3fa48607604ad5e8	0.04008505869334639
44	0x3fae407fa0203748	0.059085834786044844
45	0x3fbf4a6a7520b51c	0.12222924575390376
46	0xbfbb8be5e29ccfba	-0.1076034239056857
47	0x3fbe95b92f60338c	0.11947209746013082
48	0xbf969752cec13fb8	-0.02206162821704513
49	0xbfb406b4dc396593	-0.07822733284537824
50	0xbfa0df0a07d82f64	-0.03295165391690949
51	0x3fbda33c188d61c4	0.11577201461239556
52	0x3f985e3eb445cf20	0.02379701590821448
53	0x3fb98128ee293610	0.09962707342602806
54	0x3fbf1ac8fbdaf2ac	0.12150245808420362
55	0x3f9c0a454b7ddee8	0.027382929546972884
56	0xbfb721beb78aeb6b	-0.09035865765592425
57	0x3fc70da7867eb778	0.18010419909608877
58	0xbfc1626a11f4f249	-0.13581586720273922
59	0x3fab762d327900fc	0.053635990534987216
60	0x3fa10c2f0689e080	0.03329607920471833
61	0xbfa7083040f11450	-0.0449843482279354
62	0xbfb3a0a0cabb01cb	-0.07666974019503596
63	0x3fb482ab27f1f7e8	0.08011884427284566
64	0x3fc1d470a9206768	0.13929565675862965
65	0xbfb3d509e2f7c065	-0.07746946135716966
66	0xbfbf57b64cb01593	-0.12243213054906325
67	0x3fc3d14656c9c95e	0.15482405889231193
68	0xbf9146767614cac8	-0.01687035651884619
69	0x3fb7ed441444f030	0.09346414084296906
70	0x3fc701c51431fba6	0.1797415112123108
71	0xbfbdf672b56d057a	-0.11704174928038028
72	0x3fa23a117621c8c8	0.03559927527466439
73	0x3fc5693d72d81ac0	0.16727417094826613
74	0x3f50333febac8f80	0.000988781378233633
75	0xbfc0bf18e06c8064	-0.1308318229503157
76	0xbfab3ff124ac43ec	-0.05322221348445297
77	0xbfc1e1269a265d26	-0.13968355681274963
78	0x3fbfd1c88c29a754	0.12429479047719144
79	0x3fc26b559915315e	0.14390058493371333
80	0x3fb78922af7393e0	0.09193627150996475
81	0x3fa3ae4add462c38	0.038439120779991176
82	0x3fb0eb9b82cdb950	0.06609508460471614
83	0x3fc0eb8800623314	0.1321878435013778
84	0x3fb20a0ca89a43b8	0.07046584240221321
85	0xbfaca0502cde0558	-0.05591059253402858
86	0x3fc571a79d2907b2	0.16753096746293533
87	0xbfc3fda342e4bd9c	-0.15617790952954358
88	0xbfc365a55b967383	-0.1515394875722472
89	0xbfc3e7ae60497b90	-0.1555078478004046
90	0xbfbff5098d28b6d7	-0.1248327226282656
91	0xbfb1d6ec6ad5541d	-0.06968572242961142
92	0x3fa063c4910121d4	0.03201116819451824
93	0xbfc47af81e3267ee	-0.16000272249658515
94	0xbfc07d6c19da1848	-0.12882758390714089
95	0xbfbe58b4f08f0409	-0.11854105828298613
96	0xbfc32489dfe6ef79	-0.14955256874770465
97	0x3fc25b3cb6fcac4c	0.1434093373767119
98	0x3f71ee3ae238df60	0.004377584471107671
99	0xbfb6e3465a296d6d	-0.08940543843475775
100	0xbf90ce06a4671410	-0.01641092661317961
101	0xbfa9fef958040f98	-0.050773422235607046
102	0xbfbe7663b60f8878	-0.11899398035851216
103	0xbfc2b7677cf3af94	-0.14622205353896034
104	0x3fba4703f60bffdc	0.1026461101246236
105	0x3fc79d591795335c	0.18448938037399898
106	0xbfa5ffb9675d2714	-0.04296664606824954
107	0x3fac807bfb914094	0.055667757471952545
108	0x3fc1a2c0d384a216	0.13777933433563366
109	0x3fc1e57f777b9f9c	0.13981622060896093
110	0xbfc10d7d2caed2bb	-0.13322415048391698
111	0xbfc4fa0bf065ae01	-0.16388081777709831
112	0x3fc3b930bab1ca94	0.1540890609354234
113	0xbf99c97ade915068	-0.025182647547197595
114	0x3fc392c3fe5318da	0.15291643064683208
115	0x3fb71b055ba96ef4	0.09025605666959874
116	0xbfb4a62cf2623e0d	-0.08066063802311181
117	0x3f95bfeb6b1ece30	0.02123992768583899
118	0x3fb4a350ce3ca0d4	0.08061699900702318
119	0x3fc0242144dac320	0.12610259878194885
120	0x3f92de314944f4b0	0.01842572221470523
121	0xbf9df2d717c67c38	-0.029246674371844444
122	0x3f8e50d9c3e6db60	0.014802647868106866
123	0x3fbc510081b2b014	0.11061099211173114
124	0x3fc02d1670b26e46	0.12637596609862295
125	0xbfa39da77ab1d038	-0.03831218121277441
126	0xbf9f5eb26a568e98	-0.030634677639354096
127	0xbfc42794b3237075	-0.15745791193956263
128	0xbfc585b91439e3d7	-0.16814340102771894
129	0x3fc74177b16e1d68	0.18168541110592717
130	0x3fb1427fbd858a38	0.06742094399445697
131	0xbfbb83b7c89d5892	-0.10747860572641546
132	0xbfa7a71ce73b91f4	-0.046196845270774306
133	0xbfbebb917accdb39	-0.12004956481983421
134	0x3fa63dda721fbe14	0.04344065325846827
135	0x3fb5d9c255200038	0.08535399034735824
136	0x3f51b8c26671ce80	0.0010816477240752909
137	0xbfc37b6db3ed1009	-0.1522042397065209
138	0xbfa6d7ea8a21044c	-0.04461605964798618
139	0x3f9d59bf7c6ca060	0.0286626739208774
140	0x3f8d1efe75f24540	0.014219272589147125
141	0x3f9f5a4587d4efa0	0.030617796340478898
142	0x3fbc96910f18a40c	0.11167246454773777
143	0xbfc555a0b17411f1	-0.16667565026013123
144	0xbfb4b8625c89ad33	-0.0809384799883233
145	0x3fb6b8ce97c49f58	0.08875743108057799
146	0x3f84f60b43dc3a30	0.010234916695052027
147	0x3fc0f51551659326	0.13247934793903332
148	0xbf86a8d3624dc110	-0.01106419700383346
149	0x3fb284b8bb189fbc	0.0723376709726144
150	0x3fb0545bcf93ea3c	0.06378721063439569
151	0xbfc4692c09a28903	-0.15945959539846663
152	0x3fc4e748bc0e676a	0.16330823118624532
153	0xbfb41b9df0898f5e	-0.07854640123838183
154	0xbfbf10a6741ef16b	-0.12134781203252991
155	0xbfba233851abee24	-0.1020999144929467
156	0x3f9f2fdad5b14da0	0.030455989163170494
157	0x3fc151a3bbb298f2	0.13530394234584936
158	0x3fbc59bca2d3d928	0.11074427581101942
159	0x3fa66780816bfb00	0.04375840740066472
160	0xbfb0103f2120ea4e	-0.06274790343096834
161	0xbfc4fd462c5bef75	-0.16397931257221968
162	0xbfb7ffed9e0d0996	-0.09374890431084845
163	0xbfb385781b28a7ea	-0.07625532782608926
164	0xbfc5dbad9efe1d16	-0.17076654685318066
165	0xbfc0ef7bdc2a5a42	-0.13230846643701183
166	0xbfc2dc05318e6fb4	-0.14733948631044103
167	0xbfbed9839343f353	-0.1205064997229333
168	0x3fc70446443cf238	0.17981794673859652
169	0x3fa90c9ab13d2b5c	0.04892428792535128
170	0x3fba8dcaa733b800	0.10372606832581255
171	0xbfb4746f5e5a526b	-0.0799016576150479
172	0xbfc3fecf82b648af	-0.15621370203422688
173	0xbfc3a7fe8e67059f	-0.15356428101771954
174	0x3fa523bc402e0b30	0.041288264116721485
175	0xbfaf86542fbd0500	-0.06157172281974432
176	0x3fabed8e7c1c13b4	0.054546787881953135
177	0xbfbeeb027a6adeec	-0.12077346314151399
178	0xbfaea27febf7dfe8	-0.0598335242793267
179	0xbfb85f40ac37a181	-0.09520343975566982
180	0x3fc0dfd374498202	0.13183062723238953
181	0xbfc3e51bfc728828	-0.1554293615964195
182	0x3fbcd2af5cc6f7b0	0.11258979811733982
183	0xbfc3fff5d94610e1	-0.15624878987376348
184	0x3fc5bb7b2da4237a	0.169783971105314
185	0x3fc7fe764085ddfa	0.1874530615857422
186	0x3fb95a0072114e98	0.09902956757405901
187	0xbfa3062e2cd13494	-0.03715652749142709
188	0x3fab41f01ee992f8	0.05323744180058115
189	0xbfc79698cd5a6237	-0.18428335215573252
190	0xbfbc394aa1f1ce95	-0.11024919942593166
191	0x3fb22d7bb550a0a0	0.0710065190947966
192	0xbfaa185f6daf80dc	-0.0509671994584566
193	0xbfc09edfa6f6c016	-0.12984843876392976
194	0xbfa0e8d7680800c4	-0.03302643914139616
195	0xbfb7bbf265c47acd	-0.09271159157331539
196	0xbfba6e3db4c29c3f	-0.10324464476671923
197	0x3f84552e53f5c960	0.009928094804057153
198	0xbf91c675f8d13208	-0.01735863047751887
199	0x3fc597464ba329a4	0.16867903416853125
200	0x3fb4a840d6e89e44	0.08069234129708841
201	0x3fc0952140223468	0.12955108291172057
202	0xbfc4a76f499706b5	-0.16135970204600417
203	0x3fb0f3e25c1a7af0	0.06622137783640958
204	0xbfb1b12cde1bd359	-0.06910972998214272
205	0x3fb143bf130047f0	0.0674399777783774
206	0xbfb4bba23b74170d	-0.08098806334973237
207	0x3fc541f86e9e748c	0.16607575799290364
208	0xbfb6a7f6aab7e576	-0.0885004202645144
209	0xbfa8a22fd6897c60	-0.048112387598614914
210	0xbfb6492e937cba5e	-0.08705416775476624
211	0xbfbda29a165a787e	-0.11576235814797717
212	0xbfb83be42cd53d00	-0.0946638688521837
213	0x3fc607899a032cf2	0.17210502643715803
214	0xbfad1a5775480ce0	-0.05684159571321756
215	0xbfc12a1f17afd684	-0.13409794479928305
216	0xbfc4f33aee15e7a7	-0.1636727964904001
217	0x3fc5e1192f96af76	0.1709319574705394
218	0x3fc82d16c90304b8	0.18887600722340436
219	0x3fb0b558281e59b8	0.06526709536988207
220	0xbfc55f885028a040	-0.1669779197120551
221	0x3fbc2785473e2b00	0.10997803677870976
222	0x3fa4be0915fa3834	0.04051235574034742
223	0xbfb2bf24b7679691	-0.07322911718037008
224	0xbf9863aa5f290688	-0.023817693765755737
225	0xbfc4b82d66bc5a6a	-0.16187064663309353
226	0x3fc6e340f3a50158	0.17881023308474187
227	0x3f84c7f13b2c7910	0.010146984690035526
228	0x3fb553c38fe19df4	0.08330938589789821
229	0x3fc451aef658166a	0.15874278095741384
230	0xbfc60b8e9445a5c2	-0.17222769012304978
231	0xbfc13ab7ef9663b0	-0.1346044463978422
232	0x3fbe5783cbc3f664	0.11852287029975056
233	0x3fab7595f5527cf4	0.05363148326545711
234	0xbfc3f2a51509d317	-0.1558424332357837
235	0x3f9f46fa4204fdb0	0.030544195441732647
236	0x3fc175f127abbe0a	0.13641180455259444
237	0x3fb2dcffaa6268b8	0.07368467244887966
238	0xbfadb899df016250	-0.05804901931032147
239	0x3fc7961cdbbb0016	0.18426857689883097
240	0x3f3d366cf15d5000	0.00044574889885962143
241	0xbfb295d2afbccbb9	-0.07259861746278674
242	0x3fc68c65d2425afc	0.17615959898531475
243	0xbf77f766762ecb80	-0.005851173630548767
244	0x3fc40631046098e8	0.15643894876229258
245	0x3fc5eae47de9d7ba	0.17123085163228585
246	0xbfb73bb308432343	-0.09075468970980886
247	0x3faa3d897362fe14	0.05125073941735195
248	0x3fad76023f059128	0.05754096049602914
249	0x3fc0ec0064e49c40	0.13220219541946854
250	0x3fc6d455cc73854e	0.1783549545571454
251	0xbfbb5a01413ed678	-0.10684211581141223
252	0xbfc37b221adc453f	-0.1521952277330829
253	0x3fa62291e28f7998	0.043232497125916314
254	0x3fa8e15898da0dec	0.04859425416818994
255	0x3fb4e20b0dc07f1c	0.08157414518109046

model.hidden2.bias f8 [28]
0	0xbfb31a331381c69a	-0.07461852289432117
1	0xbfa73895dff96d6c	-0.045353587713829
2	0x3fc766c5d708ee74	0.1828238773322145
3	0xbf9555e91ddfe3f0	-0.020835535477065237
4	0xbfb68413b7be1ad3	-0.08795283542540781
5	0x3fbd638a9d133278	0.11480013213003726
6	0xbf948db1e07ec920	-0.0200717728873282
7	0xbfb746cfaf11384b	-0.09092424415686755
8	0x3f87b63dcf0b2600	0.011578066712348623
9	0xbfc4bf28236b9238	-0.1620836422872729
10	0x3fb12c11cf5608e0	0.06707869827190249
11	0xbfb92a04bc8e9c74	-0.09829740146106919
12	0x3fc10122d9a2297a	0.13284717203744006
13	0x3fc79cb3ce4b1c6c	0.18446967671318093
14	0xbfc37adfcf34c99a	-0.1521873246907262
15	0xbfc75474aa94082b	-0.1822648842717752
16	0x3fc4081fff203d3e	0.15649795491524715
17	0x3f71c2e9693f1ee0	0.004336272966561444
18	0x3fbc490b2cd0a49c	0.11048955768696306
19	0xbfc6a8278fa73fbf	-0.17700666918108074
20	0xbfc166fec045578b	-0.13595566166139536
21	0xbfb591820e71bae5	-0.0842515263809492
22	0xbf85ec79af411e20	-0.01070494714816933
23	0x3fc5e37e82cf2a74	0.1710050715176582
24	0x3fc583920f094376	0.16807771429241897
25	0x3fb5d82ce1f4a198	0.08532982365125574
26	0x3fa60e29d11f3c18	0.04307680776366157
27	0xbfb1873d18ef6914	-0.06846982821244679

model.hidden3.weight f8 [28, 28]
0	0xbf81c358d45f69e0	-0.008673376065350291
1	0xbfc0264eeb6755fe	-0.1261690759117044
2	0xbfc030e9b83b391b	-0.12649270530386833
3	0xbfa929ba3ac16ea4	-0.0491464802477968
4	0xbfc44d0a1e6c72c8	-0.15860105977562555
5	0xbfb5ba880a933f21	-0.08487749345954089
6	0x3fbfde89d493d714	0.12448941650276552
7	0xbfc2c4a9110f4ba4	-0.14662659962649827
8	0x3fb7883cd1ee944c	0.09192257046977764
9	0x3fc223fcddb16998	0.1417232592091977
10	0xbfc8124b2192a4d6	-0.18805827273653247
11	0x3fc3fbe7700b85be	0.1561250016302846
12	0x3fbf98e217051438	0.12342656194694335
13	0xbfa2ea81e69c5f78	-0.036945399666534706
14	0xbfbd0ad4d4229983	-0.11344652346688204
15	0x3fc609eb163d0036	0.1721776827416776
16	0xbfb6ea071575f40a	-0.08950847886985983
17	0x3fb8a40b62ab489c	0.09625312003052716
18	0xbfc3ec13d78f4696	-0.15564201379179526
19	0xbf913890919abf10	-0.01681733978938299
20	0xbfa8275d7c1fe484	-0.047175332452703805
21	0xbfb3f3de3a750d3b	-0.07793988158396285
22	0x3fc1e68a5e7b1fb6	0.13984803784683003
23	0xbf86ca078e93af10	-0.011127528227425937
24	0x3fb6a8a1958facec	0.08851060773274683
25	0x3fbe06ca5c21fe28	0.11729111432395511
26	0x3fc1a8e8ba9f87be	0.13796719658335904
27	0x3fbb5439c4445438	0.1067539314429532
28	0xbf959c4d096a6aa0	-0.021104053210914686
29	0x3fc3bb3a71fc69d8	0.1541512543270318
30	0x3fc2fe601d715834	0.14838792264589673
31	0x3fbdc5576acceb28	0.11629244191582855
32	0xbfbfb5e6a9bcd84a	-0.12386933940874303
33	0xbf6bf7567c321d40	-0.0034138383067020828
34	0x3f7589a88d82bc40	0.005258234414369289
35	0xbfaef450b9e95ea8	-0.06045772809437483
36	0xbfa619d49863c7dc	-0.04316582069613137
37	0xbfc4ec80a9fb6f7c	-0.16346748638067854
38	0x3fc2ef39e2d01630	0.14792560171933777
39	0x3fc6bdfca0045f32	0.17767293752035013
40	0xbfbf6f2e61e21487	-0.12279024018978833
41	0xbfc4918f7dfd2cb2	-0.16069215442471357
42	0xbf93a6324d2b8db8	-0.019188676796046272
43	0xbfba9c373f63d964	-0.1039461641083555
44	0xbfc77d1fce79d287	-0.18350598890141986
45	0x3fc376aea5c36abe	0.15205939382470562
46	0xbfa06577ae11596c	-0.032024135588175934
47	0xbfc6df273e3e7c50	-0.17868509806882793
48	0x3fb17cea64c08324	0.0683123107887807
49	0xbfbe4fb3519d182a	-0.11840363256951095
50	0x3fc1b90676468692	0.13845902228517964
51	0x3fb3d14a393a5b2c	0.07741226098219717
52	0xbfc6e426e532a2d4	-0.17883764449404416
53	0x3f596460b9dfb500	0.0015498108473324668
54	0xbf9ff7e64783bbe8	-0.03121909915438073
55	0x3fc5730de2c3b3d2	0.16757367680057073
56	0xbfbcfe8427d3e8ef	-0.11325860950811138
57	0x3fb3b8f77ad87854	0.0770411181369764
58	0x3f1c225d3c937800	0.00010732359000395486
59	0x3fa340d952716334	0.03760413295157719
60	0xbf6eb02061926940	-0.0037460930294176686
61	0x3f9d0b8cf335e8b8	0.028364374489208116
62	0xbf88630a72e42da0	-0.01190765536423194
63	0x3fb2cf99ccbd7cbc	0.07348023651637708
64	0x3fa301807ec7b908	0.03712083385095083
65	0xbfc202356dcdab74	-0.14069240437978758
66	0xbf9af8cc4df8d208	-0.026339714297323652
67	0xbfa6da11b7e70990	-0.04463248605636061
68	0xbfb183d2a98058ac	-0.06841770780769946
69	0xbfa72e914ebc9f64	-0.045277157651354455
70	0x3fc3285d26305a40	0.1496693073720099
71	0x3fae938e620b165c	0.05971951433961628
72	0x3fc416363d7bb630	0.15692785265075448
73	0x3fb014f7d1ad6fb4	0.06281994694785348
74	0x3fb1d1a68ab8f4b8	0.06960526358394048
75	0x3fbd88421999a780	0.11536038517956904
76	0x3fbb1c374ed26bf4	0.10589929270138027
77	0x3fb34c0fb93e8098	0.07537935516893624
78	0x3fb2df2a4b0663b8	0.07371773082412758
79	0xbfae737f363f3e20	-0.059474921581223805
80	0xbf9de966b2084f48	-0.029210667244185445
81	0xbfc73c5adabd58e7	-0.1815293853821409
82	0xbfc630868fe6d8d6	-0.17335588480427216
83	0x3fb80b7e4a9957e0	0.09392537423386171
84	0x3fa8c58e49af024c	0.04838223123033866
85	0xbfc4359ef279f800	-0.15788637962026542
86	0xbfc144f778abcb57	-0.13491719619886552
87	0xbfb4ea26c1e6136a	-0.08169786676269344
88	0xbfa658958f007308	-0.043644593912381124
89	0x3fc792a0d6ee633e	0.18416223997771825
90	0xbfbd184c7c816505	-0.11365201987918645
91	0x3fc30cb76fe20ec8	0.14882557833708732
92	0xbfc49ae020333cff	-0.16097642490647243
93	0xbfb3f8455793054c	-0.07800706279797004
94	0xbf9bd278c62e6790	-0.027170073600792544
95	0xbf98bace0c39ea40	-0.02415010404227247
96	0xbfbffb6afe822f41	-0.12493008340441937
97	0x3fc4c3aa59a3113a	0.16222123505407088
98	0xbfb9cadb271e03e2	-0.10075158791552455
99	0xbfa935ac831fbc64	-0.04923762417444591
100	0x3fc6e54d0d9dc3bc	0.17887271084648926
101	0x3fc08303d5a39a0c	0.1289982598456877
102	0xbfc669ab75263405	-0.17509978504350002
103	0xbfb22e4915c54d6f	-0.07101876050483268
104	0x3fc4140bab7b9396	0.15686174271754955
105	0x3fc3c36ee3aa4082	0.15440164677102436
106	0xbf9c678aa90e8538	-0.027738730019000374
107	0x3fb6928774ee309c	0.08817335705515678
108	0xbfb49975588d32fe	-0.08046658908751778
109	0x3fb0b3680d627100	0.06523752524157445
110	0xbfc60524d29b6646	-0.17203197749658922
111	0xbf9f3241ce897840	-0.030465152960793995
112	0x3fc514613374b0ee	0.164684438824572
113	0xbfaf842089d8b930	-0.06155492479989488
114	0x3fbc8cdbe8ea2204	0.11152433811560775
115	0x3fc5bc21daf26c6c	0.16980384054918163
116	0x3fc5323fa89f8f38	0.1655959676128249
117	0x3f96d1e93fd21db0	0.02228512241393127
118	0x3fc07d5cd15e03e0	0.12882576201448526
119	0x3fbd3401816f2d2c	0.1140747967721622
120	0xbfc2818761a64d1e	-0.14457790630385942
121	0x3fad546b0f7b5384	0.05728468479143259
122	0x3fbd15e2ffe40c80	0.11361521479925507
123	0x3fa23319c8ef0ff8	0.03554611757093079
124	0x3f6afc6ec03a5700	0.003294197378475583
125	0xbfac835db7e798b4	-0.05568974370889759
126	0x3fc6d77acbf8bc8e	0.17845091781189065
127	0x3fc1bf715dab6b46	0.13865487168990337
128	0xbfa18a5531bd851c	-0.03425852043324992
129	0xbfc4947bcda66b87	-0.1607813600683949
130	0xbfc6a58b6e83015d	-0.17692702194291146
131	0xbf9f63d686b149c0	-0.030654289217929565
132	0xbfc4d4e80c8de50f	-0.1627473889637163
133	0xbfb9c5ac003449bc	-0.10067248349176955
134	0x3fc6fb31ab293086	0.17954083306756646
135	0x3f8f33050ec6ca60	0.015234031213229915
136	0xbf9c5eca81952870	-0.02770534912023276
137	0xbfb5c014c0f88ee0	-0.08496217452244137
138	0x3fb3ff81c5847b34	0.07811747619824133
139	0xbf911a91f36125f0	-0.0167029194638299
140	0xbf6e61cf3c094a00	-0.003708748583713062
141	0xbfbf7f084708494d	-0.12303210958660778
142	0xbfc13cba1ad90b1d	-0.13466574011734958
143	0xbfc0f8117a39ca19	-0.1325704428487178
144	0xbf4f896a337b3100	-0.0009624260482836988
145	0xbfbdb218aa41613a	-0.1159987846052716
146	0xbfc6ead9926beb34	-0.17904204987993355
147	0xbf989313aa473e48	-0.02399855353161076
148	0x3face84d7c7eb484	0.056459828803192585
149	0xbfbbed66f47e5d8d	-0.10909121960718533
150	0x3f86a32d75f255e0	0.011053424035973813
151	0x3fbab8007050a59c	0.10437014333788003
152	0x3fb9d1f27de5aae4	0.10085979055081001
153	0xbfc7db55e545885f	-0.18638108916190085
154	0xbfbd9d1df23fe655	-0.11567866482064322
155	0x3f84908ddc028870	0.01004134013811983
156	0xbf70c22830f60760	-0.0040914125414718006
157	0xbf91bcdb5fd3bf30	-0.017321994518112394
158	0xbfc384cf393ba480	-0.1524905232866196
159	0x3f9d785becb4bac8	0.028779445955644772
160	0xbfbd822a9230de1f	-0.11526743001092442
161	0x3fbd8276d56d81d4	0.11527197561873176
162	0x3fb590fff7a49118	0.08424377246825931
163	0xbfb97866175482fa	-0.09949338979323477
164	0x3fb3b78e396bbdf4	0.07701958562733308
165	0x3fb5ef69b26d8470	0.08568440061709892
166	0x3fa5fa7654359814	0.042926500110113036
167	0x3fa7ec8eb6f82a30	0.04672666533959491
168	0xbfc50479fac7058d	-0.1641991114138758
169	0xbfa8314728b60abc	-0.047250961036316735
170	0x3fb3eb15218554dc	0.0778058249319033
171	0xbf9dab86961e13d0	-0.028974631226009795
172	0x3fbb0e951b3ff26c	0.10569126048353333
173	0xbfaef8be072d89e0	-0.06049150312061946
174	0x3fbc86a56bfc0310	0.11142953764284536
175	0xbfbb44b0976e7691	-0.10651687333162331
176	0x3fba1b90652af770	0.10198309392850802
177	0x3fa4e2734e8d6ec0	0.040790179575848295
178	0x3fae130c5b510f24	0.05873907675461812
179	0xbfbe839b563ba519	-0.11919566016480977
180	0x3fc7347597e3adb8	0.18128843227837677
181	0x3fa08c9f732d0948	0.03232286721187677
182	0xbfc5bca00f5d7776	-0.16981888532876227
183	0x3fa9e4c5bd44aaec	0.05057352004435764
184	0xbfc0833681b4c4db	-0.12900430043513364
185	0x3fb00d47bd83b0f4	0.06270264031235567
186	0x3fb16014eed61eec	0.06787234145133042
187	0xbfa4e1e5dcc7d318	-0.040785964203598535
188	0xbfbc114f93f147ef	-0.10963914262654816
189	0xbfa80eacdbdc6a54	-0.04698696311807696
190	0xbf858ddaa0ac4e70	-0.010524471309998534
191	0x3fc262b40f7c7844	0.14363718753969767
192	0x3fc4a125b757b6f0	0.16116782619740588
193	0x3fb44b0a898690b8	0.07927003724631987
194	0x3fa038e0eb96a324	0.03168394924006737
195	0xbfc561f708cbbf61	-0.16705215386854902
196	0xbfa142a879f97ee0	-0.03371168602893504
197	0xbfbd7aacfaadde74	-0.11515313263032018
198	0x3fc10880af07c390	0.13307198091891026
199	0xbfa9c885c746d73c	-0.050357990813991255
200	0xbfb2fce5ee3b9245	-0.0741714197752766
201	0xbf7eedab90177c40	-0.007550878684440099
202	0xbfa96a04e329bab8	-0.049636986474856426
203	0xbfb71c3dbb2a68fd	-0.09027467555498343
204	0x3fc48d39701a8d9e	0.16055982564749355
205	0x3fc3e9caf95b99ba	0.15557229209589513
206	0x3fc62d0f81ac7c2c	0.1732501395390228
207	0xbfbba1bc878422ad	-0.10793665226459366
208	0xbf800ec32f93e1b0	-0.007840657128767997
209	0xbf9c65c9828e5d28	-0.02773203715659381
210	0xbfbda7a106a42c6e	-0.11583906566754518
211	0xbf951266bd74b888	-0.020578007997010178
212	0x3f84605b82212e50	0.009949412258854512
213	0x3faba330ccc4e44c	0.05397942065833003
214	0x3fc7b33145d1f8c4	0.18515602025212818
215	0x3f8c76eadd27c5e0	0.013898692010999747
216	0x3f8ccbcb9a85d2f0	0.014060583737526028
217	0xbfa587ba23c55d78	-0.04205114065797039
218	0x3fc399b95da424de	0.15312878677676783
219	0x3fc33a4a71c12b9e	0.1502163939897771
220	0xbfc274d57b163ff7	-0.14419048795798492
221	0x3fa11db7c2ebf62c	0.03342985395827855
222	0x3fc493ee6de29cc2	0.16076450696457384
223	0xbfbd8a677a67ac5b	-0.11539313066866567
224	0xbfc4ecfb1d279054	-0.16348208354532068
225	0x3fc004ab69212c70	0.12514250405579075
226	0xbfbe04b219367d7b	-0.11725915065334462
227	0xbfb49b2d6c184da9	-0.08049281968151568
228	0xbfb2c722c9539b1f	-0.0733510724563584
229	0xbfb1b45abba62ed7	-0.06915824013975268
230	0xbfb71aac91c99769	-0.09025076445831605
231	0x3fa904da8586d410	0.048865155028956164
232	0xbfc7823b673418df	-0.18366186656221026
233	0xbfc46171cf6f99f7	-0.15922377232273252
234	0x3fbbbcf138beb9d4	0.1083517802751211
235	0x3fc4569065f5910c	0.15889172533491835
236	0xbfc5ddf029a56f83	-0.17083551438815556
237	0x3fb691d30099e71c	0.08816260113408386
238	0x3fc57a2f472e05ae	0.16779128051352415
239	0xbfb1bc151fbad38b	-0.0692761614289578
240	0xbfc1e8d5739922e8	-0.13991802353327576
241	0xbfbd6987b46186db	-0.11489151147682312
242	0x3fb2d526be7d4990	0.07356493139858444
243	0x3fc4e941ab5071c2	0.16336842408135338
244	0x3fb7ee136f7f13fc	0.093476500244904
245	0x3fb8ef5706ebc7b4	0.09740203780145756
246	0x3fc2e2439f07e414	0.1475300337331481
247	0x3fc3ae64b4d3b4e6	0.15375956372682892
248	0x3fc58e47bd4d8422	0.16840454810429245
249	0xbfbe3d402179ab8d	-0.1181221086241477
250	0x3faf7adb38fc74a8	0.06148419447547698
251	0xbfb8098b38effe8b	-0.09389562740397588
252	0xbfb558d1587a7396	-0.0833865014087237
253	0xbfa951b7d2ae34d0	-0.049451584308465635
254	0xbfb23ecd55c45448	-0.07127078384321905
255	0x3fbb3628cadb0568	0.10629515602615458

model.hidden3.bias f8 [28]
0	0x3fadf0d5895c1a8c	0.05847804357295158
1	0xbfbd6ca6ea62336e	-0.11493914816146653
2	0x3fac1e5e8ff6ed1c	0.054919200013922004
3	0xbfb2b16cfc252783	-0.07301980167281212
4	0x3f8e1223f06779f0	0.014683037542394722
5	0x3fb991e8191fa790	0.09988260854120612
6	0xbfbb649fae3ec3b3	-0.10700414661438522
7	0xbfc29f23b624fd69	-0.14548155206464777
8	0x3fa2eec55b5fa794	0.03697792759324084
9	0x3fc40c6233e54e28	0.15662791761370554
10	0xbfc615bb04868956	-0.17253816338513656
11	0x3f83b7493a8c8030	0.009626934146183513
12	0x3fb1e8d12c946ec8	0.06995875681280517
13	0x3f89964d1cdd1210	0.012493708079667903
14	0x3fc528b73ffcaa2a	0.1653050482212433
15	0xbf7490a0a988fc40	-0.005020740115070643
16	0x3fc77981aa873ad6	0.18339558435987752
17	0x3fc65fcbd0f2e34c	0.17479846670701205
18	0x3fc729b712f55df4	0.18096054483133595
19	0x3fb865b2a23749ec	0.09530178509093162
20	0xbfc4fd47271f9c5f	-0.16397942934347307
21	0x3f8930e57bb73d70	0.012300293767934817
22	0xbfc577585f1e8c6e	-0.16770462650774526
23	0x3fac1b2a71c6900c	0.054894758595111254
24	0xbfb0309cd68edb04	-0.06324177015526905
25	0xbfb42aad45169053	-0.07877619683000718
26	0xbfc44c9ab03ff2f1	-0.15858777624079992
27	0xbfbb734ce9619c1e	-0.10722809503350603
